S-LSTM/Goal+Socail_Array_PyTorch/social_lstm/save/0/social_model_epoch_4.pth (torch, 815043 bytes, 22 tensors)

embedding_b f4 [64]
0.016039649 0.22337094 0.23833083 -0.00018699007 -0.016249716 0.027047101 -0.07601833 -0.010537622
-0.20030004 -0.010708065 0.02388537 -0.0924738 -0.19264229 -0.047062777 -0.001830691 -0.020353224
0.011613303 -2.5238382e-09 -0.1888601 -0.058691457 -0.011391877 -0.022176407 -3.6359896e-05 -0.0139915515
-0.00075439975 -1.259609e-06 0.05015516 -0.010767229 0.30696604 -0.13025004 -1.4228465e-07 0.004723354
-0.03750407 0.012546309 0.042722166 -0.0638625 0.13942301 0.0790785 -0.0020812792 -0.015512077
-0.04408574 -0.0005046703 -4.510923e-07 -1.3626382e-06 -0.011120027 0.05196126 0.034078922 0.088415176
-0.18783435 0.11585988 -0.0048787803 0.11876555 0.006240148 -0.026166614 0.033297203 -0.06507494
0.05929883 -0.003101828 -0.01368982 0.09181841 0.15943873 0.15523228 -0.056753427 0.042887308
00000000: 9565 833c 5abb 643e ff0c 743e c412 44b9
00000010: 201e 85bc e291 dd3c 80af 9bbd fda5 2cbc
00000020: 741b 4dbe e170 2fbc 40ab c33c e762 bdbd
00000030: 0544 45be e6c4 40bd ccf3 efba cebb a6bc
00000040: b945 3e3c d56f 2db1 8b64 41be 7466 70bd
00000050: ffa4 3abc 4cab b5bc 2481 18b8 d23c 65bc
00000060: e9c2 45ba d60f a9b5 7f6f 4d3d 0869 30bc
00000070: a72a 9d3e 4460 05be e8c6 18b4 5dc6 9a3b
00000080: de9d 19bd 098f 4d3c 70fd 2e3d 58ca 82bd
00000090: e8c4 0e3e e9f3 a13d 1266 08bb 5e26 7ebc
000000a0: 4093 34bd da4b 04ba a72d f2b4 e4e3 b6b5
000000b0: c630 36bc 55d5 543d 5796 0b3d 0413 b53d
000000c0: a657 40be f247 ed3d 2dde 9fbb 5a3b f33d
000000d0: 287a cc3b 5e5b d6bc a662 083d 0346 85bd
000000e0: 54e3 723d 0a48 4bbb 444b 60bc 4a0b bc3d
000000f0: e843 233e 36f5 1e3e 4876 68bd 9aaa 2f3d

output_b f4 [5]
0.039071422 -0.0006942646 -0.66022813 -0.62611765 -0.059227064
00000000: 5b09 203d 4fff 35ba b604 29bf 3f49 20bf
00000010: 1498 72bd

embedding_w.weight f4 [64, 4]
0.44314742 -0.7623036 0.054324497 0.0916815 0.07939387 1.2226532 -0.045520034 0.2498933
-0.97596043 -0.72193533 -0.06370512 0.057297762 -1.8208243e-25 4.772439e-10 8.000585e-32 -5.8824968e-05
-0.0125356205 0.03350293 0.005787416 -0.022001212 0.6331334 -0.6252178 0.24944887 0.2534369
0.4199978 0.7066977 0.14236689 -0.028357772 0.0015130233 3.1713208e-07 3.257575e-05 0.0070546716
0.48270875 0.15540881 -0.106025375 0.04086889 -0.004211415 -0.001592818 -0.004322991 -0.0013541175
-0.3854959 0.8497532 0.096812144 -0.18567632 -0.32824925 0.23192243 -0.16389067 0.032334182
0.44503307 -0.08918446 -0.45628327 0.19938414 0.9811914 -0.048749257 0.090139374 0.05463963
-4.1475766e-07 -5.5851153e-05 -1.6568858e-05 -8.91752e-05 0.0049665635 0.0022155847 0.014358714 0.004166835
0.0017087432 0.030608542 0.043126125 0.13070731 -4.6520687e-18 5.379628e-32 1.5362408e-12 -1.2339219e-33
0.3179567 -0.36330128 0.1493378 -0.15472656 0.5554771 0.30458114 -0.6224986 -0.21103361
-0.019372467 -0.0026173166 0.0016746736 -0.00037018073 0.00082942285 0.024779072 -0.02738679 -0.047138397
-6.495391e-17 1.5996596e-12 -6.1892632e-27 1.1850124e-10 -0.001042289 0.08664822 0.0019326078 0.0401972
1.0892505e-13 1.4702626e-11 3.7172487e-11 -4.6313085e-05 -2.9083053e-20 8.5710904e-20 1.5087473e-11 9.344715e-19
-0.7231965 -1.0646086 -0.025862575 -0.4024815 -0.0021028235 0.00039529358 -6.7110865e-05 -0.009304181
-1.07118 -0.7385871 -0.03632764 0.09617321 -0.05995098 -0.26271185 0.063032664 0.29155758
-5.5509e-22 1.9814814e-17 5.1666134e-20 1.1095715e-11 -0.8848897 0.188742 -0.015148114 0.1725816
-0.7370104 0.53383315 -0.11001069 -0.07294964 0.43186235 1.0866183 -0.038397208 -0.011359433
1.2495247 -0.25301954 0.05503386 0.18157546 0.84038186 0.39280295 -0.039738543 0.15785936
-0.5459407 1.0912791 -0.010105444 0.30964008 1.1120876 -0.8829111 0.18282439 -0.3905839
-4.2325518e-14 -0.000110632616 1.7274359e-19 1.4707263e-18 -0.16527575 0.64133507 0.13035905 0.04471472
1.1878229 0.15253952 0.02567929 0.13620238 6.988154e-31 1.8191585e-08 -8.820185e-26 4.2462182e-07
2.2100055e-14 1.4160966e-30 3.0819877e-18 1.4991098e-19 1.4990494e-21 -2.1773505e-10 -4.036276e-21 1.3822623e-33
0.0016438029 0.00023326433 4.3229948e-06 0.0005597544 0.0020820936 -0.019321416 0.05534906 -0.0435154
0.32043338 0.94785684 0.03516847 0.05185226 -0.48184505 0.8671251 0.020523645 0.013337815
0.50413585 0.19512866 0.06103755 0.06934602 -0.42543748 -1.0637183 -0.026855597 0.057404853
-0.0023443508 -0.00055992766 -0.0030178374 -0.0004434436 -1.1093808 0.68270016 -0.19715309 0.05256787
0.0054084603 0.0405372 0.0026715528 0.006462901 -0.002825143 0.09915685 0.069405615 0.05701092
0.28599277 -1.0737705 0.0035516173 -0.09899404 0.40102437 -0.33267942 0.16510585 -0.14188942
0.49058285 -0.6897097 -0.1116087 0.009970193 0.00046925055 -9.324985e-16 -0.00017795892 -6.4774422e-15
-0.0028670053 0.0015471682 -0.0016644568 -0.00037895082 -0.9097781 -0.8018097 -0.18449908 0.014693006
-0.35044557 -0.94701505 -0.044633042 0.090807244 0.9525603 0.6872775 0.024693707 0.06263308
-0.7421498 0.16926195 -0.0055708676 0.062447175 -1.1322131 0.77298385 -0.1807676 0.2037941
00000000: 38e4 e23e 5426 43bf 5d83 5e3d 83c3 bb3d
00000010: 4199 a23d e67f 9c3f 3773 3abd 07e4 7f3e
00000020: 8bd8 79bf c1d0 38bf d477 82bd 0fb1 6a3d
00000030: 3a68 6196 0e2f 0330 02b5 cf0b d4ba 76b8
00000040: 3462 4dbc 5e3a 093d 5da4 bd3b e33b b4bc
00000050: 0815 223f 460e 20bf 866f 7f3e 7bc2 813e
00000060: f409 d73e 24ea 343f a0c8 113e 8f4e e8bc
00000070: a350 c63a 4d42 aa34 f2a1 0838 e02a e73b
00000080: 9a25 f73e 7d23 1f3e d523 d9bd 2366 273d
00000090: e9ff 89bb 1ac6 d0ba e0a7 8dbb a57c b1ba
000000a0: b85f c5be 6d89 593f 7245 c63d ef21 3ebe
000000b0: 4910 a8be 137d 6d3e f5d2 27be d970 043d
000000c0: 60db e33e 58a6 b6bd f69d e9be 5b2b 4c3e
000000d0: 5c2f 7b3f 4dad 47bd fe9a b83d cecd 5f3d
000000e0: dcab deb4 b841 6ab8 5afd 8ab7 9203 bbb8
000000f0: 8ebe a23b 5833 113b d040 6b3c f289 883b
00000100: e8f7 df3a c4be fa3c 05a5 303d 23d8 053e
00000110: 8ca1 aba2 c3a9 8b0b e834 d82b 3c05 cd88
00000120: 38cb a23e a002 babe 02ec 183e a470 1ebe
00000130: bf33 0e3f 0ff2 9b3e 115c 1fbf 3219 58be
00000140: 02b3 9ebc 4987 2bbb b980 db3a d114 c2b9
00000150: a06d 593a 7bfd ca3c 435a e0bc 3114 41bd
00000160: 05c6 95a4 d021 e12b 962e f593 224b 022f
00000170: 6a9d 88ba 9f74 b13d 8f4f fd3a d2a5 243d
00000180: 0447 f529 5f53 812d 807c 232e 4c40 42b8
00000190: 4157 099f 1061 ca1f f8b5 842d 56e7 8921
000001a0: 6823 39bf 1845 88bf c0dd d3bc 0e12 cebe
000001b0: 86cf 09bb 683f cf39 dfbd 8cb8 9070 18bc
000001c0: 6d1c 89bf 0b14 3dbf 4bcc 14bd 76f6 c43d
000001d0: 298f 75bd 2b82 86be 4517 813d 0947 953e
000001e0: 02c4 279c 68c2 b623 86fc 731f a832 432d
000001f0: 2288 62bf 9545 413e cc2f 78bc 3bb9 303e
00000200: b7ac 3cbf 4aa9 083f 494d e1bd 9f66 95bd
00000210: 101d dd3e 4f16 8b3f 6446 1dbd ea1c 3abc
00000220: 6df0 9f3f c78b 81be 2f6b 613d ebee 393e
00000230: 4423 573f 781d c93e e2c4 22bd e2a5 213e
00000240: c5c2 0bbf 09af 8b3f 4e91 25bc 2589 9e3e
00000250: e358 8e3f 7606 62bf 5136 3b3e 9dfa c7be
00000260: 009e 3ea9 6f03 e8b8 8cf0 4b20 780a d921
00000270: 0c3e 29be 892e 243f d87c 053e c826 373d
00000280: 950a 983f 5233 1c3e 605d d23c a378 0b3e
00000290: 50c7 620d b843 9c32 9060 da95 94f7 e334
000002a0: 420f c728 5ac6 e50d 1a69 6322 d0fb 3020
000002b0: aa87 e21c f866 6faf 777c 989d f0aa e508
000002c0: df74 d73a 6b98 7439 3e0e 9136 7bbc 123a
000002d0: bc73 083b f247 9ebc b2b5 623d 343d 32bd
000002e0: d80f a43e bfa6 723f d00c 103d 0963 543d
000002f0: 65b4 f6be e9fb 5d3f 3421 a83c da86 5a3c
00000300: 0c0f 013f cfcf 473e 8302 7a3d 4905 8e3d
00000310: f1d2 d9be ec27 88bf 4500 dcbc 5a21 6b3d
00000320: aea3 19bb 1cc8 12ba e9c6 45bb fe7d e8b9
00000330: 3100 8ebf 70c5 2e3f 80e2 49be 6851 573d
00000340: 7439 b13b 560a 263d 3815 2f3b bec6 d33b
00000350: 0926 39bb bf12 cb3d 8824 8e3d 4884 693d
00000360: a56d 923e 5071 89bf 40c2 683b 63bd cabd
00000370: 1153 cd3e f554 aabe 8211 293e 764b 11be
00000380: ad2d fb3e d190 30bf 1a93 e4bd 055a 233c
00000390: be05 f639 1f63 86a6 7c9a 3ab9 dc5f e9a7
000003a0: 5ee4 3bbb 5aca ca3a e729 daba ebad c6b9
000003b0: 38e7 68bf 6743 4dbf 54ed 3cbe efba 703c
000003c0: 9a6d b3be 946f 72bf 23d1 36bd 26f9 b93d
000003d0: feda 733f 6bf1 2f3f 754a ca3c c645 803d
000003e0: 87fd 3dbf 0153 2d3e d38b b6bb 9cc8 7f3d
000003f0: 5cec 90bf 45e2 453f 241b 39be 67af 503e

embedding_w.bias f4 [64]
0.1561606 0.022943752 0.10406231 -0.00018699007 -0.016249716 -0.0019908089 -0.015403584 -0.010537622
0.1388292 -0.010708065 -0.039761182 -0.035230257 0.15400206 0.26840097 -0.001830691 -0.020353224
0.011613303 -2.5238382e-09 0.10797297 -0.010112097 -0.011391877 -0.022176407 -3.6359896e-05 -0.0139915515
-0.00075439975 -1.259609e-06 -0.10038738 -0.010767229 0.1093428 0.1594129 -1.4228465e-07 0.007555199
0.2771135 0.028975155 0.33564895 0.24898992 -0.054553106 -0.064573124 -0.0020812792 0.26327813
0.043792535 -0.0005046703 -4.510923e-07 -1.3626382e-06 -0.011120027 0.05196126 0.005681257 -0.08504917
0.05711036 0.102483995 -0.0048787803 -0.07118541 0.006240148 -0.026166614 0.018640755 -0.06507494
0.08539576 -0.003101828 -0.01368982 0.3773746 -0.11902194 -0.08036266 0.20137353 -0.20842193
00000000: 90e8 1f3e 89f4 bb3c 9f1e d53d c412 44b9
00000010: 201e 85bc 3b78 02bb 505f 7cbc fda5 2cbc
00000020: 3e29 0e3e e170 2fbc 9fdc 22bd 9a4d 10bd
00000030: b7b2 1d3e da6b 893e ccf3 efba cebb a6bc
00000040: b945 3e3c d56f 2db1 ef20 dd3d 35ad 25bc
00000050: ffa4 3abc 4cab b5bc 2481 18b8 d23c 65bc
00000060: e9c2 45ba d60f a9b5 e697 cdbd 0869 30bc
00000070: 1eef df3d 233d 233e e8c6 18b4 9a91 f73b
00000080: d2e1 8d3e 4e5d ed3c 2eda ab3e 37f7 7e3e
00000090: 1473 5fbd ea3e 84bd 1266 08bb 64cc 863e
000000a0: cd5f 333d da4b 04ba a72d f2b4 e4e3 b6b5
000000b0: c630 36bc 55d5 543d d729 ba3b 422e aebd
000000c0: 8eec 693d 21e3 d13d 2dde 9fbb a8c9 91bd
000000d0: 287a cc3b 5e5b d6bc 7fb4 983c 0346 85bd
000000e0: f9e3 ae3d 0a48 4bbb 444b 60bc 3e37 c13e
000000f0: c6c1 f3bd 2e95 a4bd dd34 4e3e 8f6c 55be

embedding_t_w.weight f4 [1, 8]
0.6020478 -0.20695424 0.075534485 -0.22132707 -0.1609666 0.08915844 -0.021362841 -0.112274416
00000000: ce1f 1a3f d0eb 53be d3b1 9a3d 90a3 62be
00000010: 6ed4 24be b398 b63d 2001 afbc 21f0 e5bd

lstm.weight_ih f4 [512, 65]
-0.036980156 -0.003993851 -0.15402512 -3.338136e-05 -2.1870505e-06 -0.0013338525 0.026189266 1.5537439e-06
-0.01802433 -1.2620333e-19 0.022755006 0.0048669456 -0.0016636152 -0.06644975 -0.015325744 3.195944e-14
0.051701788 9.093791e-09 0.014530003 -0.051335644 1.1099963e-25 2.3508004e-09 2.1634296e-08 -0.01955599
0.0011456604 -1.0712983e-05 -0.0534946 4.553293e-05 -0.16130227 0.057476714 -5.594794e-06 -0.020832574
-0.07066086 -0.0033808323 -0.10987075 -0.050114296 0.036774594 0.0072739874 -4.926727e-05 -0.034011737
-0.033536293 -8.2455e-41 1.42841e-40 1.1662031e-07 5.591319e-17 -0.01831938 0.0063152155 0.024861539
-0.0023209283 -0.08399186 -5.558788e-06 -0.018211007 -0.01235584 0.013686596 -0.00638468 0.0105905505
-0.023291966 1.1867681e-07 5.3693513e-13 -0.1774714 -0.034895614 -0.024382874 -0.055548623 0.032435857
0.024037007 -0.026232023 -0.044611502 -0.0471132 2.1187434e-05 0.0010632561 -0.0001467911 -0.016625527
8.532359e-08 -0.010822891 -4.0759967e-14 -0.015545301 -0.018410783 -0.012721407 -0.03604807 -0.0064597605
-9.57876e-30 -0.012680542 1.229062e-08 0.0035001813 -0.022335848 1.4119054e-09 7.258046e-05 1.219344e-07
-0.013912376 -1.231149e-07 -5.627441e-07 -0.0014668347 -5.6690078e-05 -0.065152764 -0.008488328 -3.212136e-05
-0.047063172 -0.05496267 -0.02414971 -0.061280563 -0.045429185 -0.031952303 -0.025741838 8.289735e-07
-0.047801446 -0.02460359 1.7993e-41 2.6843303e-05 -1.10611936e-07 -0.0038613747 -0.0022596994 -0.020817976
-0.025208173 -0.0011508795 -0.0241882 -0.00027512177 -0.056090884 0.000594032 -0.011014381 -0.012448575
0.002179924 -0.029890481 2.3971488e-06 1.7819854e-09 -0.08570189 -0.005815669 -0.030054651 -0.04382186
-0.044965167 0.00031411546 -0.01783203 -0.037928276 -0.031753764 -1.2652952e-06 -2.1419444e-05 0.007999303
-0.010609072 -2.0743553e-07 -0.012063738 -4.5368787e-13 -0.0053099706 -0.014159439 -0.009097463 -0.030685347
-0.00721029 -9.155892e-31 -0.0035934027 1.8313316e-05 0.0065459465 -0.02559203 2.0381401e-08 0.00021798283
-1.5615601e-06 -0.012963971 0.0001532543 1.1216029e-07 0.0042073797 4.882112e-06 -0.04649914 0.005456608
6.601396e-08 -0.035333525 -0.044725996 -0.020554863 -0.053513505 -0.043338876 -0.010793698 -0.015792292
8.813616e-06 -0.04118612 -0.022614477 -4.639474e-05 2.4919893e-05 -2.0698519e-07 -3.546231e-08 0.003086199
-0.013652064 -0.008598389 -0.00078535185 -0.015549474 -1.0239213e-05 -0.04109667 0.004246761 -0.009332245
-0.0068673263 0.003884052 -0.022805758 -5.0893357e-07 1.6076347e-06 -0.07096616 9.748479e-05 -0.030312277
-0.030971503 -0.026525497 0.0035334472 -0.034087747 -0.013719468 -0.061164957 -1.2866036e-05 -0.000267568
-0.0057072984 -0.008900444 -1.8599292e-05 0.0023222216 2.2427847e-07 -0.00798491 -0.0023535893 0.00015990832
-0.021118632 9.005365e-06 2.7091842e-06 0.0100193005 -3.2573448e-06 -0.00045953412 -0.021003084 1.7030138e-29
-5.1577517e-05 1.6911883e-06 0.000835442 -3.0234478e-08 3.0408199e-05 -0.0253325 2.0563368e-07 -0.07426
0.0100518335 -1.0846098e-07 -0.010040655 -0.035646867 -0.0074917166 -0.045950472 -0.018663496 -0.0025398703
-0.0232234 1.7550805e-05 -0.020724766 0.0015402632 6.4439257e-07 -7.6799915e-06 9.70714e-06 1.7979619e-05
-0.015289687 -0.0064842817 -0.005751614 0.008358074 -0.048135657 9.102612e-07 -0.016522855 -0.014582253
0.0055539105 -0.03189425 -0.0018642745 -0.034665998 5.6762093e-07 -4.7236445e-06 -0.092272475 -0.021070402
00000000: 8178 17bd dade 82bb c3b8 1dbe f602 0cb8
00000010: 3ec5 12b6 aad4 aeba df8a d63c 3c8a d035
00000020: c2a7 93bc 9efe 14a0 b568 ba3c e67a 9f3b
00000030: aa0d daba ce16 88bd d418 7bbc baee 0f29
00000040: 41c5 533d ea3a 1c32 400f 6e3c 5345 52bd
00000050: 3069 0916 b88b 2131 52d6 b932 e233 a0bc
00000060: fc29 963a e9bb 33b7 271d 5bbd 9cfa 3e38
00000070: 6c2c 25be b46c 6b3d eaba bbb6 13a9 aabc
00000080: a4b6 90bd f490 5dbb ea03 e1bd a644 4dbd
00000090: f5a0 163d a15a ee3b 54a4 4eb8 e44f 0bbd
000000a0: 5a5d 09bd dae5 0080 2f8e 0100 b270 fa33
000000b0: 52ed 8024 8612 96bc deef ce3b 6daa cb3c
000000c0: b71a 18bb ed03 acbd a085 bab6 402f 95bc
000000d0: 2670 4abc bf3d 603c 9436 d1bb fd83 2d3c
000000e0: cbce bebc 44db fe33 4122 172b 10bb 35be
000000f0: b4ee 0ebd 98be c7bc f486 63bd 76db 043d
00000100: 42e9 c43c 8ae4 d6bc 8dba 36bd c5f9 40bd
00000110: abbb b137 f45c 8b3a f0eb 19b9 4232 88bc
00000120: 243b b733 7f52 31bc 0b91 37a9 b8b1 7ebc
00000130: 36d2 96bc 736d 50bc 24a7 13bd 66ac d3bb
00000140: c447 428f 0cc2 4fbc b826 5332 4c63 653b
00000150: abf9 b6bc 010d c230 5636 9838 13ed 0234
00000160: bcf0 63bc 9131 04b4 7b0f 17b5 ce42 c0ba
00000170: 82c6 6db8 d06e 85bd a112 0bbc 0cba 06b8
00000180: 50c5 40bd 8920 61bd 9dd5 c5bc 5401 7bbd
00000190: f413 3abd 6be0 02bd 8ce0 d2bc a086 5e35
000001a0: 73cb 43bd 788d c9bc 2832 0000 8e2d e137
000001b0: 8e89 edb3 1e0f 7dbb 7717 14bb 768a aabc
000001c0: 5f81 cebc 1cd9 96ba 5526 c6bc 383e 90b9
000001d0: 8ebf 65bd d0b8 1b3a aa75 34bc 1cf5 4bbc
000001e0: 0edd 0e3b e2dc f4bc b4de 2036 0aea f430
000001f0: 7984 afbd 5e91 bebb 2c35 f6bc 8d7e 33bd
00000200: 652d 38bd ddaf a439 7a14 92bc ae5a 1bbd
00000210: 3c10 02bd 36d3 a9b5 e8ad b3b7 820f 033c
00000220: acd1 2dbc 72bb 5eb4 fca6 45bc 5067 ffaa
00000230: 43ff adbb fefc 67bc 870d 15bc d65f fbbc
00000240: 4c44 ecbb 1690 948d 4b7f 6bbb 8c9f 9937
00000250: 617f d63b 60a6 d1bc 2d13 af32 5292 6439
00000260: cc96 d1b5 d666 54bc e3b2 2039 c6dc f033
00000270: 0fde 893b 06d1 a336 e275 3ebd 58cd b23b
00000280: 8fc3 8d33 e3b9 10bd 9b32 37bd ac62 a8bc
00000290: fa30 5bbd 1b84 31bd 0dd8 30bc d65e 81bc
000002a0: 31de 1337 c7b2 28bd ff41 b9bc f997 42b8
000002b0: 100b d137 a83f 5eb4 394f 18b3 d441 4a3b
000002c0: e8ac 5fbc 42e0 0cbc 12e0 4dba 39c3 7ebc
000002d0: 16c9 2bb7 fb54 28bd 6a28 8b3b 46e6 18bc
000002e0: 4f07 e1bb 948b 7e3b 24d3 babc a69d 08b5
000002f0: e8c5 d735 b556 91bd c070 cc38 7451 f8bc
00000300: f3b7 fdbc 004c d9bc 6891 673b 989f 0bbd
00000310: 9fc7 60bc 1b88 7abd 34db 57b7 5e48 8cb9
00000320: 4a04 bbbb 2bd3 11bc ad05 9cb7 6a30 183b
00000330: 32d1 7034 24d3 02bc ad3e 1abb 10ad 2739
00000340: fb00 adbc c015 1737 6ecf 3536 fe27 243c
00000350: c298 5ab6 a0ed f0b9 a90e acbc c4b4 ac0f
00000360: f054 58b8 cafc e235 9001 5b3a 29db 01b3
00000370: 1c15 ff37 1a86 cfbc 28cc 5c34 a015 98bd
00000380: 72b0 243c 0eeb e8b3 8f81 24bc 7302 12bd
00000390: 137d f5bb 9036 3cbd 30e4 98bc f473 26bb
000003a0: 003f bebc 113a 9337 fcc6 a9bc a8e2 c93a
000003b0: 52fa 2c35 50d9 00b7 d9db 2237 f0d2 9637
000003c0: 9881 7abc 197a d4bb 0978 bcbb 4ef0 083c
000003d0: e529 45bd ac58 7435 f05a 87bc 67ea 6ebc
000003e0: 94fd b53b 8ca3 02bd ac5a f4ba effd 0dbd
000003f0: 9d5e 1835 cc7f 9eb6 5af9 bcbd d69b acbc

lstm.weight_hh f4 [512, 128]
-0.00010131579 -0.00509895 -0.005398321 0.014140119 0.019811762 -0.089199275 -0.024388706 0.030435584
-0.020998307 -0.0068207607 -0.013163035 0.002461911 0.018857658 -0.0010508237 0.0019363208 0.022122461
-0.018970218 0.014599042 0.008509726 0.057695538 0.0029786055 -0.0014094394 0.010182311 0.0012788046
-0.027175128 -0.03174688 -0.017406285 -0.00026465105 -0.024146143 0.024066687 -0.008088837 0.011932969
-0.009792886 -0.006061126 -0.019405713 0.00010657459 0.033043947 -0.0015534805 0.13166423 -0.002658602
0.01885212 0.0050698626 -0.17507644 0.04010682 0.015208425 -0.0061301067 0.01919941 -0.017974928
0.010270943 0.008666321 0.00010508981 0.017082391 0.0053020595 0.0054827738 0.012616163 0.0074406117
-0.0205817 -0.003234618 -0.0022000389 0.05457718 0.016307669 -0.0155765265 -0.0024224417 -0.012296172
0.004072399 -0.007710685 -0.0034756842 0.01159139 -0.00268026 0.0026236633 0.0067280955 0.0030656448
-0.02220179 -0.0029438937 0.004749905 -0.015728036 -0.011797443 0.003205396 0.16549718 -0.029267086
0.059413664 -0.017040396 0.024645347 0.0070950515 0.0029057257 -0.14631759 0.018137509 -0.019660618
-0.018006233 -0.010821039 0.020652581 -0.021441044 -0.04721491 -0.0037812863 -0.0066681528 -0.007832625
-0.0005127 -0.0143506 -0.008313758 0.015507716 0.011984253 -0.0049873865 -0.011070564 0.028651904
-0.0016171323 -0.014405383 0.0126667805 0.111240074 -0.047974866 0.0052666473 0.007992771 0.01787358
0.06656503 0.0072659766 0.013856361 -0.031075863 -0.018489636 -0.0031237947 0.02000363 -0.012771033
0.027340107 0.009653767 0.020815171 0.0036334018 0.020272681 -0.014566706 -0.009538535 0.0086593395
-0.01567733 -0.008177282 -0.008076558 0.012741262 0.006784413 -0.018213473 -0.0094166985 0.01147048
-0.0075736614 -0.009186085 -0.0058569647 -0.016367026 -0.003738401 0.004693116 -0.0023900438 0.008434385
-0.018036973 0.0016364171 0.0008930019 0.0013609291 0.012903436 0.0022864388 -0.0041980464 0.0054421322
-0.010696699 0.00934905 -0.0009854571 0.0035938544 -0.004785399 0.010995477 -0.0024899514 0.0022080394
-0.0036274218 -0.004840468 -0.003980768 0.0025345094 0.010462134 0.00046117767 0.036259606 -0.00706893
0.00750829 0.007248252 -0.071886465 0.0021237861 0.0045194924 -0.002033499 0.010657895 -0.013188885
-0.00010473351 0.0002937531 -0.0072074477 0.007266256 0.007788541 0.010604507 0.0075509027 -0.0021353667
-0.00925407 -0.0071969624 -0.0060234945 -0.00556506 0.008562608 0.005492946 -0.004769067 0.003149291
0.0063326657 -0.014048515 -0.0008914524 0.0050115185 -0.008586643 0.0031348413 0.0095623685 -0.0007942149
0.009499285 -0.0066505847 0.008161048 -0.013603824 0.0021787768 0.00092754397 0.061677344 -0.010320746
0.01633682 -0.010823933 0.008854791 0.0027350672 0.0083443895 -0.05537976 0.0040933033 -0.014767613
-0.007737005 -0.0048514996 0.008426093 0.0041281413 -0.009278145 -0.0035458799 0.00040345755 -0.0049397307
0.00108163 -0.006573863 0.004343881 0.0051965555 0.0036806823 -0.004625668 0.0122291 0.010845946
-0.0074792174 2.727285e-05 0.0010144238 0.029111367 -0.012067225 0.008341991 0.008050069 0.007262518
0.011387455 0.009261878 0.006361375 -0.010315074 -0.0064532096 0.002755617 0.008950501 -0.008203035
0.0032544713 0.0045450083 0.008891389 0.003980379 -0.001906968 -0.0035441886 -0.008144834 -0.0048427326
00000000: 8079 d4b8 1815 a7bb 66e4 b0bb f5ab 673c
00000010: 474c a23c 1cae b6bd d3ca c7bc 0c54 f93c
00000020: a404 acbc b080 dfbb c5a9 57bc 0358 213b
00000030: 607b 9a3c cbbb 89ba 25cc fd3a 2a3a b53c
00000040: 6e67 9bbc d230 6f3c 616c 0b3c 2852 6c3d
00000050: b534 433b f0bc b8ba b5d3 263c 909d a73a
00000060: 609e debc 0409 02bd a097 8ebc ddc0 8ab9
00000070: 22ce c5bc 8027 c53c 0b87 04bc 8082 433c
00000080: 5772 20bc 699c c6bb bbf8 9ebc cc80 df38
00000090: 1759 073d 289e cbba fdd2 063e f13b 2ebb
000000a0: c36f 9a3c 1721 a63b 3d47 33be 0d47 243d
000000b0: c22c 793c 10df c8bb 1548 9d3c 2840 93bc
000000c0: 7547 283c 2ffd 0d3c aa63 dc38 5ff0 8b3c
000000d0: e6bc ad3b d7a8 b33b 06b4 4e3c 60d0 f33b
000000e0: f49a a8bc e3fb 53bb 872e 10bb 528c 5f3d
000000f0: a997 853c b034 7fbc d4c1 1ebb e275 49bc
00000100: c271 853b eaa9 fcbb 4ec8 63bb d0e9 3d3c
00000110: 4da7 2fbb c4f1 2b3b 5b77 dc3b fce8 483b
00000120: 87e0 b5bc 57ee 40bb 17a5 9b3b 15d8 80bc
00000130: 104a 41bc 9f11 523b 1878 293e 87c1 efbc
00000140: be5b 733d 4d98 8bbc 0ae5 c93c 9b7d e83b
00000150: fd6d 3e3b 47d4 15be 1d95 943c 4e0f a1bc
00000160: cf81 93bc ba4a 31bc 9a2f a93c 21a5 afbc
00000170: 6c64 41bd 75cf 77bb 8580 dabb 6954 00bc
00000180: b766 06ba c71e 6bbc 6e36 08bc 1314 7e3c
00000190: 9a59 443c 3b6d a3bb 5061 35bc 66b7 ea3c
000001a0: f5f5 d3ba 8e04 6cbc 5488 4f3c d6d1 e33d
000001b0: 4b81 44bd d793 ac3b 1df4 023c 9d6b 923c
000001c0: 3f53 883d 6e17 ee3b ca05 633c cf92 febc
000001d0: 9477 97bc 94b8 4cbb a7de a33c 983d 51bc
000001e0: 5cf8 df3c d52a 1e3c 9484 aa3c 5e1e 6e3b
000001f0: e512 a63c 31a9 6ebc 8447 1cbc e7df 0d3c
00000200: be6d 80bc 02fa 05bc 8a53 04bc bac0 503c
00000210: c84f de3b 6c34 95bc 7f48 1abc aeee 3b3c
00000220: 7a2c f8bb 3c81 16bc c8eb bfbb 2414 86bc
00000230: f6ff 74bb b6c8 993b 48a2 1cbb 6030 0a3c
00000240: 46c2 93bc 0c7d d63a 5818 6a3a 3461 b23a
00000250: ef68 533c 14d8 153b c48f 89bb ea53 b23b
00000260: 3541 2fbc c22c 193c 742a 81ba df86 6b3b
00000270: d6ce 9cbb 6026 343c 742e 23bb c1b4 103b
00000280: 0aba 6dbb ca9c 9ebb 1a71 82bb 031a 263b
00000290: 5f69 2b3c 38ca f139 f484 143d 7ca2 e7bb
000002a0: 1a08 f63b bf82 ed3b 3639 93bd 382f 0b3b
000002b0: 4018 943b 7444 05bb 749e 2e3c 3116 58bc
000002c0: 60a4 dbb8 e002 9a39 742c ecbb c619 ee3b
000002d0: 0437 ff3b 87be 2d3c 906d f73b 82f1 0bbb
000002e0: 629e 17bc 7fd4 ebbb bc60 c5bb 1b5b b6bb
000002f0: 2e4a 0c3c 2cfe b33b d545 9cbb 5664 4e3b
00000300: 4082 cf3b be2b 66bc 5cb0 69ba aa37 a43b
00000310: feae 0cbc e971 4d3b 7bab 1c3c dc32 50ba
00000320: e4a2 1b3c 26ed d9bb ebb5 053c 93e2 5ebc
00000330: cfc9 0e3b 6c26 733a 62a1 7c3d 5918 29bc
00000340: cbd4 853c de56 31bc af13 113c d03e 333b
00000350: e8b6 083c e3d5 62bd 1e21 863b dcf3 71bc
00000360: b486 fdbb 54f9 9ebb 980d 0a3c 5c45 873b
00000370: 5c03 18bc fe61 68bb 2887 d339 77dd a1bb
00000380: 7bc5 8d3a 8f69 d7bb 1d57 8e3b de47 aa3b
00000390: 9a37 713b ea92 97bb 905c 483c 32b3 313c
000003a0: 3914 f5bb 00c8 e437 6af6 843a f67a ee3c
000003b0: 9cb5 45bc d9ac 083c 70e4 033c 6bfa ed3b
000003c0: 7392 3a3c 22bf 173c 1573 d03b 8e00 29bc
000003d0: 7275 d3bb 9597 343b 1fa5 123c 0666 06bc
000003e0: f848 553b 4bee 943b 30ad 113c d76d 823b
000003f0: 3af3 f9ba 9e45 68bb e971 05bc c9af 9ebb

lstm.bias_ih f4 [512]
-0.199981 -0.19337797 -0.18597078 -0.18119024 -0.16724458 0.23140724 -0.19726889 -0.21348588
-0.20400468 -0.21924427 -0.17122659 -0.15812182 -0.11597453 -0.21698156 -0.21502204 -0.195562
0.017562771 -0.18755227 -0.1735356 0.043640845 -0.2030021 -0.17445658 -0.1700613 -0.18604971
-0.19413428 -0.11884939 -0.16719808 -0.17282847 -0.1743292 -0.22894098 -0.17367113 -0.19360666
-0.17821005 -0.18359523 -0.1237631 -0.22068404 -0.20737943 -0.18166043 0.36872986 -0.18714689
-0.18038833 -0.2010149 0.532254 -0.052643146 -0.18694209 -0.17007253 -0.19440675 -0.18975976
-0.1151779 -0.16519448 -0.18514915 -0.18120755 -0.16099043 -0.1699237 -0.18417987 -0.17078768
-0.18772383 -0.10024433 -0.18843557 -0.15035413 -0.1975044 -0.07581459 -0.1037427 -0.17059317
-0.16771281 -0.16625527 -0.1700089 -0.18293527 -0.16840681 -0.18377554 -0.23865427 -0.23613307
-0.2524084 -0.22941619 -0.19064963 -0.1662972 -0.18302399 -0.210846 0.4905647 -0.2400455
-0.12004835 -0.19177914 -0.19349882 -0.18868835 -0.18926114 0.39414346 -0.18405117 -0.18911536
-0.20659342 -0.21502002 -0.20010969 -0.26180184 -0.13345936 -0.14529404 -0.18519546 -0.17923957
-0.17752479 -0.19795606 -0.20080006 -0.15507932 -0.17548212 -0.175392 -0.22926684 -0.22006455
-0.20380305 -0.2094994 -0.18606444 0.3577775 -0.12843412 -0.17437193 -0.17569236 -0.16660488
-0.039414138 -0.1797208 -0.2026913 -0.22938575 -0.17956986 -0.21252155 -0.18938592 -0.18297334
-0.23259456 -0.17755944 -0.2380692 -0.20039755 -0.12904227 -0.16842164 -0.18988366 -0.17052072
-0.1863959 -0.1048348 -0.1042167 -0.09819962 -0.08844436 -0.025709879 -0.110910915 -0.10883644
-0.12011708 -0.10370756 -0.078428715 -0.19298 -0.22371648 -0.21047656 -0.11084978 -0.09002807
-0.259194 -0.10431943 -0.07884984 -0.19915934 -0.1998244 -0.08895262 -0.096568994 -0.1027412
-0.10913693 -0.17815645 -0.08086816 -0.08861251 -0.1531732 -0.13458379 -0.23008534 -0.11504294
-0.085448354 -0.10238045 -0.1976292 -0.12053459 -0.10512208 -0.1072037 0.07757273 -0.103788346
-0.1056416 -0.107350565 0.21891536 -0.16130187 -0.10392206 -0.083997615 -0.12607986 -0.1025572
-0.25945753 -0.06880854 -0.10014621 -0.090226546 -0.2184126 -0.08982752 -0.09013895 -0.09044679
-0.11020394 -0.21756592 -0.104748905 -0.28201875 -0.11974376 -0.14980383 -0.17371309 -0.08671451
-0.27810663 -0.08106283 -0.08122761 -0.10388298 -0.08043046 -0.111827575 -0.12949161 -0.11863255
-0.17470257 -0.13025066 -0.10734548 -0.084461294 -0.09961613 -0.20081215 0.20761618 -0.1287182
-0.28465447 -0.10989941 -0.116103105 -0.099649936 -0.10650279 0.25524798 -0.103402756 -0.19157663
-0.16702539 -0.12289237 -0.10676587 -0.1885258 -0.22030498 -0.0846725 -0.09348041 -0.09075609
-0.0969514 -0.10110653 -0.112318926 -0.20306091 -0.09964273 -0.09556989 -0.20686239 -0.123806365
-0.11245225 -0.13450427 -0.111787185 0.08630516 -0.19203964 -0.08615569 -0.09521805 -0.08369075
-0.18168062 -0.09856105 -0.1569581 -0.13506086 -0.18804964 -0.15503749 -0.10953093 -0.0955846
-0.1418805 -0.104025096 -0.15142423 -0.1327425 -0.21140875 -0.09330683 -0.101235375 -0.08827001
00000000: d2c7 4cbe e004 46be 206f 3ebe ef89 39be
00000010: 2a42 2bbe 05f6 6c3e db00 4abe 0b9c 5abe
00000020: 9ae6 50be 9281 60be 0656 2fbe b0ea 21be
00000030: 0e84 edbd 6a30 5ebe bd2e 5cbe 6841 48be
00000040: cddf 8f3c b40d 40be 51b3 31be bec0 323d
00000050: c8df 4fbe bfa4 32be 8d24 2ebe d183 3ebe
00000060: 23cb 46be 4f67 f3bd f935 2bbe f2f9 30be
00000070: 5b83 32be 816f 6abe d8d6 31be d340 46be
00000080: b27c 36be 6300 3cbe 8277 fdbd fffa 61be
00000090: 465b 54be 3105 3abe 29ca bc3e 6fa3 3fbe
000000a0: b8b7 38be dad6 4dbe cc41 083f 57a0 57bd
000000b0: bf6d 3fbe 7e27 2ebe 9012 47be 6250 42be
000000c0: 64e2 ebbd be28 29be bd97 3dbe 798e 39be
000000d0: adda 24be 7a00 2ebe a699 3cbe f7e2 2ebe
000000e0: ad3a 40be e64c cdbd 41f5 40be 6ff6 19be
000000f0: 983e 4abe ae44 9bbd 0d77 d4bd faaf 2ebe
00000100: e8bc 2bbe d23e 2abe d016 2ebe 6253 3bbe
00000110: d672 2cbe a82f 3cbe c961 74be decc 71be
00000120: ac3b 81be 14ec 6abe a839 43be d049 2abe
00000130: a46a 3bbe 04e8 57be 4c2b fb3e 7dce 75be
00000140: e9db f5bd c061 44be 8e24 46be 8537 41be
00000150: accd 41be 2ccd c93e e977 3cbe 75a7 41be
00000160: 3a8d 53be 352e 5cbe 8ee9 4cbe e40a 86be
00000170: 92a9 08be f6c7 14be e1a3 3dbe 948a 37be
00000180: 0fc9 35be feb4 4abe 889e 4dbe 1dcd 1ebe
00000190: 96b1 33be f699 33be edc4 6abe 9a58 61be
000001a0: bfb1 50be 0387 56be ad87 3ebe 9d2e b73e
000001b0: 3c84 03be 8e8e 32be b3e8 33be 789a 2abe
000001c0: b870 21bd bb08 38be 4f8e 4fbe 19e4 6abe
000001d0: 29e1 37be 409f 59be 62ee 41be 5d5d 3bbe
000001e0: 452d 6ebe 24d2 35be 6ac8 73be 0435 4dbe
000001f0: a823 04be b976 2cbe dd70 42be fc9c 2ebe
00000200: 91de 3ebe a1b3 d6bd 916f d5bd e21c c9bd
00000210: 5122 b5bd 869d d2bc 4325 e3bd a4e5 debd
00000220: f2ff f5bd a164 d4bd 3c9f a0bd 8d9c 45be
00000230: ef15 65be 2b87 57be 3605 e3bd a360 b8bd
00000240: 13b5 84be 6da5 d5bd 067c a1bd 6df0 4bbe
00000250: c49e 4cbe cb2c b6bd f7c5 c5bd fa69 d2bd
00000260: 2f83 dfbd a56e 36be 359e a5bd 7a7a b5bd
00000270: 6fd9 1cbe 55d0 09be 7e9b 6bbe a29b ebbd
00000280: 8cff aebd d7ac d1bd 4f5f 4abe d7da f6bd
00000290: 3f4a d7bd 9d8d dbbd 74de 9e3d fc8e d4bd
000002a0: a05a d8bd 9dda dbbd 592b 603e 512c 25be
000002b0: 17d5 d4bd f106 acbd 141b 01be 8209 d2bd
000002c0: 9ed7 84be 7eeb 8cbd 7519 cdbd b2c8 b8bd
000002d0: 8da7 5fbe 7ef7 b7bd c59a b8bd 2b3c b9bd
000002e0: 9ab2 e1bd 9ac9 5ebe 9886 d6bd c364 90be
000002f0: 373c f5bd 2d66 19be d8e1 31be 6197 b1bd
00000300: fe63 8ebe 4504 a6bd a95a a6bd 9ac0 d4bd
00000310: bab8 a4bd db05 e5bd 7399 04be 9ff5 f2bd
00000320: 3be5 32be 6e60 05be f2d7 dbbd 0bfa acbd
00000330: 8b03 ccbd b3a1 4dbe 5699 543e b4ce 03be
00000340: 3bbe 91be f112 e1bd 77c7 edbd 4415 ccbd
00000350: 221e dabd ddaf 823e d3c4 d3bd aa2c 44be
00000360: b408 2bbe ffae fbbd 10a8 dabd e80c 41be
00000370: a197 61be c768 adbd a872 bfbd 54de b9bd
00000380: 758e c6bd f110 cfbd 7707 e6bd 33ef 4fbe
00000390: 7d11 ccbd 26ba c3bd bcd3 53be 318e fdbd
000003a0: 5e4d e6bd 7dbb 09be aef0 e4bd c2c0 b03d
000003b0: 0aa6 44be 6572 b0bd ae01 c3bd 0e66 abbd
000003c0: 7c0a 3abe 60da c9bd a0b9 20be 654d 0abe
000003d0: 1690 40be 26c2 1ebe c151 e0bd dcc1 c3bd
000003e0: 1f49 11be 1c0b d5bd f40e 1bbe a6ed 07be
000003f0: 897b 58be a717 bfbd 7e54 cfbd e8c6 b4bd

lstm.bias_hh f4 [512]
-0.21360691 -0.19301316 -0.18606447 -0.18123135 -0.17383303 0.18871184 -0.19596505 -0.21509577
-0.2015322 -0.20822927 -0.17169449 -0.14022096 -0.078625485 -0.16567042 -0.20421639 -0.19317657
0.025179287 -0.18722194 -0.17393441 0.052647535 -0.20936307 -0.1730629 -0.17007242 -0.1853805
-0.19350171 -0.13011926 -0.16720435 -0.1727412 -0.18178214 -0.23699221 -0.14513846 -0.19476059
-0.17720652 -0.1834028 -0.124070644 -0.23210335 -0.20635201 -0.18021318 0.3861227 -0.18746383
-0.18098018 -0.20040433 0.5258294 -0.032930683 -0.1870336 -0.17011961 -0.193896 -0.19752575
-0.16937561 -0.1652036 -0.18580236 -0.18279351 -0.1792864 -0.16984694 -0.18639965 -0.17074259
-0.18729834 -0.084404066 -0.18839692 -0.15043695 -0.19900972 -0.017435329 -0.034292515 -0.17057991
-0.110682875 -0.16626611 -0.16995057 -0.18291394 -0.16799293 -0.18483827 -0.24475627 -0.23656486
-0.23079188 -0.24341124 -0.19056256 -0.16639179 -0.18488671 -0.20304613 0.48908526 -0.23796308
-0.15197033 -0.19342719 -0.19487873 -0.18851121 -0.18934636 0.42237696 -0.18452355 -0.20486794
-0.22009969 -0.22052166 -0.20098013 -0.24506281 -0.15850191 -0.14501199 -0.18520549 -0.17915362
-0.17751905 -0.20406584 -0.20048583 -0.19212085 -0.17552401 -0.17530893 -0.21772379 -0.21785665
-0.19657929 -0.20353526 -0.18576027 0.41024482 -0.14020674 -0.17476955 -0.17560074 -0.16684799
-0.15567105 -0.17993191 -0.20209002 -0.22173215 -0.17187755 -0.14407437 -0.18915042 -0.18801941
-0.24109448 -0.17764659 -0.2472169 -0.22603005 -0.13244733 -0.16828024 -0.18857814 -0.1705438
-0.17231698 -0.10483318 -0.10421772 -0.09819956 -0.079630546 -0.044202384 -0.11090732 -0.108860075
-0.12006566 -0.10994722 -0.0784189 -0.19643386 -0.18848704 -0.21995534 -0.11094985 -0.09017313
-0.18705319 -0.10431987 -0.07884221 -0.2809931 -0.19863734 -0.0889575 -0.0965688 -0.10275854
-0.109127335 -0.1678962 -0.08086793 -0.08861251 -0.15245558 -0.13406202 -0.2131113 -0.11503757
-0.08544558 -0.10238032 -0.20923907 -0.1211378 -0.10508646 -0.10716098 0.0453235 -0.10379326
-0.1056435 -0.10733387 0.21302958 -0.12697366 -0.103922546 -0.0839976 -0.12610675 -0.10258375
-0.21992089 -0.06880857 -0.100143 -0.090229586 -0.18832533 -0.08982726 -0.090133026 -0.09044679
-0.11020396 -0.20461042 -0.104755156 -0.27633065 -0.11972874 -0.14830932 -0.23677282 -0.08671451
-0.26385513 -0.08106283 -0.081227645 -0.1038831 -0.080430634 -0.111824386 -0.12833042 -0.11700081
-0.17276418 -0.12946197 -0.10734504 -0.08446166 -0.09964941 -0.18654375 0.21479312 -0.12877057
-0.24297985 -0.10989618 -0.116101794 -0.09964789 -0.10650277 0.21460082 -0.10340551 -0.18523726
-0.15455197 -0.12281401 -0.10679984 -0.19296438 -0.19455868 -0.08467212 -0.09348038 -0.090755716
-0.096951336 -0.101082794 -0.112321116 -0.20615971 -0.09964273 -0.09556884 -0.20782074 -0.123866595
-0.112427875 -0.13306706 -0.111789845 0.13218789 -0.21236372 -0.086154535 -0.09521742 -0.08369158
-0.20794319 -0.098560676 -0.15598999 -0.13474944 -0.17985138 -0.14716618 -0.109533116 -0.09553894
-0.14495842 -0.10402502 -0.1514678 -0.13179715 -0.20030768 -0.09330653 -0.10123721 -0.08826999
00000000: c5bb 5abe 3ea5 45be af87 3ebe b694 39be
00000010: 4901 32be ad3d 413e 10ab 48be 1142 5cbe
00000020: 755e 4ebe 0e3a 55be aed0 2fbe 1596 0fbe
00000030: 6606 a1bd 82a5 29be 1a1e 51be 14d0 45be
00000040: cb44 ce3c 1cb7 3fbe dd1b 32be f1a4 573d
00000050: 4663 56be 6737 31be 7727 2ebe 63d4 3dbe
00000060: 5025 46be fc3d 05be 9e37 2bbe 12e3 30be
00000070: 1925 3abe 16ae 72be 2d9f 14be 526f 47be
00000080: a075 35be f2cd 3bbe c018 febd 80ac 6dbe
00000090: f14d 53be ce89 38be e0b1 c53e 85f6 3fbe
000000a0: de52 39be cb36 4dbe c19c 063f 53e2 06bd
000000b0: bc85 3fbe d633 2ebe ac8c 46be 3144 4abe
000000c0: cd70 2dbe 222b 29be f942 3ebe 392e 3bbe
000000d0: db96 37be 5bec 2dbe 8ddf 3ebe 25d7 2ebe
000000e0: 23cb 3fbe 0adc acbd 1feb 40be 250c 1abe
000000f0: 34c9 4bbe 89d4 8ebc 4f76 0cbd 80ac 2ebe
00000100: b4ad e2bd aa41 2abe 8607 2ebe cb4d 3bbe
00000110: 5706 2cbe 3e46 3dbe 63a1 7abe 0f3e 72be
00000120: b554 6cbe cc40 79be d522 43be 9c62 2abe
00000130: f152 3dbe 53eb 4fbe 6269 fa3e 98ac 73be
00000140: 1c9e 1bbe c711 46be 4a8e 47be 1509 41be
00000150: 03e4 41be cb41 d83e bef3 3cbe e7c8 51be
00000160: d061 61be 6ed0 61be bccd 4dbe bff1 7abe
00000170: 534e 22be 067e 14be 82a6 3dbe 0c74 37be
00000180: 8ec7 35be a3f6 50be 284c 4dbe 54bb 44be
00000190: 91bc 33be 2f84 33be fcf2 5ebe d015 5fbe
000001a0: 154c 49be 8c6b 50be f137 3ebe 9c0b d23e
000001b0: 5b92 0fbe caf6 32be aed0 33be 33da 2abe
000001c0: 3b68 1fbe 1240 38be b0f0 4ebe c10d 63be
000001d0: ab00 30be 3b88 13be a6b0 41be 2988 40be
000001e0: 79e1 76be fde8 35be 6d26 7dbe 6c74 67be
000001f0: 46a0 07be a851 2cbe a11a 41be 09a3 2ebe
00000200: dd73 30be c7b2 d6bd 1a70 d5bd da1c c9bd
00000210: 5715 a3bd 8f0d 35bd 6123 e3bd 08f2 debd
00000220: fce4 f5bd 022c e1bd 179a a0bd f525 49be
00000230: bf02 41be f93b 61be ad39 e3bd b1ac b8bd
00000240: df8a 3fbe a8a5 d5bd 0678 a1bd 54de 8fbe
00000250: 9667 4bbe 5a2f b6bd ddc5 c5bd 1273 d2bd
00000260: 277e dfbd fbec 2bbe 169e a5bd 7a7a b5bd
00000270: 511d 1cbe 8e47 09be d939 5abe d198 ebbd
00000280: 18fe aebd c6ac d1bd c442 56be 1817 f8bd
00000290: 9237 d7bd 3777 dbbd 22a5 393d 9091 d4bd
000002a0: 9f5b d8bd dcd1 dbbd 6d24 5a3e 6205 02be
000002b0: 58d5 d4bd ef06 acbd 2122 01be 6e17 d2bd
000002c0: f132 61be 82eb 8cbd c617 cdbd 4aca b8bd
000002d0: 5bd8 40be 5bf7 b7bd aa97 b8bd 2b3c b9bd
000002e0: 9db2 e1bd 6585 51be df89 d6bd 367b 8dbe
000002f0: 5734 f5bd 66de 17be 9374 72be 6197 b1bd
00000300: 0518 87be 4504 a6bd ae5a a6bd aac0 d4bd
00000310: d1b8 a4bd 2f04 e5bd 0d69 03be 1f9e efbd
00000320: 18e9 30be ae91 04be b7d7 dbbd 3cfa acbd
00000330: fd14 ccbd 5305 3fbe baf2 5b3e 6fdc 03be
00000340: b6cf 78be 4011 e1bd c7c6 edbd 3114 ccbd
00000350: 201e dabd 51c0 5b3e 45c6 d3bd d6ae 3dbe
00000360: df42 1ebe e985 fbbd e0b9 dabd 7498 45be
00000370: 643a 47be 9468 adbd a472 bfbd 22de b9bd
00000380: 6c8e c6bd 7f04 cfbd 9d08 e6bd 881b 53be
00000390: 7d11 ccbd 99b9 c3bd f6ce 54be c5ad fdbd
000003a0: 9640 e6bd bb42 08be 13f2 e4bd 435c 073e
000003b0: e075 59be ca71 b0bd 5a01 c3bd 7e66 abbd
000003c0: 0fef 54be 2eda c9bd d7bb 1fbe c2fb 09be
000003d0: f62a 38be bbb2 16be e652 e0bd eba9 c3bd
000003e0: fb6f 14be 120b d5bd 601a 1bbe d5f5 06be
000003f0: 751d 4dbe 7e17 bfbd 7455 cfbd e6c6 b4bd

output_w.weight f4 [5, 128]
-0.0142500615 -0.002502925 -0.0053433552 0.000107794454 0.02992266 -0.034613773 8.6130574e-05 0.000785602
0.0072005945 -0.04170112 0.00027553225 -0.011382543 0.0073944107 -0.020361938 -0.023490077 -0.0042736637
-0.24489565 -0.000699637 -0.011640043 0.1268718 0.054177474 0.00072786515 0.004110448 -0.0015497492
0.007681879 0.01620455 -0.004397598 0.004593446 -0.02999522 -0.007654774 0.026091807 -0.006012185
-0.0032767816 0.0029131304 -0.005287542 0.018926498 -0.009243926 0.0071059996 0.060478754 -0.010019285
-0.0032064884 -0.0039379178 0.00059220847 0.002146988 -0.0047770124 0.00073830487 -0.0037493028 -0.002661177
0.0014919492 0.01199703 0.003794804 0.0036290875 0.07335585 0.001141753 0.015555636 -0.0044835247
0.004503439 -0.08980879 0.0034965654 0.110513024 -0.015524616 -0.13246119 0.17535429 -0.00018256158
-0.004885115 0.0017461241 -0.008777205 0.0004941069 0.0023112663 -0.005065007 0.012224456 -0.014420584
-0.0037481752 -0.005106239 0.0029288805 -0.0006444577 -0.014671395 0.050756145 -0.103946485 0.0021419511
0.2761355 0.009048374 -0.008055272 -0.0006922155 0.0009007155 0.09532018 0.016388783 -0.08950552
-0.053575423 0.0022438918 -0.0050567086 -0.01952256 -0.089355096 -0.008341818 0.000821254 -0.0049004178
-0.0016430451 0.008183224 -0.0015066571 0.10172967 -0.0017942094 0.0031117864 0.04132211 0.0017416952
-0.014249236 0.004505318 0.001899458 0.022939917 -0.0992015 -0.008741181 0.00031358527 -0.0031779066
0.14456369 -0.00011487171 -0.03584209 0.015391124 -0.0010828786 0.030130548 -0.009090429 -0.0121213
0.0101238275 -0.003622305 -0.0051259636 -0.0144017255 0.022002893 -0.009686089 0.016685901 -0.0017215812
0.06571963 0.007920958 -0.0071696024 -0.023959348 -0.08369664 -0.057102866 0.014489804 -0.0018910898
0.030244224 0.035554662 -0.0014268673 0.06390619 0.014445137 -0.044266097 0.027856357 -0.03434373
0.35828248 -0.009417012 0.02954671 0.3621405 -0.062912926 0.0016506745 0.013968017 0.00012962415
0.014541458 -0.042347655 0.012396559 -0.0029903888 -0.017879874 -0.039899472 0.03273357 -0.025951834
0.013886844 0.0002421129 0.037859403 -0.012439215 -0.00036961265 0.037368104 -0.033555415 0.011077417
0.008105444 0.0016210509 0.0733196 0.086022794 -0.008121023 0.005863307 -0.024430258 0.04658241
0.0027482884 -0.015219362 -0.015411963 -0.016820658 -0.029539935 -0.035556734 -0.022411205 -0.0107033765
0.0062149214 0.023814468 -0.02877191 0.018090649 0.0039780294 0.0061823595 -0.036878865 0.010602613
-0.15546237 0.020944888 -0.011707907 -0.006542271 0.010022198 0.028435577 -0.020476058 0.017916849
-0.037753355 0.037664514 -0.0020702193 0.0015417873 0.0064900154 0.009062908 -0.030784704 0.023404157
0.09225718 0.007769444 -0.02773237 0.01980474 0.0010755932 -0.036665495 -0.0059923753 0.011772084
0.0008338527 0.024303064 -0.0055791424 -0.0064583863 -0.004544994 0.012801003 0.012973937 0.015506637
0.0028593396 0.02362538 0.015420957 -0.055621337 -0.00052818423 0.005505774 -0.06596077 -0.024756601
0.045558456 -0.01951011 -0.02542932 0.06651192 0.00699771 0.0053303814 0.0046586483 -0.0025410508
0.0834753 -0.00789833 -0.00533714 0.03345333 -0.0025093767 -0.0034057938 -0.009635465 0.0017715079
0.03159445 0.007913123 -0.039568953 -0.034792244 0.017132238 0.004505367 0.013527053 -0.005826314
00000000: 1779 69bc 1d08 24bb 5017 afbb b50f e238
00000010: 5e20 f53c 2cc7 0dbd 00a1 b438 dcf0 4d3a
00000020: f7f2 eb3b cbce 2abd 5075 9039 d87d 3abc
00000030: d04c f23b 14ce a6bc 436e c0bc 170a 8cbb
00000040: edc5 7abe d867 37ba e1b5 3ebc aeea 013e
00000050: 33e9 5d3d 34ce 3e3a f0b0 863b f420 cbba
00000060: 46b8 fb3b 68bf 843c ba19 90bb 9e84 963b
00000070: 89b8 f5bc e6d4 fabb 7cbe d53c dd01 c5bb
00000080: 46bf 56bb 38ea 3e3b 1e43 adbb be0b 9b3c
00000090: d673 17bc 72d9 e83b 92b8 773d ed27 24bc
000000a0: f323 52bb a609 81bb 703e 1b3a 7bb4 0c3b
000000b0: 7c88 9cbb cd8a 413a ddb6 75bb 2467 2ebb
000000c0: 828d c33a 318f 443c 3fb2 783b fcd5 6d3b
000000d0: 983b 963d e0a6 953a 11dd 7e3c 88ea 92bb
000000e0: 9691 933b aced b7bd a226 653b a754 e23d
000000f0: f65a 7ebc e8a3 07be 1390 333e 006e 3fb9
00000100: 5113 a0bb 34de e43a 44ce 0fbc f486 013a
00000110: 9d78 173b 5cf8 a5bb 1649 483c 5044 6cbc
00000120: f2a3 75bb 3d52 a7bb 76f2 3f3b d3f0 28ba
00000130: 4a60 70bc ade5 4f3d e5e1 d4bd fa5f 0c3b
00000140: a261 8d3e a23f 143c 42fa 03bc cc75 35ba
00000150: fe1d 6c3a 3a37 c33d c541 863c ac4e b7bd
00000160: e771 5bbd 420e 133b bfb2 a5bb c7ed 9fbc
00000170: ceff b6bd 1fac 08bc 6c49 573a af93 a0bb
00000180: 725b d7ba ee12 063c 067b c5ba a557 d03d
00000190: ad2b ebba 1def 4b3b 5f41 293d 9849 e43a
000001a0: a175 69bc 59a1 933b 3cf7 f83a 7eec bb3c
000001b0: 282a cbbd 2c37 0fbc b468 a439 6d44 50bb
000001c0: 8108 143e 48e7 f0b8 28cf 12bd 0e2b 7c3c
000001d0: 60ef 8dba 57d4 f63c 06f0 14bc 6b98 46bc
000001e0: 69de 253c 3264 6dbb b3f7 a7bb 37f5 6bbc
000001f0: 693f b43c 67b2 1ebc dfb0 883c aea6 e1ba
00000200: 0398 863d e8c6 013c fcee eabb 6546 c4bc
00000210: 2569 abbd b2e4 69bd a566 6d3c 72de f7ba
00000220: bcc2 f73c c4a1 113d b905 bbba 40e1 823d
00000230: 4cab 6c3c 5e50 35bd 0433 e43c 03ac 0cbd
00000240: cd70 b73e d049 1abc f10b f23c 7b6a b93e
00000250: 7ed8 80bd 725b d83a 1cda 643c b8eb 0739
00000260: 4c3f 6e3c bc74 2dbd f01a 4b3c 66fa 43bb
00000270: d078 92bc a16d 23bd a313 063d f198 d4bc
00000280: a585 633c b0df 7d39 7612 1b3d d9cd 4bbc
00000290: 92c8 c1b9 4c0f 193d 6771 09bd 0e7e 353c
000002a0: b2cc 043c 7179 d43a 9628 963d b82c b03d
000002b0: 0a0e 05bc fc20 c03b f721 c8bc 32cd 3e3d
000002c0: a11c 343b a25a 79bc 7582 7cbc 7acb 89bc
000002d0: bcfd f1bc f0a3 11bd b497 b7bc 375d 2fbc
000002e0: 8aa6 cb3b 8f16 c33c 12b3 ebbc d732 943c
000002f0: 215a 823b 6495 ca3b 4b0e 17bd 95b6 2d3c
00000300: 8731 1fbe 9d94 ab3c 85d2 3fbc 8c60 d6bb
00000310: 2534 243c baf1 e83c 68bd a7bc 5bc6 923c
00000320: 43a3 1abd 1b46 1a3d 84ac 07bb cc15 ca3a
00000330: 32aa d43b 977c 143c 3430 fcbc 13ba bf3c
00000340: 55f1 bc3d d296 fe3b ff2e e3bc 8d3d a23c
00000350: ebfa 8c3a 8f2e 16bd b05b c4bb b3df 403c
00000360: e896 5a3a 3817 c73c 3dd1 b6bb dfa0 d3bb
00000370: 2cee 94bb 4cbb 513c a390 543c 8d0f 7e3c
00000380: c263 3b3b 038a c13c 2ea8 7c3c 33d3 63bd
00000390: d875 0aba c869 b43b 7116 87bd 5bce cabc
000003a0: 819b 3a3d abd3 9fbc 2651 d0bc 6737 883d
000003b0: 0c4d e53b 7baa ae3b 93a7 983b c287 26bb
000003c0: 19f5 aa3d ff67 01bc 2de3 aebb 5c06 093d
000003d0: 5b74 24bb bd33 5fbb 12de 1dbc f131 e83a
000003e0: 2f69 013d 0ba6 013c 0e13 22bd 5082 0ebd
000003f0: e858 8c3c c2a1 933b 93a0 5d3c aaea bebb

output_w.bias f4 [5]
-0.029231612 0.060389258 -0.6449468 -0.6867268 -0.099100485
00000000: 2277 efbc ba5a 773d 3c1b 25bf 54cd 2fbf
00000010: 32f5 cabd

square_avg f4 [64]
0.01751579 0.054628756 0.040643968 6.1473004e-10 3.0567684e-05 0.0045925113 0.0040077176 1.7021499e-08
0.0006310273 8.3614815e-08 0.008653825 0.00032989282 0.0080255205 0.016481748 2.2550245e-10 3.6570628e-07
0.0005562242 7.1272495e-11 0.0006708699 0.022301868 4.4778863e-06 1.5983328e-06 3.64156e-10 0.0004455859
8.4030655e-10 1.4004553e-10 0.01567003 6.69975e-10 0.06504357 0.0010622127 9.874916e-11 0.025710423
0.014622517 0.03014408 0.044230215 0.011955479 0.034861036 0.014846509 5.809273e-10 0.010723935
0.008701269 9.1178753e-10 1.3856331e-10 1.8013209e-10 1.543368e-07 0.002113902 0.019000389 0.011602805
0.00030913157 0.043993924 3.261073e-07 0.036953293 5.1532737e-05 0.00039651853 0.03184766 0.00043793936
0.01607563 3.581387e-09 1.7745917e-08 0.020818686 0.021043392 0.01843055 0.012764002 0.02115878
00000000: 467d 8f3c 67c2 5f3d 4a7a 263d c8f9 2830
00000010: cd35 0038 c77c 963b 2c53 833b ac36 9232
00000020: 866b 253a bb8f b333 c6c8 0d3c 77f5 ac39
00000030: 797d 033c bb04 873c 4cf1 772f 4a56 c434
00000040: 93cf 113a d9ba 9c2e 51dd 2f3a 68b2 b63c
00000050: c040 9636 4c86 d635 6732 c82f 879d e939
00000060: 51fb 6630 50fb 192f 6f5e 803c 4d29 3830
00000070: 9035 853d f239 8b3a d626 d92e aa9e d23c
00000080: 4893 6f3c b8f0 f63c be2a 353d eae0 433c
00000090: 72ca 0e3d c63e 733c 20af 1f30 72b3 2f3c
000000a0: c48f 0e3c 58a1 7a30 1b5a 182f ad0e 462f
000000b0: c7b7 2534 6489 0a3b b4a6 9b3c b119 3e3c
000000c0: f012 a239 f932 343d d913 af34 565c 173d
000000d0: db24 5838 d1e3 cf39 b172 023d 3a9b e539
000000e0: 0ab1 833c 6d1c 7631 af6f 9832 f38b aa3c
000000f0: 3163 ac3c aafb 963c 1b20 513c 2e55 ad3c

square_avg f4 [5]
7.425415 7.980938 0.11444379 0.14637762 0.025974657
00000000: 009d ed40 d863 ff40 8161 ea3d 04e4 153e
00000010: cec8 d43c
