S-LSTM/Goal+Socail_Array_PyTorch/social_lstm/save/0/social_model_epoch_9.pth (torch, 815043 bytes, 22 tensors)

embedding_b f4 [64]
00000000: 129e 59bd 059e 9d3e a8d4 813e 390a 7bbc
00000010: a7e9 31b6 312b 13bd 2809 dabd 0ead 19b2
00000020: bad9 28be c64c 0bba d8ce 2c3c 3362 2bbd
00000030: ff4a 3dbe 2084 d8bd 8ca0 2dbb f55d 31bc
00000040: 80f2 8fbc 28d8 3b3d 3664 27be a0db 94bd
00000050: d02a d9bc ead1 90ad 7131 05ba f104 29b9
00000060: 3987 d5bc 0377 73bc 3652 d3ba a147 e1bb
00000070: 5f1b af3e 8c21 1cbe e70f 11bd faa8 203b
00000080: f628 6abd d37f 72bc 1d84 523d 87f0 95bd
00000090: 64cb 3c3e 18fb 793d 34e1 8f3c ca14 1ebe
000000a0: ae4f 53bd 2e8b 1bbc 9251 28bb 3c8d d0bb
000000b0: 7ac6 cabb 290a 9cbc 5e81 333c 6e53 853d
000000c0: 33e2 04be db52 eb3d 8af8 e4bb f0af a63d
000000d0: 5980 e6bc 1741 19bc 7e06 373d a371 2dbd
000000e0: 8162 54bc 54f3 1fbc 950b f7ba 75d1 cc3d
000000f0: d38a 173e 2de9 143e dc42 e0bd bbef 05bd
-0.053129263 0.30784622 0.25357556 -0.0153222615 -2.651106e-06 -0.035929862 -0.10646278 -8.94512e-09
-0.16489306 -0.00053138693 0.010547362 -0.041841697 -0.1848564 -0.10572076 -0.0026493398 -0.010825624
-0.017571688 0.04586044 -0.16346821 -0.07268453 -0.026509672 -1.6464125e-11 -0.00050809147 -0.00016118937
-0.026065456 -0.014859918 -0.0016122523 -0.006874994 0.3420057 -0.15247172 -0.035415556 0.002451478
-0.05716797 -0.0148009835 0.051395524 -0.073212676 0.18436962 0.061030477 0.01756344 -0.15437618
-0.05158966 -0.009493632 -0.0025683385 -0.0063644927 -0.006188211 -0.019047813 0.0109561365 0.065100536
-0.12976913 0.11490413 -0.006987636 0.08139026 -0.028137373 -0.0093538975 0.044683926 -0.0423447
-0.012962938 -0.009762604 -0.0018848056 0.10000888 0.14799051 0.14542075 -0.109502524 -0.032699328

output_b f4 [5]
00000000: 97bb 013d 7c27 91bb 7e79 4fbf 2f10 48bf
00000010: 48ae 99bd
0.03167304 -0.0044297557 -0.8104476 -0.78149694 -0.07503945

embedding_w.weight f4 [64, 4]
00000000: 0f0c ba3e 4395 3fbf 19b3 b63c d51c 4e3e
00000010: 67c2 093e 5683 ad3f 392c e3bd 802a ae3e
00000020: b0e8 93bf 3857 43bf a03d 2bbe 2deb 45bd
00000030: a56d e2b9 705b 97bb c268 a73a 359f a3bc
00000040: a5ed 2eb2 6e72 739e 90dc 7020 9774 d3a2
00000050: fe0b 143f 407e 27bf 9e0d 8f3e 06ad ca3e
00000060: 3a76 0b3f 6833 423f c8df 273e f898 423b
00000070: 351e 2c1e 2cf4 de21 e4b1 3c1a 2c63 8915
00000080: 15b3 5d3e 1064 843e f8c6 b0bd f356 843e
00000090: 500c ff91 47cd 7432 70ae a515 49e2 6138
000000a0: 5997 04bf 3811 503f 1f1c 533e 68e1 91be
000000b0: 6654 9dbe d2f2 df3d 9676 82be fe0c c73b
000000c0: 73a1 f73e 41cd 89be dfff eebe 9416 c53e
000000d0: df71 7b3f 83aa 173d 188f 153e cca7 513e
000000e0: b58c 9b3c 4cf2 783d e9d0 013d 9f85 5c3d
000000f0: 7311 983c d5e2 8d3b bb84 993c 2b1c ab3b
00000100: 9c41 333a 2575 15bc 314b 213c 290e 88bc
00000110: 56ca 99bd 4c90 063d 08d1 a6bd b212 7a3d
00000120: 4fd5 c63e 4a7b 04bf 4921 733e 1587 b2be
00000130: 7e63 5c3f 74bf 933e eb23 64bf 99dd 9fbe
00000140: 6ac9 8dbb 64a3 59bd cab8 9b3c 3487 193d
00000150: bb97 c39c 3a5a 4a27 a15d 111d 282f e1a2
00000160: a2bc d632 dc69 b9b1 1aaa 99b4 f035 7ba6
00000170: 2245 b621 aff5 112f 5421 2896 ef6d cf35
00000180: fd9d 45be 1da5 373e 520e a93e ed85 d83d
00000190: dc0c 0fbb 24e5 57bc 7a75 9fba 0149 54bc
000001a0: acc2 5fbf 21dc 92bf c1f3 28bd b531 39bf
000001b0: 1fae a539 65c9 85bb b951 8e3a bb8f 45bc
000001c0: 9908 a1bf 0be6 48bf 39b4 72bd b8b1 483d
000001d0: f52a a8be 1db5 dfbe 6fcb b23e 8f74 083f
000001e0: 5307 943d 5476 df3d fc74 243e 20e6 b3bd
000001f0: 05e8 63bf 2dea 813e 04f3 93ba 8b58 373e
00000200: b564 4bbf 1f0a 1f3f 17d5 30be 9bf2 17be
00000210: a8cc cb3e 5b36 953f a85c b9bd ba76 7fbe
00000220: 9dcf af3f 3368 95be 44c8 083e 6903 ad3e
00000230: a8a7 433f 17ff 153f 1a88 443c 7425 973e
00000240: 4b3f 2abf 6df3 9c3f aabd 1ebd 9be5 ea3e
00000250: 0234 a63f 4778 74bf bf7b 703e 3146 f5be
00000260: e3ce a33d f3fb 1dbb 7044 b03d c984 f73d
00000270: 68f3 81bd 180f 073f 82dc 533e 5993 95bd
00000280: 9ecf a43f 4c58 a23e 07f7 103d 0368 7d3e
00000290: c0a8 a73c 8ecd 343c 8127 b8bb 8a95 0a3c
000002a0: 3477 12b2 8258 acb8 9873 3533 c779 5439
000002b0: ec3c 3a38 5b17 9733 5579 0338 212c 76bb
000002c0: ba8e 6b3c ec79 2dba 376f 053c 34e9 1dba
000002d0: 1307 5c3c ca70 b3bc 4fcf 1e3c 7b17 b9bc
000002e0: 81a7 583e 9418 843f 3e92 833d 30e0 823b
000002f0: 6d27 ddbe 0025 613f 30e7 de3d 0a22 4b3d
00000300: 3214 bb3e 051f a93e a659 a53d b66e 123e
00000310: ec98 11bf 8083 90bf 2a06 edbd ada6 0e3e
00000320: a264 13b7 703f 653b 13e9 8ab7 059f 1b3b
00000330: 098e 9ebf 142a 5c3f 8339 75be abad 1f3e
00000340: 032f 293d e35e 493d d85d c53d 99ec bebc
00000350: b041 5aba f9f2 31ba 40ce 14b9 c92c 633a
00000360: 8047 923e 57a3 85bf bc23 abbd 2dc5 3dbd
00000370: decf 173f 2eb4 ecbe 5fb2 2e3e f788 8dbe
00000380: 0ae6 123f 9c67 15bf 70eb 14be ae50 103e
00000390: 6422 98a7 3e85 b6bb 052f 563a a22e 603a
000003a0: f338 82a7 a218 1136 8869 1833 3301 6f39
000003b0: 0efd 86bf 6fbd 52bf 99bd eebd 6234 0ebd
000003c0: e677 f2be 7c36 87bf 75b6 92bd 0d6c 8c3d
000003d0: a35c 823f 06ee 5b3f 59bc 1d3d cd3f f33d
000003e0: 351a 36bf f3fd 793e eced 2f3d 264a 093e
000003f0: 5ca6 91bf 7674 473f ce86 66be 481d a8ba
0.36337325 -0.7483713 0.022302197 0.20128186 0.13453065 1.3555706 -0.11092419 0.340168
-1.1555386 -0.7630496 -0.16722727 -0.048319984 -0.0004318777 -0.0046190545 0.0012772309 -0.019973377
-1.0182167e-08 -1.2887976e-20 2.0401769e-19 -5.731511e-18 0.578308 -0.6542702 0.27940077 0.3958513
0.54477274 0.7585969 0.1639396 0.0029693227 9.111851e-21 1.5107937e-18 3.9021188e-23 5.5490325e-26
0.21650346 0.25857592 -0.086317 0.25847587 -4.0239494e-28 1.4249344e-08 6.6918183e-26 5.3854925e-05
-0.5179344 0.81276274 0.20616196 -0.28492284 -0.30728453 0.10934986 -0.254811 0.006074547
0.48365363 -0.2691441 -0.4667959 0.38493788 0.9822063 0.037027847 0.14605367 0.20474166
0.018987993 0.060777947 0.031693373 0.05383837 0.018563008 0.004330019 0.018740049 0.0052218637
0.00068380847 -0.009122168 0.009844587 -0.016608315 -0.07509296 0.032852456 -0.08145338 0.061052985
0.38834617 -0.51750624 0.23743166 -0.34868684 0.86089313 0.28857005 -0.89117306 -0.31223753
-0.004326989 -0.053134337 0.019009013 0.037482455 -1.2943239e-21 2.8082043e-15 1.9238995e-21 -6.10363e-18
2.499866e-08 -5.3962435e-09 -2.8622236e-07 -8.715622e-16 1.2351099e-18 1.3274958e-10 -1.3581448e-25 1.5454697e-06
-0.19298549 0.1793408 0.33018738 0.10572419 -0.0021827733 -0.01317719 -0.0012165748 -0.012956859
-0.8740642 -1.1473428 -0.041248087 -0.7234147 0.00031600983 -0.004082846 0.0010858095 -0.012058194
-1.2580749 -0.7847602 -0.059253905 0.04899761 -0.32845274 -0.43692866 0.34920833 0.53302854
0.072279595 0.10911241 0.16060251 -0.08784127 -0.8902591 0.25373974 -0.0011287634 0.1790487
-0.7945054 0.6212482 -0.17268787 -0.1483864 0.39804578 1.1657213 -0.09050876 -0.24947634
1.3735234 -0.2918106 0.13357645 0.33791664 0.764277 0.5859236 0.01199534 0.29520762
-0.6650283 1.2261788 -0.038755096 0.458783 1.2984622 -0.9549603 0.23484705 -0.47905114
0.07998445 -0.0024106472 0.086068034 0.12085874 -0.06345254 0.52757406 0.20689586 -0.07303495
1.287586 0.3170799 0.035391834 0.24746709 0.020466208 0.011035336 -0.0056199436 0.008458504
-8.525422e-09 -8.218085e-05 4.224748e-08 0.00020263261 4.4402594e-05 7.035734e-08 3.1345833e-05 -0.0037562924
0.01437729 -0.0006617594 0.0081441915 -0.00060238247 0.013429421 -0.021904368 0.009692981 -0.022594204
0.21157648 1.0320001 0.06424378 0.0039940104 -0.43194142 0.8794708 0.10883939 0.04959301
0.36538845 0.3303148 0.0807374 0.14300045 -0.56873965 -1.1290131 -0.11573441 0.1393077
-8.785313e-06 0.0034980439 -1.6559416e-05 0.0023745906 -1.2387096 0.86001706 -0.2394772 0.15593593
0.0413046 0.049162757 0.0963704 -0.023306178 -0.0008325828 -0.000678822 -0.00014191214 0.00086660363
0.28570175 -1.0440472 -0.08356425 -0.04633062 0.59301555 -0.46231216 0.1706023 -0.27643558
0.5738226 -0.5836122 -0.14542937 0.14093277 -4.222576e-15 -0.005570083 0.00081704586 0.00085518707
-3.6143993e-15 2.1621022e-06 3.5486238e-08 0.00022793263 -1.0545976 -0.823203 -0.11657257 -0.034717925
-0.473571 -1.0563502 -0.07163707 0.068565466 1.018452 0.8591007 0.0385097 0.118774034
-0.7113374 0.2441328 0.04295151 0.13407192 -1.1378894 0.7791208 -0.22512361 -0.0012826109

embedding_w.bias f4 [64]
00000000: 09ae ab3d 5574 e03d 7dd6 f63d 390a 7bbc
00000010: a7e9 31b6 9645 83bd 15a2 43bd 0ead 19b2
00000020: 6175 1b3e c64c 0bba a041 53bd 9aff 043c
00000030: 4cc1 1d3e 27af 513e 8ca0 2dbb f55d 31bc
00000040: 80f2 8fbc 28d8 3b3d 7759 f33d 18da c9bc
00000050: d02a d9bc ead1 90ad 7131 05ba f104 29b9
00000060: 3987 d5bc 0377 73bc a0be 18be a147 e1bb
00000070: b73a 153e 77c8 023e e70f 11bd cc95 ab3b
00000080: 5161 813e 5e0a b33a 63e5 ae3e 2e62 6f3e
00000090: f768 f4bb b70b a6bd 34e1 8f3c 7766 ed3d
000000a0: ef65 0f3d 2e8b 1bbc 9251 28bb 3c8d d0bb
000000b0: 7ac6 cabb 290a 9cbc 07ed 89bc a34f d5bd
000000c0: 5d16 b03d ad47 d03d 8af8 e4bb 69a7 d9bd
000000d0: 5980 e6bc 1741 19bc a8be f73c a371 2dbd
000000e0: 8665 4d3c 54f3 1fbc 950b f7ba 04be c33e
000000f0: 6079 00be 10fa b1bd 70c8 123e ea7e 8ebe
0.08382804 0.109596886 0.12052629 -0.0153222615 -2.651106e-06 -0.06409757 -0.047761995 -8.94512e-09
0.15181495 -0.00053138693 -0.051576257 0.008117581 0.15405768 0.20476972 -0.0026493398 -0.010825624
-0.017571688 0.04586044 0.118822984 -0.024640128 -0.026509672 -1.6464125e-11 -0.00050809147 -0.00016118937
-0.026065456 -0.014859918 -0.14916468 -0.006874994 0.14573179 0.12771784 -0.035415556 0.005236363
0.2526956 0.0013659706 0.34159383 0.23377296 -0.007458802 -0.08107703 0.01756344 0.11591809
0.03500932 -0.009493632 -0.0025683385 -0.0063644927 -0.006188211 -0.019047813 -0.016836656 -0.1041558
0.085980155 0.10169921 -0.006987636 -0.10627634 -0.028137373 -0.0093538975 0.03024228 -0.0423447
0.012536412 -0.009762604 -0.0018848056 0.38230908 -0.12546301 -0.08690274 0.14334273 -0.27831203

embedding_t_w.weight f4 [1, 8]
00000000: 6937 633f 16a9 bbbe a8e5 9e3d 4329 dfbe
00000010: a88d 31bd 4c4b fdbb f871 653e 581e c5be
0.88756424 -0.3665244 0.07758647 -0.43586168 -0.043347985 -0.0077299234 0.22406757 -0.38499713

lstm.weight_ih f4 [512, 65]
00000000: 30f6 68bc 0ddc 01bc 7a95 81bd a19e 8c1e
00000010: f00b d5b6 68e8 63bc 26c9 d7bb 2a50 3539
00000020: 0a67 b8bc c428 2d3a 0089 2db9 b7e6 4f3c
00000030: 302f afbc bfdb b7bb bc93 afba c00b d01a
00000040: 526f d2a4 b0c7 1fbd 2384 6d3c 26a6 81bc
00000050: b4af 0139 98d5 b036 100d 8d38 80fd a738
00000060: e037 bb3a 8c53 90ba 425a 03bd ce8c 31af
00000070: 8f0a 99bd c773 04bd d013 cb3b ab5c ebbb
00000080: 561d f4bb e1e3 c63b e758 05bd d50c 3ebc
00000090: 7ac3 7c3c 2fd2 8fbc ea2d e53c 4661 823c
000000a0: 1df8 31bc 2ba2 24b9 9460 bc38 9878 283b
000000b0: 0051 729c 96de cca5 3aba 823c 3da8 723c
000000c0: cab5 25bb 2f54 82bd 048b 28b5 79da 40bc
000000d0: 6e6d d639 04bc b1b4 dd60 d2bc d190 a73c
000000e0: 3269 f83b 7a76 9434 d246 3cbc 21f5 a9bd
000000f0: e388 33bd cb74 08bc 34a4 09bb 890e 82bc
00000100: 31f4 1ebc e67e e6bb 8520 52bd ad94 6fbd
00000110: e369 1e3c dc80 0136 c390 033c 50cc 6ebc
00000120: 00dd f3ba 376a bfbc 74b4 6db6 fda9 61bc
00000130: 0fa3 5abc 3c7b 0fbc fed0 9bbc 0a84 ebbb
00000140: 72c5 7633 386f ba36 717f d9bc 590f 38bc
00000150: 44bc 8fbc f07f 3fba e069 56b9 4a9d 2e37
00000160: 848a c6ba 1e42 5abc 521e 08b5 3798 e3bb
00000170: a0f0 a53a 258c 97bd 1a77 a1bc 53b0 bab8
00000180: 770c f6bc 49a6 c1bc a087 11bb aee1 20bd
00000190: c91e 8fbc 2754 f5bc 672a 06bd ec9e 2dbc
000001a0: 3180 9fbb 0c7d a3bc 8c37 c3ba 08f8 4439
000001b0: 74ef c839 465d 7bb9 6fc6 172c b016 633b
000001c0: 8d90 3abc f151 65bc a0d5 38bd d00b a031
000001d0: 0860 0fbd 6926 87b7 1c07 16bb 9e49 9abc
000001e0: aad2 81bc 4aac adbb 24d5 463b 4c68 4cb9
000001f0: b095 9bbd 3620 a1bc 5b30 b2bc 25be c8bc
00000200: d75f 07bd 52b3 9abc b647 45bc 4793 56bd
00000210: 9f6a 39bd 5422 6233 6807 2138 d286 993b
00000220: 12fa a5bc b656 86ba 803a 8bbc 94bf 0cbb
00000230: 229c 86bc 8332 7cbc 803f 84bb e198 dabc
00000240: 6584 25bc da60 46b8 3ea8 00b7 9613 8abc
00000250: 3f40 65bc ce6f 91bc 6e63 82b7 1870 a43b
00000260: 8c6b e7bb d091 f8b8 1b7c 60bc c812 78b3
00000270: a54a d7bb 3a3f 7a36 d0bf 84bd d627 2ebc
00000280: 011c a0bb 2f28 cdbc 21a8 b9bc 2246 3ebc
00000290: 4df8 3fbd be4f aebc da43 07bd 73b1 10bd
000002a0: 60b6 34bc 165a 3dbc 09e0 debc 75fc 86ba
000002b0: d05e fab8 c6b8 54bb f2f9 09b8 e365 6827
000002c0: ac92 93bb a088 4fbc dafd 82bc 52ec e3bc
000002d0: acd4 3739 30a7 febc b358 99b5 9c66 2ab9
000002e0: 300c 30bc 1402 88bc f71e 45bc 70e5 17bb
000002f0: 1c76 8b36 d437 8bbd 97b5 60bc 219c d0bc
00000300: 95f5 a9bc da8b debc 3185 d1bc dd88 f5bb
00000310: 3c54 82bc c630 76bc 0bed 1e3c 3888 9039
00000320: 9adc 8dbc 62e4 c2bc ec3a a8bb 302f 82bd
00000330: cc3b 6035 14eb 203d 204d f7bb e086 3bbc
00000340: b79e c0bc c529 dcbc b0ed 072d fb61 6936
00000350: d816 7aba dd95 c33c dbb2 7d3d 26b6 c9b6
00000360: 5451 f239 26d5 13b7 a7ca 02a3 3c74 d7bc
00000370: ac26 18ba 2b84 80bb 28a4 8b39 9497 08bd
00000380: 5819 253a cc60 8c3c 70c5 2fbc 16d1 6c3c
00000390: 2f6b 1e3d 34ea 0bbd a347 e1bc 56c8 fabc
000003a0: 8c18 973b 35a9 c8bb 5e6b 9f3c f799 13bd
000003b0: f88a 6e1c a06a 78b7 22f6 beb1 524e 19ba
000003c0: 669c 7730 38c7 313b 82c6 63bc 16a9 5dbd
000003d0: d3f9 1fbc 8029 7a39 06ba 74bc e887 aeb5
000003e0: b068 1f38 0c13 f93b fe2c c03c face 3ebb
000003f0: 5040 f939 98eb ebb8 db9c 03bd a165 46bc
-0.014218852 -0.007925999 -0.063273385 1.4888684e-20 -6.3492844e-06 -0.01391039 -0.006585258 0.00017291369
-0.02251007 0.0006605501 -0.00016549602 0.012689284 -0.021384805 -0.0056109126 -0.0013395469 8.604577e-23
-9.1261566e-17 -0.039008796 0.014496836 -0.015826296 0.00012367853 5.2700743e-06 6.725837e-05 8.0103986e-05
0.001428362 -0.0011011227 -0.0320685 -1.614808e-10 -0.07472717 -0.032336976 0.00619743 -0.0071826777
-0.007449786 0.0060696458 -0.032555487 -0.011599739 0.015427465 -0.017556278 0.027975995 0.015915524
-0.0108623775 -0.00015700671 8.982528e-05 0.0025706645 -8.0175773e-22 -3.553919e-16 0.01595794 0.014810619
-0.0025285357 -0.06363713 -6.278717e-07 -0.011770838 0.00040898792 -3.3105619e-07 -0.025680954 0.020454796
0.0075808996 2.765335e-07 -0.011491494 -0.08298708 -0.043831717 -0.008328627 -0.0021002414 -0.015876072
-0.009701774 -0.0070341704 -0.051300544 -0.058491398 0.0096688 1.9297504e-06 0.008030119 -0.014575079
-0.0018605292 -0.023366077 -3.542079e-06 -0.0137734385 -0.01334454 -0.008757409 -0.019020554 -0.007187371
5.7455914e-08 5.5561795e-06 -0.026550027 -0.011234128 -0.017545827 -0.0007305136 -0.00020448072 1.040783e-05
-0.0015147482 -0.013321428 -5.070807e-07 -0.0069456357 0.0012660213 -0.07399777 -0.019710112 -8.902014e-05
-0.03003524 -0.023638861 -0.0022206083 -0.039277725 -0.017470734 -0.029947354 -0.03275528 -0.010596972
-0.0048675765 -0.019957088 -0.0014893874 0.00018784415 0.0003832538 -0.00023971972 2.1568543e-12 0.0034650974
-0.011387003 -0.013996587 -0.045125604 4.657956e-09 -0.035003692 -1.611114e-05 -0.002289242 -0.018833932
-0.015847523 -0.0053000795 0.0030339444 -0.0001949381 -0.0759691 -0.01966868 -0.021751573 -0.02450473
-0.033050384 -0.018884335 -0.012041023 -0.05238655 -0.045267697 5.2650947e-08 3.839229e-05 0.0046852613
-0.020260844 -0.001024923 -0.016995668 -0.0021476494 -0.016431872 -0.015392902 -0.00403589 -0.026684226
-0.010102366 -4.729708e-05 -7.6685665e-06 -0.016855042 -0.013992368 -0.017753508 -1.5543508e-05 0.0050182454
-0.007062381 -0.00011852721 -0.013701464 -5.775908e-08 -0.0065701776 3.7289706e-06 -0.06481898 -0.010629615
-0.004886151 -0.025043575 -0.022663178 -0.011613401 -0.046867657 -0.021278258 -0.033023693 -0.03532548
-0.01102981 -0.011557123 -0.027206438 -0.0010298627 -0.00011938589 -0.0032458766 -3.2896125e-05 3.22517e-15
-0.0045035686 -0.012666851 -0.015990186 -0.027822647 0.00017531466 -0.03108558 -1.1425203e-06 -0.00016250688
-0.010745093 -0.016602553 -0.012031308 -0.0023177527 4.1562726e-06 -0.06797758 -0.013715169 -0.025465073
-0.020746985 -0.027166296 -0.025576206 -0.007493122 -0.015909307 -0.015026277 0.00970007 0.0002756731
-0.017317105 -0.023790542 -0.005133977 -0.063566566 8.353352e-07 0.039286688 -0.007547036 -0.011445731
-0.023513181 -0.026875386 7.726639e-12 3.4776738e-06 -0.0009540147 0.023875171 0.061938148 -6.0114717e-06
0.0004621843 -8.81151e-06 -7.0902274e-18 -0.026300542 -0.00058041024 -0.0039220056 0.00026634452 -0.03334768
0.0006298027 0.017136 -0.010728225 0.014454147 0.038676437 -0.0341589 -0.02749998 -0.030613106
0.0046110805 -0.0061236867 0.019460376 -0.036035504 7.8927207e-22 -1.48067775e-05 -5.55771e-09 -0.00058481575
9.008033e-10 0.00271268 -0.013902308 -0.05411633 -0.009764153 0.00023857318 -0.01493693 -1.3003564e-06
3.8006052e-05 0.0076011475 0.023458954 -0.0029115067 0.00047540898 -0.00011249556 -0.03213201 -0.012109191

lstm.weight_hh f4 [512, 128]
00000000: 4afc bcbc 61fb 15bc 9c8f 16bc 40fd a93c
00000010: 58c2 3abd c6cd 5cbc 5dee 6fbc 9de5 5e3c
00000020: 88ba 52bc 8cce 04bc 9584 fe3b f72d 2fbc
00000030: 1882 043c 0149 27bc c77d d1bb a972 98bb
00000040: 1181 2a3c 96fc b23c 0cde 4d3c 257a 223d
00000050: fc2c b33b 562e 1abc eee6 a8bc f9c9 12bc
00000060: 7cfb 69bc 4eb0 c63b 4c65 e5bb a905 f63b
00000070: 24be d0bb 6bc5 853c 4f2b 4a3c d366 753c
00000080: 6684 db3b d6c6 bebb 0e94 883c 0269 583b
00000090: fc9d e53b 23a2 6ebc 3426 0ebc 62cf 28bc
000000a0: afbb 293b ea59 bbbb d455 04bd b561 4d3c
000000b0: 4695 a13b a05a 2ebb ffcd 6c3c f02b 3bbc
000000c0: b379 80bc 22dc bb3c 4ccd 993b 1a8b 2ebc
000000d0: 38ff 7d3b c4e8 493c 5ab3 e03b dc8c 4c3b
000000e0: bd0c 08bc 5cf3 f0bb 732c 913c 678d 04bc
000000f0: 9a44 483c 6553 4abd 070c fc3b ddea ac3b
00000100: 5cc5 cdbb 523a d53b 9dfe 01bc e290 033c
00000110: 26ca 0abb f588 b1bb 48de d8bb 922c 1fbc
00000120: 2b07 693b f3e5 113b 0164 1b3c 93de 4fbc
00000130: 3c23 2f3b b08a 09ba 8d98 533d 8994 7ebc
00000140: 9957 f93c cc20 5cbc cb86 753c 7c30 0abb
00000150: 321e 223c 43d7 0ebd c4fb 2f3c 6d1f cbbb
00000160: 16c5 293c b7be 733b 2322 ac3b a087 643b
00000170: d45d 47bd da72 c5bc 5ce2 1b3c a0d1 15bc
00000180: c864 cdbb e697 b3bc 18c7 cfbb 50e1 e93b
00000190: b803 a63c ecee 22bc 6a80 d73b ca80 883c
000001a0: 4310 25bc 2fd2 363b e46f 073c d0cb e93c
000001b0: 9cf6 dbbc 58ba 9fba 0e70 40bb 018f b53b
000001c0: d0e3 ef3c d753 263c 5675 233c 97b3 6fbc
000001d0: 30c9 9fbb 88b1 e83a bb9e 5e3c 2760 e43b
000001e0: 8c59 5b3c 1730 ba3b f28d 813c 1049 fd3a
000001f0: 7c14 8a3b 2030 203b 866b f2bb 02e2 1d3b
00000200: 7ed5 933a ee26 8f3b 405a 633b 266f 5cbc
00000210: ba65 18bd d6d9 8abc 52a3 633b ca63 5abb
00000220: 67a3 5b3b 0e21 f9ba 2d86 79bb b158 1cbc
00000230: 5763 9abc 5eac 1e3a 2c79 6abb f00a 70b9
00000240: 0fbc 2cbc 64ca 82bc 0034 1636 325a 9d3b
00000250: 1401 743b bb49 22bb 8c4f e33b 4e98 6bba
00000260: c78d 553b 74a1 c33c 0f14 79bb 2330 92bb
00000270: 650a 2e3c d954 44bb 4bc0 07bb b616 ceba
00000280: 62aa 74bb 1e01 a13b bfd0 b73c 4af4 003b
00000290: 4b7b 97bb e097 b63a 7716 0b3c 35c3 673b
000002a0: f5b8 c1bb 29ed d9ba 2230 fdbc 72a8 813a
000002b0: ae17 d03a f023 c03b 5c5c 0ebb 4d61 453c
000002c0: 8e98 dabc e84a b7bb 785f ddbb 5e33 63bb
000002d0: 067d 063c cc94 89bb 9237 51ba 64cf 843b
000002e0: d68c 68bb 24d8 69bc 1c88 4dbc 2a52 a4bc
000002f0: 6854 8a3b 2992 babc 3d0a 853c eee1 92bb
00000300: c1cb 4dbc 8ced d3ba 14df dfb9 ad18 dcba
00000310: 3c2c eeba a2fe 823a e709 39bb cc2c 27bb
00000320: 00a0 80b7 9f4a 6cbb 980f 93b9 bb4f a03b
00000330: ca2d cd3a 9c37 933b 1ebf 123d 661e 373b
00000340: 7363 873c 19ff 413b b4ce 3abb f413 283a
00000350: 8e9c 5cbb df66 debc 8ab2 82bb 6533 88bc
00000360: 30e4 973a 88bc 81b9 3c04 c73a 801b 21bb
00000370: 5bf1 b2bc 4ae4 693c e0b8 3cba 7950 ad3a
00000380: 21f3 903a 9539 e2bb 5088 343b 6080 9c3b
00000390: 8423 35bc bd94 193b 227a ec3b 4ed8 2dbb
000003a0: 60bf acbb c563 883b 9870 76bc 25cf d93c
000003b0: 295e 84bc ac0b c9ba 9c9e 45bb 407b aabb
000003c0: ea09 453c af72 3cbb b0e8 b1bb 57ab 003b
000003d0: 609d 1f3c 8253 623c d86b 423a cc93 803a
000003e0: bdd0 5e3a 681f 92ba e8aa 44bb e020 94bb
000003f0: 5e30 a6bc a55d 7aba 215d 33bb d387 083c
-0.02306952 -0.009154172 -0.009189513 0.020750642 -0.045595497 -0.013476795 -0.014644233 0.013604549
-0.012861855 -0.008105885 0.00776727 -0.010692111 0.008087657 -0.010210277 -0.0063931677 -0.0046523404
0.010406748 0.021848958 0.012565147 0.039667267 0.005468009 -0.009410461 -0.020617928 -0.008959287
-0.01428115 0.0060634976 -0.007000601 0.007507999 -0.006370323 0.016329488 0.012339427 0.0149781285
0.0066991327 -0.005822043 0.01667216 0.0033021574 0.0070073586 -0.014565024 -0.0086761005 -0.01030335
0.0025899222 -0.0057175057 -0.032308415 0.012535502 0.004931125 -0.002660431 0.01445341 -0.01142405
-0.01568303 0.022932116 0.0046936627 -0.010653282 0.0038756859 0.012323562 0.006857318 0.0031211888
-0.008303818 -0.0073532294 0.01772139 -0.008090354 0.012223387 -0.049395937 0.0076918635 0.0052770213
-0.0062796306 0.0065071965 -0.00793424 0.008030148 -0.0021177619 -0.005417938 -0.006618295 -0.009715216
0.003555725 0.0022262305 0.009484292 -0.012687343 0.0026723882 -0.00052468013 0.051659156 -0.015538343
0.030437278 -0.013435554 0.01498575 -0.0021086028 0.009894894 -0.03487326 0.010741178 -0.0061988146
0.01036193 0.0037192532 0.005253093 0.0034870878 -0.048673466 -0.024102617 0.0095144175 -0.009144217
-0.0062681176 -0.021923017 -0.0063408725 0.007137455 0.020265445 -0.009944659 0.0065765874 0.016662974
-0.010074678 0.0027896275 0.008266423 0.028539568 -0.026850991 -0.0012186272 -0.0029363665 0.005540729
0.029283434 0.010151825 0.009976706 -0.01463022 -0.0048762783 0.0017753104 0.013587649 0.00696947
0.013388049 0.0056820023 0.015814755 0.0019324142 0.0042138677 0.0024442747 -0.0073980717 0.002409101
0.0011278836 0.0043686545 0.0034691244 -0.013454234 -0.03720639 -0.016949575 0.0034734798 -0.003332364
0.0033514143 -0.0019007043 -0.003807436 -0.00954263 -0.018846197 0.00060529064 -0.003577779 -0.00022892258
-0.010542884 -0.015965648 2.238201e-06 0.004802012 0.0037232088 -0.0024763185 0.006936973 -0.0008987234
0.0032585727 0.023880698 -0.003800634 -0.0044613048 0.010622595 -0.00299578 -0.002071398 -0.0015723321
-0.0037333001 0.0049134633 0.022438405 0.0019676858 -0.004622852 0.001393076 0.008489243 0.0035364155
-0.005911941 -0.0016626465 -0.03090674 0.000989212 0.0015876198 0.005863659 -0.002172253 0.012047124
-0.026684072 -0.0055936463 -0.0067557655 -0.0034668068 0.008208519 -0.004198646 -0.0007980998 0.004053043
-0.0035484335 -0.014272723 -0.012544658 -0.02005871 0.004221488 -0.022774773 0.016240234 -0.0044824993
-0.012560786 -0.0016168817 -0.0004270008 -0.0016792022 -0.0018171142 0.0009994099 -0.0028234662 -0.0025508879
-1.5333295e-05 -0.003605522 -0.00028049643 0.004892317 0.0015653905 0.004492713 0.035826795 0.0027941703
0.016526913 0.0029601513 -0.0028504552 0.00064116647 -0.003366265 -0.027148662 -0.0039885687 -0.01662607
0.0011588391 -0.00024745264 0.0015183757 -0.0024583042 -0.021843603 0.01427562 -0.00071991794 0.0013222835
0.0011058786 -0.006903837 0.002754707 0.0047760457 -0.011055831 0.0023434602 0.007216708 -0.0026526633
-0.005271837 0.004162284 -0.015041493 0.026588032 -0.01615818 -0.0015338561 -0.0030154353 -0.005202681
0.0120262895 -0.002875488 -0.00542935 0.0019633377 0.009742111 0.013813855 0.00074165827 0.0009809672
0.00084997324 -0.0011148276 -0.0030009095 -0.0045205206 -0.020286735 -0.0009550697 -0.0027368742 0.008333164

lstm.bias_ih f4 [512]
00000000: 7d0c 34be 50c2 14be 0e58 17be 37a3 e4bd
00000010: 3daf 1fbe cc54 743e b2bb 14be a9ac 14be
00000020: a56e 2abe 7603 19be 2575 16be 3034 38be
00000030: a0d6 b0bd fc37 25be 9542 2bbe fa7b fabd
00000040: fc04 2dbd 21a8 f2bd 6bb4 13be 8a88 3c3b
00000050: ad52 43be b55f 0abe 9e5f e0bd 8ebc 0cbe
00000060: 6dd5 1abe 50e1 41be e605 26be 571b 0dbe
00000070: 63d1 f4bd a046 2abe 0dc6 15be fdb5 21be
00000080: 7035 27be 6cc4 1abe 9fcb 22be 7836 48be
00000090: 167b 15be 03c2 21be 0069 ab3e c37d 10be
000000a0: 20b2 1dbe f06d 34be d633 103f 26f3 19bd
000000b0: 4872 28be 0020 20be 3bd3 31be 4049 c3bd
000000c0: 6ee9 ebbd ef6e f3bd 45ec 1cbe 16b2 12be
000000d0: d633 52be af90 1ebe ac66 1cbe 2104 27be
000000e0: 353c 38be 3b8e 3dbe 112b f9bd 0819 29be
000000f0: 0d7a 46be ec87 d9bd e7f9 0abe a46f 1fbe
00000100: 707a 51be 723f 07be c126 0ebe a193 1fbe
00000110: 5394 2bbe 2058 17be 519b 16be 32a0 17be
00000120: 622f 40be be2c 1dbe 8ad4 24be 0768 08be
00000130: 4179 3ebe 4f43 3dbe e38f 1b3f 49cf 2dbe
00000140: 756d 5ebe 4539 19be 7428 22be 64f2 31be
00000150: 09f7 17be 2db6 023f 5125 28be 9623 39be
00000160: dc62 1ebe 9b7b 28be 0eb7 2ebe 79b3 35be
00000170: 3f14 2dbe 4488 d9bd e39a 12be b65d 09be
00000180: 0eb1 18be 3ccb 23be 6c38 32be b0ad 79be
00000190: 33fc f4bd 0b61 11be 48ee 74be 0efd 1fbe
000001a0: ea41 39be 7c49 1fbe daae 0cbe e3a5 db3e
000001b0: 7d21 04be 8394 2bbe 563f 22be e8ba 26be
000001c0: 48a2 fcbd af6a 22be 9a80 3bbe a0e9 39be
000001d0: 9533 2ebe db8b 43be 2626 2bbe 3cb5 26be
000001e0: 43fc 58be cd5a 1fbe 0148 31be d09d e4bd
000001f0: c106 28be 1d7f 13be 29a1 3dbe cec1 15be
00000200: 9f51 cabd ac1b abbd 5a93 a4bd 985b 51bd
00000210: 2fb9 803d f421 adbd 3d07 7dbd ac3d 8dbd
00000220: ab81 88bd 7646 e4bd 8087 c8bd 64c6 26be
00000230: c718 1cbe b208 e0bd 0f5e f1bd 3597 e3bd
00000240: 6b11 ddbe 6f14 52bd a4ff e1bd 75ed 9ebe
00000250: 1b51 12be aa8c ddbd 93f3 51bd 2d41 e0bd
00000260: dba7 6dbd 80fe 7abe 54ea c5bd 71e3 bdbd
00000270: 0dc8 3ebe c1e6 8cbd 2812 5bbe 9ab8 94bd
00000280: ba89 b0bd 0e94 b8bd bfcf 3dbe 3be8 f9bd
00000290: f3c1 7fbd 66d1 93bd 3e8c c4bc ae1d 8dbd
000002a0: e4c0 cebd 7601 09be f004 873e 1464 c9bd
000002b0: 6ae1 bfbd 7ee2 e1bd f9e0 abbd 52c9 e1bc
000002c0: 5191 14be 9f08 89bd 17a0 8ebd e00c e1bd
000002d0: 7a5a 15be f7e3 a6bd b878 dbbd 1928 c6bd
000002e0: 5906 dabd e204 33be 7fd4 3cbd 4594 b1be
000002f0: b93c d7bd 8922 2bbe dd94 86be 4fd8 cdbd
00000300: d48c a2be e43b efbd dc55 b8bd 0425 bcbd
00000310: 39c3 c6bd 2b90 edbd 42fa f7bd ab73 b1bd
00000320: c841 fbbd b140 bdbd 4477 abbd a296 adbd
00000330: b830 d8bd 3863 ecbd 0899 a53e c524 85bd
00000340: 74ba b2be 2fba 8fbd b95e 82bd 3a7a c2bd
00000350: 0d48 90bd 8fb0 a03e bf3c dabd 3b80 0abe
00000360: 6569 adbd a20f dcbd b28a ddbd f7fa 00be
00000370: 632a 38be 2973 6abd 08f1 e9bd 3279 b5bd
00000380: bf42 bdbd 488c b1bd 7cae d4bd 87cf 42be
00000390: f07f 7cbd c04c d0bd 46f3 29be bb34 89bd
000003a0: 3207 0bbe 2e6b fdbd 123e 79bd 1f33 383e
000003b0: 0ce3 66be 0443 cdbd 74c1 b3bd 1293 c5bd
000003c0: 8c06 8fbe b14f c6bd d040 efbd 7ba5 95bd
000003d0: e488 06be 5157 0bbe aa6b aabd 619a c6bd
000003e0: 7a5e 06be 1c77 b9bd 41d1 9bbd f1d8 c2bd
000003f0: 94b9 7ebe 88c5 c8bd 8a70 e8bd 94ae cbbd
-0.17582889 -0.1452725 -0.14779684 -0.11163943 -0.15594192 0.23860472 -0.14524725 -0.1451899
-0.1664377 -0.14942726 -0.14693125 -0.17988658 -0.086346865 -0.16134638 -0.16724618 -0.12230678
-0.04224108 -0.11848474 -0.14424293 0.0028767907 -0.19074507 -0.13513072 -0.109557375 -0.13743803
-0.15120478 -0.18933606 -0.16213188 -0.1377996 -0.11954 -0.16628504 -0.14626332 -0.1579208
-0.16328979 -0.15113991 -0.15897988 -0.19552028 -0.14597735 -0.15796666 0.33478546 -0.14110474
-0.1539998 -0.17620063 0.56329095 -0.0375854 -0.16449845 -0.15637207 -0.17365734 -0.09535456
-0.115191326 -0.11886393 -0.15324505 -0.14325747 -0.20527586 -0.1548488 -0.15273541 -0.16310169
-0.17991717 -0.18511288 -0.121664174 -0.16513455 -0.19382496 -0.10621628 -0.13571893 -0.15569931
-0.20456862 -0.13207796 -0.13881971 -0.1558366 -0.167558 -0.14779711 -0.14707686 -0.14807203
-0.18768075 -0.15349099 -0.16096702 -0.13320933 -0.18600942 -0.18482707 0.6076643 -0.16973604
-0.21721442 -0.14963253 -0.15835744 -0.17377621 -0.1484033 0.5105923 -0.16420485 -0.18079981
-0.154674 -0.16453402 -0.17062017 -0.17744245 -0.16902255 -0.10621694 -0.14316897 -0.13414654
-0.14911291 -0.15995497 -0.17404336 -0.24382663 -0.11962166 -0.14197175 -0.23919022 -0.15623876
-0.1809155 -0.15555376 -0.13738576 0.429 -0.129034 -0.16755871 -0.15844473 -0.16282237
-0.1233564 -0.15861009 -0.18310776 -0.18155527 -0.17011864 -0.1909632 -0.16713771 -0.16280073
-0.2118998 -0.15561981 -0.17312624 -0.11162913 -0.16408826 -0.14403959 -0.18518509 -0.14624712
-0.09878849 -0.08354887 -0.080359176 -0.05111274 0.06285321 -0.08453742 -0.06177448 -0.068965286
-0.06665357 -0.11146252 -0.097914696 -0.16286618 -0.15243827 -0.109391585 -0.117855184 -0.11112825
-0.4317735 -0.05128902 -0.11035088 -0.3104054 -0.14288752 -0.10817845 -0.05125768 -0.10949931
-0.058021408 -0.24511147 -0.09663835 -0.09271897 -0.18631001 -0.0687995 -0.21393645 -0.072617725
-0.08620019 -0.09012614 -0.1853628 -0.122024976 -0.062440824 -0.07217674 -0.023992654 -0.068904266
-0.10095385 -0.13379464 0.26370955 -0.098335415 -0.09369166 -0.11029528 -0.083925195 -0.027561817
-0.14508559 -0.066910975 -0.069641285 -0.10988784 -0.14585295 -0.081489496 -0.10716385 -0.09675617
-0.10645742 -0.17482331 -0.04610109 -0.34683433 -0.10509629 -0.16712393 -0.2628545 -0.10051023
-0.31748068 -0.11681345 -0.090007514 -0.09186748 -0.097052045 -0.115997635 -0.1210828 -0.0866464
-0.12268406 -0.092408545 -0.083723575 -0.084759966 -0.10556167 -0.11542362 0.32343316 -0.06501154
-0.34907877 -0.070179336 -0.06365723 -0.09495969 -0.070449926 0.31384704 -0.10656118 -0.13525479
-0.08467368 -0.10745169 -0.1081747 -0.12595735 -0.17984919 -0.05723873 -0.11422926 -0.08861007
-0.092412464 -0.08669335 -0.10384843 -0.19024478 -0.06164545 -0.10170889 -0.16596708 -0.06699511
-0.13576964 -0.123739585 -0.06085021 0.17988251 -0.22547549 -0.10022548 -0.08777133 -0.09647192
-0.27934682 -0.09683169 -0.11682284 -0.073069535 -0.13138157 -0.13607527 -0.083213165 -0.09697414
-0.13121977 -0.090559214 -0.076082714 -0.095140345 -0.2487548 -0.09803301 -0.1134959 -0.099454075

lstm.bias_hh f4 [512]
00000000: 2e9f 36be 71c1 14be 5858 17be 6aa3 e4bd
00000010: f059 25be 6dae 533e 54b4 14be 86af 14be
00000020: 0e5a 2abe 0be3 18be d475 16be e347 30be
00000030: 4f51 86bd cbdf 1abe dd13 2bbe 3e70 fabd
00000040: bf0e 0fbd 48a7 f2bd 0fb5 13be 5f77 3a3c
00000050: 97d6 43be e85e 0abe a25f e0bd 80bb 0cbe
00000060: e3d1 1abe 54f3 48be eb05 26be 3d1b 0dbe
00000070: 7e1f 00be 35af 2abe 84eb 03be 7fbb 21be
00000080: 3534 27be 27c4 1abe 3bfb 22be ae89 48be
00000090: 5179 15be 2fbd 21be 726d b13e e27e 10be
000000a0: 97b2 1dbe 1169 34be 97ab 0f3f d6c4 babc
000000b0: 6072 28be 1320 20be 56ce 31be df7f c3bd
000000c0: 49ae 0fbe f76e f3bd b6ee 1cbe 37b3 12be
000000d0: ffe6 55be 6990 1ebe 866a 1cbe 1604 27be
000000e0: 0a3b 38be 5c86 36be f72a f9bd 092b 29be
000000f0: 3a8d 46be a9ab 64bd bec6 a5bd a26f 1fbe
00000100: c74d 27be 763f 07be b526 0ebe 9b93 1fbe
00000110: eb93 2bbe 255f 17be a7b4 16be 2aa2 17be
00000120: c59d 3dbe 2146 1dbe 32d4 24be 2468 08be
00000130: f080 3ebe cc66 3cbe 5e6c 1b3f 2cb8 2dbe
00000140: cafb 7abe 643d 19be 2632 22be e4f1 31be
00000150: 3ff7 17be fe7e 053f 2427 28be 642b 42be
00000160: 8c93 1ebe e98b 28be 59ba 2ebe a6b0 33be
00000170: ee42 40be b987 d9bd e59a 12be a05d 09be
00000180: 0eb1 18be eed6 23be 6137 32be f9d8 83be
00000190: 3dfc f4bd be60 11be a6d0 72be beeb 1fbe
000001a0: 2109 39be 4e2f 1fbe e2ad 0cbe 596d e73e
000001b0: cfe9 0dbe ed94 2bbe 413f 22be 2abb 26be
000001c0: b4ff 68be 546b 22be 5a67 3bbe 288a 39be
000001d0: bf77 2bbe d7a3 32be 1125 2bbe a1b8 26be
000001e0: 2aa3 5bbe de5a 1fbe b5b4 31be 7d67 e6bd
000001f0: 5f5a 2abe 047f 13be 2a98 3dbe d3c1 15be
00000200: ee9c c9bd ac1b abbd 5a93 a4bd 985b 51bd
00000210: 798f 8f3d fad2 cabd 3907 7dbd ac3d 8dbd
00000220: a781 88bd 2347 e4bd 8087 c8bd d64b 27be
00000230: dc4e 12be 2d8e e0bd 175e f1bd 3d97 e3bd
00000240: 4c70 bcbe 6f14 52bd a4ff e1bd 431a c4be
00000250: f64e 12be aa8c ddbd 93f3 51bd 2d41 e0bd
00000260: dba7 6dbd a374 77be 54ea c5bd 71e3 bdbd
00000270: 5559 3ebe f0e5 8cbd d975 55be 9ab8 94bd
00000280: ba89 b0bd 0e94 b8bd 9ba1 40be a0e8 f9bd
00000290: f3c1 7fbd 66d1 93bd b12c 4ebd b01d 8dbd
000002a0: e4c0 cebd 7401 09be 961c 863e bd75 95bd
000002b0: 6ae1 bfbd 7ee2 e1bd 00e1 abbd 5ac9 e1bc
000002c0: 9c53 0ebe 9f08 89bd 17a0 8ebd e00c e1bd
000002d0: 7961 14be f7e3 a6bd b878 dbbd 1928 c6bd
000002e0: 5906 dabd 4b11 31be 7fd4 3cbd 22c2 afbe
000002f0: af3c d7bd 24e9 29be 055b 97be 4fd8 cdbd
00000300: 8394 9fbe e43b efbd dc55 b8bd 0425 bcbd
00000310: 39c3 c6bd 2b90 edbd 0dfa f7bd 4a73 b1bd
00000320: ac32 fbbd ab40 bdbd 4477 abbd a296 adbd
00000330: bb30 d8bd 980a ecbd a4ab a63e cf24 85bd
00000340: 6dc5 a3be 2fba 8fbd b95e 82bd 3a7a c2bd
00000350: 0d48 90bd f182 9a3e bf3c dabd e85e 08be
00000360: f165 adbd a00f dcbd b28a ddbd 9908 01be
00000370: 04ab 27be 2973 6abd 08f1 e9bd 3279 b5bd
00000380: bf42 bdbd 488c b1bd 7cae d4bd 961c 43be
00000390: f07f 7cbd c04c d0bd 4ef9 29be c634 89bd
000003a0: 2e07 0bbe c86a fdbd 123e 79bd c461 4f3e
000003b0: 5a07 75be 0443 cdbd 74c1 b3bd 1293 c5bd
000003c0: df73 99be b14f c6bd 2234 efbd 0aa5 95bd
000003d0: 15b7 05be 61e9 0abe aa6b aabd 619a c6bd
000003e0: 7ca5 06be 1c77 b9bd 4dd1 9bbd 2ad8 c2bd
000003f0: b11c 7abe 88c5 c8bd 8a70 e8bd 94ae cbbd
-0.1783416 -0.14526917 -0.14779794 -0.11163981 -0.1614759 0.20672007 -0.14521915 -0.14520082
-0.16635916 -0.1493036 -0.14693385 -0.17214923 -0.06558477 -0.15124433 -0.16706796 -0.1222844
-0.034926172 -0.118483126 -0.14424537 0.011380999 -0.19124828 -0.13512766 -0.109557405 -0.137434
-0.15119128 -0.19624072 -0.16213195 -0.13779922 -0.12512013 -0.16668399 -0.12882811 -0.1579418
-0.16328509 -0.15113889 -0.1591615 -0.1958377 -0.1459706 -0.15794824 0.34653813 -0.14110902
-0.15400158 -0.17618205 0.561212 -0.022798937 -0.1644988 -0.15637235 -0.17363867 -0.09545874
-0.14031328 -0.11886399 -0.15325436 -0.14326178 -0.208889 -0.15484776 -0.1527501 -0.16310152
-0.17991272 -0.17824692 -0.12166398 -0.16520323 -0.19389811 -0.05582777 -0.08094548 -0.15569928
-0.16338263 -0.13207802 -0.13881953 -0.15583651 -0.16755645 -0.14782389 -0.14717351 -0.14807954
-0.18517216 -0.15358783 -0.16096571 -0.13320976 -0.18603873 -0.18398589 0.6071223 -0.16964787
-0.24510112 -0.14964825 -0.15839443 -0.1737743 -0.1484041 0.521469 -0.16421181 -0.18961865
-0.15485972 -0.16459621 -0.17063273 -0.17547855 -0.18775532 -0.1062159 -0.143169 -0.13414621
-0.14911291 -0.15999958 -0.17403938 -0.25751474 -0.11962173 -0.1419706 -0.23712406 -0.15617272
-0.18069889 -0.15545389 -0.13738206 0.45200613 -0.13858722 -0.1675603 -0.15844442 -0.16282335
-0.22753793 -0.15861255 -0.18301144 -0.18119109 -0.16744898 -0.17445312 -0.16713358 -0.16281368
-0.21448961 -0.15562007 -0.1735409 -0.112502076 -0.16636036 -0.14403921 -0.18515077 -0.1462472
-0.09844385 -0.08354887 -0.080359176 -0.05111274 0.07009787 -0.09903522 -0.061774466 -0.068965286
-0.06665354 -0.11146381 -0.097914696 -0.16337523 -0.14287895 -0.10964618 -0.11785524 -0.11112831
-0.36804426 -0.05128902 -0.11035088 -0.38301286 -0.14287934 -0.10817845 -0.05125768 -0.10949931
-0.058021408 -0.24165587 -0.09663835 -0.09271897 -0.18588765 -0.068797946 -0.20845737 -0.072617725
-0.08620019 -0.09012614 -0.18811648 -0.12202573 -0.062440824 -0.07217674 -0.05033559 -0.06890428
-0.10095385 -0.1337946 0.26193684 -0.072978474 -0.09369166 -0.11029528 -0.08392525 -0.027561832
-0.13899082 -0.066910975 -0.069641285 -0.10988784 -0.14490308 -0.081489496 -0.10716385 -0.09675617
-0.10645742 -0.17291753 -0.04610109 -0.343278 -0.10509621 -0.16592842 -0.2956163 -0.10051023
-0.31167993 -0.11681345 -0.090007514 -0.09186748 -0.097052045 -0.115997635 -0.1210824 -0.08664568
-0.12265524 -0.0924085 -0.083723575 -0.084759966 -0.105561696 -0.11525458 0.32552826 -0.06501161
-0.3198656 -0.070179336 -0.06365723 -0.09495969 -0.070449926 0.30178025 -0.10656118 -0.13317454
-0.084667094 -0.10745168 -0.1081747 -0.12600936 -0.16373831 -0.05723873 -0.11422926 -0.08861007
-0.092412464 -0.08669335 -0.10384843 -0.19053873 -0.06164545 -0.10170889 -0.16599008 -0.06699519
-0.13576958 -0.123738825 -0.06085021 0.20252138 -0.23928586 -0.10022548 -0.08777133 -0.09647192
-0.29971215 -0.09683169 -0.116798654 -0.07306869 -0.13058122 -0.1356559 -0.083213165 -0.09697414
-0.13149065 -0.090559214 -0.0760828 -0.09513886 -0.24425007 -0.09803301 -0.1134959 -0.099454075

output_w.weight f4 [5, 128]
00000000: 5973 88bc 7671 423b e853 10ba 13df 96bb
00000010: 76bd a03b e11d e8bc 2c0c fdbb 05ca 4c3c
00000020: 62b8 03bb b813 a73a ef65 12bc 68f9 b8bc
00000030: 0fb5 edbc d6f9 f93b 8745 36bb 671c 0f3c
00000040: cdcc acbe 8eca abbb e0cc b9bb 78a7 113e
00000050: fec5 9f3c bdfc 2a3c 55a5 b33b a15d de3b
00000060: 6b8a c2bb 0c45 323d 2ceb 78bc c644 51bc
00000070: 7970 d8bc 97aa 7d3b 72b2 993c 08a7 5b3b
00000080: a56a 9ebb f049 2c3b f1d2 c43c 2755 7d3b
00000090: dd8b 083b 61b4 08bb ed02 4e3d de45 9f3a
000000a0: 4a90 29bc 6d89 ab3b f028 c639 c06c 07bd
000000b0: 4a7c fe3b a0b8 233c c8f2 c73b d105 9ebb
000000c0: b1ca f6bc b834 4fba 2c07 66bc 2989 213c
000000d0: 8aed 2a3d 8872 2abc 92b1 903a 7900 c5bb
000000e0: 1dda 41bc 89e2 89bd 88bd 8c39 24d5 a83d
000000f0: 01f2 16bb d6c0 1dbe cb3c 333e d0a6 85bb
00000100: cd74 84bc 9561 22bc 10d0 603b 2cd2 ceba
00000110: a5f0 80bc 9399 22bc f086 703c f00c 5b39
00000120: e323 ddbb 4e08 37bc efa2 353b 2fbf 133c
00000130: e5fe 503c 7c1f bd3c f189 0bbe 4669 09bc
00000140: a0f2 8d3e 6177 03bc eeb7 4a3b ea77 893c
00000150: a882 c4b9 e76c fd3d 2c39 0ebc 4ef1 a5bd
00000160: b11a 3f3b 4630 c7bb 7527 673c 7c5c 6fbc
00000170: f624 b8bd cce9 053b 56a3 20bb 4177 003c
00000180: fca7 eeb9 9e5b 50bc 032f 6d3c fa15 6c3d
00000190: cc6b 5cbc f405 273c f2b6 f93c 5a00 383c
000001a0: 26ea 4dbb 5c23 013c 1ace e7bb fe61 c13c
000001b0: 147b e8bd d651 133b c42b c23a 9c3e 37bb
000001c0: 4848 1f3e 487f 74bc 5198 afbc 0cfa 8d3a
000001d0: 7a15 793c 355b d63c 4411 203b 6a57 0ebc
000001e0: 329c 48bc 9572 86bb 80c4 823b e61e 58bb
000001f0: 0e0f c63b 530d e9bb 8d13 53bc dad3 253c
00000200: 3aa3 913c 44b2 3dba 109e e8bb 6e87 bf3b
00000210: 8b71 d3bd 55d7 97bd 63d5 23bc 3db9 313c
00000220: 23c9 8abb 41f4 683c 8409 f839 b0c2 363d
00000230: 5393 d73c cbb6 41bd 54e8 7f3c fa74 26bc
00000240: 472f eb3e e7f0 7a3c 3c4c 273c 74ce cc3e
00000250: e30a 29bd 6644 f4bb 4a4b fbbb 1c2a 4abc
00000260: 5e7d 44bc b0b0 38bd 11fb 5e3c 927f b0ba
00000270: bd84 03bd 6795 ab39 02f5 5f3d 391a b53a
00000280: 4782 473c 5d95 5abb 43a6 353c bd37 24bb
00000290: cc4c 983c 9516 aa3b e23f 1abd 1a5e a5b9
000002a0: 13d7 6a3c 6068 a4bb 89cc bc3d 0753 c23d
000002b0: 42fd 0339 e20d a73a 45a0 043b 497d b23b
000002c0: f6c3 003c e8d0 1f3a 9a42 5e3c 89ed 47bc
000002d0: 49ad e1bc 1fe4 2dbc 6a41 fabb 307a 11bc
000002e0: 93aa 1bb9 521d bc3c e42a e63b b6a1 83bc
000002f0: 47ff df3b 18e8 9ebb 775a 5cbd 1658 293b
00000300: 444c 02be 48f4 d73b d5d9 dabb 030a b93b
00000310: 8721 453c 9b50 9d3c dd93 24bc b160 083c
00000320: e67f 97bc b4ef c13c 9247 263b acac 18bc
00000330: ad8f 40bb 9cea 89bb 0b7d f9bc 98d0 f3bb
00000340: d344 063e 889b 17bc 1b86 ac3b 1db5 2d3b
00000350: 84f2 d33b 94f9 7bbd 2899 ce3b 4da0 8e3c
00000360: 4672 ffba 64d1 1e3c f588 25bb f2f4 e1ba
00000370: dc80 61bc f474 1abc 2a1a 153b 0590 813b
00000380: c9aa 1fbc 355f 523c bc95 233b ddbb 1dbd
00000390: 9a4e 7d3c fc26 64bb 48ee 5cbd 26be ae3b
000003a0: 5af4 703c f478 a0bc 0337 983a 0512 b83d
000003b0: 2e3a 603c 0834 bcba 778e e9b9 56da 643b
000003c0: bf58 d43d 62b8 003c 1608 973c df6c 80bb
000003d0: 2f32 aabc 9d6d 11bc 9d25 c63b b1ab 003c
000003e0: 9d39 273d 9261 fe3b a5d9 16bb 94b4 c9bb
000003f0: fa6e c03c 940d 053c f1d9 e33b 17ae 86bb
-0.016656565 0.0029669679 -0.0005505667 -0.0046042292 0.004905398 -0.02833456 -0.0077223983 0.012499337
-0.0020098914 0.0012746966 -0.008935436 -0.022579864 -0.029017 0.0076286597 -0.0027812438 0.008734799
-0.3375 -0.0052426523 -0.005670175 0.1422404 0.01950359 0.010436234 0.0054823556 0.006786064
-0.005936911 0.04352288 -0.015192788 -0.0127727445 -0.026420819 0.0038706416 0.018761847 0.0033516306
-0.0048344904 0.0026289187 0.024026366 0.003865549 0.0020835318 -0.0020859467 0.05029576 0.0012151559
-0.010349343 0.0052348883 0.00037796004 -0.033062696 0.0077662813 0.0099927485 0.00610194 -0.0048224707
-0.030125948 -0.0007904279 -0.014039796 0.009859362 0.04173044 -0.010403283 0.0011039248 -0.0060120192
-0.011831787 -0.06732661 0.00026844093 0.08243778 -0.002303243 -0.15405592 0.1750366 -0.0040787235
-0.016168976 -0.009910961 0.0034303702 -0.0015779189 -0.015739748 -0.00992431 0.014680609 0.00020890287
-0.006748663 -0.011171414 0.0027715524 0.00901775 0.012756084 0.023086302 -0.13626839 -0.008386916
0.2772417 -0.008024068 0.0030932385 0.016780812 -0.0003748138 0.12374287 -0.008680623 -0.08102666
0.0029160196 -0.0060787527 0.014108528 -0.014609452 -0.08991425 0.0020433543 -0.0024511418 0.007840932
-0.00045520056 -0.012717156 0.0144765405 0.057638146 -0.013453435 0.01019429 0.030482743 0.011230553
-0.003142008 0.0078819655 -0.00707413 0.023606297 -0.113516 0.0022479198 0.0014814069 -0.0027960902
0.15554917 -0.014922924 -0.021434935 0.0010831966 0.015202874 0.026166538 0.0024424354 -0.008687833
-0.012244271 -0.0041030147 0.00399071 -0.0032977401 0.006044275 -0.007112184 -0.012883079 0.01012131
0.017778028 -0.00072363415 -0.0070989206 0.005845002 -0.10324391 -0.07414118 -0.009999606 0.010847387
-0.004235403 0.014218391 0.00047309336 0.044619262 0.026315367 -0.047293466 0.015619356 -0.010159725
0.45934507 0.015316225 0.010211047 0.4000126 -0.041270148 -0.007454443 -0.0076688873 -0.012339141
-0.0119927805 -0.045090377 0.013609664 -0.0013465753 -0.03210901 0.00032726975 0.054677017 0.0013817019
0.012177057 -0.0033353188 0.011087003 -0.0025057637 0.018591307 0.0051906803 -0.03765858 -0.00031541364
0.014333504 -0.0050173253 0.092186995 0.094884925 0.0001258748 0.0012745226 0.002023713 0.005447064
0.007859221 0.0006096498 0.013565684 -0.012202629 -0.02754845 -0.01061347 -0.0076371925 -0.008879229
-0.00014845496 0.0229632 0.007024156 -0.01606832 0.0068358514 -0.004849445 -0.05379721 0.0025839857
-0.12724406 0.0065904 -0.0066787996 0.0056469454 0.012031919 0.019203475 -0.010045019 0.008323834
-0.018493604 0.02367387 0.002537225 -0.009318512 -0.0029382512 -0.004208876 -0.030455133 -0.007440638
0.13112192 -0.00925339 0.00526501 0.0026505657 0.006468119 -0.061517313 0.0063048787 0.017410422
-0.0019489012 0.009693477 -0.0025258635 -0.0017239137 -0.013763633 -0.009427298 0.002275119 0.003953936
-0.009745308 0.012840082 0.0024961075 -0.03850924 0.015460635 -0.0034813276 -0.05393818 0.005332726
0.014706695 -0.019588925 0.0011613074 0.08987812 0.013685746 -0.0014358768 -0.00044547368 0.0034920177
0.103684895 0.00785646 0.018436473 -0.0039192284 -0.020775883 -0.0088762315 0.0060469643 0.007853434
0.04082643 0.007763096 -0.002301791 -0.00615556 0.023490418 0.008120913 0.006953471 -0.0041101086

output_w.bias f4 [5]
00000000: f1cd 15bd 89c4 673d 1f98 4bbf 7b77 57bf
00000010: 5cf2 e9bd
-0.036573354 0.056583915 -0.79528993 -0.8416669 -0.114231795

square_avg f4 [64]
00000000: 5caa 623c a00b 263e 8230 483d f1a2 5232
00000010: 7396 c62e 40af 4e3b ae6d 333c 0275 1d2e
00000020: 8480 823b 607c 1830 58e2 973c 48f0 183a
00000030: 29ec 363d 3fba 233c 4dea 963a 02e1 c735
00000040: f492 6034 fc00 c03a ad84 e83b 6b32 413e
00000050: 9a54 ac34 ddac bf2d 0bc6 b72f 8478 9d2f
00000060: 1508 c03b 1830 8336 297a 1b3d 5732 6233
00000070: 4022 a93d 8f71 153d a032 673b 754e 9e3c
00000080: edb4 003d 6c80 293d 15fe 133d f5c9 1b3c
00000090: 7f3e d33d 7360 f03c 9b43 5f3c e1ff 943b
000000a0: 581e 9b3c 84f4 4739 d2d9 3a31 1dd5 1231
000000b0: e1e4 f835 c7a6 6935 eaa4 b63c beba 9a3c
000000c0: 95f0 b63a c426 b13d 7736 7232 c625 163d
000000d0: 877d 6e39 7e6b 8e32 3695 783d 9ee9 5d3b
000000e0: fc18 1d3c 1f06 0e32 ae26 4731 a5dd 013d
000000f0: 2ede f53c 33cb a33c 584c 3e3c a4e4 253c
0.013834562 0.16215372 0.048874386 1.2260657e-08 9.030723e-11 0.0031537563 0.010951443 3.580159e-11
0.0039826054 5.5474025e-10 0.018540546 0.00058341445 0.044658814 0.009993135 0.0011513919 1.4892141e-06
2.0915087e-07 0.0014648731 0.0070958943 0.18866889 3.2099052e-07 2.1790953e-11 3.3428224e-10 2.8643765e-10
0.0058603385 3.909703e-06 0.037958298 5.266551e-08 0.08258486 0.03648525 0.0035277978 0.01932452
0.031422544 0.04138224 0.036130983 0.0095085995 0.103146546 0.029342866 0.013626958 0.0045471047
0.018935367 0.00019069208 2.7190379e-09 2.1366937e-09 1.8544052e-06 8.7041957e-07 0.022295434 0.018887874
0.0013957197 0.08649972 1.4098638e-08 0.036657117 0.00022744211 1.6579857e-08 0.060689174 0.003386117
0.009588476 8.26688e-09 2.8980298e-09 0.031705517 0.03001317 0.019994354 0.011614881 0.010125313

square_avg f4 [5]
00000000: 8016 9d40 1c27 5741 807d ed3d 9fcd 8c3e
00000010: c8ec 033d
4.9089966 13.447048 0.11596203 0.27500626 0.032208234
