S-LSTM/Goal+Socail_Array_PyTorch/social_lstm/save/0/social_model_epoch_28.pth (torch, 815071 bytes, 22 tensors)

embedding_b f4 [64]
0	0xbd3f5169	-0.0467085
1	0x3ec1556f	0.37760493
2	0x3e8fb9d8	0.28071475
3	0x3c97a2d4	0.01851026
4	0xbd285858	-0.041099876
5	0x3b924ac1	0.0044644778
6	0xbdb8ff58	-0.09033078
7	0xbbc56bad	-0.006024799
8	0xbe312e47	-0.1730281
9	0xbba53adc	-0.005042417
10	0x3bcbe742	0.0062226364
11	0xbcd2275c	-0.025653534
12	0xbe3eff71	-0.1865213
13	0xbe15c9d1	-0.14627768
14	0xbd0ae39a	-0.033908464
15	0xbd291c91	-0.04128701
16	0xbcf76f23	-0.030204361
17	0x3ccfd61d	0.025370652
18	0xbe000e80	-0.12505531
19	0xbd2da9d2	-0.04239828
20	0xbc59d859	-0.01329621
21	0xbd1048b5	-0.03522559
22	0xb8517fa0	-4.9948343e-05
23	0xbc310df8	-0.010806553
24	0xbd89f91d	-0.06736968
25	0xbb35dfc3	-0.002775178
26	0x3d444ae9	0.047923002
27	0xb52ec2cb	-6.510351e-07
28	0x3eb47b77	0.35250446
29	0xbe1fc2a1	-0.15601589
30	0xbd2153bd	-0.0393865
31	0xbd3ff2b3	-0.046862315
32	0xbe1ade4e	-0.15123865
33	0x3c7d1441	0.015446723
34	0x3e0028be	0.12515542
35	0x3bc2f63b	0.005949763
36	0x3e5ce20a	0.21570602
37	0x3da0151b	0.078165255
38	0xbc2a8b30	-0.010409161
39	0xbe2358e3	-0.15951876
40	0xbc3b260a	-0.011422643
41	0x3cd0bc48	0.025480404
42	0xbba73010	-0.005102165
43	0xbd394792	-0.04523427
44	0xbb971025	-0.004610079
45	0x3a3315ce	0.0006831557
46	0xbbeee67e	-0.0072906604
47	0x3daf7af3	0.085683726
48	0xbde74e77	-0.11294263
49	0x3e1bd9cc	0.15219802
50	0xb903d8c6	-0.00012573888
51	0x3db0ab41	0.08626414
52	0xb2838af7	-1.5313601e-08
53	0xbb9c2364	-0.004764961
54	0x3dadad28	0.084802926
55	0xbda2615c	-0.07928726
56	0xbcec3e94	-0.028838433
57	0x3cd0c681	0.025485279
58	0xb1eaad88	-6.8300245e-09
59	0x3d8b8902	0.068132415
60	0x3e1c1820	0.15243578
61	0x3d733339	0.05937502
62	0xbe004c3a	-0.12529078
63	0x3c1c3ec2	0.009536447

output_b f4 [5]
0	0x3ceb224c	0.028702877
1	0xbaa5c3d2	-0.001264686
2	0xbf70713b	-0.93922776
3	0xbf68ac3a	-0.90887797
4	0xbda9516e	-0.082674846

embedding_w.weight f4 [64, 4]
0	0x3e64fc94	0.22361976
1	0xbf43916e	-0.76393783
2	0xbe082bad	-0.13297911
3	0x3ee5b389	0.44863537
4	0x3dafa116	0.085756466
5	0x3fb39c0a	1.4031994
6	0xbd24aba5	-0.040202755
7	0x3ebe889a	0.37213594
8	0xbf8d8116	-1.1055019
9	0xbf2a7dbe	-0.6659812
10	0xbe275109	-0.16339506
11	0xbe0077a4	-0.1254564
12	0xbcde201a	-0.027114917
13	0x3b40daf6	0.0029427386
14	0xbcb05726	-0.02152593
15	0x39b5bc10	0.00034663128
16	0xbdbc703d	-0.09201095
17	0xbdbec2de	-0.09314512
18	0x3d24ba0a	0.040216483
19	0x3d35111b	0.044205766
20	0x3f5819f6	0.84414613
21	0xbf0c1b49	-0.54729134
22	0x3f007395	0.50176364
23	0x3ef665f5	0.48124662
24	0x3f15b14b	0.5847365
25	0x3f4f2d41	0.80928427
26	0x3e18d7da	0.14926091
27	0x3d3a039d	0.045413602
28	0xbd889a6e	-0.0667008
29	0xbb96fbd3	-0.0046076565
30	0xbc99faec	-0.018796407
31	0xbc40fdfa	-0.011779303
32	0x3cec0dec	0.028815232
33	0x3ea75453	0.32681522
34	0x3da1f92e	0.079088554
35	0x3eb1e425	0.34744373
36	0x3b8b6f20	0.0042551905
37	0x3b8a93fe	0.004229068
38	0x3b64ee74	0.0034932168
39	0xbb933cb0	-0.0044933185
40	0xbf0fc008	-0.5615239
41	0x3ec66856	0.38751477
42	0x3ee8b7cf	0.45452735
43	0xbec7bfbd	-0.39013472
44	0xbefe929a	-0.49721223
45	0x3c233ca0	0.009963185
46	0xbf07697a	-0.5289532
47	0x3abb7d59	0.0014304324
48	0x3f216306	0.6304172
49	0xbe9ae9e7	-0.30256578
50	0xbf2bd9e3	-0.67129344
51	0x3ed25ebd	0.41087905
52	0x3f84ff85	1.0390478
53	0x3eb38a07	0.35066244
54	0x3e4e69ed	0.20157595
55	0x3df45def	0.11931979
56	0x3d91cde6	0.0711935
57	0x3d413614	0.047170714
58	0x3ea701c1	0.32618526
59	0x3e0f3a9e	0.13987204
60	0x3c682d2f	0.014170929
61	0x3db33b11	0.087515004
62	0x3cfc9a3c	0.030835263
63	0xbe254880	-0.16140938
64	0x3e0c9642	0.13729194
65	0x3e1ce9e3	0.15323596
66	0x3e75c173	0.23999576
67	0xbe447781	-0.19186212
68	0xbb85cfcf	-0.0040836106
69	0xbd592534	-0.053013995
70	0xbc0591be	-0.008152423
71	0xbd9b43da	-0.07581301
72	0x3ebdfbfd	0.37106314
73	0xbeec0a53	-0.46101627
74	0x3edeff69	0.43554237
75	0xbf035925	-0.513079
76	0x3f89ba53	1.0759987
77	0x3eb58035	0.35449377
78	0xbf919421	-1.137333
79	0xbeb43ac5	-0.35201088
80	0xbc24dc96	-0.010062357
81	0x3baa6d0c	0.0052009877
82	0x3cb4d651	0.02207485
83	0xbd44e46d	-0.048069406
84	0x3df7c371	0.12097824
85	0x3d774844	0.060371652
86	0x3efd7d03	0.4950944
87	0xbdae28b3	-0.085038565
88	0xade55716	-2.607296e-11
89	0xa8921c62	-1.6221565e-14
90	0x9fef6668	-1.01389854e-19
91	0x27024860	1.8080359e-15
92	0x3a5e7f60	0.0008487608
93	0xbc7c1de2	-0.015387984
94	0x3c38e4b9	0.0112850005
95	0xbbe859f0	-0.0070907995
96	0xbec5d8f7	-0.38642094
97	0x3ea8db21	0.32979682
98	0x3f2b732b	0.6697261
99	0x3e33bc7e	0.17552373
100	0x3a7d4d7a	0.0009662729
101	0xbb6f5dd2	-0.0036524427
102	0xba109768	-0.00055157254
103	0xbc0faa71	-0.008768664
104	0xbf421c56	-0.7582449
105	0xbf902218	-1.1260405
106	0x3e8ace39	0.2711046
107	0xbf8a01fb	-1.0781854
108	0x28efb1b4	2.6611397e-14
109	0x9e5bb4d4	-1.1631158e-20
110	0x1b027fe0	1.0794667e-22
111	0xa5ab2900	-2.9691554e-16
112	0xbfad2fb4	-1.3530183
113	0xbf4160c4	-0.7553828
114	0xbc91439f	-0.01773244
115	0x3e0aeefa	0.13567725
116	0xbf25f64a	-0.6482893
117	0xbf16701e	-0.5876483
118	0x3f2b27ff	0.66857904
119	0x3f1fe980	0.6246567
120	0x3e9f2619	0.31083754
121	0x3e917fdc	0.2841786
122	0x3eaf9aee	0.3429789
123	0xbea35e7c	-0.31908023
124	0xbf2ae82f	-0.66760534
125	0x3e1a215b	0.15051787
126	0x3cdf4c3d	0.027258033
127	0x3e578bab	0.21049373
128	0xbf34fe34	-0.70700383
129	0x3f3422d5	0.7036565
130	0xbe2a0e78	-0.16607082
131	0xbea58c38	-0.3233354
132	0x3e8125b7	0.25224087
133	0x3f91fa1c	1.1404452
134	0xbdc49e76	-0.096005365
135	0xbeda76d8	-0.42668796
136	0x3fbc6634	1.471869
137	0xbe549481	-0.20759775
138	0x3e212b49	0.15739168
139	0x3ee27e9e	0.44237226
140	0x3f65a319	0.8970199
141	0x3f27ace1	0.6549817
142	0x3e419bb6	0.18907055
143	0x3e17f82a	0.14840761
144	0xbf231073	-0.63696975
145	0x3faae68f	1.3351611
146	0x3c94bdeb	0.018156966
147	0x3f262544	0.6490061
148	0x3fa82af2	1.3138106
149	0xbf7dab12	-0.9908916
150	0x3e849c30	0.25900412
151	0xbea1c978	-0.3159902
152	0xbda38d03	-0.0798588
153	0xbd3a0bfb	-0.04542158
154	0xbd08e5c3	-0.033422243
155	0x3ae28460	0.0017281882
156	0xbe54be73	-0.20775776
157	0x3e9c1626	0.30485648
158	0x3e867130	0.2625823
159	0xbb8c75fd	-0.0042865262
160	0x3fc53af5	1.5408617
161	0x3ef9006e	0.4863314
162	0x3e5e9af3	0.21738796
163	0x3e7ca503	0.24672322
164	0xbd0069e9	-0.031351004
165	0xbd2b83b4	-0.04187365
166	0xbd007929	-0.031365547
167	0xbd58040f	-0.052738246
168	0xb85b3403	-5.226211e-05
169	0xba122921	-0.00055755867
170	0x38605d66	5.3492746e-05
171	0xbb83934b	-0.0040153614
172	0xbe4f5625	-0.20247705
173	0x3e755679	0.23958768
174	0x3eb7dfdd	0.35912982
175	0x3dabc95d	0.083880164
176	0x3a56f3fe	0.000819981
177	0xba26604c	-0.0006346747
178	0xbb44a0da	-0.0030003102
179	0xb96fbfbe	-0.00022864246
180	0xbd01cee5	-0.03169145
181	0x3d19b024	0.037521496
182	0x3c8020d3	0.015640652
183	0xbd649d06	-0.05581381
184	0x3d57dab5	0.05269881
185	0x3f8401af	1.0313014
186	0xbd7165b4	-0.058934882
187	0xbd57ecbf	-0.052716013
188	0xbea48c76	-0.32138413
189	0x3f214e66	0.6301025
190	0x3d93cc19	0.07216663
191	0xbd903b3e	-0.070425496
192	0x3de8be8b	0.11364468
193	0x3ebc408f	0.36768004
194	0x3d31f444	0.04344584
195	0x3e463957	0.19357811
196	0xbf348f4f	-0.7053117
197	0xbfa21dbf	-1.2665328
198	0xbe14d35b	-0.1453375
199	0x3db6c3ab	0.089240395
200	0x2e1342cf	3.3483268e-11
201	0x1a85694c	5.517763e-23
202	0xb18ac21e	-4.038397e-09
203	0xb51c3d30	-5.820357e-07
204	0xbfa7b143	-1.3100971
205	0x3f844fc1	1.0336839
206	0xbe705109	-0.23468412
207	0x3e57e54e	0.21083567
208	0xb0ba48ca	-1.3553969e-09
209	0x2c5d97c8	3.1490244e-12
210	0xb12e27e6	-2.5343012e-09
211	0x1a34c160	3.7379335e-23
212	0xb9964570	-0.00028661964
213	0x3abdf603	0.0014492873
214	0xbb80e789	-0.003933851
215	0xba20e3a7	-0.00061374385
216	0x3ec45272	0.3834415
217	0xbf83a804	-1.0285649
218	0xbd9e1496	-0.0771877
219	0x3b6bb943	0.003596858
220	0x3f4fe4bd	0.812084
221	0xbefd0dec	-0.49424684
222	0x3d9a2ce1	0.07528091
223	0xbeaff30e	-0.34365124
224	0x3f3b4fd0	0.7316866
225	0xbf256c3a	-0.64618266
226	0xbe819ec1	-0.25316432
227	0x3eb84543	0.35990342
228	0xbd3dbb38	-0.046321124
229	0xbd1cd2bb	-0.038286906
230	0xbb87be59	-0.0041425643
231	0x3cf2ff80	0.029662848
232	0xafff6552	-4.6456222e-10
233	0x2b9d1a38	1.1162798e-12
234	0xb1d5caad	-6.2221575e-09
235	0x19cb6e30	2.1034212e-23
236	0xbf88cd5f	-1.0687674
237	0xbf2b97b6	-0.6702837
238	0xbc633604	-0.013867859
239	0x3d650707	0.055914905
240	0xbf0740ec	-0.5283344
241	0xbf81b2c3	-1.0132679
242	0xbe2400ed	-0.16015978
243	0xbcf59628	-0.029978827
244	0x3f7296b0	0.9476118
245	0x3f887b51	1.0662633
246	0x3df6c431	0.12049139
247	0xbccdbc04	-0.025114067
248	0xbf006190	-0.5014887
249	0x3eb8297f	0.3596916
250	0x3d9773f1	0.07395161
251	0x3e2c3b6d	0.16819544
252	0xbf9a48f0	-1.2053509
253	0x3f1fbd82	0.6239854
254	0xbe6b6d2e	-0.22990867
255	0xbdcfca54	-0.10146013

embedding_w.bias f4 [64]
0	0x3db069e7	0.08613949
1	0x3e3ac2df	0.182384
2	0x3e19672b	0.14980762
3	0x3c97a2d4	0.01851026
4	0xbd285858	-0.041099876
5	0xbcb807f9	-0.02246474
6	0xbd0babd5	-0.03409942
7	0xbbc56bad	-0.006024799
8	0x3dec972e	0.11552273
9	0xbba53adc	-0.005042417
10	0xbd5c7432	-0.05382175
11	0x3cad4b97	0.021154208
12	0x3e14f5ea	0.14546934
13	0x3e1cfd2c	0.15330952
14	0xbd0ae39a	-0.033908464
15	0xbd291c91	-0.04128701
16	0xbcf76f23	-0.030204361
17	0x3ccfd61d	0.025370652
18	0x3e0f1b11	0.13975169
19	0x3ba6e3b6	0.005093063
20	0xbc59d859	-0.01329621
21	0xbd1048b5	-0.03522559
22	0xb8517fa0	-4.9948343e-05
23	0xbc310df8	-0.010806553
24	0xbd89f91d	-0.06736968
25	0xbb35dfc3	-0.002775178
26	0xbdc278e2	-0.09495713
27	0xb52ec2cb	-6.510351e-07
28	0x3e227278	0.15863979
29	0x3df4b1d6	0.11947982
30	0xbd2153bd	-0.0393865
31	0xbd352af1	-0.044230405
32	0x3e18d991	0.14926745
33	0x3d001714	0.03127201
34	0x3ed2527b	0.41078553
35	0x3e9b39be	0.3031749
36	0x3cdc6fd4	0.026908793
37	0xbd7b604b	-0.06137113
38	0xbc2a8b30	-0.010409161
39	0x3dc1c056	0.09460513
40	0x3d954839	0.07289166
41	0x3cd0bc48	0.025480404
42	0xbba73010	-0.005102165
43	0xbd394792	-0.04523427
44	0xbb971025	-0.004610079
45	0x3a3315ce	0.0006831557
46	0xbd0baac6	-0.03409841
47	0xbd9e1aa3	-0.07719924
48	0x3d6f6678	0.05844733
49	0x3e0e8580	0.13918114
50	0xb903d8c6	-0.00012573888
51	0xbdc6a441	-0.09699298
52	0xb2838af7	-1.5313601e-08
53	0xbb9c2364	-0.004764961
54	0x3d90d262	0.07071377
55	0xbda2615c	-0.07928726
56	0xbb905ba2	-0.0044054547
57	0x3cd0c681	0.025485279
58	0xb1eaad88	-6.8300245e-09
59	0x3eb08821	0.34478858
60	0xbde4381b	-0.11143514
61	0xbe2967a3	-0.1654344
62	0x3deba68e	0.11506377
63	0xbe65207b	-0.22375672

embedding_t_w.weight f4 [1, 8]
0	0x3f657186	0.8962635
1	0xbeaffa0f	-0.34370467
2	0x3e4a76e8	0.19771922
3	0xbf1d3b0d	-0.6141823
4	0x3c731fc9	0.014839121
5	0x3d8daab0	0.06917322
6	0x3f07f19d	0.5310305
7	0xbf40079c	-0.7501161

lstm.weight_ih f4 [512, 65]
0	0xbc2ba244	-0.010475699
1	0xbcc5f707	-0.024165643
2	0x3cdb634d	0.026780749
3	0xba3806d0	-0.0007020058
4	0x3990da73	0.00027628578
5	0xbca21810	-0.019786865
6	0xbc3718b7	-0.011175326
7	0x3c3044a2	0.010758551
8	0xbc25151e	-0.0100758355
9	0x317d0d98	3.6824073e-09
10	0x3be5cc43	0.0070128753
11	0x3d114027	0.03546157
12	0xbd204c8d	-0.039135505
13	0xbc62523d	-0.013813552
14	0xbc5a817e	-0.013336537
15	0x3b660bc6	0.0035102232
16	0x3b4faae5	0.0031687554
17	0x3cbabea0	0.022795975
18	0x3c7f0923	0.015566143
19	0xbc04b54e	-0.008099867
20	0x331b7be1	3.6201417e-08
21	0x3aaabfda	0.0013027147
22	0xb91931c4	-0.00014609756
23	0x1f245f37	3.480711e-20
24	0xbc9411a2	-0.018074814
25	0x39b0e82e	0.00033742323
26	0x3d31aecd	0.043379594
27	0x36848edc	3.9505376e-06
28	0x3c86c6c5	0.016452203
29	0xbc98ee0b	-0.018668195
30	0x3b54525c	0.0032397723
31	0xba9b9f40	-0.0011873022
32	0x3d1151de	0.035478465
33	0x3c65bf68	0.014022686
34	0xbd6c87d1	-0.057746712
35	0xbcd2dd1e	-0.025740203
36	0x3b1816ac	0.0023206873
37	0xbb12e7ce	-0.0022415998
38	0x3bf44cdd	0.007455452
39	0xbc4cc9be	-0.012499271
40	0xbc8ba643	-0.017047053
41	0x3cd21375	0.025644043
42	0x38468330	4.7329057e-05
43	0xbc5610a8	-0.013065495
44	0xb6b66a52	-5.4364e-06
45	0x3c5a9be5	0.013342832
46	0x3c1d7675	0.009610762
47	0x3c3ebafb	0.011641259
48	0xbc3089c6	-0.010775035
49	0x3d067820	0.032829404
50	0x371edb42	9.468584e-06
51	0x3c7377c7	0.0148601
52	0xb45ecaa8	-2.0749087e-07
53	0xb8cff0d8	-9.91539e-05
54	0xba67af88	-0.0008838107
55	0x3b63ed07	0.003477873
56	0xbc84ad0f	-0.016195802
57	0xb85d4c80	-5.2761752e-05
58	0x360961b0	2.0471452e-06
59	0x3ca9a50e	0.020708587
60	0x3cc2fbbe	0.02380168
61	0xbc8cdc2d	-0.017194832
62	0xbb4ae38a	-0.0030958378
63	0x3ccbbc47	0.024870051
64	0xbc83a044	-0.016067632
65	0x3c0b37b2	0.0084971655
66	0xbcbad394	-0.022805966
67	0xbad70e20	-0.0016407408
68	0xba82c836	-0.000997788
69	0x38bc5f4f	8.982291e-05
70	0xbaa6e848	-0.001273402
71	0x3a367648	0.00069603743
72	0xb964c990	-0.00021818862
73	0xbbb8680e	-0.0056276387
74	0xb62f54b6	-2.612634e-06
75	0x3bee9f36	0.007282163
76	0xbbc461c1	-0.0059930985
77	0x39f405b0	0.00046543544
78	0xbbea349a	-0.007147384
79	0xb9b265de	-0.00034026703
80	0x396d9b44	0.00022659922
81	0xbb4ce57b	-0.003126471
82	0xbb65d72a	-0.0035070875
83	0xbbeef5c8	-0.007292483
84	0xbc27c9a0	-0.010240942
85	0xba974548	-0.0011541033
86	0xbc101237	-0.008793405
87	0xb18128ce	-3.759033e-09
88	0xb6cabd9c	-6.0421426e-06
89	0xbbd27686	-0.0064228205
90	0xb5f25444	-1.805493e-06
91	0x3a95479b	0.0011389138
92	0xb4a07388	-2.9886382e-07
93	0xbc15a81e	-0.009134321
94	0x3bd1c394	0.0064014886
95	0xb9a3d9fe	-0.000312522
96	0xbc1180da	-0.008880818
97	0xbb4fd810	-0.0031714477
98	0x3bde0a80	0.006776154
99	0xbc98b8dd	-0.018642837
100	0xbc1bf887	-0.009519703
101	0xbc9f500b	-0.019447347
102	0xbc8a139d	-0.016855055
103	0xb8fcfebc	-0.00012063744
104	0xbae621ee	-0.0017557719
105	0xbc438b47	-0.011935062
106	0xbaa2f5ae	-0.0012432837
107	0xb552c9f0	-7.8524954e-07
108	0xbb4a775a	-0.0030893893
109	0x3590cc7e	1.0788351e-06
110	0x39cf4974	0.00039536844
111	0x3a862582	0.0010234567
112	0xbb8b29a5	-0.004246908
113	0xbbe89e94	-0.007098982
114	0x3aebb7bb	0.0017983833
115	0x362ed39e	2.6051198e-06
116	0xbc9d0a55	-0.019169966
117	0xb649c8ba	-3.0068172e-06
118	0x398f1758	0.00027292478
119	0x39ce0b28	0.00039299694
120	0xbc83fd8b	-0.01611211
121	0x3c068dfb	0.008212562
122	0x3ad58fec	0.0016293502
123	0x364feb6a	3.0982433e-06
124	0xbb917772	-0.004439288
125	0x3b527f82	0.0032119458
126	0xbb2ea171	-0.002664652
127	0xbc2616b4	-0.010137249
128	0xbc215e32	-0.009849118
129	0xbb0b94cf	-0.0021298414
130	0xbb2a43f8	-0.0025980454
131	0xbcd4b50f	-0.025965242
132	0xbc4bfec8	-0.012450881
133	0xbae387ad	-0.001735916
134	0x37159a82	8.917066e-06
135	0xbbbb901e	-0.005723967
136	0xbbacb8dc	-0.0052710604
137	0xb8bc488c	-8.9780515e-05
138	0xbc0488d5	-0.008089264
139	0x365c793c	3.2853122e-06
140	0xbb7d3f4a	-0.003864246
141	0xbbcdf254	-0.0062849913
142	0xbc61b9fe	-0.013777254
143	0xbc09722c	-0.008389037
144	0xbaa39202	-0.0012479427
145	0x395a383a	0.00020811046
146	0x3a7f1dfe	0.0009731947
147	0xbaa6e120	-0.0012731887
148	0x3b35d2f6	0.002774415
149	0xbc9e0ad7	-0.019292278
150	0x2edf4640	1.0153345e-10
151	0xbb044131	-0.0020180459
152	0xbaf081d8	-0.0018349243
153	0x00004d70	2.778e-41
154	0xbc123f62	-0.008926244
155	0x341626d8	1.398397e-07
156	0x38e650b0	0.00010982284
157	0x317ebedc	3.7070356e-09
158	0xbcbe7cfb	-0.023252955
159	0xbbb60c40	-0.0055556595
160	0x3b2614d5	0.0025342007
161	0xbbcde488	-0.0062833466
162	0xbb4af3e0	-0.0030968115
163	0x3ad38b6b	0.0016139572
164	0xbd06b763	-0.032889735
165	0xbc438556	-0.011933645
166	0xbc8fe268	-0.017564014
167	0xbba8dda2	-0.005153374
168	0xb925ec66	-0.00015823692
169	0xbbc54582	-0.006020249
170	0xbc66b3d3	-0.014080959
171	0xba6b1288	-0.00089673
172	0xb7e061ec	-2.674848e-05
173	0xbb9dd363	-0.004816459
174	0x35572b34	8.015661e-07
175	0xba053578	-0.0005081515
176	0xb90df838	-0.00013539277
177	0xbb215764	-0.002461874
178	0xbbd560bb	-0.0065117753
179	0xbc3cba06	-0.011518961
180	0xb81dcfc0	-3.76252e-05
181	0xbc5600d9	-0.013061726
182	0x34d01084	3.8755036e-07
183	0x38eac1ba	0.00011194074
184	0xbbb81be3	-0.0056185587
185	0xbb05b8a7	-0.002040425
186	0xbb4d113e	-0.0031290795
187	0xb9ea8e14	-0.00044737814
188	0xb9a41ca8	-0.00031301868
189	0xbc8d91bc	-0.017281406
190	0xbbaf7c5a	-0.0053554
191	0xbbf9e608	-0.007626299
192	0xbc02c726	-0.007982051
193	0xbc1d6f92	-0.00960912
194	0xbbfd31ff	-0.0077269073
195	0x3c57b7e6	0.013166403
196	0xbcc5a65f	-0.024127183
197	0x3bff9e38	0.0078008436
198	0x3c1b374e	0.009473635
199	0xb8e0ebe5	-0.00010725091
200	0x3ac9b9ba	0.0015390434
201	0xbbe9e205	-0.0071375393
202	0x3bd7091f	0.0065623666
203	0xbbbd8b33	-0.005784416
204	0xb725df98	-9.886826e-06
205	0x3c8666c4	0.016406424
206	0x3cef69f2	0.029225323
207	0xbbaf4633	-0.0053489446
208	0xbc437ebd	-0.011932072
209	0xbb65da49	-0.0035072735
210	0x3a471a06	0.00075951254
211	0x3b595d29	0.00331671
212	0x3c9b3fde	0.018951353
213	0x3bf7b300	0.0075591803
214	0x3b2b0aca	0.002609896
215	0x36bec146	5.6849412e-06
216	0x3ad35c2e	0.0016125494
217	0x348ee2e4	2.6614646e-07
218	0x800431e2	-3.85237e-40
219	0xbc269386	-0.010167008
220	0x9ec044d0	-2.0357251e-20
221	0x3c81d9a6	0.015850853
222	0x3931d422	0.00016959061
223	0xbb789937	-0.003793312
224	0x3c12d381	0.008961559
225	0x3c01d11e	0.007923393
226	0x3bd36f3f	0.0064524706
227	0x3ce2288d	0.027607227
228	0x3be82aba	0.0070851715
229	0xbce3aa9b	-0.027791312
230	0xbc8e3130	-0.017357439
231	0xbbf98ee5	-0.0076159113
232	0x396223e0	0.00021566404
233	0x3c0d1a09	0.008612164
234	0xbbed8116	-0.0072480543
235	0xbc8d1976	-0.017224055
236	0x3cafcdd7	0.021460457
237	0x36c38178	5.826525e-06
238	0xbbda2e4f	-0.0066583524
239	0xb65663fa	-3.194668e-06
240	0x3c40d014	0.01176836
241	0x3b885721	0.004160777
242	0x3c028019	0.007965111
243	0xbbe5e006	-0.007015231
244	0x3c628121	0.013824732
245	0xb5c6ebfe	-1.4820832e-06
246	0x3bd2fcf0	0.006438844
247	0x3930425e	0.00016809392
248	0xb901bd5a	-0.00012372938
249	0x3c016c34	0.007899333
250	0x3bcc0e1f	0.0062272693
251	0x3b387ef2	0.0028151837
252	0x3c21c562	0.00987372
253	0x395c54e6	0.00021012462
254	0x3b1edcb8	0.0024240445
255	0x3cc9d7fa	0.024639118

lstm.weight_hh f4 [512, 128]
0	0xba8f50ed	-0.0010934152
1	0x3c3f1683	0.011663082
2	0x3b85297d	0.0040637837
3	0x3bb330ea	0.0054684775
4	0x3d079be0	0.03310764
5	0xbb38be32	-0.0028189537
6	0x3ac83e8a	0.0015277427
7	0x3931ac60	0.0001694425
8	0xbbc81936	-0.006106521
9	0xba388b84	-0.00070398324
10	0x3bfd5974	0.007731611
11	0xbd62af99	-0.055343244
12	0x3d49de2d	0.04928415
13	0x3b283816	0.0025668195
14	0xbc2aeb4e	-0.010432078
15	0xbc0344b4	-0.008011986
16	0xbadf880e	-0.0017054097
17	0xba8b0b80	-0.0010608286
18	0x39cba050	0.0003883862
19	0xbc944e38	-0.018103704
20	0xba2e8798	-0.0006657778
21	0x39148330	0.00014163251
22	0x3b2b92e8	0.0026180092
23	0xbb33d6e6	-0.0027441322
24	0xbab54d36	-0.0013832215
25	0x3b8d75f4	0.0043170396
26	0x3b11b5a6	0.0022233515
27	0x3bdee4cb	0.0068021766
28	0x3d3995f5	0.045309026
29	0xbbc20826	-0.0059213815
30	0x3b96f4cd	0.0046068192
31	0xbc857d68	-0.01629515
32	0x37938900	1.7587561e-05
33	0xbb1b0e03	-0.0023659475
34	0x3c010df8	0.007876866
35	0xbc8ec719	-0.017428922
36	0xb8a5e520	-7.910491e-05
37	0x3c04da62	0.008108707
38	0x3d16a42e	0.036777668
39	0xbbccb230	-0.0062468275
40	0x3bb980aa	0.00566109
41	0x3b46747d	0.0030281835
42	0xbca10ae0	-0.019658506
43	0xbbc06bbe	-0.005872219
44	0xbba7f5b8	-0.0051257275
45	0xbbbfc1da	-0.0058519663
46	0xbb58eb2a	-0.0033099153
47	0xbc25743f	-0.010098516
48	0xbb83ad55	-0.0040184655
49	0x3b3dc3ec	0.002895589
50	0x3cb1ea01	0.021718027
51	0x3ba5ee96	0.005063842
52	0x3b83fe08	0.0040280856
53	0xbb8cf0a8	-0.0043011494
54	0xba33a8ec	-0.00068534794
55	0xbb8ceb5c	-0.004300518
56	0x3b5a24f5	0.0033286188
57	0xbc0cc852	-0.008592682
58	0xbb58feaf	-0.0033110788
59	0xbc6a8e9b	-0.014316226
60	0x3b0f2334	0.002184105
61	0x3c433d5c	0.011916485
62	0xbc17e268	-0.009270288
63	0xba3981d2	-0.00070765347
64	0x3ccb7187	0.024834407
65	0x3a62bde4	0.0008649512
66	0x3b041ce5	0.0020158824
67	0xbae31e8f	-0.0017327833
68	0xbc288b0c	-0.010287058
69	0xbb72bd01	-0.0037038925
70	0xbb6d6c07	-0.003622772
71	0xbb54a463	-0.0032446615
72	0xbc024b2b	-0.007952492
73	0x3b723f0c	0.0036963848
74	0x3b153666	0.002276802
75	0xbabfb94c	-0.0014627366
76	0x3c0815e9	0.008306005
77	0x3c273ed7	0.010207853
78	0x3cb2acef	0.021810977
79	0xbbb3bece	-0.005485392
80	0xbc5ab55e	-0.013348905
81	0xba2f39de	-0.0006684343
82	0x3ba167ec	0.0049257185
83	0xbba1fc5b	-0.004943413
84	0xbb564648	-0.00326957
85	0xbc1111a2	-0.008854302
86	0xbb273899	-0.0025515913
87	0xb9cc5e40	-0.00038980134
88	0x3b40b36c	0.0029403819
89	0x3b51b444	0.0031998316
90	0x3b28aeb8	0.0025738906
91	0x3b7d040a	0.0038607144
92	0x3c954280	0.018220186
93	0x3bd0ace3	0.006368266
94	0xba9f6a7b	-0.0012162471
95	0x3a88ed9c	0.001044679
96	0x3c473a06	0.01215983
97	0xbbd4d53c	-0.006495146
98	0xbb91c91b	-0.0044490225
99	0xbb8f6b67	-0.004376817
100	0x3ab3f226	0.0013728782
101	0x3bcde7fb	0.0062837577
102	0xbc09aab7	-0.008402518
103	0x3b34f459	0.0027611463
104	0xbb445908	-0.0029960293
105	0xbbce9295	-0.006304095
106	0xbc241dda	-0.010016883
107	0x3c5c03fe	0.013428686
108	0x3d57de75	0.052702386
109	0x3b75226c	0.003740455
110	0xbc4f0594	-0.012635607
111	0xbaf561cc	-0.0018721162
112	0x3caab3c8	0.02083768
113	0xba0fac56	-0.0005480697
114	0xbb9a624c	-0.004711425
115	0xbab98ea0	-0.0014156885
116	0x3b9891aa	0.0046560364
117	0x3b8bb3de	0.004263385
118	0x3a1639a6	0.0005730636
119	0x39bc97e0	0.0003597131
120	0xbc243d69	-0.010024407
121	0x3b5c6dc9	0.0033634773
122	0xba282ab2	-0.00064150535
123	0xbb7eb633	-0.0038865923
124	0x3c961e59	0.018325018
125	0x3b8d44b6	0.0043111695
126	0x3b192bca	0.0023372048
127	0xbb7f327f	-0.003894001
128	0x3bd04636	0.006356026
129	0xbb401434	-0.0029308917
130	0x3b1d96f6	0.0024046279
131	0x3b1787bb	0.0023121673
132	0xba43a864	-0.0007463752
133	0x38ab8be0	8.179969e-05
134	0xbbc7636d	-0.0060848505
135	0x3997e538	0.00028971746
136	0x3be2b1af	0.006918154
137	0x3af03f2c	0.0018329374
138	0x3b044ea0	0.0020188466
139	0xbc0c136d	-0.008549553
140	0x3be5496b	0.0069972775
141	0xbbd1522b	-0.006387969
142	0x3b184bed	0.0023238615
143	0xba1988e4	-0.0005856885
144	0xbb14d390	-0.002270911
145	0x3b837f23	0.0040129586
146	0xbb6c11e5	-0.0036021408
147	0xbb2527c7	-0.002520071
148	0x3b93f8a7	0.0045157257
149	0x3b233595	0.0024903764
150	0x3af340c5	0.0018558732
151	0xbb69e277	-0.0035687962
152	0xbb8643bd	-0.0040974305
153	0xbc81c577	-0.015841229
154	0x3b3bda1c	0.002866394
155	0x3bfe7d1f	0.0077663804
156	0x3b0617cf	0.0020460968
157	0x3b7660d4	0.0037594335
158	0xbc1bf5cb	-0.009519051
159	0xbb332404	-0.00273347
160	0xbb241ac6	-0.0025040372
161	0x39593120	0.00020713033
162	0xbb9d5e99	-0.0048025367
163	0x3b458e98	0.0030144807
164	0x3b9ed45f	0.004847094
165	0x3aa530f3	0.0012603089
166	0xbbff22f2	-0.007786148
167	0x3abbad0c	0.001431854
168	0xbb891f4c	-0.004184639
169	0xbb8c4f3a	-0.0042819055
170	0xbc08099c	-0.008303072
171	0xbc33ead0	-0.010981277
172	0xbbb9fd4c	-0.0056759473
173	0xba16ae60	-0.000574803
174	0x3bc1d24e	0.005914963
175	0x3b80bad4	0.0039285216
176	0x3c137042	0.008998932
177	0x3bc351b4	0.0059606675
178	0x3beb2adc	0.00717674
179	0x3940f4d0	0.00018401747
180	0xbb1fcb26	-0.002438256
181	0x3b9d674e	0.0048035746
182	0x3b4ad4f8	0.0030949693
183	0x3aae8d76	0.0013317305
184	0xbb427711	-0.002967302
185	0xbaf4c806	-0.0018675334
186	0x3b8d209c	0.004306866
187	0x3b282524	0.0025656903
188	0x3aca4e04	0.0015434627
189	0x3bd25bca	0.0064196335
190	0xbb27f728	-0.0025629494
191	0x3b85d346	0.0040840236
192	0xbbacd8e4	-0.005274879
193	0xbb9830e6	-0.004644501
194	0x3af155d0	0.0018412415
195	0x3b6be9af	0.003599744
196	0x393533c8	0.00017280795
197	0xbb4f0b11	-0.003159229
198	0xbb447ff1	-0.0029983486
199	0x3b9afd3a	0.004729894
200	0xbbacc0b3	-0.005271995
201	0xb9070c40	-0.00012879167
202	0x3b8587b3	0.0040750145
203	0xbbb0d190	-0.0053960755
204	0xba8e155c	-0.0010840106
205	0xbb16e280	-0.0023023188
206	0x3be5dbac	0.0070147123
207	0x395d6594	0.00021114043
208	0x3b2615c0	0.0025342554
209	0x3aef26f2	0.001824586
210	0xbb725ec2	-0.003698275
211	0xbbb3926a	-0.0054801004
212	0xbb0ea5f3	-0.0021766394
213	0xbad1ef56	-0.0016016762
214	0x3bbcbec6	0.0057600467
215	0x3ba18b84	0.0049299616
216	0x3b8f4b26	0.004372972
217	0x3b9ff5b7	0.0048815864
218	0xb81c3b80	-3.7248712e-05
219	0xbbc6fa3c	-0.0060723107
220	0x3af7e446	0.0018912635
221	0xbb01d486	-0.0019810512
222	0x3b0b0f7a	0.0021218942
223	0x3b2ff880	0.0026850998
224	0x3a6b8ecf	0.0008985819
225	0xbbdffae3	-0.006835328
226	0xbb687aef	-0.0035473665
227	0xbbac4341	-0.0052570407
228	0x3b23ba53	0.0024982884
229	0xbb4826ee	-0.0030540782
230	0x3bcff45e	0.0063462695
231	0x3b76921e	0.0037623714
232	0x3b202e41	0.0024441632
233	0x3b07d5dc	0.0020726835
234	0xbb1b266c	-0.0023674024
235	0x3b152e34	0.0022763135
236	0x3b95064c	0.00454787
237	0x3b7f279f	0.0038933528
238	0xba845d44	-0.0010098596
239	0x3b9fd99c	0.004878236
240	0xbc7e2989	-0.015512832
241	0x39246e54	0.00015681359
242	0x3a17b46c	0.0005787078
243	0x3b8bced6	0.0042666
244	0xbc6f904b	-0.0146218045
245	0xb9fb3880	-0.00047916546
246	0x3ae9e7b2	0.001784554
247	0x3b9257ce	0.0044660335
248	0x3c2c4909	0.01051546
249	0x3b8617a6	0.0040921746
250	0x3bb46222	0.0055048624
251	0xbbc4fe5e	-0.0060117682
252	0xbaadd7b6	-0.0013263139
253	0xba953238	-0.0011382764
254	0xbb0f877e	-0.0021900828
255	0x3b8a5da1	0.004222587

lstm.bias_ih f4 [512]
0	0xbd61e308	-0.055148154
1	0xbd374e00	-0.04475212
2	0xbd66da85	-0.05636074
3	0xbd4fd6c4	-0.050741926
4	0xbe43c366	-0.19117507
5	0x3e839c43	0.25705156
6	0xbd4b9f73	-0.04971261
7	0xbd846128	-0.064638436
8	0xbd75e1a1	-0.06002963
9	0xbd7972aa	-0.060900368
10	0xbd5db0f9	-0.054123852
11	0x3dc7c872	0.09755029
12	0x3ec19aa2	0.37813288
13	0xbdd86c34	-0.10567513
14	0xbd7045c0	-0.05866027
15	0xbd540f42	-0.051772363
16	0xbe2490c9	-0.16070856
17	0xbd484070	-0.048889577
18	0xbd789dcb	-0.060697358
19	0xbdf6a525	-0.120432176
20	0xbd62e405	-0.055393238
21	0xbd89d601	-0.06730271
22	0xbd958772	-0.07301225
23	0xbd822d5f	-0.0635631
24	0xbd8d9631	-0.06913412
25	0xbdb70340	-0.08936167
26	0xbd5e974c	-0.054343507
27	0xbd65991a	-0.056054212
28	0x3d134eef	0.03596395
29	0xbd457a99	-0.04821262
30	0x3cbd06ba	0.023074497
31	0xbd8ab13f	-0.06772088
32	0xbd541696	-0.051779352
33	0xbd26d7e2	-0.040733226
34	0x3c83abb4	0.016073085
35	0xbd851bbe	-0.06499432
36	0xbd87e7ea	-0.06636031
37	0xbd81dc04	-0.06340793
38	0x3eb3eba6	0.35140723
39	0xbd80fced	-0.06298242
40	0xbd440b66	-0.047862433
41	0xbd83e9cd	-0.06441078
42	0x3eefaab3	0.4680992
43	0x3d1b30ca	0.037888326
44	0xbd675e4b	-0.05648641
45	0xbd438949	-0.047738347
46	0xbd632e2e	-0.055463962
47	0xbd587179	-0.05284259
48	0xbd22866f	-0.039678987
49	0xbd697048	-0.056991845
50	0xbd8b227c	-0.06793687
51	0xbd435390	-0.047687113
52	0xbd192a74	-0.037394002
53	0xbd564432	-0.05231113
54	0xbd9eed33	-0.07760086
55	0xbd328755	-0.043586094
56	0xbd363fb4	-0.044494346
57	0xbd9b1c02	-0.075737014
58	0xbd9750df	-0.07388472
59	0xbd8303c8	-0.063972056
60	0xbd82a23c	-0.063786
61	0xbca49b21	-0.020093502
62	0xbd96a73b	-0.073561154
63	0xbd79c066	-0.0609745
64	0xbd8e953f	-0.0696206
65	0xbdb6d091	-0.089265
66	0xbd8a2fa6	-0.067473695
67	0xbd84d467	-0.06485825
68	0xbd407535	-0.046986777
69	0xbda7bb63	-0.08190038
70	0xbd64792a	-0.055779614
71	0xbd41e744	-0.047339693
72	0xbdbcb7ce	-0.092147455
73	0xbd90d922	-0.07072665
74	0xbd92fc34	-0.0717701
75	0xbd4b7b2e	-0.04967802
76	0xbd860d0c	-0.06545457
77	0xbd5e1998	-0.054223627
78	0x3f01f6b6	0.50767076
79	0xbd55af2d	-0.052169014
80	0xbe510d30	-0.20415187
81	0xbd8658fa	-0.0655994
82	0xbd64dca3	-0.055874478
83	0xbd668367	-0.05627766
84	0xbdb2330c	-0.08701143
85	0x3eed7642	0.46379286
86	0xbd265328	-0.040606648
87	0xbd992e92	-0.07479586
88	0xbd9b79ef	-0.07591616
89	0xbd4ac061	-0.049499873
90	0xbd6d9b9c	-0.05800973
91	0xbdd29009	-0.10281379
92	0xbe54c2fb	-0.20777504
93	0xbd6085ea	-0.05481521
94	0xbd752d42	-0.059857614
95	0xbd809895	-0.06279103
96	0xbd350f61	-0.04420412
97	0xbd51b0ba	-0.05119393
98	0xbd1dc3ba	-0.038516738
99	0xbdf4a31f	-0.119451754
100	0xbd492a71	-0.04911274
101	0xbd58e744	-0.052954927
102	0xbd3354ed	-0.043782163
103	0xbd63968b	-0.05556349
104	0xbd8afac0	-0.06786108
105	0xbd84d2e9	-0.064855404
106	0xbd6b1460	-0.057392478
107	0x3ef39d16	0.47580785
108	0xbd63af8b	-0.055587333
109	0xbd24dbc5	-0.04024865
110	0xbd5e68d5	-0.054299194
111	0xbd4f89ce	-0.05066853
112	0xbe0421cb	-0.12903516
113	0xbd885371	-0.0665654
114	0xbdaab06e	-0.083344325
115	0xbd62b4bf	-0.055348154
116	0xbc009fbf	-0.007850586
117	0xbdaa413f	-0.08313226
118	0xbd5f639d	-0.054538358
119	0xbd824a60	-0.06361842
120	0xbda57f45	-0.08080915
121	0xbd9e9825	-0.07743863
122	0xbd808087	-0.06274515
123	0xbd8d7654	-0.06907335
124	0x3d872e0f	0.06600582
125	0xbd5170ee	-0.05113309
126	0xbd4f54cd	-0.05061798
127	0xbd5c8c8a	-0.053844966
128	0xbd8b4e75	-0.06802074
129	0xbd5016b6	-0.05080291
130	0xbd75cdcf	-0.060010727
131	0xbd4cae55	-0.049970943
132	0xbc110f95	-0.008853813
133	0xbdd9e450	-0.1063925
134	0xbd3ce52d	-0.046116997
135	0xbd54d329	-0.05195919
136	0xbd5bb673	-0.053640794
137	0xbd87b7ec	-0.06626877
138	0xbd42cb20	-0.047556996
139	0xbdd5a8c2	-0.104325786
140	0x3cfbed01	0.03075266
141	0xbd818cb8	-0.06325668
142	0xbd61558a	-0.055013217
143	0xbd4c2509	-0.049840007
144	0xbf04536b	-0.51689786
145	0xbd698dda	-0.057020046
146	0xbd764d38	-0.060132235
147	0xbed3ef0a	-0.4139331
148	0xbd4c0b44	-0.04981543
149	0xbd80fdd6	-0.06298415
150	0xbd6c4132	-0.057679363
151	0xbd8341e2	-0.064090505
152	0xbd57a773	-0.052649926
153	0xbe5d6a2c	-0.21622533
154	0xbd40b1c4	-0.04704453
155	0xbd473dbc	-0.04864286
156	0xbdb7e621	-0.089794405
157	0xbd3e9ff9	-0.04653928
158	0x3d0a6378	0.033786267
159	0xbd53ad53	-0.051678967
160	0xbd36a144	-0.04458739
161	0xbd568f6c	-0.05238287
162	0xbd730c5c	-0.05933796
163	0xbd360992	-0.04444272
164	0xbd4d24b4	-0.05008383
165	0xbd618810	-0.0550614
166	0xbd85eaac	-0.06538901
167	0xbd5bb708	-0.05364135
168	0xbd2f1e80	-0.042753696
169	0xbd59692e	-0.053078823
170	0x3e839c37	0.2570512
171	0xbdd8f00f	-0.105926625
172	0xbd68a17f	-0.05679464
173	0xbd5e9d3a	-0.05434916
174	0xbd3a37b0	-0.045463264
175	0xbd379aaf	-0.044825252
176	0xbdae7aeb	-0.085195385
177	0xbd2ad5da	-0.04170785
178	0xbd59a5b4	-0.053136542
179	0xbd4d794d	-0.05016451
180	0xbd817485	-0.063210525
181	0xbd56a37b	-0.052402
182	0xbd8d0601	-0.06885911
183	0xbd4f4ef0	-0.05061239
184	0xbd2c8f63	-0.04212893
185	0xbd4fd77c	-0.05074261
186	0xbd5c357e	-0.05376195
187	0xbe866ff1	-0.2625728
188	0xbd759a8c	-0.05996184
189	0xbe0f579e	-0.13998267
190	0xbe7bd176	-0.24591622
191	0xbd43a87e	-0.04776811
192	0xbe4b6182	-0.19861415
193	0xbd6a2004	-0.05715944
194	0xbd6bacf5	-0.05753799
195	0xbd61dd14	-0.055142477
196	0xbd505266	-0.05085983
197	0xbda44b6c	-0.08022198
198	0xbd464649	-0.048406873
199	0xbd46b8b4	-0.04851599
200	0xbda1396c	-0.078722805
201	0xbd7ea7a3	-0.06217159
202	0xbd5c629f	-0.05380499
203	0xbd2ffa30	-0.042963207
204	0xbd4481a9	-0.047975216
205	0xbd4e5079	-0.050369713
206	0x3e94b570	0.29044676
207	0xbd429f1b	-0.047515016
208	0xbea43da4	-0.32078278
209	0xbd5374d1	-0.051625077
210	0xbd65e363	-0.056125056
211	0xbd26a9b2	-0.040689178
212	0xbd8d7285	-0.069066085
213	0x3e874ce9	0.26425865
214	0xbd3ff888	-0.046867877
215	0xbdc5e071	-0.096619494
216	0xbd724d43	-0.059155714
217	0xbd663648	-0.05620411
218	0xbd73fe95	-0.05956896
219	0xbd8b1662	-0.067913786
220	0xbe84341b	-0.25821003
221	0xbd4b7ad3	-0.04967768
222	0xbd50c94b	-0.050973218
223	0xbd816de1	-0.06319786
224	0xbd4318b3	-0.047630977
225	0xbd452a6a	-0.048136152
226	0xbd45003f	-0.048095938
227	0xbdb168f1	-0.08662594
228	0xbd2eae28	-0.042646557
229	0xbd83aa20	-0.06428933
230	0xbd08f7e6	-0.03343954
231	0xbd3e5935	-0.046471793
232	0xbd65e82a	-0.056129612
233	0xbd77b215	-0.060472567
234	0xbd59338c	-0.053027675
235	0x3e6231b2	0.2208927
236	0xbe4083e5	-0.18800314
237	0xbd5d471d	-0.054022897
238	0xbd4f6389	-0.050632033
239	0xbd4cdb3e	-0.050013773
240	0xbe7a4215	-0.24439271
241	0xbd694e1b	-0.056959253
242	0xbd9b6b30	-0.07588804
243	0xbd5a4e63	-0.05329741
244	0xbd3ddae8	-0.046351343
245	0xbd9acbf3	-0.075584315
246	0xbd60b949	-0.0548642
247	0xbd68059d	-0.05664598
248	0xbdb3c196	-0.08777158
249	0xbd851127	-0.06497412
250	0xbd64738a	-0.05577425
251	0xbd773158	-0.060349792
252	0xbe5c13b7	-0.21491896
253	0xbd63cb37	-0.055613723
254	0xbd483e3b	-0.048887473
255	0xbd3cf4ea	-0.046132006

lstm.bias_hh f4 [512]
0	0xbd62042a	-0.055179752
1	0xbd374e00	-0.04475212
2	0xbd66da85	-0.05636074
3	0xbd4fd6c4	-0.050741926
4	0xbe48bebe	-0.19604012
5	0x3e7277c8	0.23678505
6	0xbd4b9f73	-0.04971261
7	0xbd846128	-0.064638436
8	0xbd75e1a1	-0.06002963
9	0xbd7972aa	-0.060900368
10	0xbd5db0f9	-0.054123852
11	0x3dcf48e0	0.10121322
12	0x3ec7ec6b	0.3904756
13	0xbdd86209	-0.10565574
14	0xbd7045c0	-0.05866027
15	0xbd540f42	-0.051772363
16	0xbe1d8952	-0.15384415
17	0xbd484070	-0.048889577
18	0xbd789dcb	-0.060697358
19	0xbde6dd84	-0.112727195
20	0xbd62e405	-0.055393238
21	0xbd89d601	-0.06730271
22	0xbd958772	-0.07301225
23	0xbd822d5f	-0.0635631
24	0xbd8d9631	-0.06913412
25	0xbdbbe193	-0.09173884
26	0xbd5e974c	-0.054343507
27	0xbd65991a	-0.056054212
28	0x3d03ae7f	0.032148834
29	0xbd457a99	-0.04821262
30	0x3d04e28b	0.03244261
31	0xbd8ab13f	-0.06772088
32	0xbd541696	-0.051779352
33	0xbd26d7e2	-0.040733226
34	0x3c83854f	0.016054777
35	0xbd851bbe	-0.06499432
36	0xbd87e7ea	-0.06636031
37	0xbd81dc04	-0.06340793
38	0x3eb7b43e	0.358797
39	0xbd80fced	-0.06298242
40	0xbd440b66	-0.047862433
41	0xbd83e9cd	-0.06441078
42	0x3eef7e2f	0.46775958
43	0x3d442b3b	0.04789279
44	0xbd675e4b	-0.05648641
45	0xbd438949	-0.047738347
46	0xbd632e2e	-0.055463962
47	0xbd587179	-0.05284259
48	0xbd2b6b77	-0.041850533
49	0xbd697048	-0.056991845
50	0xbd8b227c	-0.06793687
51	0xbd435390	-0.047687113
52	0xbd192be6	-0.03739538
53	0xbd564432	-0.05231113
54	0xbd9eed33	-0.07760086
55	0xbd328755	-0.043586094
56	0xbd363fb4	-0.044494346
57	0xbd9b1add	-0.07573483
58	0xbd9750df	-0.07388472
59	0xbd831d3c	-0.064020604
60	0xbd82a23c	-0.063786
61	0x3c890dbc	0.016730182
62	0xbd2e8830	-0.042610347
63	0xbd79c066	-0.0609745
64	0xbd557e21	-0.05212224
65	0xbdb6d091	-0.089265
66	0xbd8a2fa6	-0.067473695
67	0xbd84d467	-0.06485825
68	0xbd407535	-0.046986777
69	0xbda7bb68	-0.08190042
70	0xbd64792a	-0.055779614
71	0xbd41e744	-0.047339693
72	0xbdbcb290	-0.092137456
73	0xbd90d922	-0.07072665
74	0xbd92fc34	-0.0717701
75	0xbd4b7b2e	-0.04967802
76	0xbd860d0c	-0.06545457
77	0xbd5e1998	-0.054223627
78	0x3f01eff7	0.5075678
79	0xbd55af2d	-0.052169014
80	0xbe67c230	-0.2263267
81	0xbd8658fa	-0.0655994
82	0xbd64dca3	-0.055874478
83	0xbd668367	-0.05627766
84	0xbdb2330c	-0.08701143
85	0x3eee7c47	0.4657919
86	0xbd265328	-0.040606648
87	0xbd999ddb	-0.07500812
88	0xbd9b79ef	-0.07591616
89	0xbd4ac061	-0.049499873
90	0xbd6d9b9c	-0.05800973
91	0xbdd28f98	-0.102812946
92	0xbe5e54fa	-0.21712103
93	0xbd6085ea	-0.05481521
94	0xbd752d42	-0.059857614
95	0xbd809895	-0.06279103
96	0xbd350f61	-0.04420412
97	0xbd51b0ba	-0.05119393
98	0xbd1dc3ba	-0.038516738
99	0xbdf57ca3	-0.11986663
100	0xbd492a71	-0.04911274
101	0xbd58e744	-0.052954927
102	0xbd3354d9	-0.04378209
103	0xbd63968b	-0.05556349
104	0xbd8afac0	-0.06786108
105	0xbd84d2e9	-0.064855404
106	0xbd6b1460	-0.057392478
107	0x3ef66fb8	0.4813211
108	0xbd802eb5	-0.06258909
109	0xbd24dbc5	-0.04024865
110	0xbd5e68d5	-0.054299194
111	0xbd4f89ce	-0.05066853
112	0xbe4fcf4f	-0.20293926
113	0xbd885371	-0.0665654
114	0xbdaab034	-0.08334389
115	0xbd62b4bf	-0.055348154
116	0xbbff442e	-0.00779011
117	0xbdaa368f	-0.083111875
118	0xbd5f639d	-0.054538358
119	0xbd824a60	-0.06361842
120	0xbda6601e	-0.08123802
121	0xbd9e9825	-0.07743863
122	0xbd808087	-0.06274515
123	0xbd8d7658	-0.06907338
124	0x3d8561bb	0.06512781
125	0xbd5170ee	-0.05113309
126	0xbd4f54cd	-0.05061798
127	0xbd5c8c8a	-0.053844966
128	0xbd8b4e5e	-0.06802057
129	0xbd5016b6	-0.05080291
130	0xbd75cdcf	-0.060010727
131	0xbd4cae55	-0.049970943
132	0xbb2b3a01	-0.0026127102
133	0xbdedbd66	-0.116083905
134	0xbd3ce52d	-0.046116997
135	0xbd54d329	-0.05195919
136	0xbd5bb673	-0.053640794
137	0xbd87b7ec	-0.06626877
138	0xbd42cb20	-0.047556996
139	0xbdd60c49	-0.10451562
140	0x3d144bc5	0.036205072
141	0xbd818cbc	-0.06325671
142	0xbd61558a	-0.055013217
143	0xbd4c2509	-0.049840007
144	0xbef0bc1c	-0.47018516
145	0xbd698dda	-0.057020046
146	0xbd764d38	-0.060132235
147	0xbef24580	-0.4731865
148	0xbd4c0b44	-0.04981543
149	0xbd80fdd6	-0.06298415
150	0xbd6c4132	-0.057679363
151	0xbd8341e2	-0.064090505
152	0xbd57a773	-0.052649926
153	0xbe5cfdad	-0.21581145
154	0xbd40b1c4	-0.04704453
155	0xbd473dbc	-0.04864286
156	0xbdb76891	-0.08955491
157	0xbd3e9ff9	-0.04653928
158	0x3d13579e	0.03597223
159	0xbd53ad53	-0.051678967
160	0xbd36a144	-0.04458739
161	0xbd568f6c	-0.05238287
162	0xbd732d3a	-0.059369303
163	0xbd360992	-0.04444272
164	0xbd4d24b4	-0.05008383
165	0xbd618810	-0.0550614
166	0xbdad3223	-0.084568284
167	0xbd5bb708	-0.05364135
168	0xbd2f1e80	-0.042753696
169	0xbd59692e	-0.053078823
170	0x3e837af2	0.25679737
171	0xbdb39554	-0.087687165
172	0xbd68a17f	-0.05679464
173	0xbd5e9d3a	-0.05434916
174	0xbd3a37b0	-0.045463264
175	0xbd379aaf	-0.044825252
176	0xbdae648c	-0.085152715
177	0xbd2ad5da	-0.04170785
178	0xbd59a5b4	-0.053136542
179	0xbd4d794d	-0.05016451
180	0xbd817485	-0.063210525
181	0xbd56a37b	-0.052402
182	0xbd8d0601	-0.06885911
183	0xbd4f4ef0	-0.05061239
184	0xbd2c8f63	-0.04212893
185	0xbd4fd77c	-0.05074261
186	0xbd5c357e	-0.05376195
187	0xbe856ed0	-0.26061106
188	0xbd759a8c	-0.05996184
189	0xbe0e8494	-0.13917762
190	0xbe81f4fe	-0.25382227
191	0xbd43a87e	-0.04776811
192	0xbe4a838f	-0.19776748
193	0xbd6a2004	-0.05715944
194	0xbd6bacf5	-0.05753799
195	0xbd61dd14	-0.055142477
196	0xbd505266	-0.05085983
197	0xbda44b6c	-0.08022198
198	0xbd464649	-0.048406873
199	0xbd46b8b4	-0.04851599
200	0xbda1396a	-0.07872279
201	0xbd7ea7a3	-0.06217159
202	0xbd5c629f	-0.05380499
203	0xbd2ffa30	-0.042963207
204	0xbd4481a9	-0.047975216
205	0xbd4e5079	-0.050369713
206	0x3e94e5d5	0.29081598
207	0xbd429f1b	-0.047515016
208	0xbe9bc3bb	-0.30422768
209	0xbd5374d1	-0.051625077
210	0xbd65e363	-0.056125056
211	0xbd26a9b2	-0.040689178
212	0xbd8d7285	-0.069066085
213	0x3e864356	0.26223248
214	0xbd3ff888	-0.046867877
215	0xbdc5df4e	-0.096617326
216	0xbd724d43	-0.059155714
217	0xbd663648	-0.05620411
218	0xbd73fe95	-0.05956896
219	0xbd8b1662	-0.067913786
220	0xbe81ad93	-0.2532774
221	0xbd4b7ad3	-0.04967768
222	0xbd50c94b	-0.050973218
223	0xbd816de1	-0.06319786
224	0xbd4318b3	-0.047630977
225	0xbd452a6a	-0.048136152
226	0xbd45003f	-0.048095938
227	0xbdb1692f	-0.0866264
228	0xbd2eae28	-0.042646557
229	0xbd83aa20	-0.06428933
230	0xbd08f7e6	-0.03343954
231	0xbd3e5935	-0.046471793
232	0xbd65e82a	-0.056129612
233	0xbd77b215	-0.060472567
234	0xbd59338c	-0.053027675
235	0x3e67caa0	0.22635889
236	0xbe49e573	-0.19716434
237	0xbd5d471d	-0.054022897
238	0xbd4f6389	-0.050632033
239	0xbd4cdb3e	-0.050013773
240	0xbe81dedd	-0.25365344
241	0xbd694e1b	-0.056959253
242	0xbd9b6b30	-0.07588804
243	0xbd5a4e63	-0.05329741
244	0xbd3dda01	-0.046350483
245	0xbd9acbf3	-0.075584315
246	0xbd60b949	-0.0548642
247	0xbd68059d	-0.05664598
248	0xbdb3c71f	-0.08778214
249	0xbd851127	-0.06497412
250	0xbd64738a	-0.05577425
251	0xbd773158	-0.060349792
252	0xbe5b7d23	-0.21434455
253	0xbd63cb37	-0.055613723
254	0xbd483e3b	-0.048887473
255	0xbd3cf4ea	-0.046132006

output_w.weight f4 [5, 128]
0	0xbc80ed28	-0.015738085
1	0xbb5e9033	-0.003396046
2	0xbbafe8c6	-0.005368325
3	0xba513643	-0.0007980803
4	0xbd026f11	-0.031844202
5	0xbca5d258	-0.020241901
6	0xbc3b58c0	-0.011434734
7	0x3b48212f	0.0030537357
8	0x3b40b78a	0.0029406273
9	0x3bc1411f	0.0058976556
10	0xb993895a	-0.0002814036
11	0xbd484f2e	-0.048903637
12	0xbcaa2164	-0.020767875
13	0xbb2d896a	-0.002647961
14	0xba531147	-0.0008051586
15	0x3aa7ea98	0.0012811003
16	0xbebaceb9	-0.36485842
17	0x3bc64f4e	0.0060519343
18	0x3b829bcb	0.003985857
19	0x3e4ae317	0.1981319
20	0x3c467253	0.012112218
21	0xbbee97c9	-0.007281278
22	0x3b1a683b	0.0023560661
23	0xba8f9edd	-0.0010957379
24	0xbc0d081f	-0.008607893
25	0x3d37bb1b	0.044856172
26	0xbb0af18c	-0.0021201102
27	0xbb8826c1	-0.0041550105
28	0xbd0380f6	-0.03210541
29	0x3c50527b	0.012714977
30	0x3cbeaa49	0.023274558
31	0x3c5c7d9d	0.013457683
32	0xbc153c63	-0.009108636
33	0x3b80d6e0	0.003931865
34	0x3bb4d1ec	0.0055181887
35	0x3c57738b	0.013150106
36	0x3c30d512	0.010792987
37	0xbb101901	-0.002198756
38	0x3cd4a1ce	0.02595606
39	0xbb771670	-0.0037702583
40	0xbc22ee6e	-0.009944541
41	0xbc23a8c7	-0.00998897
42	0x3c6b1885	0.014349108
43	0xbd944159	-0.072390266
44	0x3bdc7262	0.0067275027
45	0x3ab986c7	0.0014154547
46	0x3c180dd9	0.009280645
47	0x39d1e0a3	0.00040030954
48	0xbc30cd08	-0.010791071
49	0x3c090927	0.0083639985
50	0xba1f3fd4	-0.000607488
51	0xbba00b08	-0.0048841275
52	0xbbd0269c	-0.006352259
53	0x3c03b4cb	0.00803871
54	0x3b82f318	0.003996264
55	0xbb1b3a2e	-0.00236858
56	0xbbb192ea	-0.005419125
57	0xbc172953	-0.009226161
58	0x3bebbefc	0.007194398
59	0x3d9ca154	0.076479584
60	0xbb462fce	-0.0030240896
61	0xbdffb90e	-0.12486468
62	0x3dbf83a0	0.09351277
63	0x3c285a14	0.010275383
64	0xbcabdbb7	-0.020978792
65	0xbbab0b66	-0.0052198647
66	0x3bcfdfde	0.0063438257
67	0x3c8b9bdd	0.017042095
68	0x39f398d2	0.00046462432
69	0xbc3582ab	-0.011078517
70	0x3b06d219	0.0020572005
71	0x3bf5aa7d	0.0074971304
72	0xbb917c1d	-0.0044398443
73	0xba05c976	-0.00051035674
74	0x3bd8968a	0.0066097425
75	0xbb7f6949	-0.0038972667
76	0x3b6152a9	0.0034381545
77	0xbbb35a8e	-0.0054734414
78	0xbe4ab9d8	-0.19797456
79	0x3bc83714	0.0061100814
80	0x3e9326d6	0.28740567
81	0x3bcc7ff3	0.0062408387
82	0xbbf3c5c7	-0.0074393484
83	0xbacc550a	-0.0015589308
84	0x3b01f954	0.001983245
85	0x3e303b0f	0.17210029
86	0x3b969c32	0.0045962567
87	0xbd1a3b83	-0.03765441
88	0xba7141ff	-0.00092032546
89	0xb995f1da	-0.00028599688
90	0xbb9f3bc4	-0.0048594195
91	0xbc693130	-0.014232919
92	0xbdbe1165	-0.092806615
93	0xba157439	-0.00057012175
94	0x3bac655b	0.005261106
95	0x3ba3cf8f	0.004999108
96	0xbb7b19c8	-0.0038314927
97	0x3921c7f8	0.0001542865
98	0xbb3ceb25	-0.002882668
99	0x3c360ee5	0.01111195
100	0xbb19ec8e	-0.0023486945
101	0xbb1c542c	-0.0023853881
102	0x3c59b053	0.013286668
103	0x3c296337	0.010338596
104	0x3c18221d	0.009285477
105	0x3be1f3eb	0.0068955324
106	0x3ad66404	0.0016356711
107	0x3cd1081a	0.025516558
108	0xbdebb5cf	-0.115092866
109	0x3c397d89	0.011321434
110	0x3c0c8716	0.008577129
111	0x3b701cfc	0.003663837
112	0x3dc9c97b	0.098528825
113	0xbb8f6812	-0.00437642
114	0xbb132692	-0.002245341
115	0x3c54199d	0.01294556
116	0xbc5a0aaa	-0.013308207
117	0xbbf71614	-0.0075404737
118	0xbb1af5a5	-0.002364495
119	0x3b50a447	0.0031836198
120	0xba9b771a	-0.0011861057
121	0xbbccc4e6	-0.006249058
122	0x3b8cda25	0.004298466
123	0x3b2635a4	0.0025361562
124	0xbc43502c	-0.01192097
125	0x3ab78699	0.0014001905
126	0xbbcf57f1	-0.006327622
127	0x3c49447a	0.0122843925
128	0x3cefb924	0.029263087
129	0xb9debac8	-0.00042482303
130	0xbbf28d4d	-0.0074020983
131	0x3b7edadc	0.0038887775
132	0xbdccdd3a	-0.10003133
133	0xbda78b99	-0.08180923
134	0x3b1706aa	0.0023044744
135	0x39a673b4	0.00031748193
136	0xbb136515	-0.002249067
137	0x3b427288	0.0029670317
138	0xbb1d1ddd	-0.0023974099
139	0x3d2fecf2	0.042950578
140	0x3cf67fee	0.030090299
141	0xbc92f4a3	-0.017938918
142	0x3b81cad3	0.003960946
143	0xbb74bfb4	-0.003734571
144	0x3f0ece7a	0.5578381
145	0xbb854591	-0.004067131
146	0x3b8e5751	0.004343905
147	0x3edc1a06	0.42988604
148	0xbc4af8f0	-0.012388453
149	0x397da7c8	0.00024190464
150	0xb8a6fbc0	-7.962389e-05
151	0xbbbdcd9f	-0.005792334
152	0xbb0d88f6	-0.0021596528
153	0xbd51bf3c	-0.051207766
154	0x3adf214a	0.0017023471
155	0xbb41a057	-0.0029545033
156	0xbd21a89b	-0.039467435
157	0xbbe7d86a	-0.007075359
158	0x3d806dbf	0.062709324
159	0xbad49e14	-0.0016221427
160	0x3baa4aae	0.005196891
161	0x38f796b8	0.00011805951
162	0x3ca9bbff	0.020719526
163	0xbbb53516	-0.00553001
164	0x3b8618da	0.004092318
165	0xbb961636	-0.0045802845
166	0xbcf671d8	-0.030083582
167	0xbb06eeaa	-0.0020589032
168	0x3b64e182	0.0034924452
169	0x3a9a5963	0.0011775907
170	0x3dc10953	0.094256066
171	0x3dfa8b94	0.12233654
172	0xba33013f	-0.0006828494
173	0x3ba3c4ed	0.0049978406
174	0xbbf58373	-0.0074924766
175	0x3b1a4789	0.0023541173
176	0x3b84cea6	0.0040529547
177	0xbb80a229	-0.003925581
178	0x3b2194d6	0.0024655364
179	0xb99fcc54	-0.0003047908
180	0xbbfb0520	-0.007660523
181	0xbba4c281	-0.0050280695
182	0xbba2886f	-0.004960112
183	0xbb426742	-0.0029663597
184	0x3ba75bc1	0.0051073735
185	0x3bbcda6f	0.005763344
186	0xbbce9023	-0.0063038035
187	0xbd178589	-0.036992583
188	0x3ab837e2	0.001405474
189	0xbd5b2789	-0.0535045
190	0xbd4d989f	-0.05019438
191	0xbbed0e00	-0.007234335
192	0xbe175c8f	-0.14781402
193	0x3b7bddcd	0.0038431764
194	0xbbba6740	-0.005688578
195	0xbbd72a16	-0.0065662963
196	0xbbb223c0	-0.0054363906
197	0x3c765ed7	0.01503726
198	0x3a665c78	0.00087875826
199	0xbbbc73eb	-0.005751123
200	0xbc32f7c2	-0.010923328
201	0x3bc82edc	0.0061091017
202	0x3a8ee44d	0.0010901779
203	0xb9c2ec78	-0.00037178746
204	0x399a9d5a	0.00029490405
205	0x3a5557f0	0.0008138409
206	0xbcf47e58	-0.029845402
207	0xbb5db15c	-0.0033827638
208	0x3da800b9	0.08203263
209	0xbc1d3656	-0.009595474
210	0xbb023bc6	-0.0019872054
211	0xba72e17c	-0.0009265167
212	0x3a17f104	0.0005796107
213	0xbd888ea5	-0.06667832
214	0x3a6a8834	0.00089466874
215	0x3b859132	0.0040761465
216	0xbb282897	-0.002565896
217	0xbb9e71e4	-0.004835354
218	0x3b6de59c	0.0036300188
219	0x3bcda397	0.006275605
220	0xbcd2e32b	-0.025743088
221	0xb9a2ac8c	-0.00031027605
222	0x39173348	0.00014419586
223	0x3b38635b	0.0028135392
224	0x3bf19b11	0.0073732217
225	0x39101692	0.00013741318
226	0x3ab842d6	0.0014058005
227	0xbcb60a7e	-0.0222218
228	0x3b0e763c	0.0021737954
229	0x3a84b125	0.0010123594
230	0xbc9e3c8b	-0.019315979
231	0xbb2b447e	-0.0026133354
232	0xbab6fcf6	-0.0013960886
233	0xbc2f02e5	-0.010681842
234	0x3b0e02ea	0.0021669217
235	0x3dd18339	0.10230107
236	0xbbd5765b	-0.006514353
237	0xbb640c84	-0.00347975
238	0xba292c9c	-0.00064534857
239	0xbbe21e01	-0.0069005494
240	0x3db35bd7	0.087577514
241	0x3aa946ce	0.0012914778
242	0x3bcc6299	0.0062373397
243	0xbb2eb067	-0.0026655437
244	0xba3851b2	-0.00070312165
245	0xb7e8a8e0	-2.7735194e-05
246	0x3a80df63	0.00098322
247	0xbbdd6141	-0.0067559783
248	0x3d7b7efe	0.061400406
249	0x3b6bc165	0.0035973426
250	0xbac78471	-0.0015221966
251	0xbba9b7c2	-0.0051793763
252	0x3d2c54c0	0.04207301
253	0xbb436cfc	-0.0029819598
254	0x3a630504	0.000866011
255	0xbbf92a52	-0.007603922

output_w.bias f4 [5]
0	0xbd218592	-0.039434023
1	0x3d743d35	0.059628684
2	0xbf6ca060	-0.9243221
3	0xbf77d81b	-0.96814126
4	0xbdf6eaa1	-0.12056471

square_avg f4 [64]
0	0x3e147a93	0.14499883
1	0x3e4b202e	0.19836494
2	0x3da1fbbd	0.079093434
3	0x3955dc83	0.0002039541
4	0x38de0cea	0.0001058819
5	0x3d0f6843	0.03501154
6	0x3cbf9911	0.023388417
7	0x399f8b22	0.00030430505
8	0x3c862a08	0.016377464
9	0x301d0688	5.712555e-10
10	0x3d77c46d	0.06049006
11	0x3d484de0	0.048902392
12	0x3dfe2543	0.12409451
13	0x3c497024	0.012294803
14	0x3ba44f1e	0.0050143143
15	0x3c33f1f4	0.010982979
16	0x3d321867	0.043480303
17	0x3b8fdc68	0.004390288
18	0x3c981bc1	0.018567922
19	0x3f9733b5	1.1812655
20	0x38afd859	8.384948e-05
21	0x3d4e3c31	0.05035037
22	0x2dd47f12	2.415804e-11
23	0x31cf92ad	6.041168e-09
24	0x3d471cda	0.0486115
25	0x398145ba	0.00024656748
26	0x3dff9f1f	0.12481522
27	0x2cef6374	6.80383e-12
28	0x3e07efd9	0.13275088
29	0x3e249ddd	0.16075845
30	0x3e2184a9	0.15773262
31	0x3b908bb7	0.0044111866
32	0x3c9b6f0f	0.018973855
33	0x3e7ed7a8	0.24886954
34	0x3e3c0a17	0.18363224
35	0x3d390622	0.045171864
36	0x3df2c8e2	0.118547216
37	0x3d663d3a	0.056210734
38	0x3ba32c98	0.004979681
39	0x3ccb2648	0.024798527
40	0x3d21bd2c	0.03948705
41	0x3b559a68	0.0032593254
42	0x30c594f0	1.4375967e-09
43	0x3c8e458a	0.017367143
44	0x328f5ccf	1.6689595e-08
45	0x3cab0c88	0.020879999
46	0x3d29bc08	0.041439086
47	0x3c8121b2	0.015763137
48	0x3aa6c1af	0.0012722517
49	0x3ea1c27c	0.31593692
50	0x2e234043	3.7118985e-11
51	0x3d11bf06	0.035582565
52	0x2ca49abd	4.6783397e-12
53	0x2f022054	1.1834916e-10
54	0x3d874dd5	0.06606642
55	0x3b4ccd43	0.0031250275
56	0x3c8322fc	0.016007893
57	0x3ad062a8	0.0015898542
58	0x2ca3f692	4.6601134e-12
59	0x3d841d42	0.06450893
60	0x3cca1900	0.024670124
61	0x3cb7f78c	0.022456907
62	0x3bc0855f	0.005875274
63	0x3d7ccb07	0.06171706

square_avg f4 [5]
0	0x40eb2fe9	7.3495984
1	0x40dc8173	6.890802
2	0x3d63f2ba	0.055651404
3	0x3e92f496	0.2870223
4	0x3c72acfd	0.014811751
