S-LSTM/Goal+Socail_Array_PyTorch/social_lstm/save/0/social_model_epoch_7.pth (torch, 815043 bytes, 22 tensors)

embedding_b f4 [64]
0	0xbd508e44	-0.050916925
1	0x3e8cc2f9	0.27492502
2	0x3e79ac69	0.24382176
3	0xbbbeec49	-0.005826507
4	0xbc203cc1	-0.00978011
5	0xbd00d04a	-0.03144864
6	0xbdae27dc	-0.08503696
7	0xb9f51039	-0.00046742128
8	0xbe2fbd1a	-0.1716198
9	0xbb9e146b	-0.0048242114
10	0x3c3cf662	0.011533352
11	0xbd3230c1	-0.043503527
12	0xbe4de159	-0.20105495
13	0xbdb11b85	-0.08647827
14	0xbbd81e54	-0.0065954123
15	0xb99ce818	-0.00029927562
16	0xb9440b6d	-0.00018696273
17	0xbba8f646	-0.005156311
18	0xbe48924f	-0.19587062
19	0xbd98684f	-0.0744177
20	0xbccb09f2	-0.024785016
21	0xbc51b2a8	-0.012798943
22	0xacb3991c	-5.1044845e-12
23	0x9f533800	-4.472731e-20
24	0xbcd022ca	-0.025407214
25	0xa78eaa90	-3.959784e-15
26	0x3d45d16b	0.04829542
27	0xb996a098	-0.0002872988
28	0x3ea6fb04	0.32613385
29	0xbe1d27ab	-0.15347163
30	0xbcc3eb26	-0.023915838
31	0x3bd65568	0.006540943
32	0xbd848eee	-0.06472574
33	0x3bc525d4	0.0060164724
34	0x3d2f523d	0.042803038
35	0xbd8042f7	-0.062627725
36	0x3e3a46a0	0.18191004
37	0x3da2dbbc	0.07952067
38	0xbbd74225	-0.0065691643
39	0xbde637aa	-0.11241086
40	0xbd253226	-0.04033103
41	0xbcba05b4	-0.022707798
42	0x3c5946d8	0.013261519
43	0xbc42ae0f	-0.011882319
44	0xbbed1cd2	-0.0072361017
45	0xbbd9d7a2	-0.00664802
46	0x3c8cca9f	0.017186461
47	0x3d8eee69	0.06979067
48	0xbe56aebc	-0.20965093
49	0x3df1a838	0.11799663
50	0x3d2afc48	0.0417445
51	0x3dab2d27	0.083582215
52	0xbc30b99b	-0.010786439
53	0xb0aa4986	-1.2390025e-09
54	0x3d4df8ae	0.050285988
55	0xbd98afeb	-0.07455429
56	0xbc93ca0f	-0.018040685
57	0xbc8fc444	-0.017549641
58	0xbc8a5121	-0.016884388
59	0x3dc7bb41	0.09752513
60	0x3e243938	0.16037452
61	0x3e1ef19e	0.15521857
62	0xbde88c5e	-0.11354898
63	0xbb0c718b	-0.0021429982

output_b f4 [5]
0	0x3cf1d0e3	0.02951855
1	0xbba4d697	-0.005030464
2	0xbf43d1a1	-0.76491743
3	0xbf3e2681	-0.742775
4	0xbd9e7126	-0.07736425

embedding_w.weight f4 [64, 4]
0	0x3ec6f9b0	0.3886237
1	0xbf41b9d3	-0.7567417
2	0x3d54441d	0.05182277
3	0x3e347b7b	0.17625229
4	0x3e29af06	0.16570672
5	0x3fa7fc92	1.3123953
6	0xbda51291	-0.08060182
7	0x3eab4c3c	0.334566
8	0xbf8d9f32	-1.1064208
9	0xbf456611	-0.77108866
10	0xbe1e8576	-0.15480599
11	0xbcb2110c	-0.021736644
12	0xb294db86	-1.7329295e-08
13	0xb9efa635	-0.00045709466
14	0x9af297a4	-1.0033384e-22
15	0xba5ebbc1	-0.00084966054
16	0xba081c63	-0.0005192218
17	0xbb0fe153	-0.0021954372
18	0x3aef2fb6	0.0018248472
19	0x3b1820cc	0.0023212908
20	0x3f10ae00	0.565155
21	0xbf37cc61	-0.7179623
22	0x3e67502a	0.22589174
23	0x3eba461c	0.36381614
24	0x3efb3703	0.49065408
25	0x3f3d0082	0.738289
26	0x3e245773	0.16048984
27	0x3d21968a	0.039450206
28	0xa0e71650	-3.9147687e-19
29	0x307f6902	9.2917685e-10
30	0x1fc583a0	8.36505e-20
31	0xb5a2f796	-1.2141998e-06
32	0x3eb84466	0.35989684
33	0x3e87ef0b	0.26549563
34	0xbdbfdfd5	-0.093688644
35	0x3e6ff348	0.23432648
36	0xbc3acaf8	-0.011400931
37	0xbb97b6a8	-0.0046299286
38	0x39a165a0	0.0003078403
39	0x3b00dd6a	0.0019663223
40	0xbef26505	-0.47342697
41	0x3f5f516d	0.8723362
42	0x3e466819	0.19375648
43	0xbe4e6fe0	-0.20159864
44	0xbe934dcd	-0.28770295
45	0x3e8d4b0e	0.27596325
46	0xbe424cd5	-0.18974622
47	0x3e1c6946	0.15274534
48	0x3ee767e7	0.4519646
49	0xbe8395dd	-0.25700274
50	0xbee5e1f4	-0.4489895
51	0x3e8ac89c	0.27106178
52	0x3f7be587	0.98397106
53	0x3c4d2f2b	0.012523453
54	0x3e00e9ca	0.12589183
55	0x3e2a520a	0.16632858
56	0x3bec43e8	0.0072102435
57	0x3a6f9fe2	0.0009140951
58	0x3a7d672b	0.00096665573
59	0x398c370d	0.00026743897
60	0xad5bb8d4	-1.2489749e-11
61	0x3aa79586	0.001278565
62	0x37399eba	1.1063816e-05
63	0xa2c02825	-5.208421e-18
64	0x2c4c8428	2.9063505e-12
65	0x273b9f23	2.6037731e-15
66	0xa5382240	-1.597106e-16
67	0x27cf7ec0	5.7591464e-15
68	0x36df978c	6.6635603e-06
69	0xbaa81ddc	-0.0012826282
70	0xb59c5510	-1.1647662e-06
71	0xbaaeec57	-0.0013345581
72	0x3eb4a1c3	0.35279664
73	0xbef24a57	-0.47322342
74	0x3e42931b	0.19001429
75	0xbe938a20	-0.2881632
76	0x3f441523	0.7659475
77	0x3e86109e	0.26184553
78	0xbf4a02c5	-0.78910476
79	0xbe8da59b	-0.2766541
80	0x3b9c752c	0.00477471
81	0xbcd7b7ea	-0.026332814
82	0x3b592d2b	0.0033138494
83	0xbd0f79b0	-0.03502816
84	0xba718403	-0.00092130917
85	0xba66e681	-0.00088081515
86	0xbc0cb996	-0.008589169
87	0xba1727ca	-0.0005766122
88	0x2c08d10c	1.9442807e-12
89	0x22bd5212	5.131545e-18
90	0x1db4653a	4.775027e-21
91	0xa2835200	-3.559444e-18
92	0x108245f1	5.138372e-29
93	0x9e263a31	-8.8000005e-21
94	0x80021bbc	-1.9362e-40
95	0x9d8c59a8	-3.7150394e-21
96	0xbe4684fe	-0.1938667
97	0x3e167778	0.14694011
98	0x3e5c97fc	0.21542352
99	0x3dd18e30	0.10232198
100	0x9ecb6b21	-2.1537769e-20
101	0x1fef487f	1.0134037e-19
102	0x1c0ad113	4.593059e-22
103	0xa10b3136	-4.716016e-19
104	0xbf620993	-0.8829586
105	0xbf8f9b23	-1.1219219
106	0xbde6ab0b	-0.112630926
107	0xbf2922a0	-0.6606846
108	0xb6aa2167	-5.0702834e-06
109	0x358a0fdd	1.0286418e-06
110	0x39676c42	0.00022070206
111	0x33e60076	1.07102935e-07
112	0xbf9ac1c4	-1.2090383
113	0xbf4b4525	-0.7940238
114	0xbd95bc3f	-0.07311296
115	0x3d7605de	0.06006419
116	0xbe7fc765	-0.24978407
117	0xbec59abf	-0.38594624
118	0x3e78e7c2	0.24307159
119	0x3ee942ac	0.4555868
120	0x3d69913b	0.05702327
121	0x3e118bb1	0.14213444
122	0x3db14ce6	0.08657245
123	0xbdd1254b	-0.10212191
124	0xbf64c2be	-0.89359653
125	0x3e7a8089	0.24463095
126	0x3aba4ba2	0.0014213214
127	0x3dfeca7c	0.124409646
128	0xbf49ce74	-0.7883065
129	0x3f1b4f0a	0.6066748
130	0xbe21dbaf	-0.15806459
131	0xbe0ebf41	-0.13940145
132	0x3ed1ef7e	0.4100303
133	0x3f9504dc	1.1642108
134	0xbdaed354	-0.085364014
135	0xbe052979	-0.13004102
136	0x3faabf14	1.3339562
137	0xbe853ff1	-0.26025346
138	0x3dc82c39	0.0977406
139	0x3e95465c	0.29155242
140	0x3f4da5c3	0.8033106
141	0x3f0c0165	0.5468963
142	0x3b5ba044	0.0033512274
143	0x3e856c06	0.26058978
144	0xbf1bf00b	-0.6091315
145	0x3f96f0d4	1.1792245
146	0xbd3537ed	-0.044242788
147	0x3ed14b94	0.40877974
148	0x3fa0346a	1.2515996
149	0xbf726fd7	-0.94701904
150	0x3e7aadbd	0.24480338
151	0xbef45349	-0.47719792
152	0x3b23ee4e	0.0025013867
153	0xb3ae4aa7	-8.1160856e-08
154	0x3b84d8bd	0.0040541575
155	0xb32f1f9b	-4.0774108e-08
156	0xbe23cdd6	-0.15996489
157	0x3f2670bf	0.65015787
158	0x3e2c6692	0.16836002
159	0xbd1ff2f8	-0.039050072
160	0x3f99ff29	1.2030994
161	0x3e9956c6	0.29949015
162	0xbc7098ea	-0.014684895
163	0x3e74b025	0.23895319
164	0xbba5fb14	-0.0050653312
165	0xbb43222f	-0.0029775014
166	0xbbe95394	-0.007120559
167	0xbcb261a6	-0.021775078
168	0xbc0fbdd9	-0.008773291
169	0x3dc17851	0.09446777
170	0xbd62a4c9	-0.055332933
171	0xbd8483e9	-0.06470472
172	0xbc3d6653	-0.0115600405
173	0x3c7f2942	0.0155738015
174	0x3beae119	0.007167947
175	0xbcd1291b	-0.025532296
176	0xa92a7520	-3.7849173e-14
177	0xb28b020c	-1.618266e-08
178	0xbb2dabcf	-0.002650011
179	0x32c10452	2.2470122e-08
180	0x3c562c0b	0.013072024
181	0x3cc092cb	0.023507496
182	0x3d3080a3	0.043091428
183	0x3c18e82f	0.009332701
184	0x3e6aef65	0.22942884
185	0x3f824ee5	1.0180327
186	0x3d6df503	0.05809499
187	0x3c9545fc	0.018221848
188	0xbef835ed	-0.48478642
189	0x3f660d4a	0.8986403
190	0x3dbde420	0.09272027
191	0x3d4d8862	0.050178893
192	0x3ee14125	0.43995014
193	0x3e5cf44f	0.21577571
194	0x3da09c3b	0.078422986
195	0x3d9ae892	0.075638905
196	0xbf05e6b0	-0.52305126
197	0xbf901698	-1.1256895
198	0xbdb567b7	-0.08857673
199	0x3dbb5f5d	0.091490485
200	0xbd51a3e2	-0.05118168
201	0x3d504936	0.05085107
202	0x3cef5794	0.029216565
203	0x3db8eab9	0.09029145
204	0xbf9a5709	-1.2057811
205	0x3f4e1ac4	0.8050959
206	0xbe50c67e	-0.20388219
207	0x3defa347	0.117010646
208	0xbd08bcd3	-0.0333832
209	0x3d29148f	0.04127937
210	0x3d1a72b3	0.037707042
211	0xbc474f0d	-0.012164843
212	0x1a57dcba	4.463926e-23
213	0x9f19690b	-3.24859e-20
214	0x19b62ae0	1.8835676e-23
215	0x223b8a24	2.5416357e-18
216	0x3e9363db	0.2878712
217	0xbf88b78a	-1.0681012
218	0xbd69bb9d	-0.057063688
219	0xbd6658b3	-0.056236934
220	0x3f0848e4	0.5323622
221	0xbedc0e47	-0.42979643
222	0x3e189a4e	0.14902613
223	0xbe78336b	-0.24238364
224	0x3f0930d7	0.5359015
225	0xbf2378e3	-0.63856333
226	0xbdf1c043	-0.11804249
227	0x3df23a96	0.11827581
228	0xbcca7600	-0.02471447
229	0xbc9cfdd3	-0.019164002
230	0x3b1d8864	0.0024037594
231	0xbd33e3e2	-0.043918498
232	0xbc1993d2	-0.009373622
233	0xbc3954e4	-0.011311743
234	0xbc5f714d	-0.013637853
235	0xbd06d7af	-0.032920536
236	0xbf80df48	-1.006814
237	0xbf5a14c0	-0.8518791
238	0xbe0eda4a	-0.13950458
239	0xbd3ef022	-0.046615727
240	0xbee7b991	-0.45258763
241	0xbf8181c8	-1.0117731
242	0xbd87a80d	-0.0662385
243	0x3db5a444	0.08869222
244	0x3f7c8a4e	0.98648536
245	0x3f520876	0.8204416
246	0x3ca55269	0.020180898
247	0x3e0a0d57	0.13481651
248	0xbf3f59b8	-0.74746275
249	0x3e59103c	0.21197599
250	0x3c4f8344	0.0126655735
251	0x3dc32147	0.095278315
252	0xbf92e279	-1.1475364
253	0x3f567d12	0.8378459
254	0xbe5050b2	-0.20343283
255	0x3dce6b78	0.10079092

embedding_w.bias f4 [64]
0	0x3db2c7ff	0.087295525
1	0x3d9b9a1f	0.07597756
2	0x3de1f18b	0.11032399
3	0xbbbeec49	-0.005826507
4	0xbc203cc1	-0.00978011
5	0xbd759eb2	-0.059965797
6	0xbcd272ce	-0.025689509
7	0xb9f51039	-0.00046742128
8	0x3e1b86f8	0.15188205
9	0xbb9e146b	-0.0048242114
10	0xbd5157c0	-0.051109076
11	0x3c3d5d50	0.011557892
12	0x3e0f9f55	0.14025624
13	0x3e675ece	0.22594759
14	0xbbd81e54	-0.0065954123
15	0xb99ce818	-0.00029927562
16	0xb9440b6d	-0.00018696273
17	0xbba8f646	-0.005156311
18	0x3dbb59ad	0.09147964
19	0xbcd6ad3e	-0.026205655
20	0xbccb09f2	-0.024785016
21	0xbc51b2a8	-0.012798943
22	0xacb3991c	-5.1044845e-12
23	0x9f533800	-4.472731e-20
24	0xbcd022ca	-0.025407214
25	0xa78eaa90	-3.959784e-15
26	0xbdcd6aa6	-0.10030107
27	0xb996a098	-0.0002872988
28	0x3e047abd	0.12937446
29	0x3e037a97	0.12839733
30	0xbcc3eb26	-0.023915838
31	0x3c1916e6	0.009343838
32	0x3e7cbf32	0.2468231
33	0x3cb681aa	0.022278626
34	0x3eab0468	0.334018
35	0x3e7c83ad	0.24659605
36	0xbc2e3eeb	-0.010635118
37	0xbd814255	-0.0631148
38	0xbbd74225	-0.0065691643
39	0x3e25bc44	0.16185099
40	0x3d3f6661	0.046728496
41	0xbcba05b4	-0.022707798
42	0x3c5946d8	0.013261519
43	0xbc42ae0f	-0.011882319
44	0xbbed1cd2	-0.0072361017
45	0xbbd9d7a2	-0.00664802
46	0xbc315ae6	-0.0108248945
47	0xbdcec870	-0.10096824
48	0x3ca05267	0.019570542
49	0x3dd6812e	0.10473858
50	0x3d2afc48	0.0417445
51	0xbdd6ec7e	-0.10494326
52	0xbc30b99b	-0.010786439
53	0xb0aa4986	-1.2390025e-09
54	0x3d128580	0.035771847
55	0xbd98afeb	-0.07455429
56	0x3bfc1af3	0.0076936423
57	0xbc8fc444	-0.017549641
58	0xbc8a5121	-0.016884388
59	0x3ec3123e	0.38099855
60	0xbdeaedc0	-0.114711285
61	0xbda06eed	-0.078336574
62	0x3e10c231	0.14136578
63	0xbe802cd5	-0.25034204

embedding_t_w.weight f4 [1, 8]
0	0x3f487355	0.7830098
1	0xbead425d	-0.33839694
2	0x3dc43ca7	0.09581881
3	0xbed77768	-0.42083287
4	0xbd81595a	-0.063158706
5	0xbc6a6ef1	-0.014308677
6	0x3e1f9033	0.15582351
7	0xbe939904	-0.2882768

lstm.weight_ih f4 [512, 65]
0	0xbd059315	-0.03261097
1	0xbc65cee0	-0.014026374
2	0xbdc12e15	-0.094326176
3	0x2b63ddc7	8.095438e-13
4	0x3befad47	0.0073143574
5	0xbd10dfe7	-0.03536978
6	0xbca220c4	-0.019791014
7	0xbaa0aba1	-0.0012258181
8	0xbc29ae72	-0.010356532
9	0x2e11d488	3.315795e-11
10	0xbba01f5e	-0.0048865518
11	0xbbcdc8f4	-0.006280059
12	0x3b12a3de	0.0022375504
13	0xbd184f8d	-0.03718524
14	0xabec2e27	-1.6781618e-12
15	0xaff3c922	-4.4344356e-10
16	0x2fa235a8	2.9505753e-10
17	0xbb92d790	-0.0044812635
18	0xbc75914a	-0.014988253
19	0x3bcdce47	0.0062806937
20	0xb9851c00	-0.00025388598
21	0xbbd24ea5	-0.0064180666
22	0xb64e0cf2	-3.0703927e-06
23	0x38c33868	9.308831e-05
24	0xbb557555	-0.0032571156
25	0x3b7b7a60	0.0038372502
26	0xbd049dd8	-0.032377094
27	0x3b14f2b7	0.0022727677
28	0xbddb4eec	-0.107084125
29	0xbd1c4d05	-0.03815939
30	0xbbf7842a	-0.007553597
31	0xbcb49bc4	-0.022046931
32	0xbd26cb62	-0.040721305
33	0x3bd6f0da	0.0065594735
34	0xbd903e09	-0.07043082
35	0xbcaf2c4d	-0.021383429
36	0x3bcaec82	0.0061927447
37	0xbd048ca0	-0.032360673
38	0x33fb8260	1.17118134e-07
39	0xbc38f19d	-0.011288074
40	0xbc97c5e3	-0.018526977
41	0x8001a42b	-1.50728e-40
42	0xbc3048a4	-0.010759506
43	0xb777645e	-1.4745716e-05
44	0x3b6764f0	0.0035307966
45	0xbbf4b1fc	-0.0074675065
46	0xb88c1bc0	-6.680889e-05
47	0xbb1d097e	-0.0023961957
48	0xbbab5f3e	-0.0052298596
49	0xbd9b7f70	-0.07592666
50	0xbcceb008	-0.025230423
51	0xbcb4c6e4	-0.022067495
52	0xbaafb426	-0.0013405129
53	0x390f2620	0.00013651745
54	0xbd2c7f1f	-0.04211342
55	0xbc55634d	-0.013024163
56	0xbc6a4055	-0.0142975645
57	0x36b1dc1a	5.3006343e-06
58	0x100a91f6	2.7328145e-29
59	0xbe030e79	-0.1279849
60	0xbd1d59ed	-0.038415838
61	0xbc9ac888	-0.018894449
62	0xbcb7a6eb	-0.02241846
63	0xb9df2650	-0.0004256242
64	0xbc341009	-0.010990151
65	0xbc82a644	-0.015948422
66	0xbd54af16	-0.051924787
67	0xbd4f5063	-0.050613772
68	0xbb48f61f	-0.0030664278
69	0x3024cf13	5.995712e-10
70	0x3acbffba	0.0015563883
71	0xbd063457	-0.03276476
72	0x3b219c0d	0.0024659664
73	0xbc07b929	-0.008283892
74	0xb42b9703	-1.5980554e-07
75	0xbc1e2ca8	-0.009654202
76	0xbc0e2bd4	-0.008677442
77	0x3bbaa1e9	0.0056955707
78	0xbcb4aa43	-0.022053843
79	0x225c55cc	2.986098e-18
80	0x37a7d7ac	2.0008381e-05
81	0xaebd1319	-8.5981174e-11
82	0xb986eaa8	-0.00025733304
83	0xbc6872ae	-0.014187498
84	0xbc7f9711	-0.015599982
85	0x3918a85e	0.00014558571
86	0x3967b444	0.00022097031
87	0x3b1718b8	0.0023055505
88	0xb8b53e74	-8.6423854e-05
89	0xbc0c676d	-0.0085695805
90	0x39298834	0.00016167836
91	0xbd2da4fe	-0.042393677
92	0xb50a6590	-5.15568e-07
93	0xbd78ec4e	-0.060772233
94	0x3b973ef4	0.004615659
95	0xbbbfea0a	-0.005856757
96	0xbd02787a	-0.031853177
97	0xbd22dbd1	-0.039760415
98	0xbcc4b526	-0.02401216
99	0xbd4b1453	-0.04957993
100	0xbceeba84	-0.029141672
101	0xbd0791b8	-0.033097953
102	0xbd21af11	-0.039473597
103	0x9a2b4572	-3.541807e-23
104	0xbc68c9bd	-0.014208254
105	0xbc89237f	-0.016740559
106	0x193c5aba	9.737694e-24
107	0xbbf418e0	-0.0074492544
108	0xb80a7c36	-3.3017444e-05
109	0x3b97533e	0.0046180775
110	0xbbeb136e	-0.007173947
111	0xbc9916ea	-0.018687684
112	0xbc993e11	-0.018706353
113	0xbbd4a2ec	-0.0064891484
114	0xbd40a687	-0.047033813
115	0xbba5c286	-0.0050585894
116	0xbd23648e	-0.03989082
117	0xbb97c4a5	-0.004631596
118	0x38e9c430	0.000111468486
119	0xbd2f6f32	-0.042830653
120	0xbc0e795d	-0.008695927
121	0xbc5b3c1f	-0.013381033
122	0xbb91138b	-0.0044273785
123	0x946e2e2a	-1.20250336e-26
124	0xbd920f36	-0.071318075
125	0xbd24781e	-0.040153615
126	0xbcd9ed79	-0.026602494
127	0xbcee04a3	-0.029054945
128	0xbcba44d0	-0.02273789
129	0xbc8aa315	-0.016923467
130	0xbc72eec2	-0.014827432
131	0xbd6547cd	-0.055976678
132	0xbd523c4f	-0.051327046
133	0xba6e0c8d	-0.00090808497
134	0xbb740bac	-0.0037238402
135	0xb9af51ec	-0.00033439638
136	0xbcf18b2d	-0.02948531
137	0xb3f48280	-1.1385873e-07
138	0xbc3424ca	-0.010995099
139	0x3447fee4	1.8626048e-07
140	0xbc5f0b2d	-0.013613504
141	0xbc539bb6	-0.012915542
142	0x3b9d0e7b	0.004792986
143	0xbcba18dc	-0.022716932
144	0xa1a34fd8	-1.1066444e-18
145	0xbafd19f0	-0.0019310098
146	0x3abc8ea4	0.0014385772
147	0xbb833fcd	-0.0040054084
148	0xbc27bcdc	-0.010237899
149	0xbcb437b3	-0.021999216
150	0x39335c24	0.00017105095
151	0xb9b716d0	-0.00034921477
152	0xb9faf854	-0.00047868735
153	0x36b44f08	5.3736185e-06
154	0xbc576704	-0.013147119
155	0x3a474798	0.0007601916
156	0xbd38d4e1	-0.045124892
157	0x3aba53cd	0.0014215648
158	0xbd79a6ab	-0.060949963
159	0xbad8e6b8	-0.0016548252
160	0xbc2df2fd	-0.010617015
161	0xbd0be8d6	-0.034157597
162	0xbd25d400	-0.040485382
163	0xbcc2360f	-0.023707418
164	0xbd652ada	-0.05594907
165	0xbd058e09	-0.03260616
166	0xbd12e379	-0.035861466
167	0xbcf8b080	-0.0303576
168	0x9e2a2514	-9.007393e-21
169	0xbc955ac9	-0.018231766
170	0xbc7bbf49	-0.01536543
171	0x9d03c251	-1.7438165e-21
172	0xbc26740e	-0.0101595055
173	0xb9024a9e	-0.00012425563
174	0xb8af74d0	-8.366408e-05
175	0xbc2c1dc2	-0.010505142
176	0xbc814698	-0.015780732
177	0xbc9f56f9	-0.019450651
178	0xbb7cb7cd	-0.0038561702
179	0xbd4e4661	-0.050360087
180	0x3baec598	0.0053336136
181	0xbd2483d2	-0.040164776
182	0xbbe58776	-0.0070046736
183	0xba333626	-0.0006836377
184	0xbd141603	-0.036153805
185	0xbbc1b241	-0.005911142
186	0xbc61ef8a	-0.013790021
187	0x3b3e5bf0	0.0029046498
188	0x13092858	1.7311722e-27
189	0xbd93647f	-0.071969025
190	0xbd31662e	-0.043310337
191	0xbce1dd83	-0.027571445
192	0xbcffffea	-0.031249959
193	0xbcd05872	-0.025432799
194	0xbc3b68cc	-0.01143856
195	0xbc8fa0cc	-0.017532729
196	0xbd04b336	-0.03239747
197	0xbd542ee9	-0.05180255
198	0xb8994720	-7.3088566e-05
199	0x2f0e65e2	1.2951021e-10
200	0xbc44b0a2	-0.012005003
201	0xbca1b2b4	-0.019738533
202	0xb88037e7	-6.113928e-05
203	0xbcd223ed	-0.025651896
204	0xb26c4bc8	-1.3754239e-08
205	0x3c9158af	0.017742483
206	0xbcd70202	-0.026246075
207	0x3c401253	0.011723119
208	0xbd08a5ee	-0.033361368
209	0x9ff76050	-1.04767905e-19
210	0xb337728c	-4.2712188e-08
211	0x3a9a32e8	0.0011764439
212	0xae3def34	-4.318608e-11
213	0xbbffb364	-0.0078033675
214	0x3cf30d4e	0.02966943
215	0x385f1818	5.3189782e-05
216	0x34b66b47	3.3978196e-07
217	0x2e60e748	5.1137122e-11
218	0x3bbff3f6	0.00585794
219	0xbc98d0a4	-0.018654175
220	0xbb8c1dcd	-0.0042760135
221	0xbd2096ef	-0.03920644
222	0xbb256d50	-0.0025242157
223	0xbd856550	-0.065134645
224	0xbcc3cd26	-0.023901533
225	0x3c4cef35	0.012508203
226	0xbd00e2b7	-0.031466212
227	0xbc8c5015	-0.01712803
228	0x3c800b57	0.015630407
229	0xbd79c43a	-0.06097815
230	0xbd079aef	-0.03310674
231	0xbcda200c	-0.02662661
232	0xbd2520ee	-0.040314607
233	0x80017a5d	-1.35731e-40
234	0x3b046518	0.0020201858
235	0xbccdb4f7	-0.025110705
236	0x3c520ad7	0.012819967
237	0x3c2e6a77	0.0106455
238	0x36f301b3	7.242162e-06
239	0xb91154c8	-0.00013859861
240	0xbb78d45d	-0.0037968375
241	0xbbd5bd04	-0.0065227766
242	0xbc3c71f0	-0.011501774
243	0xba31ab90	-0.0006777579
244	0xbd458799	-0.04822502
245	0xbcd672a7	-0.026177717
246	0xbd06a4e1	-0.032872085
247	0x3a58447e	0.0008249952
248	0x378646de	1.6007045e-05
249	0xbd03ada9	-0.032148037
250	0xbb6535c8	-0.0034974683
251	0xbbd6d756	-0.0065564318
252	0x37ae33dd	2.0766567e-05
253	0x259dc0f2	2.7365903e-16
254	0xbd93cb5d	-0.07216523
255	0xbd1f3c62	-0.038875945

lstm.weight_hh f4 [512, 128]
0	0x3a96cb69	0.0011504713
1	0xbb29bd18	-0.0025900062
2	0x3aac4864	0.0013144133
3	0xbbfa8efe	-0.0076464405
4	0xbd4d8c58	-0.05018267
5	0xbd5196b0	-0.051169097
6	0xba4b7e9a	-0.00077627006
7	0xb9b87eb2	-0.0003518961
8	0xba7a9532	-0.0009558975
9	0x3a9f8214	0.0012169504
10	0x3b82e41c	0.003994478
11	0x3bfe6c1e	0.0077643534
12	0xbc160562	-0.009156557
13	0xbbc0812d	-0.005874774
14	0x3b512378	0.003191201
15	0x3ba4a702	0.0050247917
16	0x3c0068b8	0.007837467
17	0x3c6f378c	0.014600646
18	0x3b10606c	0.0022030128
19	0x3d40f5a2	0.047109254
20	0x3bf2a6db	0.0074051446
21	0x3c1bdd6f	0.009513243
22	0x3c032f07	0.008006818
23	0x3a47e25c	0.0007624978
24	0xba4b9836	-0.00077665166
25	0xbb91746c	-0.0044389274
26	0xbb42ced7	-0.0029725337
27	0xbb94cc80	-0.00454098
28	0x3c0046f7	0.007829419
29	0x3a1ab641	0.0005901792
30	0xbc29a52c	-0.010354321
31	0x3b03e360	0.002012454
32	0xba40bf4f	-0.0007352726
33	0xb7efad00	-2.857158e-05
34	0xba68b9f4	-0.0008877807
35	0xbb8ce991	-0.004300304
36	0xbab86689	-0.0014068644
37	0xbb2f0d96	-0.0026710979
38	0x3ccbda04	0.024884231
39	0xba428108	-0.000741974
40	0xbbd12de2	-0.0063836435
41	0x3b575a6d	0.0032860294
42	0xbdcafaa7	-0.099110894
43	0x3d054636	0.03253766
44	0xba127a53	-0.0005587686
45	0x3b30f138	0.0026999246
46	0x3b7ccbf0	0.0038573705
47	0xbab2b172	-0.0013633205
48	0xbc4d432d	-0.012528223
49	0xba929c51	-0.0011185502
50	0x3baa26a9	0.005192597
51	0x3bbe0953	0.0057994514
52	0x3c5f2648	0.013619967
53	0xbb001a3d	-0.001954689
54	0xbb9c5abd	-0.004771559
55	0xbc246f8a	-0.010036359
56	0xbb8ac811	-0.0042352756
57	0xbc82274b	-0.015887877
58	0xbc3ef4c7	-0.011655039
59	0x3c28f258	0.0103116855
60	0xbac1668e	-0.0014755295
61	0x3b9ad552	0.004725137
62	0xbc173003	-0.0092277555
63	0x3b288eee	0.0025719958
64	0xbc872797	-0.01649837
65	0x3b1086f7	0.0022053102
66	0xbb96f7c3	-0.004607172
67	0xbb24da44	-0.002515451
68	0x3b9e014b	0.0048219315
69	0xbb97c6bb	-0.004631845
70	0x3be0e790	0.006863542
71	0x3b7f1f60	0.0038928613
72	0xbc04cae0	-0.00810501
73	0xbc1d233d	-0.009590921
74	0xbaea9691	-0.0017897655
75	0x3b8a7387	0.0042251977
76	0xbbb5b222	-0.0055449167
77	0x3b600b54	0.003418644
78	0x3ddb6beb	0.10713943
79	0xba96008a	-0.0011444252
80	0x3cd89326	0.026437353
81	0xbb63fe8a	-0.0034789168
82	0x3abfd894	0.0014636689
83	0xba54db18	-0.0008119806
84	0x397c682c	0.000240714
85	0xbdb55e5b	-0.088558875
86	0x3bb32428	0.0054669566
87	0xbcb67a79	-0.022275196
88	0xbaed8b58	-0.0018123193
89	0xbb40f73f	-0.0029444245
90	0x3be0188c	0.0068388637
91	0x3a589e38	0.00082633225
92	0xbce671d1	-0.028130444
93	0x3c3df659	0.011594378
94	0x3babc0bb	0.005241481
95	0xbaf52ae2	-0.0018704797
96	0xbbfc3de6	-0.0076978086
97	0xbbee6131	-0.0072747697
98	0xba46bf7a	-0.0007581633
99	0xbc4591fc	-0.012058731
100	0xbc3f0e76	-0.011661163
101	0x3bd77089	0.0065746945
102	0x3b7c7c60	0.0038526282
103	0x3a88f7eb	0.0010449862
104	0xbc314d55	-0.01082166
105	0x3c08a7d0	0.008340791
106	0xbbb270fa	-0.0054455968
107	0x3d8e685a	0.06953497
108	0xbcdab0ba	-0.026695598
109	0xbb87d1b9	-0.004144874
110	0x3c07dc70	0.0082923025
111	0x3bcc787f	0.00623995
112	0x3cfb3566	0.03066511
113	0x3b88d53b	0.0041758097
114	0xbc205926	-0.00978688
115	0x3abf3121	0.0014586785
116	0x3c015875	0.007894625
117	0x3b2d3b4d	0.002643305
118	0x3a5a6bbe	0.0008332095
119	0xbbbc8cdc	-0.0057540964
120	0x3b8202cb	0.003967618
121	0xb9433dac	-0.00018619624
122	0x38969d86	7.1818984e-05
123	0x3c4be36a	0.012444356
124	0xbc807f18	-0.015685603
125	0xbb8cef16	-0.004300962
126	0xbbb6bda5	-0.0055768066
127	0x3c2d806c	0.0105897
128	0x3afaa1a8	0.0019121664
129	0xbafb5b34	-0.0019176961
130	0xb99b94e0	-0.00029674824
131	0x38db7900	0.00010465272
132	0xbccd52e5	-0.025063941
133	0xbcdba5e3	-0.0268125
134	0x3b82111d	0.003969325
135	0xbbfd4122	-0.0077287117
136	0xbbafb08c	-0.005361622
137	0x3bfc00c4	0.007690521
138	0xbafc13a4	-0.0019231928
139	0x3a4f0290	0.0007896805
140	0xbc5ace10	-0.013354793
141	0x39df96e0	0.00042646285
142	0x3bade552	0.005306878
143	0x3b8fd6bc	0.004389612
144	0xbbc63b10	-0.0060495213
145	0x3bb3090c	0.005463725
146	0xbb9e7972	-0.0048362548
147	0x3c36c966	0.011156416
148	0xbb8120df	-0.003940686
149	0x3bf60b8c	0.0075087007
150	0xba56fa08	-0.00082007097
151	0x3babfe2b	0.005248805
152	0x37f04900	2.8644223e-05
153	0x3c41722d	0.011807007
154	0xbbc4ccd4	-0.0060058627
155	0xbbc0f105	-0.0058881068
156	0x3c3faf02	0.01169944
157	0x3b49f7c3	0.0030817844
158	0x3b155fe4	0.002279275
159	0x3bf1294c	0.0073596593
160	0xbb4b3626	-0.0031007617
161	0x3a2767e0	0.0006386023
162	0x3ab2440f	0.0013600605
163	0xbb9bc388	-0.0047535338
164	0xbbd6b334	-0.0065521244
165	0xbc3e5ba2	-0.011618527
166	0x3c065d5e	0.008200971
167	0x3aa949b4	0.0012915642
168	0xbb989cf7	-0.0046573835
169	0x3ac43ca4	0.0014971686
170	0xbd5cf5af	-0.05394524
171	0xbac27da1	-0.0014838466
172	0x3b11f858	0.0022273269
173	0x3b9664f8	0.004589673
174	0xbb850bfd	-0.004060267
175	0x3963b040	0.00021714065
176	0xbb8be04c	-0.0042686816
177	0x3bd46e0c	0.006482845
178	0x3bcf6445	0.0063290917
179	0x3bc35d50	0.0059620515
180	0xba8ac0ac	-0.0010585985
181	0x3b68db7a	0.003553121
182	0xbc161f6d	-0.009162766
183	0xbb0d2f54	-0.0021543102
184	0xbb9f8cf2	-0.004869097
185	0xba46fcd0	-0.00075907726
186	0x3aa11b68	0.0012291493
187	0xbc847642	-0.016169671
188	0xb884e900	-6.33765e-05
189	0xbbf23f28	-0.0073927827
190	0xbc104b5e	-0.008807031
191	0xbb39c026	-0.002834329
192	0xbc2ce442	-0.010552468
193	0xba8089c8	-0.0009806687
194	0xb9e39f88	-0.00043415674
195	0x3b886976	0.0041629625
196	0xb9617980	-0.00021502934
197	0x39b79a50	0.00035019452
198	0x3b904674	0.00440293
199	0x3b93ecdf	0.004514321
200	0x3a3d45b8	0.0007220167
201	0xbbb46880	-0.0055056214
202	0x397f8be0	0.00024370803
203	0x3b2523c4	0.002519832
204	0x3aac3600	0.0013138652
205	0xbb75dc76	-0.0037515438
206	0x3d62f666	0.055410765
207	0xbaf674a0	-0.0018803068
208	0x3c142feb	0.009044628
209	0x3b5182f9	0.0031968935
210	0x3ba1bf60	0.0049361438
211	0xbb17ae56	-0.0023144684
212	0xbb005950	-0.0019584484
213	0xbd3e557b	-0.04646824
214	0xbb0b5074	-0.002125767
215	0xbc2638c7	-0.010145373
216	0x3c26207a	0.010139579
217	0x3a2cbb60	0.00065892003
218	0x3b9937a2	0.0046758214
219	0x3aa3dc4c	0.0012501567
220	0xbcab6000	-0.0209198
221	0x3b610df1	0.0034340585
222	0xbb5f1bd2	-0.0034043682
223	0xbbe6fef8	-0.0070494376
224	0x3b64c3e8	0.0034906808
225	0xbbb26116	-0.0054437025
226	0xbb27e094	-0.0025616037
227	0x389c88c0	7.464131e-05
228	0xbbbb1db8	-0.00571033
229	0xbb66a7d9	-0.003519526
230	0x39d02fd0	0.00039708475
231	0xbb226e58	-0.0024785008
232	0x3b15e4de	0.0022872011
233	0x3b5fa01c	0.0034122532
234	0x3b2ca73c	0.0026344797
235	0x3d10ba94	0.035334185
236	0xbc808066	-0.015686225
237	0x39597180	0.00020737015
238	0xba0884e8	-0.0005207793
239	0xbaa58d30	-0.0012630578
240	0x3c077383	0.008267286
241	0xba72a5a0	-0.00092562474
242	0xbbdd214e	-0.006748355
243	0xbc033c7e	-0.008010028
244	0x3bbd940c	0.005785471
245	0x3ad65e48	0.0016355002
246	0xbb882a1e	-0.0041554114
247	0xbadcbbd4	-0.0016840645
248	0xba209fc0	-0.000612732
249	0x3a0aec08	0.00052994536
250	0x3a94876c	0.0011331863
251	0x3be978fc	0.007125018
252	0xbcb73a0c	-0.022366546
253	0xbbaf1ce9	-0.0053440225
254	0xbbb425d8	-0.0054976754
255	0x3bdfbf48	0.0068282224

lstm.bias_ih f4 [512]
0	0xbe5e579f	-0.21713112
1	0xbe29c97a	-0.16580763
2	0xbe3575a7	-0.17720662
3	0xbe2f8513	-0.17140608
4	0xbe300843	-0.17190652
5	0x3e806443	0.25076494
6	0xbe5181ca	-0.20459667
7	0xbe3fe14b	-0.18738286
8	0xbe56420a	-0.2092363
9	0xbe2eebf4	-0.17082196
10	0xbe28c65a	-0.16481915
11	0xbe5c6313	-0.21522169
12	0xbe27c99d	-0.16385503
13	0xbe593512	-0.21211651
14	0xbe448104	-0.1918984
15	0xbe2d7fb0	-0.1694324
16	0xbc44025d	-0.011963454
17	0xbe30062c	-0.17189854
18	0xbe20a5ad	-0.156882
19	0x3cb2a46d	0.02180692
20	0xbe52e225	-0.2059408
21	0xbe022053	-0.12707643
22	0xbe1dffef	-0.15429662
23	0xbe0aad4c	-0.1354267
24	0xbe4f8640	-0.20266056
25	0xbe2e5fd8	-0.17028749
26	0xbe2e32e8	-0.17011607
27	0xbe1f45eb	-0.15554015
28	0xbe2f50d9	-0.17120685
29	0xbe5379f9	-0.20651998
30	0xbe2ffdf7	-0.17186724
31	0xbe515844	-0.20443827
32	0xbe23c28f	-0.15992187
33	0xbe3266ac	-0.17421979
34	0xbe473799	-0.19454803
35	0xbe56fc1a	-0.20994607
36	0xbe433e53	-0.19066744
37	0xbe50ac82	-0.20378307
38	0x3eab5e5a	0.33470422
39	0xbe3a3db9	-0.18187608
40	0xbe29938b	-0.1656019
41	0xbe380f7e	-0.1797466
42	0x3f0f23d6	0.55914056
43	0xbd169ca9	-0.036770497
44	0xbe2f601a	-0.17126504
45	0xbe26e740	-0.16299152
46	0xbe589223	-0.21149497
47	0xbe28fba8	-0.16502249
48	0xbe17d795	-0.14828332
49	0xbe30a554	-0.17250568
50	0xbe28e075	-0.16491874
51	0xbe0f4cff	-0.13994215
52	0xbe62fbdd	-0.2216639
53	0xbe28ba98	-0.1647743
54	0xbe2c340c	-0.1681673
55	0xbe1bc8c0	-0.15213299
56	0xbe3dfd14	-0.18553573
57	0xbe3c70d3	-0.18402414
58	0xbe299bbe	-0.16563317
59	0xbe301f1a	-0.17199364
60	0xbe6dc070	-0.2321794
61	0xbdb9d263	-0.09073331
62	0xbe0e1838	-0.13876426
63	0xbe2409d1	-0.1601937
64	0xbe5ca6f3	-0.21548061
65	0xbe252c59	-0.16130199
66	0xbe276017	-0.16345249
67	0xbe393e36	-0.18090138
68	0xbe2d0ccf	-0.16899417
69	0xbe377a2b	-0.17917697
70	0xbe2a3bcb	-0.16624372
71	0xbe3fbdd9	-0.18724765
72	0xbe7fbda9	-0.24974693
73	0xbe08132c	-0.13288563
74	0xbe496b1c	-0.19669765
75	0xbe2e4f7e	-0.17022511
76	0xbe3eb4a6	-0.186236
77	0xbe6d4e9e	-0.23174521
78	0x3f17e892	0.5933925
79	0xbe62049a	-0.22072068
80	0xbe2e05f2	-0.16994455
81	0xbe43677b	-0.19082443
82	0xbe508055	-0.20361455
83	0xbe282224	-0.16419274
84	0xbe355ebc	-0.1771192
85	0x3efa1f34	0.4885193
86	0xbe41186b	-0.18856971
87	0xbe608f20	-0.21929598
88	0xbe36f0aa	-0.17865244
89	0xbe0aa00c	-0.13537616
90	0xbe36cedc	-0.17852348
91	0xbe82e848	-0.25567842
92	0xbe39e93b	-0.18155377
93	0xbe14134f	-0.1446049
94	0xbe26c0bc	-0.1628446
95	0xbe3daa1f	-0.18521927
96	0xbe2567c5	-0.16152866
97	0xbe345c8a	-0.17613426
98	0xbe377e6d	-0.17919321
99	0xbe86871d	-0.26274958
100	0xbe138f98	-0.14410245
101	0xbe431583	-0.19051175
102	0xbe815691	-0.25261357
103	0xbe57c8a1	-0.21072628
104	0xbe29272b	-0.16518848
105	0xbe15fd7f	-0.14647482
106	0xbe26c010	-0.16284204
107	0x3ed21809	0.41033962
108	0xbe194936	-0.14969334
109	0xbe29ce40	-0.16582584
110	0xbe29310b	-0.16522615
111	0xbe3a3e37	-0.18187796
112	0xbd9e275f	-0.07722353
113	0xbe3cea81	-0.18448831
114	0xbe51a751	-0.20473982
115	0xbe548214	-0.20752746
116	0xbe7b0d87	-0.24516879
117	0xbe60ed5f	-0.2196555
118	0xbe56f141	-0.20990469
119	0xbe1a5d33	-0.15074615
120	0xbe7d1930	-0.2471664
121	0xbe247510	-0.16060281
122	0xbe6617ec	-0.22470063
123	0xbe1cea48	-0.15323746
124	0xbe277203	-0.16352086
125	0xbe1efe6f	-0.15526746
126	0xbe46f502	-0.194294
127	0xbe1aa977	-0.15103708
128	0xbe1a8da7	-0.15093099
129	0xbde70a1c	-0.11281225
130	0xbdf23a2c	-0.11827502
131	0xbdbdd10c	-0.09268388
132	0x3d6661ba	0.056245543
133	0xbd6e34ee	-0.058155946
134	0xbdd31163	-0.10306051
135	0xbdc259ed	-0.09489808
136	0xbddbc73b	-0.107313596
137	0xbde5d066	-0.112213895
138	0xbde2baf6	-0.11070816
139	0xbe5b67fc	-0.21426386
140	0xbe38e4d8	-0.18056047
141	0xbe2ab6d8	-0.16671312
142	0xbdf4a0e6	-0.119447514
143	0xbda608d8	-0.081071556
144	0xbec15024	-0.37756455
145	0xbdaa4081	-0.083130844
146	0xbdb052dd	-0.08609555
147	0xbe8d34ef	-0.27579448
148	0xbe0a8f74	-0.13531286
149	0xbddf44bc	-0.10901782
150	0xbdc67275	-0.096898
151	0xbdf573ff	-0.11985015
152	0xbdd265ad	-0.10273299
153	0xbe5c3f01	-0.21508409
154	0xbdd8894e	-0.10573064
155	0xbde2265f	-0.11042475
156	0xbe3ef247	-0.18647109
157	0xbddbe715	-0.10737435
158	0xbe719860	-0.23593283
159	0xbddcbca3	-0.10778167
160	0xbdefa9d2	-0.117023125
161	0xbdd596f0	-0.1042918
162	0xbe75a451	-0.23988463
163	0xbe0687ed	-0.13137789
164	0xbddf5677	-0.10905164
165	0xbdcfe436	-0.1015095
166	0xbbc21eca	-0.0059240805
167	0xbdf34c5f	-0.11879801
168	0xbde1a626	-0.110180184
169	0xbe1163f8	-0.14198291
170	0x3e8afc49	0.27145603
171	0xbde4c04d	-0.11169491
172	0xbdd2fee5	-0.103025235
173	0xbde3cc45	-0.11122946
174	0xbdd15c39	-0.10222668
175	0xbdb36ff5	-0.087615885
176	0xbe3ceaf5	-0.18449004
177	0xbda3dbcb	-0.080009066
178	0xbddb2884	-0.10701087
179	0xbddeb6bf	-0.108747
180	0xbe153a0f	-0.14572929
181	0xbdb3c7e6	-0.08778362
182	0xbdebf10d	-0.11520586
183	0xbdb53f75	-0.08849994
184	0xbdd67802	-0.104721084
185	0xbe471e21	-0.19445087
186	0xbdb79591	-0.089640744
187	0xbea90657	-0.3301265
188	0xbe08481f	-0.13308762
189	0xbe1e6677	-0.15468775
190	0xbe742ca0	-0.23845148
191	0xbdd61d83	-0.10454848
192	0xbea03c44	-0.3129598
193	0xbdc67530	-0.096903205
194	0xbdb6fdfe	-0.08935164
195	0xbdf1714e	-0.11789189
196	0xbdd144a5	-0.10218171
197	0xbdf8044a	-0.12110193
198	0xbdf373a0	-0.11887288
199	0xbdda3b4d	-0.10655842
200	0xbe1c0e22	-0.15239766
201	0xbdc37a33	-0.09544792
202	0xbdf934cb	-0.121682726
203	0xbdd2f42d	-0.10300479
204	0xbdfbdf82	-0.1229849
205	0xbde6b4bc	-0.11264941
206	0x3ea2d78c	0.31805074
207	0xbdd26568	-0.10273248
208	0xbea62d40	-0.32456398
209	0xbda9aa43	-0.08284428
210	0xbdd6def3	-0.10491743
211	0xbdd55998	-0.10417479
212	0xbdfc39ac	-0.123156875
213	0x3ea1b879	0.31586054
214	0xbdf00f64	-0.117216855
215	0xbe3253dd	-0.17414804
216	0xbdc7099c	-0.0971863
217	0xbdce46f1	-0.10072125
218	0xbdd8d9f9	-0.1058845
219	0xbe19d3a7	-0.15022145
220	0xbe5e95b1	-0.2173679
221	0xbda3ad7e	-0.079920754
222	0xbdbbdbdb	-0.091727935
223	0xbde663ba	-0.1124949
224	0xbdc845eb	-0.09778961
225	0xbdceeeab	-0.10104116
226	0xbdcb093c	-0.09913871
227	0xbe6a68e8	-0.22891581
228	0xbd9c648b	-0.076363645
229	0xbdfb932f	-0.122839324
230	0xbe2fb4c0	-0.17158794
231	0xbdd590bb	-0.10427996
232	0xbe01c82b	-0.12674014
233	0xbdf78397	-0.12085646
234	0xbdb49a04	-0.08818439
235	0x3e252219	0.16126288
236	0xbe80a8fe	-0.2512893
237	0xbdd7cf27	-0.10537558
238	0xbdb3593d	-0.08757255
239	0xbdd61cf1	-0.10454739
240	0xbe77d1b5	-0.2420109
241	0xbde92227	-0.11383467
242	0xbe28b572	-0.16475466
243	0xbde1eab4	-0.11031094
244	0xbe502a54	-0.20328647
245	0xbe0132e7	-0.12617074
246	0xbdd61f69	-0.1045521
247	0xbdb83285	-0.08994011
248	0xbe120c82	-0.14262584
249	0xbdedc059	-0.11608953
250	0xbdf26d71	-0.118372805
251	0xbdb4c9e5	-0.08827571
252	0xbe6fe7c3	-0.23428254
253	0xbdc70c23	-0.09719112
254	0xbde87701	-0.11350823
255	0xbdd89da8	-0.105769455

lstm.bias_hh f4 [512]
0	0xbe63f1d1	-0.22260214
1	0xbe29c552	-0.16579178
2	0xbe35772d	-0.17721243
3	0xbe2f85bb	-0.17140858
4	0xbe35fab6	-0.1777142
5	0x3e5cc8fa	0.21561041
6	0xbe515e9b	-0.20446245
7	0xbe3ff6ea	-0.18746534
8	0xbe55f3eb	-0.20893829
9	0xbe2e26e5	-0.17007025
10	0xbe28cb4f	-0.16483806
11	0xbe511f3c	-0.20422071
12	0xbe0d2c9a	-0.13786545
13	0xbe46af7e	-0.19402882
14	0xbe432e13	-0.19060545
15	0xbe2d56d4	-0.16927654
16	0xbb9513f2	-0.004549497
17	0xbe300426	-0.17189083
18	0xbe20aa8a	-0.15690055
19	0x3cf9bb5b	0.030484846
20	0xbe546d13	-0.20744734
21	0xbe021a15	-0.12705262
22	0xbe1e0003	-0.15429692
23	0xbe0aa750	-0.13540387
24	0xbe4f776b	-0.20260398
25	0xbe374529	-0.17897476
26	0xbe2e32f6	-0.17011628
27	0xbe1f453a	-0.15553752
28	0xbe358fdc	-0.17730659
29	0xbe54ce33	-0.20781784
30	0xbe1ac219	-0.15113105
31	0xbe517179	-0.20453443
32	0xbe23bb5d	-0.15989442
33	0xbe3264bc	-0.1742124
34	0xbe47791e	-0.19479796
35	0xbe586dd6	-0.21135649
36	0xbe433513	-0.19063215
37	0xbe5092ce	-0.20368502
38	0x3eb22298	0.34792018
39	0xbe3a4334	-0.18189698
40	0xbe299758	-0.1656164
41	0xbe380149	-0.1796924
42	0x3f0e5d6b	0.55611295
43	0xbca6f0c6	-0.020378482
44	0xbe2f6119	-0.17126884
45	0xbe26e799	-0.16299285
46	0xbe587ce8	-0.21141398
47	0xbe298a32	-0.16556624
48	0xbe3bb36f	-0.18330167
49	0xbe30a575	-0.17250617
50	0xbe28eb17	-0.1649593
51	0xbe0f54ce	-0.13997194
52	0xbe6ae0dd	-0.22937341
53	0xbe28b918	-0.16476858
54	0xbe2c4a0c	-0.16825122
55	0xbe1bc828	-0.15213072
56	0xbe3df619	-0.1855091
57	0xbe3232a7	-0.17402135
58	0xbe299b41	-0.16563131
59	0xbe30325c	-0.1720671
60	0xbe6e07c3	-0.23245148
61	0xbd1a4e39	-0.037672255
62	0xbda148ee	-0.07875238
63	0xbe2409bc	-0.16019338
64	0xbe2c53c0	-0.16828823
65	0xbe252c74	-0.16130239
66	0xbe275fd0	-0.16345143
67	0xbe393e09	-0.18090071
68	0xbe2d0984	-0.16898161
69	0xbe379253	-0.17926912
70	0xbe2acc20	-0.1667943
71	0xbe3fcae7	-0.18729745
72	0xbe79910d	-0.24371739
73	0xbe08b5c0	-0.13350582
74	0xbe49693e	-0.19669053
75	0xbe2e5087	-0.17022906
76	0xbe3edc8c	-0.1863882
77	0xbe6b1330	-0.22956538
78	0x3f17b630	0.5926237
79	0xbe61b287	-0.22040759
80	0xbe4beeda	-0.19915333
81	0xbe4386fa	-0.19094458
82	0xbe50a73f	-0.203763
83	0xbe281e41	-0.16417791
84	0xbe355fe1	-0.17712356
85	0x3f00ef3a	0.5036503
86	0xbe412340	-0.18861103
87	0xbe6ba4a1	-0.2301202
88	0xbe37fdee	-0.1796796
89	0xbe0aed3b	-0.13567059
90	0xbe36df64	-0.17858654
91	0xbe803e55	-0.25047556
92	0xbe4f577e	-0.2024822
93	0xbe1411aa	-0.14459863
94	0xbe26c0d9	-0.16284503
95	0xbe3da99b	-0.1852173
96	0xbe2567bb	-0.16152851
97	0xbe349d2f	-0.17638086
98	0xbe377828	-0.1791693
99	0xbe91d71e	-0.28484434
100	0xbe138fc8	-0.14410317
101	0xbe431400	-0.19050598
102	0xbe7dbe43	-0.2477961
103	0xbe577b0c	-0.21043032
104	0xbe284b9b	-0.16435091
105	0xbe159140	-0.1460619
106	0xbe26bb43	-0.16282372
107	0x3ee18244	0.44044697
108	0xbe23d2c5	-0.15998371
109	0xbe29d1e7	-0.16583978
110	0xbe293074	-0.1652239
111	0xbe3a40a0	-0.18188715
112	0xbe3e57bb	-0.18588154
113	0xbe3ceefd	-0.18450542
114	0xbe516e2f	-0.20452188
115	0xbe535d16	-0.20640978
116	0xbe76736b	-0.24067466
117	0xbe440b30	-0.19144893
118	0xbe56eb66	-0.20988235
119	0xbe1a87f9	-0.15090932
120	0xbe807c72	-0.25094944
121	0xbe24759c	-0.1606049
122	0xbe67a68c	-0.22622126
123	0xbe209213	-0.15680723
124	0xbe2a2a32	-0.16617659
125	0xbe1efdd5	-0.15526517
126	0xbe46d147	-0.1941577
127	0xbe1aa994	-0.15103751
128	0xbe18a9f5	-0.14908583
129	0xbde70a1a	-0.112812236
130	0xbdf23a2d	-0.118275024
131	0xbdbdd10c	-0.09268388
132	0x3d82dd60	0.0638988
133	0xbd97752a	-0.07395394
134	0xbdd3115c	-0.103060454
135	0xbdc259f7	-0.09489816
136	0xbddbc6bc	-0.10731265
137	0xbde5e1f2	-0.11224736
138	0xbde2baf2	-0.11070813
139	0xbe5c8881	-0.21536447
140	0xbe298006	-0.16552743
141	0xbe2b8912	-0.16751507
142	0xbdf4a197	-0.11944883
143	0xbda6095f	-0.08107256
144	0xbe9f091a	-0.3106163
145	0xbdaa4081	-0.083130844
146	0xbdb052d9	-0.08609552
147	0xbeb3f852	-0.3515039
148	0xbe0a7fdc	-0.13525337
149	0xbddf44be	-0.109017834
150	0xbdc67275	-0.096898
151	0xbdf57401	-0.119850166
152	0xbdd2659c	-0.10273287
153	0xbe563b3e	-0.20921037
154	0xbdd8894e	-0.10573064
155	0xbde2265f	-0.11042475
156	0xbe3e6f7d	-0.18597217
157	0xbddbdecc	-0.107358545
158	0xbe6959df	-0.2278819
159	0xbddcbca2	-0.10778166
160	0xbdefa9d2	-0.117023125
161	0xbdd596f0	-0.1042918
162	0xbe7bef5a	-0.24603024
163	0xbe068a2d	-0.13138647
164	0xbddf566f	-0.10905158
165	0xbdcfe40a	-0.10150917
166	0xbd0bfd4b	-0.034177106
167	0xbdf34c69	-0.118798085
168	0xbde1a626	-0.110180184
169	0xbe1163ee	-0.14198276
170	0x3e89973e	0.268732
171	0xbdab4cd6	-0.08364265
172	0xbdd2fee5	-0.103025235
173	0xbde3cc45	-0.11122946
174	0xbdd15c9d	-0.10222743
175	0xbdb37014	-0.087616116
176	0xbe30ac41	-0.1725321
177	0xbda3dbcb	-0.080009066
178	0xbddb2882	-0.107010856
179	0xbddeb6bf	-0.108747
180	0xbe10d7bd	-0.14144798
181	0xbdb3c7e6	-0.08778362
182	0xbdebf10d	-0.11520586
183	0xbdb53f75	-0.08849994
184	0xbdd67802	-0.104721084
185	0xbe42bde7	-0.19017754
186	0xbdb79594	-0.08964077
187	0xbea6e8e1	-0.32599548
188	0xbe0847fa	-0.13308707
189	0xbe1d124a	-0.15339008
190	0xbe8f93a6	-0.28042334
191	0xbdd61d83	-0.10454848
192	0xbe9bda21	-0.30439857
193	0xbdc67530	-0.096903205
194	0xbdb6fdfe	-0.08935164
195	0xbdf1714e	-0.11789189
196	0xbdd144a5	-0.10218171
197	0xbdf80444	-0.121101886
198	0xbdf36f11	-0.118864186
199	0xbdda3011	-0.10653699
200	0xbe1be7ff	-0.15225218
201	0xbdc37981	-0.095446594
202	0xbdf934c9	-0.12168271
203	0xbdd2f42d	-0.10300479
204	0xbdfbdfa6	-0.12298517
205	0xbde4a8a2	-0.11164977
206	0x3ea49404	0.32144177
207	0xbdd265f8	-0.10273355
208	0xbe9548c4	-0.29157078
209	0xbda9aa3d	-0.082844235
210	0xbdd6def1	-0.104917414
211	0xbdd55998	-0.10417479
212	0xbdfc39ac	-0.123156875
213	0x3e980931	0.29694512
214	0xbdf00f6a	-0.1172169
215	0xbe2f4716	-0.17116961
216	0xbdc6d463	-0.09708478
217	0xbdce46cc	-0.10072097
218	0xbdd8da16	-0.105884716
219	0xbe1a30c2	-0.15057662
220	0xbe4aeafb	-0.198162
221	0xbda3ad7e	-0.079920754
222	0xbdbbdbdb	-0.091727935
223	0xbde663ba	-0.1124949
224	0xbdc845eb	-0.09778961
225	0xbdceeea4	-0.10104111
226	0xbdcb093c	-0.09913871
227	0xbe6b5394	-0.22981101
228	0xbd9c648b	-0.076363645
229	0xbdfb932f	-0.122839324
230	0xbe2fd683	-0.17171673
231	0xbdd59155	-0.104281105
232	0xbe01c811	-0.12673976
233	0xbdf77f55	-0.120848335
234	0xbdb49a08	-0.08818442
235	0x3e43cf8c	0.19122142
236	0xbe88ceaa	-0.26720172
237	0xbdd7cf27	-0.10537558
238	0xbdb3593d	-0.08757255
239	0xbdd61cf3	-0.104547404
240	0xbe877b62	-0.2646132
241	0xbde92227	-0.11383467
242	0xbe28941b	-0.16462748
243	0xbde1e6ab	-0.110303245
244	0xbe4dabef	-0.20085119
245	0xbe000c95	-0.125048
246	0xbdd61f6f	-0.10455214
247	0xbdb83273	-0.089939974
248	0xbe129e7a	-0.14318267
249	0xbdedc059	-0.11608953
250	0xbdf26e10	-0.11837399
251	0xbdb4c070	-0.08825767
252	0xbe695211	-0.22785212
253	0xbdc70c23	-0.09719112
254	0xbde87703	-0.11350825
255	0xbdd89da8	-0.105769455

output_w.weight f4 [5, 128]
0	0xbc14086c	-0.009035211
1	0xbb4cca78	-0.003124861
2	0xbb2a2b1c	-0.0025965637
3	0xbbe4920f	-0.0069754194
4	0x3beb2bc6	0.007176849
5	0xbd2d9ac5	-0.042383928
6	0x3b97c5f4	0.004631752
7	0xba233ba8	-0.0006226846
8	0x3bbb1afc	0.005710004
9	0xbc5c1566	-0.013432836
10	0x3b098fec	0.0020990325
11	0xbc6cd659	-0.014455401
12	0xbcc5d8cd	-0.02415123
13	0xbc34be54	-0.011031706
14	0xbc59ad95	-0.013286014
15	0x3b3aa574	0.0028479965
16	0xbe9c6493	-0.30545482
17	0x3bd10ffb	0.006380079
18	0xba334970	-0.0006839251
19	0x3e0fb0c7	0.14032279
20	0x3d20d06e	0.039261274
21	0x3bd2fe6e	0.006439022
22	0x3be4400c	0.006965643
23	0x3b994d04	0.0046783704
24	0x3b959463	0.004564808
25	0x3d25901f	0.040420648
26	0x3a62d610	0.00086531136
27	0xbb7a5f08	-0.0038203616
28	0xbcdacd31	-0.026709171
29	0xbbbf156e	-0.005831412
30	0x3cf53816	0.02993397
31	0xbc0bd8ea	-0.008535603
32	0xbbeb950a	-0.0071893977
33	0xbbc90308	-0.0061343946
34	0x3b5f6477	0.0034086981
35	0x3c32472b	0.010881226
36	0x3a83eab0	0.0010064449
37	0x3c7c7dda	0.015410865
38	0x3d855db3	0.06512012
39	0xbb3b55bc	-0.0028585037
40	0xbc396aa4	-0.011316929
41	0x3befa7dd	0.007313712
42	0xbc000c00	-0.007815361
43	0xbc8a2508	-0.016863361
44	0x3c0965ad	0.008386058
45	0x3ba72022	0.005100266
46	0xbb67b3d7	-0.0035354996
47	0xba259d70	-0.00063177105
48	0xbcf9bc68	-0.030485347
49	0xbbf60a83	-0.0075085773
50	0xbc22b942	-0.009931864
51	0x3b812b80	0.003941953
52	0x3d7f6cfe	0.062359802
53	0xbbfca06a	-0.0077095525
54	0x3bddb758	0.006766241
55	0xbc24f479	-0.010068052
56	0xbbf02dec	-0.007329693
57	0xbdac094b	-0.0840021
58	0xbc612744	-0.013742272
59	0x3dc7975c	0.097456664
60	0xbc8355e7	-0.016032172
61	0xbe1fb761	-0.15597297
62	0x3e353552	0.17696121
63	0x3b25a39c	0.002527452
64	0xbc60c970	-0.013719901
65	0xba38bcf0	-0.0007047197
66	0xbb9ec35a	-0.004845065
67	0xbc0c246c	-0.0085536055
68	0xbbc01d6c	-0.0058628824
69	0xbc8fb062	-0.01754016
70	0x3c913e76	0.017729979
71	0xbbb8a572	-0.005634957
72	0xbbb8521a	-0.0056250216
73	0xbc03170c	-0.0080011
74	0x394f3280	0.00019759871
75	0x3b55b98c	0.0032611815
76	0x3c0c88d2	0.008577542
77	0x3d203427	0.039112236
78	0xbdf3927c	-0.11893174
79	0xbb83a2f5	-0.0040172287
80	0x3e90f3f1	0.28311113
81	0x3c5dbf2d	0.013534349
82	0xbbd09946	-0.006365928
83	0x3c806b9e	0.015676316
84	0xb98adaa0	-0.000264843
85	0x3dde8458	0.10865086
86	0xbaf4ab70	-0.0018666815
87	0xbdb34764	-0.08753851
88	0xbcd3a0b4	-0.025833465
89	0xbb807826	-0.003920573
90	0x3c0ac4d8	0.008469783
91	0xbb97f2ac	-0.004637083
92	0xbdbeb3aa	-0.09311612
93	0x3b675a40	0.0035301596
94	0x3c10d5c0	0.0088400245
95	0x3b418504	0.0029528746
96	0xbc006356	-0.0078361835
97	0xbbae991d	-0.005328311
98	0x3c388eee	0.011264546
99	0x3d970e99	0.07375831
100	0xbc0ab9c5	-0.0084671425
101	0x3c5d0b05	0.013491397
102	0x3d3f4f37	0.046706405
103	0x3b4b5a74	0.0031029256
104	0xbbf5bb0a	-0.0074991034
105	0x3bd14d0a	0.0063873576
106	0xbc3cd30f	-0.01152493
107	0x3d0df2de	0.034655444
108	0xbdf590e2	-0.11990525
109	0x3bb64058	0.0055618696
110	0x3a153aa0	0.0005692635
111	0x3bec8b14	0.007218728
112	0x3e2a0812	0.16604641
113	0xbbed6d43	-0.007245691
114	0xbcfafed1	-0.030639084
115	0x3c0461ac	0.008079927
116	0x3b2f4b10	0.0026747622
117	0x3d21b2c0	0.03947711
118	0xbc8e0e41	-0.017340781
119	0xbc5d2879	-0.013498419
120	0xb92e0ce0	-0.0001659873
121	0xbc20d9b0	-0.009817526
122	0xbba21c51	-0.0049472232
123	0xbbb3c2ec	-0.005485883
124	0x3c5c10ce	0.013431741
125	0xbb0b5380	-0.0021259487
126	0xbc0ca680	-0.008584619
127	0x3c732a3a	0.014841611
128	0x3d08e9e2	0.033426173
129	0x3bfe96ac	0.0077694263
130	0x388fc720	6.855861e-05
131	0xbbdfcad7	-0.0068296003
132	0xbdcbc9f4	-0.09950629
133	0xbd9278dc	-0.07151958
134	0xbb993232	-0.004675173
135	0x3c633706	0.013868099
136	0x3bf47e7f	0.0074613686
137	0x3cdc2786	0.026874315
138	0xbc17bb16	-0.009260913
139	0x3d1b0bdf	0.037853118
140	0x3c501d9a	0.01270237
141	0xbd05d234	-0.03267117
142	0x3cc12614	0.023577727
143	0xbc1bb391	-0.009503261
144	0x3ed48688	0.4150889
145	0xbc827447	-0.015924586
146	0x3bff7cde	0.0077968678
147	0x3ec6a091	0.38794377
148	0xbd4f8601	-0.050664905
149	0x3b436764	0.0029816264
150	0xbac96b2c	-0.0015367023
151	0xb9fe33b4	-0.00048485177
152	0xbb9f591d	-0.004862918
153	0xbd33cee5	-0.043898482
154	0x3b4664af	0.0030272414
155	0xbc654550	-0.013993576
156	0xbcd1ed8f	-0.025625972
157	0xbc6b1d17	-0.014350197
158	0x3d415c99	0.04720745
159	0xbbaaed10	-0.0052162483
160	0xbb0b0559	-0.0021212904
161	0x3b83f127	0.0040265503
162	0x3cc1bfce	0.02365103
163	0xbc5723b9	-0.013131076
164	0x3c33554d	0.01094563
165	0x3c428389	0.011872181
166	0xbce3e35a	-0.02781837
167	0x3c7ca96c	0.015421253
168	0x3b32040b	0.0027163054
169	0x3bb41cc6	0.005496594
170	0x3da7826d	0.081791736
171	0x3da8cc07	0.0824204
172	0x3a75ef43	0.0009381661
173	0x3c7ce4d4	0.015435416
174	0xbb955710	-0.004557498
175	0x3cbdfd53	0.023192083
176	0xb9da60ff	-0.00041652468
177	0xbbda9fe1	-0.006671891
178	0xbc250c56	-0.010073742
179	0xbaee50e1	-0.0018182063
180	0xbcc0bd37	-0.023527725
181	0xbca4f4aa	-0.020136196
182	0xbcb5b947	-0.022183074
183	0xbb0b12db	-0.0021220956
184	0xbc171744	-0.009221856
185	0x3caa57f4	0.020793892
186	0xbc08af20	-0.008342534
187	0xbc24b91d	-0.0100539
188	0x3c54e38a	0.012993703
189	0xbc0ecd1a	-0.008715892
190	0xbd39b260	-0.045336127
191	0xbc00a5d1	-0.007852034
192	0xbe11ab2e	-0.14225456
193	0x3b96aeba	0.0045984657
194	0x3bebb5c0	0.007193297
195	0xbb563900	-0.0032687783
196	0xbb8ea305	-0.0043529295
197	0x3c83d23e	0.016091462
198	0xbb737107	-0.0037146227
199	0x3c8a7d13	0.016905343
200	0xbc9ec644	-0.01938165
201	0x3c40f815	0.011777897
202	0xbb949178	-0.004533943
203	0xbaf9cf08	-0.0019058893
204	0x3b68bf80	0.0035514534
205	0x3af9e7b4	0.0019066245
206	0xbcfc8ab8	-0.030827865
207	0x3ab7322d	0.0013976746
208	0x3df83875	0.12120143
209	0xbbcc5018	-0.006235134
210	0xbb8ac3c8	-0.0042347647
211	0x3c2a9f7d	0.0104140015
212	0xbbd69fef	-0.0065498273
213	0xbd515ad8	-0.051112026
214	0xb802f8f8	-3.1226286e-05
215	0x3c86c0ed	0.016449416
216	0x3c126e73	0.008937466
217	0x3b36e308	0.0027906317
218	0x3bce9754	0.006304661
219	0xbb38ffc1	-0.0028228613
220	0xbc5d8ccd	-0.013522339
221	0xbb67e21e	-0.003538258
222	0xbac3cf72	-0.0014939143
223	0x3ba1383b	0.0049200333
224	0x3ac627dd	0.0015118081
225	0x3bc4d960	0.0060073584
226	0x3c07f986	0.008299237
227	0xbd2e9b7d	-0.042628754
228	0xbab41b8d	-0.0013741121
229	0x3b49ad59	0.003077349
230	0xbd6ff2ca	-0.05858115
231	0xba2c0650	-0.000656222
232	0x3ceacb2d	0.028661335
233	0xbc43d557	-0.01195272
234	0xbc6e802a	-0.014556924
235	0x3dabcf2c	0.08389124
236	0x3c222034	0.009895373
237	0x3b500874	0.003174332
238	0xbbfdeba0	-0.007749036
239	0xbbaba6c4	-0.005238386
240	0x3de0da1d	0.10979102
241	0x3a1d8b28	0.00060098106
242	0x3c4fcf94	0.012683768
243	0x3c230441	0.009949745
244	0xbc4b78e5	-0.01241896
245	0xbb5f2241	-0.0034047517
246	0x3c02c5a5	0.007981692
247	0x3b29264d	0.0025810183
248	0x3cf3f728	0.02978094
249	0x3ada8138	0.001667059
250	0xbc33512d	-0.010944647
251	0xbca83a6e	-0.020535674
252	0x3c9275a2	0.017878357
253	0xbbb1d569	-0.005427052
254	0xbac28ccf	-0.001484299
255	0x3c14d4e3	0.009083959

output_w.bias f4 [5]
0	0xbd1eb7c3	-0.038749468
1	0x3d6567e8	0.056007296
2	0xbf3fed47	-0.7497143
3	0xbf4d98d4	-0.8031132
4	0xbdef34d9	-0.11680002

square_avg f4 [64]
0	0x3caa2607	0.020770086
1	0x3e360c2a	0.17778078
2	0x3d8577cd	0.06516991
3	0x3210ddb0	8.432309e-09
4	0x32a3450d	1.9007098e-08
5	0x3bc6de39	0.0060689715
6	0x3c8311e0	0.015999734
7	0x3034f0a7	6.5825606e-10
8	0x3bd27fd7	0.006423931
9	0x36bd50eb	5.642059e-06
10	0x3cb60a18	0.02222161
11	0x3af01072	0.0018315448
12	0x3c283d0a	0.010268459
13	0x3c07b73c	0.008283433
14	0x3521cc0e	6.027411e-07
15	0x2f9d625b	2.862802e-10
16	0x2f5fd63c	2.0357843e-10
17	0x31244647	2.390509e-09
18	0x3b3d8765	0.0028919813
19	0x3d7b4025	0.06134047
20	0x3479b3ba	2.3255316e-07
21	0x33f2dd09	1.1309209e-07
22	0x2da251af	1.8453543e-11
23	0x2d5588c2	1.21380146e-11
24	0x3b830ba3	0.00399919
25	0x2d75d630	1.3974197e-11
26	0x3d69e548	0.057103425
27	0x2f364230	1.6576318e-10
28	0x3df4f891	0.11961473
29	0x3c0c13c0	0.008549631
30	0x3b97bb42	0.004630477
31	0x3cbb8d9d	0.022894675
32	0x3d024a35	0.03180905
33	0x3d872032	0.06597938
34	0x3d002fb2	0.031295486
35	0x3c22728a	0.009915004
36	0x3dcd9ee4	0.100400716
37	0x3d124140	0.03570676
38	0x32b4def2	2.1056142e-08
39	0x3cb28267	0.021790696
40	0x3ca5b1d1	0.020226391
41	0x332756d9	3.8961705e-08
42	0x39a0a60d	0.00030641296
43	0x39718e91	0.00023036661
44	0x3181c63a	3.77693e-09
45	0x3ad4d829	0.0016238737
46	0x3d09a776	0.03360697
47	0x3cc1795d	0.02361744
48	0x396929fa	0.00022236249
49	0x3e06f70a	0.13180175
50	0x3a05d294	0.0005104926
51	0x3d099410	0.03358847
52	0x3b0c4284	0.002140195
53	0x2df49a2e	2.7808058e-11
54	0x3dd22f77	0.102629595
55	0x3af0a826	0.0018360659
56	0x3c72d632	0.014821576
57	0x36c2239c	5.785796e-06
58	0x33a2ee43	7.5870524e-08
59	0x3d3bfcb1	0.045895282
60	0x3d570644	0.05249621
61	0x3cf2c821	0.029636445
62	0x3c963af4	0.018338658
63	0x3c1fdaa4	0.009756718

square_avg f4 [5]
0	0x40897b06	4.2962675
1	0x41a3eacc	20.489647
2	0x3dc8b511	0.09800161
3	0x3f03f4de	0.5154551
4	0x3d10ad96	0.035321794
