S-LSTM/Goal+Socail_Array_PyTorch/social_lstm/save/0/social_model_epoch_17.pth (torch, 815071 bytes, 22 tensors)

embedding_b f4 [64]
00000000: 929c 4cbd c9d7 b43e 92b0 863e 044a 8bbb
00000010: 20c7 943b 7a1a 443a 572b ccbd 169e 8abb
00000020: 23c2 1fbe 0afb 59ba 5666 463c 9749 14bd
00000030: 8e36 37be cc25 e2bd 9812 0bbd 0c9e 1ebb
00000040: 5f07 14bd 8b3b 85ba 0079 15be 2d0a 69bd
00000050: e1c7 11bc 256f 1cbd c1b0 6cbc c953 4bba
00000060: 0e77 45bd 2cf4 3abb 7452 6b3d c87b 9a3c
00000070: aefa b23e bddf 22be f2b3 0dbd 9002 65bd
00000080: 5a8d 05be 44e5 cd3b 00b5 c33d a1b5 d8bc
00000090: 9656 423e d21e a73d f884 f2b1 4daf 23be
000000a0: f9ad cfbc 998f 50bb 303d 06a7 434b 23bd
000000b0: f262 303d 46e8 03bc 18f2 24bc 59f8 773d
000000c0: debc 25be 9636 133e e437 75b6 4f17 8c3d
000000d0: 31db 30bb 8b92 913b 5153 5b3d 0fa9 8fbd
000000e0: 018b 83bc e25f 06bb 7caf 1bbc 1867 a03d
000000f0: e800 0a3e d2de 993d 9a7f 07be 64b2 abbc
-0.049954005 0.3532088 0.26306587 -0.0042507667 0.004540339 0.0007480752 -0.09969204 -0.004230271
-0.15601401 -0.0008315301 0.01210936 -0.036202993 -0.17891905 -0.110423654 -0.03395328 -0.002420309
-0.036139842 -0.001016484 -0.14596939 -0.05689447 -0.0088977525 -0.038191933 -0.014446438 -0.00077563204
-0.048209243 -0.0028526885 0.05745168 0.018857852 0.34956878 -0.15905662 -0.034595437 -0.055910647
-0.13042203 0.006283434 0.095560074 -0.026453795 0.18978342 0.081601754 -7.0582438e-09 -0.1598484
-0.025351511 -0.0031823872 -1.8629405e-15 -0.039866697 0.04306311 -0.008050984 -0.010067485 0.060539577
-0.16185328 0.14376292 -3.6540378e-06 0.06840383 -0.0026986117 0.004442518 0.053546254 -0.07014667
-0.016057493 -0.0020503928 -0.009502288 0.078321636 0.13476908 0.07513203 -0.1323227 -0.020959087

output_b f4 [5]
00000000: fd29 ef3c 75fd e2bb acd5 6abf f269 60bf
00000010: fef9 a2bd
0.029194826 -0.006927187 -0.9173229 -0.8766166 -0.079578385

embedding_w.weight f4 [64, 4]
00000000: 3217 783e a9b4 36bf ecbf 1ebe 0f3a a53e
00000010: b549 f23d c862 b53f 7c5d 98bd 3109 c33e
00000020: 7e2b 93bf 8922 36bf da28 21be 5b1d f4bd
00000030: 262e 04b6 e652 a02f b12c 99b5 e6b6 303a
00000040: 6541 e7bb 04e7 b13c 61ba 833c 97b5 71bc
00000050: 99b5 313f 4167 12bf 92f3 df3e e8c0 f93e
00000060: b0f9 0d3f a44f 4c3f 1c75 f13d 6b92 b43c
00000070: cc80 2bb7 d622 161d 5efd 4634 2034 6d23
00000080: cf10 bf3d 10d2 8e3e 4c06 913c ebef a93e
00000090: d8ea 4315 d07f 8737 108a ff1f e57b 23b7
000000a0: 9548 1fbf ba39 013f 446e bc3e d1c2 dfbe
000000b0: 4c71 ebbe f22e 103d a4ba e2be c601 2d3d
000000c0: 687c 133f 74dd a6be c681 12bf a90a e43e
000000d0: 9fbc 7e3f 5b84 a83e dbb6 ff3d 3dc1 5c3e
000000e0: 2c96 423e 49d7 f73c 5fa7 943e 9b34 f63d
000000f0: 72eb 89ba 2b8d 9b3d 36f5 ef3c 12c5 a4bd
00000100: cdc6 2c3d d1bd 603d bff5 2b3e 4216 a2bd
00000110: 2d82 2033 fa23 e636 444e 1736 db44 58b9
00000120: 2010 c53e 8dfb 13bf f488 c43e f9df debe
00000130: 9f46 843f 0bff a73e 6428 87bf 1bbe a5be
00000140: 5e9a c6b9 3323 dcba c245 893b f8c0 50bc
00000150: 95c5 e23d 739f 953d f506 c03e 81de 71bd
00000160: 16d6 f63c 87d2 a73c 7b0e 853d a8ef 443a
00000170: ee76 7037 b1e3 7638 2ac2 8cb4 3f96 2a2d
00000180: 1ef3 aebe 7d12 893e a332 263f 6559 133e
00000190: 9c58 e6b2 1774 bf38 42ee 0cb9 29d1 ee39
000001a0: a9fa 4dbf 2acb 99bf b6d0 583e d032 76bf
000001b0: 4dde 9abb fbdc 71bb 75d6 3bbc c75d aabc
000001c0: 6681 aabf 16bb 4fbf 7c02 f9bc e97b 8f3d
000001d0: 1090 0fbf 35ed 0abf 3d70 193f 8b56 253f
000001e0: 0930 813e 6bb5 3b3e ca34 913e e61e 5cbe
000001f0: 5620 40bf 5984 903e 2368 c6bc e630 703e
00000200: 2064 32bf a08d 223f 55e8 2cbe ec2d a4be
00000210: 49a6 7f3e 4369 933f 86bd f2bd 5f9e c4be
00000220: ecd4 b73f c9f8 65be be34 393e 2a8f eb3e
00000230: 3d94 503f d65d 2e3f 1b8e ab3d 6044 7c3e
00000240: 25a3 36bf a22d a93f a9c1 d3bb 83f7 183f
00000250: 1c20 a83f cc33 82bf c62f 823e a59f dbbe
00000260: ccf8 c0a6 d458 7312 ed78 e922 7042 9e24
00000270: f03f 45be 5484 953e 19b3 903e 9eb0 13bd
00000280: 632d b43f 0bf3 f53e 0241 fb3d ddbc 903e
00000290: 6031 fa30 c0ab a9a9 d7e4 b33a a3cb 28b7
000002a0: 200c 89a7 6456 aa28 7d89 e124 136c 8021
000002b0: e9c0 e5bd 749b 6b3e 4234 9c3e 97a5 dc3d
000002c0: 63bc a0bd 295d a63d fc59 64bd 80f2 843d
000002d0: 6f58 62bb 5063 133c efae 053a 94f9 bbba
000002e0: b09a 0f3e cdba 833f b8a0 e23b 9bfc 0ebd
000002f0: 60d9 a5be fb1b 3c3f 2db6 053e 3540 943b
00000300: eb3d 893e 26ef d83e 85dc 86bc eb41 113e
00000310: ad52 21bf 70e5 9abf cf85 27be 9690 2c3e
00000320: 22fe bda2 bd0c f1ab ca59 001d 80cf 9c2c
00000330: 00a4 9ebf 0aab 773f a7d2 6dbe f100 303e
00000340: 7d8e 2739 5bd9 c136 68f1 143a 7cb4 4d35
00000350: 3359 4f3c 8c03 d93b 394d 3f3c 12c2 07bd
00000360: 177d b03e 232c 81bf 0a93 afbd 7548 0fbd
00000370: 7b26 3e3f 4d37 0ebf 69eb ad3d 2f9d a6be
00000380: 6df4 233f 48e0 0ebf af40 69be eeec 463e
00000390: b3b6 cbad 208b 2322 84ac 9c22 f0be b72a
000003a0: 1358 e2bb ba52 763c 6c95 1fbc ca22 80bb
000003b0: 5f19 8bbf 13c6 42bf cef3 fcbc ad31 963b
000003c0: 48e2 09bf 03ef 8bbf 2bea 2bbe f050 c33c
000003d0: 372d 823f e4c0 833f 0c1b c03d efc8 923d
000003e0: 9a23 11bf 031c 8f3e 9d11 b93d ed87 123e
000003f0: a873 96bf b68b 3b3f 168f 72be d596 72bd
0.24227598 -0.71369416 -0.155029 0.32270858 0.11830465 1.4170771 -0.07439706 0.3809295
-1.1497648 -0.71146446 -0.1573824 -0.119196616 -1.9696395e-06 2.9162733e-10 -1.1412395e-06 0.0006741121
-0.007057356 0.021716602 0.016080083 -0.014752767 0.6941772 -0.571888 0.43740517 0.48779988
0.5545912 0.7980902 0.11789915 0.022042474 -1.0222382e-05 1.9870344e-21 1.8532361e-07 1.2858834e-17
0.09329378 0.2789464 0.017703198 0.33190855 3.9565195e-26 1.6152771e-05 1.08225106e-19 -9.7444035e-06
-0.62220126 0.5047871 0.36802876 -0.4370332 -0.45984876 0.03520102 -0.4428302 0.04223802
0.57611704 -0.3259083 -0.5722927 0.44539383 0.9950656 0.3291348 0.12486049 0.2155809
0.19002599 0.030254023 0.29033944 0.120217524 -0.0010522439 0.07595285 0.02929173 -0.08045401
0.04218178 0.054868523 0.16792963 -0.079144016 3.7371297e-08 6.8587224e-06 2.254631e-06 -0.00020625016
0.38488865 -0.5780571 0.38385737 -0.43530253 1.0334052 0.3281177 -1.0559201 -0.323716
-0.00037880515 -0.0016795158 0.004189224 -0.01274132 0.11072842 0.07305803 0.37505308 -0.059050087
0.030131381 0.02048613 0.064969026 0.0007512518 1.4332805e-05 5.8863025e-05 -2.6218305e-07 9.6967425e-12
-0.3416986 0.26771918 0.64921016 0.1438957 -2.6815819e-08 9.129213e-05 -0.00013440198 0.00045550734
-0.804606 -1.2015126 0.21173367 -0.96171284 -0.0047262073 -0.0036905396 -0.011464705 -0.02079667
-1.3320739 -0.81144845 -0.030396692 0.07006056 -0.56079197 -0.542682 0.5993689 0.6458518
0.2523196 0.18330924 0.28360587 -0.21496162 -0.7504934 0.28225973 -0.024219578 0.23456153
-0.6968403 0.6349735 -0.16885503 -0.32066286 0.24965777 1.1516498 -0.11852555 -0.38402078
1.4361854 -0.22458185 0.18086526 0.46007663 0.81476194 0.6811193 0.08376714 0.24635458
-0.7134269 1.3217051 -0.006462295 0.5975267 1.3134799 -1.0172057 0.25427073 -0.42895237
-1.3390113e-15 7.678677e-28 6.328281e-18 6.863413e-17 -0.19262671 0.2920252 0.2826164 -0.036057107
1.4076351 0.4803699 0.12268259 0.2826909 1.8203927e-09 -7.5349015e-14 0.0013724816 -1.0060993e-05
-3.8038285e-15 1.8911257e-14 9.781111e-17 8.702224e-19 -0.11218435 0.2300852 0.3050862 0.10773771
-0.07848432 0.08123238 -0.05574988 0.06491566 -0.0034537574 0.008995846 0.00050996145 -0.0014341348
0.14023852 1.0291382 0.006916132 -0.034908872 -0.32392406 0.73480195 0.13057776 0.0045242556
0.26805052 0.42369956 -0.016462574 0.14185302 -0.6301678 -1.2101269 -0.16359638 0.1685203
-5.1497626e-18 -1.7127616e-12 1.6987079e-21 4.456824e-12 -1.2393799 0.9674536 -0.23224889 0.17187859
0.00015979442 5.7771517e-06 0.0005681724 7.663109e-07 0.012655544 0.0066227373 0.011676126 -0.033144064
0.34470436 -1.0091594 -0.08572967 -0.03498121 0.74277467 -0.5555313 0.084921665 -0.32541797
0.6404484 -0.55810976 -0.22778581 0.19426319 -2.3159563e-11 2.2164271e-18 4.2466543e-18 3.263982e-13
-0.006907472 0.015034372 -0.009740215 -0.003910397 -1.0867118 -0.7608349 -0.030877974 0.0045835585
-0.538609 -1.0932316 -0.16788547 0.023842305 1.0170048 1.029324 0.09380159 0.07167231
-0.5669495 0.2795106 0.090365626 0.14309664 -1.1754045 0.73260057 -0.23687395 -0.059225876

embedding_w.bias f4 [64]
00000000: e809 ac3d 8a8e 203e d070 063e 044a 8bbb
00000010: 20c7 943b e438 d9bc 759a 2ebd 169e 8abb
00000020: 1809 103e 0afb 59ba 2479 47bd 74c0 3c3c
00000030: f7ee 1e3e c360 463e 9812 0bbd 0c9e 1ebb
00000040: 5f07 14bd 8b3b 85ba 5906 003e 79d8 16bc
00000050: e1c7 11bc 256f 1cbd c1b0 6cbc c953 4bba
00000060: 0e77 45bd 2cf4 3abb b103 b2bd c87b 9a3c
00000070: 4a6e 1e3e 9361 f13d f2b3 0dbd 01e1 59bd
00000080: b4a6 323e f6ed b53c 5901 c43e ab8d 8c3e
00000090: fa3b 68b9 5d54 71bd f884 f2b1 2dd7 c93d
000000a0: 5d29 753d 998f 50bb 303d 06a7 434b 23bd
000000b0: f262 303d 46e8 03bc 71a2 18bd 7874 d6bd
000000c0: a98a ec3c 1ad1 053e e437 75b6 69e1 eebd
000000d0: 31db 30bb 8b92 913b 3d0c 213d 0fa9 8fbd
000000e0: e5b5 0f3c e25f 06bb 7caf 1bbc c4e3 b63e
000000f0: 5873 08be f9ac 1cbe 362b e93d 9b7c 84be
0.08400327 0.15679374 0.13128972 -0.0042507667 0.004540339 -0.026516385 -0.04262777 -0.004230271
0.14065969 -0.0008315301 -0.048699513 0.011520494 0.15520845 0.19372849 -0.03395328 -0.002420309
-0.036139842 -0.001016484 0.12502421 -0.009206885 -0.0088977525 -0.038191933 -0.014446438 -0.00077563204
-0.048209243 -0.0028526885 -0.0869211 0.018857852 0.1547176 0.11786189 -0.034595437 -0.053193096
0.17446405 0.022208195 0.38282278 0.27451834 -0.00022147587 -0.058918346 -7.0582438e-09 0.09855495
0.0598539 -0.0031823872 -1.8629405e-15 -0.039866697 0.04306311 -0.008050984 -0.03726429 -0.104714334
0.028874712 0.13068047 -3.6540378e-06 -0.11664087 -0.0026986117 0.004442518 0.039318312 -0.07014667
0.008771394 -0.0020503928 -0.009502288 0.35720646 -0.1332525 -0.15300359 0.11385195 -0.25876316

embedding_t_w.weight f4 [1, 8]
00000000: ee87 6e3f 6746 aabe c865 ec3d 78a0 febe
00000010: 294b 663d dc22 abbd 5920 f83e a9f5 21bf
0.9317616 -0.33256838 0.11542851 -0.49731803 0.056224022 -0.08356258 0.4846218 -0.6326547

lstm.weight_ih f4 [512, 65]
00000000: 5084 853a ac9f c8bc fe87 1abd 0f31 72af
00000010: d417 8cbb beaf 3bbd 1f6c 8ebc 684e 60b9
00000020: 7cf6 f2bc c1f0 d738 2a1c 553c 551b 8eba
00000030: 2677 5cbc 48b0 33bd 0a10 79bc 8721 753b
00000040: 1412 95bb f86c d8ac c23d 82bc ebfc 363a
00000050: 84eb ac39 8c8f 9abc 1ed1 8aba 7cce 1437
00000060: 4b17 2abc 403b 1bb8 e969 e6bc 6077 6d3c
00000070: bdfc 69bd 924b 48bc 84ba 9cbc 0115 80bb
00000080: d6d1 073c 35ac 673b dc48 aebd 9150 37bd
00000090: bdee efbc 3222 57bd 6856 f7b6 4f19 9fba
000000a0: 9803 65bd 6465 d43b 234a c1ad 5b0f 9dbb
000000b0: e04e 9eb8 e08c 24b2 40ec 39bc f491 81bb
000000c0: 3624 cfbb 3de7 ffbc 62e9 a238 20b0 9ebc
000000d0: 3536 babb dee1 32bb fd25 8fbc 216b 32bc
000000e0: 5242 18bc a2d5 b4b4 9e1a fa36 e0b1 50bd
000000f0: 30a1 77bc 056f 10bd 8cea 0ebc 0c42 0bbc
00000100: ac2c 1ebd 048e a0ba ac74 42bd f1fd 09bd
00000110: 88ad df38 1d26 9bba 283a f4bc d06f f2bc
00000120: a283 97b4 6318 e9bc 1e64 85b8 4737 9bbb
00000130: 60d0 8cbc 1893 95bc 9e9b f8bc eb29 2cbc
00000140: a7b3 c33b 1144 433a 3276 20b9 ef55 78bc
00000150: a7a3 5abc a85b f731 bb5c 81bb 96b5 3e38
00000160: 7c36 f935 43a3 7abc 8273 0438 c036 a3bc
00000170: 1456 2c3c edf7 52bd 6a9d 94bc 6c39 ebbb
00000180: 4c39 97bc ee5e adbb 00f0 7137 6600 6bbd
00000190: 1851 13bd bf45 ddbc 092f 14bd 40bf 1cba
000001a0: 775c 29bb 0658 12bd 5e54 b1ad f4ac 602e
000001b0: 9e9a adbb 8b8a e4bc baf1 1432 6c8d 55bc
000001c0: 9e14 cbbb 55b4 c0bc e8a5 0abd 2cde 503a
000001d0: 240b 9bbc 2227 3d37 569a 96bb 6838 93bc
000001e0: 81dd fcbb de64 debb be1a 9d34 c37a f23a
000001f0: 168f 2dbd 7de4 a0bc 331c 02bd 5086 47bc
00000200: 75b6 b7bc 3609 c4bc 0a27 893c 6169 2dbd
00000210: 8772 92bc a4c6 be34 afa9 7f3b 9046 9a3a
00000220: c77d 9dba 9e00 92bb 73b8 67bc 527e 8034
00000230: ac46 5c3c cb5a ef3c 1ce8 fd39 a4a2 03bd
00000240: b64d 6abb ea87 083c 05c9 8638 2ad1 262f
00000250: a765 79bc c7a1 65bc 0422 d3b7 7762 57ba
00000260: 883b 3634 c27c 0633 58b6 3fba ee37 383a
00000270: a879 d2bb 3e5b efbb bd2b 0abd 0e49 203c
00000280: 4eb8 263b ae30 ae3c 127a 823c d865 ba3c
00000290: 1a37 87bd 92c8 23bd 7c16 61bc 3877 21bd
000002a0: 6880 d339 eff1 513b 2566 07bd b401 85b7
000002b0: 98ed 2839 a8bb bb39 4a08 6d3c 36ea 0280
000002c0: aa36 313c d4a7 163c 78ee 473a 66d3 84ba
000002d0: bfb8 0100 a34b 483c 315f 8bba 7b18 4ebc
000002e0: d1e8 c7bb ff9a 8abc d8b7 8f39 040a 0a35
000002f0: 0444 e93a 20a1 eabc 32d8 c53c cde0 2bbc
00000300: f88d 783c 93d5 ca3c 299f 93bc a6ee 81bb
00000310: 7c94 85bd 8b1c 13bd b2b2 0180 53c5 4eba
00000320: 65d2 d8bc 3ad8 bebc d428 8db3 3d8b c5bc
00000330: 2c9e 0833 cfc2 0bbc dcce 52bc 30c8 8bbc
00000340: 8f9e 13bd bac7 54bb a7ae 983b ec4a d639
00000350: 153e c233 2b27 84bc d540 32bc aad9 0000
00000360: b181 5abb 8b87 74b6 3e71 1a3b 92cf 67bc
00000370: cc42 8637 7b6a e0bc 0ec1 623b dec8 4cbd
00000380: fe58 5cbc 75fc acbb ac2c 92bc bc99 c9bb
00000390: 9864 dd3b af6c 83bd f3de 0fbd 002d 1fbd
000003a0: 98b2 0ebd 7fab 1e38 1ac9 75bb f98c 2abd
000003b0: e900 a4b1 96b2 dfb7 a830 82bb 81fe 97bc
000003c0: 4c58 4e39 9de0 ffbb 852f ffbb c2c1 2ebc
000003d0: 7b3a cabc 12b8 9537 f122 b8bc fa8a 3cb2
000003e0: 276d 4ebb 279c 89bc af11 d5bb 1ab3 d1bb
000003f0: 00f9 8036 72dc e6b9 b44f 34bd 4393 a9bc
0.0010186527 -0.0244902 -0.03772735 -2.2027201e-10 -0.0042753015 -0.045821898 -0.01738554 -0.00021391513
-0.029658549 0.00010296843 0.013007203 -0.0010841886 -0.013456142 -0.043869287 -0.015201578 0.0037404017
-0.004549274 -6.151187e-12 -0.015898589 0.0006980437 0.0003298187 -0.018867277 -0.0010590886 8.869563e-06
-0.01038153 -3.701006e-05 -0.028126674 0.014493793 -0.057125796 -0.012225049 -0.019131906 -0.003908754
0.008289775 0.0035350446 -0.085099906 -0.04475457 -0.029288644 -0.052522846 -7.3712326e-06 -0.001213828
-0.05591163 0.0064818133 -2.1974483e-11 -0.0047930903 -7.548719e-05 -9.578088e-09 -0.01134783 -0.0039541665
-0.0063214554 -0.031238193 7.768233e-05 -0.019371092 -0.0056827315 -0.0027295272 -0.017474169 -0.010889799
-0.009293156 -3.368305e-07 7.4536792e-06 -0.050950885 -0.015114114 -0.035262126 -0.0087229125 -0.0084996335
-0.03861682 -0.0012249355 -0.04747455 -0.033689443 0.00010665791 -0.001183692 -0.029812887 -0.029594332
-2.8221717e-07 -0.028454011 -6.3605825e-05 -0.004736814 -0.017189205 -0.018258616 -0.030347642 -0.010508041
0.005972344 0.00074488024 -0.0001530282 -0.015157207 -0.013344682 7.1990662e-09 -0.003947822 4.5468645e-05
1.8567803e-06 -0.015297714 3.1578827e-05 -0.019923568 0.0105185695 -0.05150597 -0.018141467 -0.007178476
-0.018459938 -0.0052908575 1.4420599e-05 -0.057373427 -0.03596601 -0.027010797 -0.03617767 -0.0005979426
-0.0025842467 -0.035728477 -2.0160037e-11 5.1085317e-11 -0.005297973 -0.027898094 8.669696e-09 -0.013034206
-0.006197526 -0.023523489 -0.033849627 0.00079676765 -0.01892621 1.1274389e-05 -0.004596035 -0.017971233
-0.007716835 -0.0067869266 2.9262986e-07 0.0018499721 -0.042372786 -0.019640202 -0.031765174 -0.012178019
-0.02242587 -0.023930173 0.016742248 -0.042336825 -0.017876877 3.5534788e-07 0.0039011051 0.0011770297
-0.0012015634 -0.00445564 -0.014143097 2.3933768e-07 0.013444584 0.029218098 0.00048428855 -0.032137528
-0.0035751886 0.008333186 6.427061e-05 1.5171922e-10 -0.01522199 -0.0140156215 -2.5169e-05 -0.00082162715
1.6971728e-07 3.1312773e-08 -0.0007313243 0.0007027377 -0.006423194 -0.007304578 -0.03373312 0.009783043
0.0025439444 0.021263447 0.015927348 0.022753641 -0.06602307 -0.0399862 -0.013738271 -0.039420336
0.00040340726 0.0032035073 -0.033056397 -1.5855629e-05 0.00016110239 0.00035807234 0.014467308 -2.6769e-40
0.010816256 0.009195287 0.0007626782 -0.0010133802 1.5811e-40 0.012225064 -0.0010633228 -0.012579079
-0.006100752 -0.016919611 0.0002741206 5.142358e-07 0.001779676 -0.028641284 0.024150942 -0.010490608
0.015170567 0.024760043 -0.01802023 -0.0039652167 -0.06522462 -0.035915893 -1.55939e-40 -0.000788768
-0.026467511 -0.023296464 -6.573251e-08 -0.024114246 3.1808824e-08 -0.008530333 -0.012866702 -0.01706323
-0.036039885 -0.003246768 0.004659492 0.00040873082 9.0451216e-08 -0.016131958 -0.010879715 7.8083e-41
-0.0033341462 -3.643773e-06 0.0023566033 -0.01414861 1.600515e-05 -0.027394524 0.0034599933 -0.04999625
-0.013448952 -0.0052791187 -0.017843567 -0.00615236 0.0067563765 -0.06417214 -0.03512473 -0.038861275
-0.03483829 3.7829854e-05 -0.00375039 -0.04163835 -4.7731317e-09 -2.6666832e-05 -0.0039730854 -0.018553974
0.00019678584 -0.0078087584 -0.007787647 -0.010666313 -0.024686089 1.7847899e-05 -0.022477599 -1.097464e-08
-0.0031498165 -0.016798092 -0.006502352 -0.0063995244 3.8436847e-06 -0.00044033263 -0.044021323 -0.020700103

lstm.weight_hh f4 [512, 128]
00000000: b831 c9b9 d659 ab3a 16be b83b 2079 c937
00000010: a282 453c 1a1d f7bc ef59 933b bb3d 2dbb
00000020: 042d 013c c0c5 2339 ef83 05bb 09b6 55bc
00000030: 8f11 bc3c 5f2a 73bb 0203 a8bb 23f9 c7b9
00000040: 2efa 0e3b 8ec1 df3a 656b 8eba 90ec 6cbb
00000050: e625 e73b 9214 923b fa51 023b f55f 31bb
00000060: 602e 3e38 72a0 3ebc 8f3d 293b d6f6 b5ba
00000070: c402 3a3b d6b7 89ba 5478 0c3c be6c f4b9
00000080: fc17 e63a 0957 9e3a ee0d e33a 9d1b e73a
00000090: e5db abbb 2d65 36b9 ed4e 473c 8abb b13a
000000a0: bb30 803a 727a acba a6e4 38bd efe2 13bb
000000b0: f67d e03b 3cbd b33a ac66 56bb b80a c03b
000000c0: 5b98 9bba 4a17 4c3b d12d 423b ce0d 70bb
000000d0: edee c4b9 0786 053b e0d6 2e3a ce7f 09bb
000000e0: ced9 043b 48b5 0abb 3e99 e8bb 5c79 7d3a
000000f0: 6557 a4ba 5c3e a539 3e1d b1bc 69c6 15bb
00000100: b415 f139 f27a 2e3b 37b3 01bb 1a0b 533b
00000110: f680 f13b 80c9 69b8 5e11 36bb c030 9d3a
00000120: a0da 1038 37be 963a 92dd 16bb a279 2dbb
00000130: 03ec a3bb 1042 f2ba 668d 743d 4711 4a3b
00000140: 0f9c 3c3c d7b4 ba3b f2fe 133a 11bc 2bbb
00000150: 1a56 a8bb 9712 33bd 54b6 c6bb 6d56 a7bb
00000160: beb5 013b a039 9e38 040e 673b 29f2 b73a
00000170: 6e0e ccbb c644 313a e3a8 33ba a5d0 25bb
00000180: 5112 7dbb 7867 863b 20bf 29bb 4ab9 cdbb
00000190: d00c 26bb ef7b fe3a 2326 273b bd65 36ba
000001a0: f898 9ab9 221b e0ba 6239 053b d2ce 3f3d
000001b0: b0fe 363a f228 aeba 6808 9cbb 7c95 57bb
000001c0: 7d59 99bb ef79 893a b062 ccb8 fea9 643b
000001d0: c598 9fba 617c a03a dac2 41bb b8ae a2ba
000001e0: 5681 cc3a 51f6 fbba 29a5 deba d95d 4f3b
000001f0: 2c2f 85bb 14aa 96bb 9cc6 d83b ecfb 06ba
00000200: f86a 703b dcf5 e83b f802 8abb b8b6 f2ba
00000210: 0cba 26bc 244f fcbb 05ef ed3b deb0 83b9
00000220: 54a2 103c 1ac4 90bb a4f1 65b9 e061 443b
00000230: eac3 893c 8421 083b 834b dcbb c040 40b8
00000240: 9ae2 bfbb 3016 873a 5002 1d3c ffb9 f63b
00000250: 64fe 323a d208 d2bb 93e8 3cba 335b 5ebb
00000260: 80d0 0c36 a5e3 eb3a 244e f0ba a01d d139
00000270: 0030 deb9 b1e8 edbb 429c 883b 0c20 cd3a
00000280: b07c 0bbb 0e41 db3b b415 193c 1bb3 cd3b
00000290: 8098 c5b8 274e e23b 5216 42bc 4342 50ba
000002a0: 7c05 bd3a b024 c03a 1d39 67bc 5dd6 90bb
000002b0: a311 baba a856 08bb 7524 12bc 5e6c 063a
000002c0: 48fd c9bb 6ec4 b23b f5f4 1c3b 854b 1fbb
000002d0: 90b5 aeb7 e21d e7ba 576f 1d3b 7acb 99bb
000002e0: e2a4 13ba d9cb 82bb fd9b 9d3a e0c6 4b3b
000002f0: cfd4 d5bb 79f4 85bb 9a9f dabb 941e 2f3b
00000300: 42b5 e3bb f81b 4dbb 7c77 9939 030f 60bb
00000310: 4be3 273b 7491 a039 9c70 eebb a785 f83b
00000320: 18bc c5ba b7b4 513b 6e64 91bb 1a85 97bb
00000330: c0a9 a1ba 8f77 da3b c70a ff3c 2c45 7f3a
00000340: 0db2 9c3c e020 3738 5e87 133b 8e98 c2bb
00000350: c034 82b9 5537 b5bc e888 ac3b 0310 31bb
00000360: ce43 1dbb 0f31 d0ba f482 22bc bc8d 83b9
00000370: 6a85 59bc 4788 9cbb 88e8 b73a d69b 48bb
00000380: 184d 7d3b 1b41 183c 6ca9 a5bb dd53 afbb
00000390: 0d61 aa3b 8570 a43b 939d 333a a6ca 913b
000003a0: 5148 0fbc 43d8 453b 58c6 33bc 5001 713c
000003b0: a276 73bc 17fc b9ba cb2e 773b 80f0 c7b7
000003c0: 10e0 3cbb 2d7a 9d3a e8c0 3dbb 905b 93b9
000003d0: 2d92 3b3c aa03 cc3b 0fb2 e3bb 821e 003a
000003e0: dfdb d2bb 003a 9739 c0ff adba 7d3b e8bb
000003f0: 5ad3 90bc af38 e03b fa51 c93b 1cbb 7ebb
-0.0003837475 0.0013073038 0.0056378944 2.401747e-05 0.012055071 -0.030165244 0.004496805 -0.00264345
0.007884268 0.00015618559 -0.0020372828 -0.013043889 0.022957591 -0.0037104113 -0.0051273117 -0.0003814186
0.00218166 0.0017071234 -0.0010865746 -0.0036151744 0.0070540784 0.0044580186 0.0019885288 -0.0027065251
4.534272e-05 -0.011634933 0.0025824045 -0.0013882767 0.0028382996 -0.0010507058 0.00857361 -0.00046620326
0.0017554755 0.0012080382 0.0017322877 0.0017632131 -0.0052447193 -0.00017394563 0.0121648135 0.0013559919
0.0009780148 -0.001315905 -0.04513993 -0.0022565683 0.006850953 0.0013713012 -0.0032715006 0.005860653
-0.0011870967 0.003114181 0.002962936 -0.0036629322 -0.00037562047 0.0020374076 0.0006669592 -0.0020980719
0.0020271423 -0.002116518 -0.007098346 0.0009669268 -0.0012538253 0.00031517714 -0.02162039 -0.0022853857
0.00045983272 0.0026623574 -0.0019790658 0.0032202662 0.0073701097 -5.573919e-05 -0.0027781348 0.0011992678
3.4535886e-05 0.001150078 -0.002302025 -0.0026470204 -0.0050025 -0.0018482823 0.05970516 0.0030833052
0.011511817 0.0056978273 0.0005645595 -0.0026204626 -0.005137217 -0.0437189 -0.0060642157 -0.0051067383
0.0019792165 7.5447606e-05 0.0035256157 0.0014033961 -0.006227306 0.0006762262 -0.0006853474 -0.0025301364
-0.0038615654 0.00410169 -0.0025901273 -0.0062781917 -0.0025337227 0.0019415597 0.002550491 -0.0006957909
-0.0002948714 -0.001709793 0.0020328392 0.0468281 0.00069807004 -0.0013287349 -0.0047617443 -0.0032895496
-0.0046798573 0.001048861 -9.74586e-05 0.0034891362 -0.0012176266 0.0012244099 -0.0029565603 -0.0012411689
0.001560251 -0.0019223188 -0.0016986477 0.003164163 -0.004064461 -0.0045979116 0.006615473 -0.00051492336
0.0036684852 0.007109387 -0.0042117797 -0.0018517589 -0.010176193 -0.007699864 0.0072611594 -0.00025118043
0.008827765 -0.0044179084 -0.0002192916 0.0029965565 0.016817052 0.002077193 -0.006722869 -4.583667e-05
-0.0058558704 0.0010306295 0.009583071 0.0075294967 0.0006828068 -0.006409743 -0.0007206287 -0.003392887
2.0982989e-06 0.001799692 -0.0018333835 0.0003988566 -0.00042378902 -0.007260405 0.004169018 0.001564981
-0.0021284036 0.0066911047 0.009343553 0.0062774546 -9.422097e-05 0.006906289 -0.011846142 -0.0007944444
0.001442119 0.0014659371 -0.014112738 -0.0044200853 -0.001419593 -0.0020803604 -0.008919825 0.00051278423
-0.0061642267 0.005455545 0.0023949717 -0.0024306488 -2.0826963e-05 -0.0017632807 0.0024022663 -0.0046934457
-0.00056321744 -0.0039915857 0.0012024638 0.003109388 -0.006525613 -0.0040879813 -0.006671858 0.0026721107
-0.006949098 -0.0031297188 0.00029271457 -0.0034188635 0.0025617655 0.0003062595 -0.0072766077 0.007584292
-0.0015085964 0.0031998584 -0.004437021 -0.0046240212 -0.0012333915 0.0066670845 0.031133069 0.00097377854
0.01912787 4.3661217e-05 0.0022511105 -0.005938596 -0.00024834834 -0.02212111 0.005265344 -0.00270176
-0.0023996714 -0.0015883761 -0.009918917 -0.00025091867 -0.013276437 -0.0047769877 0.0014031092 -0.0030610464
0.0038650688 0.009292866 -0.005055597 -0.0053505735 0.0051995576 0.005018296 0.00068517885 0.0044492064
-0.008745269 0.0030188716 -0.010972582 0.014709786 -0.014859827 -0.0014189509 0.00377171 -2.383464e-05
-0.0028820075 0.0012014561 -0.0028954092 -0.00028106244 0.011448425 0.0062260227 -0.0069487165 0.00048873585
-0.006434902 0.00028844178 -0.0013275072 -0.0070871697 -0.017678905 0.0068426947 0.0061438056 -0.003886885

lstm.bias_ih f4 [512]
00000000: a197 12be ffa9 d5bd 5f8f e5bd 89f6 eabd
00000010: b71e 51be 57de 7c3e 1506 f8bd 5b79 e0bd
00000020: 11a4 d3bd 45d0 0dbe 6f45 f8bd fead 10bd
00000030: 4d17 093e 1dca 2bbe e634 e7bd 2de4 e4bd
00000040: ac2f edbd dad8 e8bd 6a77 d9bd b912 84bd
00000050: 7878 ffbd e2a3 e6bd 1fcb e9bd 369c dfbd
00000060: f3ca ebbd 5998 e7bd 4646 ffbd 22e8 d0bd
00000070: cc94 04bd d942 fcbd db73 28bd 0ce8 d8bd
00000080: 7c25 f4bd 3bf7 e7bd 446b fcbd cd12 b0bd
00000090: ba7b e5bd 5865 04be 17f2 983e d71e e6bd
000000a0: 6f99 dcbd 0767 debd dd27 f93e 47ea 5a3d
000000b0: 2a74 bfbd bd1c d1bd 2229 f7bd 41cb efbd
000000c0: f7aa ccbd f23a e8bd bb06 febd 66e0 efbd
000000d0: d23f ecbd 7ecd d2bd 9ae9 00be 1707 02be
000000e0: 7dca edbd 034f 25be aa1e dabd d149 f7bd
000000f0: bf20 ffbd 27e9 8ebd 26d9 04be ae7d dcbd
00000100: 82f6 09be 1f96 e3bd 9698 d2bd d420 ebbd
00000110: 2ce6 d6bd fccb fbbd f957 d1bd 30c1 b9bd
00000120: 1c74 ebbd d816 f1bd c523 e4bd 9be5 e4bd
00000130: 7a00 00be 986e c7bd af28 103f 04b2 ffbd
00000140: b799 5fbe bf2d e9bd 6d3a 01be 6333 e2bd
00000150: 6696 e4bd 2c77 013f c6e7 c0bd 0670 50be
00000160: 69d6 d2bd 3b92 e8bd 9eec c7bd c1ca e5bd
00000170: 33ed 7dbe 999e ffbd f437 e2bd 0042 d3bd
00000180: c3f1 04be d09f f8bd 6395 f4bd d96f 4bbe
00000190: b9dd d1bd 199c c3bd 594c 07be 6916 f2bd
000001a0: 6fa9 c9bd d808 e6bd 4da8 ccbd ce74 eb3e
000001b0: 25ac d4bd 7971 c0bd 1d06 f0bd 5f0d d2bd
000001c0: 8129 35be 180d e1bd 9256 23be d1e0 c3bd
000001d0: 382d bfbd 0e26 e1bd 2980 01be ea61 d8bd
000001e0: 58de 38be ec5f c9bd 86cd f2bd f206 cfbd
000001f0: f46e 02be d80c c4bd 2c4b b1bd 3d6e dbbd
00000200: be13 f0bd 3b49 82bd 7ccb aabd 2465 84bd
00000210: 6e8e 1bbd e1f2 d5bd d419 a2bd 8dd7 95bd
00000220: d2dd 8dbd cd0a cbbd 9326 b4bd 1a8a ebbd
00000230: 2139 56bd 6bac d6bd a90d 97bd 1f6f 8ebd
00000240: bc0c 05bf 4e75 8fbd b044 b3bd 5bd3 c4be
00000250: 3480 9cbd 3ae3 bebd 72ca 9ebd 8f37 a2bd
00000260: 89ff a0bd 7fc5 62be 0719 c3bd d0a3 70bd
00000270: 337d 08be c1ad abbd cd66 cdbd 41f3 8abd
00000280: 8f1c a9bd 78c4 94bd f5d9 70be 3f3f 46bd
00000290: c93a acbd cedc b7bd f65b 88bd abbf b0bd
000002a0: 027e 84bd b95a 7bbd d87b 893e ba08 ddbd
000002b0: 4d95 7bbd 2c23 67bd 5547 aabd e7b3 92bd
000002c0: 6eeb 79be 0854 99bd 7489 94bd e89a a4bd
000002d0: 663e 73bd d2a4 80bd 90e1 b0bd cd1d c2bd
000002e0: 086f 9abd 730a 91bd 79b8 9fbd 56c8 a2be
000002f0: 47bd b0bd f176 1abe 3820 88be 75d8 90bd
00000300: 8a77 6abe a5ad 84bd 2578 92bd 19ae a4bd
00000310: ea37 a1bd ec0c d5bd c394 7bbd 636b 4ebd
00000320: 1e30 debd 096d a2bd 584f 82bd 98e6 8fbd
00000330: e73d b5bd 4ef9 97bd a724 a43e 056f abbd
00000340: 1e6d adbe 0f70 b7bd 1c56 a9bd 8f31 8ebd
00000350: 8bad b1bd e651 9b3e 2492 6ebd 044b 1dbe
00000360: 87c9 9cbd 1fe8 87bd ecae 95bd 648f c0bd
00000370: 7285 8ebe 1d36 adbd 20cb 6bbd b801 84bd
00000380: 88f0 cbbd fcf8 afbd 0831 88bd 754e 17be
00000390: 3011 82bd 056a 62bd 040d 84bd 5422 a3bd
000003a0: cc56 91bd 62e1 babd 2d9a a1bd 0f93 5b3e
000003b0: e55f 58be 6dd9 65bd 7a85 bbbd bbcb 84bd
000003c0: ed38 a2be 6455 96bd e5a1 febd 6f21 85bd
000003d0: 8b7b 28be ff30 36bd 0ec8 a7bd da71 9ebd
000003e0: 3faf 1abe 352c 97bd d7ea aebd ad96 86bd
000003f0: b958 7cbe 26a6 8bbd a131 80bd 11b7 a4bd
-0.14315654 -0.10432815 -0.112089865 -0.11472804 -0.20421873 0.24694191 -0.12110535 -0.10960647
-0.103340276 -0.1384898 -0.121226184 -0.035322182 0.13387795 -0.16776319 -0.112893865 -0.111763336
-0.11581358 -0.11369486 -0.106184795 -0.064488836 -0.124741495 -0.11261727 -0.114156954 -0.10918467
-0.11513319 -0.11308355 -0.124645755 -0.10200526 -0.032368466 -0.12317438 -0.041126113 -0.105911344
-0.11921212 -0.11326452 -0.12325147 -0.08597336 -0.112052396 -0.12929285 0.298722 -0.11236351
-0.10771453 -0.10859495 0.48663226 0.05344608 -0.093483284 -0.102105595 -0.12068392 -0.117086895
-0.099935465 -0.11339368 -0.124036275 -0.117127225 -0.1153561 -0.10293101 -0.12589112 -0.12698017
-0.11610887 -0.16143422 -0.1065038 -0.12074626 -0.12457418 -0.06978064 -0.1297346 -0.10766159
-0.13472942 -0.11112618 -0.1028301 -0.11480871 -0.104931206 -0.12294766 -0.102218576 -0.09070051
-0.114967555 -0.11771935 -0.11139635 -0.11176606 -0.12500182 -0.09737891 0.5631208 -0.12485126
-0.21835981 -0.113856785 -0.12619944 -0.110449575 -0.11161499 0.50572467 -0.09419207 -0.20355234
-0.10294802 -0.11356016 -0.09761928 -0.11220313 -0.24797516 -0.12481422 -0.110458285 -0.10315323
-0.1298285 -0.12139857 -0.11942556 -0.19866885 -0.10247368 -0.09551258 -0.13212718 -0.11820681
-0.0984677 -0.112321556 -0.09993038 0.45987552 -0.103843965 -0.09396643 -0.11719916 -0.102564566
-0.17691614 -0.109888256 -0.15950993 -0.09564365 -0.09334797 -0.109935865 -0.12646545 -0.105655506
-0.18053567 -0.09832749 -0.11855607 -0.101087466 -0.12737638 -0.09572762 -0.08656916 -0.10714386
-0.117225155 -0.06361624 -0.08339593 -0.064646035 -0.03797763 -0.10446716 -0.079150826 -0.07316504
-0.069270745 -0.099141695 -0.0879642 -0.1150095 -0.052300576 -0.10482105 -0.07375652 -0.069547884
-0.51972556 -0.07004796 -0.087533355 -0.384425 -0.0764164 -0.09320684 -0.07753457 -0.07920753
-0.078612395 -0.22145651 -0.09526258 -0.058749974 -0.1332901 -0.0838275 -0.10029373 -0.06784678
-0.082574 -0.07264036 -0.23520644 -0.04840016 -0.0840965 -0.08977662 -0.06658165 -0.08630308
-0.064693466 -0.061365817 0.26852298 -0.1079268 -0.06142168 -0.056430027 -0.08314387 -0.0716322
-0.24406216 -0.07486731 -0.072527796 -0.080373585 -0.05938568 -0.06281437 -0.08636773 -0.0947834
-0.07540709 -0.07082071 -0.07798857 -0.3179347 -0.08629852 -0.15084435 -0.2658708 -0.07072536
-0.22897163 -0.064784326 -0.07151822 -0.08041019 -0.07871993 -0.10402855 -0.061421167 -0.05039538
-0.108490214 -0.07930953 -0.0636279 -0.07026404 -0.088496976 -0.07420598 0.32059214 -0.08370785
-0.33872312 -0.0895692 -0.08268377 -0.06943046 -0.08675679 0.3033592 -0.05824484 -0.15360647
-0.07655626 -0.066360705 -0.07308754 -0.094023496 -0.27836186 -0.08457587 -0.057566762 -0.0644564
-0.09957987 -0.08592412 -0.06649977 -0.14776023 -0.063509345 -0.05527689 -0.06447795 -0.07965532
-0.07096633 -0.091250196 -0.07890735 0.21442817 -0.21130331 -0.056115557 -0.09156318 -0.06484171
-0.31684056 -0.07340506 -0.12433223 -0.065005176 -0.16453378 -0.04448032 -0.08192454 -0.07736559
-0.15105914 -0.07381479 -0.08540886 -0.06571708 -0.2464322 -0.068188 -0.06259466 -0.0804273

lstm.bias_hh f4 [512]
00000000: 0cf6 12be fda9 d5bd 5f8f e5bd 89f6 eabd
00000010: c650 56be 4203 643e 0d06 f8bd 5b79 e0bd
00000020: 0aa4 d3bd 32d0 0dbe 6f45 f8bd e179 fcbc
00000030: 0259 183e 8dbc 29be d434 e7bd 2de4 e4bd
00000040: dabd debd dad8 e8bd 6a77 d9bd 8745 67bd
00000050: cc78 ffbd e2a3 e6bd 1fcb e9bd 349c dfbd
00000060: f1ca ebbd dbb3 eebd 4646 ffbd 22e8 d0bd
00000070: 8b92 16bd 8843 fcbd 9cb1 f0bc 10e8 d8bd
00000080: 7c25 f4bd 3af7 e7bd 1e89 fcbd e912 b0bd
00000090: ba7b e5bd 5665 04be 6e7b 9d3e d71e e6bd
000000a0: 7199 dcbd f866 debd 7dca f83e ccde 843d
000000b0: 2a74 bfbd bd1c d1bd 2229 f7bd 49cb efbd
000000c0: f64a dfbd f23a e8bd bf06 febd 6ae0 efbd
000000d0: 7f50 ecbd 7ecd d2bd 9ae9 00be 1707 02be
000000e0: 7bca edbd 07d1 24be aa1e dabd 7467 f7bd
000000f0: eb20 ffbd 199d e2bc 2b8c bdbd ae7d dcbd
00000100: e8e4 e4bd 1f96 e3bd 9698 d2bd d420 ebbd
00000110: 2ce6 d6bd 51cc fbbd 0858 d1bd 30c1 b9bd
00000120: b838 ebbd e616 f1bd c523 e4bd 9be5 e4bd
00000130: 8500 00be 9f6d c7bd bb1b 103f d7b1 ffbd
00000140: aea5 78be bf2d e9bd 6e3a 01be 6333 e2bd
00000150: 6696 e4bd e372 023f c6e7 c0bd 8685 52be
00000160: 72d6 d2bd 4492 e8bd 9eec c7bd 74b6 e5bd
00000170: 89b9 85be 999e ffbd f437 e2bd 0042 d3bd
00000180: c3f1 04be d29f f8bd 6195 f4bd 1105 4ebe
00000190: b9dd d1bd 199c c3bd 9747 07be 5916 f2bd
000001a0: 5fa9 c9bd 7308 e6bd 4ca8 ccbd c55a f03e
000001b0: cddb e4bd 7971 c0bd 1d06 f0bd 5f0d d2bd
000001c0: c98c 87be 180d e1bd b554 23be ace0 c3bd
000001d0: d267 bebd b5d8 dfbd 2780 01be ed61 d8bd
000001e0: 4df0 39be ee5f c9bd 16ce f2bd e308 cfbd
000001f0: edc2 03be d80c c4bd 264b b1bd 3d6e dbbd
00000200: 420e f0bd 3b49 82bd 7ccb aabd 2465 84bd
00000210: 36c8 00bd 9c2d edbd d419 a2bd 8dd7 95bd
00000220: d2dd 8dbd cd0a cbbd 9326 b4bd f7fd ebbd
00000230: 5dd7 3dbd 42b3 d6bd a90d 97bd 1f6f 8ebd
00000240: 37af eebe 4e75 8fbd b044 b3bd acf8 e5be
00000250: 3480 9cbd 3ae3 bebd 72ca 9ebd 8f37 a2bd
00000260: 89ff a0bd 79f5 61be 0719 c3bd d0a3 70bd
00000270: 0633 08be c1ad abbd 8f9e c7bd 41f3 8abd
00000280: 8f1c a9bd 78c4 94bd eb0e 71be 3f3f 46bd
00000290: c93a acbd cedc b7bd 6ac9 b4bd abbf b0bd
000002a0: 027e 84bd b95a 7bbd d132 893e 47b1 b2bd
000002b0: 4d95 7bbd 2c23 67bd 5547 aabd e7b3 92bd
000002c0: 0e2e 79be 0854 99bd 7489 94bd e89a a4bd
000002d0: 1e3e 73bd d2a4 80bd 90e1 b0bd cd1d c2bd
000002e0: 086f 9abd b005 91bd 79b8 9fbd c780 a1be
000002f0: 47bd b0bd 3b83 19be e8e4 8dbe 75d8 90bd
00000300: ad15 69be a5ad 84bd 2578 92bd 19ae a4bd
00000310: ea37 a1bd ec0c d5bd c394 7bbd 636b 4ebd
00000320: 0c30 debd 096d a2bd 584f 82bd 98e6 8fbd
00000330: e73d b5bd 4ef9 97bd a27f a43e 056f abbd
00000340: f6b9 a2be 0f70 b7bd 1c56 a9bd 8f31 8ebd
00000350: 8bad b1bd fc61 993e 2492 6ebd 182d 1dbe
00000360: 87c9 9cbd 1fe8 87bd ecae 95bd 6c8f c0bd
00000370: a994 89be 1d36 adbd 20cb 6bbd b801 84bd
00000380: 88f0 cbbd fcf8 afbd 0831 88bd d451 17be
00000390: 3011 82bd 056a 62bd 060d 84bd 5422 a3bd
000003a0: cc56 91bd 62e1 babd 2d9a a1bd ec08 653e
000003b0: dc52 63be 6dd9 65bd 7a85 bbbd bbcb 84bd
000003c0: ecdd a8be 6455 96bd c1a1 febd 6f21 85bd
000003d0: 1d77 28be 3430 36bd 0ec8 a7bd da71 9ebd
000003e0: d2bc 1abe 352c 97bd d7ea aebd ad96 86bd
000003f0: 5ffe 7abe 26a6 8bbd a131 80bd 11b7 a4bd
-0.14351672 -0.10432813 -0.112089865 -0.11472804 -0.2092925 0.22266868 -0.12110529 -0.10960647
-0.10334022 -0.13848951 -0.121226184 -0.030819835 0.14877704 -0.16575833 -0.11289373 -0.111763336
-0.10876055 -0.11369486 -0.106184795 -0.05646279 -0.12474212 -0.11261727 -0.114156954 -0.10918465
-0.115133174 -0.116553985 -0.124645755 -0.10200526 -0.036760848 -0.12317568 -0.029381566 -0.105911374
-0.11921212 -0.113264516 -0.123308405 -0.08597357 -0.112052396 -0.12929282 0.30758232 -0.11236351
-0.10771454 -0.108594835 0.48591986 0.06487808 -0.093483284 -0.102105595 -0.12068392 -0.117086954
-0.109029695 -0.11339368 -0.124036305 -0.117127255 -0.11538791 -0.10293101 -0.12589112 -0.12698017
-0.11610886 -0.16095363 -0.1065038 -0.12080279 -0.124574505 -0.0276628 -0.092552505 -0.10766159
-0.11176473 -0.11112618 -0.1028301 -0.11480871 -0.104931206 -0.1229483 -0.10221869 -0.09070051
-0.114854276 -0.11771946 -0.11139635 -0.11176606 -0.12500198 -0.097377054 0.56292313 -0.12485092
-0.24281952 -0.113856785 -0.12619945 -0.110449575 -0.11161499 0.50956553 -0.09419207 -0.20558748
-0.102948084 -0.11356023 -0.09761928 -0.11216441 -0.26118115 -0.12481422 -0.110458285 -0.10315323
-0.1298285 -0.12139858 -0.11942554 -0.2011912 -0.10247368 -0.09551258 -0.13210903 -0.11820669
-0.09846758 -0.1123208 -0.099930376 0.46944252 -0.11174736 -0.09396643 -0.11719916 -0.102564566
-0.26474598 -0.109888256 -0.15950282 -0.09564337 -0.09297146 -0.109300055 -0.12646542 -0.10565553
-0.18158074 -0.0983275 -0.11855714 -0.10109117 -0.12867327 -0.09572762 -0.086569116 -0.10714386
-0.117214695 -0.06361624 -0.08339593 -0.064646035 -0.031440936 -0.11580965 -0.079150826 -0.07316504
-0.069270745 -0.099141695 -0.0879642 -0.11523049 -0.046347965 -0.104834095 -0.07375652 -0.069547884
-0.46618053 -0.07004796 -0.087533355 -0.44916284 -0.0764164 -0.09320684 -0.07753457 -0.07920753
-0.078612395 -0.22066297 -0.09526258 -0.058749974 -0.13300714 -0.0838275 -0.097470395 -0.06784678
-0.082574 -0.07264036 -0.23540847 -0.04840016 -0.0840965 -0.08977662 -0.08827479 -0.08630308
-0.064693466 -0.061365817 0.26796582 -0.08725219 -0.06142168 -0.056430027 -0.08314387 -0.0716322
-0.24333975 -0.07486731 -0.072527796 -0.080373585 -0.05938541 -0.06281437 -0.08636773 -0.0947834
-0.07540709 -0.07081163 -0.07798857 -0.31543562 -0.08629852 -0.14991467 -0.27713704 -0.07072536
-0.22762175 -0.064784326 -0.07151822 -0.08041019 -0.07871993 -0.10402855 -0.061421167 -0.05039538
-0.10849008 -0.07930953 -0.0636279 -0.07026404 -0.088496976 -0.07420598 0.32128626 -0.08370785
-0.31782502 -0.0895692 -0.08268377 -0.06943046 -0.08675679 0.2995757 -0.05824484 -0.15349233
-0.07655626 -0.066360705 -0.07308754 -0.094023556 -0.2687123 -0.08457587 -0.057566762 -0.0644564
-0.09957987 -0.08592412 -0.06649977 -0.14777309 -0.063509345 -0.05527689 -0.064477965 -0.07965532
-0.07096633 -0.091250196 -0.07890735 0.22366685 -0.22199577 -0.056115557 -0.09156318 -0.06484171
-0.32981813 -0.07340506 -0.12433196 -0.065005176 -0.16451688 -0.044479564 -0.08192454 -0.07736559
-0.15111092 -0.07381479 -0.08540886 -0.06571708 -0.24511097 -0.068188 -0.06259466 -0.0804273

output_w.weight f4 [5, 128]
00000000: dfde 4fbc 0f9b 413b ce58 b1bb c78f 6c3b
00000010: e000 56bc 00ef cdbc 698a 063c 3a57 e7b8
00000020: 0ef6 313c 6cb9 2ebc 9ce1 18bc 4040 abbc
00000030: cb6b d8bc ad9f cabb 1696 3ebc 8def 163c
00000040: 8fdf b5be 420f 2d3b 4fe5 0f3c 7302 453e
00000050: a635 d93b 718d f9bb 421e a23b d4a0 6cbb
00000060: 238d 30bb 1a22 243d 53eb 39bc e17f f3bb
00000070: 0f6b a9bc 9888 27bb eea4 073d 5354 b53b
00000080: fcdd 0c38 0336 803b 9793 9c3c 420d 86ba
00000090: 8a15 893b a2d4 cb3b 0aaa 193d a26e e8bb
000000a0: 4b81 00bb 5dbc 91bb 81e5 1c3c f5c7 6abd
000000b0: 6b0d be3a a98a 003c f0ce b7bb 0033 54ba
000000c0: 3d12 bbbc ee2f 423c 7665 cb3b 536c 94bb
000000d0: ee3e 2e3c f585 343b fe18 043c d89c 15bc
000000e0: cd2b 3b3b dfbf e3bc f05e d1bb 3ef0 8b3d
000000f0: f7aa efbb 00a7 12be a453 e73d da4e 01bb
00000100: 28dd a8bc aff6 1abc d8d4 ccbb f417 77bb
00000110: 7cab 40bb cf94 cebb 8430 433b 8f3e 15bb
00000120: 5436 36bc 0efd 0bbc f65f 99bb d57f b4bb
00000130: 6e3f cd3a 633d 263c 92e3 36be 34a7 80bb
00000140: 8a7f 8f3e 6b22 d4bb 2485 8a3b 8416 f0bb
00000150: 422a ef3b ece2 233e 811e d73a 871b 48bd
00000160: d9e8 babb ec8d ddba d79f 3abc 6870 3bbc
00000170: 0166 8ebd 77d0 27bb fd65 8fba 74e0 ccb9
00000180: ebe8 4a3c ee8f e43b 4416 93bb e439 d13c
00000190: 08f1 223b 8872 083c dc6c 413c 94a1 333c
000001a0: e33c b3bb d8ed ac3b 328a 60bc 0e8a c73c
000001b0: 5572 e0bd d53d 81bb 2831 ff3b bf79 9cbb
000001c0: f172 fa3d 199a b6ba 5c5c 96bb 5b03 583c
000001d0: 08bc fcba 0533 943b a856 a6ba b472 25ba
000001e0: 590d 2a3b ff00 99bb ec2c bc3b fd39 c2bb
000001f0: 509c 303b 15d1 d43b a080 543b c86f d5bb
00000200: 7ec6 bc3c 10ea 733b a201 433b 78bf 4fbb
00000210: 358f e9bd c8d2 9ebd acaa 27bb bf30 a73a
00000220: c1b7 4f3b 0bd8 803c 92bc b3ba 70ff 2c3d
00000230: 7a73 f43c a053 26bd e549 c33b f226 b7ba
00000240: 1ded 043f 8ab1 a33b e17d 8b3b 140b d13e
00000250: a788 42bc 1590 c03b 504f 3fbb 8a57 07bc
00000260: 74d1 faba 5b0b 51bd 66e0 193c a88e fbbb
00000270: 069a 05bd a9a2 dbb9 a737 7c3d 5902 8eb9
00000280: f3f9 233b 9340 29bb 5844 b43a 68aa bb3b
00000290: 1c90 a83a fd24 c63a c673 18bd 4381 f53b
000002a0: 351c 483b 3c38 1a39 a5bc c33d 05ce d93d
000002b0: 8f9e bd3b 6230 8e3b a06c 8139 d9b0 3e3c
000002c0: b40f 7b3c 38f5 b839 96aa 313b b437 2ebb
000002d0: 3cc4 7dbc 9451 b1bb 2b91 f5bb 0a0f 353b
000002e0: fda7 1abb 4ab7 493c 0756 ffbb 960d c3bc
000002f0: d75c a63b 6747 b9bc 08be 23bd 9008 b6bb
00000300: a315 d5bd 7f6a 4cba 7897 c7bb 5c10 de3a
00000310: 0a32 383c a341 033c 7480 5db9 c2b3 193c
00000320: d5aa 8abc 3043 143c 000d 223a 779a 95bb
00000330: 239e ccbb 876d 84bb 825d 07bd 7668 793a
00000340: 2446 f73d c999 1ebb 9a30 dfba dddb 0fbb
00000350: d55f 3dbb 372c 86bd 75ec 82bb dca3 ac3c
00000360: f953 123b 7712 b03b 7ecc 1a3c 47d7 6dbb
00000370: e1de 7cbc 5e4c e3ba 790b 4b3a 6263 c1b8
00000380: 7a61 d9bb 0b8e 0f3b f4aa adba fb07 1dbd
00000390: 429b 1a3c 727c 193b 55c1 edbc 287b 9f39
000003a0: 145d f13b 0aa9 2abc 98d2 29bb 787b c73d
000003b0: ee0c 08bb fe08 8bbb 4933 f3bb 0859 04bc
000003c0: bc9e ba3d 8a47 a73b 0379 303c 29f2 4b3a
000003d0: e723 a9bc 0f6e 96bb 67e2 5e3b 3801 2e3b
000003e0: 0b0c 363d 203f 3eba 3d75 8dbb 4bff 74bb
000003f0: e18f bd3c a754 21bc 1a4e 843b e998 8b3b
-0.012687414 0.0029541885 -0.0054121977 0.003609644 -0.013061732 -0.025138378 0.0082117105 -0.000110311856
0.010861887 -0.010664325 -0.009331133 -0.02090466 -0.026418587 -0.0061835856 -0.011632463 0.009212387
-0.35522124 0.00264068 0.008782699 0.19239216 0.00662871 -0.007615738 0.0049474547 -0.0036106603
-0.0026939593 0.040071584 -0.01134761 -0.007431016 -0.020680932 -0.0025563594 0.033116274 0.005533734
3.358534e-05 0.0039126887 0.019113345 -0.001022734 0.004183476 0.006220416 0.037515678 -0.0070932666
-0.0019608315 -0.0044475035 0.009576202 -0.0573196 0.0014499848 0.007845559 -0.0056093857 -0.0008094758
-0.022835845 0.011852248 0.0062071634 -0.004529515 0.010635121 0.0027545665 0.008062599 -0.009131633
0.0028560043 -0.027801452 -0.0063894913 0.06832932 -0.007314082 -0.14321518 0.1129525 -0.0019730837
-0.020613268 -0.009458228 -0.006250959 -0.0037703486 -0.0029399088 -0.0063043605 0.0029783556 -0.0022772884
-0.011121351 -0.00854422 -0.004680629 -0.005508403 0.0015659162 0.010146472 -0.17860249 -0.003926182
0.28026992 -0.0064738295 0.0042272974 -0.007326903 0.0072987387 0.16004533 0.0016412289 -0.048854377
-0.005704027 -0.0016903258 -0.011390648 -0.011440374 -0.069530495 -0.0025606432 -0.0010940429 -0.00039077143
0.0123846335 0.0069751656 -0.0044887383 0.0255403 0.0024862904 0.008328088 0.011805739 0.010963816
-0.0054699047 0.0052773766 -0.013704823 0.024357822 -0.10959307 -0.0039441385 0.0077878423 -0.0047752555
0.122289546 -0.0013931423 -0.004588647 0.013184394 -0.0019282112 0.0045226836 -0.001269062 -0.00063113426
0.0025947897 -0.004669308 0.00574266 -0.005927323 0.0026948638 0.006494651 0.00324253 -0.0065135695
0.023043867 0.003721837 0.0029755612 -0.0031699818 -0.11404268 -0.07755047 -0.0025583906 0.0012755616
0.003169522 0.015728017 -0.0013712815 0.04223579 0.02984022 -0.040607095 0.0059597366 -0.0013973399
0.51924306 0.0049955295 0.0042569493 0.40828764 -0.011873401 0.005876551 -0.002919156 -0.008260617
-0.0019135908 -0.05103622 0.00939188 -0.007676918 -0.03261759 -0.00041892126 0.06157651 -0.000270861
0.0025020808 -0.0025825843 0.0013753278 0.005727101 0.0012860331 0.0015117225 -0.037219785 0.007492216
0.003053439 0.00014707533 0.095574655 0.10634998 0.005786724 0.004339264 0.0002468573 0.011638843
0.015323568 0.00035277917 0.0027109734 -0.0026583495 -0.01548868 -0.005411336 -0.007494112 0.0027627372
-0.0023598664 0.012311766 -0.0077922377 -0.02381019 0.0050769853 -0.022617055 -0.03997615 -0.00555522
-0.104045175 -0.00077978516 -0.0060910545 0.0016942131 0.011242399 0.0080112545 -0.00021124055 0.0093812365
-0.016927162 0.009049222 0.0006181747 -0.004565533 -0.0062444373 -0.004041377 -0.03304816 0.0009514162
0.12073925 -0.002420055 -0.0017028034 -0.0021951117 -0.0028896232 -0.06551402 -0.003995473 0.021074228
0.0022327884 0.005373295 0.009448169 -0.0036291645 -0.015433998 -0.0017341485 0.0007745545 -9.221469e-05
-0.0066339346 0.0021904733 -0.00132498 -0.03833769 0.00943643 0.0023420122 -0.029022852 0.00030418602
0.007365832 -0.010416279 -0.0025912877 0.09740347 -0.002075966 -0.0042430153 -0.007421885 -0.008077867
0.091123074 0.0051049637 0.010771039 0.000777992 -0.020647002 -0.0045907567 0.0034009458 0.002655102
0.04444508 -0.0007257331 -0.0043169544 -0.0037383612 0.023139896 -0.009846843 0.0040376307 0.0042601717

output_w.bias f4 [5]
00000000: 63af 1fbd 7b40 5d3d 5efd 66bf 62b0 6fbf
00000010: e1c6 f1bd
-0.03898562 0.05401657 -0.9023036 -0.93628514 -0.11805511

square_avg f4 [64]
00000000: 9338 633d 04e3 553e 073e 213d 29d1 a132
00000010: 3df3 733c 7be3 9c3c 2912 213c 50d5 3b31
00000020: 7942 2c3c 433a 1430 3e9b a73c 2929 1f3c
00000030: af4f 893d b047 613c af24 933a 099c be3c
00000040: f5a0 953b 8fe0 3830 0414 463c 8290 d73e
00000050: 0784 b332 b8dc db3c cac3 d139 6d0d 0330
00000060: 2920 303d c75f 4031 a85e 393e a930 c139
00000070: 9061 a13d 387e f63d 0256 853d ce9c f63b
00000080: db4a ae3c 8c50 ea3d 3c5c ca3d 6c0a d63c
00000090: 91fd ed3d 8b0c 693d cc3a 8d2d 61a4 3e3c
000000a0: 0e9e 0f3d c6bb 1e32 c6d3 d52c 9ab2 473c
000000b0: e2c2 c33a 8a21 8033 f5a1 c53c 5481 853c
000000c0: a161 8339 9a66 2d3e 8d94 4d2e e3ec 0e3d
000000d0: a986 9933 a36a b237 041b 933d 5e21 573b
000000e0: 74c4 8d3c b879 8630 873d f736 041f 2b3d
000000f0: 97fb aa3c b4f6 6c3c 83c3 093c 38dd c43c
0.055473875 0.20887381 0.039365795 1.8837982e-08 0.0148895355 0.01915144 0.00983099 2.7333336e-09
0.010513895 5.392488e-10 0.020459767 0.009714403 0.067046516 0.013750002 0.0011226143 0.023267763
0.0045663067 6.7257927e-10 0.012089733 0.42102438 2.0898382e-08 0.026838645 0.0004000946 4.76766e-10
0.04299942 2.799412e-09 0.18102515 0.00036848083 0.07879937 0.12035793 0.06510545 0.007526017
0.021275928 0.11441144 0.098808736 0.026128016 0.116206296 0.056896728 1.6055955e-11 0.011635871
0.035062842 9.239505e-09 6.0773357e-12 0.012188578 0.0014935399 5.966565e-08 0.024125079 0.01629702
0.00025059006 0.1693367 4.6743543e-11 0.03489388 7.149112e-08 2.126891e-05 0.07182887 0.0032826285
0.01730559 9.784378e-10 7.3683364e-06 0.041777626 0.02087192 0.0144631155 0.00840843 0.024031267

square_avg f4 [5]
00000000: 2048 9b40 a993 2941 de9f 0d3e 3438 043f
00000010: b457 233d
4.8525543 10.59855 0.13830516 0.5164826 0.039878562
