S-LSTM/Goal+Socail_Array_PyTorch/social_lstm/save/0/social_model_epoch_22.pth (torch, 815071 bytes, 22 tensors)

embedding_b f4 [64]
0	0xbd38e29a	-0.04513798
1	0x3eb799f2	0.35859638
2	0x3e8a6ec8	0.27037644
3	0xb7aa2c73	-2.0286278e-05
4	0xbb85a183	-0.0040780916
5	0x39986d92	0.00029073335
6	0xbdba5c55	-0.09099642
7	0xbb67c33f	-0.0035364178
8	0xbe1777b5	-0.14791758
9	0xbb0f4cba	-0.00218658
10	0xbc2c166b	-0.010503392
11	0xbb1c8944	-0.0023885528
12	0xbe4d91e2	-0.20075181
13	0xbdf9e745	-0.12202314
14	0xbd1ce04b	-0.03829984
15	0xbccbd1da	-0.024880338
16	0xbcffa7ca	-0.031207938
17	0x3d571f12	0.052519865
18	0xbe1e84b5	-0.15480311
19	0xbd4ff050	-0.05076629
20	0xbc2813fc	-0.010258671
21	0xbd392733	-0.0452034
22	0xba9029e4	-0.0010998813
23	0xbbaa3e8d	-0.005195445
24	0xbd9b2e83	-0.07577231
25	0xb96bbaa6	-0.00022480878
26	0x3d6c5e49	0.057707105
27	0xba567268	-0.00081805
28	0x3eb13fa4	0.34618866
29	0xbe241c75	-0.1602648
30	0xbd2b1576	-0.041768514
31	0xbd832b1a	-0.06404705
32	0xbe1a552c	-0.15071553
33	0x3cd18657	0.025576754
34	0x3dd5e31e	0.1044371
35	0xbcc2d2f5	-0.023782233
36	0x3e41599c	0.1888184
37	0x3db6301a	0.088958934
38	0xbc165222	-0.009174855
39	0xbe2f8724	-0.17141396
40	0xbca19c31	-0.019727798
41	0xbc1d2dde	-0.009593455
42	0x3bcfc570	0.006340675
43	0xbd690913	-0.05689342
44	0x3d0ffb99	0.03515205
45	0x3a9d1df6	0.0011987078
46	0x3b7b9a0d	0.0038391382
47	0x3d95bee6	0.073118016
48	0xbdbab0c0	-0.09115744
49	0x3e2219f0	0.15830207
50	0xbb5c971d	-0.0033659406
51	0x3d93ab8c	0.07210454
52	0xbb6618d7	-0.003511002
53	0xbbacefa3	-0.0052775904
54	0x3d9cf5e6	0.07664089
55	0xbd8eb9eb	-0.06969055
56	0xbcddcfcc	-0.027076624
57	0xbb5655a7	-0.0032704861
58	0xb71e0ab2	-9.420024e-06
59	0x3d8fba19	0.07017917
60	0x3e151a29	0.1456076
61	0x3d515cee	0.051114015
62	0xbe05c6ab	-0.13064067
63	0xbb9e901d	-0.004838957

output_b f4 [5]
0	0x3ce28ea3	0.027655905
1	0xbabd90dc	-0.0014462727
2	0xbf6b27c2	-0.9185754
3	0xbf632bf1	-0.88738924
4	0xbda8f2f7	-0.08249467

embedding_w.weight f4 [64, 4]
0	0x3e6539ae	0.22385284
1	0xbf474baf	-0.7784986
2	0xbe225338	-0.15852058
3	0x3ecbbec2	0.39793974
4	0x3d9858f6	0.07438843
5	0x3fb49d0f	1.411043
6	0xbd6cfee0	-0.057860255
7	0x3eb9ca02	0.36286932
8	0xbf920598	-1.1407957
9	0xbf2e2598	-0.68026114
10	0xbe19d9cb	-0.15024488
11	0xbdbd90af	-0.09256112
12	0x90a62dc8	-6.554599e-29
13	0x8c023304	-1.0030188e-31
14	0x8cc1ecd4	-2.9878894e-31
15	0x334fdef9	4.8398736e-08
16	0xbc234152	-0.009964304
17	0xbc37c3bb	-0.011216099
18	0xbb880fca	-0.004152273
19	0x3a4cc1a5	0.00078108377
20	0x3f4c65fa	0.79843104
21	0xbf0608c4	-0.52357125
22	0x3efd4595	0.4946715
23	0x3ef4761c	0.4774636
24	0x3f110478	0.56647444
25	0x3f502e1e	0.8132037
26	0x3e00871d	0.12551542
27	0x3c757d7b	0.01498353
28	0xbb08aeef	-0.0020856222
29	0xb7e8bc67	-2.7744287e-05
30	0x3c532b0e	0.012888683
31	0x39e08631	0.0004282459
32	0x3ce88f06	0.028388511
33	0x3eb31318	0.34975505
34	0x3d3c6569	0.04599515
35	0x3ead2726	0.3381893
36	0xbbc815a1	-0.006106094
37	0x3b62c9e4	0.00346052
38	0x3bd98ac6	0.0066388575
39	0x3be0a305	0.006855371
40	0xbf19d3fe	-0.600891
41	0x3ed92706	0.42412585
42	0x3ed20e05	0.4102632
43	0xbecdcb28	-0.40194058
44	0xbf081f5a	-0.5317284
45	0x3c47214f	0.0121539375
46	0xbefc7d73	-0.4931446
47	0x3cfef24e	0.0311214
48	0x3f1c198d	0.6097649
49	0xbeac544f	-0.33658072
50	0xbf237e56	-0.6386465
51	0x3ed0b452	0.40762573
52	0x3f8694ad	1.0514122
53	0x3eac11ca	0.33607322
54	0x3e24505c	0.1604628
55	0x3e2ebca4	0.17064148
56	0x3e1a4d2c	0.15068501
57	0x3d3047f1	0.04303736
58	0x3eaafc85	0.33395782
59	0x3dfdcabd	0.12392185
60	0x3d56b3ea	0.052417673
61	0x3db52b44	0.08846143
62	0x3d80d667	0.06290894
63	0xbde6e037	-0.11273234
64	0x3dae0eaf	0.084988944
65	0x3dfc7a5e	0.12328027
66	0x3e75fab8	0.24021423
67	0xbe002352	-0.12513474
68	0xbbf6a5f8	-0.0075271092
69	0xbc5ef9ca	-0.013609359
70	0x3d03db5c	0.03219162
71	0x3b325240	0.002720967
72	0x3eb5e588	0.3552668
73	0xbf06f73d	-0.52721006
74	0x3ebe325d	0.371478
75	0xbee53de5	-0.44773784
76	0x3f8b4d66	1.0882995
77	0x3eb062f3	0.34450492
78	0xbf8d948b	-1.1060957
79	0xbe9d7a44	-0.30757344
80	0x3a37d360	0.00070123933
81	0xbbc804da	-0.006104094
82	0x3b65841f	0.0035021377
83	0xbb6b0348	-0.003586011
84	0x3dc646ee	0.096814975
85	0x3d60310e	0.054734282
86	0x3ee52684	0.44755948
87	0xbd480b09	-0.04883865
88	0x36b87578	5.4973025e-06
89	0x34217c50	1.5039518e-07
90	0x37cb065c	2.4202447e-05
91	0x353aa5b8	6.953155e-07
92	0xb6a8e158	-5.0330236e-06
93	0xb6c79837	-5.9483823e-06
94	0x3ac81ce1	0.0015267396
95	0xb540c324	-7.180954e-07
96	0xbead2871	-0.33819917
97	0x3e890605	0.26762405
98	0x3f30fd4a	0.6913649
99	0x3e105f9f	0.14098977
100	0xa050a480	-1.7672714e-19
101	0xb66858a6	-3.4622294e-06
102	0x2f422c68	1.7659973e-10
103	0xb7caae94	-2.416157e-05
104	0xbf4e7d2d	-0.80659753
105	0xbf950051	-1.1640722
106	0x3e6293c7	0.22126685
107	0xbf82e0c0	-1.0224838
108	0xb60ecfd8	-2.128063e-06
109	0xb0649e00	-8.317045e-10
110	0xb6d9ea70	-6.494396e-06
111	0xb6d6da50	-6.403112e-06
112	0xbfacf077	-1.3510884
113	0xbf46d7d7	-0.77673095
114	0xbbcbdf8b	-0.0062217168
115	0x3e03dfbe	0.1287832
116	0xbf1f4ee2	-0.6222974
117	0xbf11ea61	-0.5699826
118	0x3f24007c	0.6406324
119	0x3f1dbf42	0.6161996
120	0x3e86f2f3	0.2635723
121	0x3e808154	0.2509867
122	0x3e99c778	0.30034995
123	0xbe8849ca	-0.26618797
124	0xbf33a522	-0.7017385
125	0x3e70b4b6	0.23506436
126	0xbcd8fa00	-0.026486397
127	0x3e6761ce	0.22595903
128	0xbf395856	-0.72400415
129	0x3f29cd28	0.6632867
130	0xbe098fb8	-0.1343373
131	0xbeaadc8c	-0.3337139
132	0x3e7d3c4b	0.24730031
133	0x3f93c632	1.154486
134	0xbda24b39	-0.07924504
135	0xbedf4707	-0.43608877
136	0x3fbe873e	1.4885023
137	0xbe52cbe0	-0.20585585
138	0x3e396f28	0.18108809
139	0x3ef2eeae	0.47447723
140	0x3f61785f	0.88074297
141	0x3f285d6a	0.6576754
142	0x3e23d749	0.16000094
143	0x3e5727f7	0.21011339
144	0xbf324f2d	-0.6965206
145	0x3fa7e427	1.3116502
146	0xbc86d685	-0.016459713
147	0x3f1f2ecc	0.6218078
148	0x3fa77dcc	1.3085265
149	0xbf814999	-1.0100585
150	0x3e7a1300	0.2442131
151	0xbebb5bf7	-0.365936
152	0x395f7dd2	0.00021313809
153	0xbc0dc7c8	-0.008653589
154	0x3b2223a8	0.002474049
155	0xbba36260	-0.0049860924
156	0xbe44895f	-0.19193028
157	0x3e91d327	0.2848141
158	0x3e872467	0.2639496
159	0xbd0a3c9c	-0.033749208
160	0x3fbf740b	1.4957289
161	0x3ef16535	0.47147527
162	0x3e228711	0.15871836
163	0x3e8b23e5	0.27175823
164	0xbbad0ebe	-0.0052812984
165	0xbc911dc8	-0.017714396
166	0xbc1e7c41	-0.009673179
167	0xbce54062	-0.027984802
168	0x3aaa921c	0.0013013515
169	0xbcb76db0	-0.02239117
170	0x3c99f911	0.018795522
171	0xbc078d02	-0.008273365
172	0xbe1a42d2	-0.15064552
173	0x3e52aa85	0.2057286
174	0x3ebcc388	0.36867929
175	0x3d85ad3b	0.06527182
176	0xbd4442b7	-0.047915187
177	0x3ae469f8	0.0017426601
178	0xbd2d917a	-0.042375065
179	0xbbb80008	-0.005615238
180	0xbc08a264	-0.008339498
181	0xbc1ef33f	-0.009701549
182	0xbcf58376	-0.029969912
183	0xbbc36670	-0.0059631392
184	0x3dceb246	0.10092597
185	0x3f84e9bc	1.038383
186	0xbc175aea	-0.009237984
187	0xbd710e23	-0.058851372
188	0xbeaa1cda	-0.33225137
189	0x3f295219	0.66140896
190	0x3dc394f3	0.09549894
191	0xbd3ebf2e	-0.046569042
192	0x3e0206a2	0.12697843
193	0x3ec5005a	0.3847683
194	0xbd208d39	-0.03919718
195	0x3e30131d	0.17194791
196	0xbf2e6042	-0.6811563
197	0xbfa02f9b	-1.2514528
198	0xbe2c96db	-0.16854422
199	0x3e1bce9e	0.15215537
200	0xb7f86cf7	-2.9614645e-05
201	0x1597240a	6.1045274e-26
202	0xb6c35d44	-5.8223104e-06
203	0x35cdff7a	1.5348044e-06
204	0xbfa3e0d0	-1.2802982
205	0x3f8124db	1.0089372
206	0xbe65e689	-0.22451223
207	0x3e3d98c4	0.18515307
208	0x3a09e284	0.0005259889
209	0x09e09b48	5.4072064e-33
210	0x3b7d61d3	0.0038663044
211	0xae9fe770	-7.2715944e-11
212	0x3bc2ba43	0.0059426143
213	0xbad5deda	-0.0016317025
214	0x3ca1dc83	0.019758468
215	0x3b6a1b4b	0.0035721834
216	0x3eba0c4b	0.36337504
217	0xbf82222f	-1.0166682
218	0xbdeb37e8	-0.11485273
219	0xbaf0a551	-0.0018359815
220	0x3f4a8acd	0.79118043
221	0xbef7de66	-0.48411864
222	0x3dbf55a4	0.093425065
223	0xbe9a7fe2	-0.30175692
224	0x3f2deb3e	0.67937076
225	0xbf1d9036	-0.61548173
226	0xbe7f2947	-0.2491809
227	0x3e8819bc	0.26582134
228	0x3695bf22	4.462797e-06
229	0xb9de3c11	-0.00042387893
230	0xb3c76334	-9.2847046e-08
231	0x3b122b96	0.0022303811
232	0x11e4f2ce	3.6121697e-28
233	0x1b694700	1.929625e-22
234	0x0ca02c7e	2.467868e-31
235	0x29017c6a	2.8751666e-14
236	0xbf8a0312	-1.0782187
237	0xbf332ad3	-0.6998722
238	0x3a8218ce	0.0009925605
239	0x3d3a8a0f	0.04554182
240	0xbf0d276c	-0.5513828
241	0xbf87d6ba	-1.0612404
242	0xbe5ff152	-0.218694
243	0x3cfe9cc7	0.031080617
244	0x3f76cb8a	0.96404326
245	0x3f875e86	1.0575721
246	0x3da89774	0.082320124
247	0xbc632c60	-0.01386556
248	0xbf0b2c82	-0.5436479
249	0x3ea4aab0	0.32161474
250	0x3d63e6e4	0.055640116
251	0x3e1a8282	0.15088847
252	0xbf93faab	-1.1560873
253	0x3f3144e5	0.6924575
254	0xbe6508d9	-0.22366656
255	0xbdcae4d4	-0.09906927

embedding_w.bias f4 [64]
0	0x3db46649	0.08808572
1	0x3e26c996	0.16287836
2	0x3e0e7779	0.13912763
3	0xb7aa2c73	-2.0286278e-05
4	0xbb85a183	-0.0040780916
5	0xbcdb40a6	-0.026764225
6	0xbd0d1d3e	-0.034451716
7	0xbb67c33f	-0.0035364178
8	0x3e1350b3	0.14386253
9	0xbb0f4cba	-0.00218658
10	0xbd9113ab	-0.070838295
11	0x3d3777a0	0.044791818
12	0x3e07345b	0.13203566
13	0x3e37cf86	0.17950258
14	0xbd1ce04b	-0.03829984
15	0xbccbd1da	-0.024880338
16	0xbcffa7ca	-0.031207938
17	0x3d571f12	0.052519865
18	0x3de5b280	0.11215687
19	0xbb516ffe	-0.0031957622
20	0xbc2813fc	-0.010258671
21	0xbd392733	-0.0452034
22	0xba9029e4	-0.0010998813
23	0xbbaa3e8d	-0.005195445
24	0xbd9b2e83	-0.07577231
25	0xb96bbaa6	-0.00022480878
26	0xbdafb04b	-0.08578547
27	0xba567268	-0.00081805
28	0x3e1b9453	0.151933
29	0x3ded2034	0.11578408
30	0xbd2b1576	-0.041768514
31	0xbd7b65ca	-0.06137637
32	0x3e1b40c4	0.15161425
33	0x3d29beca	0.041441716
34	0x3ec80acd	0.3907074
35	0x3e8cbfe7	0.2749016
36	0xb9fccab0	-0.000482162
37	0xbd50cf48	-0.05097893
38	0xbc165222	-0.009174855
39	0x3dac548a	0.08414562
40	0x3d8502c3	0.064946674
41	0xbc1d2dde	-0.009593455
42	0x3bcfc570	0.006340675
43	0xbd690913	-0.05689342
44	0x3d0ffb99	0.03515205
45	0x3a9d1df6	0.0011987078
46	0xbcbd84ca	-0.023134608
47	0xbdb9e4d8	-0.090768516
48	0x3daf2e27	0.08553725
49	0x3e14bee0	0.14525938
50	0xbb5c971d	-0.0033659406
51	0xbde52d87	-0.11190324
52	0xbb6618d7	-0.003511002
53	0xbbacefa3	-0.0052775904
54	0x3d7ffbce	0.062496
55	0xbd8eb9eb	-0.06969055
56	0xbb22b5e9	-0.0024827665
57	0xbb5655a7	-0.0032704861
58	0xb71e0ab2	-9.420024e-06
59	0x3eb2072b	0.34771094
60	0xbdf58006	-0.11987309
61	0xbe334459	-0.17506541
62	0x3de5b480	0.11216068
63	0xbe7594c3	-0.2398253

embedding_t_w.weight f4 [1, 8]
0	0x3f7b00c0	0.9804802
1	0xbeae3504	-0.34024823
2	0x3e397d62	0.18114236
3	0xbf0a9ab3	-0.541423
4	0x3d5dbb8b	0.054133933
5	0x3c526a78	0.012842767
6	0x3f071665	0.52768546
7	0xbf2c44c1	-0.6729241

lstm.weight_ih f4 [512, 65]
0	0x3cedf4db	0.02904742
1	0xbce0d0c8	-0.027443305
2	0xbb63ce98	-0.003476059
3	0x80039194	-3.2773e-40
4	0x3881b879	6.18556e-05
5	0xbc8fcf18	-0.017554805
6	0xbbc40bde	-0.00598286
7	0x3a6a5778	0.00089394255
8	0xbb3f8bc2	-0.002922759
9	0x33e10d48	1.0479795e-07
10	0x3c209953	0.00980218
11	0x3cb3fe13	0.021971738
12	0x3b1d85dc	0.0024036085
13	0xbcf90628	-0.030398443
14	0xbb9cff4e	-0.004791177
15	0xbb9a0f3b	-0.0047015226
16	0xbc1855b6	-0.009297779
17	0x3baf7f06	0.0053557185
18	0xbc9a12ce	-0.018807795
19	0xbb410ecc	-0.0029458283
20	0x35878244	1.0096196e-06
21	0xbc2bb059	-0.010479056
22	0x36c88bc7	5.9767367e-06
23	0x367428da	3.6382612e-06
24	0xbaf11c22	-0.0018395225
25	0xb6d029f6	-6.203768e-06
26	0xbc639ae7	-0.013891912
27	0xbb0c6304	-0.0021421323
28	0xbc8e446b	-0.017366609
29	0x3bbfca56	0.0058529777
30	0xbc60dc52	-0.013724403
31	0x3c882a3a	0.016621698
32	0x3c95ccad	0.018286074
33	0x3c233f9e	0.009963898
34	0xbd8f009e	-0.069825396
35	0xbd4b1f35	-0.04959031
36	0xbcf35653	-0.029704249
37	0xbd340fad	-0.043960262
38	0xb0c424f6	-1.4271382e-09
39	0x3b81f8fa	0.003966448
40	0xbd1d50a7	-0.038406994
41	0xb7a23e88	-1.9341023e-05
42	0xbaa4a353	-0.0012560881
43	0x3b224c6e	0.0024764794
44	0x3c989804	0.018627174
45	0xbbc9de40	-0.0061605275
46	0x3b388fad	0.002816181
47	0x3bdc2bff	0.006719112
48	0xbbdc75cd	-0.00672791
49	0x3bd42218	0.006473791
50	0xb8a0aaaf	-7.661187e-05
51	0xbaddfa4e	-0.0016935559
52	0x36900cea	4.293038e-06
53	0xa2b3a260	-4.868997e-18
54	0xbb36e59a	-0.002790785
55	0xbc9ceaae	-0.019154873
56	0x3c521914	0.012823362
57	0x36905de8	4.3024666e-06
58	0xb90396d7	-0.00012549326
59	0xbc46fd8f	-0.012145414
60	0x3c62ce66	0.013843155
61	0xbc8cfd47	-0.017210616
62	0x3c05cde1	0.008166761
63	0x3c73b664	0.014875028
64	0xbceac04f	-0.028656153
65	0xbc41a378	-0.011818759
66	0xbd506502	-0.05087758
67	0xbd138e7b	-0.03602455
68	0xb650037c	-3.0996443e-06
69	0x36901d94	4.2949778e-06
70	0xbc9a36f5	-0.018825034
71	0xbc4fdaee	-0.012686474
72	0xbac52d66	-0.0015043437
73	0xbcb05d69	-0.021528916
74	0x3728aa30	1.0053205e-05
75	0xbbe5c2f7	-0.007011767
76	0xbc8c8723	-0.017154282
77	0xbcbe020b	-0.023194334
78	0xbcb18eb6	-0.021674495
79	0xbb48c805	-0.00306368
80	0xbad73bcc	-0.0016421019
81	0xbb1e3f3a	-0.0024146573
82	0xbc26f00b	-0.010189067
83	0xbb188280	-0.0023271143
84	0xbc9562fc	-0.018235676
85	0x3a33ea42	0.0006863215
86	0xbaa50166	-0.0012588918
87	0x389b7935	7.4135525e-05
88	0xb8128118	-3.492934e-05
89	0xbbf15877	-0.007365282
90	0x370a9fc3	8.262638e-06
91	0xbbeb4fe7	-0.007181156
92	0x351fc80a	5.952321e-07
93	0xbd51d54f	-0.051228818
94	0xbcabbedc	-0.020965032
95	0xbb1f100f	-0.0024271046
96	0xbc87518f	-0.016518382
97	0xbc8c728a	-0.01714446
98	0xbc138880	-0.009004712
99	0xbd7574fe	-0.059926026
100	0xbcea598f	-0.028607158
101	0xbd01a1a2	-0.031648286
102	0xbc443690	-0.011975899
103	0xb7943a43	-1.7670105e-05
104	0xbb92f047	-0.0044842097
105	0xbcd5bd87	-0.02609135
106	0x38be7352	9.081386e-05
107	0x3a9e9270	0.0012098085
108	0xbb045c5e	-0.0020196657
109	0xbb7f88a6	-0.003899136
110	0xbb313480	-0.002703935
111	0xbc5012d2	-0.0126998
112	0xbc7ee5f8	-0.0155577585
113	0xbc8dbeb4	-0.017302848
114	0xbcff94ca	-0.031198878
115	0x3596bb07	1.1230303e-06
116	0xbd09d302	-0.0336485
117	0xb1a97990	-4.9323674e-09
118	0xb008af86	-4.9725946e-10
119	0xbc81d81b	-0.015850117
120	0xba29af5c	-0.0006472969
121	0xbbecac82	-0.007222713
122	0xb56f3379	-8.910934e-07
123	0xb7f41288	-2.9095696e-05
124	0xbd2d040f	-0.0422402
125	0xbbe7db2f	-0.0070756893
126	0xbc81906a	-0.015815932
127	0xbcacdaaf	-0.02110037
128	0xbca2cc10	-0.019872695
129	0xbc340533	-0.010987568
130	0x3c2a6837	0.010400823
131	0xbcc4e4bf	-0.024034856
132	0x3b702fe2	0.0036649634
133	0xba661d60	-0.0008778181
134	0xb6825cab	-3.88509e-06
135	0x3bc1b73d	0.0059117363
136	0x3b497d4c	0.0030744849
137	0x3ad4f1ee	0.0016246417
138	0xbbe78bf3	-0.007066244
139	0x35ecdc70	1.7647526e-06
140	0x3c6d5329	0.014485159
141	0x3cacb697	0.02108316
142	0xbabd40b3	-0.0014438838
143	0xbbdd53aa	-0.0067543583
144	0x3a82c28f	0.0009976196
145	0x3b62ee24	0.0034626806
146	0x3b5e1568	0.003388727
147	0x3bd8d445	0.0066171014
148	0xbbde6c4a	-0.0067878114
149	0xbc2e8387	-0.010651476
150	0xb0534462	-7.685853e-10
151	0x3abde60e	0.0014488117
152	0x379501e2	1.776306e-05
153	0xb5ff92f3	-1.9041748e-06
154	0xba054438	-0.0005083713
155	0xb96c49ba	-0.00022534179
156	0xbbc96ecc	-0.006147241
157	0x36e90a69	6.945153e-06
158	0xbba28730	-0.0049599633
159	0x3cb15538	0.02164708
160	0x3bc3e8c4	0.0059786756
161	0x3b84766e	0.004042438
162	0x3caabd08	0.02084209
163	0x3bd2ef74	0.0064372364
164	0xbd02da80	-0.03194666
165	0xbca55f5a	-0.020187069
166	0x3ba4ec44	0.005033048
167	0xbc893926	-0.016750883
168	0xb6be6af1	-5.674891e-06
169	0x3b542cf4	0.0032375427
170	0xbc3bcaee	-0.011461956
171	0x37391946	1.1032744e-05
172	0x3a3f9306	0.000730798
173	0xbab2a791	-0.0013630261
174	0x3bca0e86	0.006166282
175	0xba328c88	-0.0006811102
176	0x3b1e773b	0.0024179954
177	0x3c23570a	0.009969482
178	0xbbfa3711	-0.007635959
179	0x3c0da2db	0.008644785
180	0xb3ae12ac	-8.105903e-08
181	0x3c2df31c	0.010617044
182	0x3a97b65f	0.0011574737
183	0x31163cf6	2.1862525e-09
184	0xbc0c400c	-0.008560192
185	0xbbef884f	-0.0073099504
186	0x3bf0efc3	0.0073528006
187	0x8002dd7e	-2.63127e-40
188	0x350d8a4e	5.2727853e-07
189	0xba879dec	-0.0010346747
190	0x3cb29d01	0.02180338
191	0x3a9efca7	0.001212974
192	0x3bfaaa9e	0.0076497337
193	0x3bef258a	0.007298176
194	0xbc47b601	-0.012189389
195	0x3c273026	0.010204351
196	0xbd6863f2	-0.05673594
197	0xbc84c463	-0.016206926
198	0xb81c67e8	-3.729007e-05
199	0xb39a9f10	-7.200117e-08
200	0xbb6b58f9	-0.0035911186
201	0xbc070af0	-0.008242354
202	0xbac5619c	-0.0015058997
203	0xbc87c28d	-0.016572261
204	0x352f7bb8	6.5372615e-07
205	0x3c06df16	0.008231899
206	0xbc13ed76	-0.009028783
207	0xbbefe3cd	-0.007320857
208	0xbc5b8f30	-0.013400838
209	0xb981833e	-0.0002470258
210	0x3ae2429e	0.0017262285
211	0x3bd69d0b	0.0065494827
212	0xbaba4e10	-0.0014213938
213	0x3c203152	0.009777384
214	0xbc688da2	-0.014193924
215	0x3099e256	1.1196544e-09
216	0x3c022514	0.00794341
217	0x36a5e0f3	4.9435707e-06
218	0x3684847a	3.949329e-06
219	0x3a8c3c6d	0.0010699161
220	0xb6a03f35	-4.77573e-06
221	0x3bd0149d	0.0063501135
222	0x35df31f8	1.6629338e-06
223	0xbce9da01	-0.028546335
224	0x3ab77db8	0.0013999259
225	0x3c324418	0.010880493
226	0xbb028210	-0.001991395
227	0xbc0984af	-0.008393451
228	0xbbba38cb	-0.00568304
229	0xbd251449	-0.04030255
230	0xbcfe7262	-0.031060401
231	0xbd10c272	-0.035341688
232	0xbb9aeedc	-0.0047281813
233	0xb1baa712	-5.432306e-09
234	0xb9197b74	-0.00014637207
235	0xbcb25563	-0.021769231
236	0xbad5af55	-0.0016302863
237	0x3af6aad5	0.0018819222
238	0xb9aee4d9	-0.0003335837
239	0xbbdefa41	-0.006804735
240	0xba71ad4c	-0.00092192437
241	0xbbf06c85	-0.0073371553
242	0xbbe32b59	-0.0069326577
243	0xbc40d1f1	-0.011768804
244	0xbbc4607c	-0.005992947
245	0x30f6d696	1.7959845e-09
246	0xbcc44574	-0.0239589
247	0xb7bcaabd	-2.2490853e-05
248	0x39c9932e	0.00038447365
249	0xb9dbe39e	-0.00041940523
250	0x3c1e2d61	0.009654374
251	0x3b7170da	0.0036840946
252	0x0001c47f	1.62325e-40
253	0xb80e0f36	-3.3869605e-05
254	0xbcaa69eb	-0.020802459
255	0x3b89bc83	0.0042033806

lstm.weight_hh f4 [512, 128]
0	0x3b82ad7d	0.0039879666
1	0x3bb73cdc	0.005591972
2	0xbb421b8d	-0.0029618472
3	0x3ada8622	0.0016672055
4	0xba73b145	-0.00092961296
5	0xbc6632bc	-0.014050182
6	0xbbbef01b	-0.0058269626
7	0xbb828c3a	-0.0039840015
8	0xbc3ed8f1	-0.011648403
9	0xbb4f9d48	-0.003167944
10	0x3b8cd9d5	0.0042984285
11	0xbc731107	-0.014835603
12	0x3d01f985	0.0317321
13	0xbb192946	-0.0023370548
14	0xbbd592d6	-0.0065177483
15	0xbc0bde6f	-0.008536919
16	0x3bacc728	0.0052727647
17	0xb9a1883a	-0.0003080981
18	0x3a88658a	0.0010406238
19	0xbb0bc549	-0.0021327308
20	0x3b407b5c	0.0029370403
21	0xb9954a3c	-0.00028474804
22	0xbb00ceae	-0.001965444
23	0x3c388f7b	0.011264677
24	0x38b397ee	8.563684e-05
25	0xbb18bcb2	-0.002330583
26	0x3b799198	0.0038081165
27	0x3992a6e0	0.00027971622
28	0xbb3526e4	-0.0027641589
29	0x3a8028a6	0.0009777739
30	0x3c2c85d2	0.010529952
31	0x3b2532ac	0.0025207205
32	0xbc091794	-0.008367438
33	0x3ace3463	0.0015732165
34	0x3c8f4b77	0.01749204
35	0x3b2a3265	0.002596998
36	0x3c708075	0.014679064
37	0xbb077d69	-0.0020674116
38	0xbc43f1e5	-0.011959528
39	0xbbf27a8c	-0.0073998626
40	0xbab7c27e	-0.0014019755
41	0xbb792dae	-0.0038021612
42	0xbd0cce3b	-0.034376364
43	0xbca68987	-0.02032925
44	0x3c9967b8	0.018726215
45	0x3a4ac0dd	0.00077344273
46	0xbb3bbd5c	-0.0028646803
47	0xbaaed9c9	-0.0013340052
48	0xbc9b6a94	-0.018971719
49	0x3b05f9b4	0.0020443024
50	0x3a091a41	0.00052300474
51	0xbc30e68a	-0.010797152
52	0x3bb59774	0.0055417363
53	0x3abf67d9	0.0014603093
54	0xbb8eb8ba	-0.004355517
55	0xbb9c6fc5	-0.004774066
56	0xbbf974c4	-0.0076127965
57	0xbb242ad4	-0.0025049942
58	0xbb09ef93	-0.0021047338
59	0xbc3efb8c	-0.011656653
60	0xba842708	-0.0010082433
61	0xbc2e1284	-0.010624532
62	0xbb35a3e4	-0.0027716095
63	0xbb900e79	-0.0043962565
64	0xbbcbebec	-0.0062231924
65	0xbbcac9da	-0.0061886134
66	0x3c553891	0.013013975
67	0x3b137a8d	0.0022503466
68	0xbb414a0e	-0.0029493603
69	0x3b6cdfd0	0.0036144145
70	0xbcac4885	-0.021030674
71	0x3b0ec76d	0.0021786347
72	0x3ae1a840	0.001721628
73	0x3c340011	0.010986344
74	0xbb6502e9	-0.0034944362
75	0x3af9c996	0.001905727
76	0x396f1328	0.00022799952
77	0x3b58d3fc	0.0033085337
78	0x3d2283a6	0.03967633
79	0x3b9070b1	0.004407965
80	0xbcac6b3a	-0.021047223
81	0x3a7f341b	0.00097352423
82	0x3b15f2e0	0.002288036
83	0xbafb33a0	-0.0019165166
84	0x3b04b32a	0.0020248392
85	0xbcd6d317	-0.026223702
86	0xbb91199e	-0.0044281026
87	0xbb9c8a1e	-0.004777207
88	0x3c07668f	0.008264198
89	0xbb5c54e9	-0.0033619946
90	0xbbe488e1	-0.006974325
91	0x3b257e8d	0.0025252432
92	0x3aab6473	0.0013076201
93	0x3bc5c681	0.0060356264
94	0x3b8d0495	0.0043035247
95	0x3aaa28ed	0.0012982168
96	0x3b890d84	0.0041825194
97	0xbac6b800	-0.0015161037
98	0x3b44d443	0.0030033744
99	0xbc0c28e3	-0.00855467
100	0x3b9eecae	0.0048499918
101	0x3bc32469	0.005955268
102	0x3bfa2833	0.0076341867
103	0x3bb01136	0.0053731455
104	0xbaa2e212	-0.0012426993
105	0xbbd8dd24	-0.006618159
106	0xba8fc024	-0.0010967297
107	0x3cde4956	0.027134579
108	0xbbc2c8f5	-0.005944366
109	0x3a61273b	0.00085889146
110	0xbc1b0b55	-0.009463151
111	0xbad8aa9b	-0.0016530337
112	0xbcc9ee6e	-0.024649825
113	0xbb76ba3e	-0.003764763
114	0xba462664	-0.0007558821
115	0x3c67f882	0.01415837
116	0x3b85c0dc	0.0040818285
117	0x3bc77a5e	0.0060875854
118	0x3beeddaa	0.007289608
119	0xbb3309d1	-0.0027319083
120	0x3c36281e	0.011117963
121	0xbb9a08fb	-0.0047007776
122	0xbb8f4dd1	-0.00437329
123	0xbc7ceeaf	-0.015437766
124	0xbc03ee04	-0.008052353
125	0x3af2d934	0.0018527866
126	0x3c094e63	0.008380505
127	0x3b806fbe	0.0039195707
128	0x3b564864	0.0032696957
129	0xb9069ed4	-0.00012838404
130	0x3b6e4108	0.003635468
131	0x3a404c40	0.0007335581
132	0x3b1d14fd	0.0023968809
133	0xbc6a497d	-0.0142997475
134	0x3ac7ce9a	0.0015244067
135	0xb91d0190	-0.00014973269
136	0xbb80d121	-0.00393118
137	0x3ba72cc4	0.005101772
138	0xbb5bdc94	-0.0033548223
139	0xbc9b038e	-0.018922593
140	0x3c39fb2a	0.011351386
141	0xbb725fe2	-0.003698342
142	0xbbe27685	-0.0069111013
143	0xbb39a774	-0.002832857
144	0xbc327895	-0.010893007
145	0x3bb415f3	0.0054957806
146	0x3a5edfa2	0.0008501952
147	0x3b3a670f	0.0028442775
148	0x3b8db2f1	0.00432431
149	0x3b2c1778	0.0026259106
150	0xb9a9a828	-0.00032359478
151	0x3afdcb27	0.0019362912
152	0xba5217ae	-0.0008014393
153	0x3bafc352	0.00536386
154	0x3b0998d8	0.0020995643
155	0x3ba0fd6d	0.004913023
156	0x3baced0e	0.0052772826
157	0x3b748fd4	0.0037317174
158	0xbb0718bc	-0.0020614108
159	0xbb33eab6	-0.002745313
160	0xbb5aab31	-0.0033366198
161	0xbbcdfbf2	-0.0062861377
162	0x3aafcca4	0.0013412428
163	0xbb04cbe5	-0.0020263132
164	0x3b6f43ae	0.0036508846
165	0x3bc8fec3	0.0061338856
166	0x3bf7f00b	0.007566457
167	0xbb6f43ef	-0.0036508997
168	0xbbc5c7c6	-0.0060357777
169	0xbbe4ba64	-0.0069802273
170	0xbce1a708	-0.027545467
171	0xbcc15674	-0.023600794
172	0x3a41bfbe	0.00073909375
173	0xbc17dcfc	-0.009268995
174	0x3b4afed4	0.0030974643
175	0x3aca5c75	0.0015438931
176	0xba1bfcf9	-0.00059504766
177	0xba071b0a	-0.00051538704
178	0x3bafd75a	0.005366248
179	0xbb966948	-0.004590187
180	0x3be69c7c	0.0070376974
181	0x39894da2	0.00026188517
182	0x3b9dba79	0.004813489
183	0x3b80e78f	0.003933854
184	0xbb3107cf	-0.002701271
185	0xbbeaa37b	-0.0071606017
186	0xbb746bc0	-0.003729567
187	0xbb3dab6c	-0.0028941287
188	0x3b9a86fd	0.004715799
189	0xba533850	-0.00080574024
190	0x3bdbdf72	0.0067099864
191	0xbb52d475	-0.0032170091
192	0xbaa29df2	-0.001240669
193	0x3a800f24	0.0009770137
194	0x3b0e5030	0.0021715276
195	0x3b43aefd	0.002985894
196	0x3bb2e124	0.0054589678
197	0x3b16fb6d	0.0023038045
198	0xbb83c903	-0.004021765
199	0x3b8d1fc0	0.0043067634
200	0x3a1cd64c	0.00059828605
201	0x3b88f61d	0.0041797296
202	0xba30b5a0	-0.00067409314
203	0x3b22ccf1	0.0024841393
204	0xbad631ba	-0.0016341724
205	0x3c1bbb90	0.009505168
206	0x3d0559a3	0.032556187
207	0x3b41d31d	0.0029575296
208	0x3b88ed4c	0.0041786786
209	0xbbe27cc1	-0.0069118445
210	0x3b3c7b2f	0.0028759947
211	0x3a7723bb	0.00094276265
212	0xba155c19	-0.00056976225
213	0xbcb943d7	-0.022615356
214	0xbb06bfdd	-0.0020561137
215	0xba9b3686	-0.0011841811
216	0x3b3529c6	0.0027643307
217	0xbb3d43aa	-0.0028879442
218	0xbb936a84	-0.0044987816
219	0x3b2790b9	0.002556844
220	0xbb35e34a	-0.0027753883
221	0x3b684d4c	0.0035446463
222	0x3b77fec6	0.0037841066
223	0x3aaaa661	0.0013019555
224	0xbb534084	-0.00322345
225	0xbbdea70a	-0.006794815
226	0xbb3a2e84	-0.0028409073
227	0xb9d80748	-0.00041204155
228	0x3ab6bbf5	0.0013941514
229	0x3abc399c	0.0014360431
230	0x3b4d0ebe	0.0031289305
231	0x3b59862d	0.0033191547
232	0xb971c080	-0.00023055263
233	0xbb6b12ca	-0.0035869353
234	0x3957edc8	0.00020592578
235	0x3ccc8d79	0.024969803
236	0xb9af50d1	-0.00033438814
237	0xbbdd5fd9	-0.0067558107
238	0xbb8c64e6	-0.004284489
239	0xba83cba6	-0.0010055199
240	0xbad1fa52	-0.0016020036
241	0xbb1c6367	-0.002386296
242	0x3b195b9d	0.0023400553
243	0x3bf9f770	0.007628374
244	0xbbaac014	-0.005210886
245	0x3bfa4646	0.007637772
246	0x3ba33c25	0.004981535
247	0xbb412fac	-0.0029477878
248	0xbacabf5f	-0.001546841
249	0x3ba015b4	0.0048853997
250	0xb9088fa3	-0.0001302348
251	0xbb476608	-0.0030425806
252	0xbc5ee4b3	-0.013604331
253	0xbae1a06f	-0.0017213951
254	0x3a0ce046	0.00053739955
255	0x3b4aa36a	0.0030920156

lstm.bias_ih f4 [512]
0	0xbdc09837	-0.09404033
1	0xbdcee8b1	-0.10102976
2	0xbd86ab05	-0.06575588
3	0xbdaacc56	-0.08339755
4	0xbe4f9988	-0.20273411
5	0x3e75f951	0.24020888
6	0xbd76382d	-0.060112167
7	0xbdab760b	-0.08372124
8	0xbda16ad0	-0.07881701
9	0xbd894cc6	-0.067040965
10	0xbd941d0c	-0.07232103
11	0x3cd7c8ee	0.026340928
12	0x3e696149	0.22791018
13	0xbe00132e	-0.12507316
14	0xbda3c278	-0.07996076
15	0xbda4281f	-0.08015465
16	0xbe0f59c9	-0.13999094
17	0xbda5aca9	-0.08089573
18	0xbd82d7aa	-0.06388791
19	0xbdc70cbe	-0.09719227
20	0xbdbbbe3d	-0.091671444
21	0xbdadc742	-0.08485271
22	0xbd874924	-0.06605747
23	0xbdaa1e58	-0.08306569
24	0xbdbfe765	-0.09370307
25	0xbdb5e160	-0.088808775
26	0xbdba404a	-0.090942934
27	0xbd9ab956	-0.07554881
28	0xbc9100c9	-0.01770057
29	0xbdc84d86	-0.097804114
30	0xbc94275c	-0.018085174
31	0xbd8064f3	-0.062692545
32	0xbdad74ed	-0.084695674
33	0xbdb58bdb	-0.08864566
34	0xbcc07fa4	-0.023498364
35	0xbdb260df	-0.08709883
36	0xbda22e2a	-0.07918961
37	0xbd8c5530	-0.06852186
38	0x3ea33c2b	0.31881842
39	0xbd8a0aa5	-0.067403115
40	0xbd84503c	-0.06460616
41	0xbda257fe	-0.079269394
42	0x3ee042ae	0.43800873
43	0x3cd83ca4	0.026396103
44	0xbd7f6d56	-0.06236013
45	0xbd8da589	-0.06916339
46	0xbdb1abdc	-0.08675358
47	0xbdade7ec	-0.08491501
48	0xbd429484	-0.047504917
49	0xbd9aba22	-0.07555033
50	0xbdbe4310	-0.09290135
51	0xbd82f4a1	-0.063943155
52	0xbd73f1fc	-0.059556946
53	0xbdc06917	-0.09395044
54	0xbd843231	-0.06454886
55	0xbd7e36ad	-0.06206386
56	0xbd81179f	-0.063033335
57	0xbde4b321	-0.111669786
58	0xbda7a805	-0.08186344
59	0xbddc17d7	-0.107467346
60	0xbdae8b65	-0.08522681
61	0xbd51cc93	-0.051220488
62	0xbdb61584	-0.088908225
63	0xbdabd151	-0.08389533
64	0xbde0b231	-0.10971487
65	0xbdb25778	-0.087080896
66	0xbd8501a7	-0.06494456
67	0xbd9a03fe	-0.07520293
68	0xbd769c79	-0.060207818
69	0xbdb75de2	-0.089534536
70	0xbd9a56f7	-0.075361185
71	0xbd88d6be	-0.06681584
72	0xbd8b1b8c	-0.067923635
73	0xbda6d35c	-0.08145782
74	0xbda07e76	-0.078366205
75	0xbd8d2112	-0.06891073
76	0xbd843847	-0.064560466
77	0xbd89a6b7	-0.067212515
78	0x3f08ccde	0.534376
79	0xbdbdb65f	-0.092633
80	0xbe540191	-0.20703723
81	0xbd8d4e6d	-0.06899724
82	0xbdab2505	-0.0835667
83	0xbd9c9923	-0.07646396
84	0xbd93f100	-0.072237015
85	0x3ef4035f	0.47658822
86	0xbd8ee3e5	-0.06977061
87	0xbdf62d19	-0.120203204
88	0xbda783c1	-0.08179427
89	0xbda8c516	-0.08240716
90	0xbda79dc8	-0.08184391
91	0xbdda9abc	-0.106740445
92	0xbe6d6588	-0.23183262
93	0xbda70798	-0.08155745
94	0xbdbcc4c0	-0.092172146
95	0xbda91d7a	-0.08257575
96	0xbd863352	-0.06552757
97	0xbd9d4565	-0.076792516
98	0xbd51859f	-0.05115282
99	0xbdf4d44c	-0.11954555
100	0xbda70814	-0.08155838
101	0xbd98a8aa	-0.07454045
102	0xbdc6d312	-0.09708227
103	0xbd8b9752	-0.068159714
104	0xbda9abd8	-0.0828473
105	0xbdaa9179	-0.08328528
106	0xbdba3b26	-0.09093313
107	0x3edb9a7c	0.428913
108	0xbd93e9c3	-0.07222321
109	0xbd75b7af	-0.059989627
110	0xbd85c9d5	-0.06532637
111	0xbd9c7003	-0.07638552
112	0xbe25a79b	-0.16177218
113	0xbdb09e49	-0.086239405
114	0xbdd27389	-0.10275943
115	0xbd9e6357	-0.07733791
116	0xbd1b2c71	-0.03788418
117	0xbd866d47	-0.06563812
118	0xbd9017de	-0.07035802
119	0xbdb7ef75	-0.0898122
120	0xbdf30756	-0.118666336
121	0xbda9ab33	-0.08284607
122	0xbdd0d2ab	-0.10196432
123	0xbda38d21	-0.079859026
124	0xbd1eed1f	-0.038800355
125	0xbd81d246	-0.063389346
126	0xbdb23291	-0.08701051
127	0xbdbb0ad1	-0.091329224
128	0xbdc6b403	-0.09702303
129	0xbd9a017f	-0.075198166
130	0xbd86839f	-0.065680735
131	0xbd86f18b	-0.065890394
132	0xbd214002	-0.039367683
133	0xbdbfca90	-0.093648076
134	0xbd85116c	-0.064974636
135	0xbd8a6069	-0.0675667
136	0xbd545acc	-0.051844403
137	0xbd96252c	-0.07331309
138	0xbd838483	-0.06421759
139	0xbe0be0e9	-0.13660015
140	0x3cae8fa3	0.021308726
141	0xbda204df	-0.07911085
142	0xbd9fc76c	-0.078017086
143	0xbd810255	-0.06299273
144	0xbf06573c	-0.5247686
145	0xbd8fac6f	-0.07015311
146	0xbd8e3002	-0.069427505
147	0xbed08ff9	-0.40734842
148	0xbd8d4cf3	-0.068994425
149	0xbda21be6	-0.079154775
150	0xbd531b62	-0.051539786
151	0xbd8adabd	-0.06780002
152	0xbd916de9	-0.07101042
153	0xbe6475fe	-0.22310635
154	0xbdb8b906	-0.090196654
155	0xbd75f2ef	-0.060046133
156	0xbdf5592b	-0.11979898
157	0xbd986e53	-0.07442918
158	0xbcf618a6	-0.03004105
159	0xbd7e21cb	-0.062043946
160	0xbd94859c	-0.072520465
161	0xbd9ab669	-0.07554323
162	0xbddd01e3	-0.107913755
163	0xbd9e850d	-0.07740221
164	0xbd71fd96	-0.05907973
165	0xbd7f6112	-0.062348433
166	0xbd8cf503	-0.0688267
167	0xbd77810a	-0.060425796
168	0xbd8ce44b	-0.06879481
169	0xbd877030	-0.06613195
170	0x3e859ae1	0.26094726
171	0xbdf185f8	-0.11793131
172	0xbd338a5a	-0.043833114
173	0xbd6a4bc2	-0.057201155
174	0xbd8c9111	-0.06863607
175	0xbd9b365e	-0.07578729
176	0xbe05dd8e	-0.13072798
177	0xbd77f11f	-0.060532685
178	0xbda47edf	-0.08032011
179	0xbd5ef22a	-0.054430164
180	0xbd9ffccd	-0.0781189
181	0xbd87bb6e	-0.06627546
182	0xbd4b8162	-0.049683936
183	0xbd8e6a46	-0.06953864
184	0xbd39a6f5	-0.04532524
185	0xbdaf2dd3	-0.08553662
186	0xbdb0aa37	-0.08626216
187	0xbe998728	-0.2998593
188	0xbd73dd7d	-0.0595374
189	0xbe1f975a	-0.1558508
190	0xbe86db8c	-0.26339376
191	0xbda9f72b	-0.08299097
192	0xbe571ce1	-0.2100711
193	0xbd7ccfac	-0.06172149
194	0xbd7d34bd	-0.061817873
195	0xbd87001e	-0.06591819
196	0xbd8b4b81	-0.068015106
197	0xbdb58fad	-0.088652946
198	0xbd843157	-0.06454723
199	0xbd82a40e	-0.06378947
200	0xbdba0b95	-0.0908424
201	0xbd73b717	-0.05950078
202	0xbd8b94c0	-0.06815481
203	0xbd87b903	-0.06627085
204	0xbd8709fe	-0.06593703
205	0xbda16ce9	-0.07882101
206	0x3e94ff0c	0.29100835
207	0xbd8c2dfb	-0.068447076
208	0xbea7ca60	-0.32771587
209	0xbd841233	-0.06448784
210	0xbd84afee	-0.064788684
211	0xbd701d70	-0.058621824
212	0xbd93bd68	-0.07213861
213	0x3e8bbd84	0.27293026
214	0xbd7474c7	-0.05968168
215	0xbdce1859	-0.10063238
216	0xbd9a4ee0	-0.075345755
217	0xbdaa2410	-0.083076596
218	0xbd768733	-0.06018753
219	0xbdb304c7	-0.087411456
220	0xbe92fce6	-0.2870857
221	0xbd7c5aca	-0.06161002
222	0xbd91f655	-0.07127062
223	0xbd9278be	-0.07151936
224	0xbd9c66bf	-0.07636785
225	0xbd8ee96e	-0.06978117
226	0xbd84f3fd	-0.064918496
227	0xbde5903b	-0.112091504
228	0xbd754459	-0.059879635
229	0xbd89ac52	-0.067223206
230	0xbd916602	-0.070995346
231	0xbd516a46	-0.05112674
232	0xbd760cda	-0.06007085
233	0xbd943378	-0.072363794
234	0xbd908976	-0.070574686
235	0x3e5bdedf	0.21471737
236	0xbe456527	-0.19276868
237	0xbd7205e1	-0.059087638
238	0xbd41a201	-0.04727364
239	0xbd6a0d49	-0.057141576
240	0xbe91a54d	-0.28446427
241	0xbd8c952e	-0.06864391
242	0xbdc95c90	-0.09832108
243	0xbd5b5aa3	-0.053553235
244	0xbdf8d3b8	-0.12149757
245	0xbdba4072	-0.09094323
246	0xbd2f88a1	-0.04285491
247	0xbdb0e340	-0.086370945
248	0xbdc2333b	-0.09482428
249	0xbd8aa1fa	-0.06769176
250	0xbdaa9342	-0.083288684
251	0xbd92c476	-0.07166378
252	0xbe6fbff6	-0.23413071
253	0xbd6358cb	-0.0555046
254	0xbd92f9fa	-0.071765855
255	0xbdb03413	-0.08603682

lstm.bias_hh f4 [512]
0	0xbdc0c5c1	-0.094127186
1	0xbdcee8b1	-0.10102976
2	0xbd86ab05	-0.06575588
3	0xbdaacc56	-0.08339755
4	0xbe54ab7f	-0.20768546
5	0x3e5f84fd	0.21828075
6	0xbd76382d	-0.060112167
7	0xbdab760b	-0.08372124
8	0xbda16ad0	-0.07881701
9	0xbd894cc6	-0.067040965
10	0xbd941d0c	-0.07232103
11	0x3cf8928a	0.030343313
12	0x3e7759e7	0.24155389
13	0xbdffce45	-0.12490515
14	0xbda3c278	-0.07996076
15	0xbda4281f	-0.08015465
16	0xbe083dc9	-0.13304819
17	0xbda5aca9	-0.08089573
18	0xbd82d7aa	-0.06388791
19	0xbdb6ff98	-0.089354694
20	0xbdbbbe3f	-0.09167146
21	0xbdadc742	-0.08485271
22	0xbd874924	-0.06605747
23	0xbdaa1e58	-0.08306569
24	0xbdbfe765	-0.09370307
25	0xbdbb898e	-0.09157096
26	0xbdba404a	-0.090942934
27	0xbd9ab956	-0.07554881
28	0xbcb23aee	-0.021756615
29	0xbdc84d89	-0.09780414
30	0xbc002688	-0.007821687
31	0xbd8064f3	-0.062692545
32	0xbdad74ed	-0.084695674
33	0xbdb58bd9	-0.088645644
34	0xbcc0b8c0	-0.023525596
35	0xbdb260df	-0.08709883
36	0xbda22e2a	-0.07918961
37	0xbd8c5530	-0.06852186
38	0x3ea75656	0.32683057
39	0xbd8a0aa5	-0.067403115
40	0xbd84503c	-0.06460616
41	0xbda257fe	-0.079269394
42	0x3ee002a8	0.43752027
43	0x3d176202	0.036958702
44	0xbd7f6d56	-0.06236013
45	0xbd8da589	-0.06916339
46	0xbdb1abdc	-0.08675358
47	0xbdade7ec	-0.08491501
48	0xbd5296d7	-0.051413383
49	0xbd9aba22	-0.07555033
50	0xbdbe4310	-0.09290135
51	0xbd82f4a1	-0.063943155
52	0xbd73f75c	-0.059562072
53	0xbdc06917	-0.09395044
54	0xbd843231	-0.06454886
55	0xbd7e36ad	-0.06206386
56	0xbd81179f	-0.063033335
57	0xbde49e8f	-0.11163055
58	0xbda7a805	-0.08186344
59	0xbddc3304	-0.10751918
60	0xbdae8b67	-0.08522683
61	0xbc4646a2	-0.012101801
62	0xbd658953	-0.056039166
63	0xbdabd151	-0.08389533
64	0xbdb96f02	-0.09054376
65	0xbdb25778	-0.087080896
66	0xbd8501a7	-0.06494456
67	0xbd9a03fe	-0.07520293
68	0xbd769c79	-0.060207818
69	0xbdb75df6	-0.089534685
70	0xbd9a56f7	-0.075361185
71	0xbd88d6be	-0.06681584
72	0xbd8b09c7	-0.06788974
73	0xbda6d35c	-0.08145782
74	0xbda07e76	-0.078366205
75	0xbd8d2112	-0.06891073
76	0xbd843847	-0.064560466
77	0xbd89a6ac	-0.06721243
78	0x3f08c3e8	0.5342393
79	0xbdbdb65f	-0.092633
80	0xbe6bad77	-0.2301539
81	0xbd8d4e6d	-0.06899724
82	0xbdab2505	-0.0835667
83	0xbd9c9923	-0.07646396
84	0xbd93f100	-0.072237015
85	0x3ef561da	0.47926217
86	0xbd8ee3e5	-0.06977061
87	0xbdf72249	-0.12067086
88	0xbda783c1	-0.08179427
89	0xbda8c516	-0.08240716
90	0xbda79dc8	-0.08184391
91	0xbdda9776	-0.1067342
92	0xbe78974a	-0.24276462
93	0xbda70798	-0.08155745
94	0xbdbcc4c0	-0.092172146
95	0xbda91d7a	-0.08257575
96	0xbd863352	-0.06552757
97	0xbd9d4565	-0.076792516
98	0xbd51859f	-0.05115282
99	0xbdf6fdde	-0.1206014
100	0xbda70814	-0.08155838
101	0xbd98a8aa	-0.07454045
102	0xbdc6d285	-0.09708122
103	0xbd8b9752	-0.068159714
104	0xbda9abd8	-0.0828473
105	0xbdaa9171	-0.08328522
106	0xbdba3b26	-0.09093313
107	0x3edf46e1	0.43608764
108	0xbda302b8	-0.07959503
109	0xbd75b7af	-0.059989627
110	0xbd85c9d5	-0.06532637
111	0xbd9c7003	-0.07638552
112	0xbe772346	-0.2413455
113	0xbdb09e49	-0.086239405
114	0xbdd2728f	-0.102757566
115	0xbd9e6357	-0.07733791
116	0xbd1aa4a7	-0.03775468
117	0xbd8629e4	-0.06550959
118	0xbd9017de	-0.07035802
119	0xbdb7ef75	-0.0898122
120	0xbdf451c5	-0.11929659
121	0xbda9ab33	-0.08284607
122	0xbdd0d2b2	-0.10196437
123	0xbda38d49	-0.079859324
124	0xbd23331a	-0.039843656
125	0xbd81d246	-0.063389346
126	0xbdb23291	-0.08701051
127	0xbdbb0ad1	-0.091329224
128	0xbdc6b38c	-0.097022146
129	0xbd9a017f	-0.075198166
130	0xbd86839f	-0.065680735
131	0xbd86f18b	-0.065890394
132	0xbd07321e	-0.03300678
133	0xbdd4f8fd	-0.10399053
134	0xbd85116c	-0.064974636
135	0xbd8a6069	-0.0675667
136	0xbd545acc	-0.051844403
137	0xbd96252c	-0.07331309
138	0xbd838483	-0.06421759
139	0xbe0c157c	-0.1368007
140	0x3cdcf094	0.026970185
141	0xbda204ed	-0.07911096
142	0xbd9fc76c	-0.078017086
143	0xbd810255	-0.06299273
144	0xbef35af9	-0.47530344
145	0xbd8fac6f	-0.07015311
146	0xbd8e3002	-0.069427505
147	0xbef002e0	-0.46877193
148	0xbd8d4cf3	-0.068994425
149	0xbda21be6	-0.079154775
150	0xbd531b62	-0.051539786
151	0xbd8adabd	-0.06780002
152	0xbd916de9	-0.07101042
153	0xbe63eb56	-0.22257742
154	0xbdb8b906	-0.090196654
155	0xbd75f2ef	-0.060046133
156	0xbdf4d2c6	-0.11954264
157	0xbd986e53	-0.07442918
158	0xbce25780	-0.027629614
159	0xbd7e21cb	-0.062043946
160	0xbd94859c	-0.072520465
161	0xbd9ab669	-0.07554323
162	0xbddd1a6a	-0.10796054
163	0xbd9e850d	-0.07740221
164	0xbd71fd96	-0.05907973
165	0xbd7f6112	-0.062348433
166	0xbdb63aed	-0.08897958
167	0xbd77810a	-0.060425796
168	0xbd8ce44b	-0.06879481
169	0xbd877030	-0.06613195
170	0x3e8569ea	0.2605737
171	0xbdca1ff7	-0.09869378
172	0xbd338a5a	-0.043833114
173	0xbd6a4bc2	-0.057201155
174	0xbd8c9111	-0.06863607
175	0xbd9b365e	-0.07578729
176	0xbe05c0fb	-0.13061897
177	0xbd77f11f	-0.060532685
178	0xbda47edf	-0.08032011
179	0xbd5ef22a	-0.054430164
180	0xbd9ffccd	-0.0781189
181	0xbd87bb6e	-0.06627546
182	0xbd4b8162	-0.049683936
183	0xbd8e6a46	-0.06953864
184	0xbd39a6f5	-0.04532524
185	0xbdaf2dc7	-0.08553653
186	0xbdb0aa37	-0.08626216
187	0xbe986e64	-0.2977172
188	0xbd73dd7d	-0.0595374
189	0xbe1eb824	-0.15499932
190	0xbe8b540e	-0.27212566
191	0xbda9f72b	-0.08299097
192	0xbe561c62	-0.20909265
193	0xbd7ccfac	-0.06172149
194	0xbd7d34bd	-0.061817873
195	0xbd87001e	-0.06591819
196	0xbd8b4b81	-0.068015106
197	0xbdb58fad	-0.088652946
198	0xbd843157	-0.06454723
199	0xbd82a40e	-0.06378947
200	0xbdba0b91	-0.09084237
201	0xbd73b717	-0.05950078
202	0xbd8b94c0	-0.06815481
203	0xbd87b903	-0.06627085
204	0xbd8709fe	-0.06593703
205	0xbda16ce9	-0.07882101
206	0x3e953db4	0.29148638
207	0xbd8c2dfb	-0.068447076
208	0xbe9e6abc	-0.30940807
209	0xbd841233	-0.06448784
210	0xbd84afee	-0.064788684
211	0xbd701d70	-0.058621824
212	0xbd93bd68	-0.07213861
213	0x3e8a67ac	0.2703222
214	0xbd7474c7	-0.05968168
215	0xbdce14ab	-0.10062536
216	0xbd9a4ee0	-0.075345755
217	0xbdaa2410	-0.083076596
218	0xbd768733	-0.06018753
219	0xbdb304c7	-0.087411456
220	0xbe8f84c0	-0.28030968
221	0xbd7c5aca	-0.06161002
222	0xbd91f655	-0.07127062
223	0xbd9278be	-0.07151936
224	0xbd9c66bf	-0.07636785
225	0xbd8ee96e	-0.06978117
226	0xbd84f3fd	-0.064918496
227	0xbde59199	-0.11209411
228	0xbd754459	-0.059879635
229	0xbd89ac52	-0.067223206
230	0xbd916602	-0.070995346
231	0xbd516a46	-0.05112674
232	0xbd760cda	-0.06007085
233	0xbd943378	-0.072363794
234	0xbd908976	-0.070574686
235	0x3e62fece	0.22167513
236	0xbe4f689e	-0.20254752
237	0xbd7205e1	-0.059087638
238	0xbd41a201	-0.04727364
239	0xbd6a0d49	-0.057141576
240	0xbe96fd19	-0.29489973
241	0xbd8c952e	-0.06864391
242	0xbdc95c8c	-0.09832105
243	0xbd5b5aa3	-0.053553235
244	0xbdf8d287	-0.1214953
245	0xbdba4065	-0.090943135
246	0xbd2f88a1	-0.04285491
247	0xbdb0e340	-0.086370945
248	0xbdc23d53	-0.09484353
249	0xbd8aa1fa	-0.06769176
250	0xbdaa9342	-0.083288684
251	0xbd92c476	-0.07166378
252	0xbe6eee37	-0.23333059
253	0xbd6358cb	-0.0555046
254	0xbd92f9fa	-0.071765855
255	0xbdb03413	-0.08603682

output_w.weight f4 [5, 128]
0	0xbc31839a	-0.010834599
1	0xbb90d49d	-0.0044198767
2	0xbb198c75	-0.0023429666
3	0x3c1e7c40	0.009673178
4	0xbced205b	-0.028946092
5	0xbcd10803	-0.025516516
6	0xb91f0be8	-0.00015167857
7	0x3b780748	0.0037846137
8	0x3ace3f5a	0.0015735433
9	0x3b1cee98	0.0023945924
10	0xbc127bfc	-0.008940693
11	0xbd27b985	-0.04094841
12	0xbc87670a	-0.016528625
13	0xbad5bf4e	-0.0016307624
14	0xbc1b8e8a	-0.009494433
15	0x392999fc	0.0001617446
16	0xbeb52e0e	-0.353867
17	0x3b9545e3	0.0045554503
18	0xba8ce0f7	-0.0010748197
19	0x3e4ed68b	0.20199029
20	0x3c755f70	0.014976367
21	0x3ae9454c	0.0017797141
22	0xbb204d43	-0.0024460114
23	0x3ab19493	0.0013548307
24	0xbbec1284	-0.0072043557
25	0x3d3c75dc	0.046010837
26	0xbaa2857c	-0.0012399401
27	0x3c0c3551	0.0085576335
28	0xbcf3d8dc	-0.029766493
29	0x3c243824	0.010023151
30	0x3d29634c	0.041354463
31	0x3aa2ce7a	0.0012421154
32	0xbb7bb440	-0.0038406998
33	0xbc027eb4	-0.007964779
34	0x3b96ff6c	0.0046080854
35	0xbbccadbb	-0.006246296
36	0x3b71e086	0.0036907508
37	0x3c0e4583	0.008683565
38	0x3cdc17c1	0.026866795
39	0xbb80cffd	-0.003931044
40	0xbbd83da2	-0.006599144
41	0xbbccb106	-0.006246689
42	0x3c15c483	0.00914109
43	0xbd8afb6c	-0.06786236
44	0x3b9a9504	0.004717471
45	0xbbecb9f9	-0.007224318
46	0x3c1501f2	0.009094702
47	0x3bbbbab0	0.005729042
48	0xbc68214d	-0.014168096
49	0x3bde4290	0.006782837
50	0x3be6c616	0.0070426567
51	0x3adf1a80	0.0017021447
52	0x3c016153	0.007896739
53	0x3ae4a676	0.0017444629
54	0x3b9dae7f	0.0048120613
55	0x3a06f328	0.00051479274
56	0xbb374e92	-0.0027970416
57	0xbcbe8c22	-0.02326018
58	0xbc28822c	-0.010284942
59	0x3d8cf886	0.068833396
60	0xba9ad1ab	-0.0011811754
61	0xbe11603e	-0.1419687
62	0x3dc100ba	0.09423967
63	0xbb35b002	-0.0027723317
64	0xbcd2686a	-0.025684554
65	0xbb34f630	-0.002761256
66	0x3b47bb3b	0.0030476588
67	0x3b488bcb	0.0030600901
68	0xbb9c564b	-0.004771029
69	0xbbbe7075	-0.0058117458
70	0x3b9af2ec	0.0047286656
71	0x3bd08116	0.0063630445
72	0xbac0e872	-0.0014717712
73	0xbb67475a	-0.0035290332
74	0xbae8fa46	-0.0017774783
75	0xbb2c8e7c	-0.0026330044
76	0x3b275e74	0.0025538476
77	0x3bde530e	0.0067848032
78	0xbe422439	-0.1895913
79	0xbb72079e	-0.003693081
80	0x3e96fb87	0.29488775
81	0xbbf0c8b4	-0.0073481444
82	0xba08f6fa	-0.00052247907
83	0x3aecfad0	0.0018080119
84	0x3b08b925	0.0020862308
85	0x3e2af930	0.1669662
86	0xbaf270d0	-0.0018496756
87	0xbd2e5e18	-0.042570204
88	0x3ac34f1a	0.0014900893
89	0xbbe18530	-0.0068823323
90	0x3b8a7242	0.0042250464
91	0xbc12f9e4	-0.008970711
92	0xbdaba4fa	-0.08381076
93	0x3a838ede	0.0010037085
94	0xbb0c419d	-0.0021401413
95	0x3a8a7b9e	0.0010565405
96	0x3b24d1ed	0.002514954
97	0xbc36f8ad	-0.011167687
98	0xba5787a1	-0.00082218094
99	0x3cc8db60	0.024518669
100	0x3b233352	0.0024902415
101	0x3ba20d47	0.0049454304
102	0x3bde379d	0.006781532
103	0x3b0cd14b	0.0021487053
104	0x3a8fbc78	0.0010966202
105	0x3b6cf3c0	0.0036156029
106	0x3ba2988a	0.0049620317
107	0x3ce4dbf5	0.027936915
108	0xbdf834bb	-0.121194325
109	0xbbb3c18d	-0.0054857195
110	0x3b21a8ad	0.002466719
111	0x3bc49260	0.0059988946
112	0x3dd7b4b7	0.105325155
113	0xbc0bb262	-0.0085264165
114	0xbbfbdb24	-0.0076860357
115	0x3bab11a3	0.0052206083
116	0xbc89d7a2	-0.016826455
117	0x3c00cd01	0.007861377
118	0xba8067b0	-0.0009796526
119	0xbc47ec11	-0.012202279
120	0xbb270973	-0.002548781
121	0x3be7f7cc	0.0070791002
122	0x3bf40ac8	0.0074475743
123	0x3c0ad461	0.008473487
124	0xbb61bd42	-0.0034445082
125	0xbc42cf83	-0.011890295
126	0xbb6a17b4	-0.0035719695
127	0x3bb923e6	0.0056500314
128	0x3c9122c6	0.017716777
129	0x3ae715e3	0.0017630424
130	0xbc190135	-0.009338667
131	0xbc05ac46	-0.008158749
132	0xbdd7e9f3	-0.10542669
133	0xbda54bf1	-0.08071125
134	0xbb68a966	-0.003550136
135	0x3b881674	0.0041530672
136	0xbb4a3494	-0.0030854093
137	0xba99cf77	-0.0011734803
138	0xbb423a38	-0.0029636752
139	0x3d48936d	0.04896872
140	0x3cf1254e	0.029436734
141	0xbcc44f3d	-0.023963565
142	0x3bd98b50	0.006638922
143	0xbc04c4cc	-0.008103561
144	0x3f095fe2	0.5366193
145	0xbb99a7db	-0.0046891994
146	0x3c338f3f	0.0109594455
147	0x3ed4534c	0.414698
148	0xbca53eb4	-0.0201715
149	0xbc0902d9	-0.008362495
150	0xbc197a61	-0.009367556
151	0xbc3ba8d9	-0.011453831
152	0x3b270782	0.0025486653
153	0xbd42a861	-0.04752386
154	0xbb2d85af	-0.0026477387
155	0xbc1c5908	-0.009542711
156	0xbcfafe89	-0.03063895
157	0xbc0f795e	-0.008756964
158	0x3d4993df	0.049213286
159	0x3bcbbcca	0.006217574
160	0x3b6ac03d	0.003582015
161	0x3b9a816e	0.0047151363
162	0x3c283e0e	0.010268701
163	0x3b6e4d46	0.0036361977
164	0x39089332	0.00013024805
165	0xbb86d773	-0.004115039
166	0xbd00c537	-0.03143808
167	0x3b3b7afa	0.0028607235
168	0x3b4b3f2d	0.0031012997
169	0x37899190	1.6399455e-05
170	0x3dc0e757	0.094191246
171	0x3de79298	0.113072574
172	0xbc2a6090	-0.010398999
173	0x3c237883	0.009977463
174	0xbc2ca69d	-0.010537771
175	0xbb82e26f	-0.003994278
176	0x3c105c30	0.008811042
177	0x39347674	0.00017210265
178	0xb9d30d68	-0.00040255045
179	0xbc44087f	-0.011964916
180	0xbc37f228	-0.011227168
181	0xbc2ed3c1	-0.010670603
182	0xbb67134c	-0.0035259305
183	0xbc2d7f49	-0.010589429
184	0xbb8546c7	-0.004067275
185	0x3c1f38e3	0.009718153
186	0x3b82e1b9	0.0039941934
187	0xbd06d6b2	-0.032919593
188	0x3c12b7a1	0.008954913
189	0xbd2a4ab7	-0.04157516
190	0xbd484019	-0.048889253
191	0x3b6eebd1	0.0036456476
192	0xbe0472fd	-0.1293449
193	0x3b1fad65	0.0024364826
194	0xbc5a97f4	-0.0133418925
195	0xba1a9495	-0.0005896774
196	0x3b41e8ff	0.002958834
197	0x3bab9b41	0.0052370136
198	0x396b5ee0	0.0002244669
199	0xbabac85a	-0.0014250383
200	0xbca2bd09	-0.01986553
201	0x3ba5c889	0.005059306
202	0xbae5107e	-0.0017476229
203	0xbb5f13b2	-0.003403884
204	0x381aa5b0	3.687077e-05
205	0x3a9e128e	0.0012059973
206	0xbd0d33b6	-0.034473144
207	0x3b1e87c1	0.0024189802
208	0x3dd0e8aa	0.10200627
209	0xbbeecbe2	-0.0072874883
210	0xbb39719a	-0.0028296472
211	0xbb498d06	-0.0030754223
212	0x3bcad0b5	0.0061894306
213	0xbd8244b4	-0.0636076
214	0x3b5d5cc1	0.003377721
215	0x3c849d00	0.016188145
216	0xbc224914	-0.0099051185
217	0x3c07c571	0.00828682
218	0xbb4f3c26	-0.0031621545
219	0xbb0f5c1f	-0.0021874977
220	0xbc8dbc1e	-0.017301615
221	0xbb9b7eba	-0.0047453316
222	0x3aec7778	0.0018040976
223	0xba5831fa	-0.0008247193
224	0x3c06599d	0.008200076
225	0x3bd0ba86	0.0063698916
226	0x3b11f100	0.0022268891
227	0xbd0d7d9c	-0.03454362
228	0x3afc9c28	0.0019272612
229	0x3a934cfc	0.0011238153
230	0xbc522971	-0.012827263
231	0x3bbe0497	0.005798887
232	0x3b3a1fb7	0.0028400251
233	0xbb0c09c3	-0.0021368123
234	0xbbb00a19	-0.0053722975
235	0x3dcd54a8	0.100259125
236	0x3a860976	0.0010226208
237	0x3b0e45b4	0.0021709027
238	0x3b97690b	0.0046206764
239	0xbc4ab552	-0.012372332
240	0x3db82f93	0.08993449
241	0x3c1160a0	0.008873135
242	0x3bb4c96a	0.0055171745
243	0x3c05a27d	0.008156416
244	0xbb9fbffb	-0.004875181
245	0xbbd32942	-0.0064441273
246	0x3c997d3f	0.01873648
247	0x3c08a6d4	0.008340556
248	0x3d21c014	0.03948982
249	0xbbd6246a	-0.0065351026
250	0xbaa0cb4b	-0.0012267617
251	0xbc39bcd8	-0.011336528
252	0x3caaf02c	0.020866476
253	0xbc305702	-0.010762932
254	0xbb753d0c	-0.003742042
255	0xbbfba2f4	-0.0076793376

output_w.bias f4 [5]
0	0xbd25e1f6	-0.040498696
1	0x3d739472	0.05946774
2	0xbf675375	-0.9036172
3	0xbf7263db	-0.9468362
4	0xbdf71a2a	-0.12065537

square_avg f4 [64]
0	0x3d5ab39d	0.05339395
1	0x3db4eb70	0.08833969
2	0x3d1f7c8a	0.03893713
3	0x2e7675fc	5.6038715e-11
4	0x39eef4da	0.00045577326
5	0x3c564628	0.01307825
6	0x3c2944a5	0.010331308
7	0x3526a1f5	6.20755e-07
8	0x3c21f2f8	0.009884588
9	0x2dd029ed	2.3665481e-11
10	0x3cb3cfe3	0.021949714
11	0x3c96f363	0.018426603
12	0x3dc8416c	0.09778103
13	0x3c2e957e	0.010655759
14	0x3b2b1481	0.002610475
15	0x3c143016	0.009044668
16	0x3c287c23	0.010283503
17	0x3c0da5de	0.008645503
18	0x3c474f13	0.012164849
19	0x3eb6b6ff	0.3568649
20	0x3145dc53	2.8792513e-09
21	0x3cfa2e53	0.030539667
22	0x2dd26f95	2.3923788e-11
23	0x324d8deb	1.1964839e-08
24	0x3d2d3584	0.042287365
25	0x2e91c36c	6.6285505e-11
26	0x3db5b1be	0.08871792
27	0x2d9b862f	1.768105e-11
28	0x3d80fc3d	0.06298111
29	0x3de02a21	0.109455355
30	0x3d15faf6	0.036616288
31	0x3b860148	0.004089508
32	0x3c2b16ab	0.010442416
33	0x3e0ccf7c	0.13751024
34	0x3dd3497b	0.1031675
35	0x3cb5dfa0	0.02220136
36	0x3d6ea42a	0.058262028
37	0x3d3d1fde	0.04617297
38	0x315ea0d9	3.2396683e-09
39	0x3c10b39b	0.008831884
40	0x3cc1527e	0.023598906
41	0x38d27b6d	0.0001003657
42	0x37a0b14e	1.915605e-05
43	0x3c0ba7df	0.00852391
44	0x3acb4ab8	0.0015509939
45	0x3a42762d	0.0007418122
46	0x3cdc2d28	0.026877
47	0x3c2505b4	0.0100721605
48	0x3abff08b	0.0014643831
49	0x3e119406	0.14216623
50	0x3144d51f	2.86429e-09
51	0x3cac6278	0.021043047
52	0x3294e569	1.7333791e-08
53	0x36dd5cc5	6.597113e-06
54	0x3d0c8e4e	0.0343154
55	0x3b1afe42	0.0023650085
56	0x3c156650	0.0091186315
57	0x31cd5fe3	5.9771863e-09
58	0x2e62415d	5.1444505e-11
59	0x3cf96fa4	0.030448742
60	0x3c1ce5bc	0.009576257
61	0x3c11a2e9	0.008888938
62	0x3bc6f391	0.006071516
63	0x3c9b6867	0.018970681

square_avg f4 [5]
0	0x4093a42d	4.613791
1	0x40421d26	3.033029
2	0x3e0ae9df	0.13565777
3	0x3e5779b7	0.21042524
4	0x3ca3232d	0.019914234
