S-LSTM/Goal+Socail_Array_PyTorch/social_lstm/save/0/social_model_epoch_23.pth (torch, 815071 bytes, 22 tensors)

embedding_b f4 [64]
00000000: a607 25bd 3f00 ba3e c061 893e 8075 5cb8
00000010: 7415 98bc a490 1b3c c9c2 bbbd 67a2 85bb
00000020: 9362 1fbe d0b4 a8bb 6602 313b e7ca 9abc
00000030: 9dfe 3ebe f1ad 04be 4d5e f4bc 0295 91bc
00000040: d987 a6bc c258 efbb 8cf4 05be 240a 5fbd
00000050: c2e0 fabb 4f7f 0ebd a06f 9f3c cd68 23b8
00000060: dec7 7fbd 9d07 8bb6 4939 5d3d 6084 c7bb
00000070: 59d9 b03e dec7 16be 9374 04bd d668 78bd
00000080: d2fe 14be 97c9 a43c e83e d43d 46ca 7cbc
00000090: 6b5d 483e 4861 b23d 16c5 23bc b1c2 1cbe
000000a0: 5a91 c7bc 8fbe 33bc dafb 91b6 f6fc 2fbd
000000b0: 3611 47bb 5965 ecbb ff1b 18bc a278 963d
000000c0: 62a8 d9bd e19c 1f3e e23a 77b9 1328 913d
000000d0: 20d1 12bc 3d46 82b8 fc4f a03d 5605 81bd
000000e0: 6a0c dbbc 6933 3ebb 77d3 bebb ec14 893d
000000f0: 2a6e 173e e0c3 5b3d ebe9 0abe 1cda cfbb
-0.040290497 0.36328313 0.2683239 -5.2561518e-05 -0.018564917 0.009494934 -0.09168012 -0.0040781978
-0.15564947 -0.0051485077 0.0027009486 -0.01889558 -0.18651815 -0.12956978 -0.029830122 -0.017771248
-0.02032845 -0.007304282 -0.13081568 -0.05445303 -0.0076561878 -0.03478938 0.019462407 -3.895983e-05
-0.062446468 -4.143409e-06 0.05400971 -0.0060887784 0.34540823 -0.14724681 -0.032337736 -0.060646854
-0.14550331 0.020115657 0.10363561 -0.015429085 0.19566886 0.08709961 -0.009995719 -0.15308644
-0.024361301 -0.010970726 -4.350656e-06 -0.04296585 -0.0030375249 -0.00721423 -0.009284019 0.07347228
-0.106278196 0.15587188 -0.00023577691 0.07087722 -0.008960992 -6.211966e-05 0.07827756 -0.06299846
-0.026739318 -0.0029022342 -0.0058235484 0.06693444 0.14788118 0.053653598 -0.13565795 -0.0063431393

output_b f4 [5]
00000000: 73fc e93c 7ed8 f7ba 0f6a 6cbf b42b 64bf
00000010: ac2c 9bbd
0.02856276 -0.0018909124 -0.9234933 -0.89129186 -0.0757688

embedding_w.weight f4 [64, 4]
00000000: 57ed 673e 1f57 42bf 6cf7 1ebe d153 d63e
00000010: 2fef 8a3d c1f9 b53f 7f31 75bd 0e4e b93e
00000020: 7ab2 90bf 4a13 2cbf 7220 22be e8cf d5bd
00000030: 7434 c99f 324a 2b29 38a1 cb2f 4065 8f31
00000040: 5cf7 f0bc c75e 26bd c65f c0bc d8b3 3c3c
00000050: c9fa 4d3f a314 0abf 2f5c ff3e c5ae f23e
00000060: 2655 113f f641 513f ded5 033e e75c b33c
00000070: de2a 133a 66df d4b7 0ec3 6eb9 a573 3c3a
00000080: 27fc 8d3c 05db b83e 7e63 253d ac97 b13e
00000090: b96a 3b3c e3cf d7bb 57d9 aa3b 5da0 8eba
000000a0: f4b6 1bbf c84b d03e deca d83e 4883 cfbe
000000b0: e779 05bf ebd5 a43c acb4 01bf 826b 943c
000000c0: 0418 1e3f 0b94 b0be 8441 25bf cae2 d13e
000000d0: 5b2f 863f dac7 a73e e3b7 343e 72ff 253e
000000e0: 5ad8 0a3e 81ec 353d 1bb0 b03e af31 103e
000000f0: 58fa 953d 9f5c b73d 8846 933d 34ba eebd
00000100: 37b4 cf3d d5f5 083e c2a1 703e 7cb0 12be
00000110: 4f05 05bc f377 18bc 5cf1 69b8 2b22 9dbb
00000120: ef32 bb3e 0014 00bf e95d cc3e 32df f2be
00000130: c1d7 8b3f 9df8 a43e 39aa 8dbf 2a00 a5be
00000140: 23dc 4fbb d60f dfba b99b b33b 39b9 39bb
00000150: fef1 d93d 368d 873d b366 ec3e 28b2 69bd
00000160: c6f5 e93b 0009 d9bb b6fc 013c 9f68 303c
00000170: 9746 24ae 1510 e0b5 bc0f d12b f226 b736
00000180: 6962 b5be 3b12 903e ea74 323f 691b 1b3e
00000190: a6dd 1a13 12f8 0225 a0b8 4016 b4e3 f02a
000001a0: 807e 4bbf 7003 94bf 8596 763e 6921 85bf
000001b0: 57ed 7fbb b120 c1b9 727b 783b e048 75b8
000001c0: 920a acbf 9920 45bf f6dc 1bbc d3db 013e
000001d0: 78d6 1ebf 451a 12bf 70fd 253f 3746 213f
000001e0: f0b3 903e ff3e 813e 546f 993e c059 92be
000001f0: 356e 31bf 8ae7 613e 6a0c 10bc ffd9 603e
00000200: f7b6 36bf c320 2e3f 28ce 12be 3c98 acbe
00000210: e052 7f3e 7953 943f db2f b9bd a8a6 dcbe
00000220: d02c be3f 2a4f 55be 2294 353e a57f f13e
00000230: d46b 603f ad31 273f ce83 223e fa12 4a3e
00000240: a963 33bf 4df0 a83f 4a2e d4bc 2bd5 203f
00000250: 2e34 a93f 79dc 7ebf d01d 813e df4b babe
00000260: f307 e8bc b29b 1cbd 8b0e 7dbc ebb5 1dbc
00000270: 2413 58be d45a 9a3e 0549 873e 5a65 bcbb
00000280: c91e c03f 5a48 f03e 01fd 303e d3d1 853e
00000290: 9c65 573b 7a97 27bc 1848 d0bb 446c f3bc
000002a0: 227a 491e 101c 9715 4019 7318 f0e9 48ae
000002b0: fb98 2abe e25b 5b3e 0e49 bf3e 442a ae3d
000002c0: cf92 3bb0 585f 0bb9 58dd 01b2 714b 3bba
000002d0: 548c debc 7b9d 06bc 786a 20bc 70cd 59bc
000002e0: 7c75 c53d cc12 853f 27dd 1abd dacf 90bd
000002f0: f2ca a8be f658 283f 9144 c13d a7d4 3cbd
00000300: 42b6 e63d 380b be3e 389e afbc facd 423e
00000310: a6a5 2ebf 2976 a0bf 22e6 32be 2f01 083e
00000320: a477 9131 4bd2 06ba 2830 17a2 1077 0c2f
00000330: a945 a3bf 5b01 833f a689 60be e528 3c3e
00000340: 9a28 aa3c ab17 c0ba 57f0 1a3c c50a 033c
00000350: b4d4 6936 c00d a61b 75cc 45b8 501a fd1a
00000360: 5ba9 bb3e 46a1 81bf 5dcb dfbd ef2a b4bc
00000370: 1816 4e3f a2ca f9be 5023 c13d ad5e acbe
00000380: e285 303f ac41 1ebf 347b 80be 69ee 873e
00000390: ea26 9ab6 88cd 9939 eb31 ecb3 08ff 773b
000003a0: 2e9e 3b3a 09f4 323a fd4b 89bb 8c94 cdbb
000003b0: a5ed 88bf a8c4 31bf 5cf9 bfba 0c3a 443d
000003c0: 75ef 0bbf 4d7b 86bf 74c5 5abe 5e00 bb3c
000003d0: e0be 743f 5601 883f 2dc5 b43d 4b09 5dbb
000003e0: 55e9 04bf 5999 af3e 9a3f 6f3d 31fb 163e
000003f0: e6f1 92bf dab0 2c3f ddec 59be b924 ddbd
0.22649132 -0.75914186 -0.15524071 0.41860822 0.06783902 1.4216844 -0.059861656 0.36192364
-1.1304467 -0.6721693 -0.1583269 -0.104400456 -8.521359e-20 3.803398e-14 3.7040038e-10 4.1733585e-09
-0.029414825 -0.04061773 -0.023483168 0.0115174875 0.8046079 -0.5393774 0.49875018 0.47398964
0.5677055 0.81741273 0.12874553 0.021894885 0.00056139927 -2.5376397e-05 -0.00022770112 0.0007188863
0.01733215 0.361046 0.040378086 0.3468603 0.011439019 -0.0065860613 0.005213897 -0.0010881532
-0.6082604 0.40682817 0.42342275 -0.40529847 -0.52139133 0.020121535 -0.5066631 0.01811767
0.61755395 -0.34487948 -0.64553094 0.4099334 1.0483202 0.32769662 0.17648272 0.16210726
0.13559094 0.044415 0.34509358 0.14081453 0.0732314 0.08953213 0.07191187 -0.11656609
0.10141795 0.13375027 0.23499206 -0.14325136 -0.008118941 -0.009305942 -5.5776312e-05 -0.004795333
0.36562297 -0.5003052 0.39915398 -0.4743591 1.0925218 0.32220927 -1.1067573 -0.32226688
-0.0031716905 -0.0017018269 0.00548121 -0.002833916 0.106418595 0.06618731 0.46172103 -0.05705467
0.007139894 -0.0066233873 0.007933786 0.010767131 -3.735198e-11 -1.6693981e-06 1.485471e-12 5.458359e-06
-0.35426643 0.2813891 0.69709647 0.15147175 1.9546814e-27 1.1359752e-16 1.5567894e-25 4.2790565e-13
-0.794899 -1.1563549 0.24080856 -1.0400821 -0.0039051378 -0.00036836186 0.0037915376 -5.8480422e-05
-1.3440726 -0.77002865 -0.00951313 0.12681513 -0.62046003 -0.57071334 0.6483984 0.62997764
0.2826228 0.25243375 0.2996775 -0.285841 -0.6930879 0.22060981 -0.008792022 0.21958159
-0.7137293 0.6801874 -0.14336455 -0.33709896 0.24933958 1.1587974 -0.09042331 -0.430959
1.4857426 -0.2083098 0.1773229 0.47167698 0.8766453 0.65310174 0.15870592 0.19733801
-0.70073944 1.3198334 -0.025900979 0.6282527 1.3219049 -0.99555165 0.25218058 -0.3638601
-0.028324103 -0.03823442 -0.015445362 -0.009625892 -0.21101052 0.3014742 0.26422897 -0.0057493867
1.5009395 0.469302 0.17284013 0.26136646 0.003286696 -0.010228986 -0.0063562505 -0.029714711
1.0666108e-20 6.103269e-26 3.1419762e-24 -4.5682513e-11 -0.1665992 0.2142177 0.37360424 0.08504155
-6.823883e-10 -0.00013291591 -7.559116e-09 -0.00071447255 -0.027166523 -0.008216257 -0.009791009 -0.013293609
0.09641549 1.0396361 -0.037808564 -0.070708945 -0.32967335 0.65760744 0.09436906 -0.04610124
0.11265232 0.37117934 -0.02143775 0.19023886 -0.6822151 -1.253606 -0.17470601 0.13281702
4.233657e-09 -0.00051430304 -2.048981e-18 1.2775225e-10 -1.2755634 1.0234789 -0.21927509 0.18374975
0.020771313 -0.0014655491 0.009456716 0.007998173 3.4843515e-06 2.7471282e-22 -4.7158876e-05 1.0468086e-22
0.36652645 -1.0127342 -0.1092746 -0.021993129 0.8050246 -0.4878741 0.094305634 -0.33665982
0.6895429 -0.6181896 -0.25093997 0.2654908 -4.594088e-06 0.00029335567 -1.09986864e-07 0.003784122
0.00071570545 0.0006826525 -0.0041899667 -0.0062738117 -1.0697523 -0.694407 -0.0014646458 0.04790692
-0.5466226 -1.0506378 -0.21364385 0.022827324 0.9560375 1.0625408 0.08826671 -0.0033727463
-0.51918536 0.34296682 0.058410265 0.1474426 -1.1480072 0.67457354 -0.21281762 -0.1079802

embedding_w.bias f4 [64]
00000000: 4124 be3d 94b5 2b3e 3272 0c3e 8075 5cb8
00000010: 7415 98bc 9b9b 8fbc c836 10bd 67a2 85bb
00000020: bab6 0a3e d0b4 a8bb 39c2 6bbd 780c e73c
00000030: 2596 153e 10ad 2f3e 4d5e f4bc 0295 91bc
00000040: d987 a6bc c258 efbb 85d1 0a3e 740b e2bb
00000050: c2e0 fabb 4f7f 0ebd a06f 9f3c cd68 23b8
00000060: dec7 7fbd 9d07 8bb6 5afa b6bd 6084 c7bb
00000070: 9bde 1a3e 5bc2 033e 9374 04bd a880 6dbd
00000080: 1e26 203e 2b57 133d ae8e c73e aedb 903e
00000090: 807d d43b 0e0e 58bd 16c5 23bc d303 d13d
000000a0: 34b6 763d 8fbe 33bc dafb 91b6 f6fc 2fbd
000000b0: 3611 47bb 5965 ecbb 8461 14bd 48b1 b8bd
000000c0: a9f4 8d3d 6a43 123e e23a 77b9 4757 e7bd
000000d0: 20d1 12bc 3d46 82b8 9a5e 833d 5605 81bd
000000e0: 9ee8 0ebb 6933 3ebb 77d3 bebb 2444 b03e
000000f0: 8c08 f0bd 2255 30be 6957 da3d 1cb7 76be
0.09284259 0.16768485 0.13715437 -5.2561518e-05 -0.018564917 -0.017530253 -0.035208493 -0.0040781978
0.13546267 -0.0051485077 -0.057558272 0.028204188 0.14608057 0.17155862 -0.029830122 -0.017771248
-0.02032845 -0.007304282 0.13556488 -0.006898338 -0.0076561878 -0.03478938 0.019462407 -3.895983e-05
-0.062446468 -4.143409e-06 -0.089344695 -0.0060887784 0.1512398 0.1286711 -0.032337736 -0.057984024
0.1563954 0.0359718 0.38976043 0.28292602 0.0064846873 -0.05274778 -0.009995719 0.102058075
0.060232356 -0.010970726 -4.350656e-06 -0.04296585 -0.0030375249 -0.00721423 -0.03622581 -0.09018189
0.06931431 0.14283529 -0.00023577691 -0.11295944 -0.008960992 -6.211966e-05 0.06414528 -0.06299846
-0.002180613 -0.0029022342 -0.0058235484 0.34426987 -0.1172038 -0.17219976 0.106612034 -0.24093288

embedding_t_w.weight f4 [1, 8]
00000000: b10a 763f 5203 b0be 66dc 333e 3efb 0cbf
00000010: 39fd c93c 963e 293d 7cf2 043f bb9b 2bbf
0.96110064 -0.34377533 0.17564544 -0.55070865 0.024656879 0.041319452 0.519325 -0.670345

lstm.weight_ih f4 [512, 65]
00000000: 6950 bd3c 9f75 a0bc f69b fcb9 e8a5 f430
00000010: 8c1f c4b9 6650 7fbc 7a54 b7bc 5821 c0b8
00000020: 7b4e 29bc 8cca 7c97 be14 853c 4761 023d
00000030: 941a ed3b 4f32 cabc 62ba 0cbc bf76 303a
00000040: ce36 e3ba cb74 6eb9 279c 42bc 09c9 58bc
00000050: 1ea2 90b9 49c7 86bb a8f2 a13a e0b3 8fb3
00000060: 3b9e 19bc 08dd 3fb7 612b 11bc cc61 dab8
00000070: 37dd 51bc 964b b93b fd7b aeba 1f7a 2b3c
00000080: f4a7 b53c f2b2 913c a261 78bd effe 1ebd
00000090: 9f2d 39bc f7c5 20bd 6cb8 863a 5ff0 99bb
000000a0: 2a50 02bd 8050 652d 1e51 3bb6 e82f f3bb
000000b0: 23ad 0480 1013 d339 0006 eb3a d502 e73b
000000c0: 62ff 2bbc cf4a c03b 524b ecb8 f255 b93b
000000d0: dca4 8e35 5a5e c536 3455 abbb d82b 27bc
000000e0: d1e0 f23b 757e 0080 b6ff 69b3 ca32 0dbc
000000f0: 89e0 873c 6255 d3bc 6784 ca3b 4c6c ae3c
00000100: 95d1 47bc 64a8 aa39 1b7a 09bd 8437 d0bc
00000110: 5ddf 94b6 e7c5 3038 0e5a 59bc 2aa1 bbba
00000120: 6caf 19b6 82be 5dba 76ec 1136 3f13 453c
00000130: 57ef 3c3c a457 39bc 1e74 85bc dbd3 b5bb
00000140: 642c 9c3b 2ceb 6e3b cad2 80b4 8793 08bb
00000150: 4d0b bb3b ec32 a837 e0db 153b c0f3 0039
00000160: 7050 fcb6 c0f2 b3bb b828 dfb6 f536 b2bb
00000170: 8a54 85b5 5774 1abd 8dac 053c 9399 c33b
00000180: 3dbb 793b f123 6c3c 2409 ab3c 7be5 3fbd
00000190: af37 85bc 4998 2abc 77b1 71bc a80e 8c39
000001a0: 5320 6abb 10c3 b7bc bbb9 6d3a 484a 7436
000001b0: 745f a4bb 207c 8db5 be6c fa38 5233 893c
000001c0: adad 643c f031 493b 5441 c6bc 2cc0 5235
000001d0: 88e6 66b9 f497 6237 dca5 fab5 8931 a2bc
000001e0: 1dd1 edba 8dad 36bc d863 24b3 ac96 fb37
000001f0: 37c2 f3bc bfaa f9bb 9b22 c23a 14bd cf3a
00000200: 0f52 053c 38ae 9dbc 41e3 863c d399 50bc
00000210: 9483 533b cffe 6db6 93d2 46b6 110b 16ba
00000220: 2446 073b d532 fdb6 b6de 09bb f052 a133
00000230: 1653 943c 3adc 9d3c 1836 263b 11ed 80bc
00000240: 8843 5739 ee60 c93a b88d 983a ca3e 0736
00000250: 5262 bfbb 9402 e6bb dc33 ceb8 471f 9eba
00000260: fe97 9bbb c2f2 8cb5 ddf3 893b 140f 9936
00000270: 7197 f43b ebf6 27b6 7025 64b8 3ec8 ca3c
00000280: 68c3 b93a 32eb 7a3c ac21 9b3c c9c8 bc3c
00000290: eb8a 03bd b714 a6bc 3218 503c a3da d8bc
000002a0: 229d 8e3a 41ce 303b b379 a6bc c430 e037
000002b0: f8b6 b4b8 80a8 0a3b 8825 35b7 0830 0f3b
000002c0: e03f 8e3c c751 733c c497 1ebb 1141 2c3c
000002d0: b40e f638 cf10 443c 8873 b4b7 fe55 10b7
000002e0: 8425 3dbb 6aae febb fcdb 673b b0f0 a13a
000002f0: aae7 0838 bc92 023b de3d c93c 869a 023b
00000300: 6d34 543c 0b64 133c dcd7 debc cbbe 05bc
00000310: 7452 21bd 7499 3cbc 81ff 8936 db50 ecb6
00000320: c109 23bc 56d4 06bc f841 cdb6 d17c 93bc
00000330: 16f4 5db8 4e89 143c e4f2 82bb bb91 b1bc
00000340: e52e 1cbc b990 54bb d160 b73b 169e c43b
00000350: daa8 94b6 0610 e33b 004b 44bc acee 5a3a
00000360: 7804 da3b 7a9d 27bb 3406 59b7 4076 3339
00000370: cb1f 1636 ee93 6b3c 1e80 28b6 c09f bebc
00000380: 2229 51bc 7bb2 033c a5f9 63bb 775e 193b
00000390: c346 433b cf6f 0cbd ad29 85bc 46c5 e7bc
000003a0: 5145 13bb 5f1a 6d39 fa7f 80bb 3a99 75bc
000003b0: 9758 11b8 b2ad c4b5 50c4 f6ba dc28 2236
000003c0: e479 b539 09ac 8abb 9e44 8fba 0609 4fbc
000003d0: 501b abbb 250a a6b6 5638 9cbc 78f9 cb38
000003e0: 1af8 c1b8 3b48 89bb 0ef9 233c f557 1fbb
000003f0: 823b ccb8 16c8 09b6 c172 7bbc 0f3f d93a
0.023109632 -0.019587336 -0.00048181386 1.780049e-09 -0.00037407537 -0.015583133 -0.022379149 -9.161484e-05
-0.010333653 -8.168124e-25 0.016245242 0.031831052 0.0072358344 -0.024682192 -0.008589359 0.0006731562
-0.0017335059 -0.00022740958 -0.01187805 -0.013231524 -0.00027586607 -0.004113112 0.0012355642 -6.6916755e-08
-0.009376104 -1.143595e-05 -0.00886044 -0.00010413266 -0.012809089 0.0056547625 -0.0013312098 0.010466128
0.022174813 0.017785523 -0.060639985 -0.038817342 -0.011302381 -0.039251294 0.0010278351 -0.004697844
-0.03181473 1.30350175e-11 -2.7912388e-06 -0.0074214824 -4.29452e-40 0.0004025926 0.0017930865 0.007049898
-0.0104979 0.005868293 -0.000112673864 0.0056559974 1.0627805e-06 5.8820415e-06 -0.005228663 -0.010203324
0.007412054 -4.5364e-41 -5.4482108e-08 -0.008618066 0.016586559 -0.02579755 0.0061803344 0.021291874
-0.012195964 0.00032550388 -0.033563714 -0.025417097 -4.4367466e-06 4.214598e-05 -0.0132661 -0.0014314998
-2.2900886e-06 -0.0008458869 2.1744322e-06 0.012028514 0.011531672 -0.011312399 -0.01629072 -0.005548937
0.004766034 0.0036456091 -2.3995227e-07 -0.0020839886 0.0057081343 2.0050873e-05 0.0022866651 0.00012297835
-7.5195494e-06 -0.0054915845 -6.650658e-06 -0.0054386803 -9.933876e-07 -0.037708607 0.008158815 0.005969235
0.0038105987 0.014412866 0.020878382 -0.04684971 -0.016261904 -0.010412284 -0.014751784 0.000267138
-0.0035724833 -0.02243188 0.00090685085 3.640207e-06 -0.0050162617 -1.0541444e-06 0.00011941184 0.016748104
0.013957423 0.003069993 -0.024201073 7.8510743e-07 -0.00022020389 1.3506029e-05 -1.8674723e-06 -0.01979901
-0.0018143986 -0.011149776 -3.8275033e-08 2.9991694e-05 -0.029755695 -0.0076192315 0.0014811339 0.0015849196
0.00813724 -0.019248113 0.016465785 -0.012731987 0.0032274472 -3.546407e-06 -2.962687e-06 -0.0005723695
0.0020641172 -7.545905e-06 -0.0021037287 7.512233e-08 0.018106025 0.019270051 0.0025361832 -0.015738042
0.00020529155 0.001536397 0.0011638915 2.0153116e-06 -0.005840578 -0.0070193503 -9.832505e-05 -0.0012063765
-0.0047483435 -1.0501465e-06 0.004209979 4.5615107e-06 0.0074643423 -2.5028664e-06 -5.4394302e-05 0.024753686
0.0014172615 0.015314864 0.018936954 0.02304496 -0.032114904 -0.02027355 0.012701081 -0.026471442
0.001088057 0.0026978406 -0.020321703 2.672559e-05 -8.6171494e-05 0.0021157563 -1.0797179e-05 0.0021848697
0.017364442 0.01485104 -0.0024199346 0.01051356 0.00011732933 0.011966898 -2.151147e-05 -8.6030905e-06
-0.0028861472 -0.0077722566 0.0035378924 0.0012355056 3.264068e-05 0.0019923886 0.024565633 0.001992853
0.012951952 0.00899602 -0.02720254 -0.008163164 -0.039385274 -0.011511195 4.1126627e-06 -7.042761e-06
-0.009951056 -0.008229336 -6.117156e-06 -0.018003853 -5.291783e-05 0.009065939 -0.00399624 -0.021675935
-0.009532665 -0.0032434894 0.005596258 0.0060002906 -4.4304006e-06 0.0069294004 -0.011980772 0.0008351605
0.0066533647 -0.002557604 -1.2935652e-05 0.00017114822 2.2370248e-06 0.014378531 -2.5108525e-06 -0.023269534
-0.0127661545 0.0080381585 -0.003478625 0.0023402253 0.0029796816 -0.034286316 -0.016255224 -0.02829231
-0.0022471736 0.00022611905 -0.003921506 -0.014990145 -3.46532e-05 -1.465369e-06 -0.0018826816 2.4163664e-06
0.00034613826 -0.004231934 -0.0010930484 -0.012636429 -0.0052217618 -4.9483665e-06 -0.019069832 9.7262615e-05
-9.24917e-05 -0.0041895187 0.01000811 -0.00243139 -9.738562e-05 -2.0531056e-06 -0.015347184 0.0016574579

lstm.weight_hh f4 [512, 128]
00000000: a48b 26bb c097 d139 4aca 3dba bce7 ca3a
00000010: a3c1 90bb e275 7bbc b432 cfbb 7f12 f33b
00000020: e053 28b9 f0d0 9fbb 8839 e739 9407 92bc
00000030: 6ed5 e23c f479 e0bb 89fa 43bb 64a8 f7ba
00000040: 1833 1f3c 17b9 3e3b f60c 133b 2bb5 e73b
00000050: e9d8 883b 8cdf 22bb cca8 ab3a 001c 5539
00000060: bba6 7cbb 9ece 91bb 689e 20ba 6291 bc3a
00000070: 2e4e 4fba 0b14 e6ba 42c0 0c3c 9ce5 7b3b
00000080: 5e55 98bb 22b2 d9ba b8e0 b0bc 808e 19bb
00000090: 6591 8e3a ba4a e33a 24fa 823c b7c2 cebb
000000a0: 5185 95ba 6a0e fabb e8d8 03bd da4e 59bc
000000b0: 55bd 29bb 161c f4ba f0a9 403a 07d9 f0bb
000000c0: 83b4 873c 2030 30b9 97b2 da3b 245a 383a
000000d0: 4b80 21bc 8611 aa3a 0000 ce37 e029 3fbb
000000e0: 5db9 d5bb 625c a03b c237 91ba 1476 3abc
000000f0: 1e38 aa3b 88c9 a4bb f815 c5bb 1e74 a73a
00000100: 8e77 81bc b410 723a 019e e3ba e391 003c
00000110: ce18 2abb 6e02 17bb 861a b43a c691 9d3b
00000120: 44c7 1bbb fc69 81b9 c740 993b d8a3 85b9
00000130: cc10 94ba 8bea f6ba b23b 233d 7626 d7bb
00000140: e9b3 0abb 3ca6 47ba 7619 b53a 3202 f23a
00000150: 1a50 ae3b a45d cabc 800f 87ba 2ec8 4e3c
00000160: ec10 eb3a 12d5 b23a 76ce c93a 021a d0bb
00000170: 0f09 9f3b 7af4 fe3b e06b c438 f42a bdb9
00000180: 93e3 723b 9862 72bb 5890 c639 7e0b 04bb
00000190: 00d1 f3b8 2aac 0bbb 1755 853b 7c5e 603b
000001a0: cbbc 093c 9913 2cba e05b 85bb 8074 e53c
000001b0: 77d4 94ba 284a b33b 21b1 11bb afd5 92bb
000001c0: f593 11bc a07f a8bb e0fe 8d3b ad7b e23a
000001d0: 3c9d 9cbc 6da4 1bbc 9c9f b13b 23ba a23a
000001e0: 0c58 053c 760d 103b b657 433a ae52 053b
000001f0: c8d7 7ab9 1cc5 0cbc 2c7f 203b 8036 61b7
00000200: 380c ed3b e62d ea3b 50f6 283a cf95 21bc
00000210: 6db6 ddba e25d 13bc 3164 7c3b 297c a8bb
00000220: 7b66 72bb dd73 3c3b bb90 6ebb 25ff aabb
00000230: 675f 073d 1cbf 003a fd11 583b e529 183c
00000240: f228 453c 9eee 7f3a 71f8 963a b533 0a3c
00000250: e0fa 20bb 0817 0abc 6e40 d53a b8d9 ccbb
00000260: 0dbb 603a b19f d03b da32 d03b 3d81 59bb
00000270: d1a4 af3a 4931 cb3b c6f7 a33c ee6f 853b
00000280: 2a43 3a3b 6900 5d3c 4a59 0e3c 9cd9 8839
00000290: 41b6 c33b ba33 fa3b f535 b43b 408e 4b3b
000002a0: ebc0 21ba 5015 00bb f0e4 78bc 40e6 643c
000002b0: b103 763b 7d09 e33b 2b86 afbb 30bb 153c
000002c0: afb7 50bc d03c e9bb e3b4 773b 6aed 9539
000002d0: 04b3 e43b 48b7 e43b ae50 99bb 6404 96bb
000002e0: 3af2 863b c0be 9637 5e79 9cbb 6abb 6dbc
000002f0: 7673 28bc be19 88ba 6255 e6bb 48b4 f2bb
00000300: 360b 68bb 7842 a939 e1e7 c13b a378 adbb
00000310: 4799 c13b 6cea a03a db77 733b d701 dfbb
00000320: 4032 d03b 8006 d23b 082a 4b3b 0d53 ec3a
00000330: 5cbe 09bc 3fef 473b e02d a23c 2c56 bcbb
00000340: bfd2 13bc 9c3a f43b 6d39 573b ae15 843b
00000350: ec85 95b9 8fda 82bc 5367 d2bb 81d9 bd3a
00000360: 8340 a0bb 3810 b5bb 3a76 d73b bc5c 953b
00000370: a13b cfba 8042 c9b9 b2b7 de3b 2f02 f33b
00000380: 71ea e1bb d4d6 443c 18af abb9 9404 993b
00000390: 4a9a ffbb 4b83 a5bb 5649 16bc ba08 5ab9
000003a0: 40c3 99ba 2be6 ac3a ce88 383c 34ad 923c
000003b0: 2cd0 ecb9 268f 2ebb cc17 bd3b bed4 183a
000003c0: 5c17 5dbc a8a5 b73b 0a19 cf3a baa3 0abb
000003d0: c6c2 5c3c d35b 893b 2e4f 39bc e779 cebb
000003e0: a39d 2bbb c4b0 b9bb 8fc6 08bc 3eac 56b9
000003f0: f6a1 593b a77b a93b 67d6 99bb c858 ac3b
-0.0025412822 0.0003997665 -0.0007239921 0.0015480439 -0.0044176145 -0.01534793 -0.006323183 0.0074179764
-0.00016052974 -0.004877202 0.00044102618 -0.01782588 0.027689662 -0.0068504754 -0.002990397 -0.0018894789
0.009716772 0.0029102021 0.0022438145 0.0070711575 0.0041762483 -0.0024852483 0.001309657 0.00020323694
-0.0038551528 -0.0044496795 -0.000612712 0.0014386589 -0.0007908073 -0.0017553581 0.00859076 0.0038436418
-0.0046488484 -0.0016608874 -0.02159153 -0.0023430884 0.0010877071 0.0017340996 0.015988417 -0.006309833
-0.0011407529 -0.007631113 -0.03218928 -0.013263429 -0.0025900204 -0.0018624093 0.00073495414 -0.0073500904
0.016565567 -0.00016802596 0.0066741216 0.0007032475 -0.009857248 0.0012975193 2.4557114e-05 -0.0029169247
-0.006522341 0.0048938254 -0.0011079239 -0.011380691 0.005194678 -0.005028907 -0.006014582 0.0012775694
-0.015804078 0.00092340563 -0.0017365814 0.007847282 -0.0025954726 -0.002304222 0.0013740815 0.0048086373
-0.0023769895 -0.00024683762 0.0046769115 -0.0002548981 -0.001129651 -0.001883821 0.03985185 -0.006565864
-0.0021164364 -0.00076160184 0.0013816792 0.0018463789 0.0053196074 -0.024702854 -0.0010304302 0.012620969
0.001793412 0.0013643822 0.0015396613 -0.0063507566 0.004853375 0.0077806087 9.3661016e-05 -0.00036080892
0.0037061914 -0.0036985036 0.00037873047 -0.0020148451 -0.00011626072 -0.0021312335 0.0040689814 0.0034236005
0.008406828 -0.00065641996 -0.0040697902 0.028009653 -0.0011354823 0.0054714866 -0.0022230821 -0.0044810395
-0.008885373 -0.005142167 0.004333362 0.001727929 -0.019117944 -0.009499651 0.0054206382 0.0012415092
0.008138668 0.002198068 0.00074517296 0.002034347 -0.00023922243 -0.008591916 0.0024489863 -1.3423734e-05
0.0072341226 0.007146585 0.0006445395 -0.009862377 -0.0016915329 -0.008994551 0.0038511867 -0.005141754
-0.0036987353 0.0028755583 -0.0036402184 -0.005218404 0.033049967 0.000491129 0.0032969706 0.009287332
0.012033688 0.0009763035 0.0011518133 0.0084351795 -0.0024563596 -0.008428343 0.0016269812 -0.00625154
0.00085727946 0.006366693 0.006353718 -0.0033188604 0.001340056 0.0062009436 0.020015609 0.004072181
0.002842138 0.013488867 0.00868828 0.00026102073 0.005972654 0.007635561 0.0054995962 0.003106013
-0.00061704096 -0.0019543953 -0.015191302 0.0139709115 0.0037538821 0.0069286213 -0.0053565702 0.009138867
-0.012739106 -0.007117845 0.0037797026 0.00028596382 0.006979348 0.0069798566 -0.004678807 -0.00457816
0.004118231 1.7970218e-05 -0.0047752103 -0.014510015 -0.010281434 -0.0010383648 -0.0070292214 -0.007406745
-0.0035407073 0.00032283715 0.0059175347 -0.005293922 0.0059081647 0.0012276894 0.0037150297 -0.0068056392
0.0063536465 0.0064094663 0.0031000394 0.0018030122 -0.008407202 0.0030507592 0.019797266 -0.005747577
-0.009022414 0.007453276 0.0032840625 0.0040309047 -0.00028519274 -0.015973357 -0.0064210086 0.0014484377
-0.004890503 -0.005525615 0.006575373 0.004558174 -0.0015810617 -0.00038387254 0.0067968005 0.007416032
-0.0068944027 0.01201411 -0.00032746117 0.004669735 -0.007800375 -0.0050510517 -0.009172758 -0.00020793351
-0.0011731163 0.0013191154 0.0112630855 0.017904855 -0.00045168528 -0.0026635616 0.005770659 0.0005830041
-0.013494339 0.0056044646 0.0015800309 -0.0021154718 0.013474172 0.0041918545 -0.011310382 -0.006301153
-0.0026186488 -0.005666824 -0.008348121 -0.00020472796 0.0033208109 0.005172211 -0.004694748 0.005259607

lstm.bias_ih f4 [512]
00000000: 674f a6bd 9db9 aabd c5e2 72bd d0e6 87bd
00000010: 2129 54be d0c8 7b3e f546 30bd 5c2d a6bd
00000020: 16d2 80bd 3aa3 94bd 9733 90bd fac2 743d
00000030: e55e 7d3e 2735 f0bd 0035 9bbd a3da 6cbd
00000040: ee59 14be e7ee 88bd ef84 a5bd 18af c9bd
00000050: 7065 aabd cc34 9abd b8f7 85bd f20f 88bd
00000060: 5071 87bd 8dbb 96bd d3e9 9cbd c624 aebd
00000070: 57b6 9cbc 14a7 98bd e9e9 64bc 682e 67bd
00000080: 9c35 83bd 86d4 40bd c682 85bc 1363 c5bd
00000090: 230e 98bd e082 97bd 48c6 9d3e 1071 3cbd
000000a0: d5df 67bd f6d0 96bd 0cff e13e 4a55 323d
000000b0: 1bd7 93bd 1c1b 75bd 11ef a6bd 8f99 20bd
000000c0: a0eb 47bd b279 8fbd af9e b9bd e4e2 84bd
000000d0: dae3 59bd 6c9c 9cbd 7be5 8abd 6ef1 70bd
000000e0: c651 51bd 4a9a e0bd a392 a2bd 7dba c8bd
000000f0: dfc1 4bbd b1ec 27bd 985e 97bd c225 b5bd
00000100: 89d3 cfbd b442 cabd c61e aabd f5cf 95bd
00000110: 9845 69bd 9f22 c0bd 0bf9 a9bd ab4f 8ebd
00000120: a4c5 9cbd b72a 97bd 2feb a8bd 218f 90bd
00000130: 8418 31bd 72db a1bd 412c 083f 6e16 9ebd
00000140: 83e4 56be ad11 8abd bcea 86bd 69d4 a4bd
00000150: 6eec 8abd 8b54 f53e b423 86bd 8a9c c9bd
00000160: ca79 9abd d5b3 c3bd deb8 a1bd daee e7bd
00000170: 6afb 6abe 5587 9abd 798b 8abd 925f 9cbd
00000180: b34f 63bd 2714 78bd 923e 56bd 73d7 debd
00000190: ef4b adbd cf74 92bd 5986 bdbd 7856 aabd
000001a0: fddd 43bd 006e adbd f228 6cbd 4225 e43e
000001b0: 216f 8bbd 9f1d 39bd bbd1 84bd 6119 87bd
000001c0: ed35 1fbe 4713 87bd 59cb d1bd f86b 92bd
000001d0: 9c64 d7bc 34bd 90bd f131 84bd cd03 c4bd
000001e0: dfd9 edbd d20d 89bd cb98 babd 34b9 bfbd
000001f0: 2968 e1bc f197 68bd 872f a5bd a269 acbd
00000200: 54c4 c0bd f687 69bd 891c 8abd 0ceb 3bbd
00000210: 70f0 19bd 67b3 c1bd e9f8 97bd 2ef0 7bbd
00000220: 9a40 9ebd a031 74bd d3e8 88bd 0adc f5bd
00000230: 8221 f03b 81d1 8cbd f87e 9cbd aec2 39bd
00000240: a25b 06bf bb0f 70bd 7efe a2bd c81e cfbe
00000250: 17f3 83bd f60a 82bd b933 79bd 70e7 86bd
00000260: 9587 54bd e209 61be b418 9bbd 6a7d 90bd
00000270: 6edf eebd bec1 44bd d9b9 88bc 7a3f 67bd
00000280: e556 7cbd 31f0 11bd f184 bebd 2622 9dbd
00000290: c245 8bbd 6a76 74bd b781 babd 3818 8bbd
000002a0: 5f5b 3dbd a2c5 7dbd 3763 893e 6b50 dabd
000002b0: 652b a2bd 9da6 60bd e6b2 83bd 626b 0ebd
000002c0: 9c54 fdbd 0266 1ebd d635 88bd f5be a5bd
000002d0: 0c08 96bd 5979 86bd c451 6fbd d25d 63bd
000002e0: d691 9bbd caeb 94bd 3f4f 80bd 9d46 91be
000002f0: 91c1 32bd 4ae7 0fbe fc8a 80be 1ed1 8cbd
00000300: f229 58be a310 96bd 372c 9bbd 098a 86bd
00000310: 7f73 59bd 8972 b4bd 5467 a3bd ec62 76bd
00000320: 5348 b9bd a838 7ebd ace0 84bd b488 59bd
00000330: 2cc0 7ebd 4959 97bd 8739 9a3e 66a6 8abd
00000340: b5c9 a5be 8096 7abd dc20 5cbd b26a 42bd
00000350: 58a9 bbbd 6130 8f3e 06f8 52bd da36 c2bd
00000360: 388f 96bd 7759 9abd ca8b a3bd 24d4 9fbd
00000370: 2926 8fbe 4392 91bd 0ba1 51bd 037c 86bd
00000380: cd72 30bd 5913 36bd 28d5 46bd bfc5 d7bd
00000390: 1044 81bd 079e 6fbd d8ff 81bd cef7 89bd
000003a0: a874 66bd ff70 9dbd e36b 50bd 7000 663e
000003b0: cbfa 41be ca27 12bd a966 75bd 61ae 9abd
000003c0: 4580 8ebe ec2f 81bd 768f e7bd 3497 9bbd
000003d0: e384 b0bd 0b28 aabd 62d5 73bd e8a7 a8bd
000003e0: 8368 c1bd fa89 5dbd cd61 86bd 301b bdbd
000003f0: 4a73 77be fcbc 96bd 9fb9 70bd bfa8 84bd
-0.081206135 -0.08336184 -0.059298296 -0.06635821 -0.20718814 0.24588323 -0.04303642 -0.0811412
-0.06290071 -0.072576955 -0.0704109 0.059756257 0.2474323 -0.11728888 -0.07578468 -0.057825696
-0.1448743 -0.06686192 -0.08081996 -0.098478496 -0.08320129 -0.075296015 -0.06541389 -0.06643666
-0.066134095 -0.07359991 -0.07661786 -0.08503108 -0.019129915 -0.074537426 -0.013971784 -0.05644074
-0.064067096 -0.04707768 -0.01629771 -0.096380375 -0.07424571 -0.07398009 0.3081534 -0.046006262
-0.056609947 -0.07364075 0.44139898 0.04353837 -0.072187625 -0.059840307 -0.08151067 -0.039208945
-0.048808694 -0.070056334 -0.090634696 -0.064885885 -0.05319581 -0.076470226 -0.06782051 -0.058823995
-0.051103376 -0.10966928 -0.07938125 -0.09801195 -0.049745437 -0.04099721 -0.07391089 -0.08845092
-0.10147769 -0.09876004 -0.08306651 -0.07315055 -0.056951135 -0.093816034 -0.08299454 -0.06948789
-0.076548845 -0.07381194 -0.08247983 -0.0705855 -0.04323627 -0.07903184 0.53192526 -0.07719122
-0.20985608 -0.06741653 -0.06587741 -0.080483265 -0.06783377 0.47916064 -0.065497786 -0.098443106
-0.07542761 -0.095557846 -0.07896589 -0.11324854 -0.2294747 -0.07545344 -0.067648835 -0.07635416
-0.05549593 -0.060566094 -0.052305765 -0.108809374 -0.08461749 -0.07151186 -0.092541404 -0.08317274
-0.047819126 -0.084682465 -0.057656236 0.44559675 -0.068083055 -0.045194265 -0.064853154 -0.065966375
-0.15547915 -0.06595474 -0.102438636 -0.071495 -0.026293091 -0.07067338 -0.06454838 -0.095710374
-0.11613821 -0.06692089 -0.09111174 -0.093614966 -0.027515488 -0.056785528 -0.08065706 -0.08418585
-0.094124466 -0.057014428 -0.06743724 -0.045878455 -0.037582815 -0.094580464 -0.07420523 -0.06150835
-0.077271655 -0.05961764 -0.06685033 -0.1200486 0.007328213 -0.06875897 -0.07641405 -0.045351677
-0.5248357 -0.05860875 -0.07958697 -0.40453172 -0.0644285 -0.06349747 -0.060840342 -0.06587112
-0.051887114 -0.21976426 -0.07573071 -0.07055171 -0.116637096 -0.04803633 -0.016690182 -0.05645702
-0.061606307 -0.035629455 -0.093027 -0.07672529 -0.068004146 -0.05968324 -0.091067724 -0.06791729
-0.046229716 -0.061956055 0.26833507 -0.1065987 -0.07918433 -0.054846395 -0.064306065 -0.034770377
-0.123696536 -0.0386715 -0.066508934 -0.08093063 -0.073257536 -0.06566114 -0.058427587 -0.055509396
-0.075961754 -0.07271536 -0.06265115 -0.28374186 -0.04364163 -0.14053074 -0.25106037 -0.068758234
-0.21109751 -0.07327392 -0.07576793 -0.06569297 -0.05308866 -0.08810908 -0.07978693 -0.060152933
-0.09046998 -0.06206575 -0.06488165 -0.053108886 -0.062194988 -0.07390077 0.30122015 -0.06770019
-0.32380453 -0.061178684 -0.053742275 -0.047465034 -0.09163159 0.27966598 -0.051506065 -0.09483118
-0.073515356 -0.07536595 -0.07985647 -0.078041345 -0.279588 -0.07107975 -0.051178973 -0.06566622
-0.043078233 -0.044452045 -0.048543125 -0.10535764 -0.0631181 -0.058500316 -0.063476264 -0.06736718
-0.056263596 -0.07687568 -0.05088414 0.22461104 -0.18943326 -0.035682477 -0.059912357 -0.075527914
-0.27832237 -0.063079685 -0.1130666 -0.07597199 -0.08619096 -0.08308419 -0.05952967 -0.082351506
-0.09443762 -0.054086663 -0.06561623 -0.09233701 -0.24165073 -0.07360265 -0.058770772 -0.06477498

lstm.bias_hh f4 [512]
00000000: e673 a6bd 9db9 aabd c5e2 72bd d0e6 87bd
00000010: 4436 59be 09af 653e f546 30bd 5c2d a6bd
00000020: 16d2 80bd 3aa3 94bd 9733 90bd 8c6f 823d
00000030: 218f 853e dbfe efbd 0035 9bbd a3da 6cbd
00000040: ad42 0dbe e7ee 88bd ef84 a5bd 89b0 b9bd
00000050: 7165 aabd cc34 9abd b8f7 85bd f20f 88bd
00000060: 5071 87bd cd2e 9cbd d3e9 9cbd c624 aebd
00000070: 7c78 bdbc 16a7 98bd b204 80bb 682e 67bd
00000080: 9c35 83bd 86d4 40bd 46b7 85bc 1363 c5bd
00000090: 230e 98bd e082 97bd 48cf a13e 1071 3cbd
000000a0: d5df 67bd f6d0 96bd c7c2 e13e e90a 5d3d
000000b0: 1bd7 93bd 1c1b 75bd 11ef a6bd 8f99 20bd
000000c0: 1671 56bd b279 8fbd af9e b9bd e4e2 84bd
000000d0: c4e7 59bd 6c9c 9cbd 7be5 8abd 6ef1 70bd
000000e0: c651 51bd b88e e0bd a392 a2bd 44d5 c8bd
000000f0: e1c1 4bbd 2510 1dbb 1018 2abd c225 b5bd
00000100: 5f7d a9bd b442 cabd c61e aabd f5cf 95bd
00000110: 9845 69bd ad22 c0bd 0bf9 a9bd ab4f 8ebd
00000120: 0db7 9cbd b72a 97bd 2feb a8bd 218f 90bd
00000130: 8418 31bd 6cdb a1bd b623 083f 6e16 9ebd
00000140: b95c 6ebe ad11 8abd bcea 86bd 69d4 a4bd
00000150: 6eec 8abd 37a0 f63e b423 86bd b66d cabd
00000160: ca79 9abd d5b3 c3bd deb8 a1bd 66ec e7bd
00000170: d2cd 75be 5587 9abd 798b 8abd 925f 9cbd
00000180: b34f 63bd 2714 78bd 923e 56bd 3ac0 e0bd
00000190: ef4b adbd cf74 92bd 0186 bdbd 7856 aabd
000001a0: fddd 43bd fa6d adbd f228 6cbd 6da7 e73e
000001b0: 3d5c 9abd 9f1d 39bd bbd1 84bd 6119 87bd
000001c0: fd73 6fbe 4713 87bd 9fca d1bd f86b 92bd
000001d0: f680 d6bc 3b8c 90bd f131 84bd cd03 c4bd
000001e0: 3005 efbd d20d 89bd cf98 babd 51b9 bfbd
000001f0: 77ab e9bc f197 68bd 872f a5bd a269 acbd
00000200: 04c4 c0bd f687 69bd 891c 8abd 0ceb 3bbd
00000210: 52fa ffbc 949a d6bd e9f8 97bd 2ef0 7bbd
00000220: 9a40 9ebd a031 74bd d3e8 88bd d243 f6bd
00000230: b426 543c 86d1 8cbd f87e 9cbd aec2 39bd
00000240: 0aba f3be bb0f 70bd 7efe a2bd 1d54 eebe
00000250: 17f3 83bd f60a 82bd b933 79bd 70e7 86bd
00000260: 9587 54bd a787 60be b418 9bbd 6a7d 90bd
00000270: 525b eebd bec1 44bd 9bc5 6abc 7a3f 67bd
00000280: e556 7cbd 31f0 11bd 329b bebd 2622 9dbd
00000290: c245 8bbd 6a76 74bd 644e e3bd 3818 8bbd
000002a0: 5f5b 3dbd a2c5 7dbd 3936 893e 4765 b3bd
000002b0: 652b a2bd 9da6 60bd e6b2 83bd 626b 0ebd
000002c0: 6024 fdbd 0266 1ebd d635 88bd f5be a5bd
000002d0: 0c08 96bd 5979 86bd c451 6fbd d25d 63bd
000002e0: d691 9bbd c4eb 94bd 3f4f 80bd e633 90be
000002f0: 91c1 32bd cc0a 0fbe a0e6 84be 1ed1 8cbd
00000300: a233 57be a310 96bd 372c 9bbd 098a 86bd
00000310: 7f73 59bd 8972 b4bd 5467 a3bd ec62 76bd
00000320: 5148 b9bd a838 7ebd ace0 84bd b488 59bd
00000330: 2cc0 7ebd 4959 97bd 0e75 9a3e 66a6 8abd
00000340: a699 9cbe 8096 7abd dc20 5cbd b26a 42bd
00000350: 58a9 bbbd 3beb 8d3e 06f8 52bd f433 c2bd
00000360: 388f 96bd 7759 9abd ca8b a3bd 24d4 9fbd
00000370: e9e5 8bbe 4392 91bd 0ba1 51bd 037c 86bd
00000380: cd72 30bd 5913 36bd 28d5 46bd e2c6 d7bd
00000390: 1044 81bd 079e 6fbd d8ff 81bd cef7 89bd
000003a0: a874 66bd ff70 9dbd e36b 50bd a8cc 6c3e
000003b0: b0d9 4bbe ca27 12bd a966 75bd 61ae 9abd
000003c0: 9eb1 93be ec2f 81bd 728f e7bd 3497 9bbd
000003d0: ef83 b0bd 0228 aabd 62d5 73bd e8a7 a8bd
000003e0: 2271 c1bd fa89 5dbd cd61 86bd 301b bdbd
000003f0: 69b0 76be fcbc 96bd 9fb9 70bd bfa8 84bd
-0.081275746 -0.08336184 -0.059298296 -0.06635821 -0.21212107 0.22430052 -0.04303642 -0.0811412
-0.06290071 -0.072576955 -0.0704109 0.06368932 0.2608576 -0.11718532 -0.07578468 -0.057825696
-0.13794966 -0.06686192 -0.08081996 -0.090668745 -0.0832013 -0.075296015 -0.06541389 -0.06643666
-0.066134095 -0.07626114 -0.07661786 -0.08503108 -0.02312874 -0.07453744 -0.0039068097 -0.05644074
-0.064067096 -0.04707768 -0.016322743 -0.096380375 -0.07424571 -0.07398009 0.31603456 -0.046006262
-0.056609947 -0.07364075 0.44093916 0.053965483 -0.072187625 -0.059840307 -0.08151067 -0.039208945
-0.05235394 -0.070056334 -0.090634696 -0.064885885 -0.053199545 -0.076470226 -0.06782051 -0.058823995
-0.051103376 -0.109647214 -0.07938125 -0.09806302 -0.049745444 -0.0023965922 -0.041526854 -0.08845092
-0.08275866 -0.09876004 -0.08306651 -0.07315055 -0.056951135 -0.09381614 -0.08299454 -0.06948789
-0.07652102 -0.07381194 -0.08247983 -0.0705855 -0.04323627 -0.079031795 0.5317949 -0.07719122
-0.23277558 -0.06741653 -0.06587741 -0.080483265 -0.06783377 0.4816911 -0.065497786 -0.09884207
-0.07542761 -0.095557846 -0.07896589 -0.11324386 -0.24004295 -0.07545344 -0.067648835 -0.07635416
-0.05549593 -0.060566094 -0.052305765 -0.10974164 -0.08461749 -0.07151186 -0.09254075 -0.08317274
-0.047819126 -0.08468242 -0.057656236 0.45244923 -0.07537124 -0.045194265 -0.064853154 -0.065966375
-0.2338409 -0.06595474 -0.10243725 -0.071495 -0.02618454 -0.07057997 -0.06454838 -0.095710374
-0.11670911 -0.06692089 -0.09111177 -0.09361518 -0.028524144 -0.056785528 -0.08065706 -0.08418585
-0.09412387 -0.057014428 -0.06743724 -0.045878455 -0.031247292 -0.10478702 -0.07420523 -0.06150835
-0.077271655 -0.05961764 -0.06685033 -0.120246544 0.012948681 -0.06875901 -0.07641405 -0.045351677
-0.47602874 -0.05860875 -0.07958697 -0.46548548 -0.0644285 -0.06349747 -0.060840342 -0.06587112
-0.051887114 -0.21926747 -0.07573071 -0.07055171 -0.11638512 -0.04803633 -0.014329339 -0.05645702
-0.061606307 -0.035629455 -0.09306945 -0.07672529 -0.068004146 -0.05968324 -0.11098936 -0.06791729
-0.046229716 -0.061956055 0.2679918 -0.087595515 -0.07918433 -0.054846395 -0.064306065 -0.034770377
-0.123604536 -0.0386715 -0.066508934 -0.08093063 -0.073257536 -0.06566114 -0.058427587 -0.055509396
-0.075961754 -0.07271531 -0.06265115 -0.28164595 -0.04364163 -0.13968962 -0.25957203 -0.068758234
-0.2101579 -0.07327392 -0.07576793 -0.06569297 -0.05308866 -0.08810908 -0.07978693 -0.060152933
-0.090469964 -0.06206575 -0.06488165 -0.053108886 -0.062194988 -0.07390077 0.3016743 -0.06770019
-0.30585974 -0.061178684 -0.053742275 -0.047465034 -0.09163159 0.2771853 -0.051506065 -0.094825655
-0.073515356 -0.07536595 -0.07985647 -0.078041345 -0.27323845 -0.07107975 -0.051178973 -0.06566622
-0.043078233 -0.044452045 -0.048543125 -0.10535981 -0.0631181 -0.058500316 -0.063476264 -0.06736718
-0.056263596 -0.07687568 -0.05088414 0.23124945 -0.1990726 -0.035682477 -0.059912357 -0.075527914
-0.2884645 -0.063079685 -0.11306657 -0.07597199 -0.08618914 -0.08308412 -0.05952967 -0.082351506
-0.094454065 -0.054086663 -0.06561623 -0.09233701 -0.24090733 -0.07360265 -0.058770772 -0.06477498

output_w.weight f4 [5, 128]
00000000: 79ce 8ebc cd0e afbb ac18 0fbb 341a f63b
00000010: 490e 98bc 9939 c6bc a217 a3ba ecf0 a3ba
00000020: 69b9 cd3b b7bb 2ebc dcb7 863a 0db8 25bd
00000030: 1e48 81bc 9a26 99ba 6cfd 98ba 6094 d3b8
00000040: 5984 b4be 493b e4bb b869 393a 88e9 4c3e
00000050: 91a9 873b 2ed6 af3b dc29 c1bb 4792 6d3b
00000060: a1be 9b3b 79ea 313d d615 13bc 320b ec3b
00000070: 1832 0fbd 929d a33b 0226 113d d84f 1c3c
00000080: aff3 30bc 5e37 083c 0e85 f13b 3511 913b
00000090: 1cbe 90ba 8a44 bebb f975 ed3c 0d04 09bb
000000a0: a57f bf3b 1499 b63b de17 363c 6908 8dbd
000000b0: ccf7 363b ba79 a43a 829e 7c3b 50d5 f0b8
000000c0: 659b 2abc 7575 8c3b 7ab7 c4bb 4620 8fb9
000000d0: 5605 f93b be96 893a 37bf 84ba fbe2 e0bb
000000e0: 1f74 1eba 20e7 89bc 0d52 93ba 5266 993d
000000f0: b845 1ebc ff06 10be 1c3b c23d 1a37 d33b
00000100: b130 c9bc ada2 11bc 46fe 11bc 8ce6 99ba
00000110: 8bf1 95bc e441 43bc 7eee 8f3b 5014 393b
00000120: 7d8e 17bc 94b7 17bc c59a 9ebb f6af 913b
00000130: 2ff2 fb3b 8ef5 5f3a dd6a 45be 2847 fbba
00000140: 7874 933e 1adb e3ba fca1 abbb ac22 533b
00000150: 1abb d13a 8c86 2d3e 3aed 74bb ff1b 2dbd
00000160: fc43 a2ba 98c7 d8b8 c0a2 7138 95d9 4ebc
00000170: c0b0 b1bd e437 94bb 41e0 63bb 73fd 1dbc
00000180: 5ad4 5f3c 64a3 19bc bcb3 f53b 7617 7c3c
00000190: 08ba 993b eb77 8a3b e092 453c 0d1e 553a
000001a0: f921 81bb 06d3 333c 506a 903a 9b25 dc3c
000001b0: 0a3b 00be b20e e33b 64a9 47bb f23a b43b
000001c0: 657d d63d 2112 91b9 e98f 16bc 10ca 2439
000001d0: 572f 35bc fe6e 283b 7fb7 bfba 5a67 66bb
000001e0: b228 8f3b 9269 8c3a 7441 023c 3fbd 293c
000001f0: 9265 edbb 9f58 e1bb 4111 cd3b 5387 4d3a
00000200: 24ba df3c e78e a53a 681e fcbb 9ab0 c4bb
00000210: 608d dcbd e61e a4bd a500 043b 18c2 c03a
00000220: 541a a63b c429 243b cb9c a9bb 0be7 4a3d
00000230: dd0a b23c f60a a4bc 2742 d1b9 d9b5 cbbb
00000240: 182d 0b3f 2d5f 623b d3d0 6a3c b1e9 d63e
00000250: 7973 46bc 685f 67bc 3d24 78bb f16a 3bbc
00000260: 56c6 25bc 9e8f 56bd 6be2 093b ee55 23bc
00000270: 6024 13bd 73e3 bdbb 4747 543d c56c 9bba
00000280: a2f3 183c b492 16bc eb8c 6f3c aa57 17bb
00000290: deb8 363b 9def 753b cd92 06bd 310d 593b
000002a0: cb10 f1bb f2ee 20bc 2907 c43d 8077 e63d
000002b0: 6428 94bb 4ca2 c3ba 8a47 acbb 8e8b 353b
000002c0: e08f 253c 7d01 acbb b44f ee3b b284 0abb
000002d0: 9dc5 34bc 6408 10bb 6195 a6ba 23bf 1ebc
000002e0: 5a10 633b 3375 e93b 5d21 4fba a3cc 10bd
000002f0: 18a1 193c 9620 3fbd 4d21 47bd dbe9 ba39
00000300: 0746 0ebe 33c1 ea3a eecd 93bb 969e 123b
00000310: e3d3 8b3b f8f5 2a3c 90d0 a6b9 a733 a4bb
00000320: bfc8 83bc 0747 133c b0a0 ac3a 1bc8 18bb
00000330: f22c 88ba d6ad a93b 0dcc 10bd b4b9 48bb
00000340: a64c d13d 911a 6abc 1524 87ba daad 8eba
00000350: 0033 39bb 4b7f 81bd ae3e 0bbb 1d02 663c
00000360: 7fda 1ebc 67d3 de3a f8d6 a23b a577 8aba
00000370: ff9a a2bc 6816 7dbb 6ec4 e5ba 9329 f43b
00000380: 5f75 5e3b 4967 7d3a a2bc 68bb 7da5 17bd
00000390: 1ea1 113b e546 cc3a 4044 bbbc a1b2 ea3b
000003a0: 5e51 2e3c 78c4 04bc e976 afbb 136c cc3d
000003b0: 95d7 8dbb 68bb 14bc fe9b 993b e703 26bc
000003c0: fe8f ae3d b1d2 d4bb b3a7 aa3b 057b 903b
000003d0: 92db d0bb 560a 96ba b90c b43b cf43 573b
000003e0: feed 3d3d a052 7b3b 75ca 0bbb 346b 4cbc
000003f0: debb aa3c b628 08bb 5c74 febb fb39 93bb
-0.017432438 -0.0053423406 -0.0021834774 0.007510448 -0.0185615 -0.024197387 -0.0012442956 -0.0012507713
0.006278206 -0.010664872 0.0010278183 -0.040458728 -0.015781458 -0.0011684478 -0.0011672205 -0.00010088901
-0.35257223 -0.006965075 0.0007072943 0.2001096 0.004140087 0.0053661084 -0.0058948826 0.0036250518
0.0047529493 0.0434365 -0.008977374 0.007203483 -0.034959882 0.004993149 0.035436638 0.009540521
-0.010800286 0.008313982 0.0073705977 0.0044271 -0.0011042985 -0.0058065103 0.028986918 -0.0020906955
0.005844074 0.0055724476 0.011114089 -0.0688637 0.0027918695 0.0012548484 0.0038546626 -0.00011483824
-0.0104130255 0.004286463 -0.0060033174 -0.0002729913 0.007599513 0.0010497195 -0.0010127787 -0.0068629957
-0.0006044525 -0.016833842 -0.0011239663 0.07490219 -0.009660177 -0.14065169 0.094839305 0.0064457776
-0.02455935 -0.008888883 -0.008910721 -0.0011741682 -0.018303653 -0.011917565 0.004392444 0.0028240867
-0.00925028 -0.009260077 -0.0048402273 0.004446025 0.0076887826 0.00085433654 -0.19279046 -0.0019170986
0.28799796 -0.0017384023 -0.005237816 0.003221671 0.0016001195 0.16945857 -0.0037372843 -0.042263027
-0.001237988 -0.0001033686 5.761045e-05 -0.012625118 -0.086762905 -0.0045232642 -0.0034771117 -0.0096429465
0.013661468 -0.009377334 0.0074982326 0.015386453 0.004691366 0.004225721 0.0120589435 0.0008129783
-0.0039408174 0.010975605 0.0011018012 0.0268734 -0.12522522 0.006929242 -0.0030465955 0.005500191
0.10473136 -0.00027670062 -0.009189584 0.00015715533 -0.01105865 0.0025700922 -0.001462683 -0.0035156817
0.004368865 0.0010712615 0.007950176 0.010360061 -0.007244774 -0.0068770195 0.0062581603 0.0007840294
0.027310438 0.0012631089 -0.0076940544 -0.006002498 -0.10769153 -0.08013706 0.0020141986 0.0014706282
0.0050690565 0.0025049308 -0.005176162 0.049536746 0.021733696 -0.020024758 -0.00039912874 -0.0062167463
0.5436568 0.0034541592 0.014332014 0.41975167 -0.012112492 -0.014121868 -0.0037863397 -0.011439071
-0.010118088 -0.052383058 0.0021039497 -0.009969218 -0.03592336 -0.0057949363 0.051825788 -0.0011857977
0.00933543 -0.00919025 0.014621 -0.0023093023 0.0027881186 0.0037526854 -0.032854844 0.0033119435
-0.007356738 -0.009822594 0.09571678 0.112532616 -0.0045214165 -0.0014925688 -0.0052575516 0.002770159
0.010105103 -0.005249201 0.007272685 -0.0021136221 -0.011033443 -0.0021977657 -0.0012709313 -0.009689125
0.0034647197 0.007124567 -0.0007901395 -0.035351407 0.009376787 -0.046661936 -0.048615742 0.0003565092
-0.13893901 0.0017910361 -0.0045106327 0.0022372357 0.004267202 0.01043462 -0.00031817378 -0.0050110403
-0.016086934 0.008989102 0.0013170447 -0.0023312632 -0.0010389371 0.0051781936 -0.035350848 -0.0030628266
0.10219698 -0.0142885605 -0.0010310436 -0.0010885552 -0.0028259158 -0.06323107 -0.0021247077 0.01403859
-0.009695648 0.0017000259 0.004969474 -0.0010564221 -0.019849299 -0.0038618091 -0.0017529854 0.007451245
0.003394447 0.0009666575 -0.0035512825 -0.037023056 0.0022221277 0.0015585093 -0.022859693 0.0071624075
0.010639517 -0.008103482 -0.0053547514 0.09981551 -0.004328678 -0.009077884 0.004687785 -0.010132766
0.08523558 -0.006494843 0.0052079796 0.0044091963 -0.006373831 -0.0011447172 0.0054946807 0.0032846814
0.046369545 0.003834881 -0.002133039 -0.012476731 0.020841535 -0.0020776219 -0.007765336 -0.004492996

output_w.bias f4 [5]
00000000: 0927 22bd 16bd 713d 7a96 68bf 1b61 73bf
00000010: 6b37 e9bd
-0.039588008 0.059018217 -0.9085461 -0.95070046 -0.11387523

square_avg f4 [64]
00000000: a59f a93d 8040 d43d 7d0d 443d 5403 8a2e
00000010: db6d 2e36 e7b4 773c 4469 523c eba0 8c2f
00000020: 05b4 2e3c 270c 9435 db6f 753c e836 973c
00000030: 97a5 df3d 1cea 513c 9cf0 383b 587d 6d3c
00000040: c760 8a3c daf2 0633 13ce c73b 5e03 e83e
00000050: f514 ea31 67f6 cd3c e18a 2336 34b1 452e
00000060: a33a a53c 1e59 f72d fbb4 e93d 9bd4 7033
00000070: dde0 b33d 26dc af3d 4594 853d b813 443b
00000080: 2b66 6e3c 49cc 0f3e 8a2b c73d d7b9 c53c
00000090: e8e6 8c3d eef9 423d 21b1 e838 b380 aa3b
000000a0: 4901 f13c 08b9 d937 8caa e32d 21a2 c13b
000000b0: a346 6430 99fb be39 c9f8 9a3c 8d08 0a3c
000000c0: 6d6a 693a 7073 123e e75e 172e d2bf a93c
000000d0: 6999 8634 ce9f 5b2e 09f0 393d cc65 623b
000000e0: d3ed 533c 4af7 b131 0913 2f32 c4b4 253d
000000f0: 0a2f 653c 5e70 4e3c c946 b23b 2435 773c
0.08282403 0.10363865 0.047864426 6.2761046e-11 2.5991965e-06 0.015118814 0.01284248 2.558019e-10
0.010663037 1.1030396e-06 0.014980282 0.018458799 0.10920256 0.012812164 0.0028219586 0.014495216
0.01689185 3.142018e-08 0.006097564 0.4531507 6.812679e-09 0.025141908 2.436973e-06 4.4950002e-11
0.020169562 2.8120225e-11 0.114114724 5.6072718e-08 0.08783124 0.08586912 0.06522421 0.002991898
0.014550726 0.14042772 0.09725101 0.024136467 0.06879979 0.047601633 0.00011095615 0.0052033304
0.029419558 2.5954578e-05 2.588265e-11 0.00590922 8.30463e-10 0.0003642708 0.018917458 0.00842489
0.00089041033 0.14301848 3.4417715e-11 0.02072135 2.5071066e-07 4.993677e-11 0.04539493 0.003454554
0.01293512 5.1794915e-09 1.0190669e-08 0.040455595 0.013988266 0.012600033 0.005440567 0.015088353

square_avg f4 [5]
00000000: 8bf2 ac40 7894 a240 d0e2 943d 5123 4c3e
00000010: 5240 bb3c
5.4046073 5.0806236 0.072698236 0.19935347 0.022857819
