S-LSTM/Goal+Socail_Array_PyTorch/social_lstm/save/0/social_model_epoch_15.pth (torch, 815071 bytes, 22 tensors)

embedding_b f4 [64]
000000 35 1a 53 bd e5 fb b0 3e e7 82 8a 3e bf 6e 06 b4
       -0.051538665 0.3456718 0.27052996 -1.2520012e-07
000010 8d 51 10 bc a9 3a a0 bc e1 3b c7 bd 86 ba 06 bc
       -0.008808506 -0.019559221 -0.09728218 -0.008223182
000020 ed 13 16 be 65 f2 c8 bb 3f 5f a3 3c a4 b6 d9 bc
       -0.14656039 -0.0061324113 0.019942878 -0.026576348
000030 01 d3 39 be b8 0b c9 bd 41 f2 02 bd 2a 9c fe bb
       -0.18146898 -0.09816688 -0.031969313 -0.007770081
000040 90 6f 1c bc f8 f6 1a bc db d2 13 be 5b 95 66 bd
       -0.009548083 -0.009458296 -0.14435904 -0.05629478
000050 d6 e6 70 bc 7b 7e fb bc c3 df 70 bb fa 3d 07 3d
       -0.014703473 -0.030699959 -0.0036754466 0.03301809
000060 b9 54 43 bd 95 12 17 bc b9 8b 5c 3d 30 7d 6c bb
       -0.04768822 -0.009220739 0.053844187 -0.003608536
000070 dd a2 b7 3e a6 c9 1b be 84 9d b8 bc cb d8 18 bd
       0.35866442 -0.15213642 -0.022536047 -0.037316125
000080 78 22 ba bd 33 8b 69 bb 53 a7 b5 3d 70 29 00 bd
       -0.09088606 -0.0035635948 0.08869805 -0.031289518
000090 69 8a 40 3e 83 fc a7 3d e6 35 43 ad 2a cd 1f be
       0.188028 0.0820246 -1.10964345e-11 -0.15605608
0000a0 d1 f4 1f bd ed 6c de 3c 66 3c 2a ba 3f 62 0a bd
       -0.039051834 0.02715155 -0.00064939854 -0.0337851
0000b0 cc 0d 97 bb d6 bb d2 3c fc 60 c5 3b e1 d3 55 3d
       -0.004609799 0.025724333 0.0060235243 0.052204017
0000c0 8f 5d 24 be 05 29 19 3e fa 13 28 bb b0 48 87 3d
       -0.16051315 0.14957054 -0.0025646673 0.06605661
0000d0 d9 f0 8f bb 75 d1 b8 b8 c0 dc 49 3d 6c ce 82 bd
       -0.004392725 -8.812818e-05 0.04928279 -0.06387028
0000e0 d9 aa c5 bc 00 15 0f b8 a1 d7 19 bc e5 65 ba 3d
       -0.024129318 -3.4113415e-05 -0.009389789 0.09101466
0000f0 63 30 0d 3e 1b 01 a2 3d 52 13 f4 bd 5a 56 37 bc
       0.1378799 0.07910367 -0.119177476 -0.011190021

output_b f4 [5]
000000 b1 11 03 3d de e2 d1 bb f9 d5 63 bf e0 cc 5b bf
       0.031999294 -0.0064052185 -0.8899837 -0.8585949
000010 25 2b a0 bd
       -0.07820729

embedding_w.weight f4 [64, 4]
000000 34 5e 81 3e 35 30 36 bf 1a 84 0f be 7c fe 94 3e
       0.25267184 -0.7116731 -0.14015236 0.29100406
000010 c3 a5 06 3e 65 38 b3 3f 9c e0 a6 bd 59 40 c3 3e
       0.1314917 1.4001585 -0.081483096 0.3813503
000020 f4 d1 93 bf 26 4d 3d bf 17 44 25 be d1 b0 eb bd
       -1.1548448 -0.73945844 -0.16139255 -0.115083344
000030 aa 2e 48 a7 fc 3a 58 21 a9 0c 69 a5 12 40 98 23
       -2.7780872e-15 7.326171e-19 -2.0213818e-16 1.6507008e-17
000040 81 b9 be ba 08 84 1d 38 40 f7 b8 39 b8 63 2d bc
       -0.0014551134 3.755468e-05 0.0003527943 -0.010582857
000050 4b 08 20 3f 98 3e 10 bf 59 6f ce 3e 88 12 f2 3e
       0.62512654 -0.5634551 0.40319327 0.47279763
000060 65 71 12 3f 82 85 3c 3f 23 d3 1f 3e 94 aa c9 3b
       0.57204276 0.73641217 0.15607886 0.0061543677
000070 13 bf 8c bc e6 7f 40 bc e6 12 f4 b8 af ae b7 b8
       -0.017180955 -0.011749243 -0.00011638347 -8.758657e-05
000080 7f 35 a0 3d 82 ef 80 3e 7a 37 2e bd 2f b0 a8 3e
       0.078227036 0.2518273 -0.042533375 0.32946917
000090 0a 3c b0 bc 14 6d 50 bb f5 a0 f5 bc 97 a5 15 bd
       -0.021513004 -0.0031803297 -0.029983977 -0.036534872
0000a0 8a cb 22 bf f4 9e 0a 3f 60 d1 b4 3e d3 80 cd be
       -0.63591826 0.54148793 0.3531599 -0.40137348
0000b0 9f 6c dd be 7a a8 96 3d 79 6e c7 be ab 89 9e 3d
       -0.43246934 0.07356353 -0.3895147 0.07741102
0000c0 51 c5 15 3f 03 07 98 be ff 32 0e bf f1 72 d5 3e
       0.58504206 -0.2969285 -0.55546564 0.41689256
0000d0 22 9b 79 3f 7c c2 85 3e 0c cc 00 3e ee 56 62 3e
       0.9750234 0.26124942 0.12577838 0.22103474
0000e0 60 27 30 3e a9 9f c3 3c 93 8b 86 3e ee e6 f1 3d
       0.1720252 0.023879843 0.26278362 0.118116245
0000f0 4e cd 6e bc 9b 2a ed 3b 87 7b 12 bc 99 9a 86 bc
       -0.014575316 0.007237745 -0.008940584 -0.01643114
000100 89 10 34 3d 29 b8 0f 3d 42 e5 2e 3e 9f 7b 03 bd
       0.04396108 0.03508774 0.17079642 -0.032100316
000110 90 5f aa b0 27 84 3d ba e2 89 94 3b 62 f6 90 b9
       -1.2396288e-09 -0.000722947 0.0045330385 -0.0002764939
000120 c1 43 b8 3e 13 1e 0c bf 88 ae a0 3e e1 1e dc be
       0.35989192 -0.5473339 0.31383157 -0.4299231
000130 e9 58 80 3f ce c3 9b 3e 58 28 86 bf 2a 78 a4 be
       1.0027133 0.30422825 -1.0481062 -0.32122928
000140 1d 0a ec 3c d2 ff de bc a0 13 84 bb 01 02 da bc
       0.028813416 -0.027221594 -0.00403066 -0.026612284
000150 44 ec a7 3d 22 08 89 3d 3f 46 a5 3e eb 2d 1e bd
       0.08199361 0.06691004 0.32280156 -0.03861801
000160 f9 0a d3 3c a9 93 31 3d de d5 6e bc 1f cc 0a 3d
       0.025762068 0.04335371 -0.014577357 0.03388607
000170 29 d1 99 bc 94 21 56 bd fe 8f 9e 3c 33 05 44 bd
       -0.018776493 -0.052278116 0.01935577 -0.04785652
000180 f2 1e aa be d0 28 78 3e 08 2d 1f 3f 46 59 f2 3d
       -0.33226734 0.24234319 0.6217809 0.11833434
000190 4a 9b e7 bb 00 84 a5 b8 9e e3 d5 bb e3 a0 0f 3c
       -0.0070680724 -7.8924e-05 -0.006527378 0.008766386
0001a0 a3 5e 4e bf 6f b5 99 bf 3d d4 24 3e 22 e8 6f bf
       -0.80613154 -1.2008494 0.16096587 -0.9371358
0001b0 f2 d1 40 3b 10 20 e6 39 d8 10 10 3b a9 b4 c1 bb
       0.0029422012 0.00043892907 0.0021982696 -0.005911429
0001c0 53 0f a9 bf ff 7e 4e bf cd e8 10 bd 31 46 7c 3d
       -1.3207802 -0.8066253 -0.035378266 0.061590377
0001d0 b5 cd 0d bf 5b ff fc be 3a 9c 15 3f 73 7b 21 3f
       -0.5539201 -0.4941357 0.5844151 0.63078994
0001e0 da 48 5c 3e e8 38 26 3e 3b ff 88 3e 01 ca 22 be
       0.21512166 0.16232646 0.26757225 -0.15897371
0001f0 8d 1f 46 bf ea 7e 94 3e 0e f2 09 bd 89 79 66 3e
       -0.7739189 0.29003078 -0.033678107 0.225073
000200 eb ed 32 bf df 55 1e 3f 1d 94 3f be 8a 11 8b be
       -0.69894284 0.6184978 -0.18708844 -0.2716182
000210 98 a9 8d 3e 82 97 92 3f e9 57 c2 bd 3c a6 c1 be
       0.27668452 1.1452487 -0.09489424 -0.3782214
000220 65 fd b5 3f 52 af 5c be 7f f8 33 3e 4e 34 e2 3e
       1.4217955 -0.21551254 0.17575262 0.4418053
000230 94 57 4a 3f 13 ee 29 3f bb ce 62 3d 6b 4a 81 3e
       0.79039884 0.663789 0.055372935 0.2525209
000240 4a 9b 36 bf 73 cf a7 3f 53 c4 06 3c 4a d3 13 3f
       -0.713307 1.3110183 0.008225518 0.57744277
000250 d0 54 a5 3f a4 84 80 bf 42 b3 72 3e 10 f2 e1 be
       1.2916508 -1.0040479 0.23701194 -0.44129992
000260 0e 1d cc a2 46 53 dd 22 14 72 89 a1 0b 32 00 00
       -5.5325074e-18 5.999034e-18 -9.313677e-19 1.7952e-41
000270 ce 04 4b be 96 94 a2 3e 0f 14 81 3e be 2e 1c bd
       -0.19826052 0.31753987 0.25210616 -0.038130514
000280 a2 f7 af 3f dc 44 e1 3e 1e 52 c4 3d 6e bf 89 3e
       1.3747447 0.43997848 0.09585975 0.26903862
000290 63 15 45 bd 6b 03 ce bb f3 d2 01 bd e7 90 50 3d
       -0.0481161 -0.0062870285 -0.031695317 0.05091944
0002a0 c3 73 75 b2 83 53 33 1c b9 d5 64 b3 c2 de 80 38
       -1.4287198e-08 5.933407e-22 -5.3279766e-08 6.1450075e-05
0002b0 c8 11 09 be 63 02 57 3e fb d4 86 3e 5f 0c ac 3d
       -0.1338569 0.20997004 0.26334366 0.08400797
0002c0 0b 5a 21 b9 da 47 03 bb 8d 83 51 3a 73 b3 17 bb
       -0.000153877 -0.002003184 0.000799232 -0.0023147732
0002d0 c6 f6 0a bd 4a 63 46 3d 8b 21 2c 3c 84 cc fa 3c
       -0.033926748 0.048434533 0.010506044 0.030615099
0002e0 21 ac 20 3e 8c 68 83 3f cf 6b 49 3c 0a 83 2f bc
       0.15690662 1.026628 0.01229377 -0.0107123945
0002f0 e7 3f b7 be 13 79 44 3f a1 b2 e6 3d 9a 68 18 3d
       -0.3579094 0.76747245 0.112645395 0.03720913
000300 76 0c cb 3e c7 99 e1 3e 54 bb d4 3d 33 e1 04 3e
       0.39657944 0.44062635 0.103872925 0.12976532
000310 73 fc 1b bf 37 08 99 bf a9 d1 2c be 46 5d 30 3e
       -0.6093208 -1.1955632 -0.16876854 0.17223081
000320 32 b3 ed ad 14 14 d2 b9 e4 7d 91 29 37 4d 17 ba
       -2.702336e-11 -0.0004006928 6.461132e-14 -0.0005771699
000330 5e a3 9e bf 49 a0 70 3f 12 a1 80 be f3 b6 1d 3e
       -1.2393606 0.93994576 -0.25122887 0.15401821
000340 84 55 45 b8 5e ab db b8 d1 2b 4e 3b 87 c6 93 38
       -4.7048103e-05 -0.000104746534 0.0031459222 7.046485e-05
000350 4c 85 e5 9c 78 3d 50 a4 60 d9 c8 9e 9c 43 54 2a
       -1.5188405e-21 -4.5154876e-17 -2.1265728e-20 1.8852839e-13
000360 06 ca a2 3e 56 49 80 bf 29 a8 b4 bd 9e 70 24 bd
       0.31794757 -1.002238 -0.088211365 -0.040146463
000370 c9 48 38 3f 54 37 01 bf d6 72 cd 3d 5c 3a a2 be
       0.7198606 -0.5047505 0.10031669 -0.3168515
000380 fb f1 1d 3f e5 55 08 bf b1 7d 53 be 2c 9c 28 3e
       0.6169736 -0.53256065 -0.20653416 0.16465825
000390 fa 9a 82 3c 50 ca c4 3b e6 a2 a8 bc ae d2 e4 3c
       0.01594304 0.006005563 -0.020585489 0.027932491
0003a0 28 47 73 bb 06 1b 84 bc c6 35 ad bc 81 e8 3c bc
       -0.003712127 -0.016126167 -0.021143805 -0.011530043
0003b0 26 3b 8b bf e1 f2 46 bf 4d 1b 2c bd aa 45 c0 bb
       -1.0877426 -0.77714354 -0.042018224 -0.0058676796
0003c0 e7 26 05 bf be f9 8c bf 6d 92 26 be 72 22 f4 3c
       -0.52012485 -1.1013715 -0.16266795 0.029801581
0003d0 d4 b0 83 3f 07 fa 7c 3f 5c 0c ad 3d 0d e3 98 3d
       1.0288339 0.9881901 0.08449623 0.074651815
0003e0 4a be 12 bf 80 55 8b 3e 82 94 9d 3d 78 aa 0f 3e
       -0.5732161 0.2721367 0.07694341 0.14029872
0003f0 e4 b0 96 bf 40 65 3f 3f 34 52 86 be 42 84 3d bd
       -1.1772733 0.7476387 -0.2623459 -0.04626871

embedding_w.bias f4 [64]
000000 95 a9 a9 3d d6 81 18 3e d3 d3 0d 3e bf 6e 06 b4
       0.08284298 0.14893278 0.13850336 -1.2520012e-07
000010 8d 51 10 bc 09 45 40 bd 2b a9 23 bd 86 ba 06 bc
       -0.008808506 -0.046940837 -0.039956253 -0.008223182
000020 d9 ef 1c 3e 65 f2 c8 bb ee 48 28 bd 37 8b af 3c
       0.1532587 -0.0061324113 -0.041085176 0.021428687
000030 3f 0d 1d 3e 9e 34 54 3e 41 f2 02 bd 2a 9c fe bb
       0.15337084 0.20723197 -0.031969313 -0.007770081
000040 90 6f 1c bc f8 f6 1a bc b4 b7 03 3e bf f4 0b bc
       -0.009548083 -0.009458296 0.12863046 -0.008542239
000050 d6 e6 70 bc 7b 7e fb bc c3 df 70 bb fa 3d 07 3d
       -0.014703473 -0.030699959 -0.0036754466 0.03301809
000060 b9 54 43 bd 95 12 17 bc 4c 6f ba bd 30 7d 6c bb
       -0.04768822 -0.009220739 -0.091032594 -0.003608536
000070 6a 75 27 3e 34 41 00 3e 84 9d b8 bc ce a6 0d bd
       0.16353384 0.12524873 -0.022536047 -0.034582905
000080 d1 3f 5c 3e dc 1c 4b 3c 6f c2 c0 3e 74 a2 8a 3e
       0.21508719 0.012397017 0.3764834 0.27077067
000090 3c 68 17 bb 11 c8 70 bd e6 35 43 ad 2f 26 d4 3d
       -0.00231029 -0.05878455 -1.10964345e-11 0.103588454
0000a0 a2 27 3e 3d ed 6c de 3c 66 3c 2a ba 3f 62 0a bd
       0.046424516 0.02715155 -0.00064939854 -0.0337851
0000b0 cc 0d 97 bb d6 bb d2 3c 29 49 ae bc e7 f9 e8 bd
       -0.004609799 0.025724333 -0.02127512 -0.1137579
0000c0 c9 b4 19 3d 36 be 0b 3e fa 13 28 bb f7 bd f4 bd
       0.037525926 0.13646778 -0.0025646673 -0.119502954
0000d0 d9 f0 8f bb 75 d1 b8 b8 1d 6d 0f 3d 6c ce 82 bd
       -0.004392725 -8.812818e-05 0.035016168 -0.06387028
0000e0 9e 12 58 3a 00 15 0f b8 a1 d7 19 bc dd b8 bd 3e
       0.000824252 -3.4113415e-05 -0.009389789 0.37055102
0000f0 c3 67 06 be 1d 7f 19 be 64 7a 03 3e d0 2b 80 be
       -0.1312552 -0.14989896 0.12839657 -0.25033426

embedding_t_w.weight f4 [1, 8]
000000 bf 4e 72 3f 20 bc b1 be 47 ff cb 3d 68 f6 03 bf
       0.94651407 -0.3471384 0.099608 -0.5154786
000010 62 3f 75 3d 5f 77 a9 bd 0b 39 ee 3e e1 3e 16 bf
       0.0598749 -0.08274721 0.46527895 -0.58689696

lstm.weight_ih f4 [512, 65]
000000 e6 55 42 bc dc 16 c9 3c 86 0f ef bc 9a 3f 01 80
       -0.0118613 0.024547033 -0.029182207 -1.14651e-40
000010 64 d1 dd b0 b1 aa 7e bd 56 b5 98 bc bc 97 ba 1d
       -1.6139379e-09 -0.062174503 -0.018641155 4.939068e-21
000020 cb 88 55 bd 8a 08 8e 3c f0 a4 82 3d 03 73 e1 3b
       -0.05213241 0.017338056 0.063791156 0.0068801655
000030 34 71 31 bd da cf 49 bd 98 65 7b bc 44 3f 15 39
       -0.04332085 -0.04927049 -0.015344046 0.00014233316
000040 21 bd 23 3c d2 99 c3 2f 60 f1 b3 bb b9 8c 8f 3d
       0.009993822 3.557959e-10 -0.0054914206 0.070092626
000050 4e 62 c4 b9 10 31 36 3a 5a 1f 1e bc 83 7e db 3c
       -0.00037457276 0.000695006 -0.0096510295 0.026793724
000060 d5 4b a7 bc 80 83 54 36 58 68 41 bd 1e 74 e6 27
       -0.020421902 3.1667005e-06 -0.04721865 6.396372e-15
000070 a1 b1 50 bd 30 9b 60 bd 27 a9 88 3c 91 a1 00 bd
       -0.05095065 -0.0548355 0.01668222 -0.03140408
000080 2c fb 99 3d dd da 80 3d 00 2b 86 bd 35 7c 12 bd
       0.0751861 0.06291745 -0.0655117 -0.035762984
000090 d0 06 0d bc fe 17 4d bd 50 e0 a1 b9 3c a6 dc ba
       -0.008607581 -0.05007171 -0.0003087544 -0.001683421
0000a0 22 f7 91 bd 3c 81 66 bb 85 5d 38 35 8a cf 7e bc
       -0.07127215 -0.0035172245 6.868143e-07 -0.015552411
0000b0 0e ef 77 30 b8 a4 82 bb da 64 8d 3c 92 d0 29 3c
       9.0197794e-10 -0.003986921 0.017260004 0.010364668
0000c0 1f c3 0f bd 13 08 45 bd d3 5b 9f 34 6f 29 a5 bc
       -0.03509819 -0.048103403 2.968287e-07 -0.020161359
0000d0 d8 df af 21 a2 ab 02 80 0d 11 01 bd 82 5e 3a ba
       1.1917712e-18 -2.45241e-40 -0.0315104 -0.00071094197
0000e0 b6 00 c7 bb b4 28 78 bb 27 b5 0c 3a 26 23 38 bd
       -0.006073083 -0.0037866058 0.000536757 -0.044955395
0000f0 a6 ae 19 bd c6 57 a6 bc fe f2 b7 bc 48 51 47 3a
       -0.037520073 -0.020305526 -0.022454735 0.00076033594
000100 99 99 38 bd b6 6e 27 bc 65 28 64 bd f0 87 7d bc
       -0.045068357 -0.010219267 -0.055702586 -0.015474305
000110 62 25 87 ba fc 04 f9 b7 59 78 80 bc f6 26 a0 bc
       -0.0010310824 -2.9685434e-05 -0.015682386 -0.019549828
000120 5e 08 8d 38 b6 e3 24 bd 2a 86 12 3b 34 f2 60 3c
       6.7249624e-05 -0.040256225 0.00223578 0.013729621
000130 c3 7b 8d bc 3e 0f 0a bd d2 03 17 bd e2 97 77 bb
       -0.017270928 -0.033705942 -0.036868878 -0.0037779738
000140 81 a6 e7 36 be 9d 99 3b 8d d9 13 3b bb 20 9a 3b
       6.90372e-06 0.004687994 0.002256009 0.004703609
000150 1d 99 2e 3c 16 c3 03 34 f2 2e 2c 3b f5 54 a3 bb
       0.010656622 1.2271298e-07 0.0026273099 -0.004984493
000160 38 48 0d 3c 18 3d 9a bc c0 41 9d b9 16 be 32 3c
       0.008623175 -0.01882796 -0.0002999436 0.010909578
000170 f4 ff b7 9e ff 96 1f bd a0 92 f9 bc d9 6c 0d 3c
       -1.9481738e-20 -0.03896236 -0.030465424 0.008631908
000180 2c d9 0e bd 08 23 c6 ba f2 d0 a0 3b 2d 08 69 bd
       -0.03487508 -0.0015116641 0.0049077207 -0.056892563
000190 92 67 1a bd cb 1a 1b bd 83 24 a5 bc 9f 07 08 2a
       -0.03769643 -0.03786735 -0.020159012 1.208187e-13
0001a0 74 f5 3f bc 71 7d 38 bd 6e 4c 27 bc af ab 02 00
       -0.011716235 -0.045041505 -0.010211093 2.4526e-40
0001b0 80 6d 52 bc 42 46 02 b8 29 90 95 bc a5 57 96 bc
       -0.01284349 -3.1059848e-05 -0.018257217 -0.018352339
0001c0 87 aa d8 bc 91 b6 d9 bc a2 8f 98 bc 79 dd 2c 30
       -0.026448501 -0.026576312 -0.018623177 6.2887967e-10
0001d0 95 33 01 bd 60 9a bf 39 08 72 c1 3a bb d7 13 bc
       -0.031543333 0.00036545377 0.0014758715 -0.009023602
0001e0 32 70 11 3b c0 dc c3 bb 22 62 21 bb 32 3b 1f 33
       0.0022192118 -0.005977243 -0.0024625142 3.707391e-08
0001f0 94 e0 fa bc 01 7c 89 bb a2 f5 10 bd 65 b6 04 bd
       -0.030624665 -0.0041956906 -0.035390504 -0.032400507
000200 01 7c b0 bc db 5c 0f bc 70 ad 98 bb 37 db 88 bd
       -0.021543505 -0.008750166 -0.0046593472 -0.06682437
000210 a3 58 60 bc 84 3d cb b4 9c 89 47 ba 9c 3a 9a bc
       -0.013693008 -3.7856455e-07 -0.0007611753 -0.018826775
000220 4c e9 ed ba 80 3c 24 a4 b6 18 44 bb 86 19 78 b9
       -0.0018151193 -3.5613077e-17 -0.0029921955 -0.00023660631
000230 43 7e 93 3b 99 ea ff 3a 6b 30 23 bc 7c cb 16 bd
       0.0045011356 0.0019524872 -0.009960274 -0.03681515
000240 80 1b 82 bb 20 57 6e b4 76 d3 84 bb 8e 16 18 ba
       -0.0039705634 -2.2197173e-07 -0.0040535284 -0.0005801701
000250 ff b7 ce bb 80 e5 6a bc 74 33 2a b5 7c 5f b6 bb
       -0.006308555 -0.014336944 -6.340481e-07 -0.005565582
000260 b7 6b e9 3a 06 e3 4a 3b 38 51 22 bb a0 ff 95 b7
       0.0017808591 0.003095807 -0.0024767648 -1.7881219e-05
000270 ae 0e c2 ba 87 82 23 a7 55 ac 09 bd 95 03 02 bc
       -0.00148054 -2.2691553e-15 -0.033611614 -0.007935424
000280 92 87 0b bc 60 0a a5 3a 16 ce f3 ba 00 7e 86 ba
       -0.008516209 0.0012591593 -0.0018600847 -0.001026094
000290 b7 42 93 bd 53 e3 37 bd e9 1c ca bc 68 a8 da bc
       -0.07190459 -0.044894528 -0.024671989 -0.02669163
0002a0 73 5e 2a 30 b5 8a 44 3b 0b 73 1e bd 85 84 ea 3b
       6.197986e-10 0.0029989902 -0.038683932 0.007156911
0002b0 41 df c1 bb f0 d6 cc 38 48 47 69 b5 58 53 81 3b
       -0.0059165065 9.767513e-05 -8.690299e-07 0.003946703
0002c0 5e 35 98 bb 01 77 1e 3b 4c d4 80 b9 52 22 47 bc
       -0.0046450337 0.0024179819 -0.00024572236 -0.012154179
0002d0 cc b9 c7 35 bc 7d 12 ba 60 df 02 00 f4 0e 16 29
       1.4880729e-06 -0.0005588194 2.63803e-40 3.331966e-14
0002e0 33 5e 69 bc 53 30 e0 bb fb d7 0f bc 52 37 5e 3a
       -0.01424365 -0.006841698 -0.008779521 0.00084768713
0002f0 10 28 95 21 72 21 f3 bc ac e3 d7 ba 80 a2 d6 bc
       1.0107237e-18 -0.029679034 -0.001647105 -0.026200533
000300 30 46 56 b9 94 74 16 3c 4f 18 90 bc b7 db 57 bc
       -0.00020434777 0.009183068 -0.017589716 -0.013174943
000310 20 96 6f bd 58 49 de bc 4c 83 e9 36 6a 2e 16 b8
       -0.05849278 -0.027134582 6.959226e-06 -3.5806013e-05
000320 99 2d 2f bc 76 51 82 ba 4e c8 dd ba 52 4b 82 bc
       -0.010692024 -0.000994249 -0.0016920657 -0.015905056
000330 e2 31 48 3a 79 48 cb 3b a6 69 f2 bb be 0f 9d bc
       0.00076368276 0.006203708 -0.007397848 -0.019172546
000340 16 ed 45 bc 6c f6 68 39 0c 30 33 35 6a 4a 2c 3b
       -0.0120804515 0.00022217043 6.6752614e-07 0.0026289471
000350 24 97 17 3a 9e 97 57 3b f9 ed 92 bb c4 73 55 34
       0.00057827146 0.0032896767 -0.004483935 1.9879286e-07
000360 e4 64 d9 3a af 04 62 bb 3e 63 97 3b c4 37 73 ba
       0.0016585854 -0.0034487655 0.004619985 -0.0009278024
000370 ec 13 78 b9 35 5e 4b bb 91 bc 74 1e 02 d9 2e bd
       -0.00023658545 -0.0031031494 1.2956247e-20 -0.042687424
000380 bd c6 9d bc 0f ca 1c 3c 6d 65 81 bc 95 a5 01 bc
       -0.019259805 0.009569659 -0.015795434 -0.007913013
000390 a5 ba ef ba c7 60 1d bd be b5 c6 bc 9b 9e 29 bd
       -0.0018289877 -0.038422372 -0.024256583 -0.041411024
0003a0 00 dd 0e bc 9a 28 01 00 0c 11 14 bb 05 2a 48 bc
       -0.008719683 1.064e-40 -0.0022593169 -0.0122170495
0003b0 aa cb 45 bb 5c 46 f0 b5 11 14 3e ba 38 5a d3 b7
       -0.0030181208 -1.7901871e-06 -0.0007250915 -2.5195171e-05
0003c0 a8 ce 89 bb 6d be 25 bc 9e 7d 47 bc 44 97 30 bb
       -0.0042055435 -0.010116202 -0.012175946 -0.002694563
0003d0 55 e7 b6 bc 56 6f 01 b9 77 d9 d7 bc f2 f0 2c 20
       -0.022327105 -0.00012343875 -0.026348813 1.4648689e-19
0003e0 c4 aa 55 37 e6 49 21 bc a8 ab 02 39 c0 99 d5 bb
       1.2735549e-05 -0.009844279 0.00012461713 -0.0065185726
0003f0 2e f3 17 bb 78 e0 30 21 38 f5 13 bd c2 7c 84 bb
       -0.0023185718 5.99282e-19 -0.03612253 -0.0040431926

lstm.weight_hh f4 [512, 128]
000000 3a 2c 01 bd 90 b2 9a bc 4e 67 40 3c 2a 16 f9 bc
       -0.03153632 -0.018883973 0.01174338 -0.030406076
000010 65 63 be bc 10 b2 8c bb 6f e6 e8 bb d4 86 11 bc
       -0.023240754 -0.0042936876 -0.007107548 -0.008882243
000020 b8 a7 e7 3c b3 b1 a4 bc 28 06 f6 3b 47 c2 2d bd
       0.028278217 -0.020104265 0.007508058 -0.042421605
000030 0d 47 26 3d 58 e7 19 bd b8 23 fe bc 18 74 97 bc
       0.040595103 -0.037574142 -0.031022891 -0.018487975
000040 dc bc 09 3d c5 0d 54 bc c5 71 e2 3c 5a 7d ee 3a
       0.033627376 -0.012942736 0.02764214 0.0018195317
000050 0b 39 b6 3c 18 32 d1 bc 4e 28 01 3c 8c d2 df bc
       0.022243997 -0.025536582 0.007883145 -0.027322076
000060 e3 55 97 bc d5 bb cb bc bd f4 d5 bb d0 11 88 3c
       -0.018473571 -0.024869839 -0.006529419 0.016610056
000070 47 af e0 3c fc 20 46 bc 5f f4 58 3d 93 e1 91 bc
       0.027427329 -0.012092825 0.052967425 -0.017807757
000080 b2 43 3e bc bd 23 2d bc 5e 1e 13 bb dd 30 7a bc
       -0.0116128195 -0.010567603 -0.002244852 -0.015270439
000090 c1 1d c8 bb 24 56 a8 3a ad 92 20 bd 3e a8 db 3c
       -0.0061070626 0.0012843055 -0.03920238 0.026813623
0000a0 0c 06 66 3c da d1 92 bc 5f 70 29 bb 5c 92 6f 3c
       0.014039528 -0.01792233 -0.0025854332 0.014622297
0000b0 e0 17 61 3c 7d b6 86 bc 62 03 c0 3b 84 b1 c1 3c
       0.013738602 -0.016444439 0.0058597783 0.023644216
0000c0 5e 7d 8f 3c 5c 26 a6 bb f3 03 17 3b a7 77 dc bc
       0.017515834 -0.0050704908 0.0023043125 -0.026912523
0000d0 e8 0c bf 3c 2f 41 52 bc 98 06 56 3a d3 ad 22 bd
       0.023321584 -0.012832924 0.00081644347 -0.039716553
0000e0 48 08 c3 3b 10 f5 ea bc d1 39 0d bd 67 09 1e bd
       0.005951915 -0.028681308 -0.034478966 -0.038583186
0000f0 47 ae 3f bc ea 94 29 bc 49 30 f7 bc 1d 40 84 3a
       -0.011699266 -0.010350445 -0.030174391 0.0010089908
000100 15 0a 06 bc 86 2f a4 3c 43 ee 84 bb 38 19 6b bc
       -0.008181115 0.020042192 -0.0040567233 -0.014349274
000110 94 4e 89 3c c8 2b 5f 3a 81 97 cc bc 96 61 cc bb
       0.016761102 0.0008513299 -0.024974586 -0.006237219
000120 47 6c 55 bb a9 50 17 bc ba 92 00 3c 76 1a 7b 3c
       -0.003256576 -0.0092355395 0.007847482 0.015326133
000130 a6 44 87 bc e3 53 ec 3c 30 b6 09 3d 88 c3 b3 3a
       -0.016512226 0.028848594 0.033621013 0.0013714889
000140 5c 75 2b 3c 73 5d d0 3c 3e 82 a0 3c 78 81 e9 3b
       0.010464992 0.025435185 0.019593354 0.0071260296
000150 e0 41 11 3c 85 4a 9e bc 89 ed 08 bc 30 59 13 3b
       0.0088658035 -0.019322643 -0.008357414 0.002248358
000160 b1 08 03 bc d4 02 63 bc 6e 13 3f 3b cd f8 c8 3b
       -0.007997678 -0.013855655 0.0029155868 0.006133175
000170 62 62 f7 3b a2 f2 9c 3c 5a f5 e2 bb d2 db f6 bb
       0.00754957 0.019158665 -0.006926221 -0.007533529
000180 d2 11 7e 3b 34 0b c7 3c 04 ed d7 3b 4e e6 1f bc
       0.0038767946 0.024297334 0.0065895338 -0.009759499
000190 4b bf 8c bc 08 50 48 bc 4c b9 d8 3c d2 ae 44 bc
       -0.01718106 -0.012226112 0.026455544 -0.012004571
0001a0 04 ac 3a 3b ad f0 5f bc 2e 6b 59 bc 9b ac 6b 3c
       0.0028483877 -0.013668221 -0.013270183 0.014384414
0001b0 6a 8d c7 3c 68 01 95 3c ae 1d 95 3b 02 15 09 bd
       0.024359424 0.018189147 0.0045506572 -0.0334673
0001c0 1c 91 fb bb c8 4d 5d 3b 7d 87 34 3c ec 07 e5 3c
       -0.0076772105 0.0033768285 0.011018631 0.027957879
0001d0 ee ce 14 bc 46 eb fa 3c 16 de 06 3b 9f 66 9c bc
       -0.009082539 0.030629765 0.002057915 -0.019091902
0001e0 5e 82 f7 3c 01 39 a9 3c b1 09 a7 3c d1 91 16 bd
       0.030213531 0.020657064 0.020390363 -0.036760155
0001f0 a5 28 a3 3b 67 ff b0 3c 2f 6e fb bb d1 4f 14 bc
       0.0049792104 0.02160616 -0.007673047 -0.009052233
000200 6a 60 6c bb 30 20 cb 3b f4 96 50 3b 80 6c f4 b9
       -0.003606821 0.0061989054 0.0031828256 -0.00046620145
000210 f2 29 5a 3c af 64 80 3a b2 1d 19 3b c8 95 b8 3b
       0.013315665 0.0009795631 0.0023363647 0.0056330897
000220 c4 79 e0 bb 40 a9 3e bb 48 9a ac bb c5 2e d0 bc
       -0.006850453 -0.002909258 -0.005267415 -0.025412926
000230 9e c3 56 bc d0 32 c2 39 ff 32 f5 bb be d6 b7 3b
       -0.013108162 0.00037040422 -0.007482886 0.005610316
000240 ea 64 37 bc 64 bb ca 3a b9 64 64 bb 40 10 e6 bb
       -0.011193493 0.0015467224 -0.0034850074 -0.00702098
000250 18 7f bc 3a 70 40 0b 3a 34 a8 ae bb 92 8f 58 bc
       0.0014381139 0.0005312031 -0.00533011 -0.013217824
000260 4c cd 08 3c e0 80 44 3c f2 e4 c9 bb f6 4d d2 bb
       0.008349728 0.011993617 -0.0061613256 -0.006417985
000270 de c2 f0 3c 41 d7 26 3c 9c 9f 34 bc 07 0b 0b 3c
       0.029389795 0.0101831565 -0.011024382 0.008486516
000280 3e 3b f7 3b e4 4f b3 3b 03 7f ad 3c cf eb 6d 3c
       0.007544904 0.00547217 0.021178728 0.014521553
000290 e6 e8 43 3b 0b 72 00 3c f5 60 a3 bc 96 49 b0 bb
       0.0029893457 0.00783969 -0.019943694 -0.005379866
0002a0 00 dd cf bb 58 94 63 ba 03 3d 51 bc 0f c0 d6 bc
       -0.006343484 -0.0008681468 -0.012770894 -0.026214628
0002b0 0f 2f a2 bb 88 a2 e9 3b c2 83 dc bb ff 10 b8 bb
       -0.0049494575 0.007129971 -0.006729574 -0.0056172605
0002c0 51 92 8c bc 8a 32 81 ba 9a 3d 15 3b f2 fd 27 bb
       -0.017159613 -0.0009856981 0.0022772313 -0.002563354
0002d0 b4 1f 47 3b ba 7e a2 3a 34 74 3f 3a e0 87 3b b9
       0.0030383887 0.0012397387 0.00073033874 -0.00017884327
0002e0 29 03 a0 3a 0f d4 b8 bb e3 9a 29 3b e2 3c eb bc
       0.0012207973 -0.0056405137 0.0025879673 -0.028715555
0002f0 1c c9 6a bb 99 a5 c9 3b 4c 7d 9b 3b a0 ea e3 b9
       -0.0035825437 0.006153774 0.004745161 -0.00043471623
000300 e9 bb 02 bb 94 d8 c2 bb db 4b 0a bc 03 48 11 3c
       -0.001994843 -0.0059462283 -0.008440937 0.008867267
000310 5b b9 68 bb 9c 9e 8e bb 40 5f 56 b9 74 9a 77 3b
       -0.003551087 -0.004352404 -0.00020444114 0.003778127
000320 05 58 9d bb 06 bc 34 3c fe f3 68 bb 36 86 c1 bb
       -0.0048017525 0.011031156 -0.0035545821 -0.005905892
000330 8c ee 45 3b 5a 58 ce 3b 16 41 dd 3c c1 f7 3d bc
       0.0030202 0.0062971534 0.027008574 -0.011594714
000340 d6 b3 83 3b c0 ec 38 38 df 8a 17 bc e4 be a5 bb
       0.004019241 4.408951e-05 -0.009249418 -0.0050581563
000350 80 00 1a bb 21 f2 50 bc 9f af 96 3c 72 e0 7d bc
       -0.0023498833 -0.0127530405 0.01839429 -0.015495406
000360 c4 e8 59 bc e9 3b 16 3b e8 8f dd bb fd 61 d9 bb
       -0.013300125 0.0022923893 -0.0067615397 -0.0066339956
000370 b2 cf b3 3a d2 71 81 bb a4 d4 1f 3c b1 2a 85 3b
       0.0013718514 -0.003950336 0.009755287 0.004063927
000380 9e fd 3d 3b 0c 68 91 bb a6 0e 4c bb b2 04 71 3a
       0.002899028 -0.004437452 -0.003113666 0.000919412
000390 2a 73 bd 3b 42 3d cc 3b 62 5c 1d 3b e0 73 18 3c
       0.005781551 0.0062328884 0.0024011363 0.0093049705
0003a0 a7 0e 4a bc d4 1d a5 3b ba f3 80 3a 66 60 e8 3b
       -0.012332595 0.005038956 0.0009838261 0.0070915697
0003b0 f2 cc 1c 3c 52 3b 2a bc ee 8d 81 bb 74 a7 8f ba
       0.009570347 -0.01039012 -0.003953687 -0.0010959939
0003c0 91 0d a3 3b 56 a3 c5 bb a0 2e 07 bc ee 12 7d bb
       0.0049759825 -0.006031434 -0.008250862 -0.003861602
0003d0 33 d7 2d 3c ee 5f 6f 3b 04 20 ba bb 7e 8d 2e 3c
       0.0106103895 0.0036525684 -0.005680086 0.010653852
0003e0 40 5c 22 bc b2 69 26 bc 52 e5 a7 bb 0b db 0d bc
       -0.009909689 -0.010157036 -0.0051237727 -0.008658181
0003f0 3b a4 ab bc 6e a9 ae bb a4 b5 17 3c 46 72 15 bc
       -0.020952335 -0.005330256 0.009259615 -0.009121483

lstm.bias_ih f4 [512]
000000 c3 19 e0 bd bc b7 e2 bd 57 5c 02 be 4e 06 ce bd
       -0.10942414 -0.11070201 -0.12730537 -0.10059796
000010 05 97 44 be 73 42 69 3e 13 4b ea bd 20 51 d3 bd
       -0.19198234 0.22779255 -0.114401005 -0.10318208
000020 6d 87 08 be bd 04 03 be 72 0e c6 bd dd e6 51 bd
       -0.13332911 -0.12794776 -0.09670724 -0.05124556
000030 9f ec ba 3d f4 d9 1c be fd 5d de bd 9b 2b eb bd
       0.09127163 -0.15317518 -0.108577706 -0.114829265
000040 80 59 c6 bd c2 7d f8 bd cb 7c bc bd 1e 0f 2c bd
       -0.096850395 -0.121333614 -0.0920349 -0.042006604
000050 c4 7d 05 be 90 2d dc bd ed d7 9e bd ca 14 d0 bd
       -0.13036257 -0.10750878 -0.07756028 -0.10160215
000060 c2 89 a4 bd ca 7d fd bd eb 52 06 be 98 f9 d7 bd
       -0.08034088 -0.12377508 -0.13117568 -0.10545653
000070 fe ad 69 bd c6 09 09 be 1e 7d 84 bd a8 0d 04 be
       -0.057050698 -0.13382635 -0.06469177 -0.12895834
000080 ef 48 d0 bd fc 21 ea bd 7c ce cb bd bb 92 d7 bd
       -0.10170161 -0.11432263 -0.09951493 -0.105260335
000090 83 97 cf bd 8d 69 d3 bd b8 9d 93 3e c1 47 f2 bd
       -0.101363204 -0.103228666 0.28831267 -0.11830092
0000a0 64 cd eb bd ba 27 04 be d7 37 e9 3e 50 ed 91 3d
       -0.115137845 -0.1290578 0.45550415 0.07125342
0000b0 fb 00 e4 bd 87 db f1 bd 78 22 09 be ed cc f4 bd
       -0.111329995 -0.1180945 -0.13392055 -0.11953149
0000c0 85 1f b1 bd 90 ec fb bd fd 8b 0e be f3 21 ed bd
       -0.0864859 -0.1230098 -0.13920589 -0.11578741
0000d0 05 f5 f8 bd e3 74 f3 bd c6 84 f4 bd 5a b7 bf bd
       -0.12156109 -0.11887529 -0.11939387 -0.093611434
0000e0 1b bd ff bd 45 99 1e be e4 ec cc bd 52 00 08 be
       -0.12487241 -0.15488155 -0.10006121 -0.13281372
0000f0 21 d7 12 be a5 7f 9c bd b6 a7 09 be 8b 06 d8 bd
       -0.14339878 -0.07641534 -0.13442883 -0.10548123
000100 85 3c 1e be 27 6c e0 bd 0b 3c ca bd 39 ae df bd
       -0.15452774 -0.109581284 -0.098747335 -0.10921902
000110 08 43 0d be 73 ff ee bd b8 59 f6 bd b1 1a a9 bd
       -0.13795102 -0.11669817 -0.12028831 -0.08257044
000120 35 14 f5 bd 39 2d c6 bd e8 aa ec bd 0d bf e9 bd
       -0.11966745 -0.09676594 -0.11556035 -0.11413393
000130 51 8e 05 be fa a2 ba bd d0 79 0e 3f 52 3d 1b be
       -0.1304257 -0.091131166 0.5565462 -0.1516011
000140 92 c5 5e be b9 c4 ea bd d7 a0 bc bd b7 47 03 be
       -0.21755055 -0.11463303 -0.09210365 -0.12820326
000150 2c b7 d9 bd 31 c6 fc 3e d2 5d 53 bd 5e 87 35 be
       -0.106306404 0.49369958 -0.051603146 -0.1772742
000160 b6 0b c1 bd f8 62 ed bd 58 99 01 be bc 42 c6 bd
       -0.09426062 -0.115911424 -0.12656152 -0.09680697
000170 f4 45 63 be 81 26 d0 bd c5 39 b9 bd 29 02 ec bd
       -0.22194654 -0.10163594 -0.09044222 -0.115238495
000180 20 15 e8 bd 77 85 f8 bd ba 14 ff bd df cd 4d be
       -0.11332154 -0.121348314 -0.12455125 -0.20098065
000190 ce ac e7 bd cf 2a e6 bd 28 e4 10 be 3e df f6 bd
       -0.11312257 -0.11238634 -0.14149535 -0.12054299
0001a0 7b 39 cb bd d9 0c d1 bd f2 07 da bd c6 56 d9 3e
       -0.09923073 -0.102075286 -0.10646047 0.42449015
0001b0 5b 0a cb bd 42 ba 6d bd de 6c fe bd 8e d8 dd bd
       -0.099140845 -0.058038957 -0.124231085 -0.1083232
0001c0 11 34 3a be 32 fc c1 bd a2 c2 28 be 97 22 ed bd
       -0.18183924 -0.094719306 -0.16480497 -0.11578863
0001d0 4f a0 ef bd 6a 2f e0 bd 41 78 0e be 65 71 df bd
       -0.11700498 -0.109465435 -0.1391306 -0.109103
0001e0 bf 5b 2a be 6a 5d 7e bd a4 30 e4 bd 45 72 b2 bd
       -0.16636561 -0.062100805 -0.1114209 -0.087132014
0001f0 66 78 ec bd 09 65 df bd 54 e4 03 be e1 4e de bd
       -0.11546402 -0.10907943 -0.12880069 -0.10854889
000200 1a 17 8a bd 7d 03 a0 bd 01 f6 a0 bd 2a d5 83 bd
       -0.067426875 -0.07813165 -0.078594215 -0.06437142
000210 db 52 a9 3b 76 b7 c8 bd b8 71 b1 bd f6 64 ab bd
       0.005167348 -0.098006174 -0.08664268 -0.08368866
000220 0c 84 b2 bd 0d 59 9b bd 4b 53 ae bd 28 26 ff bd
       -0.08716592 -0.075853445 -0.085119806 -0.124584496
000230 80 c3 9a bd ad 1d a2 bd 30 d6 91 bd 4d 54 8f bd
       -0.0755682 -0.079158165 -0.07120931 -0.06998501
000240 12 24 04 bf 6c d6 97 bd fe 86 76 bd b9 8f bb be
       -0.5161754 -0.074139446 -0.060187332 -0.3663309
000250 a7 bb 90 bd 8f 36 a0 bd 7f a4 70 bd 0c 9d 92 bd
       -0.07067042 -0.07822906 -0.058750626 -0.071588606
000260 4a 83 44 bd 16 b6 67 be 5b a8 c8 bd cc e2 75 bd
       -0.04797677 -0.22628054 -0.09797736 -0.060030743
000270 cd f8 1c be 93 62 c1 bd 44 16 14 be 94 ad cb bd
       -0.15329285 -0.0944263 -0.14461619 -0.09945217
000280 e7 9b b0 bd ff cf 8c bd d3 4b 53 be 49 57 90 bd
       -0.08623486 -0.068756096 -0.20634393 -0.07047898
000290 0a 58 9c bd ac 73 bd bd 8a 52 7b bd 77 e3 ae bd
       -0.076339796 -0.09250578 -0.061358012 -0.08539479
0002a0 08 94 99 bd 20 e3 b4 bd 33 29 89 3e 0c c4 b9 bd
       -0.07498938 -0.08832383 0.26789245 -0.09070596
0002b0 18 ec 91 bd f9 23 aa bd 7c 0a b6 bd fd 0f 9a bd
       -0.071251094 -0.083076425 -0.088887185 -0.07522581
0002c0 17 64 5f be 28 b4 b9 bd b9 31 c7 bd ca 93 b4 bd
       -0.21815525 -0.09067565 -0.09726281 -0.08817251
0002d0 8d 44 89 bd c2 a2 b4 bd ed 6c de bd 55 0e 47 bd
       -0.06702528 -0.08820106 -0.1086062 -0.048597652
0002e0 89 79 d2 bd 2a 55 a6 bd 17 8f 6e bd 3b 17 ae be
       -0.10277087 -0.081217125 -0.05824193 -0.34002098
0002f0 e8 97 c2 bd 64 02 1d be 47 8a 92 be 15 2f b7 bd
       -0.0950163 -0.15332943 -0.28621122 -0.08944527
000300 ac 77 89 be 63 35 7b bd 13 fa a1 bd c7 13 b2 bd
       -0.26849115 -0.06133021 -0.07909026 -0.086951785
000310 a0 e4 c7 bd 2b e2 02 be 60 33 a5 bd fa 66 92 bd
       -0.09760404 -0.12781589 -0.0806644 -0.071485475
000320 fb 7b 0a be 0e 8b a0 bd 17 6d 9f bd 09 dc 98 bd
       -0.13523857 -0.078390226 -0.07784479 -0.074638434
000330 5b 06 b1 bd 2b 20 92 bd db bf a1 3e 84 6c dc bd
       -0.0864379 -0.07135042 0.31591687 -0.10762885
000340 de 19 b2 be 6f a9 9f bd e7 94 7e bd 00 a2 8f bd
       -0.3478536 -0.07795989 -0.062153723 -0.07013321
000350 c9 16 9a bd 8d 3e 9b 3e ba 30 46 bc fe a1 13 be
       -0.07523877 0.3032116 -0.012096578 -0.14417264
000360 a5 48 9b bd 38 9a b8 bd 0a 20 b6 bd 02 bc d9 bd
       -0.07582215 -0.0901379 -0.0889283 -0.10631563
000370 5c 68 74 be 54 f4 6f bd f5 7a 93 bd 1f 47 99 bd
       -0.23867935 -0.05858262 -0.072011866 -0.074842684
000380 53 2f 8d bd 8c 44 b7 bd cc c4 9a bd 31 81 19 be
       -0.06893792 -0.08948621 -0.07557067 -0.14990689
000390 a9 dd 99 bd 51 2f 93 bd 41 85 78 bd 11 a7 c2 bd
       -0.075129814 -0.07186759 -0.060673956 -0.09504522
0003a0 46 1f 98 bd c6 c1 cb bd 98 8f 86 bd e3 90 68 3e
       -0.0742784 -0.09949069 -0.06570357 0.2271152
0003b0 f4 5f 58 be d4 16 a7 bc 01 88 a7 bd eb e9 a4 bd
       -0.21130353 -0.020396627 -0.081802376 -0.08052429
0003c0 7f 5f a1 be a5 9d 93 bd 3e ae e4 bd e4 a0 a1 bd
       -0.3151817 -0.07207803 -0.111660466 -0.078920156
0003d0 31 62 34 be 70 65 56 bd 52 f4 b8 bd 38 c8 79 bd
       -0.17615582 -0.052342832 -0.090309754 -0.06098196
0003e0 7b ca f3 bd f1 7a 0a bd 34 39 9b bd 30 54 a8 bd
       -0.119038545 -0.033808652 -0.0757927 -0.082191825
0003f0 f4 8f 4e be 9a e8 9b bd 62 e6 aa bd c5 42 9c bd
       -0.20172101 -0.076127246 -0.08344723 -0.07629923

lstm.bias_hh f4 [512]
000000 32 5b e1 bd b6 b7 e2 bd 57 5c 02 be 4e 06 ce bd
       -0.11003722 -0.11070196 -0.12730537 -0.10059796
000010 48 da 49 be 82 0a 4f 3e 01 4b ea bd 22 51 d3 bd
       -0.19712174 0.20218852 -0.11440087 -0.10318209
000020 53 87 08 be 7d 04 03 be 72 0e c6 bd 2d 4c 3e bd
       -0.13332872 -0.12794681 -0.09670724 -0.046459366
000030 01 df da 3d 3c 59 19 be c1 5d de bd 8c 2b eb bd
       0.10687066 -0.14975446 -0.10857726 -0.11482915
000040 75 cd b7 bd be 7d f8 bd ce 7c bc bd a1 d2 0a bd
       -0.08974735 -0.121333584 -0.09203492 -0.033892278
000050 9d 7e 05 be 8f 2d dc bd ed d7 9e bd c6 14 d0 bd
       -0.1303658 -0.10750877 -0.07756028 -0.10160212
000060 c0 89 a4 bd 76 c7 02 be eb 52 06 be 98 f9 d7 bd
       -0.08034086 -0.12771401 -0.13117568 -0.10545653
000070 ec 5d 7c bd 15 0b 09 be ea 99 55 bd b5 0d 04 be
       -0.06161301 -0.13383134 -0.052148737 -0.12895854
000080 ed 48 d0 bd fa 21 ea bd 1f f7 cb bd 67 93 d7 bd
       -0.101701595 -0.11432262 -0.09959244 -0.10526162
000090 81 97 cf bd 89 69 d3 bd dc 64 98 3e c2 47 f2 bd
       -0.10136319 -0.103228636 0.2976445 -0.11830093
0000a0 66 cd eb bd a5 27 04 be 35 c1 e8 3e bf 60 aa 3d
       -0.11513786 -0.12905748 0.45459905 0.08319234
0000b0 fb 00 e4 bd 87 db f1 bd 74 22 09 be 58 cd f4 bd
       -0.111329995 -0.1180945 -0.13392049 -0.11953229
0000c0 19 ed c8 bd 90 ec fb bd 00 8c 0e be f7 21 ed bd
       -0.09810848 -0.1230098 -0.13920593 -0.11578744
0000d0 78 20 f9 bd e3 74 f3 bd d1 84 f4 bd 5a b7 bf bd
       -0.12164396 -0.11887529 -0.11939395 -0.093611434
0000e0 17 bd ff bd 44 ca 1d be e4 ec cc bd c8 0f 08 be
       -0.12487238 -0.1540919 -0.10006121 -0.1328727
0000f0 84 d7 12 be 4c 1d 06 bd c4 de c0 bd 8b 06 d8 bd
       -0.14340025 -0.032742783 -0.09417489 -0.10548123
000100 93 23 04 be 27 6c e0 bd 0b 3c ca bd 39 ae df bd
       -0.12904195 -0.109581284 -0.098747335 -0.10921902
000110 08 43 0d be 16 00 ef bd 12 5a f6 bd b3 1a a9 bd
       -0.13795102 -0.11669938 -0.12028898 -0.082570456
000120 d3 a3 f4 bd 63 2d c6 bd e8 aa ec bd 0d bf e9 bd
       -0.119453095 -0.096766256 -0.11556035 -0.11413393
000130 71 8e 05 be 55 9f ba bd c1 69 0e 3f d1 3c 1b be
       -0.13042618 -0.091124214 0.5563012 -0.15159918
000140 91 7d 78 be bb c4 ea bd e1 a0 bc bd b7 47 03 be
       -0.2426665 -0.114633046 -0.09210373 -0.12820326
000150 2e b7 d9 bd d1 38 ff 3e d8 5d 53 bd a3 e0 38 be
       -0.10630642 0.49848035 -0.05160317 -0.18054442
000160 fe 0b c1 bd 1f 63 ed bd 5d 99 01 be 03 19 c6 bd
       -0.094261155 -0.115911715 -0.1265616 -0.09672739
000170 32 dc 71 be 81 26 d0 bd c5 39 b9 bd 29 02 ec bd
       -0.23619154 -0.10163594 -0.09044222 -0.115238495
000180 20 15 e8 bd 91 85 f8 bd b2 14 ff bd e1 9f 51 be
       -0.11332154 -0.12134851 -0.12455119 -0.20471145
000190 ce ac e7 bd cf 2a e6 bd 23 d6 10 be 00 df f6 bd
       -0.11312257 -0.11238634 -0.14144187 -0.120542526
0001a0 0c 39 cb bd eb 0b d1 bd f1 07 da bd 57 3c df 3e
       -0.0992299 -0.10207351 -0.10646046 0.43600723
0001b0 39 d6 db bd 42 ba 6d bd de 6c fe bd 8e d8 dd bd
       -0.10734219 -0.058038957 -0.124231085 -0.1083232
0001c0 66 f4 8b be 32 fc c1 bd 33 bf 28 be b5 21 ed bd
       -0.273349 -0.094719306 -0.16479187 -0.11578695
0001d0 67 2e ee bd f0 d0 dd bd 3e 78 0e be 6e 71 df bd
       -0.11629944 -0.10830867 -0.13913056 -0.10910307
0001e0 f8 a1 2b be 6e 5d 7e bd cc 32 e4 bd ef 77 b2 bd
       -0.16761005 -0.06210082 -0.11142501 -0.08714282
0001f0 ad 70 ef bd 07 65 df bd 4e e4 03 be e1 4e de bd
       -0.11691413 -0.10907941 -0.1288006 -0.10854889
000200 a3 08 8a bd 7d 03 a0 bd 01 f6 a0 bd 2a d5 83 bd
       -0.067399286 -0.07813165 -0.078594215 -0.06437142
000210 e2 77 41 3c ae 13 e1 bd b8 71 b1 bd f6 64 ab bd
       0.011808367 -0.10990082 -0.08664268 -0.08368866
000220 0c 84 b2 bd 0d 59 9b bd 4b 53 ae bd a2 a0 ff bd
       -0.08716592 -0.075853445 -0.085119806 -0.1248181
000230 3f 25 8e bd 5c 30 a2 bd 30 d6 91 bd 4d 54 8f bd
       -0.06940698 -0.0791938 -0.07120931 -0.06998501
000240 f1 d1 eb be 6c d6 97 bd fe 86 76 bd 29 7f dd be
       -0.4605861 -0.074139446 -0.060187332 -0.43261078
000250 a7 bb 90 bd 8f 36 a0 bd 7f a4 70 bd 0c 9d 92 bd
       -0.07067042 -0.07822906 -0.058750626 -0.071588606
000260 4a 83 44 bd 65 b4 66 be 5b a8 c8 bd cc e2 75 bd
       -0.04797677 -0.22529753 -0.09797736 -0.060030743
000270 ca aa 1c be 93 62 c1 bd 14 ee 10 be 94 ad cb bd
       -0.15299526 -0.0944263 -0.1415332 -0.09945217
000280 e7 9b b0 bd ff cf 8c bd ed b3 53 be 49 57 90 bd
       -0.08623486 -0.068756096 -0.20674105 -0.07047898
000290 0a 58 9c bd ac 73 bd bd 99 c8 ab bd 77 e3 ae bd
       -0.076339796 -0.09250578 -0.0838787 -0.08539479
0002a0 08 94 99 bd 20 e3 b4 bd 79 cd 88 3e 73 f7 8d bd
       -0.07498938 -0.08832383 0.26719263 -0.06931963
0002b0 18 ec 91 bd f9 23 aa bd 7c 0a b6 bd fd 0f 9a bd
       -0.071251094 -0.083076425 -0.088887185 -0.07522581
0002c0 4f 2b 5e be 28 b4 b9 bd b9 31 c7 bd ca 93 b4 bd
       -0.21696208 -0.09067565 -0.09726281 -0.08817251
0002d0 f6 43 89 bd c2 a2 b4 bd ed 6c de bd 55 0e 47 bd
       -0.06702416 -0.08820106 -0.1086062 -0.048597652
0002e0 89 79 d2 bd 32 4a a6 bd 17 8f 6e bd a7 b8 ac be
       -0.10277087 -0.081196204 -0.05824193 -0.3373463
0002f0 e8 97 c2 bd 8c 03 1c be 40 74 99 be 15 2f b7 bd
       -0.0950163 -0.15235728 -0.29971504 -0.08944527
000300 8c a0 88 be 63 35 7b bd 13 fa a1 bd c7 13 b2 bd
       -0.26684988 -0.06133021 -0.07909026 -0.086951785
000310 a0 e4 c7 bd 2b e2 02 be 60 33 a5 bd fa 66 92 bd
       -0.09760404 -0.12781589 -0.0806644 -0.071485475
000320 e1 7b 0a be 0e 8b a0 bd 17 6d 9f bd 09 dc 98 bd
       -0.13523819 -0.078390226 -0.07784479 -0.074638434
000330 5b 06 b1 bd 29 20 92 bd 3e 31 a2 3e 84 6c dc bd
       -0.0864379 -0.0713504 0.31678194 -0.10762885
000340 ca ab a6 be 6f a9 9f bd e7 94 7e bd 00 a2 8f bd
       -0.3255294 -0.07795989 -0.062153723 -0.07013321
000350 c9 16 9a bd f0 ce 98 3e ba 30 46 bc a1 54 13 be
       -0.07523877 0.2984538 -0.012096578 -0.14387752
000360 a5 48 9b bd 38 9a b8 bd 0a 20 b6 bd 19 bc d9 bd
       -0.07582215 -0.0901379 -0.0889283 -0.1063158
000370 0d 53 69 be 54 f4 6f bd f5 7a 93 bd 1f 47 99 bd
       -0.22785588 -0.05858262 -0.072011866 -0.074842684
000380 53 2f 8d bd 8c 44 b7 bd cc c4 9a bd b2 87 19 be
       -0.06893792 -0.08948621 -0.07557067 -0.1499317
000390 a9 dd 99 bd 51 2f 93 bd 4b 85 78 bd 11 a7 c2 bd
       -0.075129814 -0.07186759 -0.060673993 -0.09504522
0003a0 46 1f 98 bd c6 c1 cb bd 98 8f 86 bd e8 c0 73 3e
       -0.0742784 -0.09949069 -0.06570357 0.23804057
0003b0 62 d5 63 be d4 16 a7 bc 01 88 a7 bd eb e9 a4 bd
       -0.22249368 -0.020396627 -0.081802376 -0.08052429
0003c0 74 bd a8 be a5 9d 93 bd eb ad e4 bd e4 a0 a1 bd
       -0.3295704 -0.07207803 -0.11165985 -0.078920156
0003d0 90 52 34 be 4f 63 56 bd 52 f4 b8 bd 38 c8 79 bd
       -0.1760962 -0.0523408 -0.090309754 -0.06098196
0003e0 52 f1 f3 bd f1 7a 0a bd 34 39 9b bd 30 54 a8 bd
       -0.119112626 -0.033808652 -0.0757927 -0.082191825
0003f0 90 ce 4c be 9a e8 9b bd 62 e6 aa bd c5 42 9c bd
       -0.20000672 -0.076127246 -0.08344723 -0.07629923

output_w.weight f4 [5, 128]
000000 f6 95 7a bc 98 a2 95 3a 86 43 bf b9 58 b2 a6 3b
       -0.015294543 0.0011416255 -0.00036480668 0.005087178
000010 fe 1a 40 bc 7e c0 da bc a0 5d a1 ba c8 db 07 3c
       -0.011725185 -0.026703116 -0.0012311228 0.008292146
000020 3c bc 62 ba 68 93 f3 38 d8 91 cb bb 4d ee f5 bc
       -0.0008649265 0.000116145995 -0.0062124543 -0.030020857
000030 ff df 01 bd 77 7d db bb de d4 08 3a fc e1 1a 3c
       -0.03170776 -0.006698306 0.0005219708 0.009453293
000040 a8 fb b8 be 5c 5c 18 ba 64 bf 13 bc 57 fb 40 3e
       -0.36129498 -0.00058121025 -0.009017799 0.18845879
000050 30 bf bc 3b 7d 2b e4 3b b7 96 d4 3a 1d db c7 3b
       0.005760096 0.006963192 0.0016219233 0.0060991184
000060 94 27 9e 3b 16 a2 2e 3d 66 34 1b bc 2e ec 88 bb
       0.0048264954 0.042635046 -0.009472942 -0.0041785454
000070 0c 90 13 bc 28 04 55 3c 94 a2 02 3d d6 cc 44 3c
       -0.009006511 0.013001479 0.031893328 0.012011727
000080 b2 e9 80 3b 04 b2 1e 3b 28 68 c9 3c 50 85 56 3b
       0.0039341087 0.0024214992 0.024585798 0.003273327
000090 5d b2 a7 3b 4d 51 34 3b 43 74 34 3d a2 6a 56 bc
       0.005117698 0.002751428 0.04405619 -0.013086947
0000a0 28 20 02 bc 8d 51 12 3b e6 a5 fd 3b ae 30 51 bd
       -0.007942237 0.002232644 0.007740724 -0.051071815
0000b0 34 9d d9 3a 49 47 62 3c ac 73 d2 ba 2a a8 61 bc
       0.0016602636 0.013810941 -0.0016056201 -0.013773004
0000c0 09 3f e6 bc 61 b2 29 3b 58 05 d8 3a 39 6f 0e 3c
       -0.02810623 0.0025893676 0.0016481085 0.00869351
0000d0 07 98 40 3c 2e 6d e9 3b 92 08 bc 3a 78 2c 07 3c
       0.011754996 0.007123611 0.0014345816 0.008250348
0000e0 7d bd ee 3b af 82 07 bd ac e9 a9 3b 37 4b 92 3d
       0.0072857724 -0.033083614 0.0051853266 0.07143252
0000f0 6d 41 99 bb 3c aa 17 be a6 90 f6 3d c1 22 27 3b
       -0.004676989 -0.14811033 0.12039308 0.0025502893
000100 e7 ab 97 bc 22 5d 36 bc f7 fb 0c bb 6e 17 04 3c
       -0.018514587 -0.011130603 -0.0021512487 0.008062227
000110 06 be ff bb d2 ec 05 bc b4 a7 80 3c 2a 05 90 3b
       -0.007804635 -0.008174138 0.015704967 0.004395147
000120 00 d7 2f bc 00 74 af b7 10 e4 71 39 e3 2c 47 bb
       -0.010732412 -2.0915642e-05 0.00023068511 -0.0030391745
000130 62 fb 9f 3b ef 0e 28 3b 5e 8f 30 be 5e c3 5f bc
       0.004882262 0.0025643667 -0.1724219 -0.013657419
000140 18 b2 8f 3e 4a 62 ba bb 4f 41 08 bc b8 ce 12 3b
       0.28065562 -0.0056879865 -0.008316352 0.0022401046
000150 80 48 db b9 4a dd 1e 3e 50 80 4d 3b 6d 01 80 bd
       -0.00041824952 0.15514103 0.0031356998 -0.06250272
000160 ec 9f fc 3a b6 9f f7 b9 ec 28 0e ba 7d 32 0d bc
       0.0019273735 -0.00047230505 -0.0005422968 -0.008617994
000170 5c 9b 65 bd 78 e2 d6 bb eb 71 78 3b 48 90 ee 3a
       -0.056056365 -0.006557759 0.0037909697 0.0018200958
000180 4f 89 18 3c b6 1b 4e bc 5f ff fe ba 16 9e 0c 3d
       0.009310081 -0.012579849 -0.0019454769 0.03433045
000190 41 96 a3 3b e8 49 7c 3b 23 50 1f 3c 2e c9 42 3c
       0.004992277 0.00384962 0.009723696 0.011888785
0001a0 a0 0b 27 b8 73 91 d8 3b 6a a3 15 3b 24 9b cc 3c
       -3.982673e-05 0.006609136 0.0022832998 0.02497632
0001b0 e8 fb d6 bd 5a 09 e7 bb 2b 78 a5 3a 80 61 15 3c
       -0.10497266 -0.0070506753 0.0012624314 0.009117484
0001c0 3e a3 0b 3e a0 1f b2 bb b2 86 57 bc 6f ee d9 bb
       0.1363649 -0.005435899 -0.013154672 -0.006650738
0001d0 77 41 a3 bb 30 f2 b9 3b ac 6b a3 ba 90 06 36 bb
       -0.0049821693 0.005674623 -0.0012468002 -0.0027774908
0001e0 bc 3f d9 3a a6 45 f2 bb d8 0e 86 b9 c3 1d a9 3b
       0.001657478 -0.0073935566 -0.0002556953 0.0051610186
0001f0 ac 40 6e bb 81 c6 14 bc 17 1b 50 3b 44 a7 cb ba
       -0.0036354465 -0.00908053 0.0031754428 -0.001553752
000200 cd 4d d5 3c cd 9a ef 3a 6b 43 25 bb d2 d9 45 bc
       0.026038075 0.0018280387 -0.0025217186 -0.012075858
000210 6c ce e5 bd bc 17 9c bd 38 a5 74 3a 3b 01 2d bb
       -0.112210125 -0.076217145 0.0009332481 -0.0026398438
000220 64 ae 7a 3b 99 d4 fe 3b 86 3d 6a bb 7b 63 35 3d
       0.0038250918 0.0077768085 -0.0035742237 0.044284325
000230 d9 a6 e8 3c 10 7f 43 bd 89 1d 09 3b 17 56 23 bc
       0.028399872 -0.047728598 0.0020922145 -0.009969256
000240 2f 27 04 3f 44 65 62 bb 78 9b 24 3c 80 07 d2 3e
       0.5162229 -0.0034545222 0.010046832 0.41021347
000250 fe a0 b9 bc a3 63 79 bb ce 70 ae ba 50 13 7f bc
       -0.022659775 -0.0038053773 -0.0013308765 -0.015568569
000260 eb d7 8a bb 51 b4 3f bd 14 83 34 3c e2 b1 b2 ba
       -0.004237165 -0.046802823 0.01101758 -0.0013633335
000270 69 2f 12 bd 48 53 25 bc 82 8a 84 3d 6d a0 66 bb
       -0.035689745 -0.010090657 0.06471731 -0.0035190836
000280 6d b4 42 ba 47 a1 d8 bb a4 10 b4 ba 1f 1e 3a bc
       -0.0007427398 -0.0066110226 -0.001373787 -0.0113597205
000290 35 2b 81 3b 43 e5 d4 3b bb d5 26 bd ef 85 57 3c
       0.0039419183 0.0064970567 -0.040731173 0.013154491
0002a0 95 f5 89 3b f2 69 77 bb b7 dc ca 3d 27 ca c9 3d
       0.004210184 -0.0037752357 0.09905379 0.098530106
0002b0 b3 57 20 3b 19 f3 f2 ba 48 d4 3e 3b 1f 57 6a 3c
       0.0024466335 -0.0018535584 0.0029118229 0.014302998
0002c0 5f 07 8f 3c b8 7b 1b bb 93 8d 6b 3b 5f 82 0d bc
       0.01745957 -0.0023724865 0.003594254 -0.00863704
0002d0 c8 3e 3b bc f3 02 2f bc aa b3 b3 bb 17 dd 2e bc
       -0.011428542 -0.0106818555 -0.005484064 -0.010672829
0002e0 cf 21 39 3a c1 99 96 3c 7e 6b 8f bc f4 0a 0b bd
       0.0007062228 0.018383862 -0.017507311 -0.033945993
0002f0 37 d0 f1 3b f2 45 98 bc dc 9a 0f bd 70 68 cb bb
       0.0073795575 -0.01858804 -0.035059795 -0.0062075183
000300 10 6c e3 bd 10 09 2e 3c 43 bc c3 bb bd 99 f5 ba
       -0.11104596 0.010622278 -0.0059733703 -0.0018737834
000310 81 20 40 3c 5a cd 37 3c 86 56 f3 bb 70 89 b9 3b
       0.0117265 0.011218393 -0.007426086 0.005662136
000320 c6 6e 89 bc d2 74 21 3b 13 51 2a 3b 4a ac 83 39
       -0.016776454 0.002463628 0.0025988265 0.00025114632
000330 ec c4 e9 bb 89 df 32 3b 31 db 0e bd 7c bc f0 3b
       -0.0071340706 0.0027293882 -0.034877006 0.007346688
000340 69 44 01 3e c5 22 33 ba ec cf 18 3c 04 02 9d 3a
       0.12623753 -0.0006833489 0.009326916 0.001197875
000350 df fd 92 39 f7 83 83 bd 5b 78 20 bc 61 eb f9 3c
       0.0002803644 -0.06421655 -0.00979432 0.030507745
000360 94 22 cc bb 4c 0a 8a 38 d0 7e b3 3b 74 61 aa bb
       -0.006229708 6.582271e-05 0.0054777637 -0.0051996056
000370 b4 61 46 bc b0 03 d9 3b e1 1f a5 bb 03 ea be 3b
       -0.012108255 0.006622754 -0.0050392007 0.005826236
000380 d0 f2 89 bb b8 18 22 3c df 25 16 3b 2b 04 1f bd
       -0.0042098537 0.009893589 0.0022910757 -0.038822334
000390 4e f4 12 3b 91 fc 98 ba 45 6b fa bc 72 fc d7 bb
       0.002242345 -0.001167195 -0.030568728 -0.006591373
0003a0 2e 89 8f 3c 96 42 4f bc a9 35 4b bc 93 80 c3 3d
       0.017521467 -0.012650153 -0.01240293 0.09546008
0003b0 94 79 18 3c 24 37 0c 3c 7c 56 41 3a af cc 35 bc
       0.00930633 0.008558068 0.0007375253 -0.011096164
0003c0 18 31 c2 3d a1 b2 1e 3b aa dd 5d 3c e7 ad 27 3c
       0.0948202 0.0024215358 0.013541618 0.010234333
0003d0 d0 75 a9 bc ce 1d 6c bb aa 76 df 3b 46 41 d6 bb
       -0.02068606 -0.0036028507 0.006819566 -0.006538543
0003e0 ae 75 51 3d 3e 7d 03 3c ba aa de ba f2 44 05 bc
       0.05113762 0.0080254655 -0.0016988136 -0.008134114
0003f0 b0 a9 08 3d 2a 73 98 3b 2d c8 8d bb e8 2e 87 b8
       0.03336495 0.0046524005 -0.0043268413 -6.4460386e-05

output_w.bias f4 [5]
000000 54 40 14 bd 15 71 5f 3d db fb 5f bf 32 1a 6b bf
       -0.03619416 0.054551203 -0.87493676 -0.91836846
000010 a0 42 ef bd
       -0.116826296

square_avg f4 [64]
000000 b8 4a 01 3d b7 6d 42 3e 7c 34 91 3d 00 73 ff 2d
       0.031565398 0.18987165 0.07090089 2.9041214e-11
000010 f6 06 89 36 18 21 28 3c 93 5f 5a 3c f1 38 cd 36
       4.0837285e-06 0.010261796 0.013328451 6.116105e-06
000020 98 03 a5 3b a8 77 d3 3b c6 6f f0 3c 97 a1 44 3c
       0.005035829 0.006453473 0.029350173 0.012001417
000030 d2 d0 41 3d d2 d0 1c 3c 88 61 16 3b 07 bb 38 39
       0.047318287 0.009571271 0.0022946317 0.0001761728
000040 12 b7 d2 3b 86 18 51 33 39 ba 2e 3c 57 3e c7 3e
       0.006430515 4.868391e-08 0.010664516 0.3891475
000050 dd b3 a9 38 3e 2f 80 3c f1 f5 1e 3a e9 26 dd 3a
       8.09205e-05 0.015647527 0.000606387 0.0016872558
000060 ec a6 39 3d 51 48 d1 31 f5 dc f2 3d db 5a 0e 35
       0.045325205 6.090922e-09 0.118585505 5.3031334e-07
000070 19 6b d5 3d 2e 91 94 3d 88 bc 34 3d cf c0 ea 3b
       0.10420818 0.07254253 0.04412511 0.007164098
000080 dd be f3 3c 39 af c2 3d e0 92 6b 3d fb df a1 3c
       0.029754097 0.09506077 0.057513118 0.019760123
000090 65 7a db 3d 74 c8 18 3d 9a c9 3e 2d 25 de 12 3c
       0.10716704 0.037300542 1.0845014e-11 0.008964096
0000a0 57 d5 b3 3c de 0f 76 38 18 b2 1f 30 c0 aa f5 3b
       0.021952314 5.8665748e-05 5.809695e-10 0.0074971616
0000b0 01 d1 81 32 f1 17 9a 3a 4e b2 dd 3c b9 9b 98 3c
       1.511262e-08 0.0011756403 0.027062561 0.018628942
0000c0 93 4f de 3a ce ae 53 3e c2 df 55 30 c7 d5 f8 3c
       0.0016960971 0.20672151 7.780693e-10 0.030375374
0000d0 ad 6b 63 32 ef 55 03 2f fe f6 76 3d b4 f9 1f 3b
       1.3237622e-08 1.194491e-10 0.060294144 0.002441031
0000e0 19 31 48 3c cf 79 ba 39 9c fb 94 39 41 e8 25 3d
       0.012218737 0.0003556744 0.00028416223 0.040504698
0000f0 6f 8b 04 3d 16 cc 96 3c 0c 37 d8 3b 96 bb d7 3c
       0.032359537 0.018407863 0.006598359 0.026334565

square_avg f4 [5]
000000 98 59 9f 40 4a 2b 47 41 28 a9 a5 3d 24 86 e0 3e
       4.9796867 12.448069 0.080889046 0.4385234
000010 3f 5d 18 3d
       0.0371983
