S-LSTM/Goal+Socail_Array_PyTorch/social_lstm/save/0/social_model_epoch_6.pth (torch, 819255 bytes, 22 tensors)

embedding_b f4 [64]
00000000: c8d7 323c 752e a9bd 9bfe 1bbe 2442 353e
00000010: f536 fabc b7f9 16bb 6065 2fbd c6bc 8ebd
00000020: 6d0c 1c3d 3858 933e a716 13be 8f2f 023e
00000030: 3bdd 11b4 50c4 e33c a226 70bc cb55 963d
00000040: c5fd 4ebc a43d 9fb5 249f 02be bc67 923d
00000050: ab40 81bc 9924 efbb 9edb 70bd b491 a93d
00000060: 4c4e e8bd ee06 5d3e a0f4 6bbd 2a32 1cbd
00000070: 038d 0bbc ae29 99bb 4cd1 803d 10b2 b6bc
00000080: ccde c63c 4538 71bd f420 15bc b328 b33c
00000090: 1c5b 01be 818e 99bc 0f72 953d fa8c 87bc
000000a0: a54d b43d a469 0b3e eb1b 36bd f353 b8bc
000000b0: d2ca 01bc a275 07b6 9855 1b3d 2376 dabd
000000c0: 9797 8abc ec7c 073c 2294 a63d 4868 533e
000000d0: 7d13 2bbe 5449 75b0 4e6f 10bc 6ec3 02bd
000000e0: 9b08 a1bd 14b9 ba3d 86bd a4bb 9082 c93d
000000f0: ac18 3cbd a8d9 85bd 2551 39bc b42a 3abd
0.010915704 -0.08260814 -0.15233843 0.17701012 -0.030543784 -0.0023037025 -0.042821288 -0.069695994
0.038097788 0.28778243 -0.1436411 0.12713455 -1.358466e-07 0.02780357 -0.014657648 0.073405825
-0.012633746 -1.1864363e-06 -0.1275602 0.07148692 -0.015777906 -0.007298064 -0.058803193 0.08279744
-0.11343059 0.21584675 -0.05760634 -0.038133778 -0.0085175065 -0.004674158 0.0628992 -0.022301704
0.02427616 -0.058891553 -0.009102095 0.021869993 -0.12632412 -0.018744709 0.072971456 -0.016546715
0.08803872 0.13614517 -0.04446022 -0.022500968 -0.007921891 -2.018504e-06 0.037923425 -0.10667064
-0.016917987 0.00826953 0.08133723 0.20645249 -0.16706653 -8.9234686e-10 -0.0088156 -0.031924658
-0.078629695 0.09117332 -0.0050274758 0.09839356 -0.045921966 -0.06535655 -0.01131085 -0.04545088

output_b f4 [5]
00000000: 2e79 313c 3020 ecba f241 2dbf 8183 29bf
00000010: aa2b 753c
0.010832114 -0.0018014964 -0.6767875 -0.66216284 0.014964024

embedding_w.weight f4 [64, 4]
00000000: f12e 803f 6bec bdbe 8b97 c3bc 57d3 f0bd
00000010: af31 e8be 6535 58bd 57c8 5cbe 515b f63d
00000020: ee62 c4be 617e 3b3d b4ca 093e 2923 17be
00000030: 5fdd 81bf 2204 793f ae7b 22be ba14 8b3e
00000040: a616 b7bc ce64 3bbd 9441 673d f91d 17bd
00000050: 566b d33c b011 4b3d 0ad7 a73c 7219 d93c
00000060: 9375 fdbe 2502 5a3f 5f97 933c 4ecc 8fbd
00000070: f5db fcbe 8ea7 663e c998 62bd 66d3 1a3d
00000080: 6cc0 023d 7d47 703f bacf 49bd 6bf3 fe3b
00000090: fcf9 20bf 4552 9cbf 25c4 0abe 99d4 353e
000000a0: 7089 613e ec74 aabb 27ad f9bd 3e9e a13d
000000b0: d236 9e3d e963 6e3f 46c5 f73d 9bc3 a43e
000000c0: 801c 051e 1cfc 2491 8836 50a4 04e6 3927
000000d0: 500e 82bf c0e4 3dbe c21b a4bd bfbb 18be
000000e0: 3d33 f23d 33ad 93bf f082 0b3e c7e9 f0bc
000000f0: 042a a33f e99b 393f 172e 463d b494 3cbb
00000100: c9da 3c3b fea6 bcb7 768e ee39 ee01 0cb9
00000110: fe22 871b f01e 2195 03cb a99b 186d 2a91
00000120: b249 10bf df91 9dbe e671 ea3e cb28 603e
00000130: 38f3 783f 9b0b 4bbf 23ad 5e3d 5478 07bc
00000140: a2ca 563f 326d 1cbf 0ee8 f6bd 61b3 8bbd
00000150: ce30 d3bb de69 fe38 118b 10bc e6c2 e039
00000160: e3f5 063e ceeb 0dbf 290d d63d c705 433e
00000170: 7869 7d3f 2a32 17be 92fc c53e 54eb b33e
00000180: 554c 8c3f 8714 313f 84f5 da3d f92c a73d
00000190: 12f3 553f 65bb 6d3f a4c4 0a3d 6d8f 69bb
000001a0: dd78 173e d1b8 993e 5401 02be 2697 69be
000001b0: f8f8 7dbf 0802 5b3f c616 88be da1f cb3d
000001c0: 72ad 803c a974 c0bc 532c 2abd d19f 7ebc
000001d0: 561e 4c3f 5beb 59be 18dd 31bd dc29 ad3d
000001e0: 0b68 ea3e 9fb7 213f 1992 153d c3f0 803d
000001f0: 3560 943f 5b3b d03d ce79 50be 11f8 343e
00000200: e1e5 cdbc c667 9e3d 9923 d33c 0824 bd3d
00000210: 1349 0c3f 7b18 ed3e 6b2d 6abd 15dd d1bd
00000220: 6568 f1bb 25b9 10bc b2ef dabc 21d7 a6bb
00000230: 5973 803f a0af 45bf bd3f 633e 0b22 dfbe
00000240: b3c5 4fbf 63f7 4b3e 28e5 d83c 135c 3abe
00000250: af71 963b cd95 eabc 2125 e43b 822d e83c
00000260: b25a 123f 0b05 71bf 9d3f 943e 20b5 8f3d
00000270: 8a19 d839 8d18 7ebc a109 08b8 70dc 513a
00000280: 7601 8cbf 486a 0ebf 5ca8 bcbd 944a 4ebd
00000290: 5222 2ebd db93 8d3f 6f41 a43d 7c58 c13e
000002a0: 54fb 91be f689 5dbf 28c5 7dbb 1a9d 05bf
000002b0: 2c29 d5bc 5593 5fbc 9b97 cc3c ccd0 b53c
000002c0: b072 f43b 524f 1f38 3e33 b03b 3c8a df38
000002d0: 70ff 7a95 068a a6a1 700a 7833 96d8 d020
000002e0: e284 16bc d667 c13d 4003 95b8 e70a 323e
000002f0: 4b8f f03e b1b3 a33e b985 19bd 5834 593e
00000300: 5bff 263f d1a0 49bf 2abf 4bbd 7375 bf3d
00000310: bcc5 a43d a887 8fba d8cd 643d 3554 3fbd
00000320: 2b97 d3bd 0fcd 9d3f 630a c53d bcca c1bc
00000330: 4d17 a53f 8944 363e e479 8b3c 7838 fc3d
00000340: 2ffa cd3e d8b0 f93e 0b7a 28be 2c81 09be
00000350: fdab a2a2 606e 7f90 3a52 d3a2 9025 3c90
00000360: 1e58 0236 22cf cab2 d640 d037 d862 03b8
00000370: a65a 323f 1a3c f6be 7a45 b73d e2ce 093e
00000380: efac 20bf 64f7 d6bc 78b1 9bbe 05fa 4d3e
00000390: 535a 903f eccb e53e 4f43 093e 0b2f 1fbe
000003a0: 9166 0b3a 308b abb9 b858 28bb 03a2 90b9
000003b0: 8c4d 1c3f 0ba3 7b3f 28a8 1b3c 1153 31bd
000003c0: 9d87 5cbf fd43 783e 10d0 2f3e 7d0f d0bc
000003d0: a177 92be 1c75 8ebf c83f 8ebc 967e 9fbe
000003e0: ffb0 39bc 700f 8639 9145 00bc cde7 44b9
000003f0: 9978 4c3f ca1d 703f ef98 dd3c 08df 4c3d
1.0014325 -0.37094435 -0.023875972 -0.1175906 -0.45350406 -0.052785296 -0.21560799 0.12029136
-0.38356727 0.04577482 0.13456231 -0.14759506 -1.0145682 0.9727193 -0.15867493 0.2716425
-0.022349667 -0.04575043 0.056459025 -0.03689382 0.025808018 0.049577415 0.02048828 0.026501391
-0.49503765 0.8515952 0.018016515 -0.0702139 -0.49386564 0.22524855 -0.05532149 0.03779926
0.03192179 0.9385908 -0.04927037 0.0077804825 -0.62881446 -1.2212607 -0.13551386 0.17756881
0.22025084 -0.0052019265 -0.12191229 0.078915104 0.077253 0.931212 0.12098174 0.32180485
7.046855e-21 -1.3015006e-28 -4.5149e-17 2.57986e-15 -1.0160618 -0.18544292 -0.08013107 -0.1491537
0.11826179 -1.1537231 0.13624167 -0.029408349 1.2747197 0.72503525 0.0483838 -0.0028775157
0.002881693 -2.2489108e-05 0.0004550104 -0.0001335216 2.235649e-22 -3.2538096e-26 -2.8089898e-22 -1.3444252e-28
-0.5636245 -0.30775353 0.45790023 0.21890561 0.9724612 -0.79314584 0.054364335 -0.008268435
0.83902943 -0.6110412 -0.1205598 -0.06821323 -0.006445027 0.00012131383 -0.0088222185 0.0004286982
0.13179736 -0.55437934 0.10451729 0.19045173 0.9898906 -0.1476523 0.38669258 0.3514048
1.0960795 0.6917195 0.1069136 0.08162875 0.8357402 0.92864066 0.033878937 -0.0035638467
0.147922 0.30023816 -0.12695819 -0.22811565 -0.9920802 0.85549974 -0.26579875 0.099181846
0.015707705 -0.023493128 -0.041546177 -0.015541033 0.7973379 -0.21281187 -0.043423742 0.0845525
0.45782503 0.6317081 0.036516283 0.06295922 1.159186 0.10167571 -0.20358965 0.17672755
-0.025134029 0.07734637 0.02577381 0.09235388 0.54799 0.4630774 -0.05717222 -0.10247246
-0.007367181 -0.008833204 -0.026725624 -0.0050915633 1.0035201 -0.7722111 0.22192283 -0.4358066
-0.8116104 0.1991859 0.026476458 -0.18199186 0.004591189 -0.028635884 0.006962434 0.028342012
0.5716964 -0.9414832 0.28954783 0.07016969 0.0004121776 -0.015508783 -3.2433894e-05 0.0008005565
-1.0937946 -0.5563092 -0.092117995 -0.050364092 -0.0425132 1.1060747 0.08020293 0.3776282
-0.2851206 -0.86538637 -0.003872225 -0.5219284 -0.026020609 -0.013645967 0.024974635 0.022194289
0.007459961 3.7982427e-05 0.0053772023 0.00010659217 -5.0688603e-26 -1.1285132e-18 5.7751492e-08 3.5379895e-19
-0.009186955 0.09443633 -7.105479e-05 0.17386971 0.46984324 0.3197303 -0.037481043 0.21211374
0.6523339 -0.7876101 -0.049742855 0.093485735 0.08045527 -0.0010950463 0.05586037 -0.046711165
-0.103315674 1.2328204 0.09621122 -0.023656242 1.2897736 0.17799582 0.017025895 0.12315458
0.40229937 0.48767734 -0.16452806 -0.13428181 -4.4092288e-18 -5.0374913e-29 -5.7278725e-18 -3.71054e-29
1.94228e-06 -2.3610088e-08 2.4825724e-05 -3.132489e-05 0.6966957 -0.4809273 0.089487985 0.13457826
-0.62763876 -0.026241012 -0.30408835 0.20114906 1.1277565 0.44882143 0.13404582 -0.15545289
0.0005317713 -0.00032719364 -0.0025687646 -0.00027586528 0.6105583 0.9829566 0.009500541 -0.04329211
-0.8614443 0.24244685 0.17169213 -0.02539801 -0.28606895 -1.1129489 -0.017364398 -0.31151265
-0.011333703 0.00025569974 -0.007829086 -0.00018778369 0.7987152 0.93795455 0.027050463 0.050017387

embedding_w.bias f4 [64]
00000000: e427 bcbc 732e a9bd 45f7 b43d b3e7 05be
00000010: f536 fabc b7f9 16bb d7b0 8abb 514f 91bd
00000020: e0cc 46bd 53fa a83c 3a4c 053e c050 aa3d
00000030: 3bdd 11b4 ca33 d53c 07f0 143e 381f aabd
00000040: c5fd 4ebc a43d 9fb5 88f4 1cbb 36b6 b13e
00000050: 8269 bf3d 9924 efbb f0f0 cf3d 2072 95bc
00000060: 2849 a5bd ad75 7f3d 19c3 b03d 60cd 21be
00000070: 038d 0bbc fb0b 4b3e 3140 b93e b447 143d
00000080: ccde c63c 3150 383e f420 15bc c02e 94bd
00000090: a1d6 783c 818e 99bc 7e64 b63d fa8c 87bc
000000a0: 2e0b 073e 12e4 283e d376 923d f353 b8bc
000000b0: d2ca 01bc a275 07b6 9855 1b3d 3b13 be3d
000000c0: ac61 213d ec7c 073c 75a2 553a d738 a83d
000000d0: e962 0c3e 5449 75b0 4e6f 10bc 1784 133d
000000e0: b308 a1bd fc63 473e 86bd a4bb 2478 b03d
000000f0: 29a5 84bd eaaf 323e 2551 39bc deff b7bd
-0.02296824 -0.082608126 0.088362254 -0.13076667 -0.030543784 -0.0023037025 -0.0042325067 -0.070952065
-0.048535228 0.020627176 0.1301736 0.08316183 -1.358466e-07 0.026025672 0.14544688 -0.08306736
-0.012633746 -1.1864363e-06 -0.0023949463 0.34709328 0.09346296 -0.007298064 0.10153377 -0.018242896
-0.08070594 0.062368084 0.08630962 -0.15801 -0.0085175065 0.19828789 0.36181787 0.036201194
0.02427616 0.1799934 -0.009102095 -0.07235479 0.01518789 -0.018744709 0.08905886 -0.016546715
0.13187858 0.16493252 0.0715157 -0.022500968 -0.007921891 -2.018504e-06 0.037923425 0.09281012
0.039399788 0.00826953 0.0008149513 0.08213966 0.13709606 -8.9234686e-10 -0.0088156 0.036014643
-0.07862987 0.19471735 -0.0050274758 0.08616665 -0.06476814 0.17449918 -0.01131085 -0.0898435

embedding_t_w.weight f4 [1, 8]
00000000: faca 24be 5a06 02be 921c 41be 4d2f fabc
00000010: 2cdf 19be a501 b5bd 1689 16be 0c3f 96bc
-0.16093054 -0.12697735 -0.18858555 -0.030540133 -0.1502654 -0.08838204 -0.14700732 -0.01834061

lstm.weight_ih f4 [512, 65]
00000000: 2f52 babc 8a96 72bb 1058 98bb 89a3 25bc
00000010: 366c 093b be2a 80bb 64d1 8abb cbdf 94bb
00000020: 65ed 0cbb dc44 54bd e2f4 8d3a 298b f3bc
00000030: 0071 73bb bd3e 30bb 1a5f 0cbd b85e d7bc
00000040: ae62 2a3a 44c4 f6ba cbce 9c3b f65c 8abd
00000050: 5eb3 08bd 0af3 0a3a 96de 33bc 7e72 b9bc
00000060: e35f 8ebc 17bb 2cbd ef5c 2c3c cd33 a0bb
00000070: 383d fab9 b3ce 0dbd 2607 8fbd 621d c2bc
00000080: c1f6 3a3c 4b9f eebc 26a7 c034 1486 c9bc
00000090: 0a6b a73b 8ced a51c feb4 ffbc 88b9 dfb6
000000a0: ce92 d8bc 1cd4 20bd 360d f7bc 6a6a ab39
000000b0: 32eb 7e2c d4af cc3a 8669 803c 2374 80bc
000000c0: 4ade cebc 7a24 82bb 52da 10bc 3b06 4abd
000000d0: c777 35bc cc8f 1fbc 3095 acb8 d6d1 6bbc
000000e0: 2e98 80ba 8da7 31bd f4a7 9e38 b4b9 09bd
000000f0: 034d 42bb c0dd 17bd ce4a bb24 0ac5 a0bc
00000100: 16d3 6cbc 2a6e eabc dee8 42bc 0367 13bc
00000110: a1f8 4abe e1cf b8b9 7400 fbbb 36c3 7fbd
00000120: facc bcbb c1bb 5bbd 1d2c acbd f04a 893c
00000130: 916c 72be 5893 0832 0118 13be 9306 9ebd
00000140: 6ce3 5ebd e4bc d1ba 567f 47b5 3f9c a43c
00000150: 049a a4bd 2dc5 75bc ac3e d8ba 0fe8 7cbd
00000160: fbc1 97bc 8783 2bbd 67fc 16be 3853 30bc
00000170: f5a5 bcbc 189f 43ba 4b08 40bd ae28 3bbe
00000180: f5d4 cfbc d61f 40bc f5bd b2bd 5707 9239
00000190: 776e 8cbd 0a50 eebc 2829 5fb7 d858 b6bd
000001a0: a492 c1a3 b8e2 5abe 3033 adbe c74d 04be
000001b0: 83e8 9137 0f8f c2b6 dcdb d436 04c2 76bc
000001c0: 509b f0bc e674 ddbc 3f20 d8bc 34a5 39be
000001d0: b609 c0bc d0c0 93bc dcc5 ddaf c420 603a
000001e0: 8192 27bd 4ec9 0dbd 8939 8bbd 0c2a 2ebc
000001f0: 2b2a 19be bbc8 acbc a1a2 a9bd b87b 4310
00000200: b331 3dbd 92c4 4c3d 22e0 dd3d be39 c7bc
00000210: e528 91bc cbbe b93c 7ec7 b1ba 4f33 2e3d
00000220: 042e 943d be13 703c 1591 843d a69d 6fbe
00000230: bbc8 b53c b861 ac3d fa33 27b3 9bfa 53bd
00000240: dcb6 09be 1ec3 343e 9fe7 443a 11da 9d35
00000250: 9461 d7bd 620e 48bd bd99 923d bce7 672f
00000260: d6d5 a9bd d10e c0bc ae2c 5b3d e5bc 853e
00000270: ca1f 573d 7df2 803d 8ef0 543d 46c7 9c3d
00000280: e02b 233e db12 373e bbd8 5ebd 9952 593e
00000290: fa13 893a baed 703c 7e3c 15bd f027 9fbb
000002a0: 4f6a c2bd 2ca7 3223 4055 2dbe 88d8 a83d
000002b0: 585f d1bd 51b1 3f38 8642 5334 8440 f636
000002c0: 6a31 a0bc 47a9 a93d 04f1 403a 138b 873c
000002d0: 9077 133e a337 463e b06f 2d3e 500d 0a36
000002e0: 800b ee38 0ce7 6ebc 27a5 d5bc d3e8 563e
000002f0: e6ba 8b38 0b3b 773e 0d06 87bd b0c8 10be
00000300: ae8c 511e 5947 b93d 8031 a8bd 65b7 8bbd
00000310: 0a77 d03c 8ed4 16bb 4da0 443e 2275 a6b9
00000320: 989a d8bc a9dd 103e 5691 733d 653f 9b3d
00000330: 7623 febd 5317 c4bc 46bd 903e f837 65ba
00000340: 8989 1dbd aec1 7cbe 541a 053e a09f bab9
00000350: fbd8 3f2d c060 f73d 22b1 a1be 5c15 07be
00000360: 307d 022a 8e3f 8dbd 45da ae3d 9699 ff3d
00000370: 0cfe a63d 8c6c 9cbd c887 ad3d eb34 eb3c
00000380: 72d6 e8bd 64cc c63d e60a 723d cc68 bf3a
00000390: f681 58bc 6127 513b fa5c 13be e80a 72bc
000003a0: dd2a 8abb 7dd7 e6bd 1477 0ba1 3409 81bd
000003b0: 20fe 9b3e eac2 75be d683 c6b7 9a14 ad36
000003c0: 8e64 8836 7280 48bd 51fc 513d ea26 eebd
000003d0: 02d0 9c3c 545e 8a3e d253 c03c 6a9f 11bc
000003e0: eee7 2eb6 5a0d e2b4 ef64 42bd cda9 133d
000003f0: 311f 513b 369c 3d32 c2bf cb3d 9682 d13d
-0.022744266 -0.0037015998 -0.0046491697 -0.010109791 0.002096904 -0.0039113453 -0.004236387 -0.0045432798
-0.0021503803 -0.051823482 0.0010830427 -0.029729443 -0.003714621 -0.0026892864 -0.034270383 -0.026290283
0.000649969 -0.0018826802 0.004785394 -0.06756012 -0.033374183 0.0005300498 -0.010978362 -0.022637602
-0.017379707 -0.04217061 0.010520204 -0.0048889876 -0.00047729327 -0.03462095 -0.06983785 -0.023695651
0.01141137 -0.029128691 3.5884403e-07 -0.024600066 0.0051091956 1.0980189e-21 -0.031214233 -6.6675166e-06
-0.02643719 -0.039264783 -0.030157667 0.00032694946 3.622613e-12 0.0015616366 0.015675317 -0.015680378
-0.02525248 -0.0039716335 -0.008841114 -0.049322348 -0.01107592 -0.009738874 -8.2293875e-05 -0.0143932905
-0.0009810978 -0.04337268 7.565311e-05 -0.033624366 -0.0029647953 -0.03707671 8.1225047e-17 -0.019625206
-0.014454624 -0.028616983 -0.01189634 -0.008996728 -0.19821407 -0.00035250097 -0.007659966 -0.062442027
-0.00576174 -0.053645853 -0.084068514 0.016759366 -0.23674227 7.949744e-09 -0.14364626 -0.07716098
-0.054416105 -0.0016001728 -7.4318575e-07 0.020094035 -0.08037189 -0.015000624 -0.001649817 -0.061744746
-0.018525114 -0.04187348 -0.14744721 -0.010762028 -0.023028353 -0.00074623665 -0.04688291 -0.18277237
-0.0253701 -0.01172634 -0.08727638 0.0002785276 -0.06857007 -0.0290909 -1.3301418e-05 -0.08903664
-2.0987207e-17 -0.21375549 -0.33828115 -0.12920295 1.7393619e-05 -5.7983048e-06 6.3436873e-06 -0.015060905
-0.029370934 -0.02703328 -0.026382564 -0.18129426 -0.02344213 -0.018036276 -4.0340253e-10 0.00085498043
-0.0409112 -0.034615807 -0.06798083 -0.010630142 -0.14957492 -0.02109181 -0.08282972 3.855228e-29
-0.046189975 0.04999215 0.108337656 -0.024319526 -0.017719695 0.022673985 -0.0013563482 0.0425294
0.07235339 0.014653144 0.06472985 -0.23399982 0.022190442 0.08417076 -3.892999e-08 -0.051752668
-0.13448662 0.17652556 0.0007511321 1.1760877e-06 -0.105166584 -0.04884184 0.071582295 2.1091656e-10
-0.08292739 -0.023444565 0.053509407 0.26120678 0.05252055 0.06296251 0.051987223 0.07655196
0.15934706 0.17878287 -0.05440591 0.21222915 0.0010458224 0.014705116 -0.036434643 -0.004857056
-0.09492933 9.684799e-18 -0.16927052 0.08244425 -0.102232635 4.5703087e-05 1.9675107e-07 7.338882e-06
-0.019554812 0.0828424 0.0007360133 0.016545808 0.14401078 0.19357161 0.16937137 2.0571351e-06
0.000113508664 -0.014581453 -0.026079727 0.20987253 6.662849e-05 0.24143617 -0.06592951 -0.14139056
1.109346e-20 0.090468116 -0.082125664 -0.06822089 0.025447387 -0.0023014876 0.19201775 -0.00031749258
-0.026440904 0.14147057 0.059464775 0.07580451 -0.124091074 -0.023936903 0.28269404 -0.0008743997
-0.038461242 -0.24683258 0.12998325 -0.00035595614 1.0905272e-11 0.120790005 -0.31580454 -0.13191742
1.1589753e-13 -0.06896888 0.08537725 0.12480466 0.08153924 -0.07637891 0.08473164 0.028711757
-0.11369027 0.09706953 0.059092425 0.0014603375 -0.013214579 0.003191434 -0.14390936 -0.014773108
-0.0042165355 -0.1127157 -4.725263e-19 -0.063005835 0.3046732 -0.24000135 -2.366483e-05 5.1582e-06
4.064822e-06 -0.04895062 0.05126602 -0.11628516 0.019142155 0.27025092 0.023477469 -0.008888105
-2.6063021e-06 -4.2105495e-07 -0.04745954 0.036050607 0.003190946 1.1036766e-08 0.09948684 0.102299854

lstm.weight_hh f4 [512, 128]
00000000: 6cc9 7cba c2ef fb3a 1f58 a63c 34ad 2a3a
00000010: c45a 2ebc 5295 aa3b 1472 733c 122f 52bb
00000020: b272 0bba aaa5 b7bb a2cb 8bbb e438 a0bb
00000030: cafb bd3b 2f42 cc3a ace4 1bbb 38e3 24bb
00000040: 3d10 0b3c cd46 143b 7630 dcbb 50f4 3abb
00000050: 60c5 5338 1512 b0bc a974 99bb ee65 c03b
00000060: 6b30 54bb 5405 083c 247e 40bb a49c d4ba
00000070: 12a9 023a be7c 51bb a1ff 2e3b 347d 16bb
00000080: b05a 95bb 86a7 da3a dca8 d8bb bcb1 8cba
00000090: 484c 51bc f16e 9fbb 83de f83b 73f8 08bb
000000a0: 2238 683d cd5d 843a 0c4e b63b 288d f7bb
000000b0: e8c4 6e3b 79e0 a0bb a8fd 003c 3d42 a83b
000000c0: 8630 333c ae5a 2c3c 802f 88bb cb49 b93b
000000d0: df9a a43b 80a2 37b9 3929 583b 9296 1f3c
000000e0: b9ad 92bb 24e5 02bb 1adc c6bb f228 afbb
000000f0: 9a7e 113b 13fd 0dbc ea72 a63b 255f 89bb
00000100: e0d4 a1bb b2a0 dd3b cba5 7d3b 0eb2 b23b
00000110: 0963 5cbb 3c69 c83a ee74 d6bb 6275 c2bb
00000120: 2d10 1abd 846a 78b9 86c0 e8bb b6bd a0bb
00000130: 9805 043b 9cbe 1fbd 8b08 e3bb 3e8e 883b
00000140: c4bd a839 be4f 153c 40e1 9e3a dd76 413b
00000150: 6603 b0bb 1217 e03c 0886 b33c 4748 af3b
00000160: 5627 a83c e03e 2e3b a649 d8ba c6b7 933b
00000170: 24f2 ee3b 22fe 12bb 6346 fabb 92e9 79bb
00000180: bcb3 083b a853 c83b 0871 823b 20df 0fbc
00000190: be04 76bb e489 eabc 854a 8e3a b12d 953d
000001a0: 6d26 0abb 3227 db3b 4c61 c93b 76c5 103c
000001b0: fd78 bdbb 4f76 82bb d02b 793b d4c1 79bb
000001c0: b4de 4d3b 8a33 2a3c 33ea a83b d6e6 db3b
000001d0: 3cb7 333c 3604 90bc 836d 13bb 87b4 c7bb
000001e0: a0e8 d43a a670 8cbb 81b4 123c b8f1 2eba
000001f0: aec7 afbb 50c9 a2b9 c093 ee39 3af2 90bb
00000200: 02f8 a1bb 45d6 103d aa1f 483d 1cc6 7d3c
00000210: 8055 13bc 3c94 003c 4bc3 573e 6ad7 2ebb
00000220: 2c20 f4bb 3b46 d03b f45f 383b c4c6 c7ba
00000230: ac12 6b3b fa7a b93c 8158 c33b 3e09 25bc
00000240: 810c 823c e09d 8c3b 1ac8 82bc 3c13 babb
00000250: c885 abba e5ee 17bd 2735 243c bf49 5e3c
00000260: 7d8b 49bc 568b 1c3b af16 753a 7895 363c
00000270: a265 a63a f421 9fbc fada 3c3c f2f0 18bb
00000280: 907e c63a 4693 3cba ae81 09bb ba2b 423b
00000290: ce49 503c 5cbf 893a 5133 473d 3301 90bc
000002a0: 6a99 923e 22f0 e13b c6ac bd3c 3a41 39bc
000002b0: 976f e1ba 3bd3 b8bc 7c99 deba b255 a83b
000002c0: b494 0abc 144a 433c 5c68 fbbb 8035 0f38
000002d0: 908b 07ba ec25 1eba 12a2 0bbb 97c4 1abc
000002e0: 01d5 0d3b 691e b6ba ace8 293a 7ed2 cabc
000002f0: 7ef4 8ebc 6491 eabc c729 16bb 9c5f 283c
00000300: 6ea4 31bc fb7f 123e f02d 283c ac7e 4ebb
00000310: 12cd abbb acbc e93a 6281 8fbb aad9 b2bc
00000320: 3cf3 90be d1a5 8cb9 5db4 68bc 7a66 abbc
00000330: 68f6 453a 4b3b 90be f030 35bb 0279 a0ba
00000340: 0820 92bb 60b4 f43c b6df 6dbb 88bd a73b
00000350: 1910 cdbc 59ed 1f3d e825 f43c 30f4 0eb9
00000360: b14a 2f3e 0d72 7e3b 18bc 81bb 04e9 363b
00000370: 664f 67ba fbc7 0ebb be1f 7bbc c3c1 b63b
00000380: 90a4 da3b cf4d 6dbb 59ba 09bb 4c25 43bb
00000390: e605 8abb aa20 19bd fb12 353b a43f 553e
000003a0: 3a61 1f39 b449 a83a b4b4 e43b f814 46bc
000003b0: d425 783b 299d 5bbc 00cc 30b7 1d4b 41bb
000003c0: 1472 003c dabe 0f3e 847a 093c 985a 5f3c
000003d0: 021f 973b 7456 08bd 3f22 c2bb 55f4 fd3a
000003e0: f069 273c b499 a03c 6821 4bbc aaaf 103c
000003f0: 1449 9d3b a2be 4ebc 0b35 823d 8a9e 1ebb
-0.00096430513 0.0019221234 0.020305691 0.00065107946 -0.010641757 0.0052057886 0.014858741 -0.0032071513
-0.000531952 -0.0056044655 -0.0042662183 -0.0048895944 0.005797838 0.0015583689 -0.0023787422 -0.0025159847
0.008487758 0.0022625208 -0.006719644 -0.002852697 5.049014e-05 -0.021492997 -0.0046830964 0.005871526
-0.0032377492 0.008302052 -0.002937206 -0.0016220999 0.00049843 -0.0031965221 0.002670266 -0.002296281
-0.00455793 0.0016682006 -0.0066119265 -0.0010734121 -0.0127745345 -0.00486552 0.007594885 -0.002090004
0.056694157 0.0010098756 0.005563503 -0.007554669 0.0036433283 -0.0049095717 0.007872976 0.0051348493
0.010936862 0.010519667 -0.004156053 0.0056545488 0.005023345 -0.00017512776 0.0032983555 0.009740489
-0.0044762758 -0.0019973004 -0.0060687186 -0.0053454572 0.0022200705 -0.008666295 0.005079617 -0.0041922503
-0.0049387068 0.006763541 0.0038703557 0.0054533547 -0.0033628365 0.0015290151 -0.006544701 -0.0059344033
-0.037613083 -0.00023690803 -0.0071030287 -0.004905428 0.0020144936 -0.03900014 -0.0069285086 0.004167347
0.00032184843 0.00911325 0.0012121573 0.002952031 -0.005371499 0.02735475 0.021914497 0.0053491923
0.02052657 0.002658777 -0.0016501441 0.0045079915 0.007292049 -0.0022429307 -0.0076377853 -0.0038133604
0.0020859083 0.006113488 0.0039807595 -0.0087812245 -0.0037539448 -0.028630204 0.0010855949 0.072841056
-0.0021080032 0.006688022 0.006145632 0.008836141 -0.005782245 -0.0039813886 0.00380205 -0.0038109915
0.003141326 0.010388264 0.005154872 0.0067108674 0.010968979 -0.017580133 -0.0022495694 -0.0060945186
0.0016243644 -0.0042858897 0.008954168 -0.0006673592 -0.00536438 -0.00031049037 0.0004550498 -0.004423407
-0.004942895 0.035360593 0.048858322 0.0154891275 -0.008992553 0.007847842 0.21070592 -0.002667869
-0.0074501242 0.0063560284 0.0028133364 -0.0015241732 0.0035869284 0.022641648 0.005961478 -0.010073004
0.015875103 0.004291281 -0.015964556 -0.0056785624 -0.0013086135 -0.037093062 0.010022438 0.013567387
-0.012301323 0.0023886762 0.00093493884 0.011144035 0.0012695084 -0.01942537 0.011526817 -0.0023336974
0.001514392 -0.00071935763 -0.0020981836 0.0029628114 0.012712909 0.00105093 0.048632924 -0.017578697
0.2863267 0.006895081 0.023153674 -0.011307055 -0.0017199394 -0.02256166 -0.0016982998 0.005137169
-0.008458305 0.011919517 -0.0076723527 3.4143683e-05 -0.0005170638 -0.00060328725 -0.0021306318 -0.009446285
0.0021641853 -0.0013894561 0.0006481509 -0.024758574 -0.017450567 -0.02863378 -0.0022913085 0.010276701
-0.010842426 0.14306633 0.010264859 -0.0031508608 -0.005242952 0.0017832718 -0.0043794373 -0.021832306
-0.28310573 -0.00026826424 -0.014203158 -0.020922888 0.0007551671 -0.28170237 -0.0027647577 -0.0012243094
-0.004459385 0.029871166 -0.0036296672 0.0051190294 -0.02503209 0.03904471 0.029803231 -0.00013633142
0.17118336 0.0038825304 -0.00395919 0.0027909884 -0.0008823782 -0.0021786678 -0.015327392 0.0055772974
0.0066724494 -0.0036209708 -0.0021015613 -0.002977687 -0.004212129 -0.037384667 0.0027629721 0.20825058
0.00015199641 0.0012839348 0.0069795493 -0.01208996 0.0037864344 -0.013404169 -1.0537915e-05 -0.0029494234
0.007839698 0.14037648 0.008391026 0.013632439 0.0046118507 -0.033285573 -0.0059244926 0.0019375185
0.010218129 0.019604541 -0.012398101 0.008830944 0.0047999714 -0.012618693 0.063577734 -0.0024203383

lstm.bias_ih f4 [512]
00000000: 3b16 30be dd01 40be 1b20 c83d fc15 20be
00000010: 15ec 4abe 5b9d 19be 66ad da3e d81e 47be
00000020: 8ed0 5ebe 4601 16be cc13 25be a276 25be
00000030: bea1 15be dcf8 1fbe c77e 23be 2009 2fbe
00000040: 7a4a 34be 6bca 41be db60 12be 2231 21be
00000050: 07eb 15be d90d 8cbe 6875 50be 8f4b 17be
00000060: d696 26be 56a4 1cbe c50b 75be bf5e 16be
00000070: 1cf1 28be b0b1 32be ef47 34be 737c 47be
00000080: 42aa 2ebe 4e37 82be 0ba4 08be d928 27be
00000090: 6ccb 02be cc17 51be d108 b9bd c3ef 2ebe
000000a0: d94e c33e fb63 16be d839 28be d357 46be
000000b0: 5cb3 29be 8329 2cbe 76a9 28be bda4 52be
000000c0: ee62 52be 3646 cdbd 2426 12be 2b47 28be
000000d0: 7386 2fbe ae52 21be 6737 65be b086 14be
000000e0: 97ce 34be c339 4ebe 0395 29be 95f8 22be
000000f0: 0cf5 90be d5da 35be e240 29be 7e24 74be
00000100: 469b 8bbe 2769 bf3e b892 3ebe 6fe9 77be
00000110: a0e4 4cbe 0182 45be bc8e 31be ae4b 00be
00000120: 9f77 133d 6409 14be 4594 31be 24b0 0bbe
00000130: 92eb 43be 4864 043f 036e 41be a0eb bebe
00000140: c486 1dbe 628b 07be f575 12be 1164 65be
00000150: 9c31 0dbe 36d5 17be 880b cebd 1f6d 5abe
00000160: 7c71 ef3e c8fc 7bbe 7780 66be d825 75be
00000170: 8a68 71be 20d2 09be 628b 5abd abe8 1dbe
00000180: d953 36be db48 29be efd8 f7bd cc0e 19be
00000190: 65b0 44be 0911 0ebe d8bf 38be c309 b43e
000001a0: 765e 3dbe e05a 45be ddfe 46be c369 23be
000001b0: 5365 1dbe c13d 3ebe ba34 30be b237 69be
000001c0: 9cd1 1bbe 53bd e93e c905 8fbe 8c8e 45be
000001d0: d2fa 4bbe 45f0 2fbe 0559 1fbe 8b20 68be
000001e0: dd9d 26be e046 04be e21b 05be bd37 0ebe
000001f0: b442 38be 5d4f 2cbe 6619 1ebe d209 44be
00000200: f9da d4bd 8376 8cbe 304e ca3d c292 62be
00000210: 0758 7cbe 0444 b9bd caa3 9e3d 575b d9bd
00000220: 054e 09be 083d 51be 4d4c a3bd 6942 b7bd
00000230: 7b6f cbbd 7548 97be 5d72 a7bd d150 cbbd
00000240: d7d5 dfbd 867a d3bd d442 b6bd 20e9 c7bd
00000250: 83fc a0bd 71a3 64be 4656 a3be 87fb c8bd
00000260: 2347 d0bd ea3e b0bd 6cd2 30be 4108 a3bd
00000270: 53cb 94bd c3f3 b7bd bd31 c3bd 2f36 babd
00000280: 7b61 babd b354 3bbe 742d a0bd a058 9ebd
00000290: ce21 2abd 54be b7bd 6c74 c5bd 1893 c4bd
000002a0: bc0c 573e 7ebb aabd d4a6 b7bd 96d8 eebd
000002b0: 1ebe b9bd 155e bcbd 8978 b9bd 5658 01be
000002c0: 7834 5ebe a1ea 66be cecf c6bd 99dd cdbd
000002d0: 285f c7bd efac b6bd 0eb1 eebd dbc7 7fbd
000002e0: e78d dcbd 39af c7bd f066 ccbd f036 afbd
000002f0: ad2f 72be 5dc7 a2be d29c bebd 7b03 4bbe
00000300: 1822 51be 722f cbbc 5bd3 d1bd 6e84 28be
00000310: fda5 04be a841 c3bd 66d5 bdbd 15fa 9abd
00000320: b9bd 3cbe 48d2 9bbd a063 d4bd 7a83 b0bd
00000330: 5f6c d0bd 2d8a 8a3e ad4f e1bd 353e 5abe
00000340: 0a64 a1bd b75f adbd 0744 acbd bab3 31be
00000350: 9aea a7bd 65b4 29be 6d69 1fbe 8eb3 00be
00000360: be10 833e d398 ddbd bf8a 02be 643b 0cbe
00000370: 1a55 36be 06fa a8bd dd4c 89be 9154 9bbd
00000380: 3918 dabd e14f bbbd c314 5dbe f240 c6bd
00000390: 5ae3 1fbe 885b 68be 82f7 a9bd 9db4 8abd
000003a0: a1fe aebd f54e cbbd 2c38 d6bd caca 13be
000003b0: 4139 a6bd 52b1 dcbd 0bd6 bcbd 5bee 00be
000003c0: e1ee c1bd 007a 273e 5663 a2be c0d2 e8bd
000003d0: fc7b 3bbe fbf2 39be f193 c5bd 1447 11be
000003e0: 3910 cfbd cd42 64bd 6e1d 35bd 3021 71be
000003f0: b5d0 bebd f149 b1bd 537a 8cbe 2314 c8bd
-0.1719598 -0.18750711 0.09771749 -0.15633386 -0.1981662 -0.15001433 0.42710418 -0.1944536
-0.21759245 -0.14648923 -0.16120833 -0.16158536 -0.14612481 -0.15622276 -0.1596633 -0.17093325
-0.17606536 -0.18924873 -0.1429476 -0.15741399 -0.14640437 -0.27354315 -0.20357287 -0.14774917
-0.16268477 -0.15297064 -0.23930271 -0.1468458 -0.16498226 -0.17450595 -0.17605565 -0.19481067
-0.17057136 -0.2543282 -0.13343827 -0.16324176 -0.12772912 -0.20419234 -0.09034885 -0.1708365
0.38146093 -0.14686577 -0.16428316 -0.1936944 -0.16572326 -0.1681271 -0.16470894 -0.20570655
-0.20545551 -0.10023157 -0.14272362 -0.16433398 -0.17141132 -0.15754196 -0.22384416 -0.14504504
-0.17656933 -0.20139222 -0.1656075 -0.15915139 -0.28311956 -0.17759259 -0.16528657 -0.23842046
-0.27266902 0.37384912 -0.18610656 -0.24210142 -0.20009089 -0.19287874 -0.17339605 -0.1252887
0.03600275 -0.14456707 -0.17341717 -0.13641411 -0.19132832 0.5171552 -0.18889622 -0.37289143
-0.1538344 -0.13236764 -0.1430281 -0.22401454 -0.13788456 -0.14827427 -0.10060793 -0.21330689
0.4676627 -0.24608147 -0.22509943 -0.23940217 -0.23575035 -0.13459063 -0.053355582 -0.15420787
-0.17805423 -0.16531698 -0.12101924 -0.14947051 -0.19207914 -0.13873686 -0.18041933 0.35163698
-0.18493065 -0.19272947 -0.1943316 -0.15958314 -0.15370683 -0.18578245 -0.17207614 -0.22775152
-0.15216678 0.45652255 -0.279341 -0.19292659 -0.19919899 -0.171815 -0.15561302 -0.22668664
-0.16271158 -0.12917662 -0.12998918 -0.1388845 -0.17994195 -0.1682715 -0.15439376 -0.19144371
-0.10393328 -0.27434167 0.09878194 -0.22126296 -0.24642955 -0.09046176 0.07746084 -0.10613125
-0.13408668 -0.20433438 -0.079735376 -0.089482136 -0.099333726 -0.29547468 -0.0817611 -0.09927524
-0.109294586 -0.10326104 -0.08899465 -0.09761262 -0.07860663 -0.22327973 -0.3190176 -0.098136
-0.10169818 -0.0860575 -0.1726777 -0.07960559 -0.072653435 -0.08982041 -0.09530971 -0.09092366
-0.09100624 -0.18294029 -0.078211695 -0.077317476 -0.041536145 -0.08971849 -0.09641346 -0.095983684
0.21000952 -0.083365425 -0.08967367 -0.11662404 -0.09069465 -0.09197632 -0.090561934 -0.12631354
-0.21699703 -0.22550441 -0.09707604 -0.10052032 -0.097349465 -0.08919703 -0.11654864 -0.062446456
-0.10769253 -0.09750218 -0.09980571 -0.085554 -0.23651 -0.31792727 -0.09307255 -0.19825546
-0.20423162 -0.024802897 -0.10245391 -0.16456768 -0.12953945 -0.09534007 -0.09269218 -0.075672306
-0.18431748 -0.07608467 -0.103705645 -0.08618827 -0.1017692 0.27058545 -0.11001525 -0.21312793
-0.07880409 -0.08465522 -0.08411413 -0.17353716 -0.081990436 -0.16572721 -0.1556756 -0.12568495
0.2559871 -0.108201645 -0.1274824 -0.1369453 -0.17805901 -0.08250813 -0.26816455 -0.07584489
-0.10649151 -0.09146095 -0.21589951 -0.09680356 -0.15614071 -0.22691166 -0.082991615 -0.067727305
-0.0854466 -0.09927169 -0.10459933 -0.14432827 -0.08116389 -0.10776009 -0.09220513 -0.12590925
-0.09469391 0.16355133 -0.31716412 -0.11368322 -0.18309015 -0.18159096 -0.09647358 -0.1418727
-0.10110516 -0.05572777 -0.04421752 -0.23547816 -0.093171515 -0.08656681 -0.27437076 -0.09769466

lstm.bias_hh f4 [512]
00000000: bf19 30be 0b19 77be 6a24 0a3c f7ee f0bd
00000010: 9a36 70be f09d 19be 8ff9 e53e b3ee 46be
00000020: 9618 60be 55f7 3cbe 3c14 25be 197a 25be
00000030: 2ba0 15be fb03 e3bd 8379 23be 8009 2fbe
00000040: d63d 34be 7d93 41be d57d 12be d436 21be
00000050: 5beb 15be a1e2 85be 96e8 f0bd c549 17be
00000060: 9ca3 26be 92a2 1cbe c14b 5bbe 6d5e 16be
00000070: 85e2 28be ecaa 32be 6f44 34be 8d70 47be
00000080: 2962 2fbe 05f8 86be ffa3 08be f22d 27be
00000090: 5dca 02be d071 51be e611 bfbd 02f4 2ebe
000000a0: b0b9 c23e 2d65 16be a236 28be b27e 46be
000000b0: 3db7 29be df29 2cbe d4ca 28be 40e2 52be
000000c0: b11d 43be cf43 bebd 31fa 11be da29 28be
000000d0: 4f78 2fbe 745f 21be b3a5 64be cfab 14be
000000e0: 78d1 34be 487e 4dbe c78a 29be c8f0 22be
000000f0: f873 9abe e39d 86be 893b 29be d2f0 87be
00000100: df65 94be 1a38 bc3e 1908 3ebe 11f5 73be
00000110: 3235 4fbe a9b2 46be 3bac 31be 044d 00be
00000120: 3410 723d dd09 14be 047d 31be dda2 0bbe
00000130: 4dea 43be 5904 fe3e 4699 40be a142 b7be
00000140: f284 1dbe 1687 07be 2673 12be e7d5 55be
00000150: 1631 0dbe 82f3 f3bd f540 8dbd 7e55 61be
00000160: 48a2 f03e 3daf 72be 9c13 6ebe 9c7d 76be
00000170: 1b46 63be 20c8 09be 3cc2 b6bd 2481 1dbe
00000180: 2042 36be 1150 29be 2b44 09be da0b 19be
00000190: bac3 41be b0d5 39be 9d5f 38be 21e9 903e
000001a0: df40 3ebe cdb3 45be 9216 47be 9bfe e6bd
000001b0: 0565 1dbe 7cfb 3dbe b052 30be 2379 6cbe
000001c0: edd8 1bbe 847d e53e 96f5 a7be b5f2 44be
000001d0: 8929 57be b7ae 60be b559 1fbe 2857 67be
000001e0: f59e 26be 0147 04be c11e 05be b229 21be
000001f0: d058 37be d568 2cbe f358 f5bd d4ec 43be
00000200: d9da d4bd e06d 96be d6b5 b83d 47d7 6bbe
00000210: 804c 84be 0444 b9bd 4372 0e3e 6d5a d9bd
00000220: dc41 09be f91b 4dbe 4f4c a3bd 6342 b7bd
00000230: 7b6f cbbd 014b 98be 5d72 a7bd d150 cbbd
00000240: d7d5 dfbd 8a7a d3bd 6743 b6bd 1de9 c7bd
00000250: 83fc a0bd 4161 4fbe 00d2 aebe 87fb c8bd
00000260: 2347 d0bd e83e b0bd 6378 2ebe 4108 a3bd
00000270: 63cb 94bd b7f3 b7bd bf31 c3bd 4436 babd
00000280: 6864 babd e86e 3bbe 742d a0bd a058 9ebd
00000290: cc21 2abd 5bc4 b7bd 1ada b7bd 1893 c4bd
000002a0: 0ec0 463e 7ebb aabd d4a6 b7bd 56d8 eebd
000002b0: 2abe b9bd 165e bcbd 8678 b9bd 7d69 01be
000002c0: a381 5fbe 6410 58be 21d0 c6bd a4dd cdbd
000002d0: 2e5f c7bd f5ac b6bd 03b0 eebd f0c7 7fbd
000002e0: e78d dcbd 5caf c7bd 4367 ccbd ed36 afbd
000002f0: c9dd 66be 5834 abbe d19c bebd 29dd 4dbe
00000300: 6f7a 4cbe 5f2a 18bd a3d4 d1bd fc77 28be
00000310: cf47 04be 9245 c3bd 64d5 bdbd 15fa 9abd
00000320: 2439 f0bd 48d2 9bbd 9d63 d4bd 8883 b0bd
00000330: 5f6c d0bd d11b 903e 7c48 e1bd 1376 67be
00000340: 0564 a1bd b75f adbd 0744 acbd de67 32be
00000350: 9aea a7bd 7fcd 2cbe efac 1bbe becd 00be
00000360: 09b5 893e 246a dfbd 4f0e 03be 7433 0cbe
00000370: 04ee 37be 06fa a8bd d054 a4be 1250 9bbd
00000380: 5e18 dabd e34f bbbd 7412 57be f540 c6bd
00000390: bf29 23be db98 86be 52f6 a9bd 5bd3 903d
000003a0: 41fc aebd a24f cbbd 2a39 d6bd fea4 09be
000003b0: 4139 a6bd 55b1 dcbd fcd5 bcbd 394f 01be
000003c0: e6ee c1bd b922 0d3e 3a88 a3be aed4 e8bd
000003d0: c843 3bbe 64ad 2abe f093 c5bd f650 11be
000003e0: 3910 cfbd cd42 64bd 6e1d 35bd 7e9a 73be
000003f0: 41d3 bebd cf49 b1bd 1c66 b0be 0d0f c8bd
-0.17197321 -0.24130647 0.008431533 -0.11764329 -0.23458329 -0.15001655 0.4491696 -0.19426994
-0.21884379 -0.18453725 -0.16121 -0.16159858 -0.1461188 -0.110847436 -0.15964322 -0.17093468
-0.17601714 -0.18903919 -0.14305814 -0.15743572 -0.14640562 -0.26149467 -0.11763112 -0.14774235
-0.1627335 -0.1529639 -0.21415617 -0.14684458 -0.1649266 -0.17448014 -0.1760423 -0.19476528
-0.17127289 -0.263611 -0.1334381 -0.1632612 -0.12772508 -0.20453572 -0.09329586 -0.17085269
0.38032293 -0.14687033 -0.16427091 -0.19384268 -0.16573806 -0.16812848 -0.16483623 -0.2059412
-0.19054295 -0.09290277 -0.14255597 -0.16422215 -0.17135738 -0.15759069 -0.22328834 -0.14518665
-0.17658031 -0.20067704 -0.16556846 -0.15912163 -0.30166602 -0.26292333 -0.16526617 -0.2655092
-0.2898397 0.36761552 -0.18557777 -0.23823954 -0.20235136 -0.19404091 -0.17350857 -0.12529379
0.059097484 -0.14456888 -0.17332846 -0.13636346 -0.19132347 0.49612692 -0.18808469 -0.3579302
-0.15382746 -0.13235125 -0.14301738 -0.20882379 -0.13788256 -0.1191168 -0.06897155 -0.22005269
0.4699881 -0.2369966 -0.23249668 -0.24071354 -0.22194712 -0.13455248 -0.08923766 -0.15381294
-0.17798662 -0.16534449 -0.1340491 -0.14945927 -0.1892232 -0.18147922 -0.18005224 0.28302863
-0.18579434 -0.1930687 -0.19442204 -0.11279031 -0.15370567 -0.18552965 -0.17219043 -0.23093085
-0.1521947 0.44822323 -0.32804555 -0.1923321 -0.21011938 -0.21941648 -0.15561564 -0.22591841
-0.16271575 -0.12917711 -0.13000013 -0.15738562 -0.17904973 -0.16836865 -0.11979856 -0.19133312
-0.103933044 -0.29380703 0.090190575 -0.2303134 -0.25839615 -0.09046176 0.13910775 -0.106129505
-0.1340403 -0.20030202 -0.07973539 -0.08948209 -0.099333726 -0.29744723 -0.0817611 -0.09927524
-0.109294586 -0.10326107 -0.08899575 -0.0976126 -0.07860663 -0.20251943 -0.34144592 -0.098136
-0.10169818 -0.086057484 -0.17038111 -0.07960559 -0.072653554 -0.08982032 -0.09530973 -0.090923816
-0.09101182 -0.18304026 -0.078211695 -0.077317476 -0.041536137 -0.08972999 -0.089771464 -0.095983684
0.194092 -0.083365425 -0.08967367 -0.116623566 -0.09069474 -0.09197633 -0.09056191 -0.12637897
-0.21826796 -0.21100003 -0.09707666 -0.1005204 -0.09734951 -0.08919708 -0.11654665 -0.062446535
-0.10769253 -0.09750244 -0.09980633 -0.08555398 -0.22545542 -0.33438373 -0.09307254 -0.20103897
-0.1996858 -0.037149783 -0.10245635 -0.1645202 -0.12918018 -0.09534754 -0.09269217 -0.075672306
-0.11729649 -0.07608467 -0.10370562 -0.086188376 -0.1017692 0.28146222 -0.110001534 -0.22603635
-0.07880405 -0.08465522 -0.08411413 -0.17422435 -0.081990436 -0.16875266 -0.15202688 -0.12578484
0.2689593 -0.109089166 -0.12798427 -0.13691503 -0.1796189 -0.08250813 -0.32095957 -0.075836316
-0.10649179 -0.091460966 -0.21003133 -0.09680358 -0.15933894 -0.26288494 -0.08298935 0.07071563
-0.08544207 -0.09927298 -0.10460122 -0.13441846 -0.08116389 -0.10776011 -0.09220502 -0.12627877
-0.094693944 0.13782777 -0.3193987 -0.113686904 -0.18287575 -0.16667706 -0.096473575 -0.1419104
-0.10110516 -0.05572777 -0.04421752 -0.23789403 -0.09317637 -0.08656656 -0.34452903 -0.09768496

output_w.weight f4 [5, 128]
00000000: 90a6 2b3c 16fe d6bc fec6 38bd 546f 423d
00000010: 8849 aebd 110a d63a 8665 7e3d e0e7 cdbb
00000020: 0298 983c 2bf3 673d 8b05 89bb 4cc5 3fbb
00000030: 4006 bd3a 57ff e33d 60d7 c939 6799 35bb
00000040: 5c56 9fb9 343c de3a 2452 fa3a d613 033c
00000050: 5cf2 87bb ff64 10bc 47e3 023e 3857 ec39
00000060: 608d de3b 29f4 92bb e39a 90bb 0bf0 f2bb
00000070: d4e5 d9bb 7ecf c43a 74f7 4dbb d8f5 f63a
00000080: bc15 98bb c2ad 3a3c e917 f23b eb5a cb3b
00000090: dc12 adbb 7823 03bc 65b9 bc3d 9d6e 823b
000000a0: 8fc1 0f3e 74f3 98bb 8bfc b23a e233 b23b
000000b0: dce4 5c3b 5792 823a 4e18 0c3c d5f6 84bc
000000c0: 2643 e9bb 3c9a afbd 3c7b bfbb 94c1 b93a
000000d0: 88d6 2b3b 346a c4bb d217 b43b 066f c03b
000000e0: 6a81 bdbb e4fe 5fba e0b8 3139 ea39 85ba
000000f0: 4097 15bd 6c74 8d3d c698 c53b 4f31 653d
00000100: 8eb1 c5bc c677 e13c 8197 61bc d09f 03b9
00000110: 2e67 88bb b03b 4eb9 7c58 51bb 20b4 803b
00000120: 42ac 673e 8bed 99bb dcb0 a7b9 8333 a93b
00000130: 5d6f b2ba 2145 80ba 707d 0bbc 9733 bdbd
00000140: 2e75 083b a0ab acbb 56cf c9bb c364 023d
00000150: b940 47bb c1b2 1b3c 24f0 883d e4f2 c83c
00000160: ce4f 1b3d e524 093c a93e c4bc 128e 1abc
00000170: 38af e33b d815 5e3b bfb6 713e e1a3 6cbb
00000180: 7e7a 4bbc f56c 103c dd6a b03c 1c11 b7ba
00000190: dbc1 c2bc 8874 33bd 7669 abbb e189 12be
000001a0: 2d01 0ebb e47e 9d3a b25b aa3b b94b c2bc
000001b0: 7ce0 c5bb 82ef a93a 300c 503a 8790 c5bc
000001c0: aebd 00bc 8e1c 033c 6402 bb3d d3f9 933a
000001d0: a499 8a3c 8058 7f37 6422 913b 40f6 b43b
000001e0: 68a0 4abc 3530 aeba a749 5b3b 0340 4d3b
000001f0: fd93 1abc 25de 15bb c626 f6bc ac04 8fba
00000200: 2a96 0f3b 88f0 653d 9404 7f3d 088e d13c
00000210: 850c 513b dc63 d5b9 91ac a4bc c665 673b
00000220: 8831 5cbc 62e6 9f3c 1bc8 553b 6421 223c
00000230: b331 0fbb dd90 7f3d ccf4 eeba 2cba e13b
00000240: 97cf 86bc 9597 bfbb 5bc8 d13b 45ff 653c
00000250: ca0b 72bb 69b4 1bbd f7dd e53c 888d dcbb
00000260: ebf2 7f3c 9d7f 66bb ba08 3a3d 0c85 9139
00000270: b0e0 3739 e71e 153c 9e35 a8ba e968 7f3b
00000280: 85a6 5dbb 6e91 953c 10a0 4cbb b1bb 3e3b
00000290: 9017 f139 0d27 363c efce b8bc d475 353c
000002a0: 960c 913e c34a 98bb 3c2d a0bc 1b1e 283c
000002b0: 3070 b338 fae7 123c 2d55 07bc 5984 083c
000002c0: fae4 e43c 0c14 d6b9 bdca 593c 7868 173b
000002d0: 9452 87bb ee85 acba b3bc dabb 052b 533b
000002e0: cdfd a5ba 62c5 a23b 8a39 ca3b 888d af3c
000002f0: 6ee0 e6bb 95fa 6dbe 37b8 d6bb b39e 2cba
00000300: 60fd 6dbd 5027 393d b1af 233b 26f6 9f3c
00000310: 3a15 6c3c e236 053b a655 943a b05b f83b
00000320: 6cfc 3dbe 5c13 c0ba c698 823c 0225 443c
00000330: 1f04 8dba 6fff 923d c8f3 463c 27f7 143e
00000340: c49a 373c 2d73 24bc e57a 27bb 7fc6 d9bc
00000350: 7b40 1e3c 7800 013d be44 963b 0a9c e1bc
00000360: d554 b7bd 5c3f a13c 7a0b c23b 6909 2bbc
00000370: 45e9 da3c f0b9 253c 3a67 bfbd a64b 9c3c
00000380: 8250 0abb e082 0b3a 6593 efbd 088f 9cbb
00000390: 4215 1b3c be24 9abd 03c2 3bbc a912 0fbe
000003a0: a08e d93b 2c9e e4ba e1f4 80bb 2a21 5b3d
000003b0: 3f40 403b 190c a33b b457 13bc 7ff9 963c
000003c0: 4e88 cdbb c7c9 3fbd 8360 463e ba81 25bc
000003d0: 03b7 663c 7eb9 3abd d9a6 3b3c 6f24 713c
000003e0: 9dbb 02bc 3ada e4bb ea23 643b f8a1 c33c
000003f0: ad6a c33c fe52 fa3b 5ea5 7b3e 2636 8f3b
0.010476723 -0.026244204 -0.04511165 0.047469452 -0.08510119 0.0016329904 0.06210854 -0.006283745
0.01862717 0.056628387 -0.004181569 -0.0029261885 0.0014421418 0.111326866 0.00038498174 -0.0027709843
-0.00030391186 0.0016955198 0.0019097966 0.008000335 -0.0041487645 -0.008813142 0.12782012 0.0004507841
0.0067917556 -0.0044846726 -0.004412995 -0.0074138693 -0.006649712 0.0015015451 -0.003142801 0.0018841578
-0.004641263 0.011393966 0.007388104 0.0062059066 -0.005281789 -0.008004062 0.09215049 0.0039804713
0.1403868 -0.0046676937 0.0013655586 0.005438314 0.0033705747 0.0009961826 0.008550717 -0.01623098
-0.0071186004 -0.0857434 -0.005843548 0.0014172071 0.00262204 -0.0059941057 0.0054960037 0.00587261
-0.0057832496 -0.00085447566 0.00016948907 -0.0010164354 -0.036521196 0.06906971 0.006030175 0.055955227
-0.024132516 0.027522933 -0.0137690315 -0.00012552668 -0.0041626906 -0.00019667926 -0.003194361 0.0039277226
0.22624305 -0.004697507 -0.00031984493 0.0051636114 -0.0013613511 -0.0009786227 -0.008513793 -0.092383556
0.0020821798 -0.0052694827 -0.0061587496 0.031834375 -0.0030403568 0.0095030675 0.06686428 0.024529882
0.037917905 0.008370613 -0.02395566 -0.009433286 0.006948378 0.0033887532 0.23604868 -0.0036108422
-0.012419341 0.00881504 0.021535331 -0.0013966891 -0.023774078 -0.043812305 -0.005231078 -0.14310409
-0.0021668181 0.0012015966 0.005198919 -0.023717748 -0.0060387235 0.0012965056 0.00079363864 -0.024116768
-0.007857723 0.008002413 0.09131315 0.0011289663 0.016918965 1.521979e-05 0.0044291485 0.0055225194
-0.012367345 -0.0013289513 0.0033460648 0.0031318672 -0.009434697 -0.0022868004 -0.030047785 -0.0010911427
0.0021909573 0.05613759 0.062260225 0.025580421 0.0031898331 -0.00040700927 -0.020101817 0.0035308464
-0.013439544 0.019519035 0.0032620493 0.009895656 -0.0021849691 0.06239401 -0.0018230914 0.0068886485
-0.016456408 -0.0058469274 0.006402058 0.014037912 -0.0036933296 -0.03801385 0.028059943 -0.006730739
0.015621881 -0.0035171278 0.04541848 0.00027755683 0.00017535943 0.009101606 -0.0012833362 0.0038972443
-0.0033821177 0.018257823 -0.0031223334 0.0029103572 0.00045984657 0.011117709 -0.022559611 0.011075456
0.28329915 -0.004647584 -0.01955282 0.010261084 8.556282e-05 0.00896644 -0.008260054 0.008332335
0.027941216 -0.00040832197 0.0132929655 0.002310304 -0.004129717 -0.0013162473 -0.0066753267 0.0032221687
-0.001266414 0.0049673775 0.00617141 0.021429792 -0.007045797 -0.2324012 -0.006552722 -0.00065849273
-0.058102965 0.045203507 0.0024976546 0.019526552 0.014409358 0.0020326902 0.0011317029 0.0075792894
-0.18553323 -0.0014654207 0.015941989 0.011971714 -0.0010758674 0.07177626 0.012143083 0.14547406
0.011206333 -0.010037226 -0.0025555429 -0.026583908 0.009658928 0.031494588 0.0045858314 -0.027540226
-0.08951727 0.019683532 0.0059217783 -0.010439255 0.02672256 0.010115132 -0.09345861 0.01907904
-0.0021105115 0.0005321931 -0.11698035 -0.004777793 0.0094655175 -0.07526539 -0.01145983 -0.13971962
0.0066393167 -0.0017442158 -0.003935442 0.053498425 0.0029335169 0.0049758074 -0.008993078 0.018429516
-0.0062723523 -0.04682329 0.19372754 -0.01010173 0.014081719 -0.045587055 0.011453354 0.014718159
-0.007979301 -0.0069840224 0.0034811446 0.023880944 0.023854578 0.007639288 0.24574801 0.0043704687

output_w.bias f4 [5]
00000000: 8310 8ebd 4478 8c3d 5548 3dbf df83 1dbf
00000010: b877 19bc
-0.06936743 0.06858876 -0.73938495 -0.61529344 -0.009366922

square_avg f4 [64]
00000000: 756b 9d3b 1fc3 8139 8f95 4339 ff0d fb3c
00000010: 2f22 1e38 ce07 be3a be1e 473c a91d 923a
00000020: f2e5 1c3c 4152 ab3d db7a 7b39 9318 123d
00000030: 76f4 b02e ecc0 8f3c 2de7 843d 80a5 643c
00000040: 9589 2732 225f 162f 1025 9a3b 5886 1f3d
00000050: ff89 943c d9b6 b232 781c 1f3c 9e9a 323c
00000060: a569 023c 4a07 de3c 49d4 173a f91c 873c
00000070: 5756 dc39 f08b ca3c c5d6 8f3c 6477 833c
00000080: 4641 db39 647f bb3b 4592 e037 1591 d93b
00000090: 52cd 083b 5a85 9735 bc45 293d d1c3 8c33
000000a0: 5aff bd3c 2896 4b3d 6495 df3c af0f c136
000000b0: 6bf1 3033 9a3d f52e 6c00 a839 d9f1 753b
000000c0: f1b0 803c 3ea2 1b39 4351 503d a079 5f3d
000000d0: aca7 933a 0171 532e 9f0b 1732 f8da 6e3b
000000e0: c4bb 0b3b abea be3c d2fb 7431 607e a03c
000000f0: 9daf 633b a8ba d13c cd6c 7733 4960 123c
0.0048040696 0.00024750174 0.00018652364 0.030646322 3.770197e-05 0.0014498176 0.012153326 0.0011147755
0.009576308 0.08365298 0.00023982993 0.035667967 8.0469784e-11 0.017548047 0.06489406 0.013955474
9.751962e-09 1.3676218e-10 0.004704125 0.03894648 0.018132208 2.0805077e-08 0.009711377 0.010901121
0.007959758 0.027103085 0.0005791826 0.016493307 0.00042025998 0.02472493 0.017558465 0.01604814
0.00041819568 0.0057219733 2.6770993e-05 0.0066396096 0.0020874334 1.1289187e-06 0.04132627 6.554877e-08
0.02319305 0.049703747 0.027292915 5.753674e-06 4.119776e-08 1.1152253e-10 0.0003204377 0.0037528186
0.015709372 0.00014842392 0.050858747 0.05455935 0.001126518 4.8076213e-11 8.791999e-09 0.0036446434
0.0021321634 0.023305258 3.5649816e-09 0.01959151 0.0034742125 0.0256017 5.7608123e-08 0.008934089

square_avg f4 [5]
00000000: 1aa0 c840 5889 1c41 38f6 ef3d 50c8 a43e
00000010: ae8f 263d
6.2695436 9.783531 0.117168844 0.32184076 0.040664367
