S-LSTM/Goal+Socail_Array_PyTorch/social_lstm/save/0/social_model_epoch_19.pth (torch, 815071 bytes, 22 tensors)

embedding_b f4 [64]
-0.05392825 0.35895613 0.26984942 -2.116491e-05 -0.0019615996 -0.01009738 -0.08431933 -0.0052057086
-0.13830738 -0.0018104035 0.00806117 -0.027605077 -0.19174795 -0.11949487 -0.040764775 -0.025887817
-0.032495428 0.013856289 -0.16081798 -0.05122927 -0.015327865 -0.04107251 -0.004791534 -0.002595924
-0.055813696 0.0058946554 0.048374288 -0.0037198965 0.3550379 -0.16678095 -0.042356357 -0.059900735
-0.12905115 0.020785667 0.09160344 -0.023375174 0.18779464 0.08171003 -9.485478e-05 -0.16578433
-0.027067903 0.042389672 -0.003789443 -0.04099511 -0.021046631 -6.825211e-06 -0.0041821366 0.06465107
-0.106709436 0.14464061 -1.3081226e-06 0.06757785 -0.009301171 -0.015468136 0.05862214 -0.06835977
-0.016351689 0.004009273 -0.009054826 0.08180917 0.13393535 0.070046015 -0.13746989 -0.022675144
00000000: dee3 5cbd 19c9 b73e b429 8a3e 4c8b b1b7
00000010: 2e8e 00bb 7b6f 25bc 9daf acbd a694 aabb
00000020: 73a0 0dbe 104b edba ff12 043c 0b24 e2bc
00000030: 9359 44be bab9 f4bd f7f8 26bd b012 d4bc
00000040: ed19 05bd 7d05 633c 78ad 24be c8d5 51bd
00000050: ba21 7bbc a63b 28bd 4d02 9dbb 6120 2abb
00000060: e79c 64bd f427 c13b 1e24 463d 82c9 73bb
00000070: 87c7 b53e a0c8 2abe dc7d 2dbd 795a 75bd
00000080: fc25 04be b446 aa3c 969a bb3d 4b7d bfbc
00000090: 3d4d 403e 9757 a73d c6ec c6b8 5ec3 29be
000000a0: 82bd ddbc cba0 2d3d 4e58 78bb 7dea 27bd
000000b0: fc69 acbc 1e04 e5b6 4e0a 89bb c867 843d
000000c0: 7a8a dabd ab1c 143e c092 afb5 4166 8a3d
000000d0: f063 18bc 116e 7dbc c51d 703d 3500 8cbd
000000e0: faf3 85bc 3860 833b b15a 14bc 918b a73d
000000f0: 5926 093e 4974 8f3d e8c4 0cbe 39c1 b9bc

output_b f4 [5]
0.028595142 -0.0068974225 -0.9171912 -0.88014436 -0.06508695
00000000: 5c40 ea3c c603 e2bb 0bcd 6abf 2451 61bf
00000010: 4f4c 85bd

embedding_w.weight f4 [64, 4]
0.23817915 -0.7436032 -0.1258264 0.3714364 0.09515284 1.412492 -0.062706806 0.3794678
-1.1444397 -0.6920739 -0.1557909 -0.10500985 4.229245e-33 -5.0208894e-21 -3.986448e-33 -1.7304368e-09
-1.0460938e-08 1.9716229e-06 2.7226444e-05 -0.00038586566 0.7538709 -0.54603165 0.47990778 0.46391904
0.55046487 0.8236226 0.10857645 0.030015651 0.010780596 0.0034146823 0.027365748 0.004480427
0.0495725 0.29214692 0.026436463 0.34054178 -1.157531e-06 6.2915033e-06 -6.1547476e-06 -3.718335e-06
-0.6244527 0.4891862 0.3857882 -0.40157503 -0.49653637 0.054536007 -0.4389604 0.0588498
0.60656637 -0.3434209 -0.6377738 0.40402237 1.0077943 0.3478877 0.11671533 0.20107256
0.1761289 0.06625477 0.33284846 0.107476756 0.03754667 0.058126416 0.0682681 -0.052894328
0.057208307 0.09969713 0.24182187 -0.062514156 0.042159617 -0.006356219 0.030865781 0.014420148
0.3575539 -0.54799366 0.3688086 -0.42216346 1.041611 0.36883056 -1.0926611 -0.30603704
0.013335585 -0.0031449662 0.04266098 0.016150681 0.08799828 0.091080844 0.4186083 -0.044934224
1.2148646e-05 0.001008925 -4.3378524e-05 -0.005510871 -0.00090051844 -1.106795e-05 6.57635e-05 -0.0001252387
-0.32795328 0.2757306 0.6927723 0.12835234 -0.010741741 -0.033247717 -0.01354527 0.010696908
-0.8216187 -1.1433092 0.18466116 -0.9894571 -8.192945e-06 -0.0001969007 -2.0942913e-14 0.0016383531
-1.3310704 -0.79546314 -0.014649926 0.10001703 -0.57989985 -0.54433566 0.6305269 0.6347603
0.23791596 0.2213581 0.314126 -0.19860922 -0.74327785 0.2603459 -0.03215002 0.22054085
-0.72069496 0.6536483 -0.1422319 -0.32359883 0.2589907 1.1535527 -0.068299174 -0.41766843
1.4772037 -0.21724664 0.20609817 0.4610674 0.8397925 0.6686541 0.11321221 0.238751
-0.7325864 1.308996 -0.004871631 0.60467076 1.294693 -1.0310553 0.23706271 -0.40306208
-1.596454e-33 1.5144476e-32 -7.5992266e-32 -1.7697246e-31 -0.18957901 0.29146063 0.28270665 -0.06869435
1.4288394 0.48988315 0.11144609 0.29074365 -0.049931888 0.011443004 -0.02653534 0.017170705
5.9949384e-30 2.1923279e-05 -5.320335e-07 -0.0020499509 -0.1346959 0.22645608 0.35456222 0.06951947
-0.053988732 0.04363826 -0.01577721 -0.009785871 2.9537915e-15 -2.1050062e-33 -4.28399e-25 5.8214706e-08
0.12689926 1.0314132 -0.0065506403 -0.057336755 -0.3280757 0.7025858 0.12864898 -0.017264513
0.14238706 0.40528008 -0.028153706 0.15310097 -0.6459145 -1.2259548 -0.15102178 0.16089074
4.539181e-33 -4.3602627e-33 -5.308074e-34 1.474631e-18 -1.2509913 0.9864367 -0.22503763 0.17487894
0.01803741 0.0037077602 0.022764925 -0.017194245 0.012175314 0.020708503 0.03793978 -0.049057286
0.3464333 -1.0131292 -0.10045704 -0.027376076 0.7552131 -0.51485395 0.07196574 -0.32351187
0.65315086 -0.58342344 -0.21786948 0.22015984 -0.0034007519 -0.02178893 -0.010070063 0.0010803895
0.025713928 0.022581413 0.014308084 -0.0062840083 -1.0704484 -0.7255933 -0.004314788 0.02603107
-0.53463376 -1.0802902 -0.18741663 0.027691636 0.99318826 1.0506644 0.08993139 0.021825124
-0.5735358 0.2848714 0.08274299 0.13029088 -1.1707354 0.6947707 -0.23625821 -0.06911953
00000000: 3ce5 733e c85c 3ebf a3d8 00be e92c be3e
00000010: 7edf c23d 8acc b43f 6d6c 80bd 9a49 c23e
00000020: 007d 92bf c12b 31bf a687 1fbe 670f d7bd
00000030: 0cad af09 10af bd9d 3097 a589 55d4 edb0
00000040: b1b7 33b2 3950 0436 5864 e437 034e cab9
00000050: affd 403f bbc8 0bbf 79b6 f53e cc86 ed3e
00000060: 44eb 0c3f eed8 523f 545d de3d 62e3 f53c
00000070: 19a1 303c ddc8 5f3b 222e e03c 8cd0 923b
00000080: 890c 4b3d 4894 953e 4891 d83c 7e5b ae3e
00000090: 765c 9bb5 9a1b d336 e184 ceb6 8288 79b6
000000a0: 22dc 1fbf 9d76 fa3e 0886 c53e 3e9b cdbe
000000b0: 043a febe 2661 5f3d 6bbf e0be 7d0c 713d
000000c0: ef47 1b3f ddd4 afbe 2545 23bf 05dc ce3e
000000d0: 67ff 803f 561e b23e 7208 ef3d f7e5 4d3e
000000e0: 225b 343e 95b0 873d 1d6b aa3e c61c dc3d
000000f0: 89ca 193d f715 6e3d 25d0 8b3d b9a7 58bd
00000100: 4253 6a3d 022e cc3d 27a0 773e 6c07 80bd
00000110: 90af 2c3d d447 d0bb 3cda fc3c 7c42 6c3c
00000120: 4e11 b73e 5049 0cbf 7bd4 bc3e cf25 d8be
00000130: 8253 853f 5cd7 bc3e 52dc 8bbf e3b0 9cbe
00000140: 7f7d 5a3c c71b 4ebb 48bd 2e3d 6f4e 843c
00000150: 7138 b43d 9888 ba3d d453 d63e f30c 38bd
00000160: 0ad2 4b37 e83d 843a 56f1 35b8 8994 b4bb
00000170: c510 6cba 7cb0 39b7 83ea 8938 8252 03b9
00000180: 7ee9 a7be 902c 8d3e 8759 313f cc6e 033e
00000190: 21fe 2fbc c22e 08bd fbec 5dbc 1642 2f3c
000001a0: 9a55 52bf f557 92bf d117 3d3e 0f4d 7dbf
000001b0: 6e74 09b7 2177 4eb9 12a3 bca8 02be d63a
000001c0: 8460 aabf 79a3 4bbf 3e06 70bc bbd5 cc3d
000001d0: 5174 14bf 9559 0bbf 366a 213f a77f 223f
000001e0: 3ea0 733e b3ab 623e 20d5 a03e 3760 4bbe
000001f0: 7547 3ebf 0f4c 853e bdaf 03bd 76d5 613e
00000200: 777f 38bf 7f55 273f 3da5 11be bfae a5be
00000210: 6e9a 843e 9da7 933f 70e0 8bbd a3d8 d5be
00000220: 0315 bd3f e775 5ebe 660b 533e 0711 ec3e
00000230: a4fc 563f ea2c 2b3f cedb e73d 247b 743e
00000240: c88a 3bbf 2e8d a73f 34a2 9fbb b4cb 1a3f
00000250: 80b8 a53f 9ff9 83bf 91c0 723e 275e cebe
00000260: d2a0 0489 ec44 9d0a 8649 c58b 30b9 658c
00000270: 0021 42be 543a 953e edbe 903e a0af 8cbd
00000280: 36e4 b63f f7d1 fa3e d93d e43d 5adc 943e
00000290: 6185 4cbd 707b 3b3c a460 d9bc 94a9 8c3c
000002a0: 002f f30e e2e7 b737 10d1 0eb5 7858 06bb
000002b0: b9ed 09be 1ae4 673e 2e89 b53e 3960 8e3d
000002c0: 4a23 5dbd 08be 323d 353f 81bc eb54 20bc
000002d0: d6d7 5427 88e0 2e89 4495 0497 bf07 7a33
000002e0: e1f1 013e 5905 843f c1a6 d6bb f2d9 6abd
000002f0: 8af9 a7be aadc 333f 8fbc 033e 4f6e 8dbc
00000300: eacd 113e df80 cf3e 9aa2 e6bc 80c6 1c3e
00000310: a75a 25bf 16ec 9cbf 74a5 1abe 8bc0 243e
00000320: da8c bc09 441e b589 1a64 3088 fc9d d921
00000330: 7c20 a0bf 1e87 7c3f 4470 66be 7713 333e
00000340: 31c3 933c e5fd 723b 827d ba3c f2da 8cbc
00000350: f87a 473c e1a4 a93c be66 1b3d 4bf0 48bd
00000360: b55f b13e 38ae 81bf 6cbc cdbd cb43 e0bc
00000370: a555 413f 78cd 03bf c662 933d 59a3 a5be
00000380: e534 273f 3d5b 15bf 2d19 5fbe 9571 613e
00000390: 26df 5ebb b37e b2bc e8fc 24bc db9b 8d3a
000003a0: 04a6 d23c a8fc b83c 746c 6a3c 15ea cdbb
000003b0: 7404 89bf 7cc0 39bf 1163 8dbb 1c3f d53c
000003c0: c2dd 08bf f346 8abf 25ea 3fbe 92d9 e23c
000003d0: 9641 7e3f 2c7c 863f f32d b83d 9aca b23c
000003e0: 3ed3 12bf aada 913e 2875 a93d f96a 053e
000003f0: a8da 95bf 7edc 313f aced 71be 8a8e 8dbd

embedding_w.bias f4 [64]
0.07966351 0.1628612 0.1383112 -2.116491e-05 -0.0019615996 -0.037268884 -0.027500186 -0.0052057086
0.15602812 -0.0018104035 -0.052536145 0.01985186 0.14176168 0.18342565 -0.040764775 -0.025887817
-0.032495428 0.013856289 0.10824887 -0.0035967547 -0.015327865 -0.04107251 -0.004791534 -0.002595924
-0.055813696 0.0058946554 -0.095584184 -0.0037198965 0.16045743 0.109750815 -0.042356357 -0.057203364
0.17470163 0.03668193 0.37838703 0.27653664 -0.0018935143 -0.058536652 -9.485478e-05 0.09112745
0.057888143 0.042389672 -0.003789443 -0.04099511 -0.021046631 -6.825211e-06 -0.031274296 -0.099968076
0.0741266 0.13157685 -1.3081226e-06 -0.11698492 -0.009301171 -0.015468136 0.044432905 -0.06835977
0.008365625 0.004009273 -0.009054826 0.36006454 -0.13294461 -0.15723066 0.10715293 -0.25916767
00000000: 9f26 a33d 16c5 263e 74a1 0d3e 4c8b b1b7
00000010: 2e8e 00bb 42a7 18bd 1248 e1bc a694 aabb
00000020: d6c5 1f3e 104b edba 2430 57bd 5ea0 a23c
00000030: f929 113e efd3 3b3e f7f8 26bd b012 d4bc
00000040: ed19 05bd 7d05 633c 95b1 dd3d 88b7 6bbb
00000050: ba21 7bbc a63b 28bd 4d02 9dbb 6120 2abb
00000060: e79c 64bd f427 c13b a4c1 c3bd 82c9 73bb
00000070: f44e 243e 09c5 e03d dc7d 2dbd 134e 6abd
00000080: fce4 323e cb3f 163d f2bb c13e 3696 8d3e
00000090: cc2f f8ba 21c4 6fbd c6ec c6b8 07a1 ba3d
000000a0: 1e1c 6d3d cba0 2d3d 4e58 78bb 7dea 27bd
000000b0: fc69 acbc 1e04 e5b6 7a19 00bd 10bc ccbd
000000c0: b0cf 973d 15bc 063e c092 afb5 ca95 efbd
000000d0: f063 18bc 116e 7dbc 47ff 353d 3500 8cbd
000000e0: f90f 093c 3860 833b b15a 14bc 615a b83e
000000f0: a222 08be 1301 21be ff72 db3d a0b1 84be

embedding_t_w.weight f4 [1, 8]
0.9751503 -0.3226094 0.16922325 -0.50343394 0.07528562 -0.06174142 0.5285377 -0.6380585
00000000: 73a3 793f 0f2d a5be dc48 2d3e 0ce1 00bf
00000010: 592f 9a3d 92e4 7cbd 3f4e 073f cd57 23bf

lstm.weight_ih f4 [512, 65]
0.007843456 -0.029461903 -0.026767446 -0.0005477111 -1.0713494e-06 -0.014235564 -0.020996235 -1.9873182e-06
-0.033951413 -6.13681e-09 0.018316533 0.0054500266 -0.007968097 -0.023596304 -0.0007983537 0.0005884924
0.0054142727 -0.004823383 0.0036512674 -0.00409256 0.0001937623 0.005706705 1.9963662e-09 0.00013455778
-0.0041306713 -0.0048200414 -0.00051771256 3.9152565e-07 -0.044600803 -0.01076376 0.007504924 -0.00015058648
0.00989356 0.019127538 -0.059505217 -0.03133898 -0.02921582 -0.014702776 1.3060112e-05 -0.0034902915
-0.031021148 -0.0023498149 8.832702e-06 -0.0045408187 3.4737102e-05 2.79574e-40 -0.003468492 -0.008595855
-0.02773662 -0.013752094 0.0013970636 -0.004925055 -4.0876642e-25 0.0008838353 -0.0041497 0.010938883
0.0035313682 -0.004211134 0.00010652022 -0.037453063 0.0017624227 -0.019755106 -0.006851303 0.0051189596
-0.015574684 0.02506848 -0.023806028 -0.028085092 4.4607123e-06 -0.0001773608 0.015094097 -0.0014266483
-3.958051e-06 0.0021503794 -3.5955848e-06 0.0070304573 0.0014247273 0.008767512 -6.97276e-05 0.0017409413
-0.002195001 0.0015371514 -0.00017577311 -0.00435518 -0.005560642 5.9195118e-06 0.0028059222 8.068549e-07
-9.994785e-05 0.0022860314 -0.003819636 -0.007809332 0.00027637614 -0.03760083 0.024678688 0.004139516
0.005557454 -0.00086305884 0.009827111 -0.024891967 -0.006428374 -0.009749508 -0.009544128 9.010566e-06
0.00048938126 -0.0021692386 0.0017988747 -5.3455347e-05 -0.0005314684 9.791477e-05 -3.452622e-08 0.0017650817
0.0027354308 -0.0057248254 -0.015591006 -3.2662933e-06 -0.001187373 -0.00072668755 -6.9575544e-06 -0.0023964709
0.0010370205 0.016599374 0.00047263247 -4.6805166e-05 -0.03129812 0.0031870157 -0.00020583405 0.0037228067
0.0044142846 -0.0040408485 0.0022307853 -0.04084727 -0.027100055 0.00020102368 -9.4392885e-07 -0.0027849502
-0.024519097 1.8304343e-07 -0.020278078 1.2118613e-07 0.009797593 -0.012771126 -0.020019066 -0.020682883
0.0036541978 -0.00045721154 0.00617854 -0.0015614707 0.015512157 -0.021950802 6.911332e-06 0.012325784
-0.0005853691 -2.159942e-05 0.0045690034 -0.006279867 0.00879172 -2.9804728e-09 -0.037701134 0.004320364
0.01180933 -0.007503397 -0.00821792 -0.00045760727 -0.035970576 -0.02254268 -0.0239988 -0.0037352017
7.3028593e-07 -0.0041120513 -0.033447444 -0.007100754 -1.148357e-05 0.00199015 1.07770275e-05 -0.0013383745
-0.011455954 -0.006511364 -0.025623683 -0.024713146 1.6316626e-06 -0.02698749 0.0014357504 0.00043954648
-0.007449627 0.017312845 -0.004637554 -0.0033549096 9.603871e-06 -0.03092876 -0.008177134 -0.025352377
-0.010050082 -0.019307636 -0.009172772 -0.009104184 -0.0504863 -0.05349301 -0.00029740168 4.1182602e-08
-0.0041010366 -0.00012686786 1.98603e-06 -0.007762043 -4.322736e-05 0.0032919673 -0.013503572 -0.007929473
-0.0072241533 -0.00065138726 -0.00083839486 0.0002837241 -0.0044096843 -0.006450768 -0.0027848533 7.280336e-06
0.00049119815 -4.300483e-06 -1.9374987e-05 -0.0048423065 -0.003719885 -0.023265533 0.0006646955 -0.06522601
-0.011466107 0.0018814716 -0.008685438 -0.009102699 0.00013196137 -0.03905006 -0.018903112 -0.030586045
-0.014200907 -8.2648626e-08 0.00039835589 -0.00836066 -0.008428578 -3.26067e-05 -0.00293444 -2.9965668e-07
0.0012552068 -0.0023879101 -0.0042910064 -0.0043096547 -0.038439985 0.0013819395 -0.02198626 -7.062203e-14
-6.7315414e-06 -0.01851133 0.0011036514 -0.0042359647 -0.0027573602 -0.00010097459 -0.058143437 -0.018167771
00000000: d781 003c 175a f1bc 6747 dbbc 4594 0fba
00000010: 49cb 8fb5 483c 69bc 4c00 acbc de5d 05b6
00000020: a310 0bbd f4db d2b1 8e0c 963c 2396 b23b
00000030: 9f8c 02bc 094d c1bc 9c48 51ba 0e45 1a3a
00000040: 366a b13b 780d 9ebb 1a4a 6f3b e21a 86bb
00000050: ac2c 4b39 50ff ba3b 7230 0931 1418 0d39
00000060: 955a 87bb 70f1 9dbb 1ab7 07ba e032 d234
00000070: 55af 36bd 7b5a 30bc deeb f53b c0e6 1db9
00000080: 9918 223c 5bb1 9c3c bebb 73bd 4d5d 00bd
00000090: 0456 efbc eae3 70bc c11c 5b37 60bd 64bb
000000a0: 1020 febc 5aff 19bb 2b30 1437 26cb 94bb
000000b0: aeb2 1138 570b 0300 a44f 63bb a1d5 0cbc
000000c0: e837 e3bc 7650 61bc ad1d b73a 5b62 a1bb
000000d0: a003 fd96 2fb1 673a 35fa 87bb 0039 333c
000000e0: 876e 673b 8dfd 89bb 9c63 df38 6268 19bd
000000f0: 1801 e73a 76d5 a1bc e580 e0bb f2bc a73b
00000100: f62c 7fbc 6a5c cd3c dc04 c3bc b512 e6bc
00000110: 3aad 9536 edf9 39b9 3b4d 773c 60fe baba
00000120: 66cf 84b6 61ed 0c3b ad4b 71b6 c05f e63b
00000130: eabd ba3a 9ca5 0f3c b83a 92b8 4c30 e43a
00000140: 02da 0fbb 3e7a c93a bc4f 38b9 e6b5 8ebb
00000150: 0c36 b6bb 38a0 c636 90e3 373b a696 5835
00000160: 189b d1b8 3ed1 153b dc52 7abb 6de5 ffbb
00000170: 94e6 9039 5403 1abd f62a ca3c c7a4 873b
00000180: 4e1b b63b e63e 62ba e401 213c 3dea cbbc
00000190: 1ca5 d2bb 67bc 1fbc f95e 1cbc 162c 1737
000001a0: d249 003a c929 0ebb 38c8 eb3a 3e35 60b8
000001b0: 3e52 0bba 9857 cd38 fb49 14b3 505a e73a
000001c0: ea44 333b 5197 bbbb 6b71 7fbc 7e32 5bb6
000001d0: a0a1 9bba 2d7f 3eba f074 e9b6 1c0e 1dbb
000001e0: a2ec 873a 69fb 873c a8cb f739 aa50 44b8
000001f0: 7532 00bd 40dd 503b 28d5 57b9 55fa 733b
00000200: b4a5 903b 1869 84bb 5e32 123b 784f 27bd
00000210: ef00 debc e2c9 5239 4c62 7db5 b683 36bb
00000220: 46dc c8bc 988a 4434 361e a6bc 641f 0234
00000230: 1586 203c fc3d 51bc 06ff a3bc 266f a9bc
00000240: 447b 6f3b e5b5 efb9 5a75 ca3b 43aa ccba
00000250: b426 7e3c 2bd2 b3bc e4e7 e736 16f2 493c
00000260: 7573 19ba 6730 b5b7 94b7 953b 58c7 cdbb
00000270: 250b 103c 08d1 4cb1 816c 1abd d791 8d3b
00000280: ec7b 413c 0edf f5bb 74a4 06bc 02eb efb9
00000290: e255 13bd 6dab b8bc 2299 c4bc 49ca 74bb
000002a0: de08 4435 63be 86bb 3000 09bd 71ad e8bb
000002b0: 8fa9 40b7 2d6d 023b fbce 3437 656c afba
000002c0: c1b1 3bbc 485d d5bb c2e8 d1bc 3973 cabc
000002d0: 80ff da35 de14 ddbc ca2f bc3a ee72 e639
000002e0: 001c f4bb abd3 8d3c 9ff6 97bb 0bde 5bbb
000002f0: 5020 2137 505e fdbc 63f9 05bc caaf cfbc
00000300: 19a9 24bc 0c2b 9ebc 6549 16bc b729 15bc
00000310: b9ca 4ebd 7d1b 5bbd 94ec 9bb9 c0e0 3033
00000320: fd61 86bb d507 05b9 bc47 0536 bc58 febb
00000330: 064f 35b8 0cbe 573b 163e 5dbc 9fea 01bc
00000340: 97b8 ecbb dcc1 2aba bac7 5bba cec0 9439
00000350: 1d7f 90bb f760 d3bb 1682 36bb 9c49 f436
00000360: c0c3 003a de4c 90b6 7887 a2b7 36ac 9ebb
00000370: 50c9 73bb 5c97 bebc f63e 2e3a 3795 85bd
00000380: 57dc 3bbc b69b f63a 5e4d 0ebc 7d23 15bc
00000390: 1c5f 0a39 f5f2 1fbd b3da 9abc 968f fabc
000003a0: ecaa 68bc 907c b1b3 6cda d039 26fb 08bc
000003b0: 0518 0abc 2dc3 08b8 bc4f 40bb 80e0 a0b4
000003c0: c085 a43a 7c7e 1cbb 929b 8cbb 0138 8dbb
000003d0: 3f73 1dbd 3222 b53a 871c b4bc d406 9fa9
000003e0: 80df e1b6 13a5 97bc 65a8 903a d9cd 8abb
000003f0: d4b4 34bb 52c2 d3b8 d027 6ebd 94d4 94bc

lstm.weight_hh f4 [512, 128]
-0.004617421 0.002605331 -0.0018580013 -0.0005304639 0.0109249 -0.0049793622 -0.0053289686 -0.0016592017
0.00014637853 -0.00551751 -0.010469808 -0.014074012 0.0344183 0.006378822 -0.0033093635 0.0004621877
-0.011208049 0.0011151657 0.0063634776 -0.00057285023 -0.0032769088 -0.005536516 0.00018511934 -0.0009518949
0.005424291 0.018521532 -0.004094628 -0.005742172 0.006095547 -0.0017050635 -0.0023307023 0.0013107909
-0.0013125322 0.0010350193 0.013966314 0.002500668 0.00014368253 -0.001149145 0.0023346038 -0.0019105033
0.0024442405 -0.0010655448 -0.022731662 -0.00898903 0.001937411 0.0018959368 -0.005365938 0.0005693314
-0.01712276 -0.0038523152 0.0015009406 -0.0066369725 0.0011082261 0.0003052529 -0.009192643 -0.004151414
-0.0065883077 0.008910702 0.0038769643 -0.022268232 -0.00052994606 -0.0013852332 0.0004651749 -0.0010611744
0.0019536396 0.0035105578 -0.01748584 0.0010185268 -0.0003108271 -0.0006500096 -0.002618082 -0.0043441877
-0.0014284984 0.004201937 -0.006591413 0.0020578261 -0.00022731395 -0.0017170877 0.02566218 -0.0016721139
-0.018902913 0.0010703456 0.00018137973 0.0012928951 0.000165895 -0.013742197 -0.0044073043 0.0076653846
0.0007211555 0.0066896137 -0.0003649667 0.00045025046 0.0056915754 -0.00011288619 -0.0066195484 0.0031377764
0.0047949525 0.0025663832 0.0041006184 -0.0028730156 0.0049685487 0.00069147826 -0.0018154352 -0.00013926422
0.0034273737 -0.007156317 -0.0010036718 0.016387219 0.014996238 -0.024222089 0.002477806 -0.002095617
-0.010532187 0.0013971572 0.00064243993 0.0028281221 0.0069013108 -0.0074582193 0.0011887245 -0.0015578312
-0.012556249 -0.0041992217 0.00082063617 0.006732077 -0.003974963 -0.00400435 -0.00085115334 -0.0062895454
0.0058622444 0.005354579 0.006308667 -0.0027285027 -0.0092774825 -0.0067022224 -0.00024187079 -0.003977039
0.0044106166 0.00080758426 -0.008976493 0.0018314517 -0.0044444203 0.0020568026 -0.00013978416 -0.0047584814
-0.0037719682 -0.004831021 0.0069771605 0.002260272 -0.005189213 0.0025613965 -0.0035567319 -0.006693392
0.006942415 0.014358429 0.0026235122 -0.008776438 -0.009609025 -0.0062308516 0.009707656 -0.0067625158
-0.0038781373 -0.004394234 0.017419111 0.006473436 -0.0052641886 0.0048778956 -0.0072912998 0.0035962807
0.005087196 -0.00069862464 -0.017155083 -0.012611373 -0.0030819792 -0.004950903 -0.007664879 0.0071003055
-0.014026831 -0.008249015 0.0029541727 0.0018326106 -0.0036529528 -0.004600536 -0.011211315 0.0026065416
-0.00406906 0.0016020818 -0.0043978198 -0.008078883 -0.0022578733 -0.010355869 0.007850186 -7.4565614e-06
-0.008529131 0.0053890045 -0.008947414 -0.0022095863 0.0058869137 0.0030706467 -0.0031545504 0.0035411273
-0.005410662 0.00573886 -0.0035327352 0.0054307105 -0.0031571425 -0.0005114199 0.019326366 0.0061617154
-0.01118183 0.0049679843 -0.004556396 0.003458308 0.0009802319 -0.01324694 -0.0048149433 -0.001431595
0.003587449 0.0054443665 -0.005162298 0.0017619047 -0.007106227 0.003556741 -0.002952287 -0.0035157271
-0.002351752 0.0053310227 -0.002092776 -0.0046992674 0.00013134844 0.0029269995 -0.0036242027 -0.0041725086
0.0018639421 -0.009922107 0.0023195427 0.0157002 -0.011069722 -0.015479907 -0.005146843 -0.0031859835
-0.006870521 -0.0028876453 -0.0022453382 0.0056072315 0.018053593 0.0002363205 -0.0034289788 0.0049646324
-0.0049928585 -0.0064961533 -0.005277269 0.00015987156 -0.01049264 -0.003981392 0.0051676743 -0.005455433
00000000: bc4d 97bb 33be 2a3b 2e88 f3ba d40e 0bba
00000010: 5afe 323c eb29 a3bb a19e aebb 9279 d9ba
00000020: 307d 1939 3bcc b4bb 8f89 2bbc af96 66bc
00000030: 34fa 0c3d 7005 d13b e8e1 58bb c851 f239
00000040: f7a1 37bc c02a 923a b884 d03b 542b 16ba
00000050: 68c1 56bb aa6b b5bb 981c 4239 9688 79ba
00000060: 40be b13b 78ba 973c 3b2c 86bb d428 bcbb
00000070: 28bd c73b 707c dfba b2be 18bb d8ce ab3a
00000080: 4609 acba 7ca9 873a f7d2 643c 3fe2 233b
00000090: 7ca9 1639 e89e 96ba 2700 193b da69 faba
000000a0: 8d2f 203b c0a9 8bba c037 babc b946 13bc
000000b0: baf0 fd3a 1581 f83a c0d4 afbb 2f3f 153a
000000c0: 0845 8cbc 2077 7cbb 36bb c43a f67a d9bb
000000d0: e641 913a 5a0a a039 bd9c 16bc 9608 88bb
000000e0: bbe2 d7bb 31fe 113c ab14 7e3b de6b b6bc
000000f0: 14ec 0aba b790 b5ba b8e2 f339 1b17 8bba
00000100: a208 003b 6311 663b 773e 8fbc 1780 853a
00000110: 82f6 a2b9 6865 2aba 2194 2bbb b059 8ebb
00000120: 743c bbba 67b0 893b c8fc d7bb 98dc 063b
00000130: 205b 6eb9 e70f e1ba 7e39 d23c d52a dbba
00000140: 48da 9abc d74a 8c3a c030 3e39 5c76 a93a
00000150: 1af4 2d39 f426 61bc 266b 90bb e82d fb3b
00000160: ed0b 3d3a 8c34 db3b 0059 bfb9 980f ec39
00000170: 6580 ba3b 50bd ecb8 cce8 d8bb 27a3 4d3b
00000180: fa1e 9d3b c430 283b 7b5e 863b 3449 3cbb
00000190: 35cf a23b 5244 353a e6f3 edba 7407 12b9
000001a0: ca9d 603b 8a7f eabb a38d 83ba 7d3e 863c
000001b0: c8b2 753c 676d c6bc b062 223b 9e56 09bb
000001c0: 328f 2cbc d120 b73a 6a69 283a 0458 393b
000001d0: 6424 e23b 1464 f4bb face 9b3a 2430 ccba
000001e0: bab8 4dbc a099 89bb f61f 573a c198 dc3b
000001f0: 6840 82bb ec36 83bb ef1f 5fba 8818 cebb
00000200: 1218 c03b 7775 af3b efb8 ce3b aed0 32bb
00000210: 9500 18bc 519e dbbb b29e 7db9 d251 82bb
00000220: ef86 903b 10b4 533a 2412 13bc 520d f03a
00000230: 80a2 91bb 6ccb 063b 0693 12b9 09ed 9bbb
00000240: 2033 77bb 8b4d 9ebb aaa0 e43b 1221 143b
00000250: 460a aabb 1add 273b 0f18 69bb 3e54 dbbb
00000260: 337d e33b 9e3f 6b3c 3bef 2b3b 0dcb 0fbc
00000270: 2c6f 1dbc 2c2c ccbb dc0c 1f3c 1898 ddbb
00000280: 5928 7ebb 82fd 8fbb 86b2 8e3c 1e1f d43b
00000290: 377f acbb c1d6 9f3b dbeb eebb 94af 6b3b
000002a0: 7eb2 a63b e823 37ba d188 8cbc ef9f 4ebc
000002b0: 08fb 49bb 2f3b a2bb aa29 fbbb aea9 e83b
000002c0: cbd0 65bc e026 07bc cb9a 413b 3534 f03a
000002d0: 6166 6fbb 18c0 96bb aaaf 37bc 83d2 2a3b
000002e0: c055 85bb f2fc d13a 961b 90bb 4b5d 04bc
000002f0: d4f8 13bb aaab 29bc 119e 003c 6033 fab6
00000300: c5bd 0bbc 3f96 b03b 2d98 12bc b5ce 10bb
00000310: 03e7 c03b e73c 493b 93bc 4ebb 4212 683b
00000320: ec4b b1bb 0c0d bc3b 7685 67bb 1af4 b13b
00000330: 10e8 4ebb cf10 06ba 5452 9e3c 37e8 c93b
00000340: ff33 37bc 79ca a23b d24d 95bb c8a4 623b
00000350: 207b 803a b209 59bc acc6 9dbb 5ba4 bbba
00000360: 681b 6b3b a866 b23b 7f28 a9bb b6ef e63a
00000370: 5adb e8bb 3618 693b 287b 41bb 1d68 66bb
00000380: da1f 1abb dcaf ae3b f426 09bb 50fc 99bb
00000390: 94ba 0939 e7d2 3f3b 0884 6dbb 8ab9 88bb
000003a0: 854f f43a 5590 22bc 7803 183b b59d 803c
000003b0: c75d 35bc 709f 7dbc d9a6 a8bb efcb 50bb
000003c0: 1c22 e1bb a63e 3dbb 8626 13bb debc b73b
000003d0: 21e5 933c cdcc 7739 b8b8 60bb 5bae a23b
000003e0: 229b a3bb afdd d4bb f1ec acbb 32a3 2739
000003f0: 52e9 2bbc 5676 82bb 9855 a93b 7dc3 b2bb

lstm.bias_ih f4 [512]
-0.115509994 -0.07892563 -0.08746109 -0.10784756 -0.2033664 0.24093212 -0.092792295 -0.08922488
-0.10651488 -0.09781412 -0.07512348 -0.0274283 0.19288671 -0.11234295 -0.12002689 -0.10437475
-0.12143176 -0.10496909 -0.07647465 -0.074273564 -0.08921347 -0.096968345 -0.08295571 -0.101974644
-0.09172489 -0.07557719 -0.10443915 -0.081997044 -0.031460207 -0.079246126 -0.037044078 -0.09821093
-0.11448462 -0.09920752 -0.051773474 -0.11131716 -0.10128653 -0.08983662 0.29610568 -0.086969525
-0.093148194 -0.07266379 0.45636526 0.041954257 -0.09434323 -0.10256396 -0.07463074 -0.101157896
-0.040557448 -0.088753685 -0.06504367 -0.09746365 -0.10590596 -0.0963036 -0.08785328 -0.10886108
-0.09023255 -0.13490045 -0.09992157 -0.13299206 -0.10083101 -0.05428062 -0.106899746 -0.11406275
-0.14227504 -0.10718472 -0.05456157 -0.09197955 -0.105058946 -0.103442416 -0.10957104 -0.09332889
-0.0876238 -0.10749833 -0.08707171 -0.08731205 -0.11414428 -0.09302058 0.5337363 -0.09776209
-0.21129377 -0.08366471 -0.09479141 -0.094859295 -0.093888246 0.47104773 -0.09383999 -0.16619892
-0.08216932 -0.10066051 -0.09875062 -0.11387453 -0.2565584 -0.09483187 -0.08579846 -0.09722327
-0.09819532 -0.08031181 -0.1088356 -0.14090236 -0.099803746 -0.08012469 -0.10278582 -0.093033165
-0.097658664 -0.088066965 -0.09952919 0.42763552 -0.11897744 -0.075850144 -0.1020859 -0.09403474
-0.18767549 -0.10639678 -0.121464126 -0.08650871 -0.024918629 -0.10646336 -0.11873514 -0.11259527
-0.16104808 -0.09128381 -0.096839696 -0.111899026 -0.08640906 -0.08705722 -0.11222182 -0.08677376
-0.08770526 -0.065952554 -0.058412615 -0.0769583 -0.041801795 -0.09974037 -0.06532243 -0.06359646
-0.07882473 -0.062275406 -0.04273371 -0.13104536 -0.00962222 -0.07559458 -0.09934717 -0.074910276
-0.52015823 -0.06893042 -0.047796916 -0.39620587 -0.079018235 -0.0672297 -0.056038536 -0.07795278
-0.07850165 -0.22604962 -0.07921193 -0.0731977 -0.13364302 -0.08146398 -0.08703373 -0.06607896
-0.07968327 -0.07632001 -0.17433818 -0.08372372 -0.06993968 -0.06262074 -0.065169446 -0.058569655
-0.08123269 -0.06743392 0.25609097 -0.11947639 -0.071365796 -0.074679956 -0.07100729 -0.063586295
-0.21443975 -0.05618049 -0.05259726 -0.06706427 -0.070176214 -0.07196448 -0.06718698 -0.071373
-0.077392906 -0.075971015 -0.06792295 -0.3315344 -0.08009765 -0.15301332 -0.27146313 -0.08010501
-0.24158424 -0.06919906 -0.024948359 -0.05793139 -0.06996819 -0.09554469 -0.093544506 -0.055056646
-0.09760708 -0.071614936 -0.055119637 -0.06695516 -0.075763434 -0.07444711 0.29841086 -0.06585047
-0.33368272 -0.061537534 -0.0725638 -0.06941534 -0.07945025 0.28435057 -0.064204335 -0.1112927
-0.06732996 -0.08384548 -0.07236376 -0.08854794 -0.2917481 -0.076842524 -0.05439121 -0.07057877
-0.062686235 -0.063709445 -0.055789955 -0.11442876 -0.058226045 -0.041545384 -0.07396704 -0.07205321
-0.07916528 -0.07291191 -0.07871234 0.2164315 -0.21320632 -0.044816714 -0.06436438 -0.070995
-0.30127013 -0.06819094 -0.10096527 -0.057243176 -0.13108456 -0.080732755 -0.081393786 -0.08000521
-0.14073071 -0.07973911 -0.07583358 -0.08897503 -0.22966194 -0.070460185 -0.07956834 -0.055499982
00000000: 8190 ecbd c3a3 a1bd cd1e b3bd 2edf dcbd
00000010: 483f 50be e9b6 763e e309 bebd 89bb b6bd
00000020: 7924 dabd c552 c8bd 57da 99bd 50b1 e0bc
00000030: 1884 453e 1014 e6bd a8d0 f5bd 6ec2 d5bd
00000040: 37b1 f8bd 09fa d6bd be9e 9cbd bd1c 98bd
00000050: 8db5 b6bd 5797 c6bd afe4 a9bd 15d8 d0bd
00000060: 42da bbbd 37c8 9abd 31e4 d5bd 11ee a7bd
00000070: 6bdc 00bd cb4b a2bd 88bb 17bd d022 c9bd
00000080: ea76 eabd 502d cbbd 6c10 54bd 40fa e3bd
00000090: 506f cfbd 43fc b7bd 2a9b 973e 141d b2bd
000000a0: 7bc4 bebd c1d0 94bd b5a8 e93e 3ad8 2b3d
000000b0: 0637 c1bd 0e0d d2bd 00d8 98bd df2b cfbd
000000c0: 911f 26bd 7ec4 b5bd 9e35 85bd 069b c7bd
000000d0: 39e5 d8bd d23a c5bd 6cec b3bd 8ff2 debd
000000e0: d8cb b8bd 5823 0abe aea3 ccbd 122f 08be
000000f0: 7d80 cebd 5b55 5ebd 41ee dabd bb99 e9bd
00000100: 8cb0 11be aa83 dbbd f47b 5fbd c65f bcbd
00000110: 2529 d7bd 9ed9 d3bd c866 e0bd 3823 bfbd
00000120: 1b74 b3bd 1628 dcbd a752 b2bd a9d0 b2bd
00000130: 7ac4 e9bd 9381 bebd f1a2 083f 7e37 c8bd
00000140: 655d 58be 6758 abbd 0022 c2bd 9745 c2bd
00000150: 7b48 c0bd 2b2d f13e 2e2f c0bd 0d30 2abe
00000160: 6348 a8bd 1927 cebd c43d cabd 0d37 e9bd
00000170: 9f5b 83be 3637 c2bd 1ab7 afbd fe1c c7bd
00000180: a11a c9bd 857a a4bd 33e5 debd b548 10be
00000190: e865 ccbd 6a18 a4bd 5f81 d2bd 2c88 bebd
000001a0: 4401 c8bd 745c b4bd f6d5 cbbd 0bf3 da3e
000001b0: 72aa f3bd 5257 9bbd 6a12 d1bd 4995 c0bd
000001c0: 012e 40be 8ee6 d9bd 2fc2 f8bd 7b2b b1bd
000001d0: 2722 ccbc 7609 dabd 692b f3bd 5998 e6bd
000001e0: cae9 24be 02f3 babd e453 c6bd 512b e5bd
000001f0: 3cf7 b0bd 0e4b b2bd 8ed4 e5bd 71b6 b1bd
00000200: d19e b3bd 2212 87bd 1142 6fbd 509c 9dbd
00000210: 5c38 2bbd ae44 ccbd c4c7 85bd dc3e 82bd
00000220: dc6e a1bd 7f14 7fbd 8b09 2fbd c130 06be
00000230: 84a6 1dbc 55d1 9abd 8776 cbbd 8f6a 99bd
00000240: 1729 05bf 642b 8dbd b3c6 43bd 7fdb cabe
00000250: 50d4 a1bd baaf 89bd aa88 65bd b5a5 9fbd
00000260: 79c5 a0bd 8d79 67be dd39 a2bd ade8 95bd
00000270: b7d9 08be 96d6 a6bd bd3e b2bd 6854 87bd
00000280: fb30 a3bd aa4d 9cbd b585 32be 5777 abbd
00000290: 893c 8fbd 4d3f 80bd 8f77 85bd bce6 6fbd
000002a0: 535d a6bd cc1a 8abd 5b1e 833e 0ab0 f4bd
000002b0: 3b28 92bd cef1 98bd 456c 91bd 8839 82bd
000002c0: 1896 5bbe 831d 66bd 3970 57bd fe58 89bd
000002d0: 8cb8 8fbd 1d62 93bd 5499 89bd 022c 92bd
000002e0: 2c80 9ebd b196 9bbd 301b 8bbd e0be a9be
000002f0: 3d0a a4bd 86af 1cbe 37fd 8abe 180e a4bd
00000300: dc61 77be 3db8 8dbd 8060 ccbc 7749 6dbd
00000310: 7b4b 8fbd efac c3bd 4394 bfbd 1483 61bd
00000320: 39e6 c7bd daaa 92bd 21c5 61bd c91f 89bd
00000330: dc29 9bbd ba77 98bd 4fc9 983e 9cdc 86bd
00000340: 76d8 aabe c80e 7cbd 549c 94bd a129 8ebd
00000350: d0b6 a2bd 6696 913e 907d 83bd 6ded e3bd
00000360: 4ae4 89bd 2eb7 abbd 7333 94bd 9f58 b5bd
00000370: 0260 95be 9d5f 9dbd 51c9 5ebd 9a8b 90bd
00000380: a461 80bd 197a 82bd 0284 64bd a059 eabd
00000390: 6f7e 6ebd 7e2b 2abd 087c 97bd a290 93bd
000003a0: 6821 a2bd d752 95bd ef33 a1bd 38a0 5d3e
000003b0: c252 5abe bb91 37bd 79d1 83bd d465 91bd
000003c0: 1440 9abe b1a7 8bbd e1c6 cebd d277 6abd
000003d0: 083b 06be 3757 a5bd c9b1 a6bd c6d9 a3bd
000003e0: b61b 10be 424e a3bd a34e 9bbd 8a38 b6bd
000003f0: 802c 6bbe 6e4d 90bd baf4 a2bd f353 63bd

lstm.bias_hh f4 [512]
-0.11567828 -0.07892563 -0.08746109 -0.10784756 -0.20838448 0.21771602 -0.09279229 -0.08922488
-0.10651488 -0.09781402 -0.07512348 -0.023150945 0.20723571 -0.11159538 -0.12002684 -0.10437475
-0.11442945 -0.10496909 -0.07647465 -0.06632974 -0.08921358 -0.096968345 -0.08295571 -0.101974644
-0.09172489 -0.078699134 -0.10443915 -0.081997044 -0.035705347 -0.079246394 -0.025998676 -0.09821094
-0.11448462 -0.099207506 -0.05181309 -0.11131717 -0.10128653 -0.08983661 0.3045835 -0.086969525
-0.093148194 -0.07266377 0.45576575 0.05298129 -0.09434323 -0.10256396 -0.07463074 -0.101157896
-0.04710249 -0.088753685 -0.06504369 -0.09746367 -0.10592099 -0.0963036 -0.08785328 -0.10886108
-0.090232536 -0.13470799 -0.09992157 -0.13304652 -0.10083108 -0.013451328 -0.071956396 -0.11406275
-0.12126074 -0.10718472 -0.05456157 -0.09197955 -0.105058946 -0.10344267 -0.10957106 -0.09332889
-0.08755753 -0.10749836 -0.08707171 -0.08731205 -0.114144325 -0.09302007 0.5335694 -0.09776202
-0.2351364 -0.08366471 -0.09479141 -0.094859295 -0.093888246 0.474322 -0.09383999 -0.16734745
-0.08216932 -0.10066052 -0.09875062 -0.11385811 -0.26882908 -0.09483187 -0.08579846 -0.09722327
-0.09819532 -0.08031181 -0.1088356 -0.14267206 -0.099803746 -0.08012469 -0.10277964 -0.09303314
-0.097658634 -0.08806677 -0.09952919 0.43607867 -0.12664369 -0.075850144 -0.1020859 -0.09403474
-0.2716649 -0.10639678 -0.12146025 -0.08650867 -0.024684483 -0.106119335 -0.11873513 -0.11259527
-0.1619019 -0.09128381 -0.096839905 -0.11190049 -0.08758662 -0.08705722 -0.11222184 -0.08677376
-0.087702714 -0.065952554 -0.058412615 -0.0769583 -0.03534607 -0.110615574 -0.06532243 -0.06359646
-0.07882473 -0.062275406 -0.04273371 -0.13125639 -0.0038105184 -0.07559638 -0.09934717 -0.074910276
-0.46852323 -0.06893042 -0.047796916 -0.45948878 -0.079018235 -0.0672297 -0.056038536 -0.07795278
-0.07850165 -0.22539526 -0.07921193 -0.0731977 -0.13337213 -0.08146398 -0.084425054 -0.06607896
-0.07968327 -0.07632001 -0.17442977 -0.08372372 -0.06993968 -0.06262074 -0.08614828 -0.058569655
-0.08123269 -0.06743392 0.25562164 -0.09943357 -0.071365796 -0.074679956 -0.07100729 -0.063586295
-0.2141019 -0.05618049 -0.05259726 -0.06706427 -0.07017613 -0.07196448 -0.06718698 -0.071373
-0.077392906 -0.07596921 -0.06792295 -0.32921883 -0.08009765 -0.15211779 -0.28129476 -0.08010501
-0.24043238 -0.06919906 -0.024948359 -0.05793139 -0.06996819 -0.09554469 -0.093544506 -0.055056646
-0.097607024 -0.071614936 -0.055119637 -0.06695516 -0.075763434 -0.07444711 0.29899925 -0.06585047
-0.31399906 -0.061537534 -0.0725638 -0.06941534 -0.07945025 0.2811482 -0.064204335 -0.11125627
-0.06732996 -0.08384548 -0.07236376 -0.08854795 -0.28326884 -0.076842524 -0.05439121 -0.07057877
-0.062686235 -0.063709445 -0.055789955 -0.11443544 -0.058226045 -0.041545384 -0.07396704 -0.07205321
-0.07916528 -0.07291191 -0.07871234 0.2246239 -0.22348689 -0.044816714 -0.06436438 -0.070995
-0.31291535 -0.06819094 -0.10096522 -0.057243176 -0.13107878 -0.08073241 -0.081393786 -0.08000521
-0.14076407 -0.07973911 -0.07583358 -0.08897503 -0.22861743 -0.070460185 -0.07956834 -0.055499982
00000000: bce8 ecbd c3a3 a1bd cd1e b3bd 2edf dcbd
00000010: be62 55be f3f0 5e3e e209 bebd 89bb b6bd
00000020: 7924 dabd b852 c8bd 57da 99bd 0da7 bdbc
00000030: 9935 543e 1e8c e4bd a2d0 f5bd 6ec2 d5bd
00000040: fd59 eabd 09fa d6bd be9e 9cbd e3d7 87bd
00000050: 9cb5 b6bd 5797 c6bd afe4 a9bd 15d8 d0bd
00000060: 42da bbbd 032d a1bd 31e4 d5bd 11ee a7bd
00000070: c53f 12bd ef4b a2bd 2dfb d4bc d122 c9bd
00000080: ea76 eabd 4e2d cbbd f639 54bd 42fa e3bd
00000090: 506f cfbd 42fc b7bd 5ef2 9b3e 141d b2bd
000000a0: 7bc4 bebd bed0 94bd 215a e93e e902 593d
000000b0: 0637 c1bd 0e0d d2bd 00d8 98bd df2b cfbd
000000c0: 8aee 40bd 7ec4 b5bd a035 85bd 089b c7bd
000000d0: 1bed d8bd d23a c5bd 6cec b3bd 8ff2 debd
000000e0: d6cb b8bd e4f0 09be aea3 ccbd 593d 08be
000000f0: 8680 cebd f562 5cbc e05d 93bd bb99 e9bd
00000100: 8d57 f8bd aa83 dbbd f47b 5fbd c65f bcbd
00000110: 2529 d7bd c0d9 d3bd cb66 e0bd 3823 bfbd
00000120: 5d51 b3bd 1a28 dcbd a752 b2bd a9d0 b2bd
00000130: 80c4 e9bd 4e81 bebd 0198 083f 7437 c8bd
00000140: 99c7 70be 6758 abbd 0022 c2bd 9745 c2bd
00000150: 7b48 c0bd 55da f23e 2e2f c0bd 215d 2bbe
00000160: 6348 a8bd 1a27 cebd c43d cabd 712e e9bd
00000170: f7a3 89be 3637 c2bd 1ab7 afbd fe1c c7bd
00000180: a11a c9bd 857a a4bd 33e5 debd a018 12be
00000190: e865 ccbd 6a18 a4bd 227e d2bd 2988 bebd
000001a0: 4001 c8bd 5a5c b4bd f6d5 cbbd b445 df3e
000001b0: e2ae 01be 5257 9bbd 6a12 d1bd 4995 c0bd
000001c0: a917 8bbe 8ee6 d9bd 27c0 f8bd 752b b1bd
000001d0: 1d37 cabc 1855 d9bd 672b f3bd 5998 e6bd
000001e0: 9dc9 25be 02f3 babd 0054 c6bd 162c e5bd
000001f0: 9d60 b3bd 0e4b b2bd 90d4 e5bd 71b6 b1bd
00000200: 7b9d b3bd 2212 87bd 1142 6fbd 509c 9dbd
00000210: 0ac7 10bd 6b8a e2bd c4c7 85bd dc3e 82bd
00000220: dc6e a1bd 7f14 7fbd 8b09 2fbd 1368 06be
00000230: e4b9 79bb 46d2 9abd 8776 cbbd 8f6a 99bd
00000240: 47e2 efbe 642b 8dbd b3c6 43bd 1d42 ebbe
00000250: 50d4 a1bd baaf 89bd aa88 65bd b5a5 9fbd
00000260: 79c5 a0bd 04ce 66be dd39 a2bd ade8 95bd
00000270: b492 08be 96d6 a6bd 0be7 acbd 6854 87bd
00000280: fb30 a3bd aa4d 9cbd b89d 32be 5777 abbd
00000290: 893c 8fbd 4d3f 80bd 826e b0bd bce6 6fbd
000002a0: 535d a6bd cc1a 8abd d7e0 823e d4a3 cbbd
000002b0: 3b28 92bd cef1 98bd 456c 91bd 8839 82bd
000002c0: 873d 5bbe 831d 66bd 3970 57bd fe58 89bd
000002d0: 81b8 8fbd 1d62 93bd 5499 89bd 022c 92bd
000002e0: 2c80 9ebd bf95 9bbd 301b 8bbd 5f8f a8be
000002f0: 3d0a a4bd c4c4 1bbe de05 90be 180e a4bd
00000300: e833 76be 3db8 8dbd 8060 ccbc 7749 6dbd
00000310: 7b4b 8fbd efac c3bd 4394 bfbd 1483 61bd
00000320: 31e6 c7bd daaa 92bd 21c5 61bd c91f 89bd
00000330: dc29 9bbd ba77 98bd 6e16 993e 9cdc 86bd
00000340: 7cc4 a0be c80e 7cbd 549c 94bd a129 8ebd
00000350: d0b6 a2bd a8f2 8f3e 907d 83bd 54da e3bd
00000360: 4ae4 89bd 2eb7 abbd 7333 94bd a158 b5bd
00000370: 9d08 91be 9d5f 9dbd 51c9 5ebd 9a8b 90bd
00000380: a461 80bd 197a 82bd 0284 64bd 215d eabd
00000390: 6f7e 6ebd 7e2b 2abd 087c 97bd a290 93bd
000003a0: 6821 a2bd d752 95bd ef33 a1bd cf03 663e
000003b0: bfd9 64be bb91 37bd 79d1 83bd d465 91bd
000003c0: 7136 a0be b1a7 8bbd dac6 cebd d277 6abd
000003d0: 8439 06be 0957 a5bd c9b1 a6bd c6d9 a3bd
000003e0: 7524 10be 424e a3bd a34e 9bbd 8a38 b6bd
000003f0: b01a 6abe 6e4d 90bd baf4 a2bd f353 63bd

output_w.weight f4 [5, 128]
-0.009850447 0.0062969923 0.0038970336 -0.0006384741 -0.0204319 -0.02600763 0.002044397 -0.0005365295
0.005449648 -0.00045796725 -0.010314357 -0.038823083 -0.020477284 0.0026925984 0.0024838229 -0.0012606605
-0.35854855 -0.008644333 -0.0017002 0.20814271 0.0037337127 0.005975371 0.000272588 -0.0059784297
0.005540549 0.047306906 -0.0007301336 -0.005337824 -0.027101982 -0.002727375 0.037599843 -0.0031754859
-0.0046259835 -0.008537012 0.024501499 0.0074507147 -0.0046970733 0.008588166 0.035527077 0.0060322555
0.0012121566 0.003107954 0.010219361 -0.06408631 -0.0005583229 -0.003729927 -0.0031913982 0.005466206
-0.0263715 0.0034183594 0.0014145507 0.003071639 0.010974222 -0.003943821 0.005905328 -0.0011061828
-0.0008906991 -0.02386945 -0.007809498 0.0742344 -0.0055025266 -0.14075066 0.10291687 -0.00074581086
-0.024404097 0.0023634369 -0.0026615027 -0.002693568 0.0010976559 -0.0099557005 0.011584864 0.008171016
-0.012949254 -0.0053238315 -0.0010928481 0.0041768053 0.0009107486 -0.0014269028 -0.18525685 0.0011272628
0.28865215 0.00602865 -0.009265844 0.0073124827 0.0004539626 0.16360663 0.002258026 -0.050041933
0.002124896 -0.0028668558 0.0012683432 -0.012569465 -0.079250544 -0.0004733645 -0.0027869348 -0.007994754
-0.00013703146 0.006997953 -0.0038222726 0.025645187 0.0019531049 0.0024728603 0.0053905817 -0.0020684227
0.0028811728 0.0058693467 0.0025122834 0.0263709 -0.11862173 -0.0056363833 -0.004756904 -0.004493231
0.11912123 -0.005667092 -0.011863124 0.010489819 -0.005108726 0.0053026923 -0.0018052359 0.00046351814
0.0013477006 -0.0027326513 -0.0055536553 0.008020989 -0.002705982 -0.006990256 0.0007582605 -0.002302494
0.017354127 0.0003042395 -0.010523706 0.0033499051 -0.11563864 -0.078788705 0.0001583079 -0.00018150196
-0.005037071 0.0046080607 -0.0031522033 0.039425645 0.021054452 -0.029260049 0.007604893 0.0014156359
0.5254391 0.008386193 0.00028093613 0.4086715 -0.012048089 -0.006509763 0.009652317 -0.0028764517
-0.011494737 -0.04523194 -0.0009805295 0.0039403494 -0.037921574 0.007102136 0.055179577 0.0052826027
0.0048199603 0.00019331294 0.00015197019 -0.007391475 0.010077052 -0.0010838101 -0.03597816 -0.0012399267
-0.007143842 -0.009915261 0.09387108 0.09763055 0.0053809425 0.0053413906 0.008168583 -1.4124671e-05
0.015681326 0.005483996 0.008662646 -0.0070136255 -0.014090518 -0.0051733977 -0.0010825321 -0.004002364
0.006119862 0.012240516 0.0038826072 -0.036094412 0.0056408574 -0.034006134 -0.039898787 -0.0073669106
-0.12279318 -0.008550876 -0.009291923 -0.003635012 -0.0017277527 0.008114716 0.0015805609 0.0013012413
-0.017266952 0.00012451294 -0.008783106 -0.01419664 -0.0009896632 7.48896e-05 -0.031818748 -0.0057817204
0.11231683 -0.0081295185 0.007953301 -0.0139037585 -0.0028696258 -0.06494283 0.005532827 0.021608712
-0.010467642 0.0021481144 0.009941999 -0.0048699505 -0.017757207 -0.010260203 -0.0050811227 0.0075855213
0.0037317418 -0.0031845127 -0.0014356351 -0.03223369 0.013732153 0.0038988362 -0.021827051 0.009048491
0.009750943 -0.002912243 -0.0066128713 0.099207625 0.0015925582 -0.005016916 0.005433325 0.0021016956
0.09099012 0.009941325 0.0068882997 -0.0013967757 -0.026041217 -0.0074904296 0.008912554 -0.0045500863
0.051631264 0.006573518 0.004039819 -0.009175516 0.027254967 0.0020651072 -0.0089156665 0.0031275032
00000000: c563 21bc 0057 ce3b 6065 7f3b 465f 27ba
00000010: cd60 a7bc f40d d5bc 4afb 053b e3a5 0cba
00000020: f692 b23b 531b f0b9 8cfd 28bc f404 1fbd
00000030: fabf a7bc 4e76 303b a2c7 223b bf3c a5ba
00000040: ad93 b7be f6a0 0dbc 3fd9 deba 5d23 553e
00000050: 4eb1 743b 0ccd c33b 24ea 8e39 b4e6 c3bb
00000060: 7e8d b53b e3c4 413d 7066 3fba eae8 aebb
00000070: fa04 debc c2bd 32bb 4b02 1a3d d01b 50bb
00000080: 9095 97bb d3de 0bbc 5eb7 c83c 2025 f43b
00000090: e8e9 99bb 61b5 0c3c d784 113d 3aaa c53b
000000a0: 3ae1 9e3a d1ae 4b3b 1b6f 273c af3f 83bd
000000b0: 6a5c 12ba ca71 74bb c726 51bb dc1d b33b
000000c0: 0b09 d8bc 8e06 603b 7268 b93a 8d4d 493b
000000d0: 39cd 333c 2b3b 81bb 7b81 c13b 56fd 90ba
000000e0: ce7d 69ba dd89 c3bc d1e6 ffbb 3508 983d
000000f0: 8a4e b4bb f120 10be 14c6 d23d 8582 43ba
00000100: 1aeb c7bc e4e3 1a3b 9b6c 2ebb 9286 30bb
00000110: 38df 8f3a 3c1d 23bc 71ce 3d3c badf 053c
00000120: 1c29 54bc 8973 aebb e63d 8fba 95dd 883b
00000130: 4ebf 6e3a ea06 bbba f9b3 3dbe aac0 933a
00000140: 37ca 933e fb8b c53b c4cf 17bc 8d9d ef3b
00000150: d401 ee39 7f88 273e 64fb 133b c5f8 4cbd
00000160: d741 0b3b dce1 3bbb 893e a63a 28f0 4dbc
00000170: 1c4e a2bd e82d f8b9 02a5 36bb 6efc 02bc
00000180: 1ab0 0fb9 164f e53b 187f 7abb db15 d23c
00000190: 53ff ff3a b60f 223b 7aa3 b03b 608e 07bb
000001a0: 0fd2 3c3b a653 c03b 1fa5 243b c907 d83c
000001b0: f3ef f2bd 69b1 b8bb cedf 9bbb f43b 93bb
000001c0: d5f5 f33d 03b3 b9bb 8c5d 42bc 7ddd 2b3c
000001d0: 1a67 a7bb 35c2 ad3b aa9d ecba 5a04 f339
000001e0: 54a5 b03a 4816 33bb 70fb b5bb 776a 033c
000001f0: d856 31bb 840e e5bb 00c6 463a 70e5 16bb
00000200: 3e2a 8e3c 5682 9f39 9f6b 2cbc 158a 5b3b
00000210: f4d3 ecbd f95b a1bd 74ff 2539 9051 3eb9
00000220: 040e a5bb 37ff 963b 3295 4ebb c97c 213d
00000230: 637a ac3c c5b2 efbc 7732 f93b dc8c b93a
00000240: 2d83 063f 3e66 093c 9c4a 9339 643d d13e
00000250: 5965 45bc da4f d5bb c024 1e3c da82 3cbb
00000260: 6c54 3cbc 2045 39bd 1c85 80ba 0c1e 813b
00000270: a753 1bbd 09b9 e83b fb03 623d af19 ad3b
00000280: c2f0 9d3b 0cb4 4a39 305a 1f39 3034 f2bb
00000290: 381a 253c a20e 8eba d65d 13bd 0985 a2ba
000002a0: e416 eabb 9e73 22bc 7b3f c03d 87f2 c73d
000002b0: 9e52 b03b d506 af3b 85d5 053c 00f9 6cb7
000002c0: 2076 803c 18b3 b33b c5ed 0d3c 8ed2 e5bb
000002d0: eadb 66bc 9b85 a9bb c0e3 8dba 4326 83bb
000002e0: 2089 c83b 728c 483c 5773 7e3b bcd7 13bd
000002f0: f1d6 b83b 044a 0bbd e96c 23bd 2066 f1bb
00000300: fe7a fbbd f918 0cbc 263d 18bc 6239 6ebb
00000310: c375 e2ba 96f3 043c d32a cf3a 6a8e aa3a
00000320: 6c73 8dbc b08f 0239 04e7 0fbc 0699 68bc
00000330: 96b7 81ba 0c0e 9d38 6054 02bd 9674 bdbb
00000340: 5e06 e63d ac31 05bc 904e 023c 97cc 63bc
00000350: 5510 3cbb bf00 85bd b84c b53b c104 b13c
00000360: 7980 2bbc 61c7 0c3b c4e3 223c 1b94 9fbb
00000370: 9077 91bc 691a 28bc 8c7f a6bb f78f f83b
00000380: 3d90 743b 42b3 50bb ec2b bcba 7907 04bd
00000390: d3fc 603c 9e83 7f3b a5ce b2bc 1f40 143c
000003a0: 6bc2 1f3c 54db 3ebb c9b0 d8bb 5e2d cb3d
000003b0: 63bd d03a f164 a4bb 090a b23b 9abc 093b
000003c0: 0759 ba3d f0e0 223c 3fb7 e13b 0414 b7ba
000003d0: 6454 d5bc 4772 f5bb f605 123c e418 95bb
000003e0: 4e7b 533d aa66 d73b 7560 843b e754 16bc
000003f0: cf45 df3c c056 073b 0413 12bc ccf6 4c3b

output_w.bias f4 [5]
-0.03957307 0.054032978 -0.9021964 -0.939718 -0.10343086
00000000: 5f17 22bd af51 5d3d 58f6 66bf 5c91 70bf
00000010: 8fd3 d3bd

square_avg f4 [64]
0.052872963 0.08907805 0.045946643 8.246718e-11 6.860713e-10 0.009704505 0.0067596408 0.00020712096
0.0068607153 8.4163587e-10 0.022219447 0.017595328 0.093593076 0.007339819 0.0033245373 0.00015204465
0.0048589436 0.0009291953 0.0060835048 0.3225699 7.513512e-06 0.028510721 5.349891e-09 1.8160375e-08
0.054508783 0.000230108 0.067457564 8.151007e-09 0.050351385 0.09886971 0.01815371 0.0049220053
0.013357906 0.1022374 0.0797921 0.01781268 0.059814703 0.033035684 1.4830445e-10 0.010586291
0.015915355 0.0022735964 9.943666e-10 0.01383187 9.039251e-06 5.853321e-11 0.014293669 0.009016339
0.00060423184 0.1560119 4.2134168e-11 0.021668896 2.6015714e-05 0.0008231098 0.031955056 0.0016494875
0.007342877 0.00018822029 0.000163146 0.018781625 0.011707524 0.0065688486 0.0050286297 0.009479349
00000000: 5291 583d 8d6e b63d 8c32 3c3d e558 b52e
00000010: fa95 3c30 a5ff 1e3c fa7f dd3b 9c2e 5939
00000020: dacf e03b dc58 6730 8f05 b63c 1424 903c
00000030: baad bf3d dd82 f03b 7be0 593b 2d6e 1f39
00000040: c637 9f3b 3e95 733a 2358 c73b e227 a53e
00000050: 941c fc36 518f e93c 24d2 b731 16ff 9b32
00000060: 9a44 5f3d 2549 7139 3127 8a3d 8208 0c32
00000070: 413d 4e3d 347c ca3d 17b7 943c c648 a13b
00000080: 1edb 5a3c d861 d13d 0a6a a33d e6eb 913c
00000090: 4300 753d 6d50 073d fe0f 232f 1f72 2d3c
000000a0: eb60 823c 9e00 153b 2aaa 8830 119f 623c
000000b0: 4aa7 1737 45b7 802e fe2f 6a3c 44b9 133c
000000c0: 5065 1e3a 95c1 1f3e db4e 392e f882 b13c
000000d0: 523c da37 f7c5 573a 4ee3 023d 9e33 d83a
000000e0: 849c f03b 005d 4539 2c12 2b39 ecdb 993c
000000f0: ead0 3f3c 7f3f d73b 34c7 a43b 454f 1b3c

square_avg f4 [5]
3.4631736 3.784271 0.22364627 0.20648071 0.016733738
00000000: a3a4 5d40 7f31 7240 8703 653e ae6f 533e
00000010: 3115 893c
