S-LSTM/Goal+Socail_Array_PyTorch/social_lstm/save/0/social_model_epoch_11.pth (torch, 815071 bytes, 22 tensors)

embedding_b f4 [64]
0	0xbd7984cc	-0.06091766
1	0x3eab6559	0.3347576
2	0x3e864aab	0.26228842
3	0xbbc508ce	-0.0060130125
4	0xbccd4f50	-0.025062233
5	0xbd70f587	-0.058827903
6	0xbdcd7e3b	-0.10033842
7	0x3d22a725	0.039710183
8	0xbe2e7c16	-0.17039523
9	0xbbc7ba64	-0.0060952175
10	0x3c44662b	0.011987249
11	0xbd44799b	-0.047967535
12	0xbe428285	-0.18995102
13	0xbdae33ba	-0.0850596
14	0x3bab0480	0.0052190423
15	0xbbe7e978	-0.007077392
16	0xbb873ee8	-0.004127372
17	0xbc3a82db	-0.011383737
18	0xbe2232f8	-0.15839756
19	0xbd857fa2	-0.06518485
20	0xbbfce7b5	-0.0077180513
21	0xbcb086e8	-0.021548703
22	0x3b8e6ff9	0.0043468443
23	0xbc7e5647	-0.0155235
24	0xbd10125e	-0.035173766
25	0xb4ec1da4	-4.3979992e-07
26	0x3ca29f3e	0.019851323
27	0xbb7e79e2	-0.0038829972
28	0x3eb33c22	0.35006815
29	0xbe1ab12d	-0.1510665
30	0xbd0bf42f	-0.03416842
31	0xbc9bd5c1	-0.019022824
32	0xbd7cca29	-0.061716232
33	0xbc6615e8	-0.014043309
34	0x3d83affa	0.06430049
35	0xbd379c1f	-0.044826623
36	0x3e4622f4	0.19349271
37	0x3d767484	0.06016971
38	0xbb030c82	-0.001999647
39	0xbe218de7	-0.15776788
40	0xbcf2ef74	-0.029655196
41	0xb69bae31	-4.6396385e-06
42	0xb9bcba97	-0.00035997175
43	0xbb9b5944	-0.004740866
44	0xb76d2172	-1.4134088e-05
45	0xbc2acd40	-0.010424912
46	0x3c4060f1	0.011741863
47	0x3d710d4c	0.05885057
48	0xbe28cef2	-0.16485193
49	0x3e173a48	0.14768326
50	0xbc156821	-0.009119065
51	0x3d8d16db	0.06889125
52	0xbc415d8e	-0.01180209
53	0x38b2a020	8.517527e-05
54	0x3d5f350b	0.054493945
55	0xbd56975b	-0.052390438
56	0xbc895af1	-0.016766997
57	0xbb2e5226	-0.0026599257
58	0x3d13cdd9	0.036084983
59	0x3dca4c61	0.09877849
60	0x3e0e9216	0.13922915
61	0x3e131d0a	0.14366546
62	0xbdd70f08	-0.10500914
63	0xbcd91fb0	-0.026504368

output_b f4 [5]
0	0x3d0d845b	0.034550052
1	0xbbcaa42c	-0.0061841216
2	0xbf56dea1	-0.83933455
3	0xbf514e05	-0.81759673
4	0xbdba930d	-0.09110079

embedding_w.weight f4 [64, 4]
0	0x3ea0dec3	0.31419954
1	0xbf382b4b	-0.7194106
2	0xbca7adc0	-0.020468593
3	0x3e77b126	0.2418867
4	0x3e04acfc	0.12956613
5	0x3fb1f6c2	1.390343
6	0xbdebe689	-0.115185805
7	0x3ebceae7	0.36897966
8	0xbf9357d8	-1.1511183
9	0xbf445baf	-0.767024
10	0xbe23d87f	-0.16000555
11	0xbda83bf7	-0.082145624
12	0x2b6692c0	8.191607e-13
13	0x9eac4238	-1.8238596e-20
14	0xb5afd4bd	-1.3100431e-06
15	0x98acf224	-4.4705457e-24
16	0xbcb8d492	-0.022562299
17	0x3cfa954b	0.030588767
18	0x3cdf3812	0.027248416
19	0x3c3205fa	0.010865683
20	0x3f081c36	0.53168046
21	0xbf138e87	-0.57639354
22	0x3e980513	0.2969137
23	0x3ed17dc9	0.4091628
24	0x3f102afd	0.56315595
25	0x3f3eb91d	0.7450121
26	0x3e118a38	0.14212883
27	0xbcc5d546	-0.024149548
28	0xbcbd7db1	-0.023131223
29	0xbcb71534	-0.022348978
30	0xbd392fb7	-0.04521152
31	0xbd91e0df	-0.07122969
32	0x3e67d1a8	0.22638571
33	0x3e7f9402	0.24958804
34	0x3ce8b70a	0.028407592
35	0x3e97bf0d	0.29637948
36	0x393bf4fc	0.00017924974
37	0x348868fe	2.5408366e-07
38	0x3aa5b813	0.0012643359
39	0x3148801d	2.9176654e-09
40	0xbf0e2e7a	-0.5553967
41	0x3f33f210	0.70291233
42	0x3e9349de	0.28767294
43	0xbeb8778c	-0.36028707
44	0xbea2f1a4	-0.31824982
45	0x3cfef8ac	0.031124435
46	0xbe73177a	-0.23739424
47	0x3da3b473	0.07993402
48	0x3efc8106	0.49317187
49	0xbe887c01	-0.26657107
50	0xbeff1296	-0.49818867
51	0x3ed75d73	0.42063484
52	0x3f78f6c1	0.97251517
53	0x3dff1fbc	0.12457225
54	0x3e02f6e3	0.12789492
55	0x3e5cee5f	0.21575306
56	0x3d9b6735	0.075880446
57	0x3d95fb20	0.07323289
58	0x3df92b14	0.121664196
59	0x3de20869	0.1103676
60	0xae7a352e	-5.6890652e-11
61	0x3a0a122b	0.00052669895
62	0x32817f74	1.5075535e-08
63	0x3b890672	0.0041816765
64	0x3881fe3e	6.198556e-05
65	0x39d222a1	0.00040080122
66	0x3708e2d4	8.159044e-06
67	0xbb184d19	-0.0023239313
68	0xbbc370d7	-0.0059643793
69	0xbcf0abdf	-0.02937883
70	0x3cf00d4d	0.029303217
71	0x39324d5d	0.00017004223
72	0x3ebfd0f4	0.37464106
73	0xbf08f707	-0.53501934
74	0x3e8ee045	0.2790548
75	0xbed2421f	-0.4106607
76	0x3f649f08	0.8930516
77	0x3e95ec38	0.29281783
78	0xbf7a7d47	-0.9784741
79	0xbeac18dd	-0.3361272
80	0x3b8e3ca5	0.0043407255
81	0x3001fae4	4.7286464e-10
82	0xba1b7486	-0.0005930144
83	0x3ae94b24	0.0017798883
84	0x3dbec345	0.093145885
85	0x3d313ca8	0.043270737
86	0x3e28b0fd	0.16473766
87	0xbd771f51	-0.0603326
88	0xb92b2ba0	-0.00016324082
89	0x3da0196f	0.07817351
90	0x3d12b51b	0.035817247
91	0x3dccb4ce	0.09995423
92	0xb85fcf2b	-5.3360283e-05
93	0xbbbad428	-0.0057015605
94	0x393d9e82	0.00018083493
95	0xbc463292	-0.012097018
96	0xbe59cd81	-0.212698
97	0x3e4c9b57	0.19981132
98	0x3ee5efdb	0.44909558
99	0x3dd842fb	0.105596505
100	0x2724e8a6	2.288569e-15
101	0x91617580	-1.7785578e-28
102	0x18132524	1.9018056e-24
103	0x30464f1b	7.2144396e-10
104	0xbf5a69c7	-0.85317653
105	0xbf9b2e28	-1.2123461
106	0x3d18986a	0.03725473
107	0xbf525e47	-0.82175106
108	0xb085fdfa	-9.749208e-10
109	0xb788ff7c	-1.6331433e-05
110	0x30baed15	1.3600664e-09
111	0xba921b1b	-0.0011146994
112	0xbfa4a8bb	-1.2863992
113	0xbf4c07a2	-0.79699147
114	0xbd4e7694	-0.050406054
115	0x3d44514b	0.04792909
116	0xbec58cad	-0.3858389
117	0xbed65f65	-0.41869655
118	0x3ee9d7ef	0.45672557
119	0x3f18bde5	0.59664756
120	0x3e0cb8ce	0.13742372
121	0x3dfea53b	0.12433859
122	0x3e3dcb36	0.1853455
123	0xbde6de56	-0.11272876
124	0xbf5de069	-0.8667055
125	0x3e7e0152	0.24805191
126	0x3c168907	0.009187943
127	0x3e4b8a57	0.19876991
128	0xbf435be3	-0.76312083
129	0x3f1dd754	0.6165669
130	0xbe3a4e86	-0.18194017
131	0xbe46b4d0	-0.19404912
132	0x3eb8aa73	0.36067542
133	0x3f92821f	1.144596
134	0xbddea7e8	-0.10871869
135	0xbea3dda3	-0.32005033
136	0x3fb15aea	1.385587
137	0xbe7cea11	-0.24698664
138	0x3e118e62	0.14214471
139	0x3ecff3b4	0.40615618
140	0x3f443ea0	0.7665806
141	0x3f224715	0.6338971
142	0x3c0b5e33	0.008506346
143	0x3e93c86b	0.28863844
144	0xbf2ad09d	-0.6672457
145	0x3fa26ff8	1.269042
146	0xbb215742	-0.002461866
147	0x3f034fa9	0.51293427
148	0x3fa8a8f3	1.3176559
149	0xbf7a2e4f	-0.9772691
150	0x3e8113d8	0.25210452
151	0xbef701cf	-0.48243567
152	0x36a1509c	4.807558e-06
153	0x2af94404	4.427848e-13
154	0x36e6b0a7	6.875099e-06
155	0x1f94d260	6.3028474e-20
156	0xbdda0e54	-0.10647264
157	0x3ed101b0	0.408216
158	0x3e5e0f7b	0.21685593
159	0xbdbcbfd3	-0.09216275
160	0x3fab708d	1.3393723
161	0x3ebadbda	0.36495858
162	0x3d3f8c75	0.04676481
163	0x3e8975fe	0.26847833
164	0x9a68673c	-4.8059868e-23
165	0xa60be600	-4.853702e-16
166	0x1a675b14	4.7843253e-23
167	0xb0820c4c	-9.46224e-10
168	0xa4b65610	-7.9075714e-17
169	0x1685440e	2.1530257e-25
170	0xb61f329a	-2.37223e-06
171	0x1ca7c1ec	1.1101261e-21
172	0x3bb757e0	0.0055951923
173	0x3e0e2160	0.13879919
174	0x3dd1209e	0.10211299
175	0x3e0863ac	0.13319272
176	0xa5b88876	-3.2011381e-16
177	0x0ef75580	6.0972535e-30
178	0x1b2beb10	1.4220741e-22
179	0x2c6e66a4	3.3878811e-12
180	0x3a1c5bf2	0.00059646287
181	0xb68502f4	-3.9640527e-06
182	0xba5b6fd2	-0.00083708495
183	0xb8c93188	-9.593653e-05
184	0x3e5e574d	0.2171299
185	0x3f8361fd	1.0264279
186	0x3d063897	0.032768812
187	0x3bd0123a	0.006349829
188	0xbecf4c5d	-0.40487948
189	0x3f572feb	0.8405749
190	0x3e173a62	0.14768365
191	0x3d5544fe	0.05206775
192	0x3ec96a67	0.3933899
193	0x3ebfe1b2	0.3747688
194	0x3dbb102a	0.091339424
195	0x3e17e26e	0.1483247
196	0xbf16e660	-0.58945274
197	0xbf906a20	-1.1282387
198	0xbdfb6a35	-0.12276117
199	0x3e2edaab	0.17075603
200	0x3bd88838	0.0066080354
201	0xb9ebc896	-0.0004497214
202	0x3b00e80a	0.0019669556
203	0xba0d9431	-0.00054008054
204	0xbfa094b4	-1.254538
205	0x3f63536b	0.8879916
206	0xbe805bf0	-0.25070143
207	0x3e072277	0.13196741
208	0xbc0fe610	-0.0087828785
209	0xbb9e5639	-0.004832056
210	0xbab3f163	-0.0013728555
211	0x3c613231	0.013744877
212	0x3c30d550	0.010793045
213	0x3d7a3171	0.061082307
214	0x3cc27ab3	0.023740148
215	0x3d8cbefc	0.06872365
216	0x3e926621	0.28593543
217	0xbf84d574	-1.0377641
218	0xbda15870	-0.07878196
219	0xbd1928c4	-0.037392393
220	0x3f251b11	0.64494425
221	0xbef8c9e2	-0.48591524
222	0x3df8b161	0.12143207
223	0xbea2ea30	-0.31819296
224	0x3f0f5c8f	0.5600061
225	0xbf0e0c1f	-0.55487245
226	0xbe35f045	-0.17767437
227	0x3e267aa3	0.1625772
228	0x91d29e30	-3.3229649e-28
229	0xaa259774	-1.470749e-13
230	0xb24dc398	-1.1977043e-08
231	0x9bb2bda6	-2.9570187e-22
232	0xbd7a625f	-0.06112897
233	0x3c147779	0.009061688
234	0xbd32b43e	-0.043628924
235	0xbce9c8b6	-0.02853809
236	0xbf88fe39	-1.0702583
237	0xbf4f1dde	-0.8090495
238	0xbdaa6800	-0.08320618
239	0xbd3443d9	-0.044010017
240	0xbf018328	-0.50590754
241	0xbf8b682d	-1.0891167
242	0xbdb819a9	-0.08989269
243	0x3d56e1d5	0.052461464
244	0x3f865654	1.0495095
245	0x3f69f0fb	0.9138333
246	0x3d95808e	0.072999105
247	0x3d99682e	0.07490574
248	0xbf290294	-0.6601956
249	0x3e6ef077	0.23333918
250	0x3d455021	0.04817212
251	0x3df78ff0	0.12088001
252	0xbf95434b	-1.1661161
253	0x3f41b0df	0.7566051
254	0xbe7a3a05	-0.24436195
255	0xbcbecd72	-0.023291323

embedding_w.bias f4 [64]
0	0x3d997dce	0.074946985
1	0x3e0c60bd	0.13708778
2	0x3e04c204	0.12964636
3	0xbbc508ce	-0.0060130125
4	0xbccd4f50	-0.025062233
5	0xbdb174cc	-0.08664855
6	0xbd2cd98e	-0.042199664
7	0x3d22a725	0.039710183
8	0x3e0fc73d	0.14040847
9	0xbbc7ba64	-0.0060952175
10	0xbd4b8f95	-0.049697477
11	0x3a76a5ac	0.00094088423
12	0x3e16b4ec	0.14717454
13	0x3e64dc87	0.2234975
14	0x3bab0480	0.0052190423
15	0xbbe7e978	-0.007077392
16	0xbb873ee8	-0.004127372
17	0xbc3a82db	-0.011383737
18	0x3df6a22f	0.12042653
19	0xbc8d57d0	-0.017253786
20	0xbbfce7b5	-0.0077180513
21	0xbcb086e8	-0.021548703
22	0x3b8e6ff9	0.0043468443
23	0xbc7e5647	-0.0155235
24	0xbd10125e	-0.035173766
25	0xb4ec1da4	-4.3979992e-07
26	0xbe01a3bd	-0.12660117
27	0xbb7e79e2	-0.0038829972
28	0x3e1df36c	0.1542489
29	0x3e02d9dd	0.12778421
30	0xbd0bf42f	-0.03416842
31	0xbc852b07	-0.016255869
32	0x3e7c8e2d	0.24663611
33	0x3b057a13	0.0020366951
34	0x3eb4fffb	0.35351548
35	0x3e853711	0.26018575
36	0x3b139eaf	0.0022525003
37	0xbda6c23e	-0.081425175
38	0xbb030c82	-0.001999647
39	0x3ddd4182	0.1080351
40	0x3d67759b	0.05650864
41	0xb69bae31	-4.6396385e-06
42	0xb9bcba97	-0.00035997175
43	0xbb9b5944	-0.004740866
44	0xb76d2172	-1.4134088e-05
45	0xbc2acd40	-0.010424912
46	0xbc81d2cc	-0.015847586
47	0xbddf794c	-0.109118074
48	0x3d331a34	0.04372616
49	0x3e09c03f	0.13452242
50	0xbc156821	-0.009119065
51	0xbdf19892	-0.117966786
52	0xbc415d8e	-0.01180209
53	0x38b2a020	8.517527e-05
54	0x3d2456d3	0.040121865
55	0xbd56975b	-0.052390438
56	0x3c0b9cf5	0.008521308
57	0xbb2e5226	-0.0026599257
58	0x3d13cdd9	0.036084983
59	0x3ec28c65	0.37997738
60	0xbe07ca30	-0.13260722
61	0xbdb30bfb	-0.087425195
62	0x3e156f2c	0.1459319
63	0xbe89f1bc	-0.2694224

embedding_t_w.weight f4 [1, 8]
0	0x3f721b87	0.94573253
1	0xbea6b55d	-0.32560244
2	0x3dd65c2f	0.104668014
3	0xbeee7078	-0.46570182
4	0x3d17af80	0.037032604
5	0xbd3fd4dc	-0.046833858
6	0x3ea7d917	0.32782814
7	0xbee0f14a	-0.4393409

lstm.weight_ih f4 [512, 65]
0	0xbbe31041	-0.006929428
1	0xbb8bfb0e	-0.0042718714
2	0xbdacf6b6	-0.08445494
3	0x38db358a	0.00010452706
4	0x2c1f95b8	2.267837e-12
5	0xbc841f44	-0.01612819
6	0x3c1f0ca0	0.0097076
7	0xbc8a1d60	-0.01685971
8	0x3c976d44	0.01848472
9	0x2331b844	9.634209e-18
10	0x3a8a5530	0.0010553952
11	0xbca84f44	-0.02054561
12	0xbc56806a	-0.01309214
13	0xbc8e1e57	-0.017348452
14	0x3c4d8234	0.01254325
15	0x32625e18	1.3176326e-08
16	0xb4981c78	-2.833292e-07
17	0xa6d7bd53	-1.4969938e-15
18	0xba8a9583	-0.0010573122
19	0xbcbfa5f7	-0.023394568
20	0xb4aa89b6	-3.1765165e-07
21	0xbb93beda	-0.0045088353
22	0x3be9b5b1	0.007132255
23	0x307fd7cb	9.307512e-10
24	0x3b5f183e	0.003404155
25	0x0000d4fc	7.6404e-41
26	0xbcd549b1	-0.026036115
27	0x3bc837d9	0.006110173
28	0xbdc03550	-0.093851686
29	0x3c0e95ae	0.008702679
30	0xbc05dae5	-0.008169864
31	0xbc252630	-0.010079905
32	0xbc3e07c8	-0.011598535
33	0x3b598cd8	0.0033195522
34	0xbd32b23d	-0.043627013
35	0xbb530ef7	-0.0032204965
36	0x3ceeb484	0.029138811
37	0xbd32e3bb	-0.043674212
38	0xb6e865dc	-6.925997e-06
39	0x3b4cb400	0.0031235218
40	0xbcb797d9	-0.022411274
41	0xbb1d4872	-0.002399948
42	0x3a330eec	0.00068305316
43	0x3c8a25e2	0.016863767
44	0x38f3399a	0.00011597872
45	0x32618483	1.3126853e-08
46	0x3c909efb	0.017653933
47	0x3ccc07cc	0.024906062
48	0x3c92bcc6	0.01791228
49	0xbd7836ce	-0.06059914
50	0xb76d5dd9	-1.4148151e-05
51	0xbc0fd220	-0.008778125
52	0x3956cd2b	0.00020485061
53	0x3bcc558f	0.0062357853
54	0xbcc764d8	-0.024340078
55	0xb7e3f138	-2.7172835e-05
56	0xbc5f1426	-0.013615644
57	0x36eaba90	6.995462e-06
58	0xbc1ae708	-0.009454496
59	0xbdc014f1	-0.09378994
60	0xbd20d518	-0.039265722
61	0xbb86b9ff	-0.004111528
62	0xbb11d69c	-0.0022253161
63	0xbcb9c7fc	-0.022678368
64	0xbd752f6a	-0.05985967
65	0x3b2a12e7	0.0025951208
66	0xbd43c81e	-0.04779827
67	0xbd4a8bc8	-0.049449712
68	0xb838ebe8	-4.4088723e-05
69	0xa743e67e	-2.7186636e-15
70	0x3aa0cc02	0.001226783
71	0xbbdd9eba	-0.0067633064
72	0x3b2f7702	0.0026773815
73	0x38c66850	9.4608054e-05
74	0x289fbf04	1.7735386e-14
75	0xbab00678	-0.0013429662
76	0xb9c1aad0	-0.00036939094
77	0x3ba71947	0.005099449
78	0xbcfef9ce	-0.031124976
79	0xba18b0aa	-0.0005824665
80	0xb644f872	-2.935089e-06
81	0x392dd478	0.00016577716
82	0x2834b1ae	1.0030535e-14
83	0xbb3ccd3a	-0.0028808848
84	0xbd0cec61	-0.034405116
85	0x30764238	8.958838e-10
86	0xbb47aa48	-0.0030466486
87	0x3b162c1d	0.0022914477
88	0x2457b23d	4.6771667e-17
89	0x3a2577e9	0.00063121185
90	0xb9949f9c	-0.00028347678
91	0xbcbd40b4	-0.023102142
92	0xb341e8bc	-4.5147985e-08
93	0xbd8b8cd0	-0.06813967
94	0x3c8acc89	0.016943233
95	0xbb91e741	-0.0044526164
96	0xbc082572	-0.008309709
97	0xbccce853	-0.025013125
98	0xbc5268f6	-0.012842407
99	0xbd5f6a6d	-0.054544855
100	0xbd02bf85	-0.03192093
101	0xbc31008c	-0.010803353
102	0xbc87220d	-0.016495729
103	0xb150a704	-3.036292e-09
104	0xba54c414	-0.0008116376
105	0xbd11b125	-0.03556933
106	0x0000e9e7	8.3908e-41
107	0xb7a2340c	-1.9336141e-05
108	0x3bc173d6	0.0059037013
109	0xb8f8d310	-0.00011864875
110	0x378bce88	1.6666265e-05
111	0xbad6eba6	-0.0016397133
112	0x39cc7008	0.00038993382
113	0xbb2c47d6	-0.0026287935
114	0xbd0b38ef	-0.033989843
115	0x264dba1c	7.137589e-16
116	0xbc69cd11	-0.014270083
117	0x372d653a	1.0335172e-05
118	0x3b09381e	0.002093799
119	0xbc8b2971	-0.016987534
120	0xbae20414	-0.0017243647
121	0xbbd4e64c	-0.00649718
122	0x34f81674	4.6209936e-07
123	0x3b2d5f9d	0.0026454695
124	0xbd8c8a7c	-0.06862351
125	0xbc80c56a	-0.015719134
126	0xbd1d39cc	-0.038385198
127	0xbc0d68dc	-0.008630957
128	0xbc1613d5	-0.009160002
129	0xbcf23eb7	-0.02957092
130	0x3b777406	0.0037758364
131	0xbd754e9c	-0.05988942
132	0xbd70ca97	-0.058786955
133	0x352d63b0	6.4592587e-07
134	0xbb9890a9	-0.0046559167
135	0x3c2a3e3b	0.010390813
136	0xbc175240	-0.0092359185
137	0xbbce4258	-0.00629453
138	0x39df76d6	0.00042622414
139	0x30bd3456	1.3766435e-09
140	0xbc1806a4	-0.009278927
141	0xbb3ae19e	-0.0028515826
142	0x394c7b28	0.00019500835
143	0xbc7ccbb5	-0.015429427
144	0xbbaf7e11	-0.0053556045
145	0xb72f18f4	-1.0436623e-05
146	0xb20e7134	-8.291227e-09
147	0x27c17e3c	5.3705125e-15
148	0x39e2ecb1	0.00043282428
149	0xbd2f75e7	-0.04283705
150	0x2a0b463c	1.2370047e-13
151	0xbb9ae9c6	-0.004727575
152	0xbc0aaffc	-0.0084648095
153	0xa2b29f02	-4.8415353e-18
154	0xbb23d320	-0.0024997666
155	0x39e94ec4	0.00044499908
156	0xbd0d6520	-0.03452027
157	0x3717d6c5	9.050306e-06
158	0xbda58800	-0.080825806
159	0x3c1e7336	0.009671023
160	0xbbc4b9e6	-0.006003606
161	0xbc6166e7	-0.013757444
162	0xbce81420	-0.028329909
163	0xbbb0eae1	-0.0053990935
164	0xbd3a538c	-0.045489833
165	0xbcc6bad4	-0.024259008
166	0xbc98d60e	-0.018656757
167	0xbaffe719	-0.0019523829
168	0x382e546b	4.1563453e-05
169	0xbbab5d82	-0.005229653
170	0xbc281066	-0.010257816
171	0x80006090	-3.464e-41
172	0xb4d1afa4	-3.905708e-07
173	0x3c6a6302	0.014305832
174	0x345ca08e	2.0547506e-07
175	0x378525e8	1.5872487e-05
176	0x3c0b9ed5	0.008521755
177	0xbb04ec69	-0.0020282513
178	0xbb882fa9	-0.004156072
179	0xbd3a53a7	-0.045489933
180	0x2ffd29a0	4.6050008e-10
181	0xbca3c055	-0.019989172
182	0xba4d9d38	-0.0007843557
183	0xbbd70d7a	-0.006562886
184	0xbc55028d	-0.013001096
185	0x3b938269	0.00450163
186	0xbb867433	-0.0041032075
187	0xb690f00c	-4.3194796e-06
188	0xbb687c5a	-0.003547451
189	0xbdaaaa9c	-0.083333224
190	0xbcb90c44	-0.022588857
191	0xbc83b629	-0.016078072
192	0xbc523b3c	-0.012831505
193	0xbc6ac43e	-0.014329014
194	0xbc6308d8	-0.013857089
195	0x3c9489ee	0.018132176
196	0xbc690024	-0.014221225
197	0xbcb59a67	-0.022168351
198	0x3610f72a	2.160154e-06
199	0xb85656b8	-5.110234e-05
200	0x3b368df6	0.0027855611
201	0x3c3a2601	0.0113616
202	0x3c930197	0.017945094
203	0x3be6cebe	0.0070436886
204	0x3609e35e	2.0546936e-06
205	0x3cb5962d	0.022166336
206	0x3c5e950c	0.01358534
207	0x3d128c80	0.035778522
208	0xbc4cef56	-0.012508234
209	0x3a364b3c	0.000695396
210	0xb5556290	-7.949211e-07
211	0x3635dcca	2.7099618e-06
212	0x21b46f3f	1.2226721e-18
213	0xbc89be53	-0.016814386
214	0x3ce5aebd	0.028037423
215	0xb41c8300	-1.457629e-07
216	0xba1b7c5c	-0.0005931312
217	0x3c098954	0.008394558
218	0xab025a56	-4.6310644e-13
219	0x3c0af710	0.008481756
220	0x371a715c	9.205509e-06
221	0xbd0611df	-0.032731887
222	0xbb2f0046	-0.0026703044
223	0xbd1fec7b	-0.039043885
224	0x3cdd574d	0.027019167
225	0x3abf4a6e	0.0014594325
226	0x3ae0088e	0.0017092393
227	0x3c0d9bad	0.008643073
228	0x3d26cffa	0.040725686
229	0xbd04e707	-0.032446887
230	0x3aa0f24a	0.0012279239
231	0x3bdbe3ca	0.006710504
232	0xbd19b062	-0.037521727
233	0xb6415fcc	-2.8815002e-06
234	0x3c42ef0f	0.011897816
235	0xbc36ff74	-0.011169303
236	0xb6918afa	-4.3375157e-06
237	0xb3fd62b8	-1.17991874e-07
238	0x3cf26457	0.029588861
239	0xb922eab6	-0.0001553696
240	0xb89899fa	-7.276605e-05
241	0x3cdf1101	0.027229788
242	0x3c2f58ac	0.010702293
243	0x3c227512	0.009915607
244	0xbc6fbf72	-0.014633046
245	0xb5db9c9e	-1.6362353e-06
246	0x3b45d263	0.0030185215
247	0xba1e15d0	-0.0006030472
248	0x3c1fd2a2	0.009754809
249	0xbc18768e	-0.009305609
250	0xbc332cae	-0.010935945
251	0x3c715543	0.014729801
252	0x36b32284	5.338634e-06
253	0x3cb9940a	0.022653598
254	0xbd15807a	-0.036499478
255	0x3b449096	0.0029993406

lstm.weight_hh f4 [512, 128]
0	0xbafe47b0	-0.0019400027
1	0x39c9d517	0.00038496472
2	0x3b16807e	0.002296477
3	0xbc114876	-0.008867374
4	0xbcc6cecc	-0.02426853
5	0xbc6ce180	-0.01445806
6	0xbb72d02e	-0.0037050354
7	0x3b89b976	0.004203017
8	0xbbccd469	-0.006250907
9	0x3b2dc010	0.0026512183
10	0x3b97b53d	0.0046297596
11	0x3c512b0b	0.01276661
12	0x3c1af5fa	0.009458059
13	0xbc17500c	-0.009235393
14	0x3b85896b	0.0040752194
15	0x3b32c7c4	0.0027279714
16	0x3cae2297	0.021256728
17	0xbc177968	-0.009245254
18	0x3c207208	0.009792812
19	0x3d0ffa72	0.035150953
20	0x3ac2725c	0.0014835107
21	0x3b747bdc	0.0037305271
22	0x3bf9edac	0.0076272096
23	0x3b0c2d3a	0.0021389262
24	0xbbbff88a	-0.0058584856
25	0xbc091ea0	-0.008369118
26	0xbba8ca72	-0.0051510865
27	0x3a7b36c1	0.0009583049
28	0xbcbdbb6c	-0.023160659
29	0xbb6f6faa	-0.0036535063
30	0x3bf1ac9c	0.007375313
31	0x3b9b8b1f	0.004746809
32	0x3bc28417	0.0059361565
33	0xbb489d80	-0.0030611455
34	0x3c3c4904	0.011492018
35	0x39a95e70	0.00032304553
36	0xbbd24ece	-0.0064180857
37	0xbba7b1b1	-0.005117618
38	0xbcb58e04	-0.022162445
39	0x398ec250	0.00027229125
40	0xbb5e9348	-0.0033962298
41	0xbb927f84	-0.0044707675
42	0xbcd179d6	-0.025570791
43	0x3ceb621a	0.028733302
44	0x3a059ba0	0.00050967373
45	0x3ba43a11	0.005011805
46	0xbb871e50	-0.0041234866
47	0x3c109a06	0.008825785
48	0xbbdc7d8f	-0.006728835
49	0xbb887d38	-0.004165318
50	0xbb9ceb09	-0.0047887606
51	0x3b9ad093	0.004724571
52	0x3c908a0c	0.01764395
53	0xbb859a3d	-0.0040772245
54	0xbb9c06be	-0.004761546
55	0xbc434949	-0.011919328
56	0xba355a4b	-0.0006918057
57	0xbc068dc6	-0.008212512
58	0xbc094211	-0.008377568
59	0x3d003a3f	0.031305548
60	0xbb960fc0	-0.0045795143
61	0xbcb4e290	-0.02208069
62	0xbc959f3e	-0.01826441
63	0x3a4ca32c	0.0007806297
64	0xbc4df8b5	-0.012571503
65	0x3b94491e	0.004525318
66	0x3b81a537	0.0039564627
67	0xbb33dac0	-0.0027443618
68	0xbb7f7d9c	-0.003898478
69	0x3953dbc0	0.00020204391
70	0xba476ee0	-0.0007607769
71	0xbbcd3c02	-0.006263257
72	0xbb714fd1	-0.0036821256
73	0xbb0581fa	-0.0020371662
74	0xba9d6c2e	-0.001201039
75	0x3b40c714	0.0029415535
76	0x3b2e9a2e	0.0026642191
77	0x3c9759ee	0.018475499
78	0x3d478e1e	0.048719518
79	0x3c539b1c	0.012915399
80	0x3cd1ecd8	0.025625631
81	0xbb7a988a	-0.0038237893
82	0x3b9525e2	0.004551635
83	0x3b566cbe	0.0032718624
84	0xb9b9d030	-0.00035441061
85	0xbd110809	-0.035408054
86	0x3a0807ec	0.0005189169
87	0xbc2db4ca	-0.0106021855
88	0x3b99e43d	0.0046963976
89	0x3b907bf0	0.0044093058
90	0xbbeb5b09	-0.007182483
91	0x3b919528	0.0044428296
92	0xbcf4682e	-0.029834833
93	0x3b7c5b35	0.0038506512
94	0x3c02cbe2	0.00798318
95	0x3b7dd268	0.0038730148
96	0x3b83fd43	0.004027994
97	0xbafd045a	-0.0019303665
98	0x3b7b974e	0.0038389745
99	0xbb7953db	-0.0038044367
100	0xbaf0fae0	-0.0018385313
101	0x3ac876b6	0.0015294168
102	0x3c5a2653	0.013314801
103	0x3b71d0ae	0.0036898064
104	0x3b023598	0.001986837
105	0xbaaa4d40	-0.0012992993
106	0xbb9dba78	-0.0048134886
107	0x3ce04a86	0.027379286
108	0xbd128a80	-0.035776615
109	0x3ba19935	0.004931594
110	0x3b89ea40	0.004208833
111	0xbc0fb817	-0.008771918
112	0x3c1964a6	0.009362375
113	0xbb6d7eae	-0.0036238837
114	0xbb6d8226	-0.0036240905
115	0x3c8e3708	0.017360225
116	0x3c2cde1b	0.010551001
117	0x3c42b864	0.011884782
118	0xbb5bf5ae	-0.0033563185
119	0xbb927219	-0.004469168
120	0x3c372b80	0.011179805
121	0x3b34e0be	0.0027599777
122	0xbb5a881a	-0.0033345283
123	0xb8884200	-6.497279e-05
124	0x3c6105a4	0.013734255
125	0xbb8b2ee3	-0.0042475327
126	0x39862258	0.0002558406
127	0x3c1af1ac	0.009457033
128	0x398b1a68	0.0002653182
129	0xba50c032	-0.00079632096
130	0x3a1a3da5	0.00058838195
131	0xbabc816e	-0.0014381835
132	0xbb8c9b83	-0.0042909994
133	0xbc85d71e	-0.016337927
134	0xbac2d30b	-0.0014863921
135	0x3ad9fd4b	0.0016631273
136	0xbad27bb6	-0.0016058597
137	0x3aceebc6	0.0015786819
138	0x3aa189a2	0.0012324343
139	0x3b6018ac	0.0034194393
140	0xbb84f471	-0.00405746
141	0xbabb4ab4	-0.0014289231
142	0x3b114cf0	0.0022171102
143	0x39b5bfaf	0.00034665826
144	0xbb6cca2b	-0.0036131244
145	0xba911f9c	-0.0011072042
146	0x3b335309	0.0027362725
147	0x3ba7326d	0.005102447
148	0xba8f9f8c	-0.0010957583
149	0x3b0580f6	0.0020371056
150	0x3a9e02e4	0.0012055305
151	0x3ae21d01	0.0017251075
152	0xbb3087c9	-0.0026936403
153	0x3a6b0248	0.00089648785
154	0xb994ff34	-0.000284189
155	0x3a000294	0.00048831967
156	0x3bc79423	0.0060906573
157	0xb95a3d78	-0.00020812999
158	0x399c9f8f	0.0002987352
159	0x3ab99731	0.0014159438
160	0x3ab94e58	0.0014137728
161	0xba5aadd6	-0.00083419436
162	0x3b4e71ed	0.003150101
163	0xbaa1a12c	-0.0012331358
164	0xb9c985d4	-0.00038437417
165	0xba917d99	-0.0011100053
166	0x3b401920	0.002931185
167	0xba5a7d22	-0.0008334686
168	0xba2c579b	-0.00065743335
169	0x39e58120	0.0004377449
170	0xbcf01d7d	-0.029310936
171	0x3a7da690	0.0009676004
172	0x39edbca2	0.00045344705
173	0xb9a1b585	-0.00030843556
174	0xba516f4e	-0.0007989303
175	0x3aa0b614	0.0012261295
176	0xbb4e9b9a	-0.0031525851
177	0x35723800	9.0233516e-07
178	0xba07bfd2	-0.0005178425
179	0x3b097b63	0.0020978085
180	0x3a208d00	0.0006124526
181	0xb73efe40	-1.138408e-05
182	0xbaa3b861	-0.0012490862
183	0xba9a07dc	-0.001175161
184	0xba8b45e6	-0.001062569
185	0xbac3268d	-0.0014888808
186	0xb8ae7fd0	-8.3207735e-05
187	0xbb39efb3	-0.0028371632
188	0xba971a71	-0.0011528266
189	0xbba0788b	-0.0048971823
190	0xbc0fc52e	-0.008775039
191	0x3a685163	0.0008862225
192	0xbaac3e21	-0.0013141074
193	0x3a7a57a2	0.00095498015
194	0x3aef2b23	0.0018247109
195	0x39d29e22	0.0004017214
196	0xbaaceb91	-0.0013192763
197	0x3ad30a4b	0.001610109
198	0x3add3b13	0.0016878567
199	0xba33fa8b	-0.0006865642
200	0xbb1d6de9	-0.002402181
201	0xb9cc86d6	-0.00039010373
202	0x3a3f0d04	0.0007288011
203	0x38ebf5c0	0.00011251448
204	0x3ab9128c	0.0014119907
205	0x385b1be0	5.223963e-05
206	0x3d3f1f74	0.046660855
207	0x3a4ac76c	0.00077354047
208	0x3bf7ec38	0.0075660013
209	0xbabd50d2	-0.0014443642
210	0x3aae907b	0.0013318205
211	0x3a043f05	0.0005044791
212	0x39fe183b	0.00048464708
213	0xbd0836b7	-0.033255305
214	0xba48e116	-0.0007662935
215	0xbb4ed17a	-0.0031557963
216	0x3a9cb1cf	0.0011954847
217	0x3b365f76	0.0027827895
218	0x3a665dd1	0.00087877834
219	0x3b16d110	0.0023012795
220	0xbc40a93e	-0.0117591005
221	0x3a071022	0.0005152245
222	0x3a02d7bc	0.00049912534
223	0x3b0211d4	0.0019847052
224	0x39b95f8d	0.0003535714
225	0xba0de5ee	-0.00054129853
226	0x3a8a5f85	0.0010557031
227	0xbb6b452b	-0.0035899382
228	0x39040100	0.00012588874
229	0xb9d4fd5c	-0.00040624558
230	0xba66be4c	-0.000880216
231	0x3aa8a082	0.0012865218
232	0x3acf8e31	0.0015835223
233	0xba7bf896	-0.00096119323
234	0x3a0c786c	0.00053585204
235	0x3cd611f4	0.026131608
236	0xbc5e8e3b	-0.013583715
237	0x3afd1090	0.0019307304
238	0x3ac69aab	0.0015152296
239	0xb91f87b8	-0.00015213981
240	0x3a305978	0.0006727199
241	0xbaab9b08	-0.0013092468
242	0xbab85ccd	-0.0014065743
243	0x3aea1ad0	0.0017860774
244	0x3ba9ca11	0.005181559
245	0x3b113e8c	0.0022162525
246	0xba3d0ca9	-0.00072116643
247	0xbaf9065a	-0.0018999085
248	0xba606c90	-0.0008561099
249	0x3a9919e6	0.0011680692
250	0xb69fb6f0	-4.759866e-06
251	0x3adba746	0.0016758225
252	0xbb830e11	-0.0039994796
253	0xbb05bfda	-0.0020408542
254	0xbad1e81c	-0.0016014609
255	0x3afbd089	0.0019211929

lstm.bias_ih f4 [512]
0	0xbe2a582e	-0.166352
1	0xbe14dc43	-0.14537148
2	0xbe202ffa	-0.15643302
3	0xbddbcfc4	-0.107329875
4	0xbe3514c0	-0.17683697
5	0x3e5fa8db	0.21841757
6	0xbe129bfd	-0.14317317
7	0xbe0e0744	-0.13869959
8	0xbe16e6bb	-0.14736454
9	0xbde5865d	-0.112072684
10	0xbe09af53	-0.13445787
11	0xbe23ce0f	-0.15996574
12	0xbd5a3ae1	-0.053278808
13	0xbe11ff40	-0.14257526
14	0xbde3dc41	-0.111259945
15	0xbe04d34c	-0.12971228
16	0xbd803021	-0.0625918
17	0xbdddf02a	-0.10836823
18	0xbddb767e	-0.1071596
19	0xbc1bd16e	-0.009510381
20	0xbe22bdc8	-0.15892708
21	0xbdce47df	-0.10072302
22	0xbdd4b502	-0.10386087
23	0xbde6aae5	-0.11263064
24	0xbe0a72fe	-0.13520429
25	0xbe318384	-0.17335325
26	0xbe1568b8	-0.14590728
27	0xbe035406	-0.12825021
28	0xbdcd7614	-0.10032287
29	0xbe03ad7e	-0.12859151
30	0xbdc958ef	-0.09831416
31	0xbe14bc82	-0.14525035
32	0xbe11c7af	-0.1423633
33	0xbe0e1046	-0.13873395
34	0xbe1c248b	-0.15248315
35	0xbe2339a4	-0.15939957
36	0xbde5b795	-0.11216656
37	0xbe0a65b4	-0.13515359
38	0x3e99eb92	0.30062538
39	0xbe1367b2	-0.14395025
40	0xbdee4c02	-0.11635591
41	0xbe27cced	-0.16386767
42	0x3f01e2de	0.50736797
43	0x3c0a1d5e	0.008429853
44	0xbe020a98	-0.12699354
45	0xbe045d02	-0.12926105
46	0xbe1918b2	-0.14950827
47	0xbdde302a	-0.1084903
48	0xbde46061	-0.11151195
49	0xbde9e805	-0.11421207
50	0xbe18199f	-0.14853524
51	0xbdd395cf	-0.10331308
52	0xbe0423ee	-0.12904331
53	0xbe1902c3	-0.1494246
54	0xbe14655a	-0.14491788
55	0xbdfff226	-0.12497358
56	0xbe06b06c	-0.13153237
57	0xbe4bd233	-0.19904403
58	0xbdedf83c	-0.116196126
59	0xbe0a6811	-0.1351626
60	0xbe31d543	-0.17366509
61	0xbda70bf6	-0.08156578
62	0xbe14e95c	-0.14542145
63	0xbe09fa38	-0.13474357
64	0xbe5d019b	-0.21582644
65	0xbe0ad9e4	-0.13559681
66	0xbe0267da	-0.12734929
67	0xbe0eedcd	-0.13957901
68	0xbe2e3fab	-0.17016475
69	0xbe26ec60	-0.16301107
70	0xbdee8625	-0.1164668
71	0xbe07fac4	-0.13279253
72	0xbe422f35	-0.1896332
73	0xbde44eec	-0.11147866
74	0xbe1b566b	-0.15169685
75	0xbe036d3e	-0.12834641
76	0xbe339d97	-0.17540585
77	0xbdbb7ae7	-0.09154301
78	0x3f11c8d9	0.56947094
79	0xbde45ba9	-0.11150295
80	0xbe60bb36	-0.21946415
81	0xbe0b1118	-0.1358074
82	0xbe17f414	-0.14839202
83	0xbe171e08	-0.1475755
84	0xbe19f77c	-0.15035814
85	0x3ef686c6	0.481497
86	0xbe1c024d	-0.15235253
87	0xbe608cf8	-0.21928775
88	0xbe040775	-0.1289347
89	0xbde31636	-0.11088221
90	0xbe04423d	-0.12915893
91	0xbe1d3045	-0.15350445
92	0xbe77ce57	-0.24199806
93	0xbde988fc	-0.11403081
94	0xbdea7773	-0.114485644
95	0xbe08a458	-0.13343942
96	0xbe142bb7	-0.14469801
97	0xbe175107	-0.14777003
98	0xbe29217f	-0.16516684
99	0xbe556865	-0.20840605
100	0xbdd83342	-0.10556652
101	0xbe252b03	-0.16129689
102	0xbe40f4bd	-0.1884336
103	0xbe17032f	-0.14747308
104	0xbe017eab	-0.12645976
105	0xbe19eb13	-0.1503108
106	0xbe08f6d8	-0.13375413
107	0x3ecccad1	0.39998487
108	0xbe004221	-0.12525226
109	0xbe04a244	-0.12952524
110	0xbe066d87	-0.13127719
111	0xbdd6e506	-0.104929015
112	0xbe159bd8	-0.14610231
113	0xbe1c7d01	-0.1528206
114	0xbe404523	-0.18776374
115	0xbe042967	-0.12906419
116	0xbe134cd4	-0.14384776
117	0xbe1a845b	-0.15089552
118	0xbe1caa08	-0.15299237
119	0xbe1acb3a	-0.15116587
120	0xbe4528b4	-0.19253808
121	0xbe16ac37	-0.14714132
122	0xbe1e222b	-0.15442722
123	0xbda52997	-0.08064573
124	0xbe392111	-0.1807902
125	0xbe03ac3c	-0.12858671
126	0xbe22d13d	-0.1590013
127	0xbde498db	-0.11161967
128	0xbdd2f9b0	-0.1030153
129	0xbdbb3477	-0.09140866
130	0xbdd6e2f2	-0.10492505
131	0xbda878b8	-0.0822615
132	0x3cfd9c06	0.030958187
133	0xbdba605a	-0.09100409
134	0xbdc56e50	-0.09640181
135	0xbdc1b4b1	-0.09458292
136	0xbdbedfa2	-0.09319998
137	0xbdaddd12	-0.084894314
138	0xbdc9ce6e	-0.098538265
139	0xbe21e792	-0.15810993
140	0xbe2b21cc	-0.16712111
141	0xbde9408d	-0.11389265
142	0xbd9d0dc8	-0.07668644
143	0xbdb818c6	-0.089891
144	0xbef0e05a	-0.47046167
145	0xbd986790	-0.07441628
146	0xbd909f9e	-0.070616946
147	0xbeab82dc	-0.33498275
148	0xbdcdde94	-0.10052219
149	0xbd9557a7	-0.07292109
150	0xbd90d241	-0.07071353
151	0xbdbd6edf	-0.092496626
152	0xbd94c7f2	-0.07264699
153	0xbe74b0df	-0.23895596
154	0xbdb0f2f8	-0.086400926
155	0xbd9ddf5a	-0.077086166
156	0xbe33ca3e	-0.17557618
157	0xbd874497	-0.06604879
158	0xbe4b375a	-0.19845334
159	0xbdc24c3b	-0.09487196
160	0xbdca6b0a	-0.09883697
161	0xbdb9de12	-0.0907556
162	0xbe621639	-0.2207879
163	0xbdc64dc2	-0.096828
164	0xbd79bb8c	-0.060969874
165	0xbdb0e4d7	-0.08637398
166	0xbd5e9f28	-0.054351002
167	0xbdbea27d	-0.09308336
168	0xbd84ae2d	-0.06478534
169	0xbe03ce5b	-0.12871687
170	0x3e85ddec	0.26145875
171	0xbd88e2ad	-0.0668386
172	0xbda47a6d	-0.08031163
173	0xbd994b00	-0.07485008
174	0xbdda0038	-0.10644573
175	0xbd75222f	-0.059847053
176	0xbe49cdf0	-0.19707465
177	0xbd866f77	-0.06564229
178	0xbdb8aa42	-0.09016849
179	0xbd9cc98b	-0.07655629
180	0xbdf0ac97	-0.11751669
181	0xbdddbe7b	-0.10827347
182	0xbdae01e0	-0.084964514
183	0xbdb6a54f	-0.08918249
184	0xbdb52d57	-0.088465385
185	0xbe3b40cd	-0.18286438
186	0xbd93e2c1	-0.07220984
187	0xbea76d07	-0.3270037
188	0xbdf1b552	-0.11802162
189	0xbe1ae7ff	-0.15127562
190	0xbe953250	-0.29139948
191	0xbdac3df3	-0.084102534
192	0xbea62fc3	-0.32458314
193	0xbdd00103	-0.10156443
194	0xbdaf2398	-0.08551711
195	0xbdb7def3	-0.08978071
196	0xbde0663f	-0.10957002
197	0xbe080d00	-0.13286209
198	0xbdb882f0	-0.09009349
199	0xbdb0d86a	-0.08635028
200	0xbe019d76	-0.12657723
201	0xbd75cbfe	-0.060008995
202	0xbdda1234	-0.10648003
203	0xbdb1efae	-0.086882934
204	0xbded4fd3	-0.11587491
205	0xbda955e8	-0.082683384
206	0x3e9db62d	0.30803052
207	0xbd5e80dc	-0.05432211
208	0xbeafa86a	-0.34308177
209	0xbdbff007	-0.093719535
210	0xbdc6c3d9	-0.09705324
211	0xbdd079e6	-0.101795
212	0xbdcb8605	-0.099376716
213	0x3e972bb3	0.29525527
214	0xbdcd2b13	-0.100179814
215	0xbe1ce48a	-0.15321556
216	0xbdb8f944	-0.09031919
217	0xbda2a345	-0.079412974
218	0xbd9524e1	-0.07282425
219	0xbe06ab3c	-0.13151258
220	0xbe63a503	-0.22230916
221	0xbda406b7	-0.08009093
222	0xbda1cd30	-0.079004645
223	0xbdaf78ba	-0.08567949
224	0xbdd20600	-0.10255051
225	0xbdd6d638	-0.10490078
226	0xbde78587	-0.11304765
227	0xbe262a35	-0.16227038
228	0xbd98c8ca	-0.074601725
229	0xbde00478	-0.10938352
230	0xbe0b1e54	-0.13585788
231	0xbdd275db	-0.102763854
232	0xbda6eb52	-0.081503525
233	0xbdea112f	-0.11429059
234	0xbdb6695a	-0.08906813
235	0x3e47763d	0.19478698
236	0xbe574770	-0.21023345
237	0xbdbd332b	-0.09238275
238	0xbdb12aa3	-0.086507104
239	0xbda2c8b3	-0.079484366
240	0xbe97aa4f	-0.29622123
241	0xbddb6c1f	-0.10713982
242	0xbe0d6fa9	-0.13812126
243	0xbd9cd2de	-0.07657407
244	0xbe03eb8e	-0.12882826
245	0xbe1affd0	-0.15136647
246	0xbdd685f9	-0.10474772
247	0xbdc77e7d	-0.097409226
248	0xbe006d54	-0.12541705
249	0xbdd23442	-0.10263874
250	0xbdc4eae5	-0.09615115
251	0xbdd104bc	-0.10205981
252	0xbe80da6d	-0.25166646
253	0xbdb7c70c	-0.08973512
254	0xbdb3fefe	-0.0878887
255	0xbd71bbd0	-0.059017003

lstm.bias_hh f4 [512]
0	0xbe2b8408	-0.16749585
1	0xbe14dc1b	-0.14537089
2	0xbe203006	-0.1564332
3	0xbddbcfcc	-0.107329935
4	0xbe3a9044	-0.18219095
5	0x3e419a1c	0.18906444
6	0xbe129acd	-0.14316864
7	0xbe0e07cd	-0.13870163
8	0xbe16e396	-0.14735255
9	0xbde57b58	-0.112051666
10	0xbe09af6e	-0.13445827
11	0xbe1d89b6	-0.15384564
12	0xbd1046d2	-0.03522379
13	0xbe0af1f9	-0.13568868
14	0xbde3d2a2	-0.111241594
15	0xbe04d216	-0.12970766
16	0xbd62c2ed	-0.055361677
17	0xbdddf001	-0.10836793
18	0xbddb76a6	-0.1071599
19	0xba975848	-0.0011546696
20	0xbe22d910	-0.15903115
21	0xbdce4790	-0.10072243
22	0xbdd4b505	-0.10386089
23	0xbde6aa7d	-0.11262987
24	0xbe0a725a	-0.13520184
25	0xbe37279a	-0.178862
26	0xbe1568b8	-0.14590728
27	0xbe035402	-0.12825015
28	0xbdd7f84b	-0.10545405
29	0xbe03c178	-0.12866771
30	0xbdaa4e0c	-0.083156675
31	0xbe14bd73	-0.14525394
32	0xbe11c797	-0.14236294
33	0xbe0e103c	-0.1387338
34	0xbe1c4864	-0.1526199
35	0xbe234cb2	-0.15947226
36	0xbde5b740	-0.11216593
37	0xbe0a64f9	-0.1351508
38	0x3e9f60bc	0.3112849
39	0xbe1367ea	-0.14395109
40	0xbdee4c20	-0.116356134
41	0xbe27cb6d	-0.16386195
42	0x3f018049	0.5058637
43	0x3cb3eedc	0.021964483
44	0xbe020a9b	-0.12699358
45	0xbe045d03	-0.12926106
46	0xbe1917b8	-0.14950454
47	0xbdde3d54	-0.10851541
48	0xbe05ab55	-0.13053639
49	0xbde9e805	-0.11421207
50	0xbe181a39	-0.14853753
51	0xbdd39638	-0.10331386
52	0xbe053491	-0.13008334
53	0xbe1902b1	-0.14942433
54	0xbe14662e	-0.14492103
55	0xbdfff224	-0.124973565
56	0xbe06b045	-0.13153179
57	0xbe47dc95	-0.19517739
58	0xbdedf836	-0.11619608
59	0xbe0a791c	-0.13522762
60	0xbe31db1c	-0.1736874
61	0xbd0ae0ba	-0.033905722
62	0xbdc4597e	-0.09587382
63	0xbe09fa38	-0.13474357
64	0xbe39c207	-0.18140422
65	0xbe0ad9e5	-0.13559683
66	0xbe0267d9	-0.12734927
67	0xbe0eedcc	-0.139579
68	0xbe2e3f86	-0.1701642
69	0xbe26ef43	-0.16302209
70	0xbdee8e46	-0.1164823
71	0xbe07fafd	-0.13279338
72	0xbe40fc36	-0.18846211
73	0xbde4557f	-0.111491196
74	0xbe1b565b	-0.15169661
75	0xbe036d42	-0.12834647
76	0xbe339f84	-0.17541319
77	0xbdbb154f	-0.09134924
78	0x3f11ae58	0.5690665
79	0xbde452fd	-0.11148641
80	0xbe7c2524	-0.24623543
81	0xbe0b11d5	-0.13581021
82	0xbe17f5cb	-0.14839856
83	0xbe171de7	-0.147575
84	0xbe19f788	-0.15035832
85	0x3efabb63	0.4897109
86	0xbe1c02be	-0.15235421
87	0xbe67cd29	-0.22636856
88	0xbe041139	-0.12897195
89	0xbde31b77	-0.11089223
90	0xbe0442ac	-0.12916058
91	0xbe1c6f44	-0.1527682
92	0xbe848d44	-0.25889027
93	0xbde988ea	-0.114030674
94	0xbdea7773	-0.114485644
95	0xbe08a453	-0.13343935
96	0xbe142bb7	-0.14469801
97	0xbe175382	-0.1477795
98	0xbe29213a	-0.16516581
99	0xbe5e1104	-0.21686178
100	0xbdd83346	-0.10556655
101	0xbe252af1	-0.16129662
102	0xbe4048e1	-0.18777801
103	0xbe16ffe0	-0.14746046
104	0xbe01758c	-0.12642497
105	0xbe19e549	-0.15028872
106	0xbe08f698	-0.13375318
107	0x3ed60b13	0.41805324
108	0xbe096dee	-0.13420841
109	0xbe04a255	-0.1295255
110	0xbe066d84	-0.13127714
111	0xbdd6e513	-0.10492911
112	0xbe7bc1da	-0.24585667
113	0xbe1c7d1c	-0.152821
114	0xbe403750	-0.187711
115	0xbe041c65	-0.12901457
116	0xbe119edf	-0.14220761
117	0xbe1274b5	-0.14302333
118	0xbe1ca9d2	-0.15299156
119	0xbe1acc43	-0.15116982
120	0xbe47125b	-0.19440596
121	0xbe16ac39	-0.14714135
122	0xbe1e3c00	-0.15452576
123	0xbda5a46a	-0.08088
124	0xbe3b1cf8	-0.1827277
125	0xbe03ac33	-0.12858658
126	0xbe22cfb6	-0.15899548
127	0xbde498db	-0.11161967
128	0xbdd2d036	-0.10293619
129	0xbdbb3477	-0.09140866
130	0xbdd6e2f2	-0.10492505
131	0xbda878b8	-0.0822615
132	0x3d1b53b4	0.037921622
133	0xbdd5cf46	-0.10439925
134	0xbdc56e50	-0.09640181
135	0xbdc1b4b1	-0.09458292
136	0xbdbedfa2	-0.09319998
137	0xbdaddd16	-0.084894344
138	0xbdc9ce6e	-0.098538265
139	0xbe223e19	-0.15844001
140	0xbe2388ec	-0.159702
141	0xbde98363	-0.11402013
142	0xbd9d0dc8	-0.07668644
143	0xbdb818c6	-0.089891
144	0xbed1d2e8	-0.4098122
145	0xbd986790	-0.07441628
146	0xbd909f9e	-0.070616946
147	0xbecf5897	-0.40497276
148	0xbdcdde5e	-0.10052179
149	0xbd9557a7	-0.07292109
150	0xbd90d241	-0.07071353
151	0xbdbd6edf	-0.092496626
152	0xbd94c7f2	-0.07264699
153	0xbe7296a4	-0.23690277
154	0xbdb0f2f8	-0.086400926
155	0xbd9ddf5a	-0.077086166
156	0xbe336c49	-0.17521776
157	0xbd87448a	-0.0660487
158	0xbe46f50b	-0.19429414
159	0xbdc24c3b	-0.09487196
160	0xbdca6b0a	-0.09883697
161	0xbdb9de12	-0.0907556
162	0xbe6385b2	-0.2221897
163	0xbdc64dc9	-0.09682805
164	0xbd79bb8c	-0.060969874
165	0xbdb0e4d7	-0.08637398
166	0xbda21e3b	-0.07915922
167	0xbdbea27d	-0.09308336
168	0xbd84ae2d	-0.06478534
169	0xbe03ce5b	-0.12871687
170	0x3e853a93	0.2602125
171	0xbd312906	-0.043252014
172	0xbda47a6d	-0.08031163
173	0xbd994b00	-0.07485008
174	0xbdda0038	-0.10644573
175	0xbd75222f	-0.059847053
176	0xbe4668c6	-0.19375905
177	0xbd866f77	-0.06564229
178	0xbdb8aa42	-0.09016849
179	0xbd9cc98b	-0.07655629
180	0xbdf0871d	-0.11744521
181	0xbdddbe7b	-0.10827347
182	0xbdae01e0	-0.084964514
183	0xbdb6a54f	-0.08918249
184	0xbdb52d57	-0.088465385
185	0xbe3aba2a	-0.18235078
186	0xbd93e2c1	-0.07220984
187	0xbea5ccbd	-0.32382765
188	0xbdf1b552	-0.11802162
189	0xbe19c715	-0.1501735
190	0xbea1bf97	-0.31591484
191	0xbdac3df3	-0.084102534
192	0xbea46e61	-0.32115462
193	0xbdd00103	-0.10156443
194	0xbdaf2398	-0.08551711
195	0xbdb7def3	-0.08978071
196	0xbde0663f	-0.10957002
197	0xbe080d00	-0.13286209
198	0xbdb882ee	-0.09009348
199	0xbdb0d868	-0.08635026
200	0xbe019b7f	-0.12656973
201	0xbd75cbfe	-0.060008995
202	0xbdda1234	-0.10648003
203	0xbdb1efae	-0.086882934
204	0xbded4fd3	-0.11587491
205	0xbda95153	-0.082674645
206	0x3e9e7866	0.30951232
207	0xbd5e80dc	-0.05432211
208	0xbea23f7e	-0.31689066
209	0xbdbff007	-0.093719535
210	0xbdc6c3d9	-0.09705324
211	0xbdd079e6	-0.101795
212	0xbdcb8605	-0.099376716
213	0x3e92dd5d	0.28684512
214	0xbdcd2b13	-0.100179814
215	0xbe1b708a	-0.15179649
216	0xbdb8f90d	-0.09031878
217	0xbda2a345	-0.079412974
218	0xbd9524e1	-0.07282425
219	0xbe06ad6b	-0.13152091
220	0xbe5585eb	-0.20851867
221	0xbda406b7	-0.08009093
222	0xbda1cd30	-0.079004645
223	0xbdaf78ba	-0.08567949
224	0xbdd20600	-0.10255051
225	0xbdd6d638	-0.10490078
226	0xbde78587	-0.11304765
227	0xbe26488c	-0.16238612
228	0xbd98c8ca	-0.074601725
229	0xbde00478	-0.10938352
230	0xbe0b1ef9	-0.13586034
231	0xbdd275db	-0.102763854
232	0xbda6eb52	-0.081503525
233	0xbdea112b	-0.11429056
234	0xbdb6695a	-0.08906813
235	0x3e599c5d	0.21251054
236	0xbe641a06	-0.22275552
237	0xbdbd332b	-0.09238275
238	0xbdb12aa3	-0.086507104
239	0xbda2c8b3	-0.079484366
240	0xbea0eb2b	-0.3142942
241	0xbddb6c1f	-0.10713982
242	0xbe0d6d62	-0.13811257
243	0xbd9cd2da	-0.07657404
244	0xbe039e8d	-0.12853451
245	0xbe1ae99a	-0.15128174
246	0xbdd685f9	-0.10474772
247	0xbdc77e7d	-0.097409226
248	0xbe009506	-0.12556848
249	0xbdd23442	-0.10263874
250	0xbdc4eae7	-0.096151166
251	0xbdd104ab	-0.102059685
252	0xbe7e8ba0	-0.2485795
253	0xbdb7c70c	-0.08973512
254	0xbdb3fefe	-0.0878887
255	0xbd71bbd0	-0.059017003

output_w.weight f4 [5, 128]
0	0xbc403dfe	-0.01173353
1	0x3a8ab4fa	0.00105825
2	0x3c12893a	0.00894385
3	0x3bde9a85	0.0067933225
4	0xbada8354	-0.0016671219
5	0xbceaaf90	-0.028648168
6	0xbaed1d26	-0.0018090352
7	0x3b948c5f	0.004533335
8	0x3ac4f35d	0.0015026141
9	0xbb71ad83	-0.0036877103
10	0xbc302cbc	-0.010752853
11	0xbc84faca	-0.016232867
12	0xbcead8e0	-0.028667867
13	0x3a84c6b4	0.0010130019
14	0xbaa0f928	-0.0012281286
15	0x3c3a0756	0.011354288
16	0xbeb1a18c	-0.34693563
17	0x3b797956	0.0038066707
18	0x3b04f9f3	0.0020290583
19	0x3e236821	0.15957691
20	0x3c26e014	0.01018526
21	0x3bca8ada	0.006181103
22	0xbc229672	-0.009923564
23	0x3bcd17ec	0.006258955
24	0xbace11d2	-0.0015721864
25	0x3d41d7c0	0.047324896
26	0xbc00e87e	-0.00786793
27	0x3b5011d8	0.0031748917
28	0xbcc4252b	-0.023943504
29	0x3bdd6e24	0.0067575146
30	0x3cbcb667	0.023036195
31	0xbb20638d	-0.00244734
32	0xbbdcefdc	-0.0067424607
33	0x3b806527	0.0039183083
34	0x3cb781df	0.022400795
35	0xbabf7a4f	-0.0014608594
36	0x3bef4bc8	0.007302735
37	0x3bfbf958	0.007689636
38	0x3d588da1	0.052869443
39	0x3894f564	7.1028975e-05
40	0xbb971cff	-0.004611611
41	0x3bd8ed3f	0.006620079
42	0x3bac3990	0.0052558854
43	0xbd1072f9	-0.035265896
44	0x3b24a37d	0.002512186
45	0x3ba0cade	0.004906996
46	0xbbcecaa9	-0.00631078
47	0xbc2a1daf	-0.010383054
48	0xbcde49e3	-0.027134841
49	0x3a12b202	0.0005595983
50	0xbb52e860	-0.0032181963
51	0x3c021170	0.007938728
52	0x3c9eb6de	0.019374307
53	0xba9db453	-0.001203189
54	0x3bd58ee4	0.006517278
55	0xbb1ac5b4	-0.0023616375
56	0xba1cb749	-0.00059782394
57	0xbd525877	-0.051353898
58	0x3b63ecfe	0.003477871
59	0x3d826f8f	0.06368934
60	0xbc9cea28	-0.019154623
61	0xbe1bfbd1	-0.15232779
62	0x3e1ea82c	0.1549384
63	0xbb9adc40	-0.004725963
64	0xbc672ca7	-0.014109767
65	0xbc381a26	-0.011236703
66	0xbad62a20	-0.0016339459
67	0xbb1aec5b	-0.0023639414
68	0xbc23d494	-0.009999413
69	0xbc3c37ee	-0.011487944
70	0x3c732aac	0.014841717
71	0x3b66c6af	0.003521364
72	0xbca60da9	-0.020270186
73	0xbb4b1226	-0.003098616
74	0xbbd0a495	-0.006367276
75	0xbb8f5eac	-0.0043752994
76	0x3bd68d63	0.0065476163
77	0x3c0b8dca	0.008517692
78	0xbe172a81	-0.14762308
79	0xbc245e66	-0.010032272
80	0x3e92cb0c	0.28670537
81	0x3a5845a0	0.0008250121
82	0xbb5013fc	-0.0031750193
83	0x3b8e5646	0.0043437807
84	0xbbc9b65b	-0.0061557717
85	0x3e070669	0.13186039
86	0x3c197a23	0.009367499
87	0xbd9692e2	-0.073522344
88	0xbbef3e6b	-0.007301142
89	0xbc3a4f3c	-0.01137143
90	0x3c51d024	0.012805972
91	0xbc88ea2d	-0.016713226
92	0xbd9b448b	-0.07581433
93	0xbc63189c	-0.013860848
94	0xba8a763e	-0.0010563803
95	0x3bb40fab	0.005495032
96	0x3b8878b2	0.0041647786
97	0xba393194	-0.00070645777
98	0x3bcfb21e	0.006338372
99	0x3d224c34	0.039623454
100	0x3c10c8cd	0.008836937
101	0x3c46a632	0.012124585
102	0x3c897d43	0.016783362
103	0x3b8a1b1c	0.0042146575
104	0x3a5acaa8	0.0008346238
105	0x3c6f9029	0.014621773
106	0xba768c69	-0.0009405078
107	0x3cd2a228	0.025712088
108	0xbde48c71	-0.111595996
109	0xbae46cfe	-0.0017427502
110	0x39ee3b38	0.0004543902
111	0x39d3ef68	0.00040423428
112	0x3e1d7110	0.15375161
113	0xbb5fd4ae	-0.0034153867
114	0xbce9b070	-0.028526515
115	0x3b3f6534	0.002920461
116	0xba7e1cf4	-0.00096936454
117	0x3c86784c	0.016414784
118	0xbc4634db	-0.012097563
119	0xbc199a5f	-0.009375184
120	0xbc076f87	-0.008266336
121	0xbc135e42	-0.008994641
122	0xbbc9a2a4	-0.0061534215
123	0x3be988db	0.00712691
124	0x3a6be86a	0.0008999171
125	0xbc05e2a1	-0.008171708
126	0xbb43f600	-0.0029901266
127	0x3bbbdb1e	0.005732908
128	0x3cbea2bc	0.023270957
129	0x3b5ea2b8	0.00339715
130	0xbbbe5da8	-0.0058095045
131	0xbba34c03	-0.0049834265
132	0xbde365d0	-0.111034036
133	0xbd9ebf10	-0.07751286
134	0x3b7349da	0.0037122876
135	0x3abf72e3	0.0014606382
136	0x3c451604	0.012029175
137	0x3c7b45ea	0.015336493
138	0xbb6d1ebd	-0.0036181652
139	0x3d1d7538	0.038441867
140	0x3cdb8178	0.026795134
141	0xbd4448b9	-0.047920916
142	0x3c53fb36	0.012938311
143	0xbc840366	-0.016114902
144	0x3ef82249	0.48463657
145	0x3b2c018e	0.0026246044
146	0xbc108c19	-0.008822464
147	0x3ed06ae0	0.4070654
148	0xbd2dc982	-0.0424285
149	0xbb9a3c68	-0.004706908
150	0x3a8e129e	0.0010839289
151	0xbc0349cd	-0.008013201
152	0x3c356dec	0.011073571
153	0xbd3de311	-0.046359126
154	0x3c20a88c	0.00980581
155	0xbb7e22eb	-0.0038778137
156	0xbce86f33	-0.028373336
157	0xbc00c4df	-0.007859438
158	0x3d688a20	0.05677235
159	0xbc450168	-0.012024261
160	0x3b223c57	0.0024755204
161	0x3b031cfd	0.0020006292
162	0x3b7e4af2	0.0038801995
163	0xbbe54c70	-0.0069976375
164	0x3ba41a98	0.005008053
165	0x3c7f3fe3	0.015579197
166	0xbd18b2fc	-0.037280068
167	0x3b69d176	0.0035677827
168	0x3c5183a5	0.012787734
169	0x3b64a4a1	0.0034888166
170	0x3dc47885	0.095933
171	0x3dcee55a	0.10102339
172	0xbb0960d0	-0.0020962246
173	0x39722fb9	0.00023096697
174	0x3abee590	0.0014564265
175	0x3c885d61	0.016646089
176	0x3c744d41	0.014910997
177	0xbc0014d8	-0.00781747
178	0x3a5de8b9	0.00084651593
179	0xbc33263a	-0.010934407
180	0xbcd571ac	-0.02605518
181	0xbc59cda6	-0.013293659
182	0xbc1b1e1e	-0.00946763
183	0x3b16be65	0.0023001668
184	0xb8854054	-6.353916e-05
185	0x3cf7a97d	0.030232185
186	0xbbef97da	-0.0073118033
187	0xbcdfa93d	-0.027302379
188	0x3c59ee24	0.013301406
189	0xbc4b27be	-0.012399612
190	0xbd3864a8	-0.04501787
191	0xbaa08435	-0.0012246432
192	0xbdec65e6	-0.11542873
193	0x3ad709c8	0.0016406113
194	0xbb907c1a	-0.0044093253
195	0x3b8b504f	0.004251517
196	0x3bc704a1	0.00607355
197	0x3c96beae	0.01840147
198	0xbbdf900f	-0.006822593
199	0x3bd78100	0.0065766573
200	0xbc5e55d9	-0.013570272
201	0x3c820ffc	0.015876763
202	0x3b5be554	0.0033553438
203	0xba02aa4e	-0.0004984484
204	0x39d823f1	0.0004122551
205	0xbb3947b1	-0.0028271491
206	0xbd1138b1	-0.035454456
207	0x3c039e23	0.008033308
208	0x3e15cf3b	0.14629833
209	0xb9cdfcc8	-0.00039288984
210	0xbc0db22c	-0.0086484365
211	0x3b88332a	0.00415649
212	0x3b08bbfb	0.0020863998
213	0xbd798a1e	-0.060922734
214	0xbac55016	-0.0015053775
215	0x3cf8c53c	0.030367486
216	0x3b28bb8a	0.0025746548
217	0x3bbfbc53	0.0058513074
218	0x3a99f449	0.0011745776
219	0xbb946937	-0.004529144
220	0xbc831f06	-0.016006004
221	0x39880c46	0.00025949086
222	0xb95040ee	-0.00019860614
223	0xba02cb1c	-0.0004989372
224	0xbb8a58e9	-0.0042220247
225	0x3c08a2e2	0.008339616
226	0x3bdbf03a	0.006711987
227	0xbd0f1c1a	-0.03493891
228	0x3b07bfba	0.0020713643
229	0xbad4488c	-0.0016195937
230	0xbd59fd0c	-0.05321984
231	0xbbaf21e2	-0.0053446153
232	0x3c6a8158	0.0143130645
233	0xbc82f00f	-0.01598361
234	0xbc24b3ab	-0.010052602
235	0x3dc0b570	0.094096065
236	0x3c45e177	0.012077681
237	0x39dbdbf0	0.000419348
238	0xbafb591a	-0.0019176335
239	0xb9c78d48	-0.000380615
240	0x3de0658b	0.10956868
241	0xb960c854	-0.00021436933
242	0x3c993be8	0.018705323
243	0xbb5e191d	-0.003388948
244	0xbc78dff7	-0.015190116
245	0xbc77c2de	-0.015122144
246	0x3c0d7561	0.008633942
247	0x3b547603	0.0032418973
248	0x3d16ba52	0.036798783
249	0x3b883d7e	0.004157721
250	0xbb3a16de	-0.0028394978
251	0xbc3780e2	-0.011200162
252	0x3cc947a0	0.024570286
253	0x3bc729af	0.006077967
254	0x3a911e54	0.001107166
255	0xbc5d8574	-0.013520587

output_w.bias f4 [5]
0	0xbd09ef8b	-0.03367571
1	0x3d607dd7	0.05480751
2	0xbf530005	-0.82421905
3	0xbf60abc1	-0.87762076
4	0xbe0532a0	-0.13007593

square_avg f4 [64]
0	0x3c25c56c	0.01011787
1	0x3e334565	0.1750694
2	0x3d44147f	0.04787111
3	0x31ba38da	5.4197757e-09
4	0x3760daba	1.3402367e-05
5	0x3b0fe457	0.002195617
6	0x3c2668bf	0.010156809
7	0x3b1d3970	0.0023990534
8	0x3ba37874	0.0049887244
9	0x337d1150	5.89219e-08
10	0x3c986dd4	0.018607058
11	0x3a4c1440	0.0007785
12	0x3cad0206	0.021119129
13	0x3bf1bb47	0.0073770615
14	0x3b98ee39	0.00466707
15	0x314811ab	2.9113874e-09
16	0x32306d73	1.0269434e-08
17	0x3649a4f7	3.0047356e-06
18	0x3c224637	0.009904436
19	0x3e7a3aeb	0.24436538
20	0x3614d184	2.2175673e-06
21	0x3bf3ad98	0.0074364655
22	0x3b369f86	0.002786608
23	0x3278fb1a	1.4492594e-08
24	0x3c1d82d8	0.009613715
25	0x2e942337	6.736516e-11
26	0x3d86a407	0.065742545
27	0x313380b5	2.612109e-09
28	0x3da67c65	0.08129195
29	0x3c9d3f4b	0.01919522
30	0x3c6db09d	0.01450744
31	0x3c69ea89	0.014277109
32	0x3cddb3a9	0.027063208
33	0x3d3d473a	0.046210505
34	0x3d0001f0	0.031251848
35	0x3c9445cd	0.01809969
36	0x3db77704	0.08958247
37	0x3cec025e	0.028809723
38	0x30cbe946	1.4836494e-09
39	0x3b22e07f	0.0024853048
40	0x3ccee600	0.025256157
41	0x2edc3bc4	1.0015058e-10
42	0x2fdb3e1d	3.9880002e-10
43	0x3a163e51	0.0005731332
44	0x2f225f3f	1.4767652e-10
45	0x346da339	2.2131725e-07
46	0x3caaa067	0.020828439
47	0x3c66b5c0	0.0140814185
48	0x3ab603c2	0.0013886618
49	0x3deb7699	0.1149723
50	0x35340c80	6.7073415e-07
51	0x3ccbfc29	0.024900513
52	0x346b5fed	2.1920978e-07
53	0x3a8fe108	0.0010977099
54	0x3d8192d0	0.063268304
55	0x3b3dec68	0.002898002
56	0x3bf75109	0.007547502
57	0x310c4241	2.0410342e-09
58	0x3b44abf6	0.0030009723
59	0x3d06a40d	0.032871295
60	0x3d0fa5b9	0.035070155
61	0x3c92bd97	0.01791267
62	0x3c3c8654	0.011506636
63	0x3c11b2fd	0.008892772

square_avg f4 [5]
0	0x40669146	3.6026168
1	0x41342b65	11.260594
2	0x3db6bbac	0.08922514
3	0x3ecd7946	0.40131587
4	0x3d0662b2	0.032808967
