S-LSTM/Goal+Socail_Array_PyTorch/social_lstm/save/0/social_model_epoch_10.pth (torch, 819300 bytes, 22 tensors)

embedding_b f4 [64]
0	0x3d0aa767	0.033851054
1	0xbd899bc0	-0.0671916
2	0xbe11904b	-0.142152
3	0x3e1a0e28	0.15044463
4	0xbc24ebaa	-0.010065952
5	0xbd189bb5	-0.03725787
6	0xbd9f6ffc	-0.07785031
7	0xbda93985	-0.08262924
8	0x3cdc9171	0.02692482
9	0x3e9757c9	0.29559162
10	0xbe106f9f	-0.1410508
11	0x3e09464d	0.13405724
12	0xba0e9aa3	-0.0005439913
13	0x3ca69efc	0.020339482
14	0x3bf1e7bb	0.0073823608
15	0x3d21b8d6	0.039482914
16	0xbc1e17cd	-0.009649229
17	0x3cfb6751	0.030688914
18	0xbdef5702	-0.11686517
19	0x3d9baa4f	0.07600843
20	0xbc9defc0	-0.01927936
21	0xbb9a818b	-0.0047151498
22	0xbd48120f	-0.048845347
23	0x3ba64a0e	0.005074746
24	0xbddf24e7	-0.108957104
25	0x3e76b931	0.24094082
26	0xbdae1124	-0.08499363
27	0xbd6aefaf	-0.057357486
28	0xb87ad19f	-5.979987e-05
29	0xbd6409f3	-0.05567355
30	0x3d4ca931	0.04996604
31	0xbcfc9d89	-0.030836837
32	0xbb96dc14	-0.004603872
33	0xbe002e04	-0.12517554
34	0xbc8b093a	-0.016972173
35	0x3d3f4ab7	0.046702113
36	0xbdeff894	-0.117173344
37	0xbb501526	-0.0031750887
38	0x3d9d03f8	0.076667726
39	0xb603c9dd	-1.963802e-06
40	0x3d13007a	0.035889126
41	0x3e3a9640	0.18221378
42	0xbd1c91bc	-0.03822492
43	0xbc92cbca	-0.01791944
44	0x3d0f1d8f	0.0349403
45	0x3ce3fcc2	0.027830485
46	0x3cab8ee8	0.020942166
47	0xbe0ff048	-0.14056504
48	0xbd45ed9e	-0.048322313
49	0xbc3aad73	-0.011393893
50	0x3d8d1db2	0.068904296
51	0x3e50e327	0.20399152
52	0xbe2e5ae6	-0.17026863
53	0xbb6f6bf5	-0.0036532853
54	0xbbab0f85	-0.005220356
55	0xbde58a1a	-0.112079814
56	0xbdcf9a4c	-0.10136852
57	0x3de6bafd	0.11266134
58	0xb4e222f9	-4.2121226e-07
59	0x3d863c83	0.065545104
60	0xbd5e6a68	-0.054300696
61	0xbe066475	-0.13124259
62	0xa8d7edc4	-2.397291e-14
63	0xbd28e876	-0.041237317

output_b f4 [5]
0	0x3c46f40e	0.012143148
1	0x3b8abcca	0.004233931
2	0xbf4392a2	-0.7639562
3	0xbf3b3fad	-0.73144037
4	0xbb0b09e5	-0.0021215614

embedding_w.weight f4 [64, 4]
0	0x3f8efa57	1.1170148
1	0xbee22d58	-0.4417522
2	0xbda93bdb	-0.0826337
3	0xbdfb1857	-0.12260502
4	0xbf1a65a4	-0.6031134
5	0xbd1fc5f4	-0.039007142
6	0xbe6fcaf3	-0.23417263
7	0x3e5183c1	0.20460416
8	0xbebe018d	-0.37110558
9	0x3dd4b094	0.10385242
10	0x3ec2385c	0.37933624
11	0xbdc2af35	-0.09506074
12	0xbf85dcaa	-1.0457966
13	0x3f849c1a	1.0360138
14	0xbe0f0461	-0.13966514
15	0x3e8af864	0.27142632
16	0x3a3c754f	0.0007189111
17	0x3147c43f	2.9069864e-09
18	0x3bd25540	0.006418854
19	0x3c81e026	0.015853953
20	0xbda096b3	-0.078412436
21	0x3e000d82	0.12505153
22	0x3ec87a02	0.39155585
23	0xbcea2e9e	-0.028586682
24	0xbf070939	-0.5274845
25	0x3f4c001b	0.7968766
26	0xbd394d6e	-0.04523986
27	0xbe1ac88f	-0.1511557
28	0xbed76091	-0.42065862
29	0x3e795dd1	0.24352194
30	0xbddb66c4	-0.1071296
31	0x3d5a4c0f	0.05329519
32	0x3b6f1378	0.003648011
33	0x3f7f9a72	0.9984504
34	0xbe34093a	-0.17581645
35	0xbd33e80b	-0.043922465
36	0xbf2306e1	-0.6368237
37	0xbfa57c8e	-1.2928636
38	0xbe673bdf	-0.22581433
39	0x3e7bc520	0.24586916
40	0x3eadbb07	0.33931753
41	0xbdf7707e	-0.12082003
42	0xbedbf4cc	-0.42960203
43	0x3e69c47b	0.22828858
44	0x3dfd7930	0.1237663
45	0x3f83fda6	1.0311782
46	0x3e13467b	0.14382355
47	0x3ef5dedc	0.4802159
48	0x285712ae	1.1938948e-14
49	0x1427bc5c	8.468493e-27
50	0x30395ec4	6.743728e-10
51	0xa2439c06	-2.6510026e-18
52	0xbf853a82	-1.040848
53	0xbe3bd85a	-0.1834425
54	0xbd6dedca	-0.0580881
55	0xbe40a13a	-0.18811503
56	0x3e1e8c26	0.1548315
57	0xbf996456	-1.1983745
58	0x3e3bb769	0.18331684
59	0x3bb1c0f8	0.005424615
60	0x3fa9cd69	1.3265811
61	0x3f68c35f	0.9092311
62	0x3c27df2f	0.010246082
63	0xbd7d06a2	-0.061773904
64	0x38d63c08	0.00010215497
65	0x91030e68	-1.0338517e-28
66	0x3baf95bb	0.0053584254
67	0x31d2e00d	6.137276e-09
68	0xbd836037	-0.06414836
69	0x3cc4bfe3	0.02401728
70	0xbd946288	-0.07245356
71	0xbd2dc146	-0.042420648
72	0xbf4902ba	-0.78519785
73	0xbe902d2c	-0.28159463
74	0x3f3b3a0d	0.73135453
75	0x3e8d282a	0.27569705
76	0x3f8947a6	1.072499
77	0xbf60523a	-0.8762547
78	0x3dc8efa5	0.098113336
79	0x3cb1842d	0.021669472
80	0x3f6cda4e	0.92520607
81	0xbf1b8d43	-0.60762423
82	0xbe03eaa1	-0.12882473
83	0xbc84ef65	-0.016227433
84	0x3a5e27cf	0.000847456
85	0x36d90637	6.4678275e-06
86	0x3b57edae	0.0032948065
87	0x37281eb0	1.0020725e-05
88	0x3df2f159	0.1186244
89	0xbf0d58a9	-0.5521341
90	0x3e05460e	0.13015005
91	0x3e3eb573	0.18623905
92	0x3f816a6c	1.0110602
93	0xbe0a45d9	-0.13503207
94	0x3ed33e14	0.412583
95	0x3ed122de	0.40846914
96	0x3f9f7e23	1.2460369
97	0x3f50dba0	0.8158512
98	0x3e0a91f4	0.13532239
99	0x3dcb7f04	0.09936336
100	0x3f6c3e3a	0.9228245
101	0x3f79ed0d	0.97627336
102	0x3d177d2e	0.036984615
103	0xbc7b3aa2	-0.015333803
104	0x3e7785c5	0.24172123
105	0x3e81bde4	0.25340188
106	0xbe8d1e99	-0.27562407
107	0xbe838a53	-0.2569147
108	0xbf72ed00	-0.94892883
109	0x3f5f8d03	0.8732454
110	0xbe869278	-0.26283622
111	0x3e15aa67	0.14615785
112	0x2330820a	9.568516e-18
113	0x2371d7f0	1.3110363e-17
114	0xabc58680	-1.4035023e-12
115	0x3207553c	7.877414e-09
116	0x3f4d3d96	0.801721
117	0xbe86efd3	-0.26354846
118	0xbd4561c4	-0.04818894
119	0x3d7d18d0	0.06179124
120	0x3ee520f9	0.4475172
121	0x3f1cefaf	0.6130323
122	0xbba28c4a	-0.0049605714
123	0xba27d82c	-0.00064027566
124	0x3f9c95e4	1.2233243
125	0x3e2409ab	0.16019313
126	0xbdddedaa	-0.108363464
127	0x3e9791a7	0.2960331
128	0xbe4e433f	-0.2014284
129	0x3e1692e3	0.1470447
130	0x3e4a5432	0.1975868
131	0x3ca56be0	0.02019304
132	0x3ecfaf6f	0.40563533
133	0x3ec049ce	0.37556309
134	0xbe22df8f	-0.15905593
135	0xbe03fc37	-0.12889181
136	0x3d0be5ad	0.034154583
137	0x3d61d91b	0.05513869
138	0xbc2d92d6	-0.01059409
139	0x3d669aaa	0.056299843
140	0x3f91e079	1.1396629
141	0xbf661284	-0.89872
142	0x3ea6d2c3	0.32582673
143	0xbf162a21	-0.58658034
144	0xbf5cd294	-0.86258817
145	0x3e7b0400	0.24513245
146	0x3e1ed02f	0.15509103
147	0xbe1a14ae	-0.15046951
148	0x34ee3f8d	4.4377194e-07
149	0x3be73a7c	0.0070565324
150	0x342f59db	1.6330834e-07
151	0xb0c3ad3a	-1.4237351e-09
152	0x3f1a1388	0.6018605
153	0xbf7d334c	-0.989064
154	0x3ea58255	0.32325998
155	0x3dca1d85	0.09868912
156	0x207b97b8	2.1310726e-19
157	0x16b4ca10	2.9208088e-25
158	0xa7aedba6	-4.8532845e-15
159	0x0d0c9c64	4.332908e-31
160	0xbf9cd25a	-1.2251694
161	0xbf049e7a	-0.51804316
162	0xbe4c405b	-0.19946425
163	0xbc4c2bc3	-0.0124616055
164	0xbbb71882	-0.0055876384
165	0x3f9b961d	1.2155186
166	0x3db8bddc	0.09020588
167	0x3eda602b	0.42651495
168	0xbe850af1	-0.2598491
169	0xbf6096b5	-0.8772996
170	0x3dd39c44	0.1033254
171	0xbf3baed7	-0.7331366
172	0x3bcaa772	0.006184512
173	0xbce726b6	-0.028216701
174	0x3cdf3f52	0.027251873
175	0xbc6c9df6	-0.014441958
176	0xbdddaa8d	-0.108235456
177	0x3deec01c	0.11657736
178	0xbd2d4cde	-0.042309634
179	0x3da7586e	0.081711635
180	0x3ca9bc69	0.020719724
181	0xbb6e0dea	-0.0036324211
182	0xbcfb9268	-0.03070946
183	0x3c51d9dc	0.012808289
184	0xbdd70c08	-0.10500342
185	0x3d305c9e	0.043057077
186	0xbdb951b3	-0.09048786
187	0x3e5aa440	0.21351719
188	0x3f06d636	0.5267061
189	0x3ec5249b	0.3850449
190	0x3e2f5b04	0.17124563
191	0x3e793ef2	0.24340418
192	0x3f37bdd8	0.71774054
193	0xbf390c5f	-0.722845
194	0xbdb86f9c	-0.09005663
195	0x3e1b4771	0.15163971
196	0xbcfc1c16	-0.030775111
197	0xbd94b2c2	-0.07260658
198	0x3c3d043f	0.011536657
199	0xbd27af6b	-0.040938776
200	0xbde71ebd	-0.1128516
201	0x3fa23dd2	1.2675116
202	0x3d3b5484	0.045734897
203	0xbdef4293	-0.1168262
204	0x3fadd448	1.3580408
205	0x3e8f57aa	0.2799657
206	0x3d2af7a1	0.041740064
207	0x3e2ff0da	0.17181721
208	0x3ee8711e	0.45398802
209	0x3e87060b	0.26371798
210	0xbeb381be	-0.35059923
211	0xbe6dad63	-0.23210673
212	0xbbf18dd0	-0.0073716417
213	0xba0459af	-0.0005048764
214	0xbb64570e	-0.0034841928
215	0x3a7dab30	0.0009676693
216	0xb498c054	-2.8452143e-07
217	0xbb9e5cac	-0.0048328247
218	0xb98a6dee	-0.00026403315
219	0xa5eb3e6c	-4.08083e-16
220	0x3f1b6328	0.60698175
221	0xbecf5916	-0.40497655
222	0xbe13eb70	-0.14445281
223	0x3e4c5e62	0.19957879
224	0xbf3b829f	-0.73246187
225	0x3ba5cfac	0.005060157
226	0xbea7affc	-0.32751453
227	0x3e639a3a	0.22226802
228	0x3f96180c	1.1726089
229	0x3ef7e453	0.48416385
230	0x3e49efb3	0.19720344
231	0xbe337a27	-0.17527066
232	0x3514fadc	5.5499345e-07
233	0x3419170e	1.4257623e-07
234	0x320db74c	8.248957e-09
235	0x371f0e90	9.480529e-06
236	0x3f1b0517	0.6055464
237	0x3f849802	1.0358889
238	0xbc9f1173	-0.0194175
239	0xbdc0d9b2	-0.09416522
240	0xbf64c894	-0.8936856
241	0x3e95c8f1	0.2925487
242	0x3e12c344	0.143323
243	0xbdaae35d	-0.08344147
244	0xbe9550ea	-0.29163295
245	0xbf85ff7b	-1.0468591
246	0xbd58e3e3	-0.052951705
247	0xbeb8dfa6	-0.3610813
248	0x2a1dcbf4	1.4015162e-13
249	0x2605f862	4.6480266e-16
250	0x2b3977a8	6.589126e-13
251	0x1fc985c2	8.5348095e-20
252	0x3f6377b8	0.8885455
253	0x3f831ccb	1.0243162
254	0x3b26e2d8	0.00254648
255	0x3bd5b320	0.0065215975

embedding_w.bias f4 [64]
0	0x3a002c28	0.00048893923
1	0xbd899bbe	-0.067191586
2	0x3dac0c83	0.08400824
3	0xbe1dc986	-0.15408906
4	0xbc24ebaa	-0.010065952
5	0xbd189bb5	-0.03725787
6	0xbd23f30c	-0.04002671
7	0xbdabaacc	-0.08382186
8	0xbd6c9a78	-0.0577645
9	0x3cf7dfc9	0.030258076
10	0x3dfdae4b	0.12386759
11	0x3db96e9b	0.090542994
12	0xba0e9aa3	-0.0005439913
13	0x3c983be4	0.018583246
14	0x3e2a0774	0.16604406
15	0xbdeb947e	-0.11502932
16	0xbc1e17cd	-0.009649229
17	0x3cfb6751	0.030688914
18	0x3be5de16	0.007015
19	0x3eb2d9f4	0.3493191
20	0x3db563f2	0.08856954
21	0xbb9a818b	-0.0047151498
22	0x3ddb6a72	0.10713662
23	0xbdc13274	-0.09433451
24	0xbd9d702d	-0.076874115
25	0x3db63340	0.08896494
26	0x3d5af022	0.053451665
27	0xbe339136	-0.17535862
28	0xb87ad19f	-5.979987e-05
29	0x3e14470f	0.14480232
30	0x3eb03598	0.3441589
31	0x3cdbca29	0.026829796
32	0xbb96dc14	-0.004603872
33	0x3ddc7b50	0.107657075
34	0xbc8b093a	-0.016972173
35	0xbd3ce5c1	-0.046117548
36	0x3caaaf29	0.020835476
37	0xbb501526	-0.0031750887
38	0x3dbda284	0.09259513
39	0xb603c9dd	-1.963802e-06
40	0x3da27c59	0.07933874
41	0x3e57ced2	0.2107499
42	0x3d9b3f7c	0.07580468
43	0xbc92cbca	-0.01791944
44	0x3d0f1d8f	0.0349403
45	0x3ce3fcc2	0.027830485
46	0x3cab8ee8	0.020942166
47	0x3d49efc5	0.049300928
48	0x3be6a423	0.0070386096
49	0xbc3aad73	-0.011393893
50	0xbc307b70	-0.010771617
51	0x3da51766	0.080611035
52	0x3df6dec0	0.12054205
53	0xbb6f6bf5	-0.0036532853
54	0xbbab0f85	-0.005220356
55	0xbd40a296	-0.047030054
56	0xbdcf9a64	-0.101368695
57	0x3e5c5a05	0.21518715
58	0xb4e222f9	-4.2121226e-07
59	0x3d5b2209	0.053499255
60	0xbd94b32b	-0.07260736
61	0x3dd56e45	0.10421423
62	0xa8d7edc4	-2.397291e-14
63	0xbdada530	-0.08478773

embedding_t_w.weight f4 [1, 8]
0	0xbe0836d2	-0.13302162
1	0xbdc65faa	-0.09686215
2	0xbe24f0a2	-0.16107419
3	0xbc26d313	-0.01018216
4	0xbe15e01c	-0.14636272
5	0xbd87e968	-0.066363156
6	0xbe0dfee9	-0.13866772
7	0xbc57b24c	-0.013165068

lstm.weight_ih f4 [512, 65]
0	0xbc068622	-0.008210691
1	0x3bb0ad87	0.00539178
2	0xbb8c7698	-0.0042865984
3	0xbcf29843	-0.02961362
4	0x3464e46c	2.1317254e-07
5	0xbb5272d7	-0.0032111907
6	0xbc64a387	-0.013955004
7	0xbb896aef	-0.0041936557
8	0xbc157b83	-0.009123686
9	0xbc70c6c2	-0.014695825
10	0x3a719ed2	0.00092170865
11	0xbd21ef2d	-0.039534736
12	0xb8157484	-3.5632882e-05
13	0xbbbf23ae	-0.005833111
14	0xbc825a74	-0.015912272
15	0xbc962d5a	-0.018332172
16	0xb70e08bc	-8.465893e-06
17	0xbc1d5501	-0.009602786
18	0xbbba0efd	-0.0056780563
19	0xbd28a52d	-0.04117315
20	0xbc442245	-0.011971061
21	0x37131cda	8.7686e-06
22	0x3b059475	0.0020382677
23	0xbc658766	-0.014009332
24	0xbc753b62	-0.014967771
25	0xbd209d20	-0.039212346
26	0xbbf4499b	-0.0074550635
27	0xbc832630	-0.01600942
28	0xb73a9c66	-1.1122878e-05
29	0xbc1158a1	-0.008871228
30	0xbd56ea8d	-0.05246978
31	0xbc8d41cd	-0.01724329
32	0xbbd6cd5f	-0.006555244
33	0xbc334ece	-0.0109440815
34	0xbb75a3fe	-0.003748178
35	0xbcba9945	-0.022778163
36	0xbbfa247d	-0.0076337443
37	0x372626c4	9.903397e-06
38	0xbc9bc192	-0.0190132
39	0x37930caa	1.7529663e-05
40	0xbbf6c9da	-0.007531387
41	0xbd620892	-0.055183955
42	0xbb7c438b	-0.0038492407
43	0x25997bc2	2.662513e-16
44	0xbbb17e28	-0.0054166503
45	0xbb4a74da	-0.0030892403
46	0xbb1becea	-0.0023792335
47	0xbbc56b00	-0.0060247183
48	0xbb694317	-0.0035592967
49	0xbb234707	-0.0024914162
50	0xbc9d93b1	-0.019235464
51	0xbd1b1227	-0.03785911
52	0xbc12c04a	-0.008956978
53	0x11f85414	3.9179318e-28
54	0x375b9d64	1.3090063e-05
55	0x3bd3090c	0.0064402875
56	0x3c09702e	0.008388562
57	0xbd007cd0	-0.03136903
58	0xb6d7c1fc	-6.430082e-06
59	0xbca9a853	-0.020710146
60	0xbbca7c09	-0.006179337
61	0xbb582b24	-0.0032984698
62	0x39cdf357	0.0003928195
63	0xbc7a7491	-0.015286581
64	0xbadbf8ec	-0.0016782559
65	0xbc546878	-0.01296436
66	0x3cbbaa20	0.02290827
67	0x3c7614fc	0.0150196515
68	0xbd63bb37	-0.055598464
69	0xb0bffbec	-1.396868e-09
70	0xb9e65894	-0.00043935014
71	0xbc32a62d	-0.010903877
72	0x3c5b3103	0.0133783845
73	0xba6481c2	-0.0008716845
74	0xbd44b53e	-0.04802441
75	0x3cce11c4	0.025154956
76	0xbdb2c578	-0.087290704
77	0xb6c1b4f0	-5.772912e-06
78	0xbd200926	-0.039071225
79	0xbd820a76	-0.063496515
80	0xbd5246da	-0.0513371
81	0xb73f8b86	-1.14169725e-05
82	0x3b93651e	0.004498138
83	0x3d933528	0.07187873
84	0xbd89aeb5	-0.06722776
85	0xbccf4cf7	-0.025305254
86	0xa6b1ae2c	-1.2329052e-15
87	0xb7b72e20	-2.1836779e-05
88	0xbd5713f8	-0.052509278
89	0xbd315cec	-0.043301508
90	0xbdbaed02	-0.09127237
91	0x3cbae657	0.022814913
92	0xbd231e83	-0.03982402
93	0x0001ab2a	1.53238e-40
94	0xbc73f7fb	-0.014890666
95	0xbdf1bc5b	-0.11803504
96	0xbd6092d7	-0.054827537
97	0xba8d356a	-0.0010773365
98	0xbba8a7d6	-0.0051469607
99	0xb95bf164	-0.00020975393
100	0xbd9563f6	-0.07294457
101	0x3cb57536	0.022150617
102	0xb6e68e24	-6.8710815e-06
103	0xbd2a0361	-0.04150713
104	0xb49c4d0c	-2.9113323e-07
105	0xbd0bebc3	-0.034160387
106	0xbe17d0ae	-0.14825699
107	0xbdba42b6	-0.09094755
108	0xa919f322	-3.418371e-14
109	0x3b640a88	0.0034796316
110	0xbc7963fa	-0.01522159
111	0x3bc44389	0.005989496
112	0xbc9f9874	-0.019481875
113	0xb936c669	-0.00017430786
114	0xbbcc591c	-0.0062362086
115	0xbce9779a	-0.028499413
116	0xbdb8d0a5	-0.09024171
117	0x3bfd03e0	0.007721409
118	0xa114ba40	-5.039085e-19
119	0xb4b18f9a	-3.3073303e-07
120	0xbb3b7364	-0.0028602714
121	0x3c9ed303	0.019387728
122	0xbdc9e740	-0.098585606
123	0xb7e89ff8	-2.7731046e-05
124	0xbd0eeb86	-0.03489258
125	0x3d1201b8	0.03564617
126	0xbda864fd	-0.08222387
127	0x32db6264	2.5539698e-08
128	0xbca2a93f	-0.019856093
129	0xbac8f4c3	-0.0015331734
130	0x3dac5916	0.08415429
131	0xbdb12bc2	-0.08650924
132	0x3d23aa81	0.039957527
133	0xbcab5a65	-0.020917127
134	0x396f4cc3	0.00022821412
135	0x3cdfbca5	0.027311632
136	0x3d12008f	0.035645064
137	0xbd280c2f	-0.041027244
138	0x3d3b6102	0.04574681
139	0xbea42224	-0.32057297
140	0x3d9f1cae	0.07769142
141	0x3e07d752	0.13265732
142	0xb2b862b8	-2.1465311e-08
143	0xbd4d12fe	-0.05006694
144	0xbe5da51b	-0.21645014
145	0x3e00210d	0.12512608
146	0xb6d940c0	-6.474642e-06
147	0xbcd933b8	-0.02651392
148	0xbd9f3c34	-0.07775155
149	0xbd860564	-0.06543997
150	0x3cb5227b	0.022111168
151	0x0b9b7000	5.987235e-32
152	0xbe01fb02	-0.12693408
153	0x3d851af5	0.06499282
154	0x3d655b18	0.055995077
155	0x3ea45cfb	0.32102188
156	0x3d846bf6	0.064659044
157	0xbd409dc9	-0.047025476
158	0x00016584	1.28252e-40
159	0x3d5b0a83	0.05347682
160	0x3e541087	0.2070943
161	0x3e29da49	0.16587175
162	0xbc8302c7	-0.015992535
163	0x3e15b9ad	0.14621611
164	0x3c63283e	0.013864575
165	0xbd81093f	-0.06300592
166	0xbd9fb9f8	-0.077991426
167	0xb6bcfb64	-5.6321023e-06
168	0xbe356df8	-0.17717731
169	0x3b27e164	0.002561652
170	0xbe631cab	-0.22178905
171	0x3de206f0	0.110364795
172	0xbe15c303	-0.14625172
173	0x39f6540e	0.00046983402
174	0xbd28db68	-0.041224867
175	0xbc743a0b	-0.014906417
176	0xbd47bc43	-0.048763525
177	0xbc1cb7c5	-0.009565298
178	0xbd369156	-0.044572197
179	0xbcbe25a4	-0.023211308
180	0x3e11d93f	0.14243029
181	0x3e65e1d1	0.22449423
182	0x3d4c43c3	0.04986931
183	0x39cb2970	0.0003875005
184	0x388c4dc8	6.690208e-05
185	0x3d4fdeaa	0.05074946
186	0xbdd8051b	-0.10547849
187	0x3e6bc4a0	0.23024225
188	0xb72e2c28	-1.0381489e-05
189	0x3e86e6cb	0.26347956
190	0xbda5d4c2	-0.08097221
191	0xbdf71c54	-0.1206595
192	0xbb2c7f18	-0.002632087
193	0x3d7b38a7	0.061333325
194	0xbd135757	-0.035971966
195	0x3992e96c	0.00028021203
196	0x3cdf5009	0.027259843
197	0xbca769e9	-0.020436244
198	0x3e1465c9	0.14491953
199	0xa10f217c	-4.84946e-19
200	0xbc83f920	-0.016110003
201	0x3d179845	0.03701045
202	0xb9c56551	-0.00037650255
203	0x3d4de5be	0.050267927
204	0xbdab35ed	-0.08359895
205	0xbd051b70	-0.03249687
206	0x3ea0a0df	0.31372735
207	0xb66defc8	-3.5455323e-06
208	0xbdddbc6c	-0.10826954
209	0xbe26dd99	-0.1629547
210	0x3e075297	0.132151
211	0x37849816	1.5806447e-05
212	0xbd19f608	-0.03758815
213	0x3e213655	0.15743382
214	0xbe499303	-0.19684987
215	0xbca3a86f	-0.019977776
216	0x2e80bc53	5.854219e-11
217	0x3cb1815a	0.021668125
218	0x3e1c55fd	0.15267177
219	0x3df4ce6e	0.11953436
220	0x3dd84c56	0.10561435
221	0xbe11f525	-0.14253671
222	0x3d77b0fc	0.06047152
223	0x8000d9ec	-7.8176e-41
224	0x3cc2227f	0.02369809
225	0x3dd2f87c	0.10301301
226	0x3dc32e34	0.09530297
227	0xbcc18c3b	-0.023626437
228	0xbceef2e6	-0.029168557
229	0xbc6b5611	-0.014363782
230	0xbe0424e3	-0.12904696
231	0xbcc89f28	-0.024489954
232	0xb68dfeec	-4.2318043e-06
233	0x3d50a2f4	0.050936654
234	0xb765485c	-1.3666311e-05
235	0xbd026d4c	-0.031842515
236	0x3eaeb668	0.3412354
237	0xbe92387c	-0.2855872
238	0xb982f2ea	-0.00024976517
239	0xbd94349e	-0.072365984
240	0x3c63d303	0.01390529
241	0xbd88e4d7	-0.06684273
242	0x3d54e54d	0.05197649
243	0x3c9f9921	0.019482197
244	0xbd032d64	-0.03202571
245	0x3e47ef77	0.19524942
246	0x3dc6592f	0.09684979
247	0xbdfd5ad6	-0.12370841
248	0xba283b01	-0.00064174837
249	0xb733b098	-1.0710348e-05
250	0xbc40cb71	-0.011767254
251	0x3d203208	0.039110214
252	0x3cb89e03	0.022536283
253	0x36cd3516	6.115656e-06
254	0x3da7858b	0.08179768
255	0x3c64d41d	0.013966587

lstm.weight_hh f4 [512, 128]
0	0xbb7ef7c3	-0.0038905002
1	0xbc0dd70c	-0.008657228
2	0xbc966a22	-0.018361155
3	0x3be2c63c	0.006920604
4	0xbb904062	-0.0044022063
5	0x39f13fd3	0.00046014655
6	0x3c54904b	0.012973855
7	0xbc07d997	-0.008291624
8	0xbaad0f29	-0.0013203371
9	0xbb43a446	-0.0029852553
10	0xbc034e45	-0.008014266
11	0x3b9c5218	0.0047705285
12	0x3bc52535	0.0060163983
13	0xbc002d0a	-0.007823238
14	0x3bce95a6	0.0063044606
15	0xbbc060bf	-0.005870908
16	0x3b4ffee4	0.003173762
17	0x3be1667a	0.0068786712
18	0x3b826bfd	0.0039801584
19	0xbb41425a	-0.0029489012
20	0x3b1c19d9	0.0023819117
21	0xbbade743	-0.0053071096
22	0xb9442a32	-0.00018707736
23	0xb801a730	-3.0911702e-05
24	0xbb1fd2a8	-0.0024387036
25	0x3bbb8ea8	0.005723793
26	0xbb21f567	-0.0024712922
27	0x3a961b2b	0.0011452188
28	0x3b9c8310	0.004776366
29	0xbbc137bd	-0.005896537
30	0x39e2de6e	0.00043271802
31	0xbb8a6716	-0.0042237146
32	0xbb7f83e8	-0.0038988534
33	0xb93ad5da	-0.00017818008
34	0x3bdcd145	0.006738814
35	0xbbf85c61	-0.007579372
36	0xbb84aa8b	-0.0040486506
37	0xbb58c39b	-0.0033075574
38	0x396a21d3	0.0002232858
39	0xbbc5c467	-0.006035376
40	0x3d2de265	0.042452235
41	0xbb8a061e	-0.004212155
42	0x3b0aa71e	0.0021156739
43	0xbb3d75f7	-0.0028909424
44	0xbb54c906	-0.0032468452
45	0x3b74ae60	0.003733538
46	0x3c078f84	0.008273963
47	0x3b5a05e6	0.0033267676
48	0x3c53570f	0.012899174
49	0x3c845157	0.016152067
50	0xbb8f46f4	-0.004372472
51	0xbb813c67	-0.003943968
52	0x3bbafc18	0.0057063214
53	0x3bb134dc	0.0054079127
54	0x3a3ff765	0.00073229364
55	0x3b497852	0.0030741883
56	0xbb843aaf	-0.004035316
57	0xbbfc30d4	-0.0076962505
58	0xbbed98a3	-0.0072508617
59	0xbbb6bc7e	-0.0055766692
60	0x3b53ad28	0.0032299254
61	0x3c3fc757	0.011705241
62	0xbb4b5635	-0.0031026725
63	0xbb7e5866	-0.0038810014
64	0xbb8c5571	-0.0042826463
65	0x3ba3c3ca	0.004997705
66	0x3a54aa3a	0.0008112524
67	0x3b3ad48d	0.0028508038
68	0xbbea7f38	-0.007156279
69	0x3bce51d3	0.0062963753
70	0x3be08252	0.006851473
71	0x3b8a358e	0.00421781
72	0xbc6d246e	-0.014474018
73	0x3ab7ef14	0.0014033043
74	0xbb4d873d	-0.0031361126
75	0xbaf0c83d	-0.0018370223
76	0x3b90243e	0.0043988517
77	0xbcdbc5d6	-0.026827734
78	0xbb9a62f7	-0.0047115046
79	0x3b73a5e1	0.003717773
80	0x39cb477e	0.00038772443
81	0x3958626e	0.00020636033
82	0xbbabbd44	-0.005241068
83	0x3c2341c4	0.00996441
84	0xbb2d22bc	-0.0026418408
85	0x3bb78849	0.0056009633
86	0x3c184f7c	0.009296294
87	0x3b766062	0.003759407
88	0x3cc1d8ae	0.023662891
89	0x3b622c1b	0.0034511152
90	0xbbef26c7	-0.007298324
91	0x3a83945f	0.0010038725
92	0x3b6c325c	0.0036040759
93	0x3aac5398	0.0013147471
94	0x3c4cb1b1	0.012493537
95	0xbbfa0095	-0.007629464
96	0x3abf89bd	0.0014613193
97	0xb8c238e8	-9.2612405e-05
98	0x3b3fa5a1	0.002924301
99	0xbbc22a26	-0.0059254346
100	0xbc107d26	-0.0088189
101	0xbc708973	-0.014681208
102	0x3bf70d5a	0.0075394334
103	0x3d8e5614	0.06950012
104	0x3978afaa	0.00023716563
105	0x3bf8e9b2	0.007596218
106	0xbb805bac	-0.003917178
107	0x3b40bf73	0.0029410988
108	0xbbd3a4e3	-0.006458865
109	0x39b393a7	0.0003425155
110	0x3bd580a8	0.006515581
111	0xbc0b8764	-0.008516166
112	0x3b317c38	0.0027082097
113	0x3c0d35ac	0.008618753
114	0xbbe38a5f	-0.0069439854
115	0x3b1794d3	0.0023129478
116	0x3c1249e1	0.008928747
117	0xbbd49a7c	-0.0064881425
118	0xba08156e	-0.00051911816
119	0xbb443c84	-0.0029943297
120	0x3b0cb1e8	0.0021468345
121	0x3b026a20	0.0019899681
122	0x3bd0d190	0.006372638
123	0xbc2c5fe8	-0.010520913
124	0xbb5c7443	-0.0033638633
125	0x3b1c16ed	0.0023817376
126	0x3ab3b983	0.0013711903
127	0xbbef5bc7	-0.007304642
128	0x39ee17fc	0.00045412767
129	0xbbffd063	-0.007806824
130	0xbca8ca7b	-0.020604363
131	0xbd4c107f	-0.04982042
132	0xbc985cb9	-0.018598901
133	0xbb50baf5	-0.0031849716
134	0x3ceb5573	0.028727269
135	0xbc52d402	-0.012867929
136	0xba1e3890	-0.000603565
137	0xbbc27385	-0.005934181
138	0xbc1ea978	-0.009683959
139	0x3bcd87d2	0.0062722946
140	0x3bfaa2be	0.007648795
141	0xbcd2e370	-0.025743216
142	0x3c1d1795	0.009588142
143	0x3b14fbb0	0.0022733025
144	0xbb879bb2	-0.0041384334
145	0x3c15f5f8	0.009152882
146	0x3bac2f2e	0.0052546477
147	0xbad795f6	-0.001644789
148	0x3b0bc77d	0.002132862
149	0xbc98d01a	-0.018653918
150	0xbc44447b	-0.011979218
151	0xbbc2f1fd	-0.0059492574
152	0xbb1c887e	-0.0023885067
153	0x3c27c6d0	0.010240272
154	0x3bedf2f7	0.0072616297
155	0xba2afa37	-0.000652227
156	0xbc0d3813	-0.008619326
157	0xbbd07a2c	-0.0063622203
158	0xbb737104	-0.003714622
159	0xbb27b8bc	-0.0025592288
160	0x3b2ea520	0.0026648715
161	0xbb8e2f83	-0.00433916
162	0x3c4b80b7	0.012420825
163	0xbc2f056a	-0.010682443
164	0xbc956187	-0.018234981
165	0xbb8acabc	-0.0042355936
166	0x3ca43874	0.02004645
167	0xbc3d5dc3	-0.011557999
168	0x3e2089db	0.15677588
169	0xbbd1af88	-0.006399099
170	0x38e2d800	0.00010816753
171	0x3b900623	0.004395263
172	0xbc56b54d	-0.013104749
173	0x3b457f0c	0.003013554
174	0x3c9e5d27	0.019331528
175	0x3b515391	0.0031940679
176	0x3d22c6b0	0.039740264
177	0x3d7b9353	0.061419796
178	0xbb678d46	-0.0035332008
179	0xbbf14d7c	-0.007363973
180	0x3c4f152b	0.012639324
181	0x3c14e2f1	0.00908731
182	0xbae863b0	-0.0017729905
183	0x3c32ff93	0.010925191
184	0x3b07d7d9	0.002072802
185	0xbc6f8866	-0.014619922
186	0xbc21239e	-0.009835152
187	0xbb55a320	-0.003259845
188	0xbbb0813e	-0.0053865006
189	0x3c8e25cd	0.01735201
190	0xbca4048d	-0.020021701
191	0xbba81c57	-0.0051303315
192	0xbb8ce49d	-0.0042997138
193	0x3b8f5156	0.0043737097
194	0xbb8f6db9	-0.0043770936
195	0xba281fd8	-0.00064134365
196	0xbc279edb	-0.010230745
197	0xbba1618f	-0.00492496
198	0x3c76cb36	0.015063098
199	0x3bb912be	0.005647986
200	0xbda8f4b7	-0.08249801
201	0x3b7b7ec7	0.0038375126
202	0x3ba8c1cc	0.0051500555
203	0x3aa28988	0.0012400607
204	0x3c110da9	0.0088533545
205	0xbda1579d	-0.07878039
206	0x3c5713cc	0.013127279
207	0x3c1e5482	0.009663703
208	0x3bd6f026	0.0065593896
209	0xbb9ea400	-0.0048413277
210	0xbc8dca54	-0.017308392
211	0x3c6b1ebf	0.014350592
212	0x3b50dcf7	0.0031869987
213	0x3d4a0d5f	0.049329158
214	0x3cf46db3	0.029837465
215	0xbb64ae6d	-0.0034894005
216	0x3d6a7bfe	0.057247154
217	0x3b88862f	0.0041663866
218	0xbc0847a0	-0.008317858
219	0xbb6056b4	-0.0034231367
220	0x3ba3e24c	0.005001342
221	0x3c015fb3	0.007896352
222	0x3bd99e6b	0.0066411993
223	0xbc2777f0	-0.010221466
224	0xba1859b4	-0.00058117067
225	0xbab96c8c	-0.0014146729
226	0x3c85eddd	0.016348774
227	0xbc6ce438	-0.014458708
228	0xbc55fb3b	-0.013060386
229	0xbd1cd544	-0.038289323
230	0x3b85e75e	0.004086419
231	0x3e5fe65c	0.21865219
232	0xbbe661dc	-0.0070307087
233	0x3c23b84e	0.009992672
234	0xbc69e22b	-0.014275114
235	0x3c9773eb	0.018487891
236	0xbc8aed7d	-0.016958946
237	0x3bf4604b	0.007457768
238	0x3bd1e94e	0.006405986
239	0xbc09be5c	-0.008407202
240	0x3a9cfe00	0.0011977553
241	0x3c99ede8	0.0187902
242	0xbceb016c	-0.028687201
243	0xbb8eadd1	-0.0043542166
244	0x3cd999a6	0.026562523
245	0xbcb2276e	-0.021747317
246	0x3b9987c7	0.0046853754
247	0x3a9826d5	0.0011608253
248	0x3b23b029	0.0024976826
249	0x3c690a47	0.014223642
250	0x3cfcfe58	0.030883
251	0xbc543a3a	-0.012953335
252	0xba8efa44	-0.0010908325
253	0x3c5a7d21	0.013335497
254	0xbc8c0b05	-0.017095098
255	0xbc7b1b93	-0.015326398

lstm.bias_ih f4 [512]
0	0xbe07cc15	-0.13261445
1	0xbe56493e	-0.20926377
2	0x3ddceee8	0.10787755
3	0xbe012b86	-0.12614259
4	0xbe3d519e	-0.18488166
5	0xbe12756c	-0.14302605
6	0x3ed8006e	0.42187828
7	0xbe0eb438	-0.13935935
8	0xbe1ba516	-0.15199694
9	0xbe129c9f	-0.14317559
10	0xbe06cc39	-0.13163842
11	0xbe14ecac	-0.14543408
12	0xbe11c50d	-0.14235325
13	0xbe1741c9	-0.14771189
14	0xbe07c664	-0.13259274
15	0xbe0ab039	-0.13543786
16	0xbe28d493	-0.1648734
17	0xbe0e5b29	-0.13901962
18	0xbe123171	-0.14276673
19	0xbe0d3d6d	-0.13792963
20	0xbe14b665	-0.14522703
21	0xbe80d6fa	-0.25164014
22	0xbe437045	-0.19085796
23	0xbe0fb363	-0.14033274
24	0xbe1178a9	-0.14206184
25	0xbe11c31e	-0.14234588
26	0xbe31f64f	-0.17379116
27	0xbe134791	-0.14382769
28	0xbe1b3a20	-0.15158892
29	0xbe118b5b	-0.14213316
30	0xbe0fb409	-0.14033522
31	0xbe1e3e9c	-0.15453571
32	0xbe1607b6	-0.14651379
33	0xbe5610e3	-0.2090488
34	0xbe0e193d	-0.13876815
35	0xbde738f3	-0.11290159
36	0xbe0d2128	-0.1378218
37	0xbe20f700	-0.15719223
38	0xbd911d2a	-0.07085641
39	0xbe08e5c9	-0.13368906
40	0x3ef34c05	0.47518936
41	0xbdf9ddb7	-0.12200492
42	0xbe0fa6db	-0.14028494
43	0xbe2ddc8c	-0.16978663
44	0xbdf62f14	-0.12020698
45	0xbe091d86	-0.13390169
46	0xbe0e278d	-0.13882275
47	0xbe178595	-0.14797051
48	0xbe1d6f39	-0.1537446
49	0xbdaf7f88	-0.085692465
50	0xbe31bc3c	-0.17356962
51	0xbe0c5066	-0.13702545
52	0xbe1ad789	-0.15121283
53	0xbe122f14	-0.14275771
54	0xbe39358b	-0.18086831
55	0xbe0cba52	-0.1374295
56	0xbe2f236b	-0.17103355
57	0xbe0ce4f4	-0.13759214
58	0xbe24db58	-0.16099298
59	0xbe09fc3f	-0.1347513
60	0xbe5b5e30	-0.21422648
61	0xbe770443	-0.2412272
62	0xbe151447	-0.14558516
63	0xbe5210f6	-0.20514283
64	0xbe465cc6	-0.19371328
65	0x3ea66bff	0.3250427
66	0xbe221569	-0.1582848
67	0xbe48a757	-0.19595085
68	0xbe286278	-0.16443813
69	0xbe04d20b	-0.1297075
70	0xbe209a1b	-0.15683787
71	0xbe0d84ab	-0.1382014
72	0x3d53a643	0.05167223
73	0xbe01f730	-0.12691951
74	0xbe25a20d	-0.16175099
75	0xbe11ec85	-0.14250381
76	0xbe0d1b1d	-0.13779874
77	0x3f046571	0.5171729
78	0xbe12ee14	-0.14348632
79	0xbe17ac32	-0.14811781
80	0xbe182ca2	-0.14860776
81	0xbe1972e5	-0.14985235
82	0xbe0822fe	-0.13294598
83	0xbe33af69	-0.17547382
84	0xbe13c95f	-0.14432286
85	0xbcfe121a	-0.03101449
86	0xbe0abb42	-0.13547996
87	0xbe265909	-0.16244902
88	0x3eef499f	0.46735856
89	0xbe0e4841	-0.1389475
90	0xbe2d5a94	-0.16929084
91	0xbe3d9ae9	-0.18516125
92	0xbe3dd953	-0.18539934
93	0xbe08136d	-0.1328866
94	0xbdb12268	-0.086491406
95	0xbe0216e1	-0.1270404
96	0xbe1e40f4	-0.15454465
97	0xbe011135	-0.1260422
98	0xbde28157	-0.11059826
99	0xbe15fa84	-0.14646345
100	0xbe0b4a5b	-0.13602583
101	0xbe031ccb	-0.12803952
102	0xbe088558	-0.13332117
103	0x3eeeecea	0.46665126
104	0xbdff3e81	-0.124630935
105	0xbe0e8bba	-0.13920489
106	0xbe08b811	-0.13351466
107	0xbe0f0748	-0.13967621
108	0xbe0b190b	-0.13583772
109	0xbe225820	-0.1585393
110	0xbe16799b	-0.14694826
111	0xbe197334	-0.14985353
112	0xbe0f3aaf	-0.1398723
113	0x3eca1cad	0.39475003
114	0xbe83c512	-0.2573629
115	0xbe2bdca8	-0.16783392
116	0xbe163b2d	-0.14671011
117	0xbe05b6f9	-0.1305808
118	0xbe135e86	-0.14391527
119	0xbe2f6900	-0.17129898
120	0xbe18935a	-0.1489996
121	0xbe04c07a	-0.12964049
122	0xbe1262fb	-0.1429557
123	0xbddf6723	-0.10908344
124	0xbe2aeef6	-0.16692719
125	0xbdfcc060	-0.1234138
126	0xbe434460	-0.19069052
127	0xbe12a652	-0.14321259
128	0xbdbc72f5	-0.09201614
129	0xbe422f46	-0.18963346
130	0x3e15821e	0.14600417
131	0xbe8309c3	-0.25593385
132	0xbdd51f6f	-0.10406386
133	0xbd9b9c1d	-0.075981356
134	0x3d6712ba	0.056414343
135	0xbda7915e	-0.081820235
136	0xbdd1e06a	-0.10247882
137	0xbe39eb47	-0.18156157
138	0xbda449b2	-0.08021869
139	0xbdd1be68	-0.10241395
140	0xbda1b93b	-0.07896658
141	0xbe679367	-0.22614823
142	0xbdb23ec7	-0.0870338
143	0xbd9bfb1a	-0.07616253
144	0xbdb5ca75	-0.08876506
145	0xbde36d0c	-0.111047834
146	0xbdc70da4	-0.097193986
147	0xbdd5f322	-0.104467645
148	0xbdcbd288	-0.09952265
149	0xbe6f60c8	-0.23376763
150	0xbe919e05	-0.28440872
151	0xbdc91b4e	-0.09819661
152	0xbdcae328	-0.09906608
153	0xbdd70ebb	-0.105008565
154	0xbe02c63b	-0.12770931
155	0xbdbeac7e	-0.09310244
156	0xbdcffd62	-0.10155751
157	0xbda0c354	-0.07849756
158	0xbd9fc0eb	-0.07800468
159	0xbdccd1bc	-0.10000941
160	0xbdc101f2	-0.09424199
161	0xbe1ada0d	-0.15122242
162	0xbdb86e44	-0.090054065
163	0xbd4fc63d	-0.050726164
164	0xbdb1225f	-0.08649134
165	0xbdcff4c2	-0.10154106
166	0xbde2dff6	-0.110778734
167	0xbd8f17ba	-0.06986947
168	0x3ea050ae	0.31311554
169	0xbd9b8f12	-0.07595648
170	0xbd9f0445	-0.07764486
171	0xbdbb4956	-0.09144847
172	0xbd9362fa	-0.07196613
173	0xbdb3c279	-0.08777327
174	0xbdc0f57f	-0.09421825
175	0xbdf3f7cb	-0.11912497
176	0xbe54a387	-0.20765506
177	0xbe4b9326	-0.19880351
178	0xbdb8419c	-0.08996889
179	0xbda65f8d	-0.081236936
180	0xbdb1fd8c	-0.08690938
181	0xbdd60413	-0.10449996
182	0xbd9737f3	-0.07383718
183	0xbd9689a5	-0.07350472
184	0xbdb5f64d	-0.08884869
185	0xbdd5dcdf	-0.104425184
186	0xbdb4176e	-0.08793531
187	0xbd99599f	-0.07487797
188	0xbdcb860c	-0.09937677
189	0xbe9fc930	-0.3120818
190	0xbdc2032a	-0.0947326
191	0xbdf22c52	-0.1182486
192	0xbdd92e39	-0.106045194
193	0xbde5f278	-0.11227888
194	0xbddc13c9	-0.10745961
195	0xbe001326	-0.12507305
196	0xbe070db1	-0.13188817
197	0xbda28f06	-0.07937436
198	0xbde41ecb	-0.11138686
199	0xbdb9d136	-0.09073107
200	0xbe72ac0f	-0.23698448
201	0xbd95e476	-0.07318966
202	0xbdb24e13	-0.08706298
203	0xbdc18bd5	-0.09450499
204	0xbda65258	-0.081211746
205	0x3e8b0a49	0.27156284
206	0xbdef78cf	-0.11692964
207	0xbdb860da	-0.09002848
208	0xbdb6401e	-0.08898948
209	0xbdb0fdd9	-0.086421676
210	0xbd9940ed	-0.07483087
211	0xbe2ac619	-0.16677131
212	0xbdaebf56	-0.08532588
213	0xbd8151a2	-0.06314398
214	0xbe42b5c2	-0.19014648
215	0xbdc93c0c	-0.09825906
216	0x3e82e37e	0.25564188
217	0xbd9f4604	-0.07777026
218	0xbe0658b0	-0.13119769
219	0xbdd3a76c	-0.103346676
220	0xbe1ac1d4	-0.15113002
221	0xbd99b381	-0.07504941
222	0xbea9b7c4	-0.33148015
223	0xbdb1fdc6	-0.086909816
224	0xbdd4d7fa	-0.10392757
225	0xbd9f0d9a	-0.07766266
226	0xbe1f8f24	-0.15581948
227	0xbdc510f5	-0.09622375
228	0xbe17729d	-0.14789815
229	0xbe505a3e	-0.20346925
230	0xbdd417e0	-0.10356116
231	0x3bba5d84	0.0056874175
232	0xbda24d31	-0.07924879
233	0xbdc61729	-0.09672386
234	0xbdc99c72	-0.09844293
235	0xbe10a037	-0.14123617
236	0xbda549fc	-0.08070752
237	0xbda13191	-0.07870782
238	0xbda0bc60	-0.0784843
239	0xbdf70c1e	-0.12062858
240	0xbdda13fd	-0.10648344
241	0x3d6a418f	0.057191428
242	0xbeafad35	-0.34311834
243	0xbdbe3487	-0.092873625
244	0xbe273055	-0.16327031
245	0xbe16077e	-0.14651296
246	0xbdbadeda	-0.09124537
247	0xbdd5dd3b	-0.10442587
248	0xbdcaa01f	-0.09893822
249	0xbda3c9ef	-0.079975
250	0xbd9c5a20	-0.076343775
251	0xbe4492cb	-0.19196622
252	0xbd99ddd7	-0.07513016
253	0xbdc7283f	-0.09724473
254	0xbeb34d90	-0.35020113
255	0xbdd13e13	-0.10216918

lstm.bias_hh f4 [512]
0	0xbe07cc21	-0.13261463
1	0xbe713db9	-0.23558702
2	0x3d020aae	0.031748466
3	0xbdc10a9b	-0.09425851
4	0xbe46bb44	-0.19407374
5	0xbe12756f	-0.1430261
6	0x3ede0f7b	0.43371186
7	0xbe0eb3e4	-0.1393581
8	0xbe1bbd70	-0.15208983
9	0xbe2a5cda	-0.16636983
10	0xbe06cc39	-0.13163842
11	0xbe14ecb5	-0.14543422
12	0xbe11c508	-0.14235318
13	0xbdee5d77	-0.11638921
14	0xbe07c659	-0.13259257
15	0xbe0ab039	-0.13543786
16	0xbe28d3d5	-0.16487058
17	0xbe0e58f3	-0.13901119
18	0xbe1231bc	-0.14276785
19	0xbe0d3d90	-0.13793015
20	0xbe14b66a	-0.1452271
21	0xbe793c59	-0.24339427
22	0xbdfee5bb	-0.12446161
23	0xbe0fb35b	-0.14033262
24	0xbe11790a	-0.14206329
25	0xbe11c319	-0.1423458
26	0xbe2cb554	-0.16866046
27	0xbe13478e	-0.14382765
28	0xbe1b39f0	-0.1515882
29	0xbe118b52	-0.14213303
30	0xbe0fb400	-0.14033508
31	0xbe1e3e27	-0.15453397
32	0xbe160a1a	-0.14652291
33	0xbe5a5fdd	-0.21325631
34	0xbe0e193d	-0.13876815
35	0xbde73904	-0.11290172
36	0xbe0d2126	-0.13782176
37	0xbe20f923	-0.15720038
38	0xbd964dd8	-0.07339066
39	0xbe08e5ce	-0.13368914
40	0x3ef2dfb3	0.47436294
41	0xbdf9ddbb	-0.12200495
42	0xbe0fa6cb	-0.1402847
43	0xbe2de00d	-0.1698
44	0xbdf62f18	-0.12020701
45	0xbe091d86	-0.13390169
46	0xbe0e282e	-0.13882515
47	0xbe178a4e	-0.14798853
48	0xbe13cf1b	-0.14434473
49	0xbda23572	-0.0792035
50	0xbe31ba3f	-0.17356203
51	0xbe0c4fd3	-0.13702326
52	0xbe1ad74d	-0.15121193
53	0xbe122f51	-0.14275862
54	0xbe391550	-0.18074536
55	0xbe0cbada	-0.13743153
56	0xbe2f23a0	-0.17103434
57	0xbe0cde36	-0.13756642
58	0xbe24daf2	-0.16099146
59	0xbe09fc2c	-0.13475102
60	0xbe5e7730	-0.21725154
61	0xbe9dc00b	-0.3081058
62	0xbe15143d	-0.14558502
63	0xbe586f46	-0.21136197
64	0xbe4991e1	-0.19684555
65	0x3ea43226	0.3206951
66	0xbe221313	-0.15827589
67	0xbe479ca7	-0.19493352
68	0xbe28e7f0	-0.16494727
69	0xbe04dbaf	-0.12974428
70	0xbe209b48	-0.15684235
71	0xbe0d84ac	-0.13820142
72	0x3d9722b3	0.07379665
73	0xbe01f730	-0.12691951
74	0xbe25a12d	-0.16174765
75	0xbe11ec59	-0.14250316
76	0xbe0d1b1a	-0.1377987
77	0x3f021191	0.50808054
78	0xbe12e0ec	-0.14343613
79	0xbe169ead	-0.14708968
80	0xbe182c9f	-0.14860772
81	0xbe1972d2	-0.14985207
82	0xbe0822f8	-0.1329459
83	0xbe2d4681	-0.16921426
84	0xbe13c95d	-0.14432283
85	0xbc0040e1	-0.007827968
86	0xbde2c4cd	-0.11072693
87	0xbe2710e9	-0.16315044
88	0x3eefce4b	0.46837077
89	0xbe0e01b8	-0.13867843
90	0xbe2ecf88	-0.17071354
91	0xbe3dc797	-0.18533169
92	0xbe36e5d6	-0.17861113
93	0xbe081364	-0.13288647
94	0xbdf38fa5	-0.118926324
95	0xbe02161f	-0.12703751
96	0xbe1e40a3	-0.15454344
97	0xbe011140	-0.12604237
98	0xbdf808a4	-0.12111023
99	0xbe15fa78	-0.14646327
100	0xbe09ed87	-0.13469516
101	0xbe26c252	-0.16285065
102	0xbe08832a	-0.13331285
103	0x3ed323b0	0.41238165
104	0xbdff4977	-0.12465184
105	0xbe0e8d93	-0.13921194
106	0xbe08b91c	-0.13351864
107	0xbdd8cea9	-0.10586292
108	0xbe0b190b	-0.13583772
109	0xbe22574c	-0.15853614
110	0xbe167a01	-0.14694978
111	0xbe19af76	-0.1500834
112	0xbe0f3adf	-0.13987301
113	0x3ec81a63	0.3908263
114	0xbe983291	-0.2972608
115	0xbe2bd2b4	-0.16779596
116	0xbe1a49b7	-0.15067182
117	0xbe292a68	-0.16520083
118	0xbe135e86	-0.14391527
119	0xbe2f48c7	-0.17117606
120	0xbe18935e	-0.14899966
121	0xbe04c07a	-0.12964049
122	0xbe126311	-0.14295603
123	0xbdf5e027	-0.12005644
124	0xbe2ac623	-0.16677146
125	0xbdfcc0e9	-0.12341482
126	0xbe233372	-0.15937594
127	0xbe12a595	-0.14320977
128	0xbdbc72f5	-0.09201614
129	0xbe44fd33	-0.19237213
130	0x3e0de5c3	0.13857178
131	0xbe8688ce	-0.2627625
132	0xbdd608af	-0.10450875
133	0xbd9b9c1d	-0.075981356
134	0x3dca4fb0	0.098784804
135	0xbda7915e	-0.081820235
136	0xbdd1e029	-0.10247833
137	0xbe387a58	-0.1801542
138	0xbda449b2	-0.08021869
139	0xbdd1be68	-0.10241395
140	0xbda1b93b	-0.07896658
141	0xbe685aaf	-0.22690843
142	0xbdb23ec7	-0.0870338
143	0xbd9bfb1a	-0.07616253
144	0xbdb5ca75	-0.08876506
145	0xbde36d0c	-0.111047834
146	0xbdc70da4	-0.097193986
147	0xbdd5f322	-0.104467645
148	0xbdcbd288	-0.09952265
149	0xbe658aeb	-0.22416274
150	0xbe97787a	-0.29584104
151	0xbdc91b4e	-0.09819661
152	0xbdcae328	-0.09906608
153	0xbdd70ebb	-0.105008565
154	0xbe02abe6	-0.12760887
155	0xbdbeac7e	-0.09310244
156	0xbdcffd62	-0.10155751
157	0xbda0c354	-0.07849756
158	0xbd9fc0eb	-0.07800468
159	0xbdccd1bc	-0.10000941
160	0xbdc101f2	-0.09424199
161	0xbe1adf73	-0.15124302
162	0xbdb86e44	-0.090054065
163	0xbd4fc63d	-0.050726164
164	0xbdb1225f	-0.08649134
165	0xbdcff4c6	-0.10154109
166	0xbdd81d92	-0.10552515
167	0xbd8f17ba	-0.06986947
168	0x3e9b1056	0.302859
169	0xbd9b8f12	-0.07595648
170	0xbd9f0445	-0.07764486
171	0xbdbb4956	-0.09144847
172	0xbd9362fa	-0.07196613
173	0xbdb3c279	-0.08777327
174	0xbdc0f57f	-0.09421825
175	0xbdf3f81d	-0.11912558
176	0xbe552ef0	-0.20818686
177	0xbe3ef11c	-0.18646663
178	0xbdb8419c	-0.08996889
179	0xbda65f8d	-0.081236936
180	0xbdb1fd8c	-0.08690938
181	0xbdd60413	-0.10449996
182	0xbd9737e2	-0.07383706
183	0xbd9689a5	-0.07350472
184	0xbdb5f64d	-0.08884869
185	0xbdd5dcdf	-0.104425184
186	0xbdb4176e	-0.08793531
187	0xbd99599f	-0.07487797
188	0xbdcaf4a8	-0.09909946
189	0xbea3981c	-0.31951988
190	0xbdc2032a	-0.0947326
191	0xbdf275e8	-0.11838895
192	0xbdd8e5d4	-0.10590711
193	0xbdf86dca	-0.121303156
194	0xbddc13c9	-0.10745961
195	0xbe00124a	-0.12506977
196	0xbe070960	-0.1318717
197	0xbda28f06	-0.07937436
198	0xbde41ecb	-0.11138686
199	0xbdb9d136	-0.09073107
200	0xbe31afcf	-0.17352222
201	0xbd95e476	-0.07318966
202	0xbdb24e13	-0.08706298
203	0xbdc18bd5	-0.09450499
204	0xbda65258	-0.081211746
205	0x3e8d1367	0.27553865
206	0xbdef78c1	-0.11692954
207	0xbdb876e0	-0.090070486
208	0xbdb6401e	-0.08898948
209	0xbdb0fdd9	-0.086421676
210	0xbd9940ed	-0.07483087
211	0xbe2adf10	-0.16686654
212	0xbdaebf56	-0.08532588
213	0xbd85f50e	-0.06540881
214	0xbe40403b	-0.18774502
215	0xbdc93ce8	-0.0982607
216	0x3e859785	0.26092163
217	0xbd9f46b0	-0.077771544
218	0xbe065c92	-0.1312125
219	0xbdd3a721	-0.10334612
220	0xbe1b2150	-0.15149426
221	0xbd99b381	-0.07504941
222	0xbebd4852	-0.3696924
223	0xbdb1fdc6	-0.086909816
224	0xbdd4d7fc	-0.10392758
225	0xbd9f0d9a	-0.07766266
226	0xbe1af154	-0.15131122
227	0xbdc510f5	-0.09622375
228	0xbe180b12	-0.14847973
229	0xbe6a5c5d	-0.22886796
230	0xbdd417e0	-0.10356116
231	0x3e0889b2	0.13333777
232	0xbda24d31	-0.07924879
233	0xbdc61729	-0.09672386
234	0xbdc99c76	-0.09844296
235	0xbe0af5cc	-0.13570327
236	0xbda549fc	-0.08070752
237	0xbda13191	-0.07870782
238	0xbda0bc60	-0.0784843
239	0xbdf70d2a	-0.12063058
240	0xbdda13fd	-0.10648344
241	0x3d26faf6	0.04076668
242	0xbeb04de2	-0.3443442
243	0xbdbe348a	-0.09287365
244	0xbe272a43	-0.16324715
245	0xbe0cac00	-0.13737488
246	0xbdbadeda	-0.09124537
247	0xbdd5ddc0	-0.10442686
248	0xbdcaa01f	-0.09893822
249	0xbda3c9ef	-0.079975
250	0xbd9c5a20	-0.076343775
251	0xbe453bb4	-0.19261056
252	0xbd99ddfa	-0.07513042
253	0xbdc7283f	-0.09724473
254	0xbece68b3	-0.40314254
255	0xbdd13e0f	-0.10216915

output_w.weight f4 [5, 128]
0	0x3c010292	0.007874148
1	0xbc101546	-0.0087941345
2	0xbd186ccf	-0.037213143
3	0x3d50fb43	0.05102087
4	0xbccb8bbf	-0.02484691
5	0x3be0cf4a	0.0068606483
6	0x3da43049	0.08017022
7	0xbb4876c6	-0.0030588373
8	0xbb9c4ca2	-0.0047698775
9	0x3c8c12a8	0.01709874
10	0xbb37c6c0	-0.0028042048
11	0xbb8211e4	-0.003969418
12	0x3c14fcbb	0.009093459
13	0x3dc66617	0.09687441
14	0xba1633a0	-0.00057297386
15	0xbbec2d87	-0.0072075757
16	0x3c9ca162	0.019119922
17	0xbb0ca9cc	-0.0021463512
18	0xbb9d2d77	-0.0047966796
19	0x3bb6b5a0	0.0055758506
20	0x3b72bad4	0.0037037628
21	0x3c1c0c3f	0.009524404
22	0x3de745be	0.11292599
23	0x3c19855b	0.009370173
24	0x3b439e7e	0.0029849107
25	0x39c181c0	0.000369085
26	0xbc278d09	-0.0102264965
27	0x3b5e1c88	0.0033891518
28	0x3bf1e638	0.0073821805
29	0xbb92c06a	-0.004478504
30	0x3b992a16	0.0046742065
31	0x3bbbacae	0.005727372
32	0xbbd55abe	-0.0065110615
33	0x3d12fdbb	0.035886507
34	0xb7888a00	-1.6276725e-05
35	0xb9d93310	-0.0004142751
36	0xba4c7120	-0.00077988394
37	0x39d45070	0.00040495722
38	0x3d8a1759	0.067427345
39	0xbc0b514b	-0.0085032685
40	0x3e2dad47	0.16960631
41	0x3bcf9cb7	0.0063358205
42	0x3c6b7648	0.014371462
43	0xbc72fcda	-0.014830792
44	0x3af42e64	0.0018629548
45	0xbc43b07b	-0.011943932
46	0x3c49be82	0.012313487
47	0xbc1d2b1c	-0.009592798
48	0xbc4599e8	-0.01206062
49	0xbd91f62a	-0.0712703
50	0xbc93b464	-0.018030353
51	0x3b5c0f4e	0.0033578458
52	0x3ba09357	0.004900377
53	0xbbd70484	-0.0065618176
54	0x3cce1f52	0.025161419
55	0xbb71f9db	-0.0036922607
56	0xbca1fe7f	-0.019774674
57	0x3b14d3b6	0.0022709197
58	0xbbba8a06	-0.005692723
59	0xbc254359	-0.010086858
60	0xbbf35c76	-0.0074267937
61	0x3d58d223	0.052934777
62	0x3b994fee	0.004678718
63	0x3ca064fb	0.019579401
64	0xbc2cba6e	-0.010542495
65	0x3d09e892	0.033669062
66	0x3b10984e	0.0022063437
67	0x3c300f1e	0.010745792
68	0x3bd58c2d	0.0065169544
69	0x3a99744c	0.0011707633
70	0xbab69d60	-0.00139324
71	0xbb98b28d	-0.004659957
72	0x3e8294d0	0.2550416
73	0xbb93e720	-0.004513636
74	0xbc77f099	-0.015133047
75	0xbbdbbe40	-0.006706029
76	0xb8ebf61c	-0.00011251515
77	0xbbbc73e3	-0.0057511195
78	0xbc47de80	-0.012199044
79	0xbc55dc64	-0.0130530335
80	0x392ad6e0	0.0001629251
81	0x3b9cada6	0.0047814427
82	0xbbd9edba	-0.0066506537
83	0x3c9d1de2	0.019179288
84	0xbab46b4c	-0.0013764887
85	0x3a87b098	0.0010352312
86	0x3d4642fa	0.048403718
87	0x3cbf9592	0.02338675
88	0x3d51de3e	0.051237337
89	0xbb4d63b2	-0.003133994
90	0xbb9a7329	-0.004713435
91	0x3c7e806a	0.015533546
92	0x3c8c82cb	0.01715221
93	0xba4bf450	-0.0007780241
94	0x3e9081db	0.28224072
95	0x391e6740	0.00015106518
96	0x3b68599c	0.0035453802
97	0x3b60ac98	0.0034282561
98	0x3d2c145f	0.042011615
99	0xb94b6820	-0.00019398378
100	0xbc148280	-0.009064317
101	0xbd2c0a0c	-0.04200177
102	0xbbdc26c7	-0.00671849
103	0xbe1d4a28	-0.1536032
104	0xbc07093c	-0.008241948
105	0x3b662308	0.0035116095
106	0x3b12f68f	0.0022424792
107	0xbc9893e7	-0.018625213
108	0xb9b7b730	-0.00035040965
109	0xbc0a9dcd	-0.008460474
110	0x3b9c6289	0.0047724885
111	0xbc2b29b4	-0.0104469545
112	0xbbac8eb7	-0.0052660364
113	0x3c6415dc	0.013921227
114	0x3dd72f00	0.105070114
115	0x3cb140aa	0.02163728
116	0x3ad6ecc4	0.0016397466
117	0xbc0846a2	-0.008317621
118	0xbbaa75ff	-0.0052020545
119	0xbb53751c	-0.0032265848
120	0x3b93bcf1	0.0045086076
121	0x3ab86b90	0.0014070142
122	0x3baf1eb2	0.0053442353
123	0x3b6c200c	0.0036029844
124	0xbcdbb097	-0.026817603
125	0xbc4fe5bc	-0.01268905
126	0xbd01ebe7	-0.031719115
127	0xbb0a6e40	-0.0021122843
128	0xbad32ef4	-0.0016112016
129	0x3cf71e20	0.030165732
130	0x3d588cad	0.052868534
131	0x3c63d94c	0.013906788
132	0x3c939224	0.018014021
133	0x3bb26a82	0.0054448256
134	0xbbd5a711	-0.00652016
135	0x3c76ea9d	0.015070585
136	0xbc9f43ec	-0.019441567
137	0xb9a6b4e8	-0.00031796773
138	0x3aa1e6ac	0.0012352071
139	0xbc34ec97	-0.011042736
140	0xbc04d342	-0.008107008
141	0x3d93ee87	0.0722323
142	0xbccc7f75	-0.02496312
143	0xba3059e6	-0.0006727263
144	0xbb223b80	-0.0024754703
145	0xbbc63fbc	-0.006050078
146	0xbc9e4d08	-0.01932384
147	0xbb6d93d2	-0.0036251438
148	0x3c07f619	0.00829842
149	0xbd405a18	-0.04696092
150	0x3cb70576	0.022341471
151	0x3a32c680	0.000681974
152	0xbb93e333	-0.0045131682
153	0xbc88ed98	-0.016714856
154	0x3cc927a7	0.02455504
155	0x3c27707f	0.010219692
156	0x3b8e0caf	0.004335008
157	0xbb6b7df5	-0.003593323
158	0x3bf2aa9a	0.007405591
159	0x3bdf3c2d	0.0068125934
160	0xb9b1160d	-0.000337765
161	0x3cbc9f6c	0.023025237
162	0xbc0faeed	-0.008769733
163	0x3c8401c8	0.01611413
164	0x3b817c2a	0.003951569
165	0x3c841b5b	0.016126325
166	0xbc2814ff	-0.010258912
167	0x3bc66354	0.0060543213
168	0x3ea7e441	0.3279133
169	0x3c3c5602	0.011495115
170	0xbb575c21	-0.003286131
171	0xbb0a7eea	-0.0021132776
172	0x3bcdde25	0.006282585
173	0xbba36fab	-0.004987677
174	0xbc2d535b	-0.0105789555
175	0x3c800254	0.01562611
176	0x3ca8165f	0.02051848
177	0x3b854bbe	0.004067867
178	0x3c084731	0.008317755
179	0x3a71e909	0.00092281454
180	0xbbd14c9e	-0.0063873073
181	0x3b734e2a	0.0037125447
182	0xb9313210	-0.00016898685
183	0xbbe14960	-0.006875202
184	0x3b871362	0.0041221837
185	0x3bfeaae1	0.007771835
186	0x3c359e93	0.01108517
187	0x3be48fdd	0.0069751577
188	0xba213724	-0.0006149879
189	0xbe768df2	-0.24077585
190	0x3be36dc1	0.006940574
191	0xbbc85032	-0.0061130757
192	0xbcf50fd8	-0.029914781
193	0x3d64371c	0.05571662
194	0x3c863967	0.016384793
195	0x3cae4f73	0.021278119
196	0x3c39f45a	0.011349762
197	0xbb15914c	-0.00228222
198	0xbb0986fe	-0.0020985003
199	0xbcaf5ac7	-0.02140559
200	0xbe664a73	-0.22489338
201	0xbbdb4387	-0.0066913995
202	0x3b0e060f	0.0021671092
203	0xbc07f117	-0.008297226
204	0xbc8721fc	-0.016495697
205	0x3d92a80e	0.0716096
206	0x3c1fab2e	0.009745402
207	0x3ccb529f	0.02481967
208	0xbc497750	-0.012296513
209	0x3c46bed0	0.012130454
210	0xbbae55c0	-0.005320281
211	0xbd0aeb8b	-0.033916038
212	0xbad9ac23	-0.0016607087
213	0x3d547304	0.0518675
214	0xbad12552	-0.0015956557
215	0xbcba7855	-0.022762457
216	0xbdbf08a1	-0.09327818
217	0xbb7d8823	-0.003868588
218	0x3c3b63d0	0.011437371
219	0x3bab5774	0.005228931
220	0x3d003d1c	0.03130828
221	0xbc6696c9	-0.014074036
222	0xbdec7b51	-0.11546958
223	0x3c606862	0.013696762
224	0x3c567dce	0.013091518
225	0xbc071c9b	-0.008246566
226	0xbdce1617	-0.10062807
227	0x3bfe0280	0.007751763
228	0x3ca92f45	0.020652423
229	0xbda54f54	-0.08071771
230	0xbbdee908	-0.006802682
231	0xbe1724ca	-0.14760128
232	0x3bde6ac8	0.0067876317
233	0xbcab77bc	-0.020931117
234	0x3a616350	0.00085978676
235	0x3d5efdcc	0.05444126
236	0x3cc409b9	0.023930417
237	0xbc421bf1	-0.011847482
238	0xbc1c6364	-0.009545181
239	0x3cb42bc1	0.02199352
240	0x3bffbe9b	0.0078047044
241	0xbd058c5a	-0.032604553
242	0x3e71625e	0.2357268
243	0x3b02d068	0.0019960646
244	0xbc047afd	-0.008085963
245	0xbd683b07	-0.056696918
246	0xbc1ede3d	-0.00969654
247	0xb7c1cf18	-2.3103828e-05
248	0x3c083527	0.008313454
249	0xbc3b7f21	-0.011443884
250	0xbc626c9e	-0.013819842
251	0x3d1e1a45	0.03859927
252	0x3c7ce32a	0.0154350195
253	0xbb59ea38	-0.0033251178
254	0x3e8c1bc2	0.27364928
255	0x3ca6f0e4	0.020378537

output_w.bias f4 [5]
0	0xbd8b447d	-0.068001725
1	0x3d98b6a6	0.074567124
2	0xbf538043	-0.82617587
3	0xbf2f5081	-0.68482214
4	0xbcd655af	-0.026163904

square_avg f4 [64]
0	0x3bc2a344	0.005939873
1	0x3bbb56f2	0.005717152
2	0x3b7e84c3	0.0038836456
3	0x3cf0457a	0.029330004
4	0x35a16572	1.2024959e-06
5	0x3bb10285	0.0054019117
6	0x3bc8a416	0.006123076
7	0x3a73d69e	0.0009301695
8	0x3c3f326f	0.011669739
9	0x3dbbaf51	0.09164298
10	0x3d290ef2	0.04127402
11	0x3d4f4393	0.050601553
12	0x30224fb8	5.9048544e-10
13	0x3ce2b3aa	0.027673561
14	0x3db73521	0.089456804
15	0x3c45c547	0.01207096
16	0x3325f236	3.8637346e-08
17	0x3a1977a5	0.0005854315
18	0x3d326040	0.043548822
19	0x3d36ae0a	0.04459957
20	0x3c84a47a	0.01619171
21	0x3424fe9b	1.5366315e-07
22	0x3c55207a	0.013008231
23	0x3c4effca	0.012634227
24	0x3c6c7640	0.01443249
25	0x3d0b9f8f	0.034087714
26	0x3cac8998	0.021061704
27	0x3c8a2872	0.016864989
28	0x2f7f2015	2.3203513e-10
29	0x3c74f2a2	0.014950426
30	0x3cbde650	0.02318111
31	0x3c4d20ea	0.012520054
32	0x3baab475	0.0052095004
33	0x3ba3b673	0.004996115
34	0x3983eca8	0.0002516259
35	0x3bf35935	0.007426406
36	0x3bd9d8fa	0.00664818
37	0x310f2f5c	2.083616e-09
38	0x3d165d7d	0.03671025
39	0x2ee4f387	1.0411499e-10
40	0x3d17cdec	0.037061617
41	0x3da10bb3	0.078635596
42	0x3d3cca1a	0.046091177
43	0x36ab28ff	5.1009697e-06
44	0x3b0cf2b9	0.0021506979
45	0x3afe937b	0.0019422615
46	0x3b1661ff	0.0022946594
47	0x3b08f74c	0.0020899354
48	0x3bd374e3	0.006453143
49	0x3a858d56	0.0010189216
50	0x3d61c78c	0.055121943
51	0x3d45d9c0	0.048303366
52	0x3c45fd04	0.012084249
53	0x3733e4d6	1.0722511e-05
54	0x319e7e08	4.6127333e-09
55	0x3aaa716a	0.0013003771
56	0x3bac0874	0.005250031
57	0x3cd4cf2c	0.025977693
58	0x2e84fbc7	6.04739e-11
59	0x3c8d435a	0.01724403
60	0x3b88ea46	0.004178318
61	0x3bf38a9b	0.0074322945
62	0x2d8742a9	1.5377326e-11
63	0x3c8af742	0.016963605

square_avg f4 [5]
0	0x40eaa52d	7.332663
1	0x41018aef	8.096419
2	0x3e17f21d	0.14838453
3	0x3e8ededb	0.279044
4	0x3c89af10	0.01680711
