S-LSTM/Goal+Socail_Array_PyTorch/social_lstm/save/0/social_model_epoch_2.pth (torch, 815043 bytes, 22 tensors)

embedding_b f4 [64]
00000000: a6b9 7c3c 5f9b 543e 9f8b 5e3e 9ff7 89bc
00000010: c2fe f1b5 3087 4f3d e011 52bd 3a79 82ac
00000020: b1cd d0bd 7ce4 40ba dfad 6f3d b6f8 6cbd
00000030: 35fd 4dbe 3a2a 18bd 28b9 6cbc f797 90bc
00000040: 14cb a1b7 3346 8bbb 85de 31be 27b9 8cbd
00000050: 7a03 69bc 0d37 5abc 9cc0 83bb 7a4a 96b8
00000060: 0baa acb2 9800 f4b3 8c0e bb3d 4003 20bc
00000070: d1fc 8f3e c0d9 1cbe 0bb8 95bc a6e6 523d
00000080: e99a 30bc 2036 1a3d 2a3f b43c a375 27bd
00000090: 1919 0b3e 072f 993d 0a44 13ad 6c79 92bb
000000a0: 71c3 11bd 80c5 cbbb b599 72bb 843b 4ebc
000000b0: de5e 9fb9 dcb3 7ebc 9041 803d c959 0d3e
000000c0: 12ad e6bd 4c5c c23d 55a2 733d 9daa 093e
000000d0: 6b86 ffbb b8d7 07af d3b7 4a3d 80d0 a6bc
000000e0: 1784 883d 8e1a c1bb 9ad1 80bc a3c1 8f3d
000000f0: faca 413e d85b 383e 8637 e1bc 7368 c83d
0.015425121 0.20762394 0.21732949 -0.016841708 -1.8030044e-06 0.050666034 -0.05128658 -3.708281e-12
-0.101954825 -0.00073582656 0.058515426 -0.057854377 -0.20116122 -0.037149645 -0.014448442 -0.017650587
-1.9287261e-05 -0.0042503118 -0.1737004 -0.068712525 -0.01422202 -0.013318789 -0.0040207636 -7.16643e-05
-2.0100762e-08 -1.13622434e-07 0.09133634 -0.0097664 0.2812257 -0.1531744 -0.018276235 0.051489495
-0.010779121 0.037649274 0.022002775 -0.04088367 0.13583793 0.07479673 -8.37109e-12 -0.004470041
-0.035586778 -0.006218612 -0.0037017886 -0.012587432 -0.00030397525 -0.0155458115 0.06262505 0.13803782
-0.11263479 0.094902605 0.059480984 0.1344399 -0.0077980063 -1.2354817e-10 0.049491715 -0.020363092
0.06665819 -0.005893058 -0.015724946 0.07019355 0.18925086 0.18003786 -0.027492296 0.09785547

output_b f4 [5]
00000000: 7abb 003d a5f1 79bb 6f58 0bbf 5d21 07bf
00000010: daef 78bd
0.03142879 -0.0038138416 -0.54431814 -0.52785283 -0.060775615

embedding_w.weight f4 [64, 4]
00000000: 84df e43e bca3 33bf aeb3 143d c31f 3f3d
00000010: d37e 823d cf35 843f aad1 fabc bfd4 473e
00000020: 6fdf 58bf b98b 25bf 9e0d a6bd e1c4 9fbb
00000030: 18a8 ad3c 9d4f a43c 51ec 7a3c e1fe 913c
00000040: 84b1 9c9f 34f3 d0a0 46b4 1e1e 8cc1 2ea2
00000050: 3991 1c3f ad14 02bf 9100 4b3e 5176 5c3e
00000060: 66c3 933e e9e9 203f 8ec4 013e 7816 f6bc
00000070: 910e 892e 6bf9 f097 f87c 4d9c 40a0 a89c
00000080: aa74 123f 1ce5 1e3e 1c79 c6bd 2674 1e3b
00000090: e237 eb1f 2401 0117 d1e6 d212 9043 7e17
000000a0: 4bee aebe e517 4a3f 3ad8 f23d 6535 a5bd
000000b0: d4d1 5ebe d53e b23e eca4 11be 1477 6cbd
000000c0: 0c11 ce3e dee5 c5bc 5974 bdbe b0dc 753d
000000d0: 1878 6e3f 0073 a2bd f440 e33d f00c e33a
000000e0: 0bb9 e83b fc5f ba3b a0b1 263c 5e24 463c
000000f0: 118b 01bb a3db 9ab8 125b 8d3c 8be8 43b7
00000100: eb55 13b6 fdfe 70b1 0036 3023 b6bb a4a6
00000110: 6ff2 a438 9ea8 7ab5 6a6c 3e30 f05d c5b3
00000120: 1161 713e 6044 b1be 0461 063e fe05 82bd
00000130: b5ab dc3e 582f 603e 8aa7 f7be 30c8 2ebe
00000140: f6e5 263c f13e 343c 8220 debb df78 1ebc
00000150: 3888 223c 1efb 2e3b 46eb a93b fa98 8cbc
00000160: 9837 96b8 4e1c 4dae 1b12 37b8 6843 9eab
00000170: b867 d32a d886 eb1a be12 b337 4cdf 181b
00000180: d463 b523 10ba 3825 ee9b 2e29 6870 27a5
00000190: ad83 e51f b647 8ba0 661b 80a1 a058 d696
000001a0: 9dbd 10bf 3a83 71bf 1c30 8ebc 2294 b1be
000001b0: bce2 81bc 8aee 30bc c191 e8bb 0ed3 96bb
000001c0: fc82 6ebf f3a4 2bbf a146 89bd 2973 0a3c
000001d0: dea2 b0bc 0cce 22be 12a9 3b3d b44d 2e3e
000001e0: 4533 dc3c 3e20 1639 c716 02bd 525f 59bb
000001f0: 036b 59bf 2f20 0d3e 7956 6bbd 536e 1b3e
00000200: 37f3 24bf f41c f13e d53f 15be fe3c d0bb
00000210: 56d9 df3e 02fc 723f a448 1ebd 9808 af3c
00000220: 93c7 933f 7933 69be 501c 893d c0af 0b3e
00000230: ca44 4a3f b3ab 9c3e c16a ddbc ac02 e63d
00000240: 39d8 f2be ea83 6f3f 2a37 823c 4ca3 593e
00000250: f5e4 7c3f ec76 3ebf 4bd1 2d3e f753 9ebe
00000260: c467 3c91 eb77 459f f6a9 bc1b 363d a699
00000270: a345 3ebe 9817 233f f59c 9f3d 6a4a 273e
00000280: ea06 883f f6e0 733d b27a db3b d443 bd3d
00000290: 9f52 5abb 0037 6ebb 00b5 a2bb 8d46 60bb
000002a0: 22aa df3c a4a8 433d 7c04 f83b d98f 5b3c
000002b0: 22b4 553d 3747 2e3d ac71 2e3d c910 823d
000002c0: 6cfd 819e 4095 7623 60d9 3d9a c482 67b1
000002d0: 7672 6539 2cbd 68bc 7f3d 0e3c 06cb 77bc
000002e0: 2046 a13e d8e9 573f dbb7 d23c 8754 a43d
000002f0: a5d6 debe 43f5 3d3f e5ac d23c 8c9c fd3c
00000300: 9252 f83e d45e 423e 59e9 453d b4e9 cd3d
00000310: 7061 aebe 33de 70bf ab2d 93bc f2ed 5c3b
00000320: 1d5d f43c 1009 4c3d 23cd 043d effb 15be
00000330: 383a 78bf f6b2 133f 085a 57be 1a9a 89ba
00000340: a41d 65b7 7104 0eba ec50 adb0 6b5c 94bb
00000350: 5f2b 371e 0ce4 009e 48cf 141e 5e72 371e
00000360: 8d64 763e cb53 7cbf 2ece 8438 ba52 e6bd
00000370: f96c 9e3e 83cb 8ebe 6ee5 083e 66fa 2abe
00000380: eaba ef3e 037d 22bf 2bb7 d4bd 6be5 863c
00000390: 4034 18ae 8499 293a 2c83 97b6 d2d7 b93a
000003a0: 534b d1bc b2e9 823b 18fd 65bc 513a dcbb
000003b0: cadf 4cbf 5c6e 36bf 7023 60be 0371 83bc
000003c0: a13b 67be 0b49 5cbf 066e 37bd 6be8 683d
000003d0: 88f8 573f 18c8 0c3f d879 3a3c 8578 a53d
000003e0: ec7a 35bf 35a0 ff3d 7f2b a4bc 79fb 5f3d
000003f0: 74b7 81bf c818 223f dbb3 1cbe c829 4c3e
0.4470178 -0.70171714 0.03630417 0.04666115 0.06371846 1.0328921 -0.030617554 0.1951475
-0.8471593 -0.64666325 -0.08108066 -0.0048757647 0.021198317 0.020057494 0.015315131 0.017821731
-6.6362245e-20 -3.539751e-19 8.40173e-21 -2.368386e-18 0.6115909 -0.508128 0.19824435 0.21529509
0.28860015 0.6285692 0.12672636 -0.03004001 6.232626e-11 -1.5572598e-24 -6.799033e-22 -1.1158731e-21
0.57209265 0.15517086 -0.096910685 0.0024178117 9.961882e-20 4.168359e-25 1.3309764e-27 8.21571e-25
-0.34166178 0.7894271 0.11857648 -0.08066825 -0.2175973 0.34813562 -0.14223069 -0.05773075
0.4024738 -0.02415746 -0.3700283 0.060024917 0.93152 -0.07932091 0.11096373 0.0017322581
0.007102137 0.0056877118 0.010174185 0.012093632 -0.0019766728 -7.384203e-05 0.01725534 -1.1677049e-05
-2.1954718e-06 -3.506954e-09 9.552414e-18 -1.1430665e-15 7.865286e-05 -9.337763e-07 6.9275663e-10 -9.1906145e-08
0.23572184 -0.34622478 0.13122946 -0.06348799 0.43099752 0.2189306 -0.4837001 -0.17068553
0.010186663 0.0110013345 -0.0067787776 -0.009672373 0.009920172 0.002669997 0.0051855175 -0.017162789
-7.1629125e-05 -4.6636743e-11 -4.3647462e-05 -1.1245284e-12 3.75531e-13 9.7411574e-23 2.134719e-05 1.2645296e-22
1.9666338e-17 1.6022496e-16 3.877101e-14 -1.4523026e-16 9.720311e-20 -2.359497e-19 -8.68087e-19 -3.4629495e-25
-0.56539327 -0.9434086 -0.017356925 -0.3468333 -0.015855186 -0.01079906 -0.0070974533 -0.0046027964
-0.93168616 -0.6704857 -0.067029245 0.008450308 -0.021562036 -0.15898913 0.045815535 0.17021829
0.026879916 0.00014317126 -0.031760003 -0.0033168388 -0.8492891 0.13781808 -0.057455514 0.15178804
-0.64433616 0.47092402 -0.14575131 -0.006354927 0.43720502 0.94915783 -0.038643494 0.021366403
1.154528 -0.22773542 0.06694853 0.13641262 0.79011214 0.30599746 -0.027028443 0.11230978
-0.4743059 0.9356066 0.015895445 0.21253699 0.9878686 -0.7440021 0.1697437 -0.30923435
-1.486256e-28 -4.1815566e-20 3.1211826e-22 -1.718872e-23 -0.18581252 0.63707876 0.07793609 0.1633698
1.062711 0.05954071 0.006697976 0.09241453 -0.0033313406 -0.00363487 -0.0049654245 -0.003422174
0.027302805 0.04776825 0.007568894 0.013400995 0.05217374 0.042548385 0.042588875 0.06350858
-1.3763219e-20 1.3367292e-17 -3.9259878e-23 -3.3689256e-09 0.00021881782 -0.014205258 0.008681654 -0.015124088
0.31498814 0.8434119 0.025722435 0.08023935 -0.43523136 0.74202365 0.025717208 0.030958436
0.48500496 0.18981487 0.04831824 0.10054341 -0.34058714 -0.9408905 -0.017966112 0.0033711162
0.029829556 0.04981333 0.032422196 -0.14646886 -0.96963835 0.5769495 -0.21030438 -0.0010498196
-1.3656365e-05 -0.0005417532 -1.2610406e-09 -0.0045276186 9.696908e-21 -6.8234226e-21 7.8779195e-21 9.71159e-21
0.24061795 -0.9856536 6.3326544e-05 -0.112462476 0.30942515 -0.27889642 0.1336877 -0.16697082
0.46822292 -0.63472 -0.10386499 0.016466817 -3.4607206e-11 0.0006469714 -4.515421e-06 0.0014178699
-0.025548613 0.003995144 -0.014037393 -0.006720819 -0.80028975 -0.71262145 -0.21888518 -0.0160451
-0.2258134 -0.86048955 -0.04478266 0.056862276 0.84363604 0.5499282 0.011381589 0.08079628
-0.7089069 0.12481729 -0.020040272 0.054683182 -1.013411 0.63319063 -0.15302984 0.19937813

embedding_w.bias f4 [64]
00000000: 1584 203e 8d32 c63b a1df a83d 9ff7 89bc
00000010: c2fe f1b5 bc6a ae3c 71bf 283c 3a79 82ac
00000020: 0928 793e 7ce4 40ba 847b bfbb f2ec 1b3b
00000030: c541 1d3e e2c5 8f3e 28b9 6cbc f797 90bc
00000040: 14cb a1b7 3346 8bbb bd75 0f3e 4c7e a1bc
00000050: c402 69bc 0d37 5abc 9cc0 83bb 7a4a 96b8
00000060: 0baa acb2 9800 f4b3 4f06 78bd 4003 20bc
00000070: b3c7 a93d c3f0 243e 0bb8 95bc a997 5e3d
00000080: d2db 9c3e 15f4 5d3d cffa a13e 6db3 8c3e
00000090: d002 73bd 0ae9 8ebd 0a44 13ad 9204 8e3e
000000a0: 88c9 583d 80c5 cbbb b599 72bb 843b 4ebc
000000b0: de5e 9fb9 dcb3 7ebc 0d36 0b3d f9ea 17bd
000000c0: 10ae 103e 63c8 a63d 55a2 733d 46d6 67bd
000000d0: 6b86 ffbb b8d7 07af f62f 0e3d 80d0 a6bc
000000e0: f163 be3d 8e1a c1bb 9ad1 80bc 7e0d b73e
000000f0: 37a6 bbbd 27de 69bd c59a 6e3e 9c02 1fbe
0.15675385 0.0060485066 0.08245779 -0.016841708 -1.8030044e-06 0.02129113 0.010299549 -3.708281e-12
0.24331678 -0.00073582656 -0.0058435816 0.0023792353 0.1535712 0.2808066 -0.014448442 -0.017650587
-1.9287261e-05 -0.0042503118 0.14009757 -0.019713543 -0.014221851 -0.013318789 -0.0040207636 -7.16643e-05
-2.0100762e-08 -1.13622434e-07 -0.06055289 -0.0097664 0.08290043 0.16107468 -0.018276235 0.054343853
0.3063646 0.054187853 0.31636664 0.2748064 -0.059328854 -0.069780424 -8.37109e-12 0.27737862
0.05292657 -0.006218612 -0.0037017886 -0.012587432 -0.00030397525 -0.0155458115 0.033987094 -0.03708932
0.141289 0.081436895 0.059480984 -0.05660083 -0.0077980063 -1.2354817e-10 0.034713708 -0.020363092
0.09296406 -0.005893058 -0.015724946 0.3575248 -0.09162562 -0.057096627 0.23301227 -0.15528339

embedding_t_w.weight f4 [1, 8]
00000000: 6c90 f63e 0b07 67be b3c2 3a3d 1ecc 20be
00000010: 6af6 fabd e514 b13d fddb aabd 6f38 5cbd
0.4815706 -0.2256128 0.045595836 -0.15702865 -0.12254031 0.086465634 -0.08342741 -0.053764757

lstm.weight_ih f4 [512, 65]
00000000: c6c7 93bd d0dc 453d b8f2 0cbe 44c0 8834
00000010: 48b3 4c3b 8bf1 22bd 98a5 3d3d 7b2a c4b1
00000020: e192 9cbd 2a12 1827 dd45 823d e881 f03c
00000030: c280 d6bb cc19 dcbd 02bc 1422 600d 94ac
00000040: e37c 9eb8 c6db 3b38 b553 653c 6d59 40bd
00000050: 7424 a09f 00c9 8728 5002 f4b9 a957 88bb
00000060: 7cb0 8235 6a2a 4538 4be1 86bd 60f6 82a4
00000070: db43 18be fff4 0c3d c444 2d2b 8ac7 2e3d
00000080: 32e2 82bc a944 c7bb f082 17be 9fb2 88bd
00000090: b52b b53d 7e6b 98bc 5c35 e1b9 b252 043c
000000a0: 15d8 69bd 52ae 91a1 b283 c5bb f5db c63c
000000b0: 64e6 87b9 c8c2 3bbb 7e07 8c3c 6ffe 423d
000000c0: 087b ebbc 5bc9 a0bd 0364 e6bc 0b18 673d
000000d0: daa9 8cb9 2af5 b635 e6aa bebc 3d57 723c
000000e0: ac00 a2bd c25c a698 53e7 abb8 8a61 11be
000000f0: 3fd1 37bd b7ea 1dbd 1d0b c2bb 5e92 b03d
00000100: ef31 143c 5e2c 27bd 272c 53bc cc4d 43bd
00000110: a2c7 9fb6 346b 3032 c296 dbbc f5b9 5c3c
00000120: f018 58b7 2dd7 36bd 208c 8739 6716 523c
00000130: 3818 acba 51d1 73bb 60b1 60bd e4c5 4938
00000140: a755 6a31 85f5 7d39 2258 26b9 3897 24bc
00000150: 9e13 dbbb e4ef 9f35 500c 4ab7 9259 9039
00000160: 4c90 eeb8 34bf 74b9 d49a 9939 85b5 d2bc
00000170: fe96 0439 7386 70bd 4436 4b3c 06db f5b3
00000180: 3bcb 01bd 9f5a 42bd 3747 e1bb 3012 95bd
00000190: 23d9 69bd a99b 893c 68d6 06bd 740b 1237
000001a0: f2b4 1dbd 4892 11bd 2898 c51f 11d6 abbb
000001b0: 368d c3bb 6297 0839 e0d3 59b9 a896 7bbb
000001c0: c1e3 d73b c9b4 c8bc e06e 0bbd b5f5 4abc
000001d0: bf13 edbc 1c2f ce38 120d 8d37 2ba3 ebbc
000001e0: d770 3fbc ba3f 34bd a8da 663b 9c13 be1f
000001f0: 3c53 a9bd 24ca b2bc ec64 1fbd f945 0dbd
00000200: 91d9 cbbb bb1c 65bc 91e1 23bd c3a1 f8bc
00000210: ae1e 2cbd 90ad 61b4 2277 99b5 c192 f1bc
00000220: f01b 8c3b 5c9d e6bb c560 47bd 5c3b b7b9
00000230: 3284 883b a8c8 af3a a234 4fbb b608 7cbd
00000240: b65f 0db6 ea9a 6cb1 6e1c 843b 311a 0cba
00000250: dc08 acbb 2f7f 2bbc 347e 79b7 a41c 262e
00000260: faec f637 a319 2fb4 004a 5839 a6da 16ba
00000270: ef46 44bc dcbc 36b3 e3ed 62bd 04b5 4cba
00000280: e6aa 56b7 8a4d f4bc 7932 59bd f0cf aebc
00000290: 4bde a1bd 35e6 85bd 3665 ec3b faa4 08bd
000002a0: 06f3 0c34 d83f 6bbd 082d 22bd 5aed c320
000002b0: 3f56 95bb dd22 85bb 6422 05bc 9467 6b39
000002c0: e46b 9dbc 6405 e7ba 1ab5 e7bc c3fb fdbc
000002d0: f4fd 6cbc 6e8b dabc 9524 00b7 d05f 313c
000002e0: 35ed b4bc cf18 eabb 7714 29bd a446 f43a
000002f0: 06c4 4c22 15c7 a3bd 4440 81bc a217 45bd
00000300: 283c 14bd cf73 e2bb f4f4 1dbc 051c ffbc
00000310: 15da f6bc b625 51bd 5c79 dc3a d404 4b3a
00000320: 0825 d2bc 75c1 18bd dc9d 2b3b 2e37 babc
00000330: a621 15b5 a744 0bbc a141 17bc 5e39 a3bc
00000340: 4ab6 22bd 963b 6521 0d2a 96b8 7bfe 5fba
00000350: d406 3b37 aef7 9abc 9807 31ba c157 0537
00000360: 991a d3ba 5794 6534 04d7 8f37 0051 0fba
00000370: 065e a13b bfdd 08bc 8539 31b0 fe12 82bd
00000380: cedd 51bc eafc de38 3a0d 15bd d5b7 4ebd
00000390: e020 e8bc 05c3 74bd 0c0f 15bd 6db2 e5bc
000003a0: 97b9 ccbc 2c0a 75b1 5bc0 14bd 5d21 c2bc
000003b0: d0d5 46bb d715 5cbb ab58 7abb d841 8a37
000003c0: 8893 d7ba f4dd a6bc 6bbc 51bc 2330 d0bc
000003d0: cc9c 13bd 6cdf b33c 0e6d cdbc 4cc1 9c39
000003e0: 42f0 80b9 c429 c8bc 5191 86bc 5bb5 04bd
000003f0: 8409 b9bb 4298 b7a2 b118 a6bd d049 f0bc
-0.07215838 0.048306286 -0.13764465 2.5471866e-07 0.003123479 -0.039781135 0.0463005 -5.7091802e-09
-0.076452024 2.1104084e-15 0.063609816 0.02935882 -0.006546111 -0.10747108 2.015727e-18 -4.207898e-12
-7.557289e-05 4.4788954e-05 0.013997008 -0.046960283 -6.782294e-20 1.507518e-14 -0.0004654103 -0.0041608405
9.737118e-07 4.700796e-05 -0.0658594 -5.679589e-17 -0.14869635 0.034413334 6.155738e-13 0.042670764
-0.015976999 -0.006081183 -0.14796042 -0.06674694 0.08846227 -0.018605944 -0.000429551 0.008076357
-0.057090838 -9.871724e-19 -0.006027662 0.024274806 -0.0002592086 -0.0028650034 0.017093416 0.047605928
-0.02874519 -0.078509055 -0.028123861 0.056419414 -0.0002682943 1.3631409e-06 -0.02327485 0.014791307
-0.079102844 -4.3003656e-24 -8.197003e-05 -0.14197364 -0.044877287 -0.03855392 -0.005921735 0.08621667
0.009045108 -0.040813796 -0.012888945 -0.047681615 -4.7618096e-06 1.02689235e-08 -0.026805285 0.01347207
-1.28804095e-05 -0.0446388 0.00025853608 0.012822724 -0.0013129776 -0.003720362 -0.054856658 4.8106434e-05
3.410017e-09 0.00024219423 -0.00015863826 -0.010045819 -0.006685688 1.191624e-06 -1.2043005e-05 0.00027532555
-0.00011375602 -0.00023340882 0.0002929779 -0.02572132 0.0001264475 -0.05872197 0.012403075 -1.1448542e-07
-0.031687956 -0.047449704 -0.0068749445 -0.072788596 -0.057091843 0.016797857 -0.032919317 8.704945e-06
-0.03850264 -0.035539895 8.3684467e-20 -0.0052440246 -0.0059677614 0.00013026365 -0.00020773662 -0.0038389359
0.0065884297 -0.024500268 -0.034041286 -0.012387683 -0.02894008 9.83162e-05 1.6814596e-05 -0.028764328
-0.011684618 -0.044006087 0.0035225544 8.050057e-20 -0.08267829 -0.021824904 -0.038914606 -0.03449056
-0.0062210043 -0.013983901 -0.04001004 -0.030350571 -0.042021446 -2.10179e-07 -1.143406e-06 -0.029488923
0.0042757913 -0.0070378017 -0.04867627 -0.00034948706 0.0041661495 0.0013411241 -0.0031617065 -0.061531745
-2.1066348e-06 -3.4430578e-09 0.0040317094 -0.0005344479 -0.0052500796 -0.010467335 -1.48709405e-05 3.7769468e-11
2.9435836e-05 -1.6307472e-07 0.00020626932 -0.0005754627 -0.0119798025 -4.2546944e-08 -0.055402648 -0.0007808956
-1.2795184e-05 -0.02982213 -0.05302665 -0.021339387 -0.07903727 -0.06538049 0.0072142137 -0.03336046
1.3126927e-07 -0.057433933 -0.039593726 3.319135e-19 -0.0045574005 -0.004062994 -0.008125875 0.00022449932
-0.019216485 -0.0017625508 -0.028284598 -0.031003838 -0.014464844 -0.026677813 -7.637912e-06 0.010826066
-0.022085765 -0.0071440707 -0.041279282 0.0018636775 2.775093e-18 -0.07996956 -0.015777715 -0.04811824
-0.036190182 -0.006910778 -0.009640921 -0.03114129 -0.030133286 -0.051061355 0.0016820836 0.0007744555
-0.025652424 -0.03729387 0.002618662 -0.02273139 -5.555579e-07 -0.008500255 -0.009231956 -0.019924816
-0.039724626 7.766708e-19 -7.16039e-05 -0.00085446954 1.1147658e-05 -0.018916931 -0.0006753146 7.94785e-06
-0.0016105949 2.1381253e-07 1.7147053e-05 -0.0005467087 0.0049245385 -0.00835365 -6.4473965e-10 -0.06351279
-0.01280923 0.00010632894 -0.036389567 -0.050468285 -0.028335989 -0.059756298 -0.036391303 -0.028039182
-0.02499084 -3.5657974e-09 -0.036316257 -0.02369755 -0.0030339845 -0.0033582353 -0.0038199823 1.6481543e-05
-0.0016447166 -0.020369507 -0.01280127 -0.025413578 -0.036038205 0.021957122 -0.025076415 0.00029898656
-0.00024593069 -0.024433978 -0.016426714 -0.032399517 -0.0056468863 -4.976346e-18 -0.08110178 -0.029332072

lstm.weight_hh f4 [512, 128]
00000000: aaec 273d 0776 773c e450 563a 9151 e9bb
00000010: b31a ddbb 470f 19be ca72 a8bb 3a62 dd3c
00000020: 90f8 dd3b 5733 8e3c a43e 94bc 4eab 373d
00000030: 39e2 bd3c 6452 40bc b99a df3c 8c5d 82bc
00000040: cad5 643c c894 683b 8589 6e3c b4e9 d03d
00000050: 4918 29bd fc52 9cbb 310c 8c3c d44a d4ba
00000060: db84 28bc 2930 5dbd 9f1a 693c 9f4c 21bc
00000070: 19be f5bc cd2c 01bd c4f8 9bbb d26f 0ebb
00000080: b1ac 8dbc 8329 8c3b 279f 51bd dc29 edbc
00000090: 8c1d 013d 10a0 943c 2ee6 163e 2ec4 763c
000000a0: d132 a63c b89f 413c 2230 40be a1e8 d03d
000000b0: 4054 243b f354 563c 5a93 8d3b 4f1c c83c
000000c0: 52c5 953c aa3b 07bc e8c4 bfba 7a39 83bc
000000d0: 8fcc 9abc b514 d63c 0b75 03bc 5973 be3c
000000e0: 68d3 b6bb 10c5 d63c 7540 4fbc 797d 5e3d
000000f0: c7ce 983a 8c86 e0ba 6353 8dbd ec88 b7bc
00000100: 609d 0bbd b48c 3f3b 00cd 04bc d896 28bc
00000110: fb2a aebb ca5a 853c a6ac ddbb d1f2 393c
00000120: 88e6 34bd a84b 9a3c fd52 83bc e794 b5bb
00000130: f603 f73a c085 6039 d014 533e 48a3 efbb
00000140: bf62 dc3c 9ffb 85bc 587f 19bb 425f 32bb
00000150: 2f2c 96bc c042 51be 05ee d43c 224c 513c
00000160: 10ab 003c 8d23 c83c ca49 103c 13e8 fbbc
00000170: 874f 39bd ea66 88bb 965a 9abc d24a 293b
00000180: 1b3c 02bc 74bd 083d a9f0 09bc 5fc8 9ebc
00000190: 9d44 033c 6139 e13b 25ae 52bd 12e9 08bb
000001a0: 8c9c 113d 13d2 a9bc 9273 e73b bc20 213e
000001b0: 5443 0ebd 732f 8f3c 244b 2b3c 7038 a9bb
000001c0: ab2b 953d 4362 c33c 523d 38ba c7ca d03c
000001d0: 2a1a cfbc a29c d33a aed7 e23b a9cf 903b
000001e0: e526 2a3d f8e6 693b 9fb7 8abc becb cebc
000001f0: 0e33 df3c 4c56 ad3b 9a1b 87bc bf21 bb3b
00000200: 3d00 05bb 0a75 95bb 42c3 6fb9 efde 123b
00000210: 578a 1cbc 649d 26bd 6f2e 3ebb d2c9 b23a
00000220: 452a 17bb c181 bc3a 8c94 363a 2e02 76bb
00000230: 0617 d539 2df6 a9bb d2b6 f8ba 34c6 573b
00000240: 0f61 f93b 546f d83a 337f 6139 425b 633c
00000250: f415 603b 7edf 45bb 1cae 6bba 6b53 75bb
00000260: 7eb5 50bb 2e40 79bc 7e4e afb9 89fd 2c3b
00000270: 183d 813b 474c 6f3b 38e7 293a b2e6 0e3b
00000280: b1ac d63a 7eb3 c638 0806 21bc ca96 353b
00000290: de60 ee3a fa32 82ba 5633 ec3c 7033 86bb
000002a0: b4a9 fa3a 2227 49bb 97de 95bd 7ea5 873c
000002b0: 40c5 32b9 ae06 da3a 18c8 55ba 0963 75bb
000002c0: f017 7c3b 8411 b639 e72d 023b a9c7 3dbb
000002d0: 2f28 95bb 4e62 8d3a f42a 8f3a fd09 73bb
000002e0: 66a0 b838 8121 1b3c 5dcc 073b 8f1d 863b
000002f0: 3baf 943b 89a9 ac3c 4ab0 b0bc 4575 7d3b
00000300: 1c68 5cbc 2eb1 683a 921f 163b e651 d7b9
00000310: 80b3 2236 1620 943a 9557 d0bb 1848 f338
00000320: 6c75 24bc 366e 983b 92db a63b 0bc4 37bb
00000330: 1215 74ba e61b 91bb a173 a43d a240 81bb
00000340: 1d40 2b3b 8139 aaba 2ca6 273b 0655 5bba
00000350: 722a 703b b0ed a6bd e0ac 41bb 78ba 35ba
00000360: de0b 9c3b 5e70 ea3a a26b 1abb b46d 3f3b
00000370: 50fe 3e3b aa59 d23a 9c23 1c3b 2979 9f3a
00000380: f9dd 1c3b 4b0b 0cbc 5d22 f5b9 1487 56bc
00000390: 10b2 0aba aa4a 3eba 82fb 05bc 13c0 773b
000003a0: 2ea2 20bb 5c60 80bb 85b3 383b 39c2 503d
000003b0: 6e53 8d3b 518d 27ba 019c 5b3a 3788 99b9
000003c0: 0f45 0c3c 3f51 9aba fd77 3e3b 5614 a1bb
000003d0: a438 823b 3316 a3ba 8aef 043b dfa3 d43a
000003e0: 0aea c9b8 becf f7ba 1678 ef3a b430 56bb
000003f0: be0e 84bb 54de 803a 068b 3c3b af51 2f3a
0.040997185 0.0151038235 0.0008175506 -0.007120319 -0.0067475676 -0.14947234 -0.005140637 0.027024377
0.0067740157 0.017358465 -0.018096276 0.044841103 0.02317916 -0.011738393 0.027295457 -0.015913747
0.013966987 0.003548907 0.014559154 0.10200825 -0.041282926 -0.0047706347 0.017095657 -0.0016196617
-0.010285581 -0.054001007 0.014227538 -0.009844928 -0.029997872 -0.031536866 -0.00475988 -0.002173413
-0.01729426 0.0042774095 -0.05117717 -0.028950624 0.03152232 0.01814273 0.14736244 0.015061421
0.020287903 0.011817865 -0.18768361 0.102006204 0.002507463 0.013081777 0.004320544 0.024427561
0.018282566 -0.008253971 -0.0014630826 -0.016018618 -0.01889637 0.02613292 -0.008023511 0.023248361
-0.005579401 0.026217014 -0.012649645 0.05431888 0.0011658304 -0.0017129942 -0.069006704 -0.022404157
-0.03408563 0.0029228153 -0.008105516 -0.01028987 -0.0053151823 0.016278643 -0.006764966 0.011349396
-0.044165164 0.018834904 -0.016030783 -0.005541432 0.0018845785 0.0002141213 0.20613408 -0.007313166
0.026902555 -0.016355334 -0.002342185 -0.0027217423 -0.018331615 -0.2043562 0.025992403 0.012774499
0.0078532845 0.024431014 0.008806655 -0.03075031 -0.04524186 -0.004162659 -0.018842023 0.002583195
-0.007948901 0.0333838 -0.008419194 -0.019382654 0.008011964 0.006873295 -0.05143561 -0.0020890874
0.035549685 -0.020730054 0.0070633376 0.15735143 -0.034732178 0.01747868 0.010454927 -0.0051641986
0.0728372 0.023850566 -0.00070281804 0.025487317 -0.02528103 0.0016144703 0.0069226837 0.0044192863
0.041541 0.0035690647 -0.01693326 -0.025243636 0.027246024 0.0052898284 -0.016492654 0.00571081
-0.0020294331 -0.0045610713 -0.00022865555 0.002241071 -0.009554467 -0.040677443 -0.0029019376 0.0013640469
-0.0023065966 0.0014381931 0.0006964884 -0.003753792 0.0004064368 -0.005186817 -0.0018975383 0.0032924535
0.0076104472 0.001651267 0.00021505058 0.013876738 0.0034192773 -0.0030193026 -0.0008990483 -0.0037433754
-0.003184646 -0.015213056 -0.00033437082 0.0026396236 0.0039440505 0.003651397 0.00064812927 0.0021804986
0.001637837 9.474809e-05 -0.009828098 0.0027708285 0.0018186828 -0.0009933405 0.028833073 -0.0040954873
0.0019124062 -0.003069349 -0.07317846 0.016558405 -0.00017048884 0.0016634071 -0.00081551215 -0.0037443063
0.0038466416 0.00034726795 0.0019863786 -0.0028958118 -0.0045519094 0.0010786743 0.0010922835 -0.003708481
8.80368e-05 0.009468437 0.0020721175 0.004092879 0.0045374907 0.021076934 -0.021568436 0.0038674634
-0.013452556 0.00088764995 0.0022907 -0.00041069015 2.4244364e-06 0.0011301066 -0.006358097 0.000116005715
-0.010037761 0.00465181 0.005092093 -0.0028040435 -0.0009311001 -0.0044283746 0.08029867 -0.0039444724
0.0026130744 -0.0012987108 0.0025581224 -0.00083668565 0.0036646393 -0.08150804 -0.0029552504 -0.0006932388
0.004762157 0.0017886271 -0.002356269 0.0029209675 0.0029143281 0.001604845 0.0023824936 0.0012166846
0.0023936017 -0.008547614 -0.00046755644 -0.013093729 -0.00052908156 -0.00072590506 -0.00817764 0.0037803694
-0.002451073 -0.003917737 0.0028183174 0.050966475 0.004312924 -0.0006391602 0.00083774334 -0.00029283922
0.008561387 -0.0011773481 0.0029063218 -0.0049157543 0.0039740372 -0.0012442529 0.0020284378 0.0016223154
-9.62802e-05 -0.0018906516 0.0018270041 -0.0032682838 -0.0040300777 0.0009831884 0.0028769388 0.0006687892

lstm.bias_ih f4 [512]
00000000: b5b9 11be 96f1 56be 707a 5fbe fbfa 43be
00000010: 61e3 04be 4a3d 553e d83c 7abe 74bd 6fbe
00000020: b3d0 82be 630e 39be 6e4c 3abe 21ab fabd
00000030: 52d9 37bd 8b11 1ebe 4fc9 3dbe c090 5bbe
00000040: 198a 233d b05b 55be 8636 5dbe d4ab 263d
00000050: 4a65 d8bd 51ed 54be 8c67 3cbe 65a7 55be
00000060: 10ef 62be 1d03 c6bd bcf4 63be 8f04 5fbe
00000070: 85cf 32be 4e2f 6cbe e2c2 07be d431 6ebe
00000080: 159d 4dbe dfca 55be f466 4fbd 4c7b 5abe
00000090: 3efc 7bbe 2c72 6ebe 09eb a33e d848 68be
000000a0: 8769 7dbe 460a 6bbe 8627 dc3e fddc 9fbd
000000b0: 3173 56be 16ed 48be c3e9 4ebe a0a8 4bbe
000000c0: 6f36 c4bc d6aa 5bbe 8084 50be 396f 6abe
000000d0: 933e 94bd a547 59be d260 69be 913f 43be
000000e0: 87f7 5fbe 1093 e5bc 1f68 4abe 3ae0 0abe
000000f0: 36ff 51be ab1d 63bd 32ca 83bd aac1 4ebe
00000100: 9b53 02be d07b 4dbe 2ef6 51be 24af 5bbe
00000110: a416 5ebe 4fb8 6ebe 7e7c 55be 456e 3abe
00000120: 1ebd 6ebe 2815 4bbe 49fe 64be d01e 42be
00000130: a7c8 4bbe 561c fdbd b537 a93e e958 78be
00000140: 28d5 8dbd 9ba1 5cbe e356 6fbe 131a 4ebe
00000150: a221 59be 3b1d 663e fcf5 50be 9b15 16be
00000160: 8d3f e9bd 1ca5 02be 6f4b 65be 69b1 4fbe
00000170: 318f a3bd 0f50 5bbe 83ca 55be fc1b 5fbe
00000180: 7748 55be 820c 1dbe 7654 4dbe 4da4 cfbd
00000190: 635f 49be 66eb 5cbe 0ba7 19be f159 6abe
000001a0: ca65 57be a0a2 4abe 143e 3abe 6f44 863e
000001b0: 11cd ecbd 1800 53be be92 67be d6fe 4abe
000001c0: c622 a23a f0ae 51be 2f3e 4ebe 2538 85be
000001d0: ed6d 0abe 610c 27be 49ae 74be 2ada 74be
000001e0: 12e0 4fbe 9fcf 4dbe 8595 5bbe eb7b 0bbe
000001f0: d695 c3bd c3f0 4abe 6e0a 57be ac15 60be
00000200: 8e25 3fbe d0ab debd 2d2f eebd 9475 a9bd
00000210: 9adb 08be 8cc3 d43c a2eb 14be 3fdb 15be
00000220: 0c24 12be 8115 1bbe 727c 9cbd e6af 35be
00000230: ffb7 45be b33a 30be bc9a 12be 824d debd
00000240: 43b8 31be 050e debd 548a f6bd 5698 e3bd
00000250: 3dae 57be b542 fcbd 9968 a8bd e244 f0bd
00000260: 718e 01be 4d39 2fbe 50a3 dabd 874d f8bd
00000270: 8ed8 22be bb9b 28be 3a63 37be 2130 ffbd
00000280: 98b8 cfbd d1b6 e4bd ffff cbbd 31a0 0dbe
00000290: 2051 fbbd 9aec e3bd a752 163e 0ef5 01be
000002a0: 69db 05be 6f50 f0bd 8e6e bf3d c5e9 1bbe
000002b0: d5ff ecbd 5af1 b7bd 7447 13be 694b 2abe
000002c0: b897 5dbe c254 ebbd 837f d1bd 2f10 1abe
000002d0: 5a70 4fbe bc23 c5bd beee 0dbe 6ff7 dabd
000002e0: be73 e9bd f998 2abe 708c c2bd 557e 63be
000002f0: fcaf f0bd 4b1d ecbd d320 c4bd ca42 d3bd
00000300: aed8 54be 7cbe b1bd d265 c6bd a4a9 eebd
00000310: 148b d5bd 9f2e 1ebe 7110 4abe b995 5cbe
00000320: 8392 2ebe 91a1 40be c78d 02be 3239 d3bd
00000330: 7716 e3bd 684e 80be 1583 ad3d 3369 20be
00000340: 6bc5 74be 8920 03be 91bf 0bbe eb03 bdbd
00000350: 68ae efbd 013d 363e 06d6 d8bd fc4c 24be
00000360: 54a5 4cbe ae7a 3abe 735c e8bd a448 47be
00000370: 6a7a 11be de31 ddbd a373 dfbd dae8 e2bd
00000380: 5790 dcbd 7999 2ebe 2b07 d2bd be73 2bbe
00000390: 7b9d bfbd f257 f8bd c117 10be 904e 23be
000003a0: adb7 20be 3016 37be f2b6 94bd 64aa 563d
000003b0: d411 f1bd 35c6 c4bd 7f29 efbd 30de d2bd
000003c0: 5ebb debd 42d1 d6bd 6496 34be 5a0e 2ebe
000003d0: 672e 50be 5ade 6dbe 097f 10be b8c8 03be
000003e0: d009 ebbd 8247 cebd a07e 2abe cfb8 4abe
000003f0: 72e5 3bbe 5a1f c9bd 45cb ebbd 15e8 e2bd
-0.14230998 -0.20990595 -0.2182405 -0.1913871 -0.12977363 0.20824161 -0.24437273 -0.23412114
-0.2554985 -0.18071894 -0.18193218 -0.122396715 -0.044884987 -0.1543638 -0.18533824 -0.21441936
0.039926622 -0.20835757 -0.2160283 0.04069121 -0.10566194 -0.20793654 -0.18398875 -0.20864637
-0.22161508 -0.096685626 -0.22261328 -0.21779083 -0.17461975 -0.2306492 -0.13257936 -0.23261195
-0.20079453 -0.2087817 -0.050635293 -0.21336097 -0.24607942 -0.2328574 0.32015255 -0.22684038
-0.24747287 -0.22953138 0.42998904 -0.07805822 -0.2094238 -0.19621691 -0.2020636 -0.19888544
-0.023951737 -0.21451887 -0.20363045 -0.2289399 -0.072384976 -0.21218736 -0.2279084 -0.19067217
-0.21871768 -0.028024226 -0.19766282 -0.13562098 -0.20507511 -0.055448215 -0.0643505 -0.20191064
-0.12727205 -0.20066762 -0.20504066 -0.2145353 -0.21688324 -0.23312496 -0.20848271 -0.18206127
-0.2331433 -0.19832289 -0.22362627 -0.18957067 -0.19900762 -0.1235892 0.33050314 -0.24252667
-0.06925422 -0.21546023 -0.23372988 -0.20127134 -0.21204236 0.22472088 -0.20406336 -0.1465668
-0.113890745 -0.12758297 -0.22392057 -0.2028252 -0.07986296 -0.21417259 -0.20878033 -0.21788019
-0.20828424 -0.15336803 -0.2005175 -0.1013876 -0.19665293 -0.21574172 -0.15005128 -0.22885872
-0.21034923 -0.19788599 -0.18187743 0.26224086 -0.11562551 -0.20605505 -0.22614571 -0.19823775
0.0012369982 -0.2047689 -0.20140909 -0.26019397 -0.13518496 -0.16313316 -0.2389461 -0.23911348
-0.2030032 -0.20098732 -0.21443756 -0.1362149 -0.09550063 -0.19818406 -0.21000072 -0.21883267
-0.1866667 -0.108726144 -0.11630092 -0.082743794 -0.13365021 0.02597215 -0.14543012 -0.14634417
-0.14271563 -0.15144922 -0.076409236 -0.17742881 -0.1930847 -0.17209892 -0.14316839 -0.10854627
-0.17355447 -0.10842518 -0.12038103 -0.1111304 -0.2106256 -0.12317411 -0.082230754 -0.11731888
-0.12651993 -0.17111702 -0.10675681 -0.12124162 -0.15902922 -0.16465656 -0.17908946 -0.12460352
-0.1014263 -0.11167682 -0.09960937 -0.1383064 -0.12271333 -0.111291125 0.14679967 -0.12691137
-0.1307198 -0.117340915 0.093472585 -0.15225895 -0.115722336 -0.08981581 -0.14382726 -0.16630329
-0.21639907 -0.11490776 -0.10229399 -0.15045236 -0.20257702 -0.096259564 -0.13860604 -0.106917255
-0.11399029 -0.16659917 -0.094994426 -0.2221616 -0.11752316 -0.11529025 -0.09576573 -0.103154734
-0.20785782 -0.0867891 -0.096873894 -0.1165345 -0.10426918 -0.15447472 -0.19732834 -0.2154149
-0.17048077 -0.18811633 -0.12749396 -0.103136435 -0.11088269 -0.2505982 0.084722675 -0.1566513
-0.23903434 -0.1280538 -0.13647296 -0.09229263 -0.11703187 0.17796709 -0.10587697 -0.16044992
-0.19984943 -0.18210861 -0.11345758 -0.19461304 -0.14206854 -0.10800527 -0.10910728 -0.11079569
-0.10769718 -0.17050733 -0.102552734 -0.16743371 -0.09356209 -0.12126149 -0.14071561 -0.15947938
-0.15695067 -0.17879558 -0.072614565 0.05240859 -0.117709786 -0.096081175 -0.116778366 -0.10296285
-0.10875581 -0.104891315 -0.17635494 -0.16997662 -0.20330201 -0.23229352 -0.1411096 -0.12869537
-0.11476481 -0.10072233 -0.16649866 -0.19797061 -0.18349245 -0.09820433 -0.1151338 -0.110794224

lstm.bias_hh f4 [512]
00000000: 8fc6 25be 6f2e 54be 8a23 60be 6876 44be
00000010: e1f8 0cbe a077 203e 62d4 70be 614d 77be
00000020: 04b2 75be 6135 20be 19c5 3ebe 60de c9bd
00000030: 8afc c93a d515 9cbd fe03 15be 169e 4cbe
00000040: 2f78 433d 0ccd 50be a7e1 66be 5ebd 4c3d
00000050: 66de edbd 9d11 45be c9d1 3cbe 8996 50be
00000060: 1028 5ebe a14b e2bd 4e28 64be 92d1 5dbe
00000070: af21 3dbe 8e79 84be 315b c6bd fef9 77be
00000080: 26c9 3dbe 502b 52be 9bcf 50bd 9c60 81be
00000090: b021 76be c6e4 5cbe 4353 af3e a625 6abe
000000a0: 3729 81be fa1e 67be 0d75 d63e b444 62bd
000000b0: 9781 57be 3604 4abe 6413 4dbe a995 7ebe
000000c0: 8936 b4bd ccef 5bbe 659e 56be 04bd 80be
000000d0: b9af c7bd 9d1c 57be 8b90 7bbe 1260 42be
000000e0: 973f 5dbe 967a 08bc 4cde 49be 2cf8 0abe
000000f0: b39e 58be f8ea fd3b 5a6a 403c cd7d 4ebe
00000100: a7d4 81bd 3cde 4dbe 0c19 50be 7e5d 5bbe
00000110: f062 57be 3495 76be 3a58 6ebe 75e0 3bbe
00000120: 6ed0 45be ae03 7ebe 2284 64be 0f2b 43be
00000130: 19e7 57be 43d7 e4bd 8103 a83e d311 71be
00000140: 9ebe d3bd 85ec 6dbe 36fa 79be 1bdd 4bbe
00000150: c1cb 59be 414b 893e 3c9f 54be d342 2bbe
00000160: d282 0cbe 949a 19be cb7e 6abe a97c 31be
00000170: 15ce debd ccbd 53be 45e7 55be 29d7 5dbe
00000180: eb30 55be e313 42be 9dc0 4abe f3fb 16be
00000190: 741c 4abe 2621 5cbe 227b 08be f95b 60be
000001a0: 7787 3dbe 31b4 38be f04f 36be 1cde ae3e
000001b0: 01d7 03be e7d0 59be e731 66be 77a3 4fbe
000001c0: fcc3 f9bd 1aa7 53be 0e98 4cbe c6b6 6dbe
000001d0: 6476 fcbd 3bd9 4dbd 2fad 72be 0b78 8ebe
000001e0: ac1d 5fbe b947 4fbe 7eb1 77be c163 52be
000001f0: 9b50 ccbd 0d17 48be 8e62 51be 069d 60be
00000200: efd3 1abe ef8e debd 3243 eebd 5472 a9bd
00000210: 8ab1 fabd 790d 9d3b 74b8 14be 5f6d 16be
00000220: 201a 10be 7f6c 45be c86c 9bbd 5eda 3cbe
00000230: a902 02be 4ebe 4ebe 25a1 14be ecce e8bd
00000240: 2872 c8bd e736 debd 0112 efbd 145b 4bbe
00000250: 72be 53be 77dc fdbd e225 a8bd f769 f2bd
00000260: 120a 01be 151d 1fbe 4643 dabd 174e f8bd
00000270: 5c7a 21be 567f 21be f103 1abe 8a6d febd
00000280: b1a8 cebd daa6 e4bd 17bf ecbd c9f7 15be
00000290: ea17 f9bd d746 d9bd b1af e23d 1614 02be
000002a0: 99fa 05be b1b2 eebd 1ec6 ab3d fcee e0bd
000002b0: 021a edbd 9eef b7bd a795 13be 7450 2bbe
000002c0: 36d4 16be 985f ebbd 2c0a d1bd a278 1bbe
000002d0: 8bee 04be c1e2 c4bd ce7b 0dbe 32f5 dabd
000002e0: 1774 e9bd 26b3 12be 719e c4bd 29e2 5bbe
000002f0: 912d f0bd a1b6 e8bd 6baa 30be 1b43 d3bd
00000300: b4ed 41be 40be b1bd 0170 c6bd 4fb3 eebd
00000310: 4f9d d5bd 83f7 1dbe f4fa 2ebe e265 38be
00000320: 7f3a 25be 2491 30be 818b 02be e94d d3bd
00000330: 2a62 e5bd fe72 4ebe c7b4 c33d 9126 21be
00000340: 3204 43be 74d5 02be daae 0bbe b292 bcbd
00000350: 4aad efbd a85a e23d 8413 d9bd 7662 18be
00000360: ecfa 19be afd8 37be 7896 eabd 961c 5bbe
00000370: 138e debd 61d8 dcbd ee71 dfbd 18cd e2bd
00000380: 2b87 dcbd cea4 2dbe c43f d2bd 39c6 30be
00000390: 3b9e bfbd 3438 f8bd 1b9d 12be bab6 24be
000003a0: d94f 20be 1600 25be 7e54 95bd dd0c e63d
000003b0: 5617 11be 0d3b c4bd 95f3 eebd 2249 d3bd
000003c0: 7074 0dbe c9c3 d6bd bbbf 2cbe e0f2 28be
000003d0: 1935 38be ed20 4bbe 45a3 10be 01f8 00be
000003e0: 76fa febd 3042 cebd 0af5 2abe 2320 3ebe
000003f0: 6a6c 27be 93f3 c8bd 1cda ebbd 4ce4 e2bd
-0.16189025 -0.20720838 -0.21888557 -0.19185793 -0.13766815 0.15670633 -0.23518518 -0.24150611
-0.23993689 -0.15645362 -0.18629874 -0.09856868 0.0015410346 -0.07621352 -0.14552304 -0.1998218
0.047722038 -0.20390719 -0.22547017 0.049985282 -0.11614685 -0.19245 -0.18439402 -0.20369925
-0.2169497 -0.11049581 -0.22281 -0.21661976 -0.1846988 -0.2587399 -0.09685362 -0.24216458
-0.18533763 -0.20524335 -0.050979238 -0.2526902 -0.24036288 -0.21571645 0.3424321 -0.22865924
-0.25226757 -0.2257041 0.41886178 -0.0552413 -0.21045528 -0.19728169 -0.20026928 -0.24861778
-0.08799464 -0.21478194 -0.2095886 -0.25144207 -0.09750313 -0.21007009 -0.24566858 -0.1898196
-0.21606289 -0.008330008 -0.19713706 -0.13571233 -0.21154289 0.0077489577 0.011744106 -0.20165177
-0.06339388 -0.20104307 -0.20322055 -0.21422383 -0.21033835 -0.24080354 -0.23275843 -0.18347342
-0.19317791 -0.24806091 -0.2231603 -0.19059394 -0.2108425 -0.111738704 0.32815173 -0.23541956
-0.10339092 -0.23234756 -0.24411854 -0.19908564 -0.21269132 0.26815227 -0.20763868 -0.1672471
-0.13721779 -0.15000373 -0.2289993 -0.1733271 -0.10879151 -0.2067787 -0.20889004 -0.21664108
-0.20819442 -0.18952899 -0.19800039 -0.14744548 -0.19737417 -0.2149702 -0.13328221 -0.21910085
-0.18508707 -0.18037488 -0.17803931 0.3415383 -0.12874986 -0.21271096 -0.22479974 -0.202772
-0.12195584 -0.20669213 -0.1997988 -0.23214254 -0.12327269 -0.050255995 -0.23698877 -0.2782596
-0.21788663 -0.20242204 -0.24188802 -0.20545866 -0.09976312 -0.19540043 -0.20447752 -0.219349
-0.15119909 -0.10867106 -0.1163391 -0.082737595 -0.12240894 0.004792866 -0.14523488 -0.1469016
-0.14072466 -0.19279669 -0.07589108 -0.18442675 -0.12696327 -0.20189783 -0.14514597 -0.11367592
-0.097873986 -0.108503155 -0.11673356 -0.19858962 -0.20678118 -0.12395566 -0.082103506 -0.118366174
-0.12601498 -0.15538438 -0.10657363 -0.121242695 -0.15769333 -0.15771231 -0.15040566 -0.12423237
-0.10090769 -0.11164637 -0.11559885 -0.14645304 -0.12162764 -0.10609215 0.11068667 -0.12702975
-0.13083877 -0.116551764 0.08387397 -0.10983083 -0.11577226 -0.0898125 -0.14412557 -0.16729909
-0.1472939 -0.114928424 -0.10207018 -0.15182737 -0.12981622 -0.096135624 -0.13816759 -0.106912985
-0.113990955 -0.14326152 -0.09600533 -0.21472992 -0.11727441 -0.11362959 -0.1725251 -0.10315534
-0.18938333 -0.086788654 -0.09689332 -0.11655294 -0.10430395 -0.1542645 -0.17087919 -0.18007615
-0.16135596 -0.17242867 -0.12748529 -0.103175946 -0.11200364 -0.20161054 0.09555965 -0.15737368
-0.19044569 -0.12776738 -0.1364092 -0.092076674 -0.11702974 0.110524476 -0.105994254 -0.1488131
-0.15037125 -0.17953752 -0.11454481 -0.21397623 -0.10866942 -0.107834585 -0.10910402 -0.11074275
-0.10767969 -0.16957399 -0.102660686 -0.17263116 -0.09356352 -0.12120095 -0.14317743 -0.1608533
-0.1565546 -0.16113314 -0.07291506 0.11232922 -0.14169058 -0.095815755 -0.11667553 -0.10316683
-0.13813949 -0.10486562 -0.16870014 -0.164989 -0.17989005 -0.19836779 -0.14124782 -0.12594606
-0.124501154 -0.10071218 -0.16695037 -0.18566947 -0.1634995 -0.09812083 -0.115162104 -0.110787004

output_w.weight f4 [5, 128]
00000000: b23f 11bd 027a 1dbb 7ab8 be3a e1c5 493b
00000010: 49b7 d43c 8897 27bd 59b0 21bc b333 363c
00000020: 3ec7 fdba 6fc6 a7bd 15fa 043c 355e 01bc
00000030: 9983 ff3c 809e cdbc b950 44bd cc27 073c
00000040: bfa5 5ebe af59 12bb c2d9 eabc 0ced dc3d
00000050: a31c 9c3d ba1c 823b 5d1c 9cbb a6a2 dcbb
00000060: 5013 043a 0c1b 0a3c 0c4e 8dbb 46c7 553a
00000070: 4892 a1bc 205d ef3b 80b0 883c 473e b5bb
00000080: a634 2cbc d78d ec3b 76b0 edbc 4406 0c3d
00000090: a1ac 06bc b093 5a3b 0cee 6f3d 5a1c 06bc
000000a0: afbc 1abc 18a1 f439 38f7 05bc 6603 b63c
000000b0: 5833 39bc 3ed3 243c 68e4 2c3a 47d5 b2bc
000000c0: 1007 d53c 828b 243c b0bb 32ba a479 293c
000000d0: 0522 b03d e82a 213b 9270 e53c b466 6dbb
000000e0: 7645 be3b 28ab b1bd f8f0 043c 7867 ed3d
000000f0: 8e5e b7bc 785b eebd c7cf 1f3e 34bf 03ba
00000100: e341 ef3a 7f4d 99b9 dab2 b4bb 353a ccba
00000110: 8fde 403b 0528 96bc ec69 453d e0c7 88bc
00000120: 6672 fbbb 4056 91bc 4cee b03a a054 32bb
00000130: 3652 54bc ad33 6b3d 08ac 94bd f45b 4cbc
00000140: cb59 863e 083a 353c a06f f239 e2b6 c43b
00000150: 3c8d 09ba 725a 8e3d b67f 92ba e597 a9bd
00000160: c2bf eabd 4fb9 72bc 3fc5 213b 1bcb 2bbd
00000170: acba 86bd 3257 53bc 12a0 b13b c6f7 53bb
00000180: 2882 97bb 7882 013d 6d95 7fbb 99e0 e43d
00000190: 6884 c339 c5db bd3b b396 4b3d 7d9a 943c
000001a0: 96a5 0ebd ec1b 073c d637 afbb a965 e33c
000001b0: 496d 85bd 7143 52bc 5fdc bfbb 1673 46bb
000001c0: d8b9 123e f990 04bc 81e1 2abd 5ca6 523b
000001d0: b40f 1ebc 854f 6d3c 8668 6ebc 09b5 b0bc
000001e0: dc8d d33b 7ca7 4bbc c7bb ee3b 6acf 8abc
000001f0: d0b0 313d 2667 54bc 6088 d33b 39bb be3a
00000200: 7398 b33d e404 973c 7e75 65bb 550b 07bd
00000210: 02b8 87bd 75b0 66bd b124 cd3c 4f8d a13b
00000220: 20e6 403d 8dfa 213d 11eb 80bc 4f3c a33d
00000230: d11c b63c 4390 51bd 522e 303d ccf5 3bbd
00000240: b382 a03e 1d9e 8ebc fac1 083d 8793 b03e
00000250: c391 83bd 66af ffbb b19b f83c ed57 47bc
00000260: b731 b23c 06d3 81bd b02c f13c 8175 86bc
00000270: da12 17bd 6774 6dbd b8fa d53c c5e7 2bbd
00000280: 6db6 e93b d808 703c bf2c 503d 50f9 8cbc
00000290: ea04 fd3b b451 453d cc11 eabc 2dd9 c33c
000002a0: 0134 213c 37ec 8abb 7cbb 883d 650d c03d
000002b0: e3c0 abbc 6926 2f3c 78e4 06bd 185a 873d
000002c0: 71c9 823c cefb 0ebc 6758 23bc e91b 16bd
000002d0: 6ce5 13bd 97be c8bc f0d4 0ebd 765a 833b
000002e0: 470f 433c 8796 bd3c 53c1 1fbd 8945 113d
000002f0: f699 76bb 1c3d 273c 7404 d1bc 2e1b 25bc
00000300: 3565 0dbe a68f 203c cf84 b0bc 710d 96bc
00000310: 11d0 c03c efc8 003d 6521 fcbc 2f2c dd3c
00000320: c147 8bbd ad37 6e3d 748f 43bc 38ad c33a
00000330: da1d 23bb 35a2 b63b 58a6 0abd 413d 023d
00000340: 30ba d03d 3c33 353c 6775 26bd 41ff 753c
00000350: ed61 48bc 9eac e4bc 4ff1 533c a2d3 483b
00000360: d915 69bc 41e6 173d dee6 27bc 1c9d 86bc
00000370: cd41 99bb 48c3 c23b 4d55 eb39 5d88 e43c
00000380: 732d 243b d575 8d3d a5ea ab3c 1ab5 84bd
00000390: 883a 083c 36fc 883c 4d0e 9cbd 7b43 19bd
000003a0: 7ac5 703d 65be fabc 0e53 2abd e966 843d
000003b0: 052b d4b9 2329 ca3b c0a3 3ab7 23a3 98bc
000003c0: 4663 ac3d 2681 8f3b 7f6e 74bc 5262 5d3d
000003d0: 69e2 dbbc 75ae 7cbb be63 a5bc a985 2a3c
000003e0: dabb 5b3d b5fd f83b c7a2 62bd 2133 66bd
000003f0: 7830 0f3d f631 6c3c 7f1f 853c 52f7 e43a
-0.035461135 -0.002402902 0.0014550828 0.003078811 0.025966303 -0.040915996 -0.009868705 0.0111207245
-0.0019361747 -0.08192145 0.008116265 -0.007895996 0.03119068 -0.025099993 -0.047928546 0.008249234
-0.21742915 -0.0022331288 -0.028668288 0.107874006 0.076226495 0.0039707096 -0.0047641234 -0.0067332564
0.0005038278 0.0084293 -0.0043122824 0.0008154999 -0.019723073 0.0073048025 0.016685724 -0.0055311057
-0.010510599 0.007219057 -0.029014807 0.034185663 -0.008219869 0.0033352189 0.05857663 -0.0081854705
-0.0094444 0.0004665933 -0.008176617 0.022218417 -0.011303745 0.01006013 0.00065953145 -0.021830214
0.026004344 0.010043027 -0.0006818129 0.010343943 0.08600239 0.0024592225 0.02800778 -0.0036224546
0.00580662 -0.086752236 0.008114092 0.11592001 -0.022383954 -0.1163854 0.15606605 -0.0005025745
0.0018253889 -0.00029240173 -0.005514485 -0.0015581312 0.002942953 -0.01832963 0.048196718 -0.01669687
-0.0076735495 -0.017741323 0.0013498752 -0.0027211085 -0.012959054 0.05742233 -0.07259375 -0.012473095
0.26240382 0.011061199 0.00046241004 0.0060032466 -0.0005247181 0.06950845 -0.0011176977 -0.08280925
-0.11462356 -0.014814689 0.0024684218 -0.041941743 -0.065785736 -0.012899207 0.005420693 -0.003234373
-0.00462367 0.031618565 -0.0038998977 0.11175651 0.0003729195 0.005794021 0.049704265 0.018140072
-0.034825884 0.008246403 -0.0053472323 0.027758436 -0.06514985 -0.012833462 -0.0058551277 -0.0030281
0.14328706 -0.008091205 -0.041718964 0.0032142615 -0.009647299 0.014484291 -0.0145512875 -0.0215707
0.00645612 -0.012430068 0.0072855684 -0.016944606 0.043381512 -0.012964046 0.006455466 0.0014551646
0.08769312 0.01843495 -0.0035012658 -0.03296979 -0.066268936 -0.056320626 0.02504191 0.0049301754
0.047094464 0.039545584 -0.015737088 0.07970487 0.022230538 -0.05116297 0.043012924 -0.045888707
0.31349716 -0.017409379 0.033388115 0.34487554 -0.06424286 -0.0078028915 0.030347677 -0.012166959
0.021752222 -0.06339078 0.029440254 -0.016413452 -0.036883213 -0.057972338 0.026120529 -0.04196908
0.0071323426 0.014650546 0.050823923 -0.017208725 0.007721533 0.04817362 -0.02857294 0.023907268
0.009839059 -0.004239585 0.06676385 0.09377555 -0.020965999 0.01069031 -0.03293273 0.06608981
0.015965195 -0.008727027 -0.009969807 -0.03664771 -0.036107466 -0.024504943 -0.03487104 0.0040085865
0.011905498 0.023143066 -0.039002728 0.035466705 -0.003762839 0.010207441 -0.025514819 -0.010077281
-0.13808139 0.009799873 -0.021547703 -0.018316956 0.023536714 0.031441625 -0.030777643 0.026998607
-0.06800795 0.058158565 -0.011936057 0.0014928943 -0.002488962 0.005573536 -0.033850044 0.031796698
0.101917624 0.0110595785 -0.040639307 0.015014471 -0.012230379 -0.027914342 0.01293595 0.003064372
-0.0142264 0.03708482 -0.010247914 -0.016432337 -0.0046770335 0.0059436895 0.00044886247 0.027897054
0.0025051504 0.0690724 0.02098591 -0.06479855 0.008314736 0.016721826 -0.07619915 -0.03741787
0.05878208 -0.030608365 -0.041583113 0.06464941 -0.00040467843 0.0061694547 -1.112459e-05 -0.018632477
0.084173724 0.0043794094 -0.014918922 0.054048844 -0.02684136 -0.0038556133 -0.020189162 0.010407844
0.053645946 0.0075986036 -0.055331018 -0.056201104 0.034958333 0.0144162085 0.01625037 0.0017468727

output_w.bias f4 [5]
00000000: c227 17bd 81b4 6a3d ae6a 07bf dcb4 16bf
00000010: 7bd3 cebd
-0.03690315 0.05730105 -0.52897155 -0.5886972 -0.100989304

square_avg f4 [64]
00000000: 4eea e43c 406d b73d badf 8f3d 8ce3 8537
00000010: 5954 1c2f 3530 223c 8177 833b 54d7 282e
00000020: 8897 1f3c c708 b830 b611 953c 0429 df3a
00000030: 86ff 503b ebb0 943c 8462 6d36 57ad 0537
00000040: d2a0 4c2f 75b9 1331 3e63 5a3a c80c 343c
00000050: 73ec 8b34 4636 8934 6f22 8731 a334 9d2f
00000060: ef4e 992e d75e ca2e 4bd5 ef3c 9df2 9236
00000070: b8b3 d23d ccd5 5639 fd3a ee34 b8c2 b43c
00000080: 10bc 9a3c ef53 5f3d fa5d 493d 46a4 ab3c
00000090: c1ac 543d 001e ae3c 8827 2f2e bbe2 9e3c
000000a0: 03fe 7b3c 7a04 0c35 5cb3 d23a fbd1 de38
000000b0: 5b5a 3430 79cb c132 05c7 273d 2b55 ce3c
000000c0: 8820 453b 8583 8e3d e9fd 1f3b f547 233d
000000d0: c127 1631 83fb 492e a398 543d 8411 5d3a
000000e0: 3fed fe3c 7304 2e32 ecbb f436 366e f73c
000000f0: 926b 7d3d 0fb9 073d e94b 853c 49ce 093d
0.027943756 0.08956385 0.07025094 1.5960795e-05 1.4218084e-10 0.009899189 0.0040120487 3.8390027e-11
0.009740718 1.3390257e-09 0.018196922 0.0017025773 0.0031890585 0.018150767 3.5373096e-06 7.967777e-06
1.8610827e-10 2.1496736e-09 0.0008330828 0.010989375 2.6062807e-07 2.5557728e-07 3.9329318e-09 2.8595534e-10
6.971656e-11 9.2027434e-11 0.02927651 4.379383e-06 0.10288185 0.00020488276 4.4373874e-07 0.022065505
0.018888503 0.054523405 0.04916189 0.020952355 0.051922563 0.02125454 3.9825504e-11 0.019395223
0.015380385 5.216058e-07 0.0016075182 0.00010624897 6.561202e-10 2.2560686e-08 0.040961284 0.025187096
0.0030079205 0.06958679 0.0024412817 0.039863545 2.185047e-09 4.5925496e-11 0.05190338 0.0008433091
0.031118987 1.0129145e-08 7.2936436e-06 0.03020392 0.061870165 0.03313547 0.016271548 0.033643994

square_avg f4 [5]
00000000: 807f dd40 3a43 5941 3e25 b73d 9c40 503e
00000010: 1693 bb3c
6.921814 13.578913 0.0894265 0.20337147 0.022897284
