S-LSTM/Goal+Socail_Array_PyTorch/social_lstm/save/0/social_model_epoch_25.pth (torch, 815071 bytes, 22 tensors)

embedding_b f4 [64]
00000000: ec36 55bd dded b73e b6a8 8b3e 523c a1bb
00000010: be9d d0bc 2085 2b3c 65e8 c7bd 3fa8 84bb
00000020: 2506 3bbe c00c 4dbb e03e 863b 8019 d9bc
00000030: dfff 3bbe 2030 01be 86ea 17bd 8479 46bd
00000040: ec9d c0bc 0fbe 05bc 23d9 05be a3b7 3fbd
00000050: a562 7bbb 94fc 0dbd 7e67 9bbb a5b9 efbb
00000060: deaf 83bd ceec 8dbb d0c9 443d 318a 4fba
00000070: 006c b23e d328 21be 85b8 05bd a8d9 3fbd
00000080: 9479 12be 8ab6 533c ec17 e53d f113 05bc
00000090: 3b1d 4a3e 3a01 a73d de9c 1dbb 7829 1abe
000000a0: 5d47 56bc 182c c4bb be4c 7cb6 7fd4 2ebd
000000b0: 10df 553c 7525 8abc 67ea 8bbc b9ce 983d
000000c0: 23df e3bd a753 1b3e 46f3 6cbb 2dde 973d
000000d0: bd0d d9bb a337 1bbc 3879 a23d 4e44 95bd
000000e0: e550 25bd 798e 80bb dfd8 28bb a274 923d
000000f0: d38a 203e b5de 833d 1321 08be 99e3 f03b
-0.05205433 0.35923663 0.27277154 -0.004920521 -0.025465842 0.010468751 -0.097611226 -0.004048377
-0.18264063 -0.0031288117 0.0040968508 -0.026501417 -0.18359326 -0.12616014 -0.037088893 -0.04845573
-0.023512803 -0.008162989 -0.13071112 -0.04680599 -0.0038358357 -0.034664705 -0.004742562 -0.0073158317
-0.064300284 -0.004331208 0.048044026 -0.00079170155 0.34848022 -0.1573823 -0.032646675 -0.046838433
-0.14304191 0.012921939 0.11186203 -0.00812243 0.19737713 0.08154531 -0.00240498 -0.15054882
-0.013078538 -0.0059867017 -3.7595596e-06 -0.04268312 0.0130536705 -0.016863564 -0.017079545 0.07461304
-0.11126544 0.1516863 -0.0036155744 0.074154235 -0.006623952 -0.009473714 0.07933277 -0.07288419
-0.04036035 -0.003923234 -0.002576403 0.07151152 0.15677957 0.06438962 -0.13293867 0.0073513505

output_b f4 [5]
00000000: 2983 033d e124 1dbb b8f0 6bbf 32e8 66bf
00000010: 935a a7bd
0.032107506 -0.002397828 -0.9216418 -0.9019805 -0.081715725

embedding_w.weight f4 [64, 4]
00000000: a34a 543e ebb0 40bf 3a46 28be 3441 de3e
00000010: 56b0 d23d cb7a b53f 45df 3abd cc37 be3e
00000020: 4120 90bf ba70 2dbf 0d50 23be 38e4 fcbd
00000030: ac9a a2bc 08cc b3bb 914c 423c 044a 5cbb
00000040: 7a7e 1fbd ff4f 75bd f1ef 3abc 290b 163d
00000050: 6f5b 4e3f 3d0c 11bf bec3 fd3e d3b5 fa3e
00000060: 1b28 153f 4bee 513f 2a57 0f3e 4cbb 653d
00000070: 669e f839 7d92 bcba dd7c 3c39 72f8 b0bb
00000080: 9326 253d 6d6c af3e fcd7 8b3d bd3a aa3e
00000090: 382f 6934 bbf2 8c36 342c 8eba 2239 21bb
000000a0: 4630 17bf affb dc3e e712 de3e 75d9 cabe
000000b0: 15a4 03bf d74a 613c 96ae 06bf 51c4 26bc
000000c0: 3a61 213f 40c5 babe 5494 24bf e263 cd3e
000000d0: e458 853f 638c b13e d6a4 3a3e abae 323e
000000e0: 5604 c83d 0e2e 0c3d 3d61 ab3e 9aae 183e
000000f0: 9a22 f53b cd91 c23d 309a df3c 6bbc 19be
00000100: a552 d23d fd5f 223e 7e39 5b3e 0f75 3bbe
00000110: 4f5a 803b 2985 63bc dc11 ce3a 4196 07bc
00000120: c277 bd3e 7a1b fbbe aeb2 cf3e 0f53 f8be
00000130: 01ea 8c3f 2799 bf3e dd42 8ebf bcfb acbe
00000140: 887a 74b7 a483 3aba b0a4 a3ac 551e 823b
00000150: 0000 ec3d fd6d 523d de6b ef3e 6bad 7fbd
00000160: 86bf d5bc 66e3 013c e9ef 273c b4a4 83bb
00000170: 241e 503a 268d 94bb 5c94 073b d5c5 1fbb
00000180: 8658 c6be 7cf6 963e 95e1 2c3f d877 3c3e
00000190: 086b 97b8 80ff 1b38 999f c2ba c865 013a
000001a0: 2fa2 49bf 7473 92bf 3536 813e c0dc 87bf
000001b0: f8ab 3cb9 4a4f 6e39 6913 e1b9 98c4 443a
000001c0: e7de adbf 6b8f 44bf a863 21bc b543 023e
000001d0: 6b3a 24bf 156e 17bf 9cd7 293f fdef 203f
000001e0: 95d0 913e 134e 933e c846 953e 67db a4be
000001f0: 4061 2ebf 2766 4c3e f2f8 0e3d 681c 793e
00000200: 4e85 35bf 4f79 343f 08ad 18be f271 9abe
00000210: d0c0 8b3e 4e27 943f e0ab 8ebd 1cca cdbe
00000220: 968d bc3f 67f5 4dbe 53dc 203e 5bd5 ec3e
00000230: c7d4 643f f89a 293f 9d29 343e 17a3 3b3e
00000240: 347e 2bbf 4400 a93f 7f72 15bc 23ca 253f
00000250: c4da a73f db5f 80bf 09e4 823e 6ecb adbe
00000260: 0137 2abd df39 8dbd fa65 37bc e3e1 d9bc
00000270: 2802 6ebe 2fa9 9c3e e92f 7c3e a02a 80bc
00000280: bc72 c33f 99ee f83e b950 493e 1f7c 8c3e
00000290: 5771 b3bb bdbc 5fbb 7cdf ba3b c2a6 1abb
000002a0: b094 22a0 3dc1 142d 310f 4e20 f614 012b
000002b0: cc3c 52be fa3c 693e f5df b53e d686 cc3d
000002c0: f1a4 b9bb a569 a93c ee14 84bc ac7f babc
000002d0: b868 05bd ac37 e33c 8eaa 523c 68b1 01bd
000002e0: 993e b83d 8988 843f b94e 23bd d6ef 09bd
000002f0: 0ef9 a7be 8944 263f decc a73d a67b 5abd
00000300: eefb da3d 60b8 af3e cf13 4e3c 3f13 553e
00000310: 1088 32bf 6fc3 a2bf 65a3 27be 67f7 cf3d
00000320: 4a0e 2eb8 2a84 8733 dcbd 6eb6 e36c 0838
00000330: 8ea0 a5bf 0ef0 833f d8b8 6dbe 9033 473e
00000340: 5042 03b8 d249 9f3b c339 1837 cae7 d53b
00000350: 8aed e93c ea4d 3f3c 9dc8 b93c 0163 8bbb
00000360: 1838 bf3e 2b6a 83bf 9839 bcbd e967 47bc
00000370: a718 503f efed f5be c0d1 c63d d9f8 aabe
00000380: 125d 333f 26e1 1ebf 48c5 80be f63c 9e3e
00000390: 66bb 99b9 0008 fe29 0046 3cb0 0811 e1ab
000003a0: c4ef cdb6 c2e9 2a3a aa99 69b5 5d63 b4ba
000003b0: 44a5 8abf 524e 2fbf 7915 acbb 9b11 4d3d
000003c0: 2b24 05bf cb65 86bf 528d 38be 118c a3ba
000003d0: b43e 783f 6a68 893f 86c2 dd3d 53c1 0fbb
000003e0: e424 06bf 1b89 b13e ab8e 5b3d e2d4 343e
000003f0: a6fc 95bf ed1d 2c3f 34a8 66be d0c3 d6bd
0.20731597 -0.75269955 -0.1643304 0.4340912 0.1028754 1.4178098 -0.045623083 0.37151945
-1.1259843 -0.6775013 -0.15948506 -0.12348217 -0.019849144 -0.005486969 0.011859075 -0.0033613453
-0.038938977 -0.059890743 -0.011409746 0.036631737 0.80608267 -0.566593 0.49563402 0.48966846
0.5826432 0.8200423 0.13998094 0.056086823 0.00047420262 -0.0014386919 0.00017975592 -0.0054007107
0.04031999 0.3426241 0.06828305 0.3324794 2.1716994e-07 4.2005827e-06 -0.0010846914 -0.0024600704
-0.59058034 0.4316077 0.43373796 -0.39619032 -0.51422244 0.013750753 -0.52610147 -0.010178641
0.6303898 -0.36478615 -0.6428883 0.40115267 1.0417752 0.3467742 0.18226942 0.17449443
0.09766452 0.03422361 0.33472624 0.14910355 0.0074809315 0.095004655 0.027295202 -0.15013282
0.102696694 0.15856929 0.2140865 -0.18306373 0.0039170156 -0.013886728 0.0015721875 -0.008275569
0.3700543 -0.490444 0.4056601 -0.4850087 1.1008912 0.37421533 -1.1114155 -0.33785808
-1.4572062e-05 -0.0007114953 -4.6510226e-12 0.003970901 0.115234375 0.051374424 0.46761984 -0.062421244
-0.026092302 0.007927751 0.01025007 -0.004017437 0.00079390616 -0.004533428 0.0020687794 -0.0024379392
-0.38739413 0.29484928 0.6753171 0.18405092 -7.220177e-05 3.7192833e-05 -0.0014848589 0.0004936126
-0.787631 -1.1441483 0.2523667 -1.0614243 -0.0001799314 0.00022726986 -0.00042929806 0.00075061014
-1.3583649 -0.7678134 -0.00985042 0.1272114 -0.6415164 -0.59152347 0.6634462 0.62866193
0.28479448 0.28770503 0.29155564 -0.3219864 -0.6811714 0.19960843 0.03490538 0.24327242
-0.7090653 0.704976 -0.14909756 -0.30165058 0.27295542 1.1574495 -0.06966376 -0.4019326
1.4730709 -0.20113145 0.15709047 0.46256527 0.8938717 0.6625209 0.17593999 0.18323933
-0.66989446 1.3203206 -0.009121536 0.6476156 1.3113637 -1.0029253 0.25564602 -0.33944267
-0.041556362 -0.06895804 -0.011193747 -0.026596969 -0.2324301 0.30597827 0.24627651 -0.015645325
1.5269389 0.48619536 0.196597 0.27438447 -0.0054761576 -0.0034139596 0.005702911 -0.002359793
-1.377113e-19 8.4557335e-12 1.7453905e-19 4.5859096e-13 -0.20531005 0.22777167 0.35522428 0.099866554
-0.0056654145 0.020680258 -0.016123261 -0.022765957 -0.03257057 0.027736507 0.012858046 -0.03166333
0.089963146 1.0354167 -0.039869998 -0.03367599 -0.328072 0.64948326 0.08193372 -0.053340577
0.10692583 0.34320354 0.012577965 0.20808123 -0.69738865 -1.2715892 -0.16370924 0.1015461
-4.149814e-05 6.310468e-08 -3.5575276e-06 3.2526335e-05 -1.2939622 1.0307634 -0.23215044 0.19453263
-3.1294592e-05 0.004861095 9.073355e-06 0.0065278756 0.02855565 0.011676291 0.022678668 -0.0042537455
0.37347484 -1.0266775 -0.09190673 -0.01217077 0.81287616 -0.4803309 0.097079754 -0.3339298
0.7006389 -0.620623 -0.25150514 0.30905885 -0.00029322057 1.1281254e-13 -6.849348e-10 -1.5991939e-12
-6.1373885e-06 0.0006519818 -8.7022875e-07 -0.0013762523 -1.0831685 -0.6847888 -0.005251583 0.050065618
-0.5200831 -1.0499815 -0.1802266 -0.0012477656 0.9697068 1.073499 0.10828118 -0.0021935299
-0.5240004 0.34674916 0.053602856 0.17659333 -1.1717727 0.67233163 -0.22525102 -0.10486567

embedding_w.bias f4 [64]
00000000: 3ec6 a53d 0fbc 273e 851d 113e 523c a1bb
00000010: be9d d0bc e846 87bc 5ef4 28bd 3fa8 84bb
00000020: 97c9 db3d c00c 4dbb 84a1 65bd 9d97 a73c
00000030: 1b4d 183e b27c 323e 86ea 17bd 8479 46bd
00000040: ec9d c0bc 0fbe 05bc 4428 0a3e e255 3c3a
00000050: a562 7bbb 94fc 0dbd 7e67 9bbb a5b9 efbb
00000060: deaf 83bd ceec 8dbb 34bc c2bd 318a 4fba
00000070: a525 1e3e 915e f23d 85b8 05bd b9fd 34bd
00000080: 650f 223e 3ba2 eb3c a1a7 cb3e a157 943e
00000090: 8506 093c a93c 6ebd de9c 1dbb 7845 d53d
000000a0: 2a34 923d 182c c4bb be4c 7cb6 7fd4 2ebd
000000b0: 10df 553c 7525 8abc da12 34bd 32ac b5bd
000000c0: 8808 7f3d 71fc 0d3e 46f3 6cbb 3a1b e0bd
000000d0: bd0d d9bb a337 1bbc aa91 853d 4e44 95bd
000000e0: 29ed 81bc 798e 80bb dfd8 28bb 7a75 b23e
000000f0: 79b5 dcbd 2ce4 24be 604d de3d a017 68be
0.08094452 0.16380332 0.14171417 -0.004920521 -0.025465842 -0.016513303 -0.04124867 -0.004048377
0.107318096 -0.0031288117 -0.056062236 0.020458037 0.14873163 0.1743038 -0.037088893 -0.04845573
-0.023512803 -0.008162989 0.13491923 0.00071844284 -0.0038358357 -0.034664705 -0.004742562 -0.0073158317
-0.064300284 -0.004331208 -0.09508553 -0.00079170155 0.15444048 0.11834443 -0.032646675 -0.04418728
0.15826185 0.028763881 0.39776328 0.28973106 0.008363371 -0.05816332 -0.00240498 0.10413641
0.07138856 -0.0059867017 -3.7595596e-06 -0.04268312 0.0130536705 -0.016863564 -0.04396329 -0.08870734
0.062263995 0.1386583 -0.0036155744 -0.10942693 -0.006623952 -0.009473714 0.06521924 -0.07288419
-0.015860157 -0.003923234 -0.002576403 0.34855253 -0.10776801 -0.16102666 0.10854602 -0.22665262

embedding_t_w.weight f4 [1, 8]
00000000: 9d85 703f a989 b7be 9992 3c3e 19e4 15bf
00000010: 3f47 2f3b fe3e 5e3d fffc 063f 6b5e 35bf
0.9395388 -0.35847214 0.18415298 -0.58551174 0.0026745347 0.054259293 0.5272979 -0.70847195

lstm.weight_ih f4 [512, 65]
00000000: 129a e0b9 82fd d6bc 7fcc f83b 46ed 2539
00000010: eab2 9039 294f 05bb 8991 00bc fa9b bb1f
00000020: 3053 b7b9 583a 4439 f15e c93c cf2f e23b
00000030: e51a 91bc 1c91 b9bb c556 083b 7b27 a9bb
00000040: cffe 103c ba5b ed16 a77c 923c b192 2abd
00000050: ccc8 6eb9 6da6 443c 3f2a 123a e413 eb99
00000060: 9bc6 d03b d4d8 bdb6 27a4 c53c a2a8 6aa6
00000070: 3cb3 963a 7a80 3e3b a9d2 f83b 5f48 7c3c
00000080: 8252 8d3c 4c78 54bc aa26 56bd 58b1 f2bc
00000090: c600 dd3b 7cbc 68bb 194a ac3b 720e 8d3b
000000a0: f842 5dbc 9a73 a4b8 5cc7 172e 8d50 3c3b
000000b0: f629 17bc c8f0 54b9 1c9a d2ba df86 083c
000000c0: 36f2 87bb 489b 863c 76fa 8637 df63 973c
000000d0: af02 ee10 aa09 bf39 d57d 1b3c ba52 ab3c
000000e0: fb27 aa3b 925c 243b a61e 13ab 1ff7 8b3b
000000f0: f7fd 0d3c 6f7e bdbc 565c 8f3c 8281 a83c
00000100: 4dfb 03bb 86da 803c d128 eebc d7b0 b9bc
00000110: 2c90 b834 6361 9d3b ed59 0dba 3258 84bb
00000120: 58f9 0338 4ead bdbb 4cc0 2f39 8a50 283c
00000130: 2361 613c dc66 59bb 48bf 2dbc fed7 2f3b
00000140: c193 253b d377 323c 16c7 5b96 2273 153c
00000150: 7d40 99bc 33a8 16b8 3f2d 683b 4803 d039
00000160: 6cb2 8dab 2af3 c1bb 845f 28b9 959f 9b3b
00000170: 18bc 1b39 9da9 12bd f451 d63b d2e5 4d3c
00000180: e860 223c 4172 313c d9c7 413c b091 1cbd
00000190: 34b4 8fbc 8f9d 21bc 934a 56bb e12d f23b
000001a0: 6011 6239 adc0 8dbc 366b e5b9 1cdb d0b8
000001b0: 89e3 c2bb aadb 56bb a2b1 0639 9c2d 553b
000001c0: 98db 083c 1038 3bbb c049 82bc 0908 cb30
000001d0: 7078 c2ba b9e2 e522 4007 5527 469e 88ba
000001e0: eae2 013c e3c5 283c 8207 1239 07fe a73b
000001f0: 8924 e3bc f6ba 8a3b a0ae d8bb fefe 0c3b
00000200: 7551 413c 5c57 14bc 98af 553c 8379 04bd
00000210: 2e25 e3bb 1abe 5bba 39c1 5c3a 6f5d 1fbc
00000220: f631 32bc 08ce fb3a aa6b 7e3b d0b0 4a2c
00000230: 4e96 713c ffd8 8f3c 230a e83a 7275 a8bc
00000240: 7c2a c5bb 4c2c acba 2c0d 2a3b 8bfc 4dbb
00000250: 84a8 aa3b 7513 50bc 7370 15bb a5fe 6dbb
00000260: e064 ad37 2265 3a39 c6fa 77bb 94f1 cf38
00000270: fc91 cd3b 0cc3 e9b8 b71a 50bc 1415 4a3c
00000280: d0bc 273b fd2b 833c 6415 323c cc64 d63a
00000290: 657d 0ebd 350d bdbc d610 d3bb 5406 cbbb
000002a0: 3750 813b 203d 0b3c 14de ccbc 3c48 b1b8
000002b0: 15ad dab9 7096 38bb 77dc 49bb a8b8 1739
000002c0: 2e03 823c d2be 693c a030 6d3b 2af8 08bb
000002d0: d01c db38 d9af 003c 46f1 2ab9 7cf8 a3b1
000002e0: 543f c8b9 a21e 433b b274 b83b a4e3 94bb
000002f0: 5c46 2db8 2ff2 0dbc f76a 093c aa89 96bc
00000300: 457a 3a3c 4ceb 793c bc7f 00bc 60f7 e839
00000310: 03ae 29bd 141b 59bc fc1b 9438 f8ae 0937
00000320: 585b f4b9 20ba f43a 5af5 a13b 9ad1 06bc
00000330: 120f 1d3b 449a 2c3b c458 523c acdf f4bb
00000340: e083 c7bb a97f 3a3b bc5d d43a 00af 8b3b
00000350: 18e6 baba 0052 b9bb bace a8bc 7fa2 5120
00000360: 943f b53a cba5 1839 04cc aeb7 225e e73a
00000370: ba33 6f31 91c5 5abc 431e 87b0 ccb2 9ebc
00000380: 80f6 48bb 8984 973b 4c24 1d3c 94b1 f13b
00000390: 700d 043c 3d7d fabc 9086 85bc 0591 93bc
000003a0: b88d 15bc 4049 b7ba 0bf3 1d3c 0dc3 0dbc
000003b0: a8ad 2bb9 034e fa23 c8a4 7c3b 2326 4dbb
000003c0: f056 a0b7 3df7 383c 6ab9 403c c598 8dbb
000003d0: 004c fcbb 6e2c ab30 8ebf b73b 0001 aeb7
000003e0: b52d 34b9 9906 79bc 44c3 6dbb 1a9e 84ba
000003f0: d8ca ebba 17b9 1832 f600 76bc 90d1 1dba
-0.000428394 -0.026243929 0.007592737 0.00015824017 0.00027599122 -0.0020341373 -0.007847198 7.945562e-20
-0.0003496646 0.00018713751 0.024581404 0.006902672 -0.01771302 -0.0056630503 0.0020803672 -0.005162177
0.008849814 3.8347303e-25 0.017881704 -0.041643802 -0.00022772251 0.01200257 0.0005575753 -2.4306464e-23
0.006371332 -5.657881e-06 0.024126125 -8.14136e-16 0.0011497508 0.0029068277 0.007593472 0.015398114
0.017251257 -0.012968134 -0.052282967 -0.02962558 0.006744477 -0.0035512736 0.0052578566 0.0043047005
-0.013504736 -7.841662e-05 3.451049e-11 0.0028734535 -0.009226313 -0.00020307594 -0.0016067657 0.008332937
-0.004148747 0.016431466 1.6090675e-05 0.01848024 9.387858e-29 0.0003643756 0.00949045 0.02091347
0.0051927543 0.002507959 -5.2267424e-13 0.0042714025 0.008666507 -0.023131577 0.017500084 0.020569567
-0.00201388 0.0157292 -0.029072197 -0.022667332 3.437757e-07 0.004802869 -0.0005392123 -0.004038834
3.1465053e-05 -0.005788482 0.00016760937 0.010273108 0.013756069 -0.0033172881 -0.010604687 0.0026831622
0.002526507 0.010892826 -1.77535e-25 0.009121688 -0.018707508 -3.5919435e-05 0.003542736 0.00039675296
-1.0068175e-12 -0.00591888 -0.00016057311 0.0047492483 0.00014852022 -0.035806287 0.0065405313 0.012567
0.0099108 0.010830463 0.011827433 -0.038224876 -0.017541982 -0.009864225 -0.0032698258 0.007390723
0.00021559512 -0.017303789 -0.00043758162 -9.959025e-05 -0.0059475345 -0.0032784739 0.00012845409 0.0032528406
0.0083531365 -0.0028567351 -0.015904307 1.4772478e-09 -0.0014836919 6.2310626e-18 2.9563618e-15 -0.0010423146
0.007927636 0.010301086 0.00013926442 0.005126718 -0.027727382 0.0042337133 -0.006612614 0.0021514292
0.011799206 -0.009054031 0.013042353 -0.032342445 -0.0069319224 -0.00083825144 0.00084211264 -0.009726866
-0.010876169 0.0019211182 0.0038821497 2.8804077e-12 0.014745308 0.017559526 0.0017703216 -0.020563815
-0.0060170274 -0.001313576 0.0025947792 -0.0031431045 0.005208077 -0.012699951 -0.002280262 -0.003631511
2.067018e-05 0.00017776017 -0.0037838682 9.9155266e-05 0.006273506 -0.00011146636 -0.012701682 0.012334127
0.0025594719 0.016012186 0.010869358 0.0016356944 -0.034787554 -0.023077587 -0.006441216 -0.0061958227
0.00394633 0.00849846 -0.025008239 -8.4534724e-05 -0.00041709156 -0.002816584 -0.0030801573 0.00014469272
0.015870657 0.0142666865 0.0036192313 -0.002089987 0.000104481005 0.007854425 -0.00016302345 -4.7721738e-09
-0.00038194156 0.0029772897 0.0056291455 -0.0045437384 -4.131194e-05 -0.008663698 0.008387319 -0.01837619
0.01138169 0.015253853 -0.007842954 0.00044434797 -0.041425716 -0.013251085 7.0624024e-05 8.206574e-06
-0.00046607363 0.0018671192 0.0049425783 -0.008228684 0.0023965281 0.0026337067 0.012838546 -0.007472953
-0.006088719 0.002845744 0.0016202251 0.004262805 -0.0014259247 -0.005655527 -0.020606387 1.7756754e-19
0.0013828152 0.00014557612 -2.0837419e-05 0.0017651955 3.480848e-09 -0.013352768 -9.831144e-10 -0.019372366
-0.0030664504 0.0046239537 0.009591173 0.0073759053 0.008059844 -0.030577296 -0.016299516 -0.018013487
-0.009128027 -0.0013983622 0.0096404655 -0.008652461 -0.00016372523 2.7138094e-17 0.0038550366 -0.0031303249
-1.911397e-05 0.011289415 0.011762956 -0.00432119 -0.0076994896 1.2454515e-09 0.005607552 -2.0742882e-05
-0.00017183165 -0.015199327 -0.0036279717 -0.0010117919 -0.0017989529 8.889649e-09 -0.015014878 -0.0006020302

lstm.weight_hh f4 [512, 128]
00000000: 56b0 06bc e0bd 1838 4649 8c3b 8c5c 6b3b
00000010: e02e 893c d6a3 31bc b714 cf3a 7053 92b8
00000020: cf98 58b9 63f6 d2bb 8389 fd3a da96 16bd
00000030: 9e61 393c 3864 16bc 98e5 803b 4485 f93a
00000040: 64bc 28bb 0cea aa3b 31aa 7dba 6c73 d8bb
00000050: 74eb 4c38 e9f3 573b b2df ffba 7202 8f3b
00000060: 5216 0bbb 445a 513c da02 473b 86c5 5d3b
00000070: 034b 0c3d 5263 d2bb 8526 06bc 3d9a 73bb
00000080: a365 c7ba 4f8f d33b 2779 a5bc 58e7 cbbb
00000090: be68 36bb 1697 b83a e9fe 2c3d 72ba 793b
000000a0: 0e66 b93b c072 2bb9 4d62 cdbc 0093 30bc
000000b0: d4b4 1dbc e235 dfbb 36e8 123b 0d07 e0bb
000000c0: e772 fa3b aef8 1d3a 2263 063c 8816 533b
000000d0: 71df 43bc 3043 a9ba 07a7 ae3a b886 e2ba
000000e0: ea89 52ba f046 ce39 0a83 883b b37b 303b
000000f0: d193 e03b d4e3 3dbb 1580 5cba 6c3a 9ebb
00000100: 53d8 703c 9037 7bbb 1d9b 86bb 62f7 2fbb
00000110: 530c 263b c7ef 7bba c0cd 7f3a ca4f a43b
00000120: 7e66 f4ba 0d77 2ebc 876d f83a 1e45 78ba
00000130: 0202 ed39 4b1a e1bb dd10 c83c 4a26 bbbb
00000140: 700a 40bc 50f1 ddba 96af 7b3b d4a4 59bb
00000150: b763 63bb 97f1 37bc 5d86 1abb fce5 4b3c
00000160: 8309 193c d1bd 943b 0206 dbba d0ba 9ebb
00000170: 5d96 d93b f497 5039 30ad 97bb de69 07ba
00000180: 2965 833a 4af3 753b 9f9d b0ba 2096 7239
00000190: af52 943b 712c 1b3a d974 c73b ae8a d4ba
000001a0: e764 3abb cef4 1f3b 22f2 043b 7223 ab3c
000001b0: f06a c33b 433b 9cbb f413 09bb ecb5 5239
000001c0: 12e9 843c f0fb e73a 40e6 fc37 8456 b83a
000001d0: 948c f3bb 0402 e1bb 2463 5cba 6fce aa3b
000001e0: bccc d6bb 352d 253b b073 303a b261 013b
000001f0: cd08 673c 27ce 94bb d801 44bb 6315 043a
00000200: 8e1f a83b 7e45 b9bb 47b2 79bb cd99 113a
00000210: fc1b 793c 0c99 12bc 5c7e 043c 891f 13bc
00000220: 94c3 da3b 1ac7 eebb 0abb 343c d99d 62bc
00000230: 079a c33c bd72 11bb 87e5 973b 4407 d9ba
00000240: cc5f f9bb f74a b43b d2b3 81b9 6327 dcbb
00000250: cab0 103c f7ad 183c 9da2 12ba 44db 1ebb
00000260: 7fa8 e4ba 1ae5 cf3a 1728 103c 0487 f03b
00000270: e4bf 8c3c f2c5 1abc 3c0c 94bc 584a 07bc
00000280: 23bc fd3b 078a 07bc cc39 c0bc b3b3 27bc
00000290: cf32 90ba a8a5 a0bb 0aee c83c d8f6 483a
000002a0: 000d 1c3b 2aa9 c13b 4835 aebc 7050 8739
000002b0: 2f33 15bc f03a f1bb 022b 073c 1a77 dcbb
000002c0: 66ca ed3b 94e9 de3b 94a1 2dbb 0af5 4db9
000002d0: 17df 82bc 1de5 20bc a39e 213c 2241 123c
000002e0: 0404 88bb 44de c5ba ba17 003c bed9 6abc
000002f0: aa33 233c acb7 3e3c f811 9abb 6d05 ccbb
00000300: a720 e93b de4e d4bb 385b 6a3a bfae 2ebc
00000310: dc55 53bb d474 07bb b616 b93b f5ae 523b
00000320: c228 20bc ae0a babb 480e 1d3c 0d57 d9bb
00000330: b834 5cba 3dbd 13bb 33ff c23c e1e4 36bc
00000340: 257c abbc db95 9ebb fe1e bebb daae 18bc
00000350: dde0 04bc 6299 6fbc 4063 193b 262c 753c
00000360: df5d ad3b 7c15 383c ec40 91bb 2e49 72bb
00000370: 3a92 123c ca15 87bb 7f14 d2bb b1b8 1ebc
00000380: 3ede 153c 3861 22bc 09dd 09bc 4f1b 343b
00000390: 68d8 383c fd8b f33b b050 0c3c e420 0fbc
000003a0: ff41 30bc 3abf 0c3b e5f1 133a 6119 a63c
000003b0: 8cbb a73c 6020 a3ba 6678 3dbc b935 023c
000003c0: b5f2 2f3b 8c19 e23b 6ade c0bb b718 c0bb
000003d0: 24f9 8239 edaf b7bb 34e3 5eba 9129 b83a
000003e0: ffd3 24bc 5f08 253c 9a6c db3b 6ac5 23bb
000003f0: ec09 f23b 1fb7 e9bb 36c6 8f3a b13d b3bb
-0.008220753 3.641646e-05 0.004281196 0.0035913317 0.016745985 -0.010842284 0.001579902 -6.977364e-05
-0.00020656291 -0.006438063 0.001934335 -0.036764957 0.011314778 -0.009179167 0.0039336197 0.0019036909
-0.0025747055 0.005215889 -0.00096765446 -0.0066055562 4.8856673e-05 0.0032951778 -0.0019521622 0.004364305
-0.002122302 0.012777869 0.003036669 0.0033839657 0.034251224 -0.0064205313 -0.008187895 -0.003717079
-0.0015212785 0.0064562927 -0.020199372 -0.0062226467 -0.0027833427 0.0014083113 0.04223529 0.0038105515
0.005657918 -0.00016350579 -0.025071288 -0.010777235 -0.009625632 -0.0068118433 0.002241624 -0.006836778
0.007643092 0.0006026131 0.008202346 0.0032209475 -0.011955128 -0.00129137 0.0013324925 -0.0017282581
-0.0008031415 0.00039344234 0.0041660117 0.00269292 0.0068535586 -0.0028974907 -0.00084114197 -0.004828742
0.014700013 -0.0038332678 -0.0041078464 -0.0026850333 0.0025336936 -0.000961062 0.0009758137 0.0050143944
-0.0018646268 -0.010648501 0.001895354 -0.00094707485 0.00045205659 -0.0068695894 0.024422104 -0.0057113515
-0.0117212385 -0.0016932879 0.0038404218 -0.0033209817 -0.0034696886 -0.011227033 -0.0023578622 0.012444969
0.009340647 0.0045392294 -0.0016710164 -0.004844047 0.006640239 0.00019893033 -0.0046288 -0.0005165617
0.0010024655 0.0037529045 -0.0013474709 0.00023134844 0.004526458 0.0005919403 0.0060869274 -0.0016215646
-0.002844149 0.002440739 0.0020285924 0.020890925 0.0059636757 -0.0047678067 -0.0020916434 0.00020094932
0.016224418 0.0017698985 3.014796e-05 0.001406387 -0.0074325297 -0.0068666954 -0.0008407107 0.005212597
-0.006555168 0.0025203947 0.0006731106 0.0019742069 0.014101219 -0.004541177 -0.0029908326 0.0005038587
0.0051307147 -0.005654036 -0.0038100646 0.0005554229 0.015204426 -0.008947622 0.008086767 -0.008979687
0.0066761468 -0.0072869183 0.011030922 -0.013831579 0.023877157 -0.0022193633 0.004635516 -0.0016557951
-0.007610297 0.0055021006 -0.00024738774 -0.0067185625 0.008831212 0.00931882 -0.0005593689 -0.002423958
-0.0017445235 0.0015861124 0.008798621 0.007340314 0.017181344 -0.009446608 -0.01807224 -0.008257471
0.007743375 -0.008272654 -0.02346506 -0.010235715 -0.001100147 -0.0049025603 0.024527568 0.0007666177
0.002381146 0.0059100585 -0.02126564 0.00025809137 -0.009106441 -0.007361762 0.00825 -0.006728065
0.007256794 0.006802747 -0.0026494013 -0.00019641608 -0.015975518 -0.00982025 0.009864482 0.008926662
-0.0041508693 -0.0015096148 0.007818157 -0.01433414 0.009961048 0.0116404705 -0.004701849 -0.0062262327
0.007114488 -0.0064791283 0.0008939984 -0.01066178 -0.003224722 -0.0020669 0.0056484593 0.003214774
-0.009775342 -0.0056775426 0.009585924 -0.0066326917 -0.00084001897 -0.0022543215 0.02380333 -0.011162967
-0.02093322 -0.0048396415 -0.0058020344 -0.009319032 -0.008110252 -0.014623972 0.0023405105 0.014964139
0.0052907313 0.011235591 -0.004432788 -0.0036969888 0.008945996 -0.0041224705 -0.0064111347 -0.009687589
0.009147225 -0.009910874 -0.008414515 0.0027482098 0.011282064 0.0074324594 0.008564159 -0.008735869
-0.010757922 0.0021476285 0.000564365 0.020275773 0.020475172 -0.0012445562 -0.01156435 0.007947379
0.0026847546 0.006900018 -0.005885889 -0.0058623212 0.00024981156 -0.005605689 -0.0008502484 0.0014050474
-0.010060309 0.010072797 0.006696296 -0.0024989494 0.0073864367 -0.0071324254 0.0010969106 -0.0054700007

lstm.bias_ih f4 [512]
00000000: 4cfe 93bd 9115 a4bd eb38 85bd 528c 9ebd
00000010: f9c6 4bbe a471 7e3e 7227 93bd b239 8bbd
00000020: 2dcd 99bd 16b9 b2bd 93e0 57bd ae41 9d3d
00000030: 3180 993e 69d1 04be d587 b9bd 6b76 adbd
00000040: e5d4 1abe 7d6d a1bd 8f44 b9bd efd9 d1bd
00000050: cc86 5dbd 3e12 b8bd d257 9dbd 77ad a2bd
00000060: 175c a0bd 1b51 c8bd 0f1f c1bd 1766 afbd
00000070: 9863 2b3b ebe0 97bd 31db 623b e44e 9fbd
00000080: 7018 9abd fbd5 57bd aede 70bc 9186 a1bd
00000090: 20ea bdbd 8278 a2bd 38fb af3e 2989 94bd
000000a0: 5f63 95bd 9b36 9dbd 6a4e e43e 25f7 f23c
000000b0: c797 87bd ae6d babd 6e13 bdbd 05a8 90bd
000000c0: e029 a9bd 4085 acbd b1f9 94bd 2413 95bd
000000d0: afc7 8abd b8db 9abd a65d aabd 426a b0bd
000000e0: ba6b 63bd e1fd d9bd 5183 7bbd c6b9 85bd
000000f0: 5a43 afbd 909f f9bc ae16 a8bd 95c1 9cbd
00000100: 08cf cabd d83d c5bd 0af5 afbd 5530 86bd
00000110: e284 6abd 8907 e1bd 2429 a9bd a834 a4bd
00000120: d0e2 8cbd 3791 b3bd 9591 8fbd 1104 bdbd
00000130: a591 90bd 1905 a9bd 4f4c 053f dc44 70bd
00000140: cc9a 4dbe c11b b3bd ce54 8fbd 1b52 b3bd
00000150: 0887 abbd d33b f33e 7f0a b2bd 1909 a7bd
00000160: 0357 aebd a6a9 87bd 662b b4bd 256a dfbd
00000170: c39b 5abe 7d76 b7bd 159e b6bd a84c 92bd
00000180: 77b7 76bd ab6a 6fbd f9f4 a0bd 70a6 e2bd
00000190: 3386 8fbd fc5b 97bd 341b 8cbd 7d0c 9bbd
000001a0: 389c 7ebd f6de cbbd d090 b2bd 05d0 eb3e
000001b0: e69b 55bd 8c50 8fbd 3976 51bd 2d7d a4bd
000001c0: 7d7a 01be 600c 99bd 733a d1bd de3a 9bbd
000001d0: bb0e 2bbd d626 9ebd 1327 99bd ef29 a8bd
000001e0: bc11 e7bd 88b4 b4bd 477c 9fbd 5dca b5bd
000001f0: 926b b43b f100 87bd e9e2 a7bd 523e 9dbd
00000200: ff26 80bd bf13 91bd 8dae 55bd fccc 6cbd
00000210: b82e f8bc fae9 c4bd ea34 65bd a009 44bd
00000220: cad4 9cbd 33a1 85bd cf4d 2ebd 8499 febd
00000230: b88d 583c ac33 afbd 69ca b4bd 6e2a 8fbd
00000240: b53d 06bf 646d 7ebd 7b55 90bd d3fb d0be
00000250: e8fd 16bd 2aa5 93bd ecfb 89bd 1520 a5bd
00000260: b140 7dbd 869b 6abe a9f0 7dbd d30c a8bd
00000270: 881d aebd 167d 62bd 128d bd3b 731d 8abd
00000280: 480c 8abd 99be 20bd 5d0e 5dbd 336a 5dbd
00000290: 46c8 b3bd d15c 88bd 6013 76bd de75 98bd
000002a0: 0aac 5ebd 7e49 7fbd 660c 8a3e 854c fabd
000002b0: 656b 40bd 8ad3 97bd 9382 8ebd 781f 88bd
000002c0: 794d ddbd 58ba 6cbd d614 55bd c9ed 91bd
000002d0: b5b9 88bd 37bd 7abd 8f10 89bd f2cb 8fbd
000002e0: 4ca4 70bd 97de 8cbd 1ff4 57bd 67f7 8bbe
000002f0: 7ff3 93bd 7034 febd 0d9c 7dbe 6a14 83bd
00000300: 58ee 53be 032f 92bd 0c12 86bd 074d 61bd
00000310: 1c68 66bd 740d cbbd 5729 89bd 6531 8abd
00000320: 8a66 a0bd bec2 b8bd 7c6c 36bd 1025 86bd
00000330: dc25 6ebd 67e6 94bd 1dc5 953e bc1f 31bd
00000340: 8ead a6be 8d33 92bd fa04 8abd 3be5 5dbd
00000350: 31d3 9ebd 3a9c 8b3e e185 8fbd 1460 9dbd
00000360: 635c b2bd 5479 4abd e6f2 95bd b7ad 9cbd
00000370: 1a55 8cbe a53d a8bd c466 90bd 0b51 61bd
00000380: ac55 3cbd 691e 45bd 4d49 73bd 7df4 c8bd
00000390: 936a 42bd 31ea 72bd 53f2 2cbd d2cb 63bd
000003a0: c0ea 53bd ab80 babd 4516 91bd ebdf 6c3e
000003b0: 1f76 46be 4419 96bd db54 48bd 0c8f b5bd
000003c0: f286 7fbe 8985 81bd 6f13 e8bd 8d98 92bd
000003d0: 7680 3cbd 1a3f 90bd f800 92bd aa45 64bd
000003e0: e440 ccbd 1ed9 80bd 2c52 79bd 9e3d b4bd
000003f0: 2153 6cbe 66bc 55bd 263e 99bd e199 68bd
-0.07226238 -0.08011926 -0.06504997 -0.07741608 -0.19900121 0.24848038 -0.07185258 -0.06798114
-0.07509837 -0.087267086 -0.052704405 0.07678543 0.29980615 -0.12970509 -0.09059111 -0.08469852
-0.15120275 -0.07882211 -0.0904628 -0.10246646 -0.05408363 -0.089878544 -0.07682766 -0.07943242
-0.07830065 -0.09781095 -0.09429752 -0.08564394 0.0026151892 -0.074159466 0.0034615512 -0.07778719
-0.07524192 -0.052694302 -0.0147015285 -0.07886995 -0.092731714 -0.07933141 0.34371352 -0.07252724
-0.07294344 -0.07676431 0.44591075 0.029658863 -0.06620746 -0.09102951 -0.092322215 -0.07063297
-0.0825994 -0.08423853 -0.07274187 -0.072790414 -0.06776368 -0.07561439 -0.08318643 -0.08614017
-0.055522658 -0.10644127 -0.06140453 -0.06529574 -0.08557768 -0.030471593 -0.08207451 -0.0765411
-0.09902769 -0.096309364 -0.08591659 -0.06552187 -0.057255633 -0.10987765 -0.082598 -0.08017856
-0.068791986 -0.08767932 -0.070101894 -0.09229291 -0.070590295 -0.082529254 0.5206956 -0.05865942
-0.20078582 -0.08745528 -0.06998597 -0.08755895 -0.083753645 0.4750658 -0.08693408 -0.08156032
-0.0851269 -0.06624155 -0.0879734 -0.10908917 -0.21348481 -0.08958147 -0.089168705 -0.07143527
-0.06023356 -0.058451336 -0.07859225 -0.11066902 -0.07008018 -0.073905915 -0.06841126 -0.07570741
-0.0621607 -0.09954636 -0.08719027 0.46057144 -0.05215063 -0.06997785 -0.051138137 -0.08031688
-0.12644382 -0.074730635 -0.102162264 -0.075795874 -0.041762095 -0.07722251 -0.07478156 -0.08211123
-0.112826794 -0.08823496 -0.07787376 -0.08876488 0.0055059874 -0.065919764 -0.081975766 -0.07677902
-0.06257438 -0.070838444 -0.052168418 -0.057812676 -0.030295715 -0.0961494 -0.055958666 -0.04786074
-0.07657774 -0.06524887 -0.042554673 -0.124316245 0.013217382 -0.085547775 -0.08827669 -0.06990515
-0.5243791 -0.06211604 -0.07047554 -0.40817127 -0.036863238 -0.07209237 -0.067375034 -0.0806276
-0.061829273 -0.2291089 -0.06199709 -0.08205571 -0.085017264 -0.055295072 0.005784639 -0.06743898
-0.06740624 -0.039244268 -0.053968776 -0.054056358 -0.087784335 -0.06658328 -0.06007707 -0.074443564
-0.054363288 -0.062325947 0.26962584 -0.12221626 -0.04697742 -0.07413395 -0.06958499 -0.06646627
-0.10805792 -0.0577949 -0.052021824 -0.07125432 -0.06676046 -0.061215606 -0.066926114 -0.07021321
-0.058750436 -0.06878393 -0.052723046 -0.2733719 -0.072241776 -0.124123454 -0.2476656 -0.06400378
-0.2069639 -0.07137873 -0.06546411 -0.0550051 -0.05625163 -0.09914675 -0.06697338 -0.067477025
-0.07832058 -0.09021519 -0.044537053 -0.06550038 -0.058141574 -0.07270508 0.29251948 -0.043243155
-0.32554287 -0.07138739 -0.067392305 -0.05417369 -0.07755125 0.2726763 -0.07007957 -0.07684341
-0.087090276 -0.049432114 -0.0732172 -0.07650321 -0.27408677 -0.08214883 -0.07050851 -0.05500893
-0.04598014 -0.048124705 -0.059396077 -0.098122574 -0.04746492 -0.059305374 -0.042223286 -0.0556143
-0.051737547 -0.09106573 -0.07084326 0.23132293 -0.19380997 -0.07329038 -0.04890905 -0.08865175
-0.24953821 -0.06324298 -0.11331832 -0.07158003 -0.046020947 -0.07043286 -0.07129091 -0.0557305
-0.099733144 -0.06291412 -0.06086938 -0.08800815 -0.23078586 -0.052181624 -0.07482557 -0.056787375

lstm.bias_hh f4 [512]
00000000: fc17 94bd 9115 a4bd eb38 85bd 528c 9ebd
00000010: e4cb 50be a6ed 683e 7227 93bd b239 8bbd
00000020: 2dcd 99bd 16b9 b2bd 93e0 57bd 8a0a a53d
00000030: cb27 a03e c0c4 04be d587 b9bd 6b76 adbd
00000040: 8dc4 13be 7d6d a1bd 8f44 b9bd cdf2 c1bd
00000050: cc86 5dbd 3e12 b8bd d257 9dbd 77ad a2bd
00000060: 175c a0bd 027f cdbd 0f1f c1bd 1766 afbd
00000070: f8a4 aaba ebe0 97bd 6a85 583c e44e 9fbd
00000080: 7018 9abd fbd5 57bd fa39 71bc 9186 a1bd
00000090: 20ea bdbd 8278 a2bd 98e8 b33e 2989 94bd
000000a0: 5f63 95bd 9b36 9dbd b418 e43e 326b 233d
000000b0: c797 87bd ae6d babd 6e13 bdbd 05a8 90bd
000000c0: a743 afbd 4085 acbd b1f9 94bd 2413 95bd
000000d0: eac8 8abd b8db 9abd a65d aabd 426a b0bd
000000e0: ba6b 63bd e2f9 d9bd 5183 7bbd eed3 85bd
000000f0: 5a43 afbd 5712 f03b 1a41 4ebd 95c1 9cbd
00000100: 189b a5bd d83d c5bd 0af5 afbd 5530 86bd
00000110: e284 6abd 9307 e1bd 2429 a9bd a834 a4bd
00000120: e3d8 8cbd 3791 b3bd 9591 8fbd 1104 bdbd
00000130: a591 90bd 1505 a9bd 8644 053f dc44 70bd
00000140: 82c0 64be c11b b3bd ce54 8fbd 1b52 b3bd
00000150: 0887 abbd 1868 f43e 7f0a b2bd 57aa a7bd
00000160: 0357 aebd a6a9 87bd 662b b4bd fd68 dfbd
00000170: 40e2 64be 7d76 b7bd 159e b6bd a84c 92bd
00000180: 77b7 76bd ab6a 6fbd f9f4 a0bd a81e e4bd
00000190: 3386 8fbd fc5b 97bd 1b1b 8cbd 7d0c 9bbd
000001a0: 389c 7ebd f2de cbbd d090 b2bd 7506 ef3e
000001b0: 67ec 72bd 8c50 8fbd 3976 51bd 2d7d a4bd
000001c0: 8da8 4fbe 600c 99bd f239 d1bd de3a 9bbd
000001d0: 00bc 2abd 2f09 9ebd 1327 99bd ef29 a8bd
000001e0: 3b18 e8bd 88b4 b4bd 477c 9fbd 6cca b5bd
000001f0: e264 953b f100 87bd e9e2 a7bd 523e 9dbd
00000200: cc26 80bd bf13 91bd 8dae 55bd fccc 6cbd
00000210: efa0 c4bc c55c d9bd ea34 65bd a009 44bd
00000220: cad4 9cbd 33a1 85bd cf4d 2ebd 37ff febd
00000230: 1bb2 993c b033 afbd 69ca b4bd 6e2a 8fbd
00000240: 50f7 f3be 646d 7ebd 7b55 90bd c7d5 efbe
00000250: e8fd 16bd 2aa5 93bd ecfb 89bd 1520 a5bd
00000260: b140 7dbd 0224 6abe a9f0 7dbd d30c a8bd
00000270: 789c adbd 167d 62bd 6c1f 043c 731d 8abd
00000280: 480c 8abd 99be 20bd 9e34 5dbd 336a 5dbd
00000290: 46c8 b3bd d15c 88bd 7a25 a3bd de75 98bd
000002a0: 0aac 5ebd 7e49 7fbd 94e4 893e 1812 d4bd
000002b0: 656b 40bd 8ad3 97bd 9382 8ebd 781f 88bd
000002c0: 2129 ddbd 58ba 6cbd d614 55bd c9ed 91bd
000002d0: b5b9 88bd 37bd 7abd 8f10 89bd f2cb 8fbd
000002e0: 4ca4 70bd 97de 8cbd 1ff4 57bd a8ec 8abe
000002f0: 7ff3 93bd 5884 fcbd e904 83be 6a14 83bd
00000300: 8b03 53be 032f 92bd 0c12 86bd 074d 61bd
00000310: 1c68 66bd 740d cbbd 5729 89bd 6531 8abd
00000320: 8866 a0bd bec2 b8bd 7c6c 36bd 1025 86bd
00000330: dc25 6ebd 67e6 94bd b3fb 953e bc1f 31bd
00000340: bccc 9dbe 8d33 92bd fa04 8abd 3be5 5dbd
00000350: 31d3 9ebd c572 8a3e e185 8fbd 165e 9dbd
00000360: 635c b2bd 5479 4abd e6f2 95bd b7ad 9cbd
00000370: c267 89be a53d a8bd c466 90bd 0b51 61bd
00000380: ac55 3cbd 691e 45bd 4d49 73bd 30f5 c8bd
00000390: 936a 42bd 31ea 72bd 53f2 2cbd d2cb 63bd
000003a0: c0ea 53bd ab80 babd 4516 91bd 3f1d 733e
000003b0: ce19 50be 4419 96bd db54 48bd 0c8f b5bd
000003c0: 1bba 84be 8985 81bd 6f13 e8bd 8d98 92bd
000003d0: 327f 3cbd 143f 90bd f800 92bd aa45 64bd
000003e0: f647 ccbd 1ed9 80bd 2c52 79bd 9e3d b4bd
000003f0: 43a7 6bbe 66bc 55bd 263e 99bd e199 68bd
-0.07231137 -0.08011926 -0.06504997 -0.07741608 -0.20390278 0.22746906 -0.07185258 -0.06798114
-0.07509837 -0.087267086 -0.052704405 0.08058651 0.3128036 -0.12965679 -0.09059111 -0.08469852
-0.14430447 -0.07882211 -0.0904628 -0.09470139 -0.05408363 -0.089878544 -0.07682766 -0.07943242
-0.07830065 -0.100339904 -0.09429752 -0.08564394 -0.0013019135 -0.074159466 0.013215402 -0.07778719
-0.07524192 -0.052694302 -0.014723295 -0.07886995 -0.092731714 -0.07933141 0.35138392 -0.07252724
-0.07294344 -0.07676431 0.44550097 0.03989715 -0.06620746 -0.09102951 -0.092322215 -0.07063297
-0.085578255 -0.08423853 -0.07274187 -0.072790414 -0.067766026 -0.07561439 -0.08318643 -0.08614017
-0.055522658 -0.106433645 -0.06140453 -0.06534563 -0.08557768 0.007326405 -0.050355054 -0.0765411
-0.080862224 -0.096309364 -0.08591659 -0.06552187 -0.057255633 -0.10987773 -0.082598 -0.08017856
-0.06877305 -0.08767932 -0.070101894 -0.09229291 -0.070590295 -0.082529224 0.52057683 -0.05865942
-0.22339061 -0.08745528 -0.06998597 -0.08755895 -0.083753645 0.47735667 -0.08693408 -0.081867866
-0.0851269 -0.06624155 -0.0879734 -0.10908697 -0.22351933 -0.08958147 -0.089168705 -0.07143527
-0.06023356 -0.058451336 -0.07859225 -0.1113866 -0.07008018 -0.073905915 -0.068411075 -0.07570741
-0.0621607 -0.09954633 -0.08719027 0.46684614 -0.059307482 -0.06997785 -0.051138137 -0.08031688
-0.20279141 -0.074730635 -0.1021613 -0.075795874 -0.041683197 -0.077165954 -0.07478156 -0.08211123
-0.113327466 -0.08823496 -0.07787376 -0.088764995 0.0045591453 -0.065919764 -0.081975766 -0.07677902
-0.062574 -0.070838444 -0.052168418 -0.057812676 -0.02400252 -0.106133975 -0.055958666 -0.04786074
-0.07657774 -0.06524887 -0.042554673 -0.12451022 0.018761685 -0.085547805 -0.08827669 -0.06990515
-0.47649622 -0.06211604 -0.07047554 -0.46842787 -0.036863238 -0.07209237 -0.067375034 -0.0806276
-0.061829273 -0.22865298 -0.06199709 -0.08205571 -0.0847711 -0.055295072 0.008064132 -0.06743898
-0.06740624 -0.039244268 -0.054005258 -0.054056358 -0.087784335 -0.06658328 -0.079661325 -0.074443564
-0.054363288 -0.062325947 0.26932204 -0.103550136 -0.04697742 -0.07413395 -0.06958499 -0.06646627
-0.1079886 -0.0577949 -0.052021824 -0.07125432 -0.06676046 -0.061215606 -0.066926114 -0.07021321
-0.058750436 -0.06878393 -0.052723046 -0.2713368 -0.072241776 -0.1232993 -0.25589684 -0.06400378
-0.2060682 -0.07137873 -0.06546411 -0.0550051 -0.05625163 -0.09914675 -0.06697338 -0.067477025
-0.07832056 -0.09021519 -0.044537053 -0.06550038 -0.058141574 -0.07270508 0.29293594 -0.043243155
-0.30820262 -0.07138739 -0.067392305 -0.05417369 -0.07755125 0.27040687 -0.07007957 -0.07683961
-0.087090276 -0.049432114 -0.0732172 -0.07650321 -0.26836973 -0.08214883 -0.07050851 -0.05500893
-0.04598014 -0.048124705 -0.059396077 -0.09812391 -0.04746492 -0.059305374 -0.042223286 -0.0556143
-0.051737547 -0.09106573 -0.07084326 0.23741625 -0.20322344 -0.07329038 -0.04890905 -0.08865175
-0.25923237 -0.06324298 -0.11331832 -0.07158003 -0.04601974 -0.07043281 -0.07129091 -0.0557305
-0.09974663 -0.06291412 -0.06086938 -0.08800815 -0.23013024 -0.052181624 -0.07482557 -0.056787375

output_w.weight f4 [5, 128]
00000000: 50a4 91bc 5907 863b 1802 91bb 0aa5 7f3b
00000010: 1316 d9bc 9ae0 aabc 6829 bebb fa46 bc3b
00000020: bb6b dfbb feae 58bb d3f2 ccbb 7dae 2abd
00000030: b377 8bbc b4b0 cc3b eadf 01bb b811 383a
00000040: 6ff4 b9be fe0b 63bb 1ef3 833b 958b 473e
00000050: 163c 8c3a 050d 89bb c7bb ce3a aa84 42bb
00000060: 9a43 9f3b 7e2d 3f3d eaa0 bcbb ce3e 01bc
00000070: 5afd e9bc 3303 ab3b 40ec cc3c efc1 6b3c
00000080: d9aa efbb aaa7 5e3b b3e6 2a3c 90ef 773b
00000090: 9869 243c a241 363b db3a f03c d925 20bc
000000a0: 00ca fbb8 62e1 98bb fe94 773c 4e0b 85bd
000000b0: 0434 563c 8eb1 ca3b 6649 06bb a875 4c3a
000000c0: ee99 08bc 6402 1ebb 80bd 7839 3af3 38bb
000000d0: b8b4 a2ba 19dd 853b 9e64 b5ba 499e eabb
000000e0: d848 81bb a96d 06bc 3802 aeba 3365 9a3d
000000f0: 02f1 cdbb 57b4 0abe a810 bc3d 80f1 e8b8
00000100: 4461 4fbc ec66 c9ba 80d3 53b9 b421 513b
00000110: ec66 cbbb 6396 24bc b5da 133c 1cad f3ba
00000120: 18e1 ebbb cade 913b 98ea ddba 5747 543b
00000130: 201f 133c df90 993a 8d5c 49be 0eb8 543b
00000140: 6c7a 943e 336f 6a3b fe46 593b 2546 913b
00000150: cb15 9f3b ae6f 2f3e 5ae6 82bb d1ea 2dbd
00000160: 7268 0cbc 63f5 01bc 19b8 033b 358f f4bb
00000170: 02cc afbd 50af ea39 5cc9 a23a b19d 3dbb
00000180: 412a 973b 26d8 a8ba 4160 943b 2c02 843c
00000190: 5aa8 12bb 88cd 5b3b ce67 6239 9326 bf3b
000001a0: deaf 1c3b 21e1 c93b dc45 c33b eb29 ca3c
000001b0: 07a1 fabd 90c6 f93a 6cd6 9d3b 404d bcb9
000001c0: e0ac d33d caca d63a a898 d8bb 78d2 d23b
000001d0: 0426 11bc e80e 36bb 28b2 73bb 6855 d7ba
000001e0: 1647 aebb bed3 85bb e967 8ebb 7d55 c23b
000001f0: 50da f43a 8906 67bb 5786 883a 54db 5bba
00000200: 80c3 ec3c d6c3 d7ba bfb9 1dbc bce6 43bb
00000210: d082 d6bd e48a a4bd a84c 9e3a f65c 203b
00000220: 9d55 b53a c46f 9c3a 38ae a63a 53be 303d
00000230: c168 e23c e674 c0bc 1f7d 0d3c 563f 00bc
00000240: c063 0d3f faa4 2bba f472 4d3c 5daf d93e
00000250: 9e3a 1bbc 26a8 55bb a568 87bb 3798 cabb
00000260: 5c98 01bc 4a98 38bd fcae aa3b 9cb6 44bb
00000270: 3a8e 13bd 56e6 0dbc 2a3d 773d fcb8 bcb9
00000280: aadf f03b c496 75bb 9c35 3e3c 91e5 eebb
00000290: e17b de3b 139f 05bb e269 05bd 3ac9 0ebb
000002a0: c422 0ebb 25df 003b a751 c63d 0ca3 f53d
000002b0: c213 05bc 3601 633b 6072 3e3a b35e 083b
000002c0: 59e0 1a3c 2b4f 22ba ce58 763b 49a2 b4bb
000002d0: 1417 21bc c38a 1bbc 2a3b f7ba b4ea c0bb
000002e0: 84b7 2abb 3aed d53b 1f02 9e3a ea5f 29bd
000002f0: 5397 f33b 5b42 3bbd b3bc 59bd 76d8 84ba
00000300: 8ba3 13be df3b d73b d62e e5ba 90f8 1239
00000310: 9dd1 2bbb 4bdf 943c f488 a1ba b6bd 6dbb
00000320: a788 2bbc e94c 0a3c 7a94 083c 5cef 4abb
00000330: f055 af3b bf87 da3a bf17 04bd 21ad 24bc
00000340: 401b d23d a34d 4abc d76a a1bb e0fe 67ba
00000350: 0d0b 943a 046b 87bd 519e 07bb ddb0 5b3c
00000360: 5060 e5ba 9267 1f3c d439 b7ba a0c6 b23b
00000370: 28ab 96bc ce3f bfba 7922 9cb9 0c7f 54ba
00000380: 0e92 243c 43e0 05bb daa6 44ba 23c8 e0bc
00000390: 1bf7 8c3b aee2 d33a 235d 9bbc 01ba 363b
000003a0: 2e3b 593b b9a6 61bc 2e89 27bb 3e04 ce3d
000003b0: 2048 beb7 201e 503b 2094 feb9 7ad4 c3bb
000003c0: 0d7e ac3d 9ac5 74ba 758f f33b 52ad aa3a
000003d0: 02e3 ffbb a8c8 3ebb 88a1 8e39 ea73 72ba
000003e0: 8d41 523d b051 d43b 69c4 ad3b 6569 26bc
000003f0: 9dc1 e93c a7f2 00bc 0c30 84bb df81 98bb
-0.017778546 0.0040902314 -0.0044252984 0.0039008283 -0.026499784 -0.020859051 -0.005803276 0.0057457658
-0.0068182624 -0.0033063288 -0.006254533 -0.04167031 -0.01702485 0.0062466506 -0.00198173 0.0007021683
-0.363193 -0.00346446 0.0040267846 0.1948684 0.0010699059 -0.0041824603 0.0015772515 -0.0029681125
0.0048603537 0.046674244 -0.005756487 -0.007888509 -0.02856319 0.0052188872 0.025014997 0.014389499
-0.007314068 0.0033974447 0.01043098 0.0037832 0.010034941 0.0027810116 0.02932494 -0.009774649
-0.00012006238 -0.0046655396 0.015111206 -0.06496297 0.013073925 0.006185717 -0.0020490526 0.00077995146
-0.008337481 -0.0024110312 0.00023721717 -0.0028221146 -0.0012413478 0.004085195 -0.001383919 -0.0071599823
-0.003945451 -0.008204856 -0.0013275808 0.075388335 -0.006284834 -0.13545357 0.091828644 -0.00011107605
-0.012657467 -0.0015365756 -0.00020201318 0.0031910958 -0.0062073376 -0.010045621 0.009024312 -0.0018591019
-0.007198464 0.0044516074 -0.0016930876 0.0032391155 0.008979589 0.0011716149 -0.19664212 0.0032458338
0.2899965 0.0035771846 0.0033153887 0.0044334107 0.004854893 0.17132446 -0.003994745 -0.042460267
-0.008569824 -0.00793204 0.0020098744 -0.0074633607 -0.08583833 0.00044762576 0.0012419629 -0.0028933103
0.0046131914 -0.00128818 0.004528076 0.016114317 -0.0022378177 0.0033539254 0.0002159171 0.005833456
0.0023908536 0.0061608707 0.0059592556 0.024678191 -0.12237745 0.0019056369 0.004816821 -0.0003591571
0.10335708 0.001638734 -0.006609995 0.0064337812 -0.008859161 -0.002777988 -0.0037185047 -0.0016428651
-0.0053185327 -0.0040840795 -0.004345883 0.005930601 0.0018680785 -0.0035251698 0.0010416013 -0.00083868694
0.028901815 -0.0016461562 -0.009626805 -0.0029892167 -0.10474169 -0.08034304 0.0012077289 0.0024469472
0.0013834719 0.0011935164 0.0012716716 0.043150257 0.027637841 -0.023493242 0.008635788 -0.0078276
0.5523033 -0.0006547716 0.012539614 0.42516604 -0.009474425 -0.0032601445 -0.0041323476 -0.006182696
-0.00790986 -0.04506711 0.005208848 -0.003001607 -0.03602431 -0.008660873 0.060361065 -0.00035995978
0.0073508816 -0.0037473897 0.011609461 -0.00729055 0.00678967 -0.0020389005 -0.03257168 -0.002178742
-0.0021688202 0.0019664255 0.09683543 0.11993989 -0.008122386 0.0034638173 0.0007264968 0.0020808398
0.009452903 -0.00061916065 0.0037589553 -0.00551251 -0.009832162 -0.009493533 -0.0018862237 -0.005887354
-0.0026049325 0.0065285238 0.0012055075 -0.041351236 0.0074338107 -0.04571758 -0.053158473 -0.0010135311
-0.14417855 0.0065684165 -0.0017485272 0.00014016242 -0.0026217469 0.01817288 -0.001232414 -0.0036276407
-0.010469592 0.008441188 0.008336181 -0.0030965423 0.0053508207 0.0016672536 -0.03224921 -0.010051043
0.10259104 -0.012347612 -0.0049260664 -0.000884993 0.0011294797 -0.066122085 -0.002069373 0.013408867
-0.0017500017 0.009729283 -0.0013979026 0.005455807 -0.01839216 -0.0014591159 -0.00029780323 -0.00081060897
0.010044588 -0.002042786 -0.00075016695 -0.027439183 0.004301918 0.0016165578 -0.01896531 0.0027881863
0.0033146846 -0.01377266 -0.0025563943 0.10059403 -2.268335e-05 0.0031756237 -0.00048557017 -0.005976257
0.0842248 -0.0009337306 0.007432873 0.0013021624 -0.007809044 -0.00291113 0.000272047 -0.000924884
0.051332045 0.0064794645 0.005302955 -0.010156964 0.028534705 -0.007870353 -0.004034048 -0.0046541537

output_w.bias f4 [5]
00000000: ba9b 13bd d8a2 6f3d 551e 68bf 7619 76bf
00000010: 5735 f5bd
-0.036037184 0.05850491 -0.90671283 -0.961326 -0.119730644

square_avg f4 [64]
00000000: 1997 333e dac9 613e 4345 c03d 1c28 7636
00000010: 98ef 1d38 09a6 023d 38d4 df3c 8fe4 1f31
00000020: 7836 953c d1a4 8830 5c56 593d 4024 3d3d
00000030: cd7e 543e 5cb2 913c 3fde bd3b f4aa 1a3a
00000040: d489 573d 87a0 0432 96e3 543c 949d 7f3f
00000050: d6c4 8130 7b2f 763d 0beb 333b 4b2d e030
00000060: f8d8 a63d 957d 0731 2339 ae3e 7151 2530
00000070: a5a4 143e 7c5c 4d3e 8dac 403e 7604 3f3c
00000080: b32d 0e3d 4e3c 8f3e 1165 663e 98a7 253d
00000090: d3a5 163e 3f92 df3d 777a 6d3b 4751 8b3d
000000a0: 9214 2a3d 87dc de33 47ad 2f2d 28ef 023d
000000b0: ee1d 3a37 b340 b935 76a3 073d 8e9e f13c
000000c0: 8a1d 293b 24a0 ec3e 97c1 7230 3187 343d
000000d0: 7eec 4331 b0bb 8637 32f6 073e dd2b bf3b
000000e0: 0208 e13c c393 3230 20fe 4830 0267 873d
000000f0: 55fe 803d 6815 b13c d629 ee3b 9efd 4f3d
0.17538108 0.22049657 0.093882106 3.6680203e-06 3.7654856e-05 0.031896625 0.027322873 2.3267466e-09
0.01821445 9.942146e-10 0.053060874 0.04617715 0.20751496 0.017785244 0.005794316 0.0005900108
0.052621678 7.719911e-09 0.012993714 0.9984982 9.44193e-10 0.060103875 0.002745333 1.6311018e-09
0.08146852 1.971647e-09 0.34027967 6.0142386e-10 0.14515932 0.20054811 0.18815823 0.011658778
0.03471155 0.27975696 0.22499491 0.040443033 0.14711694 0.10916566 0.0036236325 0.06802612
0.041523524 1.0377794e-07 9.986074e-12 0.03196636 1.10934325e-05 1.3802404e-06 0.033114873 0.02949455
0.002580496 0.46215928 8.8314195e-10 0.04407424 2.8510665e-09 1.6061444e-05 0.1327751 0.0058340863
0.027469639 6.4966005e-10 7.312071e-10 0.06611444 0.0629851 0.021616653 0.007268171 0.050778978

square_avg f4 [5]
00000000: 8df5 f940 1e35 6041 c7cc d73d fd2e d73e
00000010: ccb6 de3c
7.8112245 14.012968 0.10537105 0.42028037 0.027186774
