S-LSTM/Goal+Socail_Array_PyTorch/social_lstm/save/0/social_model_epoch_8.pth (torch, 819255 bytes, 22 tensors)

embedding_b f4 [64]
0.027757661 -0.06990245 -0.1365464 0.16012459 -5.7193642e-08 -0.023733096 -0.058042273 -0.083553515
0.036437772 0.28831947 -0.14008732 0.13194816 0.06558487 0.021183148 -0.0050634164 0.04315733
-0.00021820063 -0.025027672 -0.1067304 0.07926367 -0.023275578 -0.003995167 -0.061182998 0.053981967
-0.11433835 0.22979206 -0.0919971 -0.055328503 -0.0011386166 -0.03869622 0.058640424 -0.042703822
0.025176061 -0.11663216 -4.243957e-06 0.03549901 -0.13009876 -0.009098601 0.08148872 -0.007347851
0.04728292 0.15486163 -0.029037382 -0.01591986 -0.00010725077 -0.0014470061 0.030131804 -0.09530095
-0.021982366 -0.012694529 0.073838815 0.19928795 -0.20739713 -0.00010651945 -0.0048143626 -0.08398262
-0.09427622 0.10129161 -0.008879105 0.08307446 -0.06679411 -0.11376624 -0.007855462 -0.042400118
00000000: 0964 e33c 0429 8fbd d2d2 0bbe b3f7 233e
00000010: 13a5 75b3 e96b c2bc bcbd 6dbd 1b1e abbd
00000020: c63f 153d 9c9e 933e 0d73 0fbe 6b1d 073e
00000030: 5c51 863d 4888 ad3c 04eb a5bb bec5 303d
00000040: c9cc 64b9 d506 cdbc 7895 dabd fe54 a23d
00000050: 6dac bebc e4e9 82bb 069b 7abd 321c 5d3d
00000060: 3a2a eabd 9c4e 6b3e fa68 bcbd 24a0 62bd
00000070: a23d 95ba ed7f 1ebd f130 703d 34ea 2ebd
00000080: 073e ce3c d8dc eebd 5067 8eb6 6967 113d
00000090: 9c38 05be 4c12 15bc 8fe3 a63d 3ec6 f0bb
000000a0: bcab 413d 0c94 1e3e cedf edbc 5e6a 82bc
000000b0: d2eb e0b8 78a9 bdba f9d6 f63c 252d c3bd
000000c0: 5d14 b4bc b7fc 4fbc ce38 973d 2412 4c3e
000000d0: ea5f 54be 3263 dfb8 cdc1 9dbb 14ff abbd
000000e0: e413 c1bd fa71 cf3d aa79 11bc f122 aa3d
000000f0: 5acb 88bd 46fe e8bd 32b4 00bc bfab 2dbd

output_b f4 [5]
0.010247526 -0.0001440809 -0.72501695 -0.7168617 0.0023285998
00000000: 3de5 273c 6c14 17b9 b69a 39bf 4084 37bf
00000010: 6c9b 183b

embedding_w.weight f4 [64, 4]
1.0706215 -0.39050534 -0.06698095 -0.09852948 -0.5673504 -0.04102397 -0.25707856 0.17482594
-0.39853448 0.041607425 0.22556037 -0.14159182 -1.0279388 1.0214125 -0.1490645 0.29125282
3.8575495e-22 -4.0085855e-19 3.8473275e-20 2.1097829e-15 -0.052465443 0.048226766 0.19119571 -0.07906887
-0.50471455 0.83380336 -0.002465019 -0.12934744 -0.47382146 0.2467977 -0.08391861 0.026397036
0.048106767 0.97586554 -0.12087593 -0.0059822653 -0.64352334 -1.2629987 -0.17813125 0.20108552
0.23035575 -0.07795375 -0.24858981 0.15592048 0.116387986 0.9847479 0.14259353 0.42944685
-0.097576424 0.0071204347 -0.07088971 0.0109899435 -1.055668 -0.18322293 -0.08889528 -0.17190586
0.14498822 -1.178852 0.15661912 -0.0022018594 1.3058053 0.8295986 0.010456841 -0.031297516
2.1910133e-19 4.2264742e-10 8.2651324e-25 -8.748033e-07 0.026227074 0.09163379 -0.024811404 -0.1140491
-0.7076656 -0.29866508 0.6368386 0.255695 1.0253557 -0.85750216 0.070655644 -0.017905243
0.9038836 -0.5981354 -0.09585002 -0.025658874 0.00012108365 0.00091672695 5.0091114e-07 3.4692377e-05
0.12885636 -0.55487 0.092946626 0.18327333 1.0035447 -0.14443658 0.3889065 0.4116533
1.1699011 0.7686075 0.09059897 0.13120541 0.8942553 0.95296806 0.05473737 0.021124193
0.18283798 0.23642674 -0.1515875 -0.197535 -0.9688883 0.8930268 -0.23556572 0.1323925
1.796465e-25 3.5016097e-07 -4.1108272e-08 -0.00014554877 0.8107862 -0.2400236 -0.055636708 0.09053479
0.46781465 0.64515436 0.013644706 0.015500124 1.1629125 0.14692488 -0.13744153 0.2544124
-0.1487443 0.07595696 0.06967586 0.05939896 0.4437517 0.4120587 -0.12861688 -0.17815092
-2.8448728e-26 4.4763557e-25 -6.0147897e-21 -3.203055e-10 1.0602244 -0.8577677 0.2595296 -0.53209025
-0.8406378 0.21243416 0.095244884 -0.1551855 0.005736146 -6.497339e-05 0.004898955 -0.00018843662
0.5836607 -0.9771901 0.28696883 0.09781733 6.201553e-11 0.0005181596 8.5812835e-10 0.0016218006
-1.1946868 -0.56022 -0.15003614 -0.04871428 -0.008391225 1.1769294 0.098257564 0.43880674
-0.29479504 -0.9109057 0.052513663 -0.60463446 -0.013714209 -0.0034338776 0.022544216 0.017776066
1.0606307e-06 1.1205746e-16 3.4028075e-05 4.2210726e-15 -3.5456321e-22 -9.7920796e-11 -1.1161998e-12 -0.00025599689
-0.10046237 0.068376146 -0.051017508 0.19142412 0.5262294 0.41168433 0.08568648 0.27177384
0.7034222 -0.757938 -0.069815494 0.13547127 0.035783537 0.016581824 -0.008205808 -0.003578099
-0.11852763 1.2625294 0.08657097 -0.06053744 1.3404185 0.23858395 0.032375418 0.16951005
0.46080643 0.29906416 -0.21089375 -0.18257047 -9.13887e-28 -1.052357e-11 1.5721015e-19 3.756864e-07
-8.8295204e-12 -0.0016758603 -1.5623376e-05 -0.00016908509 0.6835498 -0.43817154 0.020064069 0.15626863
-0.69319504 -0.016985156 -0.33790743 0.21083416 1.1504952 0.4743895 0.16040407 -0.16515799
3.9496584e-08 0.0006535307 -1.5040989e-05 -0.004747585 0.61644477 1.01959 -0.003740496 -0.05179455
-0.8673396 0.2897818 0.1681819 -0.021191496 -0.31440896 -1.0920402 -0.05951771 -0.3562451
6.1847865e-09 0.0003889391 -0.0007426856 -0.0012031313 0.8393107 0.9965706 0.0022222248 0.044352144
00000000: 200a 893f 51f0 c7be 4f2d 89bd d3c9 c9bd
00000010: e03d 11bf c008 28bd cd9f 83be 9205 333e
00000020: b60c ccbe 8c6c 2a3d 4cf9 663e 72fd 10be
00000030: 8093 83bf a5bd 823f 5da4 18be 171f 953e
00000040: b02c e91b 08a0 eca0 56af 351f a006 1827
00000050: 01e6 56bd 6e89 453d cfc8 433e dcee a1bd
00000060: f934 01bf 2374 553f 288c 21bb a873 04be
00000070: ba98 f2be 89b8 7c3e 85dd abbd 993e d83c
00000080: 9a0b 453d 53d2 793f cd8d f7bd e106 c4bb
00000090: f2bd 24bf f1a9 a1bf 0a68 36be 5de9 4d3e
000000a0: 61e2 6b3e 37a6 9fbd 548e 7ebe 9ea9 1f3e
000000b0: d35c ee3d 7018 7c3f 0a04 123e 75e0 db3e
000000c0: 26d6 c7bd 8952 e93b a02e 91bd 2a0f 343c
000000d0: 2120 87bf cb9e 3bbe bb0e b6bd 1708 30be
000000e0: cb77 143e 9fe4 96bf c360 203e 124d 10bb
000000f0: a124 a73f 9360 543f 2c53 2b3c d331 00bd
00000100: a855 8120 565a e82f 20cb 7f17 06d4 6ab5
00000110: 29da d63c 7faa bb3d 4941 cbbc 9392 e9bd
00000120: 9329 35bf a1ea 98be db07 233f 74ea 823e
00000130: db3e 833f 4385 5bbf e8b3 903d 04ae 92bc
00000140: ea64 673f 671f 19bf 044d c4bd 8f32 d2bc
00000150: 4aee fd38 8150 703a 5a76 0635 a882 1138
00000160: ecf2 033e f60b 0ebf cd5a be3d 01ac 3b3e
00000170: 2774 803f 2fe7 13be c11e c73e 39c4 d23e
00000180: 52bf 953f 76c3 443f f48b b93d b65a 063e
00000190: eaed 643f b7f5 733f 4b34 603d a50c ad3c
000001a0: e139 3b3e da19 723e c139 1bbe 9d46 4abe
000001b0: 1009 78bf 689d 643f 2438 71be e691 073e
000001c0: 4064 5e16 c2fd bb34 068f 30b3 739e 18b9
000001d0: af8f 4f3f bfc8 75be 51e3 63bd 4e6a b93d
000001e0: 6785 ef3e d628 253f 0c8e 5f3c 3bf4 7d3c
000001f0: 51da 943f 7a73 163e 79bd 0cbe 5842 823e
00000200: 6d50 18be 538f 9b3d 38b2 8e3d 534c 733d
00000210: 6c33 e33e 5cf9 d23e 25b4 03be 326d 36be
00000220: 0cdf 0c95 5889 0a17 7a3b e39d fe16 b0af
00000230: 6fb5 873f aa96 5bbf 10e1 843e 1137 08bf
00000240: 0a34 57bf 5788 593e c00f c33d f3e8 1ebe
00000250: 48f6 bb3b 5342 88b8 6a87 a03b 1297 45b9
00000260: ca6a 153f 2129 7abf 94ed 923e 7454 c83d
00000270: a45f 882e 1ad5 073a 6ae1 6b30 9992 d43a
00000280: 7feb 98bf 946a 0fbf 13a3 19be a088 47bd
00000290: 597b 09bc 9fa5 963f 433b c93d 47ab e03e
000002a0: 60ef 96be 1e31 69bf 9118 573d 53c9 1abf
000002b0: 90b1 60bc e80a 61bb a6ae b83c 1d9f 913c
000002c0: fe5a 8e35 8631 0125 5eb9 0e38 8614 9827
000002d0: 0052 d69b 8254 d7ae 5617 9dab 5237 86b9
000002e0: 37bf cdbd cb08 8c3d bcf7 50bd af04 443e
000002f0: f8b6 063f 4ac8 d23e 657c af3d f125 8b3e
00000300: 7a13 343f 3a08 42bf 6dfb 8ebd fbb8 0a3e
00000310: c291 123d 9bd6 873c a771 06bc 8a7e 6abb
00000320: 9dbe f2bd 909a a13f 1f4c b13d 1bf6 77bd
00000330: d592 ab3f 5a4f 743e 169c 043d 0b94 2d3e
00000340: d2ee eb3e f01e 993e 88f4 57be c1f3 3abe
00000350: a9cf 9092 f221 39ad da99 3920 f2b1 c934
00000360: a054 1bad 8aa8 dbba f20e 83b7 6f4c 31b9
00000370: 1ffd 2e3f 0558 e0be 675d a43c e204 203e
00000380: 3b75 31bf 7424 8bbc 3402 adbe e9e4 573e
00000390: 6d43 933f 2ee3 f23e f740 243e 2d1f 29be
000003a0: f4a2 2933 b451 2b3a 8e58 7cb7 a191 9bbb
000003b0: 53cf 1d3f ed81 823f 1c23 75bb 8626 54bd
000003c0: f809 5ebf 485e 943e e037 2c3e ca99 adbc
000003d0: 36fa a0be f9c7 8bbf d8c8 73bd c265 b6be
000003e0: f581 d431 86ea cb39 c9b0 42ba 63b2 9dba
000003f0: 11dd 563f 401f 7f3f bfa2 113b 98aa 353d

embedding_w.bias f4 [64]
-0.005844974 -0.069902435 0.09370292 -0.14603329 -5.7193642e-08 -0.023733096 -0.019818185 -0.08477778
-0.049168628 0.02212483 0.12696029 0.088223845 0.06558487 0.019416198 0.1542592 -0.11233437
-0.00021820063 -0.025027672 0.017664406 0.35367328 0.085236184 -0.003995167 0.09690285 -0.04623455
-0.08196089 0.077091604 0.04794977 -0.17426178 -0.0011386166 0.16303733 0.3550968 0.015377787
0.025176061 0.11923652 -4.243957e-06 -0.057997804 0.009427345 -0.009098601 0.097493574 -0.007347851
0.09093113 0.18351083 0.085843116 -0.01591986 -0.00010725077 -0.0014470061 0.030131804 0.100193515
0.033880115 -0.012694529 -0.0062334905 0.07544981 0.087516546 -0.00010651945 -0.0048143626 -0.017191613
-0.0942764 0.20431022 -0.008879105 0.070937455 -0.08538845 0.12393893 -0.007855462 -0.086341426
00000000: 3287 bfbb 0229 8fbd 51e7 bf3d c089 15be
00000010: 13a5 75b3 e96b c2bc bf59 a2bc f99f adbd
00000020: 0b65 49bd 223f b53c e101 023e b4ae b43d
00000030: 5c51 863d b80e 9f3c 20f6 1d3e 900f e6bd
00000040: c9cc 64b9 d506 cdbc f2b4 903c aa14 b53e
00000050: 4f90 ae3d e4e9 82bb 0075 c63d 7160 3dbd
00000060: 1cdb a7bd 34e2 9d3d fa66 443d ae71 32be
00000070: a23d 95ba 42f3 263e 3fcf b53e 1df3 7b3c
00000080: 073e ce3c 4732 f43d 5067 8eb6 1b8f 6dbd
00000090: 2775 1a3c 4c12 15bc b6aa c73d 3ec6 f0bb
000000a0: 1a3a ba3d 43ea 3b3e 84ce af3d 5e6a 82bc
000000b0: d2eb e0b8 78a9 bdba f9d6 f63c 4232 cd3d
000000c0: e0c5 0a3d b7fc 4fbc 4f42 ccbb 6e85 9a3d
000000d0: e03b b33d 3263 dfb8 cdc1 9dbb 6dd5 8cbc
000000e0: fc13 c1bd b336 513e aa79 11bc a847 913d
000000f0: 24e0 aebd b2d3 fd3d 32b4 00bc c6d3 b0bd

embedding_t_w.weight f4 [1, 8]
-0.15688446 -0.11882113 -0.18555167 -0.02660654 -0.15738381 -0.08247686 -0.14815639 -0.021981332
00000000: 52a6 20be 7e58 f3bd 4201 3ebe f5f5 d9bc
00000010: 3929 21be a1e9 a8bd 4fb6 17be 3212 b4bc

lstm.weight_ih f4 [512, 65]
-0.023488639 0.014663797 0.0023335374 -0.018507669 -0.00045063766 -0.0007533129 -0.0050174403 -0.0027300478
-0.013031738 -0.014392014 -0.0155484015 -0.031038076 0.014739335 0.017412396 -0.028783193 -0.041146893
-0.00024117786 0.0013165033 0.025583586 -0.05412521 -0.029910736 0.0002756617 -0.010016702 -0.03828871
-0.035764545 -0.054782297 0.009739966 -0.009720598 0.0001448413 -0.03354994 -0.06878895 -0.050664164
-0.00055639335 -0.0128352605 -4.4672546e-05 -0.023943448 0.011970133 -0.00014981886 -0.030505642 -4.627356e-07
0.0075998334 -0.041029885 -0.0035667021 -3.3976966e-19 1.3180401e-05 9.84227e-07 -0.016397536 -0.035165537
-0.023795556 -0.00012452828 -0.011452218 -0.07298488 -0.0026436858 1.6951657e-11 1.0759434e-06 -0.015117095
0.013025735 -0.05803532 -4.240687e-05 -0.03382083 -0.0005901834 -0.01555435 3.0403743e-07 -0.030697312
-0.002794712 -0.023964982 0.014070564 0.025516372 -0.07460747 -0.0055688582 5.353417e-06 -0.00062333525
0.021524983 -0.010761647 -0.10851753 0.0042024557 -0.13753006 -0.043411568 -0.042805962 -0.10315253
-0.021149803 -1.12037e-40 0.02008038 0.054587785 -0.08973383 -0.035522573 -1.7715125e-10 -0.034081846
-0.06474154 -0.03859541 -0.091800526 0.047129367 -0.018797778 9.6915e-41 -0.049367625 -0.1376345
-0.065245345 -0.020317422 0.03279131 -0.00018455251 -0.08089127 0.034736436 1.6921776e-19 -0.088625655
2.4122758e-11 -0.12747212 -0.21393125 -0.11728023 -3.9420456e-06 -0.00045160123 -5.652e-41 -0.03701209
-0.04010043 -0.033589028 0.003754021 -0.03186212 -0.07081689 0.02710899 -0.0010461959 -0.00012575343
-0.01766999 0.015966814 -0.06448532 -0.006926981 -0.03778224 0.030094031 -0.10046621 -2.050441e-08
-0.023924248 0.032660972 0.111076355 -0.021260154 -0.009863092 0.01018333 5.8059713e-06 -0.010026132
0.08784755 0.03649574 0.03983522 -0.31038412 0.055637814 0.090843454 -0.060667016 -0.053127714
-0.17138901 0.16940415 -7.5360844e-26 0.021102104 -0.08495307 -0.060471304 0.056559168 -2.4862542e-23
-0.10797392 0.026322411 0.06826134 0.28998184 0.044657882 0.069754735 -7.0638934e-25 0.073520206
0.16667005 0.17699443 -0.035348445 0.1988598 -1.400162e-05 -0.021862129 -0.044743303 -3.7448377e-26
-0.1315325 -5.644565e-28 -0.2257372 0.08227608 -0.11205365 0.00251444 0.004035404 -8.654627e-17
-0.05859963 0.06404914 -0.030799191 0.030997828 0.15169926 0.2048145 0.03172652 -1.2754505e-11
1.8514173e-05 -0.0067611244 -0.02678245 0.21686482 -8.352626e-24 0.26663554 -0.045836657 -0.1341756
2.02417e-25 0.08078065 -0.08207692 -0.04091606 -0.0022527885 -0.01117262 0.19590892 -9.4167e-41
-0.025398137 0.10491025 0.027300837 0.064651564 -0.07273421 -0.031211445 0.30690545 -0.09784645
-0.056078035 -0.16537632 0.10602916 1.0227406e-21 -0.019460833 0.17222698 -0.25110906 -0.049088135
-2.2871492e-19 0.024291253 0.12426856 0.086262085 0.082591824 -0.08259727 0.102747776 4.3097145e-07
-0.05187116 0.10179495 0.064781964 -0.059619736 -0.02275451 -2.198583e-08 -0.15294626 -0.011486098
-6.3882775e-13 0.016215144 2.348277e-21 -0.024553396 0.33636206 -0.255232 7.1079676e-06 -0.002516359
5.9611e-41 -0.0690674 0.032507416 0.0031529202 -0.0003888053 0.25261614 0.04530181 -0.07800831
3.6606789e-06 8.508528e-05 0.040007286 0.017535608 -0.0061895056 2.0503052e-27 0.08020173 0.05172511
00000000: 3f6b c0bc 6c40 703c 43ee 183b 659d 97bc
00000010: 9043 ecb9 f979 45ba 5769 a4bb 9aea 32bb
00000020: 1283 55bc 7bcc 6bbc b9be 7ebc 9043 febc
00000030: 407d 713c 71a4 8e3c bbca ebbc a589 28bd
00000040: b0e4 7cb9 858e ac3a ab94 d13c 65b2 5dbd
00000050: 5c07 f5bc b086 9039 181d 24bc 9fd4 1cbd
00000060: d87d 12bd 6763 60bd 6194 1f3c 2543 1fbc
00000070: 8ae0 1739 a96b 09bd 39e1 8cbd 3a85 4fbd
00000080: edda 11ba fc4a 52bc c85e 3bb8 0d25 c4bc
00000090: 601e 443c b218 1db9 f8e6 f9bc e66d f8b4
000000a0: 0608 f93b f40e 28bd 55bf 69bb 8a90 c8a0
000000b0: 6421 5d37 c819 8435 2054 86bc bd09 10bd
000000c0: e6ee c2bc ce93 02b9 15a2 3bbc 1979 95bd
000000d0: b041 2dbb bd1b 952d 2269 9035 b1ad 77bc
000000e0: e469 553c 72b6 6dbd 08de 31b8 b687 0abd
000000f0: 8ab6 1aba acd7 7ebc 963a a334 ee78 fbbc
00000100: 7d27 37bb 3652 c4bc 3988 663c b607 d13c
00000110: cdcb 98bd f87a b6bb 80a1 b336 5267 23ba
00000120: 2955 b03c 9e51 30bc 703e debd c1b4 893b
00000130: aed4 0cbe 54d0 31bd 4e55 2fbd a241 d3bd
00000140: 5a42 adbc 5038 0180 9c7f a43c 7197 5f3d
00000150: 5fc6 b7bd 1e80 11bd a5c7 42af 6899 0bbd
00000160: 3697 84bd 3816 1ebd ea01 bcbd b90a 413d
00000170: ccfd 99bc 290e 0100 b535 4abd 0ff0 0cbe
00000180: 5a9f 85bd b970 a6bc 2e50 063d 7084 41b9
00000190: 52aa a5bd cb47 0e3d eec6 4720 5e81 b5bd
000001a0: 9f2f d42d 0d88 02be cb10 5bbe 9e30 f0bd
000001b0: ea45 84b6 e4c4 ecb9 8e9d 0080 fd99 17bd
000001c0: 5940 24bd a694 09bd 0506 763b db81 02bd
000001d0: 7208 91bd ac13 de3c 8220 89ba aedc 03b9
000001e0: a8c0 90bc d6cc 823c e110 84bd bafb e2bb
000001f0: 8dc1 1abd c287 f63c 3ac1 cdbd ad21 b0b2
00000200: c9fc c3bc 83c7 053d 007c e33d c629 aebc
00000210: ce98 21bc fbd7 263c ead0 c236 a544 24bc
00000220: 6be9 b33d 8f7c 153d 412a 233d abea 9ebe
00000230: 7ae4 633d 220c ba3d fa7d 78bd 729c 59bd
00000240: 9a80 2fbe 4878 2d3e 9c95 ba95 52de ac3c
00000250: e0fb adbd c2b0 77bd 96aa 673d ac74 f099
00000260: 6e21 ddbd 19a2 d73c 9acc 8b3d 8078 943e
00000270: 2feb 363d 92db 8e3d ee9d 5a97 c391 963d
00000280: 8eab 2a3e 073e 353e 88c9 10bd e7a1 4b3e
00000290: 80e8 6ab7 3518 b3bc c144 37bd 756f 3995
000002a0: 75b0 06be 27e2 3292 a727 67be 5d80 a83d
000002b0: 627c e5bd 4ec9 243b 6c3b 843b e78f c7a4
000002c0: 2a06 70bd 322c 833d 964e fcbc 28ef fd3c
000002d0: 0d57 1b3e e4ba 513e abf3 013d 2f61 60ad
000002e0: e24e 9b37 6c8c ddbb de66 dbbc d011 5e3e
000002f0: 3390 2199 7484 883e 38bf 3bbd 5465 09be
00000300: 8294 7a16 5370 a53d f217 a8bd 9997 27bd
00000310: 85a3 13bb 5d0d 37bc 599c 483e 8006 0180
00000320: c10f d0bc 2fdb d63d 01a6 df3c 0a68 843d
00000330: acf5 94bd 25af ffbc b622 9d3e b863 c8bd
00000340: 15b2 65bd 6958 29be d125 d93d 5c8d 9a1c
00000350: 536c 9fbc 455c 303e 5e91 80be a410 49bd
00000360: 6c02 87a0 73fe c63c 8480 fe3d 2daa b03d
00000370: e725 a93d c228 a9bd 6d6d d23d 4460 e734
00000380: da76 54bd df79 d03d 68ac 843d d333 74bd
00000390: ab67 babc 5adb bcb2 f29d 1cbe 3030 3cbc
000003a0: 64d0 33ab 9fd5 843c 486e 311d 3424 c9bc
000003b0: a637 ac3e c5ad 82be fa80 ee36 80e9 24bb
000003c0: 2ca6 0000 3673 8dbd 7f26 053d 39a1 4e3b
000003d0: 90d8 cbb9 e756 813e 648e 393d d2c2 9fbd
000003e0: fca9 7536 d06f b238 aede 233d d6a6 8f3c
000003f0: 56d1 cabb 2171 2213 ce40 a43d b5dd 533d

lstm.weight_hh f4 [512, 128]
-0.0004968321 -0.004239673 0.021880466 -0.008848481 -0.004043371 -0.0029470632 0.004136748 0.0010058737
0.0065525933 0.002225994 0.0014449653 0.00044561186 -0.00021235278 -0.008581504 -0.002934133 0.0027264198
0.0015437653 0.006498996 -0.00018088677 0.0016064614 -0.0023856587 -0.013308291 -0.0154806655 -0.006919728
0.0036974107 0.0024087986 -0.006278721 -0.0023057442 -0.00228977 0.0007482443 -0.0037068669 -0.004477478
0.006595812 -0.007717547 0.010869369 -0.0063675195 -0.0029586197 -0.0075995764 -0.011395852 0.004572197
0.033254407 -0.00021920819 -0.00060912187 -0.0013691117 -0.004113366 0.0014559823 0.0022877825 -0.0030988213
0.013785435 0.050725605 0.002977064 -0.0013726297 -0.00025172223 -0.0005844553 0.0006213813 0.003643891
-0.00053575315 -0.0005908809 0.0015792706 0.0050740233 0.0031687631 -0.0056180814 -0.0007349727 -0.0023503436
0.0035576818 -0.0016862144 -0.0013084515 0.0013286383 -0.004136507 0.0018315195 0.00054834003 0.0024754878
-0.043981202 0.00017794018 -0.00064896594 -0.00016660253 0.0049518524 -0.025606018 -0.0042358036 0.004473871
0.00056689675 -0.001047455 0.0029311075 0.016884763 0.004920479 0.020751879 0.016358497 0.009192798
0.0156006655 0.001740599 -0.0115482025 -0.004263921 -0.00056454854 0.004646012 -0.011188956 0.0014592096
-0.0027638415 -0.0019141387 0.017424578 0.00090561726 -0.015970403 -0.027974643 0.0051095043 0.08994431
0.002279426 0.0023201741 0.006219126 0.009365756 0.006643477 0.00454562 0.0020132994 -0.014292521
-0.002749258 0.0032147437 -0.005104222 -0.0012213254 0.013266447 -0.025670588 -0.00017327475 0.0028758305
-0.0038881744 -0.0013942057 0.024297997 -0.0125137195 -0.0025793724 0.005090156 -0.004382995 -0.004336044
-0.016896028 -0.009836225 -0.0046477886 -0.022206519 -0.0063298484 -0.0021961767 0.08332667 0.00044044433
0.0031998018 -0.00056419894 -0.013151755 -0.0039453083 -0.0053194338 -0.022424808 -0.0031464947 -0.0038924771
-0.0019206795 0.015558841 -0.004283097 -0.0042750672 0.004262885 -0.024800783 -0.009172885 0.015585431
-0.003852687 -0.025762739 -0.0025260048 0.0029469612 0.012510379 0.0022418564 0.0038164887 0.00454247
-0.04041961 -0.0065134894 0.060135927 -0.012465101 0.0016885577 -0.0025041811 -0.0065328074 0.012478991
0.2669151 -0.0053601614 -0.019319586 0.0038492572 0.024072677 0.027866395 0.02024026 -0.0008108588
0.020511601 0.061150216 0.014530397 -0.03209405 0.0027957507 0.018280946 -0.02274239 -0.010309563
0.009330306 -0.028042957 0.0058611063 0.0059441254 -0.0027428842 -0.0046077035 0.010239265 -0.003074817
-0.005068772 0.039977696 0.0025990363 -0.0015968728 -0.02861743 0.024026064 0.050438028 0.0017504347
-0.22336896 0.013342893 0.0022355258 -0.005493573 -0.0038884957 -0.16550769 -0.013725685 0.011475616
-0.031176219 -0.001866256 0.00017714617 0.028229134 -0.0062132073 0.07053853 0.01695158 -0.02766587
0.096848585 0.02134207 -0.029014789 -0.0032254425 0.0018359709 -0.0042524366 -0.019782033 -0.008576994
0.006674912 -0.022538792 0.0028518615 0.00888588 -0.029861921 -0.06504312 0.013239106 0.23170349
0.02403858 -0.025195416 0.0042374493 0.014430406 -0.02655497 -0.00074823404 0.0017201534 -0.026572749
0.0031136388 0.056680396 -0.016465234 -0.001978659 0.036818184 -0.04009592 -0.03368248 0.0054312907
0.0021768138 -0.008384936 0.06682385 -0.01957482 0.0042505795 0.024276018 0.025643643 -0.022424832
00000000: d63d 02ba f4ec 8abb aa3e b33c 38f9 10bc
00000010: 417e 84bb 8423 41bb 8f8d 873b 85d7 833a
00000020: 23b7 d63b fbe1 113b fd64 bd3a 03a1 e939
00000030: 04ab 5eb9 7099 0cbc 954a 40bb bcad 323b
00000040: 2b58 ca3a 88f5 d43b 6cac 3db9 e68f d23a
00000050: b658 1cbb 050b 5abc 9ea2 7dbc e3be e2bb
00000060: 4250 723b efdc 1d3b bbbd cdbb f81b 17bb
00000070: f70f 16bb d325 443a e8ee 72bb cfb7 92bb
00000080: ae21 d83b 7ae3 fcbb 7015 323c a0a6 d0bb
00000090: 67e5 41bb de05 f9bb abb5 3abc 5ed2 953b
000000a0: c635 083d 40db 65b9 7aad 1fba c473 b3ba
000000b0: 6ac9 86bb a9d6 be3a 9fee 153b 9815 4bbb
000000c0: 4edc 613c a7c5 4f3d d91a 433b cfe9 b3ba
000000d0: 96f9 83b9 2236 19ba 31e4 223a 59ce 6e3b
000000e0: c971 0cba 59e5 1aba 87ff ce3a fe43 a63b
000000f0: 06ab 4f3b e217 b8bb 2fab 40ba 3908 1abb
00000100: ff27 693b f703 ddba 5980 abba b425 ae3a
00000110: 898b 87bb 990f f03a 7abe 0f3a cb3b 223b
00000120: a225 34bd 7495 3a39 5e1f 2aba 07b2 2eb9
00000130: 2643 a23b b6c3 d1bc 7fcc 8abb 8d99 923b
00000140: cc9b 143a c24a 89ba d317 403b ea51 8a3c
00000150: f83b a13b d8ff a93c 4102 863c 649d 163c
00000160: ef99 7f3c d024 e43a ac34 3dbc 5db8 8bbb
00000170: 36fe 13ba 933d 983b e251 37bc f342 bf3a
00000180: 9121 35bb d6e3 faba fdbd 8e3c f266 6d3a
00000190: 5dd4 82bc 142b e5bc a16d a73b b934 b83d
000001a0: 6c62 153b 100e 183b cfc9 cb3b d472 193c
000001b0: 86b1 d93b 6df3 943b 8ff1 033b 2e2b 6abc
000001c0: e52c 34bb 73ae 523b 5141 a7bb e114 a0ba
000001d0: 835b 593c 204b d2bc 16b1 35b9 6e78 3c3b
000001e0: bed0 7ebb c8bd b6ba 980c c73c 5806 4dbc
000001f0: b00a 29bb 53cb a63b 3a9f 8fbb 6015 8ebb
00000200: 8a69 8abc 1e28 21bc 7a4c 98bb 72ea b5bc
00000210: 9e6a cfbb bbed 0fbb 2ca7 aa3d 70eb e639
00000220: c4b3 513b c0e6 13ba 757a 57bc a547 81bb
00000230: a54e aebb 3bb4 b7bc 6c35 4ebb ee18 7fbb
00000240: 4fbf fbba 82ea 7e3c 3959 8cbb dd15 8cbb
00000250: acaf 8b3b 032b cbbc de49 16bc 095a 7f3c
00000260: 5d7d 7cbb 610c d3bc 548b 25bb ce21 413b
00000270: 55f8 4c3c 1cec 123b 0e1e 7a3b 00d9 943b
00000280: 088f 25bd 1c6f d5bb 1751 763d 6c3a 4cbc
00000290: 9852 dd3a 301d 24bb 2911 d6bb af74 4c3c
000002a0: 19a9 883e 4ba4 afbb 1c44 9ebc d243 7c3b
000002b0: 1034 c53c 1148 e43c e7ce a53c d08f 54ba
000002c0: f207 a83c a678 7a3d e710 6e3c 0d75 03bd
000002d0: ea38 373b ecc1 953c 404e babc 71e9 28bc
000002e0: 24de 183c 58ba e5bc 860e c03b f0c6 c23b
000002f0: f6c1 33bb 38fc 96bb 97c2 273c de82 49bb
00000300: f117 a6bb a7bf 233d 9854 2a3b 294e d1ba
00000310: 1a6f eabc 4fd2 c43c 1b98 4e3d d86e e53a
00000320: d5ba 64be 269c 5a3c e681 123b 6e03 b4bb
00000330: 22d6 7ebb d97a 29be b2e1 60bc 3904 3c3c
00000340: 4565 ffbc 299d f4ba 50c0 3939 c940 e73c
00000350: 2998 cbbb 8176 903d 0ade 8a3c 89a3 e2bc
00000360: 8d58 c63d 91d5 ae3c 6cb0 edbc f261 53bb
00000370: f6a4 f03a 0658 8bbb ee0d a2bc 8586 0cbc
00000380: 38b9 da3b 46a3 b8bc 4ce6 3a3b 1596 113c
00000390: fda0 f4bc 5435 85bd d6e8 583c ae43 6d3e
000003a0: 8eec c43c 9e66 cebc 4dda 8a3b 826d 6c3c
000003b0: cf89 d9bc 2325 44ba c576 e13a 18af d9bc
000003c0: 310e 4c3b b429 683d 19e2 86bc 64ac 01bb
000003d0: aace 163d 9f3b 24bd a4f6 09bd f8f8 b13b
000003e0: e0a8 0e3b f860 09bc f1da 883d 5f5b a0bc
000003f0: 7248 8b3b 80de c63c 9e12 d23c 48b4 b7bc

lstm.bias_ih f4 [512]
-0.14451908 -0.20266883 0.07907191 -0.14386968 -0.24247159 -0.15688069 0.43270668 -0.15260169
-0.18165548 -0.15118633 -0.15690364 -0.15978466 -0.1605255 -0.16194549 -0.14425327 -0.14664103
-0.17009953 -0.16562739 -0.12875551 -0.13578507 -0.15549639 -0.27786058 -0.20646249 -0.12624817
-0.15828311 -0.15824653 -0.20226924 -0.1524269 -0.12730084 -0.1477983 -0.15116633 -0.16839258
-0.1242637 -0.23640661 -0.1202618 -0.1424934 -0.15884995 -0.17539836 -0.07419691 -0.14644995
0.45125252 -0.13946317 -0.13914917 -0.1740026 -0.14613636 -0.14087816 -0.14672084 -0.15781201
-0.1696751 -0.08735967 -0.16664085 -0.17991921 -0.17495225 -0.16603953 -0.21125434 -0.13786323
-0.17091236 -0.1559508 -0.14996545 -0.15314052 -0.28841364 -0.21579137 -0.1477476 -0.23925151
-0.25110894 0.34894836 -0.15746915 -0.2076139 -0.17977323 -0.15588756 -0.15615751 -0.13126631
0.04116425 -0.13154648 -0.17090096 -0.15977426 -0.16808376 0.51985544 -0.13971278 -0.33367962
-0.1522672 -0.14340407 -0.13590932 -0.20488273 -0.14144298 -0.09699788 -0.11969171 -0.16559878
0.47612616 -0.184663 -0.18829153 -0.20969854 -0.20032838 -0.15349925 -0.08292416 -0.15006074
-0.1770693 -0.14199936 -0.114754505 -0.17126237 -0.16706806 -0.106708094 -0.14989656 0.4137079
-0.13315469 -0.15834513 -0.15165503 -0.14141966 -0.13867244 -0.15677962 -0.15470403 -0.17047335
-0.13662857 0.42676026 -0.2717082 -0.17455183 -0.17262478 -0.14398411 -0.14185308 -0.18171588
-0.17770073 -0.1267249 -0.100973666 -0.12019342 -0.18414836 -0.15067893 -0.17374282 -0.14462072
-0.09918658 -0.23811582 0.100928895 -0.24475248 -0.17503728 -0.08954516 0.07619935 -0.08020995
-0.11812697 -0.19239672 -0.0865293 -0.08170103 -0.091999136 -0.26344925 -0.08088794 -0.07010772
-0.0988996 -0.11734195 -0.10310293 -0.10734866 -0.10682048 -0.21808146 -0.3043409 -0.08772054
-0.10974159 -0.08261226 -0.154078 -0.10573763 -0.101257175 -0.07275716 -0.08134146 -0.09206001
-0.06578758 -0.17154272 -0.06387017 -0.0878557 -0.081210196 -0.10189552 -0.10041032 -0.07059169
0.30272964 -0.07713416 -0.07852336 -0.10628763 -0.08301966 -0.07559524 -0.078258105 -0.116067424
-0.1940815 -0.21180268 -0.11063535 -0.098295696 -0.08934116 -0.11089642 -0.094328456 -0.077237554
-0.09956535 -0.11465417 -0.103186294 -0.10165072 -0.1760104 -0.3401967 -0.08198998 -0.16455062
-0.14098689 -0.067941196 -0.105532564 -0.14638495 -0.119708985 -0.11000016 -0.09348754 -0.10480886
-0.22251043 -0.08189268 -0.095992245 -0.09871315 -0.09338808 0.28794485 -0.12302415 -0.14750488
-0.08564082 -0.09551023 -0.080120556 -0.17820543 -0.093525946 -0.10310056 -0.15681635 -0.11626257
0.2698741 -0.08078983 -0.13763376 -0.115239434 -0.15958455 -0.087888114 -0.31471545 -0.082051516
-0.104530856 -0.08414061 -0.19054054 -0.089096725 -0.15507136 -0.18116494 -0.10130874 -0.030989049
-0.06324565 -0.07050552 -0.102073364 -0.14243224 -0.080587566 -0.08054807 -0.087632135 -0.13436404
-0.107854985 0.11861404 -0.33959216 -0.09890425 -0.18428054 -0.15657902 -0.092662126 -0.1236887
-0.10432065 -0.06676883 -0.04329056 -0.19848354 -0.08959485 -0.07754629 -0.32342985 -0.11432535
00000000: cffc 13be 6b88 4fbe 74f0 a13d 9352 13be
00000010: 794a 78be 55a5 20be bb8b dd3e 9e43 1cbe
00000020: e503 3abe 97d0 1abe 59ab 20be 979e 23be
00000030: cc60 24be 0ad5 25be 21b7 13be 1129 16be
00000040: 922e 2ebe 3a9a 29be 7cd8 03be 3e0b 0bbe
00000050: 723a 1fbe be43 8ebe e76a 53be 3347 01be
00000060: f814 22be 610b 22be ab1f 4fbe cc15 1cbe
00000070: 275b 02be 7058 17be 59cb 1abe 1b6f 2cbe
00000080: f77d febd 9314 72be d24b f6bd cae9 11be
00000090: 90a9 22be a19b 33be 8df4 97bd faf6 15be
000000a0: 920a e73e 6fcf 0ebe 1f7d 0ebe bd2d 32be
000000b0: c5a4 15be 5d42 10be fd3d 16be 7999 21be
000000c0: 4fbf 2dbe a0e9 b2bd e6a3 2abe be3c 38be
000000d0: af26 33be 4406 2abe 0f53 58be 052c 0dbe
000000e0: a603 2fbe 91b1 1fbe 8b90 19be ded0 1cbe
000000f0: f4aa 93be 6af8 5cbe 264b 17be 59fe 74be
00000100: 5a91 80be 5ca9 b23e 983f 21be bd98 54be
00000110: 7916 38be fda0 1fbe c1e7 1fbe ad6a 06be
00000120: d89b 283d 1fb4 06be a900 2fbe dd9b 23be
00000130: 261e 2cbe 3f15 053f de10 0fbe 0ed8 aabe
00000140: efeb 1bbe 84d8 12be d02b 0bbe c7cc 51be
00000150: 6ed6 10be d3a6 c6bd ed20 f5bd ba92 29be
00000160: cfc6 f33e 4c18 3dbe 7fcf 40be 37bb 56be
00000170: e222 4dbe e82e 1dbe 24d4 a9bd 86a9 19be
00000180: a851 35be 4868 11be 6904 ebbd 675f 2fbe
00000190: e413 2bbe c689 dabd 7c7e 19be 86d1 d33e
000001a0: b459 08be 3a25 22be 754b 1bbe 51d0 10be
000001b0: 2600 0ebe d68a 20be bc6a 1ebe 9190 2ebe
000001c0: 5ce8 0bbe 5280 da3e 561d 8bbe b7bd 32be
000001d0: 8dc4 30be 9270 13be ef41 11be ba13 3abe
000001e0: 2ef7 35be 2cc4 01be 48cb cebd f827 f6bd
000001f0: 6391 3cbe 944b 1abe a3e9 31be 7417 14be
00000200: 5522 cbbd a2d4 73be cfb3 ce3d 65a0 7abe
00000210: f93c 33be 7463 b7bd 680e 9c3d 1d45 a4bd
00000220: 8eec f1bd a503 45be 4636 b1bd df52 a7bd
00000230: 0b6a bcbd d2e2 86be 94a8 a5bd a394 8fbd
00000240: e08b cabd fa50 f0bd a127 d3bd 9dd9 dbbd
00000250: b2c4 dabd bf50 5fbe 92d2 9bbe d4a6 b3bd
00000260: 33c0 e0bd 9e30 a9bd a0c6 1dbe f88c d8bd
00000270: ec5f cfbd b501 95bd 5a96 a6bd f589 bcbd
00000280: a4bb 86bd e5a8 2fbe 5dce 82bd b0ed b3bd
00000290: 8851 a6bd 99ae d0bd eda3 cdbd 6092 90bd
000002a0: 61ff 9a3e 84f8 9dbd dbd0 a0bd 54ad d9bd
000002b0: 3606 aabd add1 9abd c945 a0bd c2b4 edbd
000002c0: 4dbd 46be cde2 58be c994 e2bd 414f c9bd
000002d0: 80f8 b6bd aa1d e3bd 472f c1bd b92e 9ebd
000002e0: ebe8 cbbd cecf eabd 5653 d3bd 412e d0bd
000002f0: 123c 34be 432e aebe 5dea a7bd f57f 28be
00000300: de5e 10be c124 8bbd 7521 d8bd f0e5 15be
00000310: fc29 f5bd c447 e1bd 6576 bfbd 07a6 d6bd
00000320: c6d9 63be 59b7 a7bd 9597 c4bd 1f2a cabd
00000330: 4042 bfbd 826d 933e 16f4 fbbd 850b 17be
00000340: 7464 afbd de9a c3bd 3f16 a4bd 7c7b 36be
00000350: 888a bfbd 6326 d3bd 7794 20be 121b eebd
00000360: f02c 8a3e 2375 a5bd ddef 0cbe a702 ecbd
00000370: 226a 23be affe b3bd 6222 a1be a00a a8bd
00000380: 4614 d6bd ea51 acbd 0f1d 43be 5878 b6bd
00000390: 07cb 1ebe 4d83 39be f57a cfbd bfdc fdbc
000003a0: ef86 81bd 3365 90bd d70b d1bd c2d9 11be
000003b0: 180b a5bd 63f6 a4bd 7a78 b3bd ba96 09be
000003c0: 13e3 dcbd ebeb f23d 06df adbe 508e cabd
000003d0: 0ab4 3cbe 4056 20be a4c5 bdbd 8050 fdbd
000003e0: 11a6 d5bd 19be 88bd 7151 31bd 453f 4bbe
000003f0: 817d b7bd 97d0 9ebd 9998 a5be 6923 eabd

lstm.bias_hh f4 [512]
-0.14451993 -0.2440522 -0.0021806543 -0.108971626 -0.26510608 -0.15688089 0.448327 -0.15258871
-0.18193914 -0.1808797 -0.15690379 -0.15978616 -0.1605247 -0.124506876 -0.14425181 -0.14664115
-0.17008927 -0.16558705 -0.12876421 -0.135787 -0.15549654 -0.26786587 -0.1310896 -0.12624754
-0.15828913 -0.15824592 -0.19168444 -0.1524268 -0.12729453 -0.14779654 -0.151165 -0.16838515
-0.124346204 -0.24269122 -0.1202618 -0.1424952 -0.15884951 -0.17544107 -0.07690554 -0.14645109
0.4502874 -0.13946344 -0.13914824 -0.17404017 -0.1461368 -0.14087823 -0.14673552 -0.15786146
-0.15782389 -0.08047835 -0.16660947 -0.17989926 -0.17494424 -0.16604456 -0.2109965 -0.13788028
-0.17091505 -0.15581173 -0.14995798 -0.15313764 -0.29734698 -0.29236123 -0.14774564 -0.2533398
-0.25959545 0.34386605 -0.15741885 -0.20566925 -0.1808275 -0.15610671 -0.15617293 -0.13126674
0.06375433 -0.13154666 -0.17088689 -0.15977007 -0.16808318 0.50619715 -0.1395623 -0.32657877
-0.15226673 -0.14340219 -0.13590828 -0.19559862 -0.14144288 -0.071336076 -0.09185132 -0.16732179
0.47763625 -0.18254833 -0.19145703 -0.21014623 -0.19077013 -0.15349784 -0.11688005 -0.15002912
-0.17706408 -0.14200087 -0.126385 -0.17126016 -0.16524228 -0.14496368 -0.14984488 0.35213482
-0.13328394 -0.15840466 -0.15166973 -0.101791516 -0.13867237 -0.15675642 -0.15471675 -0.17128383
-0.13663116 0.42144853 -0.31523764 -0.17443496 -0.17900458 -0.18377557 -0.1418532 -0.18141794
-0.17770112 -0.12672493 -0.10097468 -0.13372351 -0.18381718 -0.15068774 -0.1409483 -0.14460292
-0.09918658 -0.24686831 0.09299793 -0.25254792 -0.17828654 -0.08954516 0.12640415 -0.080209926
-0.11812404 -0.19004506 -0.0865293 -0.081701025 -0.091999136 -0.2646192 -0.08088794 -0.07010772
-0.0988996 -0.11734195 -0.103102945 -0.10734866 -0.10682048 -0.20364018 -0.31972978 -0.08772054
-0.10974159 -0.08261226 -0.15366687 -0.10573763 -0.101257175 -0.07275716 -0.08134146 -0.09206001
-0.06578772 -0.17158721 -0.06387017 -0.0878557 -0.081210196 -0.101895794 -0.094595194 -0.07059169
0.28979862 -0.07713416 -0.07852336 -0.10628762 -0.08301966 -0.07559524 -0.078258105 -0.11607079
-0.19490275 -0.19853161 -0.11063538 -0.098295696 -0.08934116 -0.11089642 -0.094327986 -0.077237554
-0.09956535 -0.11465418 -0.10318631 -0.10165072 -0.17381987 -0.35147825 -0.08198998 -0.16523561
-0.13997883 -0.078467175 -0.105532594 -0.14637358 -0.1196326 -0.11000041 -0.09348754 -0.10480886
-0.15731949 -0.08189268 -0.095992245 -0.09871315 -0.09338808 0.29424477 -0.123023674 -0.14945975
-0.08564082 -0.09551023 -0.080120556 -0.17843325 -0.093525946 -0.105635986 -0.15388827 -0.11627038
0.2778431 -0.08083657 -0.13771449 -0.115235955 -0.16031829 -0.087888114 -0.35875806 -0.08205148
-0.10453087 -0.08414061 -0.1854919 -0.089096725 -0.15623486 -0.210922 -0.10130868 0.10226166
-0.063245535 -0.070505574 -0.10207343 -0.13501757 -0.080587566 -0.08054807 -0.087632135 -0.13438512
-0.107854985 0.09886227 -0.34117946 -0.09890445 -0.18421118 -0.14526959 -0.092662126 -0.123694204
-0.10432065 -0.06676883 -0.04329056 -0.19954103 -0.089595705 -0.07754629 -0.3838326 -0.114325054
00000000: 08fd 13be d2e8 79be 4fe9 0ebb 842c dfbd
00000010: fcbb 87be 62a5 20be 1e8b e53e 3740 1cbe
00000020: 414e 3abe 8738 39be 63ab 20be fc9e 23be
00000030: 9660 24be 76fd febd bfb6 13be 1929 16be
00000040: e22b 2ebe a78f 29be c4da 03be bf0b 0bbe
00000050: 7c3a 1fbe b725 89be 5a3c 06be 0947 01be
00000060: 8c16 22be 380b 22be ed48 44be c515 1cbe
00000070: 7f59 02be fa57 17be ffca 1abe 286d 2cbe
00000080: 39a9 febd 0c84 78be d24b f6bd 43ea 11be
00000090: 72a9 22be d3a6 33be a780 9dbd 46f7 15be
000000a0: 128c e63e 81cf 0ebe e07c 0ebe 9637 32be
000000b0: e3a4 15be 6242 10be d641 16be 6fa6 21be
000000c0: 969c 21be d5d1 a4bd ac9b 2abe 8337 38be
000000d0: 9524 33be 9607 2abe 770f 58be 7d30 0dbe
000000e0: 5b04 2fbe 1c8d 1fbe 968e 19be 1dd0 1cbe
000000f0: dd3d 98be 5fb0 95be a24a 17be c1b5 81be
00000100: b2e9 84be 360f b03e 6832 21be f69a 52be
00000110: d82a 39be 70da 1fbe cceb 1fbe ca6a 06be
00000120: a191 823d 2bb4 06be f9fc 2ebe c49a 23be
00000130: ff1d 2cbe 2396 013f 6be9 0ebe 5535 a7be
00000140: cfeb 1bbe 06d8 12be 8a2b 0bbe 014b 48be
00000150: 67d6 10be a618 92bd 8b1c bcbd 6756 2bbe
00000160: bd8c f43e f3ed 3abe 500d 44be 9330 57be
00000170: 3f59 43be 8a2e 1dbe cf5e efbd 3ca1 19be
00000180: 4950 35be ad68 11be 126b 01be d35e 2fbe
00000190: 4635 29be 5c71 14be f070 19be 044b b43e
000001a0: 967b 08be d534 22be 4f4f 1bbe 1278 d0bd
000001b0: 2100 0ebe c184 20be 116e 1ebe 0765 2fbe
000001c0: 0ae9 0bbe 1ac8 d73e d466 a1be 149f 32be
000001d0: fa4c 37be aa2f 3cbe f741 11be a0c5 39be
000001e0: 48f7 35be 2ec4 01be d0cb cebd d1ee 08be
000001f0: 923a 3cbe e34d 1abe c054 10be ca12 14be
00000200: 5522 cbbd 0ccb 7cbe b375 be3d f64d 81be
00000210: bf90 36be 7463 b7bd 1770 013e 1a45 a4bd
00000220: 04eb f1bd 2c9b 42be 4636 b1bd de52 a7bd
00000230: 0b6a bcbd 2b7c 87be 94a8 a5bd a394 8fbd
00000240: e08b cabd fa50 f0bd a327 d3bd 9dd9 dbbd
00000250: b2c4 dabd 0d87 50be 9fb3 a3be d4a6 b3bd
00000260: 33c0 e0bd 9e30 a9bd d95a 1dbe f88c d8bd
00000270: ec5f cfbd b501 95bd 5a96 a6bd f589 bcbd
00000280: b6bb 86bd 8fb4 2fbe 5dce 82bd b0ed b3bd
00000290: 8851 a6bd beae d0bd 20bb c1bd 6092 90bd
000002a0: 7c60 943e 84f8 9dbd dbd0 a0bd 53ad d9bd
000002b0: 3606 aabd add1 9abd c945 a0bd 86b6 edbd
000002c0: 9694 47be df4b 4bbe cd94 e2bd 414f c9bd
000002d0: 80f8 b6bd aa1d e3bd 082f c1bd b92e 9ebd
000002e0: ebe8 cbbd d0cf eabd 5853 d3bd 412e d0bd
000002f0: d6fd 31be f5f4 b3be 5dea a7bd 8633 29be
00000300: 9c56 0fbe 66b3 a0bd 7921 d8bd f5e2 15be
00000310: f001 f5bd e547 e1bd 6576 bfbd 07a6 d6bd
00000320: 5c18 21be 59b7 a7bd 9597 c4bd 1f2a cabd
00000330: 4042 bfbd 40a7 963e d6f3 fbbd fa0b 19be
00000340: 7464 afbd de9a c3bd 3f16 a4bd 35b7 36be
00000350: 888a bfbd ae57 d8bd e394 1dbe 2a1f eebd
00000360: 7341 8e3e a58d a5bd 0705 0dbe d400 ecbd
00000370: 7a2a 24be affe b3bd 23af b7be 9b0a a8bd
00000380: 4814 d6bd ea51 acbd 97f1 3dbe 5878 b6bd
00000390: 08fc 1fbe f0fb 57be ed7a cfbd 906e d13d
000003a0: e086 81bd 3a65 90bd e00b d1bd 0c42 0abe
000003b0: 180b a5bd 63f6 a4bd 7a78 b3bd 419c 09be
000003c0: 13e3 dcbd 4d78 ca3d 13af aebe 6b8e cabd
000003d0: dba1 3cbe 8dc1 14be a4c5 bdbd 6353 fdbd
000003e0: 11a6 d5bd 19be 88bd 7151 31bd 7c54 4cbe
000003f0: f47d b7bd 97d0 9ebd b585 c4be 4123 eabd

output_w.weight f4 [5, 128]
0.011298221 -0.012927007 -0.032221574 0.047333196 -0.042846918 0.0043373504 0.07207016 -0.009033704
0.0024270487 0.024746513 -0.0032604053 -0.0035470577 0.009984444 0.10996318 0.008690919 -0.008827781
0.008512958 0.0019057163 0.0027647207 0.0076111704 -0.0040065832 -0.0018777726 0.11513069 -0.0039894925
0.004546844 0.008507166 -0.016301071 -0.008666525 -0.0065137325 -0.005506365 0.004052067 0.0001451401
0.0010248129 0.025877824 0.0052690473 0.0075963875 0.0054536187 -0.0053255158 0.0833585 -0.006076102
0.15739411 0.0033028498 0.007892568 -0.003878357 -0.018454522 -0.0048817666 0.011659741 -0.005276
-0.0065564523 -0.09573594 -0.0055899685 0.010348782 0.0072469343 -0.0013531924 0.015220349 0.0076912018
-0.00823114 -0.0022169894 0.0016972644 -0.004039986 -0.01955323 0.066211395 0.009060451 0.028297061
-0.002341298 0.0321761 -0.0063917274 0.011388168 0.0068845237 -0.0017193025 -0.0001177364 0.002030572
0.23440512 -0.010468279 -0.0055996575 0.004910463 -0.0025785337 -0.004191024 -0.008665159 -0.036526207
0.010763714 -0.0048629 -0.008536127 0.022731835 0.0019469692 0.007353535 0.06688636 0.023047278
0.04343256 -0.0027364644 -0.015096879 0.008795147 0.022394227 -0.004740609 0.25659603 -0.00058701914
-0.0066133463 0.0009120153 0.029606096 -0.011521762 -0.01309962 -0.047473937 -0.0046069506 -0.14953339
-0.0063458346 0.01165664 -0.00043556048 -0.012292047 0.012165571 -0.0027581127 -0.0023537995 -0.021839365
-0.0058725122 0.010839132 0.09722948 0.010268218 0.0070324824 -0.013852956 0.00965837 -0.008902485
-0.006691493 -0.008762714 0.018024031 -0.0032469784 -0.0157453 -0.010259872 -0.039328966 -0.0006391122
0.0096013695 0.03921371 0.056805 0.019618036 0.003597132 0.0010406688 -0.012577043 -0.009841558
-0.010755728 0.011810924 0.0025428315 0.0072556213 0.00096808485 0.07920224 0.01003295 -0.0017555078
-0.008455231 -0.008291595 0.005405907 0.009571693 -0.0059720357 -0.047041364 0.028105034 -0.013756519
0.008254216 0.010974432 0.03680554 -0.0052610235 -0.0044280374 -0.0020742752 0.004664486 0.0015759267
0.018998507 0.021898096 -0.013911653 0.013779709 0.0041937227 0.009630724 -0.0064953365 -0.0072646886
0.30873358 0.002990778 0.0029765614 0.0043363892 -0.008019891 -0.009758375 -0.0028007843 0.006220029
0.023472419 0.00040790526 0.005468878 0.011739475 -0.0020799474 -0.002626083 0.0010301186 0.009799356
0.0057288283 0.009656379 0.007911811 0.0053320434 -0.008346324 -0.23794174 -0.0023914375 0.0019717047
-0.028264757 0.0527839 0.0034950161 0.015966166 0.016058173 -0.0056370343 -0.00358061 0.0031908636
-0.20460206 -0.011911397 0.008909894 0.0071567083 -0.0027177103 0.072349384 0.01658561 0.022042766
0.014770818 -0.008167704 -0.008453373 -0.033127606 0.00619882 0.04931263 0.008707017 -0.021892363
-0.09098639 0.0017851829 0.015128468 -0.0042320434 0.026783084 -8.799951e-05 -0.10130287 0.011425393
0.0027618262 0.00084787374 -0.11400309 -0.009330483 0.019421699 -0.07587447 -0.01010909 -0.14619249
-0.016466605 0.017375536 -0.00737024 0.05256084 0.014515184 -0.0017481036 -0.01287789 0.021355197
-0.004900215 -0.039970722 0.21809262 -0.004046549 0.0020165343 -0.045199662 0.01981034 0.009717665
-0.0038310653 -0.012576073 -0.024748962 0.03424324 0.016342217 -0.014406521 0.2629213 0.010979792
00000000: 2c1c 393c cccb 53bc c5fa 03bd 74e0 413d
00000010: 4080 2fbd 5520 8e3b 8599 933d 1a02 14bc
00000020: 1f0f 1f3b 33b9 ca3c 86ac 55bb c175 68bb
00000030: cb95 233c 6034 e13d 5b64 0e3c 66a2 10bc
00000040: ef79 0b3c 3ac9 f93a 5130 353b 2067 f93b
00000050: a849 83bb 981f f6ba a4c9 eb3d 4aba 82bb
00000060: b1fd 943b a461 0b3c d389 85bc 0afe 0dbc
00000070: 2671 d5bb bd6e b4bb 34c7 843b c030 1839
00000080: 0453 863a bbfd d33c f9a7 ac3b 1eeb f83b
00000090: 45b4 b23b aa81 aebb dcb7 aa3d 0a1a c7bb
000000a0: ec2b 213e a074 583b d44f 013c 082c 7ebb
000000b0: f02d 97bc 3af7 9fbb 8008 3f3c 4ce2 acbb
000000c0: 82d7 d6bb 3411 c4bd 0e2c b7bb f08d 293c
000000d0: b177 ed3b 9a5d b1ba c55e 793c 7a06 fc3b
000000e0: e7db 06bc e94a 11bb be76 de3a dc61 84bb
000000f0: 182e a0bc d799 873d 4972 143c 3dcf e73c
00000100: 7670 19bb 16cb 033d b271 d1bb 7095 3a3c
00000110: 9297 e13b 385a e1ba 40e9 f6b8 5813 053b
00000120: e507 703e 2583 2bbc 557d b7bb f3e7 a03b
00000130: 9efc 28bb dc54 89bb 50f8 0dbc 819c 15bd
00000140: 4a5a 303c f658 9fbb 1ddb 0bbc 1d38 ba3c
00000150: 7231 ff3a ecf5 f03b b7fb 883d a5cd bc3c
00000160: 57e6 313d 4156 33bb e658 77bc 8519 103c
00000170: 1974 b73c 1c57 9bbb 8e60 833e 30e2 19ba
00000180: c5b4 d8bb 5014 6f3a 7c88 f23c c6c5 3cbc
00000190: ca9f 56bc 0874 42bd e7f5 96bb 481f 19be
000001a0: b8f0 cfbb 7efb 3e3c f05b e4b9 9564 49bc
000001b0: 1a52 473c 74c1 34bb 3442 1abb 78e8 b2bc
000001c0: 346e c0bb 9d96 313c 4020 c73d 073c 283c
000001d0: bd70 e63b 82f7 62bc 243e 1e3c badb 11bc
000001e0: 5044 dbbb 7d91 0fbc 22a7 933c 42cb 54bb
000001f0: 4afc 80bc 0619 28bc 6917 21bd 188a 27ba
00000200: 104f 1d3c 8e9e 203d 5cac 683d 01b6 a03c
00000210: dcbd 6b3b 0d67 883a f10f 4ebc 7c3e 21bc
00000220: cb38 30bc 9b82 413c a2a5 263b 90c0 ed3b
00000230: 13c7 7d3a c934 a23d 3e61 243c 1119 e6ba
00000240: cf87 0abc 78d9 07bc 0924 b13b 97d2 1c3c
00000250: 11b1 c3bb 72ae 40bd 873c e63c 0663 61bc
00000260: b13c 073c 1bce 333c 68c1 163d aa64 acbb
00000270: 1219 91bb 90f0 07bb 8bd8 983b 538f ce3a
00000280: c2a2 9b3c a363 b33c b4ed 63bc 4ac4 613c
00000290: 7f6b 893b 2fca 1d3c d5d6 d4bb a00c eebb
000002a0: 5412 9e3e ee00 443b 6a12 433b 4518 8e3b
000002b0: dc65 03bc 97e1 1fbc 5d8d 37bb 63d1 cb3b
000002c0: 3b49 c03c 1edc d539 4634 b33b ed56 403c
000002d0: ba4f 08bb 5d1a 2cbb 0b05 873a 7a8d 203c
000002e0: e5b8 bb3b ca35 1e3c 8aa0 013c 6cb8 ae3b
000002f0: 05bf 08bc 00a7 73be aab9 1cbb b737 013b
00000300: 7e8b e7bc ee33 583d a40c 653b 7acb 823c
00000310: 6e8c 833c dfb6 b8bb aba8 6abb cf1d 513b
00000320: 3483 51be 0528 43bc cefa 113c d282 ea3b
00000330: 9d1b 32bb ea2b 943d 8cde 873c 0893 b43c
00000340: 4d01 723c d5d1 05bc 0480 0abc d0b0 07bd
00000350: 791f cb3b 0afc 493d e0a7 0e3c 9d57 b3bc
00000360: 1357 babd ccfc e93a 65dd 773c f4ac 8abb
00000370: 3368 db3c 618c b8b8 e177 cfbd 9231 3b3c
00000380: c1ff 343b d843 5e3a 747a e9bd e2de 18bc
00000390: 411a 9f3c 1364 9bbd 99a0 25bc 7cb3 15be
000003a0: f9e4 86bc 2457 8e3c 0e82 f1bb 094a 573d
000003b0: 18d1 6d3c a020 e5ba c9fd 52bc 18f1 ae3c
000003c0: fc91 a0bb 57b8 23bd ac53 5f3e ea98 84bb
000003d0: d527 043b 4823 39bd 4b49 a23c d736 1f3c
000003e0: 9c12 7bbb e00b 4ebc 56be cabc a442 0c3d
000003f0: 1de0 853c 5409 6cbc 9f9d 863e 96e4 333c

output_w.bias f4 [5]
-0.069924295 0.0702166 -0.78741807 -0.6701221 -0.021849897
00000000: 7834 8fbd b9cd 8f3d 3b94 49bf 1f8d 2bbf
00000010: 8efe b2bc

square_avg f4 [64]
0.006001051 0.001779055 0.0010210779 0.02663461 5.5135504e-11 0.0037345348 0.011876153 0.001157953
0.015872996 0.12923504 0.0047004498 0.048345875 0.0012125198 0.0118543245 0.115135536 0.013428548
4.9047855e-10 4.9816634e-05 0.017825428 0.036471047 0.01741286 5.4105214e-09 0.008475517 0.0059421393
0.014320765 0.042096492 0.0017335529 0.022600694 6.800803e-10 0.011118059 0.017917665 0.010333322
0.0013126342 0.006494521 9.233675e-11 0.008703646 0.0067991274 7.441354e-08 0.053297244 3.7200172e-09
0.026384864 0.07088869 0.04804259 1.7577928e-05 2.0909575e-10 7.708342e-10 0.00043296494 0.006537893
0.0172807 0.00019723996 0.075083055 0.027440136 0.0005592344 4.749415e-10 6.046183e-10 0.0011543364
0.001971358 0.01791714 3.7147636e-09 0.028522596 0.0061233114 0.018731898 3.8392476e-09 0.017050827
00000000: 77a4 c43b 2e2f e93a b0d5 853a d330 da3c
00000010: 0f7d 722e 19bf 743b 3294 423c 75c6 973a
00000020: 1608 823c 3156 043e 3b06 9a3b 5306 463d
00000030: 6aed 9e3a a438 423c 2ecc eb3d 6a03 5c3c
00000040: 5cd2 0630 34f2 5038 a206 923c aa62 153d
00000050: 6aa5 8e3c 73e7 b931 e5dc 0a3c 47b6 c23b
00000060: a4a1 6a3c 5f6d 2c3d 6238 e33a 1725 b93c
00000070: 66f0 3a30 8528 363c 11c8 923c 184d 293c
00000080: b20c ac3a fecf d43b f80c cb2e bd99 0e3c
00000090: 37cb de3b 47cd 9f33 364e 5a3d 3ca3 7f31
000000a0: 1225 d83c 172e 913d 4fc8 443d 5074 9337
000000b0: 39e7 652f a2e2 5330 92ff e239 d23b d63b
000000c0: 4190 8d3c 33d2 4e39 25c5 993d 23ca e03c
000000d0: 9699 123a 098d 0230 3b32 2630 1a4d 973a
000000e0: e631 013b f7c6 923c d046 7f31 38a8 e93c
000000f0: 0fa6 c83b a373 993c 61ea 8331 2dae 8b3c

square_avg f4 [5]
3.8139782 14.364741 0.07613734 0.24792032 0.03744772
00000000: 3818 7440 fbd5 6541 e5ed 9b3d d3de 7d3e
00000010: c862 193d
