S-LSTM/Goal+Socail_Array_PyTorch/social_lstm/save/0/social_model_epoch_0.pth (torch, 815043 bytes, 22 tensors)

embedding_b f4 [64]
00000000: e25c 543c 93e5 383e bc03 2c3e 2a68 24b7
00000010: 8c1c 15bc 30a8 b13d 0c09 a3bc b3d4 c1bb
00000020: b82b d9bc be8d 17bc a92e ac3d 3b1e 12bd
00000030: 4648 f7bd 259e 63bd 118a bfbb 08b7 d8bb
00000040: a8e4 c8bb d0eb 2cbb 5af2 59bd 2ecf 0bbd
00000050: e63c b0bd 371b 2dbb c40c 99bc fcb6 30b6
00000060: 4114 d2bb 8153 fbbb 0900 273e ed92 36bc
00000070: 2610 5f3e 610e 53bd b400 2bab 1e47 a13d
00000080: 7104 77bc 9f0b 583d d5a8 a9bb f6f6 1dbd
00000090: 4d33 083e ede7 103e b53f 213c 7f1d cc3c
000000a0: 78a3 943c df7f b0bc ca1c 31bc 9950 98bc
000000b0: a090 0ab8 bc16 3ebc 0564 9e3d 0264 103e
000000c0: 56ea 03bd 42ac be3d 6f79 21bb 3b43 1b3e
000000d0: 65e4 72bb 3998 f6b9 f051 c43d 7cff 1a3c
000000e0: 536b 8c3d f366 63bc ca42 34b9 9ba8 023d
000000f0: 1756 543e c26f 3f3e c565 883b 969d 213e
0.012961598 0.18056326 0.167983 -9.799414e-06 -0.009101044 0.08674657 -0.019901775 -0.0059152483
-0.026510105 -0.009250103 0.08407337 -0.03567336 -0.12074332 -0.05557074 -0.005845316 -0.006613616
-0.0061307736 -0.0026385672 -0.05320964 -0.03413313 -0.086053655 -0.0026413926 -0.018682845 -2.6332555e-06
-0.006411106 -0.0076698666 0.16308607 -0.011143428 0.21783504 -0.051527385 -6.075238e-13 0.07874893
-0.0150767425 0.052745458 -0.005177597 -0.0385656 0.1330082 0.14150973 0.009841849 0.024916409
0.018144354 -0.021545349 -0.0108100865 -0.01859312 -3.3036456e-05 -0.0116021 0.07733921 0.1410065
-0.032205902 0.09310199 -0.002463903 0.15162365 -0.0037062403 -0.0004703419 0.09585941 0.009460326
0.06856408 -0.0138795255 -0.00017191019 0.031899076 0.20735966 0.18694976 0.0041625225 0.1578277

output_b f4 [5]
00000000: 0e5e 073d 8eb2 49bc af7a aebe 1a26 adbe
00000010: dcea 84bd
0.033048682 -0.012310637 -0.34077975 -0.33818132 -0.06490108

embedding_w.weight f4 [64, 4]
00000000: 5ae9 a03e afe1 17bf dc8d c83c 37ed 63bc
00000010: 40e4 443d ceea 393f 9055 43bc 2156 d63d
00000020: 1b8c 0fbf 5bfb 03bf e66a d8bc 7811 8ebd
00000030: c68d ea20 a8a4 8c34 0021 401d c454 6bb6
00000040: 53bd 333a 4c30 f83a 1c72 e839 a0eb 272a
00000050: f955 d03e 31a4 d8be 8511 f13d 4fe4 c43d
00000060: 1b42 7b3d 57b5 f23e 77c3 443e 0378 043d
00000070: 88ec 06b6 bc41 c5b9 7b52 35b8 f003 cb3b
00000080: 28a2 df3e aab4 f63d 02ae 10be 42f1 30bc
00000090: 3ae5 19ba 5842 da34 9292 e7b9 e794 5c36
000000a0: 6087 5fbe 5885 073f 8c92 993d 49e7 d1bc
000000b0: 77cd 87bd 41d9 903e c684 753c 184c 8ebd
000000c0: 76fc c43e 7eb1 883c 23bc b7bd edd6 f63c
000000d0: 289c 3a3f 08ba b7bd 0f54 263e 71a1 b5bd
000000e0: 26ba 99bc e3c6 b0b9 379f bc3b f658 4c3b
000000f0: 9857 e395 003b 9b9c cc51 4c95 4b4c 56ba
00000100: 4103 c3b2 8589 aeb9 9001 0830 f878 4b38
00000110: 6466 9295 eccd e4aa 4b14 499d 0237 cc39
00000120: 0b0c fd3d a080 9fbe 1876 ad3d 1256 07bd
00000130: e629 1d3e e536 233e 4396 7ebe 74c3 51be
00000140: 0c70 2abc b995 05be 7a08 26be 59a1 713c
00000150: cad0 13b7 dc26 3e39 35a4 a6b3 1087 ce98
00000160: fbf9 a83a 10d7 0427 349c 1f3c 0647 cb30
00000170: 3970 2427 08f9 e7a9 6464 8e97 56f6 8fa8
00000180: cfb3 a73b 7e93 12bc 9b6c 1abb ed9c 25bc
00000190: d83e 923d 84c8 9a3c 9c62 4c3d 20bd 873b
000001a0: 3a44 bbbe 47ef 26bf 4cb2 073d fe67 47be
000001b0: f461 783d bd1d afbb 9912 1bbd 499e 593b
000001c0: 7f4b 24bf 0ab1 0bbf ee06 4cbd 8ca1 d3bd
000001d0: 6f8c 193d b256 3abe 2a1c 873b 0255 893d
000001e0: 7479 0080 c68d cf99 c973 5998 6079 e493
000001f0: f6b0 1abf 62f5 023e 2d62 adbd b5b2 273e
00000200: 9a2e dbbe e0f5 ba3e 2cda 6cbe be14 003d
00000210: 9ebe a43e c3f0 323f 4162 98bb 3ae0 903c
00000220: 8c12 693f 0200 26be 3481 fe3d 6d86 803d
00000230: 6782 213f d510 4b3e 045b 693c b5ff bf3d
00000240: afb5 7bbe ccf0 293f f3a5 c03d 5e1e 303e
00000250: dd4e 283f 68a9 f8be d461 c73d c3d5 0cbe
00000260: 745c 603d 8792 533d b886 9e3d fd37 55bd
00000270: 20bc 07be e462 e43e 7851 89bc 97f7 cc3d
00000280: 3cc6 2a3f 12a9 723c a7e8 bb3b 07a1 e43c
00000290: 92fb 44bd ba2c 253d d2c8 3b3c 5e97 cf3b
000002a0: caef 3c3c 6397 09bc 83c2 4f3c ea3f 8bbc
000002b0: 3dea 833b 3b04 d5bb 7c1b 973b 12d9 65bc
000002c0: 3cb0 0d18 6a9f a826 3eed 51b0 3a24 4baa
000002d0: 9e8e 0239 3466 1dbb 5ce3 c538 5148 39bb
000002e0: 2862 743e 7430 153f 1a70 353d d132 683d
000002f0: dc27 7bbe 1cb4 f53e 6253 cf3c d649 123d
00000300: 7633 df3e bc3b 173e 3f8a 433e 65f2 dd3d
00000310: 17e4 74be 7559 3abf 0bca 8fbb fdfc fcbc
00000320: 6451 17b8 0130 253b 357d 6030 567c ea39
00000330: 1a2f 1ebf 1348 e13e bd03 1cbe 348d 603d
00000340: 05a4 c43b 524e a637 315e 84b9 15e6 853a
00000350: 2cee be31 1090 8d1c 10f2 8e2d f413 4a2c
00000360: ae18 333e 8417 39bf 5764 96bc 73f9 80bd
00000370: 8d6e 413d 33be a23c 7917 863d 999d 38bd
00000380: 016c 973e 52d8 05bf bfd3 d5bd c98c 723b
00000390: 9e49 20ba f0c2 7d98 2775 733b cc1c 2c34
000003a0: 6acc 0d2b 04b0 742d d0c6 d897 48da 2a37
000003b0: e4d6 03bf 0f06 17bf 6fc0 74be 30de b6bd
000003c0: 4a28 17be cab3 1fbf 2daa 02bd efe9 133d
000003d0: ce1d 123f 8359 c13e 1ea7 d43c c105 dc3d
000003e0: a27e f9be 0816 5c3d ea71 61bd 7eab 693d
000003f0: b9e3 28bf 9353 da3e 307d e6bc d4d1 2d3e
0.31428033 -0.5932874 0.024481706 -0.013911537 0.04806924 0.7262391 -0.011922255 0.104656465
-0.5607316 -0.51555413 -0.02641816 -0.06936926 3.973496e-19 2.6196835e-07 2.542805e-21 -3.506707e-06
0.00068565196 0.0018935292 0.00044335506 1.4914328e-13 0.40690592 -0.42312768 0.1177092 0.09613859
0.06134234 0.47403976 0.19215189 0.032341015 -2.0105235e-06 -0.00037623744 -4.323058e-05 0.0061955377
0.43678403 0.12046178 -0.14128879 -0.010799708 -0.0005870644 4.0653936e-07 -0.00044168957 3.2869227e-06
-0.21828985 0.5293784 0.07498655 -0.02562298 -0.06630986 0.28290752 0.014985269 -0.069481075
0.38473862 0.016686197 -0.08971431 0.030131781 0.72894526 -0.089710295 0.16243003 -0.08868683
-0.01876552 -0.00033717518 0.0057562846 0.0031180955 -9.182277e-26 -1.0272291e-21 -4.1261998e-26 -0.00081748207
-2.2702467e-08 -0.00033290326 4.947873e-10 4.8511632e-05 -5.9130474e-26 -4.0643823e-13 -2.661262e-21 0.00038950896
0.12355813 -0.3115282 0.0846979 -0.033041067 0.15348014 0.1593891 -0.24862008 -0.20484716
-0.010402691 -0.13045396 -0.16214171 0.014747941 -8.810495e-06 0.00018134288 -7.7598465e-08 -5.338613e-24
0.0012891883 1.8435266e-15 0.009741832 1.479038e-09 2.2820408e-15 -1.0301661e-13 -9.201877e-25 -1.598302e-14
0.0051178704 -0.008946298 -0.002356327 -0.010108215 0.07140893 0.018894441 0.04989873 0.0041424185
-0.3657549 -0.6520886 0.03312902 -0.19473264 0.06064029 -0.0053441213 -0.037859533 0.0033205918
-0.641777 -0.54567015 -0.049811296 -0.10333547 0.037487444 -0.18197134 0.0041232305 0.06705667
-4.3569e-41 -2.146056e-23 -2.810505e-24 -5.7674977e-27 -0.6042627 0.12788919 -0.08465991 0.16376765
-0.42808992 0.36515713 -0.23130101 0.03126978 0.3217668 0.69898623 -0.0046503847 0.017685045
0.91043925 -0.1621094 0.12426987 0.0627564 0.63089603 0.1983064 0.014242891 0.09374944
-0.24581026 0.6638305 0.09406652 0.17199084 0.65745336 -0.48566747 0.09735456 -0.13753419
0.05477567 0.05165341 0.07740539 -0.052055348 -0.13255358 0.44606698 -0.01676248 0.100081615
0.6670873 0.014810817 0.0057345214 0.027908815 -0.04809148 0.040325858 0.0114614535 0.006335183
0.01153178 -0.00839791 0.012680653 -0.01699825 0.004025726 -0.0065007485 0.0046114307 -0.014028804
1.8312798e-24 1.1700551e-15 -7.63709e-10 -1.804259e-13 0.00012450895 -0.0024017217 9.436041e-05 -0.0028271864
0.23865569 0.5827706 0.04429636 0.056689087 -0.24526924 0.47988975 0.025308315 0.035714947
0.4359395 0.1476888 0.19095705 0.10837249 -0.23915134 -0.7279275 -0.004388099 -0.030882353
-3.6077006e-05 0.0025205615 8.1668655e-10 0.00044724596 -0.6179062 0.440003 -0.15235801 0.05482216
0.006000998 1.9825213e-05 -0.0002524718 0.0010215665 5.556805e-09 9.367837e-22 1.6251028e-11 2.8717003e-12
0.17489883 -0.72301507 -0.018358393 -0.06297579 0.04722457 0.019866085 0.06547446 -0.04507217
0.29574588 -0.52283204 -0.10440778 0.0037010184 -0.00061144854 -3.2797902e-24 0.0037148686 1.6029225e-07
5.0376944e-13 1.39088775e-11 -1.400886e-24 1.0183612e-05 -0.5149977 -0.5899362 -0.23901533 -0.08929098
-0.14761463 -0.6238371 -0.031900574 0.03611177 0.5707673 0.37763605 0.025958594 0.10743285
-0.48729426 0.053731948 -0.055040278 0.057048313 -0.6597248 0.42641887 -0.028135866 0.16974574

embedding_w.bias f4 [64]
00000000: ed5d 1f3e 5190 b7bc cac4 043d fcb9 24b7
00000010: 847c 16bc fab4 693d ce88 323d c1d5 c1bb
00000020: 55c9 a53e 338e 17bc 85ed 9b3c 781c e83c
00000030: ccb6 7b3e 6bde 873e 32f4 bfbb 502a d9bb
00000040: 2ef0 c8bb beff 2cbb ce14 8d3e b639 803c
00000050: 5070 243e 3ee0 3bbb 1974 99bc 24bc 30b6
00000060: e15a d2bb 7153 fbbb 0770 203c 0298 36bc
00000070: 231b 993c 17d3 9c3e aa55 8eab 922b a73d
00000080: 3541 9c3e 2d26 8e3d 29f2 943e 8f81 8f3e
00000090: 994b 82bd 2d1a 8bbb 593f 213c fbec 9e3e
000000a0: e5db db3d b80e b7bc d71c 31bc 5350 98bc
000000b0: 5a3a 0bb8 2f54 41bc 9d5c 463d b999 12bd
000000c0: 61ad 673e 2ddf a23d 27b4 37bb aa33 26bd
000000d0: 092f 73bb 4b98 f6b9 18ca a53d 78ff 1a3c
000000e0: 8bb4 c23d f366 63bc fdbb f9b9 db9f a43e
000000f0: 9e22 9bbd 14d3 53bd bae4 883e 47d6 c6bd
0.15563174 -0.022407683 0.032414235 -9.818465e-06 -0.00918496 0.05705736 0.0435875 -0.005915374
0.32380167 -0.0092502115 0.019034157 0.028333887 0.2458145 0.2653688 -0.005857968 -0.0066273585
-0.0061321473 -0.0026397551 0.27554935 0.015652519 0.16058469 -0.0028667594 -0.018732117 -2.6335556e-06
-0.006419525 -0.007669859 0.009792334 -0.01114464 0.018689698 0.306298 -1.0113483e-12 0.08162607
0.305185 0.06940875 0.29091004 0.28028533 -0.06362075 -0.0042450638 0.009841763 0.31040177
0.10735301 -0.022345886 -0.010810099 -0.01859299 -3.3194527e-05 -0.011799856 0.048428167 -0.035791133
0.22624733 0.07952724 -0.0028030963 -0.040576614 -0.0037106893 -0.00047034243 0.08095187 0.009460323
0.09507092 -0.0138795255 -0.00047633043 0.3215321 -0.07574962 -0.05171497 0.26737005 -0.09708839

embedding_t_w.weight f4 [1, 8]
00000000: c76b c93e dc4a 16be b8ae 093e fcb3 0fbe
00000010: 1118 0c3d 1d34 0d3e 3de5 e1bd d263 a2bd
0.3934004 -0.14676994 0.13445556 -0.14033502 0.03420264 0.13789411 -0.11030052 -0.079291955

lstm.weight_ih f4 [512, 65]
00000000: b862 9ebd e8b5 093e 4217 1abe 7434 613a
00000010: ebc2 dd1c d4d7 c9bd 48be 913d 664c 9d9a
00000020: d64f a6bc 61e5 65ba 6e92 a23d 79fb 323d
00000030: 74c0 abbc 8279 dcbc 131b 81b9 06c3 a610
00000040: 7ca4 9a9b 109a c497 7129 3cbd 446e f4bc
00000050: 9b3c 7ebd 2e8e fc23 dac2 1322 506c 0d36
00000060: 72cb 02b2 69b3 233b 7a7c 25be 580f 713a
00000070: 06c1 42be c006 dbbd 605c ebb9 0ad6 833d
00000080: fd1b a03c e079 a63c 6673 bfbd 4625 983c
00000090: dcf5 003e 9713 f2bd 97fc af3b 58fc 643d
000000a0: 52ef 7bbd da8d 17b6 2924 33bc b400 adb2
000000b0: f24c 09b3 07cb b68d ef28 a03d 77a3 693d
000000c0: 5098 32bd 3e3e 08be 4093 b598 c7fd ae3d
000000d0: fc91 1a1e e0bc 7d2f 52a6 e7bd f41d 4d3b
000000e0: bd1a bcbd 4391 56b1 9f3c 1617 15cb 8cbd
000000f0: a468 f9bd 8268 9fbb c0e1 3b3c 72c1 7e3d
00000100: 36fd 0abd c4a4 40bc 8cfc 9abd a0ae d4bc
00000110: 801d 1eb6 1eb3 52b6 785a 2ab9 dab9 24bd
00000120: 1ea6 95b5 91ae dabd b282 473c 5045 69bd
00000130: 30df edbc 96c7 3ebd d7e1 efbc 30ea a81b
00000140: 32fe 8633 c6dd 5fb1 309f 9bb7 9c3c 35bd
00000150: 6d66 8fbc 71fe 2dbd e640 3fb6 734b cdb5
00000160: 7880 b9b7 0ae9 05a5 79a5 0d3a 2861 90bc
00000170: 3ec2 b639 c525 edbc 8443 b8bd 4e5e 1d36
00000180: 84bd 95bd 24f3 f3bd 9dca 91bd 5023 66bd
00000190: b446 9bbd 672e 64bd 3fc5 62ba 8585 d0ba
000001a0: 9a71 08be 06c2 c7bc 5a29 12b2 6691 26b6
000001b0: f879 bab4 34a9 c836 98d9 0138 9fbf 95bd
000001c0: fb2b 73bd 9f33 79bd 49cc d3bc c475 46bc
000001d0: bacc 83bd 8bf1 9916 14f4 0bb8 9cc9 9dbc
000001e0: f0a0 08bb e8bb 5fbc 82ae a22b c03f 6bbb
000001f0: d3bc 5dbd 2e51 84bc 980e 82bd fe3b bbbd
00000200: 0007 61bd e086 bc39 12c8 0ebd a286 7cbd
00000210: 4316 56bd 3648 12b4 20d8 c718 0233 adbc
00000220: 79e9 9dbc 7822 2137 ffc5 e9bd 484c 923a
00000230: b68e 42bd 2ac1 c8bc f185 3dbd f651 21bd
00000240: f2a6 b52a 88f5 02b8 0c14 fdb6 9029 3cb3
00000250: 7f8e 72bd da1d 53bc 78da 08bd 0f69 0080
00000260: 1060 8db6 a7e3 8e35 86ca 37a3 c628 163a
00000270: 7a69 5abd f0cb a6b5 0005 72bd d044 c0bd
00000280: 1f05 3eb1 3563 63bd 8ad2 dabd 2454 40bd
00000290: b713 50bd 3572 92bd 3c5e 42bd 04e6 b6bc
000002a0: 987d d939 bc0a 8dbd 875b ddbc d462 62b3
000002b0: 203f ad2f bac6 e137 9ee3 2cb2 f744 1525
000002c0: 699a 3cbd ae73 4bbd da4e 15bd 7384 4fbd
000002d0: 499b 4fbc 8654 65bd e60a 678f f6b2 f2b5
000002e0: 6d0a 4cbd 90dd 003b cdca 0dbd e25d cf2f
000002f0: a8b1 55b8 3a3a b5bd 9cb6 2bbd c784 3dbd
00000300: 0b2a c5bd b611 46bd 6a9d bdbb dd79 2dbd
00000310: 6148 28bd 9467 86bd 73f7 fbb3 ae93 4e1b
00000320: 274a c9bc 5209 dfba c5c8 8124 bacd 9bbd
00000330: fdc1 fdb9 7cc2 c8bc 8a75 823b c716 debc
00000340: b4ce 18bd 42b3 1f2e 70f3 3cb5 edb1 852b
00000350: f8ba 492f 5a3e 8dbd 3126 553c 08c6 eebc
00000360: ee5d 87bc c650 7038 54d0 d63a 3e76 1ea1
00000370: 2e05 aa3a 052d 58bd b155 0538 1f4d 97bd
00000380: 492d c1bd 38b8 cc2b f348 8bbd 558a abbd
00000390: af76 d4bc 4d15 76bd bb01 51bd e00b a4bc
000003a0: 7486 02bd 10dc c23b 6a67 d3bd 3ae5 77bb
000003b0: cc0f 27b3 ce1f d2ba d827 dc32 3133 443c
000003c0: ee7e c4a9 34fb e6bc eb25 e1bc 83b7 10bd
000003d0: f239 55bd aa64 a635 936a 20bd 2474 0917
000003e0: 18d6 13b4 cc1e 5abd 981f b6b9 43af 0ebd
000003f0: 4037 183b 8430 3735 22ec 04be d293 11bd
-0.07733673 0.13448298 -0.15047935 0.0008590885 1.4674938e-21 -0.09855619 0.071163714 -6.5057106e-23
-0.02030174 -0.0008769837 0.079380855 0.043696854 -0.020965792 -0.026913408 -0.0002462497 6.5775936e-29
-2.5583458e-22 -1.2705094e-24 -0.04593796 -0.029837735 -0.062069517 2.738211e-17 2.0025368e-18 2.1073683e-06
-7.613254e-09 0.0024978763 -0.16160765 0.0009195707 -0.19018945 -0.10694647 -0.00044891518 0.06437309
0.019544596 0.020321786 -0.093481824 0.01857246 0.12593788 -0.11820143 0.005370687 0.055904716
-0.06150753 -2.2583322e-06 -0.010933914 -2.014017e-08 -3.196778e-08 -1.1265493e-30 0.078203075 0.057040658
-0.043602288 -0.13304994 -4.6936088e-24 0.08544498 8.182881e-21 2.3077318e-10 -0.1131102 0.003129837
-0.091847874 -3.122367e-09 4.854413e-25 -0.06874672 -0.12178162 -0.004864753 0.011467397 0.062196203
-0.033932887 -0.011758033 -0.07567701 -0.025962174 -2.3561006e-06 -3.1396698e-06 -0.00016246166 -0.040216304
-1.1149712e-06 -0.10677827 0.012177156 -0.056950867 -0.029037088 -0.04657706 -0.029282494 2.7944609e-22
6.286099e-08 -3.2576835e-09 -1.8551567e-05 -0.044247255 -0.017504895 -0.042478982 -2.8498994e-06 -1.5295649e-06
-2.2113541e-05 -1.1614868e-16 0.00054033805 -0.017624453 0.00034858467 -0.028948674 -0.089972526 2.3449716e-06
-0.07311538 -0.1191161 -0.071187235 -0.05618602 -0.07581845 -0.055708315 -0.0008650608 -0.0015908933
-0.13324586 -0.02438451 -8.507721e-09 -2.482056e-06 -3.4733944e-07 5.9801623e-06 3.0958647e-05 -0.073119394
-0.059368115 -0.060840245 -0.025854247 -0.012113038 -0.06435533 2.4870918e-25 -3.3367498e-05 -0.019261174
-0.002084788 -0.01365564 1.1559228e-12 -0.0035896152 -0.054135155 -0.01615199 -0.0635044 -0.09142302
-0.054938316 0.00035958644 -0.03485877 -0.061651833 -0.052267324 -1.362358e-07 5.1658525e-24 -0.021142486
-0.019276368 9.604373e-06 -0.11414718 0.001116165 -0.04749938 -0.02450617 -0.046270315 -0.039384805
3.22679e-13 -3.1223084e-05 -7.5423213e-06 -4.3809962e-08 -0.059217926 -0.012885535 -0.033411473 -3.7688e-41
-4.2133106e-06 1.064608e-06 -9.963336e-18 0.00057281216 -0.053323247 -1.2427317e-06 -0.0590868 -0.09388125
-2.765155e-09 -0.055514533 -0.106846884 -0.046955243 -0.05080005 -0.071506895 -0.04745315 -0.022326477
0.0004148304 -0.06886813 -0.027021183 -5.270961e-08 3.151337e-10 2.691463e-05 -1.0063472e-08 1.2947056e-16
-0.046045695 -0.049670868 -0.03645215 -0.050663423 -0.0126713 -0.05598881 -1.1391278e-29 -1.808249e-06
-0.04981463 0.0019663312 -0.034617234 3.7719788e-10 -5.0948613e-05 -0.088489965 -0.041922197 -0.046269204
-0.0962716 -0.048356734 -0.0057865875 -0.042352546 -0.04108465 -0.06562725 -1.1733109e-07 1.7087638e-22
-0.024571491 -0.0017016327 5.628495e-17 -0.076075986 -0.00048400453 -0.0245068 0.003981297 -0.02711047
-0.037306502 3.6311627e-11 -7.0389706e-07 9.499603e-13 1.8347268e-10 -0.06896658 0.013009594 -0.029147163
-0.016524281 5.7295685e-05 0.0016388991 -5.3688974e-19 0.0012971514 -0.05277731 3.1789477e-05 -0.073877566
-0.094324656 1.4546203e-12 -0.06801023 -0.08375994 -0.025935499 -0.060078908 -0.05102704 -0.020025194
-0.031866506 0.0059466437 -0.10322459 -0.0037825839 -3.8897085e-08 -0.0016031207 2.562949e-08 0.011975096
-8.726167e-14 -0.028195955 -0.027483901 -0.03533126 -0.052057214 1.2397261e-06 -0.039164137 4.441368e-25
-1.3768329e-07 -0.053252026 -0.00034737284 -0.03483511 0.002322629 6.824341e-07 -0.12980703 -0.035541363

lstm.weight_hh f4 [512, 128]
00000000: 1d34 33bd 4a0b f73b c772 dcbb f151 2bbc
00000010: 4256 e5ba 3fec b2bd e471 5e3c 138b 1d3c
00000020: 860e c13c 8f41 b23c b305 88bc 2a5b 163c
00000030: 70c7 a73d d2d1 113d 80bc fa3c 0bae 5dbc
00000040: ec3a 75bd 3df6 88bc b0bf 2cba 2546 4b3d
00000050: 8cd4 94bc 0cd8 e43b dce5 013d 342f b0bb
00000060: 38b6 5f3c 822b 19bd 70df 5d3c ac89 1dbc
00000070: 88ba ddbc 0e88 8abc 0eef 18bc 43f0 e9bc
00000080: c059 c3ba ee47 d13b 482a abbd 3335 45bd
00000090: 76e4 f43b 7606 ce3c 31e7 b63d f589 c53b
000000a0: 7eb4 903c 2cf7 c73c f104 ffbd 4ede 533d
000000b0: dec4 25bc a118 993c b6c0 05bc a0a2 9cbb
000000c0: c74c 993d 34ca 32bc fecc 59bc 74b4 ce3c
000000d0: 4151 20bd cce4 16bc 4e86 0d3b 2833 833b
000000e0: 30e4 8dba a135 0f3d 883e 14bd 1953 4b3d
000000f0: b57c 3b3c 94a1 a1bc f564 e9bd d6e7 27bc
00000100: 9cd8 97bc 1b5b 06bc 8cf4 a4bc 9416 21bc
00000110: df83 283c a5cf 213b 3b87 283d c4df e53c
00000120: a627 d0bc 7ef6 f1ba a963 3b3b 74ba 45bb
00000130: b8f4 76ba b3b9 2abd 32c7 0b3e 2a0a 8a3b
00000140: bbf9 6f3d 3c7d abbb 88d9 cbbc d5cd d93c
00000150: eb74 893c ad33 d4bd 8a3b 3e3c 5cd0 9f3a
00000160: 987b a03c f1b0 39bd 4cbd f63b f1b4 67bd
00000170: 7c21 7ebc b7ef 12bb f5ed 213c 68cb 033c
00000180: 7e42 a8ba b20c bbbb a7c4 cf3c 24c7 db3b
00000190: ece2 0a3b 90a1 473c 34a4 0abd 9fac 4cbc
000001a0: ffde 023d 33a0 b8bb a405 6fbc 29e6 703d
000001b0: 7ce4 15bc fa95 173c 0553 713c cfd6 69bc
000001c0: 6844 f93d 6ea1 b6bb 92f9 acbc f09f ca3c
000001d0: 58a8 82bc f049 9dbd 9ea6 71bc 7b07 aabc
000001e0: b876 7d3c 8c1a 603c 68c6 a7bc 53b8 4dbc
000001f0: ebdc 953c e32f 29bc 17b8 47bc fa11 65bc
00000200: 4c77 e1bb 86c1 e23b 3f67 73b9 95f0 b2bb
00000210: 947f d2bb b205 cbbd 9681 5dbc bcef 0c3c
00000220: 68c3 0dba 1aa4 323b ff4f 5cbc 0634 e3ba
00000230: 74bb 7e3d 1cba a63a 6998 0d3c e631 cfbb
00000240: e6ba 3fbd 0e29 ec3a 3990 013b 923d a53b
00000250: 8f79 113b fe99 08bc 2011 333c ef2e 0ebc
00000260: a6a3 12bc 3163 e9bb c872 e63b e0dd 2cbb
00000270: 732a 2fbc 971c 40bb 0f63 403c 60ee fdba
00000280: c043 7ab9 e914 b53b 73de 9cbd 06dc 21bc
00000290: 3bda 8d3c d40f f43b ff13 093e e233 9f3b
000002a0: 4a86 273c cf00 8a3b c365 06be 7a9d 7aba
000002b0: 7e8b b3bb 28aa 433c 245b 703b 6322 393b
000002c0: 2658 553d ea27 0fbc a7bd 36ba 7bcd 1bbb
000002d0: e0c8 83bc 1fdc d8bb cce9 ae3b 7c2b 643b
000002e0: 92bd 86ba 2040 fc3c 0bc2 15bc 79f1 493c
000002f0: a7ae 953a e499 48bc 486a d2bc 90ea 4fbb
00000300: 6913 a83a 6cd0 b138 41ec b2bb 6a69 d2bb
00000310: 6105 7d3b 06ac d43b 5625 073c acd5 fd3c
00000320: 5446 17bc 3e28 6d3b fbb7 13bb 3747 9bba
00000330: 0616 12bc 7f42 03bd d3f9 c93d d703 98bc
00000340: c8cb b63c f44c 19bb d5aa e5ba 5cad e63b
00000350: 70e3 053b 58a6 eebd 675a 163c 939f b4bb
00000360: e613 ed3b 571a d5bc a230 e03a 487f 78bc
00000370: 0e64 33bc d4db 67ba e730 923a 71a2 db3b
00000380: b225 b1bb 7898 b9b8 63f1 41bb 8177 6d3c
00000390: 5f31 e43b 4b77 aa3b 770b 2dbb 5b48 653c
000003a0: 7e30 113b 1565 0cbc 6426 ecbb e506 df3d
000003b0: 3e4c 183c 4993 b63b 50ec ba3b bfdc c0bb
000003c0: 3b66 333d db24 a83b 4a9f 903b 2656 0cbb
000003d0: a4fd f4bb a133 f7bc 3ac4 08ba 3118 d1bb
000003e0: e4df 2a3c 7880 c03b 7658 443c ee8d 9bbb
000003f0: 19d3 893c e84e c938 1e57 abbb 697d 2fbc
-0.04375087 0.0075391876 -0.0067275497 -0.010456548 -0.001749702 -0.087364666 0.013576958 0.009615677
0.023566496 0.021759776 -0.01660428 0.009177009 0.081923366 0.03560049 0.030607462 -0.013530265
-0.059870645 -0.016718978 -0.0006589843 0.049627442 -0.018167756 0.0069837626 0.03171335 -0.005376721
0.013654284 -0.037395008 0.013542041 -0.009615343 -0.027066484 -0.016910579 -0.009334339 -0.028556949
-0.0014904067 0.0063867485 -0.08357674 -0.048146438 0.0074735237 0.025149565 0.08930815 0.0060284087
0.01766419 0.024409853 -0.124521144 0.05172568 -0.010117738 0.018688502 -0.008163622 -0.0047801286
0.07485347 -0.010912467 -0.013293503 0.025232531 -0.03913999 -0.009209823 0.0021594944 0.004003901
-0.0010825451 0.034963254 -0.036192447 0.049639795 0.011443307 -0.019730367 -0.11396209 -0.010248145
-0.018535905 -0.008200432 -0.02013614 -0.009832043 0.010285347 0.0024690416 0.04114459 0.028060801
-0.02540953 -0.0018460301 0.0028593338 -0.003017095 -0.0009420621 -0.041681003 0.13650206 0.0042126374
0.05858777 -0.005233435 -0.024884 0.026587406 0.016779384 -0.10361419 0.011610875 0.0012192833
0.019590184 -0.04533476 0.00752989 -0.056569044 -0.015510913 -0.0022420713 0.0098833935 0.008044101
-0.0012837199 -0.0057083005 0.025362326 0.006707089 0.0021192385 0.012184516 -0.033848003 -0.012492328
0.031950947 -0.0056343316 -0.014588747 0.058813248 -0.009148713 0.009252066 0.014729266 -0.014272406
0.121712506 -0.005573443 -0.021115098 0.024734467 -0.015949413 -0.07680118 -0.014749197 -0.02075552
0.015470199 0.013678204 -0.02048035 -0.012556153 0.018293818 -0.0103263585 -0.0121898865 -0.013981337
-0.0068806764 0.0069200424 -0.00023212748 -0.0054608085 -0.0064239 -0.09913196 -0.013519665 0.008602079
-0.0005407841 0.0027258457 -0.013446807 -0.001733423 0.062190488 0.001272026 0.008642294 -0.006323087
-0.0468091 0.0018017606 0.0019769801 0.00504274 0.0022197699 -0.008337496 0.010929376 -0.008678182
-0.00895015 -0.0071224202 0.007032726 -0.0026377365 -0.010691273 -0.0029313916 0.011742367 -0.001937341
-0.00023867097 0.0055261743 -0.07659616 -0.009879118 0.017315974 0.007448176 0.13386534 0.00485848
0.010224888 0.004211522 -0.13124757 -0.0009560209 -0.0054792752 0.011942424 0.0036675418 0.0028249256
0.052086018 -0.008737544 -0.00069710094 -0.00237736 -0.016086996 -0.0066180374 0.0053379294 0.0034815958
-0.0010279885 0.030792296 -0.009140502 0.012325638 0.0011419848 -0.012243722 -0.025685444 -0.0031725504
0.0012823167 8.478839e-05 -0.0054602926 -0.0064212577 0.0038607942 0.0064902334 0.008248648 0.030985676
-0.009233076 0.0036187316 -0.002254008 -0.0011846785 -0.008916384 -0.032045837 0.09862103 -0.018556518
0.022313967 -0.0023391815 -0.0017522225 0.007039709 0.0020429753 -0.11652821 0.009176827 -0.005512187
0.007235038 -0.026013536 0.0017104337 -0.015167065 -0.010949148 -0.00088447076 0.001115349 0.006702714
-0.005406105 -8.849887e-05 -0.002959334 0.014493824 0.0069638933 0.005202209 -0.0026404539 0.013994302
0.0022154148 -0.008569022 -0.007206725 0.10889987 0.009295521 0.005571757 0.00570444 -0.00588569
0.043798666 0.0051313466 0.00441352 -0.0021413653 -0.0074765254 -0.030175986 -0.00052172283 -0.0063810577
0.010429356 0.0058746897 0.011983981 -0.004747144 0.016824292 9.599124e-05 -0.005228891 -0.010711052

lstm.bias_ih f4 [512]
00000000: 734a 4bbd 7b08 47be e203 b6bd f753 32be
00000010: ee92 b3bd 9589 db3d 32e1 3cbe b0fb 16be
00000020: 3231 30be b798 97bd 5b41 0abe ec5d 4cbd
00000030: 784a ed3c 6a94 b2bd 1e2f e8bc d4f6 c7bd
00000040: 792a 1d3d df4e 48be f1b9 cfbd 9e73 fe3c
00000050: 90f4 47bb f459 84bd 3269 09be 003b b4bd
00000060: ea95 14be 4118 2fbc cb39 49be 0880 21be
00000070: 1158 b5bd 7b60 c4bd 7030 9cbd 4503 fcbd
00000080: 8068 0ebe d496 32be 27ec 29bd 47f5 ccbc
00000090: 720b 4bbe f646 0abe 0cb7 683e d41f 29be
000000a0: 3ded 37be 4eca 19be ee3e 863e 2c8e a1bd
000000b0: d28a 95bd ff74 22be f182 b9bd 47be 38bc
000000c0: 8b0c 693d cea5 23be 32c3 f1bd c089 d6bd
000000d0: cdd3 873c f6ba 6abe b73e dabd d9ac c8bd
000000e0: bc02 0ebe 4ebd 5a3d 069d b0bd e324 d8bd
000000f0: b8f8 01be a909 6cbd f1d1 09bd 962a 0bbe
00000100: 2e48 b6bd 369f 06be 138d 43be 15ad 0abe
00000110: 84b9 1ebe 377d 08be a435 92bd 178e 31bd
00000120: 9448 18be 2702 d3bd 0f0b 1abe 7618 47be
00000130: f420 31bd d5a3 82bc 3b70 183e 475a 2abe
00000140: bf2a 1fbc 0821 1ebd 4b88 00be 3a89 31be
00000150: f704 2fbe d6a8 bc3d f7b4 03be c427 aabd
00000160: 5e11 7dbc 37f8 013d 018f 05be 4ab9 93bd
00000170: e572 56bd fbd0 fbbd 0a81 43be da0f 43be
00000180: dfa5 1ebe 74d9 bb3c c86c 39be 7f08 09bd
00000190: ba2f 11be 3b7a 2dbe bb96 b6bd 4ef0 07be
000001a0: 7127 b4bd 253d b5bd 6f1d 39be 9ed4 eb3d
000001b0: 0c12 f0bd 624e aebd 901f 05be e16d b0bd
000001c0: ac57 de3c 843e 0cbe 3365 86bd 85e5 31be
000001d0: 2fd8 15bc 23e4 74bd 0669 4fbe 0fdd afbd
000001e0: ee7d 0ebe 2bf3 1fbe fce9 debd dc0a 15bc
000001f0: f634 debb 8019 a9bd ad72 11be afbb 30be
00000200: 9611 05be fc34 03be 2dd1 80bd e6f8 ecbd
00000210: 19ec 24be 842d 833d adfc dbbd 39b5 f5bd
00000220: 2fbd d5bd f321 3fbd a08a eabd f796 d2bd
00000230: 8366 c5bd 5941 8abd 383a 32bd d3c2 3cbd
00000240: f354 7abd 2ad4 d4bd cece 04be 8b5f 7a3c
00000250: b87a 20be b3ad d2bd b8ab a0bd 9540 bdbd
00000260: 3583 d4bd d388 d9bd fa19 0fbe 44b0 c5bd
00000270: 1be5 dfbd d0ed bfbd 5ec6 01be c17f b3bd
00000280: 0829 90bd 0669 f1bd a9ff d63b 16a8 53bd
00000290: 63ab e3bd 2c4c 12be c632 393e ae8e abbd
000002a0: 6465 e5bd 7dd6 0ebe 6e40 83bc 1b6d 9abd
000002b0: be50 cabd 06ae dcbd de88 bfbd c9c6 1ebe
000002c0: 0a8a fabd d1b3 bfbd 382e 16be ec54 f8bd
000002d0: 6aea f5bd b2b8 1ebe 74ec c6bd d7b1 b6bd
000002e0: bdf9 b9bd 0d8a 7abd 057e 5bbd a39f 00be
000002f0: ed1d c8bd f277 b4bd 3a1a 9b3c 436f a2bd
00000300: 9e0d ddbd 5dc4 a4bd 59e3 0bbe 69f5 c1bd
00000310: 3b24 04be 8050 febd c905 3ebe df68 23be
00000320: e438 c0bd d247 25be 885f adbd 755d 04be
00000330: 0eb0 5fbd f48c 1dbe 80e8 94bb 2d6d bfbd
00000340: 6e1d 2bbe 5fd0 c4bd 38c0 87bd d02d e0bd
00000350: 2c9e cbbd 9001 f63d 4e89 aabd 4bed e9bd
00000360: aca3 c5bd 39cd 80bd 20a9 aebd dbfe 9bbd
00000370: 23b6 83bd a508 99bd bd28 c4bd 7556 e6bd
00000380: 3a81 bfbd a76c 29be 2842 d4bd a654 7cbd
00000390: 9599 fcbd b025 dcbd ff92 73bd 8b9f babd
000003a0: 1e97 05be 8c89 dabd 3532 98bd d7da 0c3d
000003b0: 35c7 60bd 6029 8ebd 6589 c4bd e1b0 b9bd
000003c0: bc9d 7abc 873e c1bd 1f6d 0abe 558e f4bd
000003d0: 02c7 24be 15ba 1dbe 0a50 d5bd 95c2 29be
000003e0: e804 98bd 9538 05be 5861 84bd bb51 19be
000003f0: 5292 8ebd 8804 fbbd e89b eabd 54ec d0bd
-0.049631547 -0.19436829 -0.08887459 -0.17414843 -0.08768259 0.10719601 -0.1844528 -0.14744449
-0.17206267 -0.07402175 -0.13501494 -0.04989426 0.028966174 -0.08719714 -0.02834278 -0.097638756
0.038370583 -0.19561337 -0.101428874 0.03106099 -0.003051076 -0.0646247 -0.13419035 -0.08800316
-0.14510313 -0.010686935 -0.19650953 -0.15771496 -0.08854688 -0.09588715 -0.07626426 -0.12305311
-0.13907051 -0.17440349 -0.041484978 -0.025019301 -0.19828585 -0.13503632 0.22726077 -0.16516048
-0.17961593 -0.1501858 0.26219887 -0.07888445 -0.073018685 -0.15864943 -0.09058178 -0.011275834
0.056896728 -0.15981218 -0.11804809 -0.104754925 0.016580487 -0.22922882 -0.10656493 -0.09798593
-0.1386823 0.05340319 -0.086237 -0.105539106 -0.12692535 -0.0576264 -0.03364748 -0.13590464
-0.08900486 -0.13146672 -0.19096784 -0.13542588 -0.15500456 -0.13329016 -0.071391374 -0.043348398
-0.14871436 -0.10303145 -0.15043281 -0.19442925 -0.043244317 -0.015947262 0.14886563 -0.16636
-0.009714781 -0.03860572 -0.12551992 -0.17337504 -0.17091738 0.092118904 -0.12862001 -0.08308366
-0.015446035 0.031730857 -0.13042833 -0.072130755 -0.052355666 -0.12295719 -0.19092193 -0.19049016
-0.15492962 0.022930838 -0.18107903 -0.033455368 -0.14178362 -0.16941158 -0.08915468 -0.13275263
-0.08796585 -0.08849553 -0.18077634 0.11515163 -0.11722192 -0.08511044 -0.13000321 -0.08614708
0.027141415 -0.13695723 -0.06562271 -0.17372711 -0.0091457805 -0.05978788 -0.20254907 -0.085870855
-0.13915226 -0.15620105 -0.10884473 -0.009096827 -0.006781216 -0.08256817 -0.14203902 -0.17259096
-0.1299499 -0.1281318 -0.06289897 -0.11570911 -0.16105689 0.06405166 -0.107415535 -0.11997456
-0.104364745 -0.046663236 -0.11452222 -0.102827005 -0.09638693 -0.06750745 -0.043512553 -0.046084236
-0.06111617 -0.103920296 -0.12969515 0.015281568 -0.15671813 -0.10287037 -0.07845253 -0.09240834
-0.10376588 -0.106218 -0.13974753 -0.096527606 -0.1093237 -0.09371531 -0.12673327 -0.087646015
-0.07039076 -0.1178761 0.006561239 -0.05167397 -0.11116674 -0.1428687 0.18085775 -0.08376823
-0.11200979 -0.13949008 -0.016021933 -0.075403415 -0.098786816 -0.1077538 -0.09352277 -0.15505518
-0.1223336 -0.09360469 -0.14666069 -0.121255726 -0.120076016 -0.15500143 -0.097130686 -0.08920639
-0.09080837 -0.06116681 -0.05358698 -0.12560897 -0.09771333 -0.0881194 0.018933404 -0.07931378
-0.10793613 -0.08045266 -0.13660945 -0.094706364 -0.12904446 -0.12417698 -0.18556894 -0.15957974
-0.09385851 -0.16140679 -0.08465487 -0.12926276 -0.05461126 -0.153858 -0.0045443177 -0.093469955
-0.16710445 -0.09610056 -0.0662846 -0.10946238 -0.09942278 0.12012017 -0.0832697 -0.11422213
-0.096503586 -0.06289143 -0.08528352 -0.07616969 -0.06431224 -0.07472352 -0.09578083 -0.11246959
-0.0935082 -0.16545354 -0.10364181 -0.061604165 -0.12333981 -0.10749376 -0.05946636 -0.09112462
-0.13045928 -0.10670766 -0.07431451 0.03438839 -0.05487748 -0.069414854 -0.095965184 -0.0906694
-0.015296396 -0.09435754 -0.13518189 -0.1194121 -0.1609154 -0.15403016 -0.10415657 -0.16578133
-0.07422811 -0.13009866 -0.06463879 -0.14972584 -0.06961502 -0.12256724 -0.11455518 -0.10201326

lstm.bias_hh f4 [512]
00000000: de00 9ebd 5926 1cbe fc6d ccbd f38b 3cbe
00000010: f8a7 cabd 28e3 343d 8393 11be 9218 2fbe
00000020: 4727 f6bd 6a6c 23bd a03d 27be fcdf 81bc
00000030: f0e6 a73d 206e 553c 55e5 3d3d 54c1 57bd
00000040: e130 3e3d b620 0abe e938 07be 86da 263d
00000050: 43f6 8fbc 707c 3bbb 123e 0dbe 09dd 88bd
00000060: 9cb8 f4bd 90a4 f0bc 0104 4bbe 06a1 f5bd
00000070: 6ede d6bd 727f 1abe e888 ebbc bdb1 29be
00000080: a2e7 05bd 0d48 c6bd 2f76 2bbd b280 e8bd
00000090: c52b 35be 4ad1 a2bd a5ed 823e a2df 39be
000000a0: 08aa 49be 3b6f 09be 73b9 7a3e ea92 53bd
000000b0: c34e b9bd dc08 39be 21b4 aabd 7491 d1bd
000000c0: f398 7bbc d0b5 29be 9fa5 31be 5607 1ebe
000000d0: 2f88 5dbc e07b 55be 7c5c 41be e0dd 83bd
000000e0: d8c1 d2bd dcf6 9b3d 0e03 acbd 1b5b d8bd
000000f0: c7f7 23be 906f 523c ad9c 513d 35d6 f1bd
00000100: 3f26 81bc 8c4b 1ebe 6cf6 09be 2860 00be
00000110: 1bd6 babd 3e13 1fbe 0b3e e7bd bc35 39bd
00000120: 1414 b5bd 1252 3abe 9793 12be 4651 5ebe
00000130: 99d4 fbbd ca93 0bbb 561c 153e 95d1 15be
00000140: d564 3fbd 4784 19be 9231 30be 1307 1ebe
00000150: 5124 4abe 20d8 183e 79a0 23be 7a12 e7bd
00000160: 4189 38bd c02a 30b9 56ca 28be 43c1 eabc
00000170: 1bff b3bd b1da 9dbd 1c04 48be 52a7 2dbe
00000180: 9724 1cbe 9689 18bd f896 21be e4e8 b8bd
00000190: 15b8 29be 5134 1fbe dae0 86bd 493f d2bd
000001a0: 8221 30bd f19d 6ebd e46a 1abe 1e9e 673e
000001b0: 4f4f 08be ef35 10be a175 dcbd f8ef 01be
000001c0: c33c d4bd 4c03 2abe 79e8 7dbd 5185 e9bd
000001d0: 706b 183c 77cf a33d 6034 44be efca 5abe
000001e0: 5310 2cbe 283b 3ebe 886e 2ebe 4e7a e8bd
000001f0: 8e21 47bc 97e8 59bd 7fa7 cdbd e7fc 3abe
00000200: 1fa0 4bbd 7a04 e3bd 5567 9abd 3f79 e8bd
00000210: d546 0fbe b456 213d c3b4 d1bd 18bb 03be
00000220: 62f3 9cbd 29a8 17be cc40 b5bd 6ffd f3bd
00000230: 6c48 5dbb 5b8c fcbd 8fcd 57bd 4ad9 e1bd
00000240: c36d 983c 9e49 f5bd 41f8 98bd 606c a1bd
00000250: 78f6 17be 1e43 fabd 88f3 88bd d8a6 f7bd
00000260: cf93 b4bd 5c2e 9cbd 6512 f0bd fdf2 c7bd
00000270: 2ca9 d7bd 4732 6ebd 916c 99bd 16dc 9fbd
00000280: 1d96 2cbd 0aa4 d3bd 0bd4 4ebc 2bf3 e8bd
00000290: 06f4 bbbd 40ce 62bd 6bfc 0d3e 9ed1 bcbd
000002a0: 0878 e9bd 5c3c edbd bfa4 eabc 81bb 9dbc
000002b0: dc4f e5bd 407c d9bd cfb5 c9bd 3845 24be
000002c0: aedb b6bc 7bd1 d8bd d212 fabd 420a 07be
000002d0: 1e28 59bb d2f3 0cbe 386b b3bd d2f1 aabd
000002e0: 3558 babd 2e50 e6bc 696c 98bd 8bd4 ecbd
000002f0: 5d1a bfbd 5888 b0bd e914 94bd 512a a7bd
00000300: 1b7e adbd 7723 a1bd dee1 23be d1d8 f2bd
00000310: 0584 08be 0dd8 f9bd bc41 a3bd 6b1f 8cbd
00000320: ec2e 8fbd 639e e1bd 43db a8bd 9e84 15be
00000330: 7f65 ddbd 9613 95bd 8679 123c 5f5b cfbd
00000340: 860b dfbd 16f2 a2bd 7b7c 84bd e218 c1bd
00000350: 3174 c5bd d36f 0c3d ab7c bdbd a4e9 b9bd
00000360: fa74 10bc 047f 62bd aacd 1dbe 63f7 05be
00000370: 6527 9fbc cf9e 89bd 1f6a babd 8e5f bbbd
00000380: 433f a6bd a4c3 25be f7c0 e7bd 1772 8fbd
00000390: f522 00be 9dc3 b0bd 69de 83bd ef5b d9bd
000003a0: 81e8 03be e7b5 5bbd 9038 c0bd 99a5 dc3d
000003b0: a6bb b1bd aca4 4fbd be28 93bd de5c eabd
000003c0: 4ac4 43bd 4d28 b5bd 6293 c5bd ab97 b8bd
000003d0: 31af aebd ae84 aabd baa6 dcbd ea55 f5bd
000003e0: b561 e6bd bebe 01be 052b 89bd 7971 e3bd
000003f0: 0d3b 02bd 1521 e4bd c434 eebd a3fb cabd
-0.07715009 -0.15249003 -0.09981915 -0.18412761 -0.09895319 0.044161946 -0.14216428 -0.17099217
-0.1201921 -0.039898314 -0.16332102 -0.015853874 0.08198345 0.013026744 0.046361286 -0.052674606
0.046433333 -0.1348904 -0.13205303 0.040735744 -0.017573481 -0.0028608106 -0.13793209 -0.06682784
-0.11949274 -0.029375345 -0.19825746 -0.119936034 -0.10491644 -0.15087679 -0.028751805 -0.16571708
-0.032691605 -0.09681711 -0.041860756 -0.11352672 -0.17692478 -0.07950075 0.25571933 -0.18151715
-0.19693768 -0.13421337 0.24484806 -0.05165378 -0.09048226 -0.18069786 -0.08335138 -0.10232821
-0.01535629 -0.16573262 -0.17348336 -0.15432486 -0.013521238 -0.20848036 -0.18882936 -0.06438804
-0.10290879 0.07615444 -0.0839902 -0.10564252 -0.16012488 0.012843981 0.05117481 -0.11808435
-0.015765307 -0.15458506 -0.13472909 -0.1253668 -0.091228686 -0.15534684 -0.11291131 -0.04521726
-0.0884172 -0.1819537 -0.14314114 -0.21710691 -0.12296409 -0.0021297806 0.1456159 -0.1463073
-0.04672702 -0.14991866 -0.1720641 -0.15432386 -0.19740416 0.14926195 -0.15979184 -0.11282821
-0.04505277 -0.00016800594 -0.16483435 -0.028656607 -0.08788892 -0.07707728 -0.19532818 -0.16958359
-0.15248333 -0.037240587 -0.15780246 -0.09028795 -0.16574128 -0.15547301 -0.06585856 -0.10265977
-0.043000706 -0.058256093 -0.15079838 0.2261891 -0.13311504 -0.14083074 -0.107646234 -0.12689197
-0.10363152 -0.1660282 -0.06198928 -0.11402381 0.009302959 0.07998555 -0.19160604 -0.21366476
-0.16803102 -0.18577254 -0.17034352 -0.11351453 -0.012153996 -0.05320033 -0.10041713 -0.18260537
-0.04971325 -0.11084838 -0.0753924 -0.11351251 -0.13991864 0.039389327 -0.10239556 -0.1286434
-0.07663609 -0.14810242 -0.0885025 -0.11913573 -0.003376509 -0.12331458 -0.05268627 -0.11027773
0.018607026 -0.11976932 -0.07469226 -0.07881999 -0.14840114 -0.12219833 -0.06687075 -0.1209237
-0.08817255 -0.0762603 -0.117222585 -0.09763143 -0.10530314 -0.058153417 -0.074914105 -0.0780565
-0.042135347 -0.10334022 -0.012623797 -0.113745056 -0.09177403 -0.055372477 0.13865821 -0.09219669
-0.11399847 -0.11583778 -0.02864301 -0.019254448 -0.111968726 -0.10619402 -0.0984913 -0.1604203
-0.022321548 -0.1058683 -0.12210621 -0.13187507 -0.0033135484 -0.13764885 -0.08760685 -0.08346905
-0.090988554 -0.028114405 -0.074425526 -0.11563977 -0.093312 -0.086197555 -0.07230551 -0.08162368
-0.08471318 -0.078680925 -0.1600413 -0.11857761 -0.13331611 -0.121994115 -0.07971522 -0.0684193
-0.069913715 -0.11016538 -0.08244946 -0.1460137 -0.108103745 -0.07279126 0.008940106 -0.101248495
-0.1089087 -0.079563305 -0.06469055 -0.09428574 -0.096413024 0.03428633 -0.09252294 -0.090777665
-0.008816952 -0.055296913 -0.15410486 -0.13082652 -0.019427964 -0.067197435 -0.09102272 -0.09149085
-0.08117535 -0.16187912 -0.11316102 -0.07004183 -0.12513335 -0.0863106 -0.06438906 -0.10613238
-0.12881662 -0.053640272 -0.093857884 0.10773773 -0.08678369 -0.050694153 -0.07185505 -0.11443494
-0.047794618 -0.088455774 -0.09647252 -0.09013303 -0.08529509 -0.08326088 -0.10773988 -0.119792774
-0.11249105 -0.12670419 -0.066976584 -0.111056276 -0.031794596 -0.111391224 -0.11631158 -0.09911277

output_w.weight f4 [5, 128]
00000000: ce37 bbbc 4072 97bb aa59 8ebc b40b cf3b
00000010: 65b4 b33c 71f7 16bd 4327 efbc 9138 453d
00000020: c35f d7bb 2e0c dbbd 0b61 f9bb 80ed cb39
00000030: 1fbb e63c 845e 62bd f3bb 39bd 8696 f7bb
00000040: 3f86 34be d856 96bc 5849 bbbd f2a8 f93d
00000050: d0b3 b53d 018a 97bb dc12 1ebc a055 b2bc
00000060: d03e 6abc 1a18 55bc c816 e33c f610 dd39
00000070: f649 e9bc 7031 f73b e028 bd3c adfd e9bb
00000080: 4358 05be e1a7 0e3c 7ec1 ffbc 616e eb3c
00000090: 14b1 ce3b c6dd 213d 88bd 233d 5652 76bc
000000a0: 77a0 183c 4e30 003d a94a 1cbb 27cf 243d
000000b0: b6b4 e8bc 95bb 2d3c 18f9 843c bf8e a4bd
000000c0: 7686 ff3c 7a1c 333b 98ca f6bb 324a 843c
000000d0: b60a a63d d10d 3e3d bfa4 763d 5df1 833c
000000e0: 8369 ea3b 7a7d b3bd bced 9d3a 2398 f13d
000000f0: e62f 9ebc 7ad3 d7bd f3ed f23d 1924 193b
00000100: 8022 84bc 3874 b2b8 25d3 63bd 93e2 1f3c
00000110: f011 583c 95e0 13bc 4374 be3d 3726 8fbc
00000120: d993 d6bc 15a1 e0bc 919f 4c3b 18ea 52bd
00000130: 575c 03bd b824 943d 83ce 65bd 6480 debc
00000140: 4a39 6a3e 8ffb 063b d733 3a3c 919b 073d
00000150: 161e 4cbb 0935 683d 4a98 ad3c 2739 34bd
00000160: 2cb7 10be 8e83 99bc 2cb3 cf3c 50b6 54bd
00000170: fdae f2bc 43a9 fabd 9ebd 6d3b 6203 bebc
00000180: efe2 b4bc e4b7 c33d eead ccbb 56a9 d73d
00000190: 9185 323b 1df6 c13c 032f 3e3c 3c0f f33c
000001a0: 44d1 6abc 6eb5 ccba 7481 e33c 605c cb3c
000001b0: a317 e7bc f24d babc 6f01 8c3a 1956 f6bc
000001c0: 9af4 0a3e 313e c1bb c187 30bd 8827 a13c
000001d0: e4a9 bbbc 4af1 553c bc82 78bc 62c9 e8bd
000001e0: f5a1 103d e100 1abc 8dc1 123c acb8 3abd
000001f0: f45d 403d 7f0b e4bc c171 01bc 000b 39bb
00000200: 31a3 bd3d 18b5 e53c 6cb1 51bc c501 7abd
00000210: f68c 28bd f5c3 4cbd 9aa0 db3c 7d9e 7d3c
00000220: 3d02 953d 2a68 233d 03c3 efbc e66b b53d
00000230: 66e8 bf3c 3690 57bd 1cc4 153d f536 01be
00000240: 5616 783e fb82 d7bc 1826 ed3c 8802 9c3e
00000250: bde8 5fbd a463 0bbc 38ac 6a3d a86e 76bc
00000260: 084e 1b3d 2ead 26bd c0ef a83d e91c 9ebc
00000270: 98cd d9bc 74fb adbd 3617 ec3b ce9d 7abd
00000280: 23ae 6e3c dcdc c33c dc83 813d 69c2 d4ba
00000290: 2e1d 513b 924b a63d f730 03bd 235a df3c
000002a0: 9a07 803c 8ddb 50bc 1d38 6c3d e781 a23d
000002b0: 5f5d 11bd 45dc dd3c 3bd1 31bd 38a5 133e
000002c0: d470 b53c 67cc 93bc bfeb 80bc 7050 2dbd
000002d0: 7d17 f4bc 8367 bdbd fa0e f0bc d2c8 923b
000002e0: 0cbf 893c 9fad a53c fe5a 94bd d6c8 443d
000002f0: 9fe0 40bb 7258 833c 399a 8c3b 1161 d5bc
00000300: f129 cfbd 57d3 873c 30a7 76bd ebc0 5fbd
00000310: 745b 593d dfbf 103d e0e6 0abd 6ad4 023d
00000320: d691 8fbd de4f b13d f92e c1ba ec3f 09bb
00000330: 12c7 e0bb c9ab d23b fd50 fcbc 26f7 383d
00000340: 0996 923d ef01 c13c 6097 88bd 2877 603d
00000350: c01b 543c ee89 9ebc fd18 7b3c de67 2db9
00000360: 8e74 0ebd 206a 443d 26fe cabb 6fb8 21bc
00000370: 1470 193b a56f fd3b 660c c23c 6f9f 633d
00000380: 05a1 49b9 4bf1 0e3e 9752 1b3d 4b26 5dbd
00000390: ebff 303c db9c f33c d02e 83bd 8115 28bd
000003a0: 464c 5a3d c9e1 53bc 6852 93bd b63d 7e3d
000003b0: 6244 e3bb 8054 1fb6 f34d e13c a2d5 6ebd
000003c0: 278d 7e3d b8c9 27bc 163a 03bd e3e0 8c3d
000003d0: 9ddb 73bc c8dd 31bb 4ac2 e1bc a8ce 0f3b
000003e0: 6fe0 1c3d 2682 173d e738 6abd cdec b6bd
000003f0: ac2d 6c3c 95c6 d93c efd1 6b3c 4073 a9bc
-0.022853758 -0.004621774 -0.01737674 0.006318534 0.021936605 -0.036857072 -0.029193526 0.04814965
-0.006572695 -0.106956825 -0.0076104454 0.00038896129 0.028165398 -0.05526592 -0.045345258 -0.0075557856
-0.17629336 -0.018351957 -0.091448486 0.12190427 0.08872187 -0.0046246056 -0.009648051 -0.021769345
-0.014297202 -0.013006235 0.027720824 0.00042165042 -0.02847765 0.007543735 0.02309078 -0.007140836
-0.1302195 0.008707018 -0.031220194 0.028739156 0.0063077305 0.03951814 0.039975673 -0.015034279
0.009315602 0.031296067 -0.0023848212 0.04023662 -0.028406482 0.010603805 0.016232058 -0.08035039
0.031192046 0.0027330206 -0.0075314753 0.01614866 0.08107512 0.046399895 0.060215708 0.016106302
0.0071536913 -0.08764167 0.0012049 0.11796596 -0.01930995 -0.10538383 0.118617915 0.0023367463
-0.016129732 -8.509349e-05 -0.055621285 0.009758609 0.01318787 -0.0090257125 0.09299519 -0.017474277
-0.026193546 -0.02742056 0.0031223039 -0.05149278 -0.032070484 0.07233566 -0.056105148 -0.02716083
0.22873417 0.0020596718 0.011364899 0.033107344 -0.0031145862 0.056691203 0.021190781 -0.043999817
-0.14132375 -0.018739488 0.02535399 -0.05193168 -0.029624457 -0.12239315 0.003627635 -0.023194972
-0.022080867 0.09556559 -0.00624632 0.10530345 0.0027240256 0.023676926 0.011607888 0.02967035
-0.014332119 -0.0015618035 0.027771689 0.024824321 -0.028209513 -0.022742245 0.001068158 -0.030070351
0.1356987 -0.0058973064 -0.043098215 0.01967217 -0.022908159 0.013058016 -0.015167888 -0.11366536
0.035310704 -0.009399624 0.008957279 -0.045586273 0.0469646 -0.027837513 -0.007900656 -0.0028235316
0.09259642 0.028040454 -0.012798648 -0.061036844 -0.041150056 -0.049991567 0.02680998 0.015479681
0.072758175 0.03989426 -0.029267794 0.088584706 0.023426246 -0.052627765 0.036563978 -0.1261862
0.2422727 -0.026307574 0.028948829 0.3047068 -0.054665316 -0.008507643 0.057293147 -0.015041031
0.037916213 -0.0406925 0.08248854 -0.019300895 -0.026587293 -0.084952265 0.0072049154 -0.06118565
0.014567885 0.023909025 0.06323978 -0.0016232255 0.0031908262 0.08119883 -0.03202912 0.02726466
0.015628625 -0.0127476575 0.0576707 0.07934933 -0.035489436 0.027082572 -0.04341243 0.14418495
0.022148527 -0.018041803 -0.015737412 -0.04231304 -0.029796356 -0.09248259 -0.029304016 0.004479506
0.016814731 0.02022439 -0.07243918 0.048043095 -0.002943076 0.016033385 0.0042908457 -0.026047261
-0.101154216 0.016580267 -0.060218036 -0.05462734 0.053065732 0.035339233 -0.033911586 0.031940855
-0.07010238 0.086578116 -0.001473873 -0.0020942641 -0.0068596685 0.00642917 -0.030800337 0.045157574
0.07157523 0.023560492 -0.066694975 0.054801136 0.012946069 -0.01935288 0.015325782 -0.00016537259
-0.034779124 0.04795277 -0.0061948476 -0.009870633 0.002341275 0.0077342563 0.023687553 0.05557197
-0.00019228838 0.13959233 0.03792056 -0.053991597 0.010803203 0.02973788 -0.06405413 -0.041036133
0.053295396 -0.012932249 -0.07193452 0.06207057 -0.006935642 -2.3742032e-06 0.02750299 -0.058309205
0.062146332 -0.010240965 -0.032037817 0.06878831 -0.014883903 -0.0027140249 -0.027558465 0.0021943245
0.038299974 0.036989354 -0.057183173 -0.08931885 0.014415186 0.02658395 0.014393314 -0.020684838

output_w.bias f4 [5]
00000000: f5a7 10bd b410 483d 4b95 a6be 8e6f ccbe
00000010: 220f d8bd
-0.035316426 0.048844054 -0.32535776 -0.3992886 -0.10549761

square_avg f4 [64]
00000000: dc93 9a3c e6fc 703d ea4b 9a3d a2a6 802f
00000010: 370a b633 64ba 4b3c dffa d53b f1f2 4a33
00000020: 309a 2c3c e6d2 c932 4c39 b53c 85a7 a53a
00000030: c663 0d3c 798e 7b3c 30c6 cd37 649c 2232
00000040: 3b4e dd32 b179 8632 537e 5d3b b4f4 563b
00000050: 2a73 983a 90b6 1e32 d0f0 3335 1079 232f
00000060: 3583 0336 bbab bd38 5745 5f3d f422 0338
00000070: c85c ea3d deaf 693b 0b15 432e 03bb 023d
00000080: d34e 4f3c 16bb 523d 9944 423d 1497 a63c
00000090: 15c0 3c3d 70fe fa3c 209d 1639 3832 343c
000000a0: dfe8 0a3d 86a0 7437 edbe f337 e18b d233
000000b0: 43ca 992f 5a6a 5833 97ec ee3c afa1 e03c
000000c0: b3e3 eb3b a2b2 343d 0e68 b732 4470 853d
000000d0: 5551 9b35 b90e 2430 39c5 253d bd7a fb38
000000e0: 1d2e ef3c b4bd 2a33 14b9 a530 c9be 953c
000000f0: 030a 503d 1e1b 813d f35e 593c d668 7f3d
0.018869333 0.058834933 0.07534011 2.3401464e-10 8.4768935e-08 0.012434576 0.0065301503 4.7252744e-08
0.010534808 2.3495385e-08 0.022122048 0.0012638426 0.008629745 0.015353792 2.4530193e-05 9.4652e-09
2.5763361e-08 1.5654992e-08 0.003379722 0.0032799663 0.0011631001 9.23832e-09 6.7033125e-07 1.4867774e-10
1.9596894e-06 9.0442096e-05 0.054509487 3.1265386e-05 0.11443478 0.0035657804 4.4356557e-11 0.03191663
0.0126530705 0.05144795 0.0474287 0.020335712 0.04608162 0.030638903 0.00014363648 0.010998301
0.03391349 1.4580908e-05 2.9056764e-05 9.804331e-08 2.7974253e-10 5.0388145e-08 0.02916555 0.027420847
0.0071987747 0.04411567 2.1351322e-08 0.065155536 1.1572071e-06 5.9683775e-10 0.04047129 0.000119914745
0.029196793 3.9753743e-08 1.2057932e-09 0.01827945 0.050790798 0.06304 0.013267267 0.06235584

square_avg f4 [5]
00000000: 3878 0d41 2fb3 1c41 adfc 8a3d 8607 9c3e
00000010: 4eed d33c
8.84185 9.793746 0.06786475 0.3047449 0.025869992
