S-LSTM/Goal+Socail_Array_PyTorch/social_lstm/save/0/social_model_epoch_27.pth (torch, 815071 bytes, 22 tensors)

embedding_b f4 [64]
0	0xbd4bfd56	-0.049802147
1	0x3ebc7673	0.3680912
2	0x3e8ed6aa	0.2789815
3	0xbbf37880	-0.007430136
4	0xbd1624ad	-0.03665607
5	0x3c2ccb19	0.010546469
6	0xbdb46b1d	-0.08809493
7	0xbbdb84ac	-0.0066991653
8	0xbe2ac3f1	-0.16676308
9	0xbc2335a3	-0.009961518
10	0x3c4ee498	0.012627743
11	0xbcbbfe61	-0.022948446
12	0xbe3ece77	-0.18633448
13	0xbe0b98fc	-0.13632578
14	0xbce7a2a8	-0.028275803
15	0xbd01bbc0	-0.031673193
16	0xbce453ab	-0.027871927
17	0xbbb42431	-0.0054974784
18	0xbe0442e3	-0.1291614
19	0xbd54c5e8	-0.05194655
20	0xb931a606	-0.00016941884
21	0xbd0cd17f	-0.03437948
22	0xbbb5fdea	-0.0055539506
23	0x3ccdf0a3	0.025139159
24	0xbd8bf196	-0.06833188
25	0xbb3bf45f	-0.0028679592
26	0x3d49beb2	0.049254127
27	0xbc28fd2c	-0.010314267
28	0x3eb45754	0.35222876
29	0xbe1e12e3	-0.15436892
30	0xbd127c1f	-0.035762902
31	0xbd591ef9	-0.053008053
32	0xbe1a3a5c	-0.15061325
33	0x3c835e19	0.01603608
34	0x3df8b5fd	0.121440865
35	0x3aac6488	0.0013152519
36	0x3e54ef06	0.20794305
37	0x3d9ffce5	0.07811908
38	0xbb2eb199	-0.002665615
39	0xbe28b7f5	-0.16476424
40	0xbc611e0b	-0.013740073
41	0xbb8fc7f3	-0.0043878495
42	0x3cebc227	0.028779102
43	0xbd561c85	-0.052273292
44	0xbb892fca	-0.004186605
45	0xbc7acc63	-0.015307519
46	0xbcb16258	-0.02165334
47	0x3d9dc0f1	0.07702816
48	0xbdc95295	-0.098302044
49	0x3e1d4ab8	0.15360534
50	0xbb082b70	-0.0020777844
51	0x3da4fa7d	0.08055589
52	0xb8aeffa3	-8.3445826e-05
53	0xbaa9e255	-0.0012961129
54	0x3da873d1	0.08225215
55	0xbdb3862f	-0.08765828
56	0xbcfe9f4d	-0.03108182
57	0xbb80b275	-0.0039275237
58	0xb7b42fe4	-2.1479973e-05
59	0x3d9236df	0.07139372
60	0x3e1ecbb4	0.15507394
61	0x3d686254	0.056734398
62	0xbe04a1e3	-0.1295238
63	0x3c14fce3	0.009093496

output_b f4 [5]
0	0x3cef1da4	0.029188938
1	0xba8e1ef7	-0.0010842968
2	0xbf6e541e	-0.930971
3	0xbf6809ab	-0.9063975
4	0xbd99540e	-0.07486735

embedding_w.weight f4 [64, 4]
0	0x3e5a012b	0.21289508
1	0xbf418f1e	-0.75609004
2	0xbe236aef	-0.1595876
3	0x3ee125f5	0.4397427
4	0x3dba5486	0.09098153
5	0x3fb4ba48	1.4119349
6	0xbd25ee10	-0.040510237
7	0x3ebe62fc	0.37184894
8	0xbf8f31b6	-1.1187046
9	0xbf2b3820	-0.66882515
10	0xbe27de9e	-0.16393515
11	0xbdfa01a6	-0.12207346
12	0xbbffcffa	-0.007806775
13	0xbc8baf10	-0.01705125
14	0xb9190817	-0.00014594231
15	0x39f66045	0.00046992503
16	0xbda85c67	-0.08220749
17	0xbda9fd66	-0.08300285
18	0x3cc3e6d4	0.023913778
19	0x3d1c02f1	0.038088743
20	0x3f541d51	0.82857233
21	0xbf0efb57	-0.55852264
22	0x3f009b9e	0.50237453
23	0x3efd69ab	0.4949468
24	0x3f165904	0.5872958
25	0x3f4fc37c	0.8115766
26	0x3e12d7de	0.1434016
27	0x3d155a5c	0.036463127
28	0xbd4f2fc8	-0.050582677
29	0x3c42caf4	0.011889208
30	0xbc3588c0	-0.011079967
31	0x3b87f020	0.004148498
32	0x3ca78d66	0.020453166
33	0x3eacfecc	0.33788145
34	0x3da5f7b8	0.08103889
35	0x3eb4e0dd	0.35327807
36	0xbb5297fa	-0.0032134042
37	0xbbdf1d9a	-0.0068089487
38	0x3cd4cece	0.025977518
39	0xbcd24ba0	-0.025670826
40	0xbf10cd66	-0.56563413
41	0x3ece26d3	0.40263996
42	0x3ee34feb	0.4439691
43	0xbecbf065	-0.39831844
44	0xbf021a08	-0.5082097
45	0x3c5314e9	0.012883403
46	0xbf065b59	-0.52483135
47	0xbb4d2a01	-0.0031305554
48	0x3f2149f3	0.6300346
49	0xbea3f6b9	-0.32024172
50	0xbf2766d1	-0.6539126
51	0x3ed1c41a	0.40969926
52	0x3f854f72	1.041487
53	0x3eb6bf5a	0.35692865
54	0x3e4b1668	0.19832766
55	0x3e0d5c76	0.13804802
56	0x3d9c99a1	0.0764649
57	0x3d0d7024	0.034530774
58	0x3ea507d6	0.3223254
59	0x3e166f34	0.14690858
60	0x3ccb9e05	0.024855623
61	0x3dcda166	0.1004055
62	0x3cde3a1c	0.027127318
63	0xbe224804	-0.15847784
64	0x3e0634ea	0.13106123
65	0x3e1090ae	0.14117691
66	0x3e6c0541	0.23048879
67	0xbe407244	-0.18793589
68	0x3ba86f20	0.0051402003
69	0xbb264082	-0.002536804
70	0x3bb5f3e4	0.0055527557
71	0xba86ed68	-0.0010294141
72	0x3eb9bf99	0.3627899
73	0xbef8b5a4	-0.4857608
74	0x3ed89a24	0.423051
75	0xbf00cbae	-0.5031079
76	0x3f8bebe8	1.0931368
77	0x3ebc439a	0.36770326
78	0xbf905da7	-1.127858
79	0xbeaa9580	-0.33317184
80	0xbcbdffa6	-0.023193192
81	0xbba86120	-0.0051385313
82	0x3c7b7311	0.015347258
83	0xbd57f960	-0.052728057
84	0x3df88155	0.12134043
85	0x3d5c26dd	0.053748
86	0x3ef6e9b1	0.48225167
87	0xbdacffdb	-0.08447238
88	0xbb933ab7	-0.0044930833
89	0x3b8a58cd	0.0042220117
90	0x3cf5d042	0.030006532
91	0x3bbf2ea8	0.0058344193
92	0x3c2b7c9e	0.010466723
93	0xbccd6204	-0.025071152
94	0x3ce40df6	0.027838688
95	0xbce90d21	-0.028448643
96	0xbecea236	-0.40358132
97	0x3e9e013e	0.30860323
98	0x3f29b553	0.66292304
99	0x3e37927a	0.1792697
100	0xbb8d34d6	-0.004309277
101	0x3ab76580	0.0013992041
102	0x3b154d07	0.0022781508
103	0xb9f20cfe	-0.00046167517
104	0xbf470fcf	-0.77758497
105	0xbf9082e5	-1.1289946
106	0x3e85317b	0.26014313
107	0xbf8963c3	-1.073357
108	0xbb00e428	-0.0019667242
109	0xbbe3601d	-0.006938948
110	0x3cd25a2d	0.025677765
111	0xbce7da68	-0.028302386
112	0xbfada799	-1.3566772
113	0xbf427b93	-0.7596981
114	0xbc6ce836	-0.01445966
115	0x3e10c519	0.14137687
116	0xbf26a0bd	-0.6508902
117	0xbf171a32	-0.59024346
118	0x3f2b7838	0.66980314
119	0x3f213d0e	0.6298379
120	0x3e9d0ab2	0.30672222
121	0x3e8ccac9	0.27498463
122	0x3ea5915b	0.3233746
123	0xbea4f75b	-0.32219967
124	0xbf29de6f	-0.6635503
125	0x3e2b72ae	0.16742966
126	0x3d03417e	0.03204488
127	0x3e6ae65f	0.22939442
128	0xbf35edd7	-0.7106604
129	0x3f32cd84	0.6984484
130	0xbe1a198a	-0.15048805
131	0xbea46055	-0.32104746
132	0x3e87cbb3	0.26522598
133	0x3f922a6f	1.14192
134	0xbda0632e	-0.07831417
135	0xbed887e9	-0.4229119
136	0x3fbc15a2	1.4694102
137	0xbe540f41	-0.20708944
138	0x3e20f311	0.15717722
139	0x3ee66d3a	0.45005208
140	0x3f656f45	0.8962291
141	0x3f285787	0.65758556
142	0x3e3f57e3	0.1868587
143	0x3e282aaa	0.16422525
144	0xbf2528b4	-0.64515233
145	0x3faa1f19	1.329074
146	0x3c2e3500	0.010632753
147	0x3f24e946	0.64418447
148	0x3fa7ef15	1.3119837
149	0xbf7fab38	-0.99870634
150	0x3e87306e	0.26404136
151	0xbea68119	-0.3252037
152	0xbd84add3	-0.06478467
153	0xbd4efe21	-0.050535325
154	0xbc624549	-0.013810464
155	0xbc2f1048	-0.010685034
156	0xbe5c0ab2	-0.21488455
157	0x3e987df5	0.29783598
158	0x3e7ea38c	0.24867076
159	0xbae60f4e	-0.0017552169
160	0x3fc4d118	1.537631
161	0x3efbbf73	0.49169502
162	0x3e5e1f3d	0.21691604
163	0x3e7ddd7f	0.24791525
164	0x396a64d6	0.00022353543
165	0xb24e0b30	-1.1993322e-08
166	0xb9974249	-0.0002885035
167	0x3ac30a41	0.0014880375
168	0xbd1515bc	-0.03639768
169	0x3bd7ae18	0.006582033
170	0xbc496d63	-0.012294146
171	0xbcc8040b	-0.02441599
172	0xbe539855	-0.20663579
173	0x3e692ba7	0.22770558
174	0x3eb4281d	0.35186854
175	0x3db0eaad	0.08638511
176	0xbbd4d0d7	-0.006494622
177	0xbac9edbd	-0.0015405935
178	0x3bee1650	0.0072658435
179	0x3b849a4e	0.004046715
180	0xbc6b541a	-0.014363313
181	0x3c962b2a	0.01833113
182	0x3c96a2cf	0.01838818
183	0xbd5be30e	-0.053683333
184	0x3d7090a7	0.0587317
185	0x3f82b5e5	1.021176
186	0xbd2f4df2	-0.042798944
187	0xbd571f17	-0.052519884
188	0xbea3c635	-0.31987157
189	0x3f229783	0.6351244
190	0x3d9d156d	0.07670102
191	0xbd87d8d9	-0.06633157
192	0x3de26a4e	0.11055432
193	0x3ebd3ea2	0.36961848
194	0x3d330528	0.04370609
195	0x3e51faed	0.20505877
196	0xbf363577	-0.7117533
197	0xbfa19a03	-1.2625126
198	0xbe2092e7	-0.15681039
199	0x3dc71a94	0.09721866
200	0x39272137	0.00015938735
201	0xae8757ce	-6.1546865e-11
202	0xb1225706	-2.362357e-09
203	0xafcef564	-3.7645542e-10
204	0xbfa75876	-1.3073871
205	0x3f83f5f2	1.0309432
206	0xbe6658fe	-0.22494885
207	0x3e523d02	0.20531085
208	0xaa7bee10	-2.2375873e-13
209	0x35b4f856	1.348332e-06
210	0xaac34bca	-3.4691548e-13
211	0x342857f0	1.5678211e-07
212	0x3b55728d	0.0032569498
213	0x3b837679	0.004011926
214	0x3b9852a5	0.004648524
215	0xbb698098	-0.0035629626
216	0x3ec251e6	0.3795311
217	0xbf82d4de	-1.0221212
218	0xbdabe96a	-0.083941296
219	0xbc35a2d7	-0.011086187
220	0x3f501945	0.8128856
221	0xbef8b050	-0.48572016
222	0x3db97fa0	0.09057546
223	0xbeae6545	-0.34061638
224	0x3f3839b0	0.71963024
225	0xbf22609e	-0.63428676
226	0xbe7eb72b	-0.2487456
227	0x3eaa6a6a	0.33284312
228	0xb35757a6	-5.0138304e-08
229	0xba9d6e9a	-0.0012011111
230	0x377b09df	1.4963064e-05
231	0xb9ba6d76	-0.0003555824
232	0xad038ac0	-7.4772966e-12
233	0xad03795c	-7.473435e-12
234	0x2d830d9c	1.489902e-11
235	0x353407a1	6.7066327e-07
236	0xbf89410b	-1.0722975
237	0xbf2cfa1e	-0.6756915
238	0xbc282b18	-0.010264181
239	0x3d85b6ef	0.065290324
240	0xbf096a6d	-0.5367802
241	0xbf8332d4	-1.0249887
242	0xbe373ccb	-0.17894284
243	0xbc0aee8d	-0.0084797265
244	0x3f743f09	0.95408684
245	0x3f889bd4	1.0672555
246	0x3de72e1b	0.11288091
247	0xbcab2d6d	-0.020895684
248	0xbf0040c1	-0.50098807
249	0x3eb521b3	0.35377273
250	0x3d8e4639	0.06946988
251	0x3e32f489	0.17476095
252	0xbf9910b2	-1.195822
253	0x3f23a088	0.63916826
254	0xbe6b1e95	-0.22960885
255	0xbde1cfc0	-0.11025953

embedding_w.bias f4 [64]
0	0x3daa2b6e	0.08309065
1	0x3e30f341	0.17280294
2	0x3e179411	0.14802577
3	0xbbf37880	-0.007430136
4	0xbd1624ad	-0.03665607
5	0xbc8656d5	-0.016398827
6	0xbd025afd	-0.031825054
7	0xbbdb84ac	-0.0066991653
8	0x3dfa50ba	0.122224286
9	0xbc2335a3	-0.009961518
10	0xbd425c3c	-0.047451243
11	0x3cc3d97d	0.023907417
12	0x3e1542c6	0.14576253
13	0x3e27776c	0.1635415
14	0xbce7a2a8	-0.028275803
15	0xbd01bbc0	-0.031673193
16	0xbce453ab	-0.027871927
17	0xbbb42431	-0.0054974784
18	0x3e0b27ba	0.13589373
19	0xbb91a619	-0.004444849
20	0xb931a606	-0.00016941884
21	0xbd0cd17f	-0.03437948
22	0xbbb5fdea	-0.0055539506
23	0x3ccdf0a3	0.025139159
24	0xbd8bf196	-0.06833188
25	0xbb3bf45f	-0.0028679592
26	0xbdbfeca1	-0.09371305
27	0xbc28fd2c	-0.010314267
28	0x3e221b75	0.15830787
29	0x3df83804	0.12120059
30	0xbd127c1f	-0.035762902
31	0xbd4e51f0	-0.05037111
32	0x3e19bec8	0.15014184
33	0x3d0286b6	0.03186675
34	0x3ed076a6	0.40715522
35	0x3e98f434	0.29873812
36	0x3c9c4780	0.019077063
37	0xbd7bcc2f	-0.06147402
38	0xbb2eb199	-0.002665615
39	0x3db75c45	0.08953146
40	0x3d90a200	0.07062149
41	0xbb8fc7f3	-0.0043878495
42	0x3cebc227	0.028779102
43	0xbd561c85	-0.052273292
44	0xbb892fca	-0.004186605
45	0xbc7acc63	-0.015307519
46	0xbd469720	-0.048483968
47	0xbdb01fb6	-0.085997984
48	0x3d971d8f	0.07378685
49	0x3e0ff57d	0.1405849
50	0xbb082b70	-0.0020777844
51	0xbdd28a1b	-0.10280248
52	0xb8aeffa3	-8.3445826e-05
53	0xbaa9e255	-0.0012961129
54	0x3d8b951f	0.06815552
55	0xbdb3862f	-0.08765828
56	0xbbd934a0	-0.006628588
57	0xbb80b275	-0.0039275237
58	0xb7b42fe4	-2.1479973e-05
59	0x3eb24388	0.34817147
60	0xbddf476d	-0.10902295
61	0xbe2c4bf3	-0.16825847
62	0x3de3ae5f	0.11117243
63	0xbe65cf80	-0.22442436

embedding_t_w.weight f4 [1, 8]
0	0x3f6a29e6	0.9147018
1	0xbeb03c7d	-0.3442115
2	0x3e3b3f7e	0.18285939
3	0xbf19d747	-0.6009411
4	0x3af08806	0.0018351085
5	0x3d7160be	0.05893015
6	0x3f0420a9	0.51612335
7	0xbf40a3a0	-0.7524967

lstm.weight_ih f4 [512, 65]
0	0xba2d6938	-0.0006615105
1	0xbcb49317	-0.022042794
2	0x3cc5dd29	0.024153309
3	0x22ef4cdb	6.4862454e-18
4	0xb70bbb60	-8.328672e-06
5	0xbc864da7	-0.01639445
6	0xbb75ed36	-0.0037525422
7	0x3ba42a3c	0.0050099175
8	0xbc29ae3d	-0.010356483
9	0x33cdadc0	9.577661e-08
10	0x3c8ae22f	0.016953556
11	0x3c99912e	0.018745985
12	0xbcf9fe46	-0.030516755
13	0xbbe3ad05	-0.006948116
14	0xbc60f395	-0.0137299495
15	0x3c51cdca	0.012805412
16	0x3c006646	0.007836884
17	0xae19f102	-3.500223e-11
18	0x3caf7021	0.021415772
19	0xbca3cfe1	-0.019996585
20	0x3c3cfdca	0.011535117
21	0x394beae8	0.00019447098
22	0x3a5ab4d3	0.0008342985
23	0x3caf59da	0.02140515
24	0xbca4bb4e	-0.020108845
25	0x3a853cb4	0.0010165186
26	0x3d32ad8d	0.043622542
27	0x3459e59a	2.0293228e-07
28	0x3c6b897b	0.01437604
29	0xbc797cdf	-0.0152275255
30	0x3c01fe31	0.007934139
31	0x3beadfd2	0.0071677947
32	0x3d154b6f	0.036448892
33	0x3c92896b	0.017887792
34	0xbd496741	-0.049170736
35	0xbc9adb24	-0.018903323
36	0x3b8d71e0	0.0043165535
37	0x3be068d0	0.006848432
38	0x3c2d1b74	0.010565627
39	0xbc3e2055	-0.011604388
40	0xbc22bda9	-0.009932914
41	0x3a08028a	0.00051883666
42	0x3cd4ff53	0.026000654
43	0xbc85d8a4	-0.016338654
44	0x3a1e15c8	0.00060304673
45	0xb84c0371	-4.8640595e-05
46	0x3be6e8f2	0.007046812
47	0x3c87b050	0.016563565
48	0xbbf2efe7	-0.0074138525
49	0x3d070350	0.032962143
50	0x339ca878	7.2949604e-08
51	0x3ca807c0	0.020511508
52	0x38045e26	3.1558935e-05
53	0x3a2cef82	0.0006596969
54	0x3c01ff34	0.00793438
55	0x3c205fd5	0.009788473
56	0xbb755bf0	-0.0037438832
57	0x335c589f	5.1303342e-08
58	0x00027bff	2.28152e-40
59	0x3c9848ae	0.018589344
60	0x3cd533fe	0.026025768
61	0xbc1ffe9a	-0.009765292
62	0x3ac08262	0.0014687295
63	0x3cc3bcc7	0.023893727
64	0x3b624b39	0.00345297
65	0x3c793051	0.015209273
66	0xbc3af142	-0.011410059
67	0xbb4ab4ac	-0.0030930443
68	0xb712bfe4	-8.746956e-06
69	0x3692596a	4.3615482e-06
70	0xbbc59dd6	-0.0060307784
71	0xbc35cebb	-0.011096652
72	0x3a9e00d8	0.0012054695
73	0x3bb46afa	0.0055059167
74	0x39c54b94	0.00037631078
75	0x3bca982c	0.006182691
76	0x3c83c1aa	0.016083557
77	0xbaf6da8b	-0.0018833441
78	0xbc865d86	-0.016402017
79	0x3ae6776f	0.0017583201
80	0x3ac319e8	0.001488504
81	0x3b879ded	0.0041386993
82	0x38fbb4ec	0.00012002312
83	0x3b6b64af	0.0035918166
84	0xbbe48711	-0.006974109
85	0x3aeb5ede	0.001795735
86	0x3ab0d26c	0.0013490445
87	0x383a4219	4.4407414e-05
88	0x3b30a7de	0.0026955525
89	0x3aa88b12	0.0012858829
90	0xbb0a882c	-0.0021138294
91	0x3b0e7a7d	0.002174049
92	0x39d1e1fa	0.00040031952
93	0xbc2cf5e0	-0.010556668
94	0x3c62e5c2	0.013848724
95	0x3bbac8cc	0.0057002064
96	0x3c12cb58	0.008959614
97	0x3c0f5678	0.008748643
98	0xba2d05e3	-0.00066003035
99	0xbd0bbc44	-0.03411509
100	0xbc8dcffa	-0.017311085
101	0x3b93edfe	0.004514455
102	0xbc33e55e	-0.010979978
103	0x3b9c0dd7	0.004762392
104	0xbb76aea4	-0.0037640715
105	0xbcb7296f	-0.022358624
106	0xb75dccd0	-1.3220313e-05
107	0x3ba69a4e	0.0050843125
108	0x3836f5b4	4.362101e-05
109	0xba2cfcac	-0.00065989303
110	0x37609ee2	1.3388433e-05
111	0x3aedc9a0	0.0018141754
112	0x3a7cad6c	0.0009638879
113	0x3bad6ab6	0.005292262
114	0xba8f869e	-0.0010950153
115	0x3571e9b4	9.011958e-07
116	0x3ad81c52	0.0016487932
117	0x80041150	-3.73553e-40
118	0x36b289b4	5.320844e-06
119	0xbaa562be	-0.0012617928
120	0x3bb3447b	0.00547081
121	0x3b0918e0	0.0020919368
122	0xb9d43f10	-0.00040482776
123	0x35723a30	9.02367e-07
124	0xbbb5777e	-0.005537926
125	0x3c1cbc5a	0.009566391
126	0xbc913442	-0.017725114
127	0x3b291758	0.0025801267
128	0x3c19ee46	0.009395188
129	0xbbbda855	-0.005787889
130	0x3ae2fcf0	0.0017317813
131	0xbca1026f	-0.01965448
132	0xbc551709	-0.01300598
133	0xb26c375c	-1.3749595e-08
134	0x36139988	2.1994074e-06
135	0xbc2e9336	-0.010655215
136	0xbc26f8bd	-0.01019114
137	0x3986f1ac	0.0002573853
138	0xbbc1ee58	-0.0059183054
139	0xbaafe9c7	-0.0013421112
140	0x39c9adb4	0.00038467126
141	0x3b8821b2	0.0041544074
142	0xbc6ba596	-0.0143827405
143	0xbc460db1	-0.012088225
144	0xb9873c9a	-0.00025794358
145	0xbb23059a	-0.0024875165
146	0xb8ae58d8	-8.313515e-05
147	0x399581e8	0.00028516282
148	0xbb54f74e	-0.0032496038
149	0xbcf7db33	-0.03025589
150	0xbabfe37a	-0.0014639937
151	0x39916614	0.0002773261
152	0x35a60c80	1.2371602e-06
153	0xbbca7f06	-0.006179693
154	0xbae7de44	-0.0017690142
155	0xbb825ecc	-0.003978586
156	0xbbf9cd23	-0.007623331
157	0xbacb50ad	-0.0015511714
158	0xbc902c14	-0.017599143
159	0x3bb0ef8c	0.00539965
160	0xba25a5d7	-0.00063189626
161	0x3aa0f034	0.0012278617
162	0xbb1b0a5f	-0.0023657305
163	0xbc7e0be6	-0.0155057665
164	0xbd2ff8d8	-0.042961925
165	0xbcce5667	-0.025187684
166	0x3b784fd7	0.0037889385
167	0xbc8d6c09	-0.01726343
168	0x3ac0756d	0.0014683433
169	0xbb85f7f2	-0.0040883953
170	0xbc9757f2	-0.018474553
171	0x360a0fbe	2.0572766e-06
172	0xbb7c2893	-0.0038476333
173	0xba48a34e	-0.0007653729
174	0x3a0534e0	0.00050814264
175	0xb971cf16	-0.00023060697
176	0xbba29a0a	-0.0049622105
177	0xbb0bc9e5	-0.0021330055
178	0xbb71aa73	-0.0036875277
179	0xbc20a4ef	-0.009804948
180	0x35e87188	1.7318389e-06
181	0xba9126e5	-0.0011074214
182	0x362662fe	2.4793549e-06
183	0x39809518	0.00024525146
184	0xbc6a2f81	-0.014293552
185	0xbab53896	-0.0013826068
186	0xbc1061d6	-0.008812388
187	0xb421128c	-1.5001041e-07
188	0x383bdf4c	4.4792236e-05
189	0xbc70ed29	-0.014704981
190	0x3b27dedd	0.0025615015
191	0xbc8b389e	-0.01699477
192	0xbb38c7c6	-0.0028195246
193	0x38fa49c0	0.00011934666
194	0xbc31ccd6	-0.010852059
195	0x3c7b63f1	0.015343652
196	0xbca7403e	-0.020416375
197	0xbc7051aa	-0.014667908
198	0x324254c0	1.1311556e-08
199	0xb7949276	-1.7711176e-05
200	0x3c18c136	0.009323409
201	0x3c16fff1	0.009216295
202	0xbab49fce	-0.0013780536
203	0x3cb6f759	0.022334741
204	0x39a0155e	0.00030533498
205	0xbb48c7b7	-0.0030636617
206	0x3bc06861	0.005871818
207	0xbb9a6cc8	-0.0047126748
208	0xbb02dd4c	-0.001996833
209	0x3c17a0c6	0.00925464
210	0xbb1f1e1a	-0.0024279417
211	0xbb888e33	-0.004167342
212	0xb1f610a8	-7.161436e-09
213	0xbc728ecd	-0.014804554
214	0xbcc2e38b	-0.023790142
215	0xbb94b235	-0.0045378455
216	0xbbc4ca14	-0.006005535
217	0x360e39d0	2.11933e-06
218	0xb985cef8	-0.0002552194
219	0x3b7492aa	0.0037318864
220	0x3b70996a	0.0036712536
221	0xbc009df8	-0.007850163
222	0x3975cd44	0.00023441488
223	0xbca26292	-0.019822393
224	0x3bb499aa	0.0055114822
225	0xbb8e2877	-0.00433832
226	0x3c8ab1bd	0.016930455
227	0xb986d270	-0.0002571526
228	0x3b361ee5	0.002778941
229	0xbc9e8a6e	-0.019353118
230	0xbbc30f26	-0.0059527336
231	0x39c5c240	0.00037719496
232	0xbcabc1af	-0.020966379
233	0x38ec9340	0.000112807844
234	0x3b441f5c	0.0029925918
235	0xbb81e27f	-0.003963768
236	0x3390169c	6.709635e-08
237	0x3bee6b81	0.007275999
238	0x3bb934ca	0.005652045
239	0x39db07a8	0.0004177664
240	0xba1b63ae	-0.0005927634
241	0x3c85921f	0.016305028
242	0x3bb1483c	0.0054102223
243	0x3c9eb6c8	0.019374266
244	0xbbf7a91a	-0.0075580003
245	0xb9b0fb0a	-0.00033756375
246	0x3b9c8f5a	0.004777831
247	0xba6b6b0d	-0.00089804904
248	0xb69b1716	-4.6220475e-06
249	0xbbc438f2	-0.0059882337
250	0xbc9686ba	-0.01837479
251	0x3bea9a19	0.007159483
252	0x378aa818	1.6529157e-05
253	0xb75479c4	-1.26645355e-05
254	0xbc78c7dc	-0.015184369
255	0xb96254f0	-0.00021584681

lstm.weight_hh f4 [512, 128]
0	0xbbee527a	-0.0072730156
1	0x3bf0f69d	0.0073536173
2	0x3a688432	0.00088697963
3	0x3b860a5f	0.004090592
4	0x3c80c4f0	0.015718907
5	0xbc10e3a1	-0.008843333
6	0xbb8c3e4a	-0.0042798864
7	0x3c1701a4	0.0092167
8	0x3a7c2568	0.0009618611
9	0xbbcf79db	-0.006331665
10	0x3c4b2147	0.012398071
11	0xbd3ab085	-0.0455785
12	0x3d6a308b	0.0571752
13	0x3974173c	0.00023278309
14	0x3b5625de	0.003267638
15	0x3ae16db9	0.0017198838
16	0x3b320c40	0.0027167946
17	0x3bee1711	0.0072659333
18	0xbb3446d1	-0.002750803
19	0xbc78adc6	-0.01517815
20	0xbbb262e2	-0.0054439167
21	0xba1ba1d0	-0.00059368927
22	0xbb5bc0ac	-0.003353159
23	0x3b2df5eb	0.0026544284
24	0xbac761a2	-0.0015211592
25	0x3be901f6	0.0071108295
26	0xbb56e622	-0.0032790978
27	0xbb96f8da	-0.004607302
28	0x3d295408	0.041339904
29	0xbbc83dbd	-0.0061108754
30	0x3c73a348	0.014870472
31	0x3ab7e13b	0.0014028916
32	0x3b32b0d4	0.0027266042
33	0xba055020	-0.0005085487
34	0xbb877587	-0.0041338834
35	0xbc51c60c	-0.012803566
36	0x38e23ac0	0.00010787463
37	0x3bbd4220	0.005775705
38	0x3d7e6773	0.062110376
39	0xbc8afc54	-0.016966023
40	0x3c5bee17	0.013423464
41	0x3b894c0c	0.0041899737
42	0xbcd60fa2	-0.026130501
43	0x3bc18108	0.0059052743
44	0x3bc3b21c	0.00597216
45	0x3ad13eea	0.0015964184
46	0xbba1d85a	-0.004939121
47	0xbc34ca1a	-0.011034513
48	0x3c3f7e50	0.01168783
49	0xbb15c0f8	-0.0022850614
50	0x3ba9635d	0.0051693157
51	0x3bc10bd0	0.0058913007
52	0x3afb2504	0.0019160812
53	0x3b818983	0.0039531603
54	0xba997dca	-0.0011710462
55	0xbb68e2dc	-0.003553561
56	0x3b94c94a	0.004540597
57	0x3b5ba999	0.0033517836
58	0xbbd98caa	-0.006639083
59	0xbb6812ed	-0.0035411671
60	0x39ec16c0	0.00045030378
61	0x3c1fe88c	0.009760033
62	0xbc14756b	-0.009061198
63	0xbc0329c1	-0.00800556
64	0x3ce6fb62	0.02819604
65	0x3b3b77d2	0.0028605354
66	0x3bf48c62	0.007463024
67	0x3b293706	0.002582015
68	0x3b7d7e44	0.0038679997
69	0xba3a1eb7	-0.0007099914
70	0x3b3cf15e	0.002883039
71	0xbaa14cd6	-0.0012306224
72	0x3a366e64	0.00069591985
73	0xb9e02470	-0.00042751757
74	0x3c4f1434	0.012639094
75	0x3b7e45fb	0.0038799036
76	0x3b868170	0.0041047856
77	0xbba324b3	-0.00497874
78	0x3cc8a1c5	0.0244912
79	0xbb9686fe	-0.004593729
80	0x3bbed435	0.005823637
81	0xba437dce	-0.0007457406
82	0x3b8193b2	0.003954374
83	0x3b7fa26d	0.0039006725
84	0xbbed11e5	-0.007234799
85	0xbc5aac46	-0.013346737
86	0xbc40c87e	-0.011766551
87	0x3ac28fb6	0.0014843855
88	0x3c246fbc	0.010036405
89	0xbbecf950	-0.007231869
90	0xbbcdebb0	-0.0062841997
91	0x3b638bad	0.0034720704
92	0x3c445d7c	0.011985179
93	0xbaeb1aa0	-0.0017937012
94	0xbbe17936	-0.0068809045
95	0x3c0dcfde	0.008655516
96	0x3b25abc3	0.002527938
97	0x3b4952a3	0.0030719421
98	0x3be67656	0.0070331497
99	0x3bc53b6b	0.006019046
100	0xbaf87162	-0.0018954689
101	0x3b622a1c	0.0034509962
102	0xbbcc1152	-0.0062276507
103	0x3ba4b2da	0.0050262036
104	0x3a716540	0.0009208508
105	0xbb3dc1b8	-0.0028954577
106	0xbc203f68	-0.009780742
107	0x3cb1a65c	0.021685772
108	0x3d39003e	0.045166247
109	0x3a7af91a	0.0009573862
110	0xbba059fa	-0.0048935385
111	0xbbcebb57	-0.0063089537
112	0x3c916911	0.017750295
113	0xbc2bd20c	-0.010487091
114	0x3a824cda	0.0009941116
115	0x3bc9f2dd	0.0061629848
116	0xb91679e0	-0.00014350517
117	0xbbf12ae7	-0.0073598507
118	0x3bc76b38	0.0060857795
119	0xbb0d8dd2	-0.0021599424
120	0xbc52b556	-0.012860617
121	0x3bdd192f	0.006747387
122	0x3bc97f55	0.0061492124
123	0x3aa3216a	0.0012445871
124	0x3c81a605	0.015826235
125	0xbb53b492	-0.0032303673
126	0xbabc7f14	-0.0014381134
127	0x3a226f78	0.00061964197
128	0xbb50b1ba	-0.0031844215
129	0x3b04143d	0.0020153665
130	0xb74b9580	-1.2134551e-05
131	0x3bc257ea	0.0059308903
132	0x3c2a447c	0.0103923045
133	0xbafa299d	-0.0019085888
134	0xba2ab668	-0.0006512166
135	0xbbc14a8e	-0.00589878
136	0x395ca6d4	0.00021042983
137	0xbc2e26c2	-0.010629358
138	0xba6dd8c9	-0.0009073136
139	0x3ab86668	0.0014068605
140	0x3ce7e7a6	0.0283087
141	0x3b4d3b72	0.003131595
142	0xbb45d9a3	-0.0030189536
143	0x3b851c9f	0.00406225
144	0x3b9e7e2b	0.0048368177
145	0xbc200a07	-0.009768016
146	0xbbd0b0f9	-0.006368753
147	0xbc29f76d	-0.010373932
148	0xbadbb2b2	-0.0016761629
149	0x3bbb386e	0.005713514
150	0xbb42c838	-0.002972139
151	0x3af0ebe7	0.0018380851
152	0xba5dfd7a	-0.0008468252
153	0x3b85530e	0.004068739
154	0xb984a25c	-0.0002529797
155	0xbb3c3c85	-0.0028722596
156	0x3c9ac585	0.018893013
157	0xba76cf0b	-0.0009415007
158	0x3c036c4d	0.008021426
159	0x3b02c2cb	0.0019952531
160	0xbaa15ae0	-0.0012310408
161	0xbafdee62	-0.0019373412
162	0xb9c4f31c	-0.00037565164
163	0x3bb2b09b	0.005453182
164	0xbb1fb4d7	-0.0024369264
165	0x3b145265	0.0022632119
166	0x3b990c49	0.004670654
167	0x3b9f0e12	0.0048539722
168	0x3bd97635	0.006636406
169	0x3b735121	0.0037127214
170	0xbc2ddf32	-0.010612296
171	0x3bf23956	0.007392089
172	0xbaff3862	-0.001947176
173	0xba504801	-0.00079453
174	0x3830e9b8	4.2179337e-05
175	0x3b95df40	0.0045737326
176	0x3984ada9	0.0002530639
177	0xb9a87f68	-0.00032138382
178	0x3c00680b	0.007837306
179	0xb7454380	-1.1757831e-05
180	0x3b37b1f9	0.0028029664
181	0x3a3561d7	0.00069191813
182	0xbb5bbfb7	-0.003353102
183	0xbae2e385	-0.0017310238
184	0xbaf29b95	-0.0018509502
185	0x3ac5b084	0.0015082513
186	0x3b0cd7df	0.0021490974
187	0xbc98a85a	-0.018634964
188	0xba77e42b	-0.0009456302
189	0x3bd076e9	0.0063618314
190	0xbc932850	-0.017963558
191	0xbb820169	-0.0039674533
192	0x3b435cec	0.0029810024
193	0xba6176a8	-0.000860075
194	0x3b0db868	0.0021624807
195	0xbb083e4d	-0.0020789087
196	0x3a15927b	0.0005705726
197	0xb9d2cbfb	-0.000402063
198	0xbb817530	-0.0039507374
199	0xbbd1af58	-0.0063990764
200	0xbaa4bb21	-0.0012567976
201	0x3b908728	0.004410643
202	0x3a488d8c	0.00076504867
203	0x3aaf82fe	0.0013390479
204	0x3b8b243e	0.0042462638
205	0x3b0f6e06	0.0021885647
206	0x3c8f49de	0.017491277
207	0xb9db11bb	-0.00041784145
208	0xbc762394	-0.015023131
209	0x3b393115	0.0028258015
210	0x3b487f76	0.003059355
211	0x3ad2bdec	0.001607833
212	0x3aa08ab4	0.0012248368
213	0xbc21db94	-0.009879012
214	0xbadae6d5	-0.0016700873
215	0x39326730	0.00017013843
216	0xbafecadb	-0.0019439118
217	0x3a874a08	0.0010321746
218	0x3b814b83	0.0039457693
219	0xba498f4e	-0.00076888956
220	0x3b79d4d6	0.0038121245
221	0x3b151294	0.002274667
222	0x395bd816	0.00020965966
223	0xbc08f116	-0.008358261
224	0xba8ce4b8	-0.0010749316
225	0x39f9c657	0.00047640756
226	0x3b3248be	0.0027204002
227	0xbac81095	-0.0015263731
228	0x3b4e9a37	0.0031525025
229	0xbc073256	-0.008251747
230	0xbaf39a82	-0.0018585476
231	0xba900a21	-0.0010989347
232	0xbb2cf77a	-0.0026392625
233	0xbaa650a7	-0.0012688831
234	0xba575053	-0.00082135684
235	0x3c09e064	0.008415315
236	0x3c1f9779	0.009740704
237	0x391cb602	0.00014945123
238	0xbaf82914	-0.0018933141
239	0xb9775317	-0.00023586709
240	0xbc6ce7be	-0.0144595485
241	0x3b4e1140	0.0031443387
242	0xbb397fc7	-0.002830492
243	0xbb419240	-0.0029536635
244	0x3bc8822c	0.0061190333
245	0x3b7d11ce	0.0038615349
246	0x3a262fcd	0.00063395203
247	0x3b56fb69	0.003280366
248	0xbbc4ab8d	-0.0060018958
249	0x3c027ff7	0.0079650795
250	0xbc0111bc	-0.007877763
251	0xbba35bd6	-0.004985313
252	0xbb646b0b	-0.0034853842
253	0x3ac6a1f9	0.0015154473
254	0x3c00caa1	0.0078608105
255	0x3a8b957e	0.001064941

lstm.bias_ih f4 [512]
0	0xbd6e7e14	-0.058225706
1	0xbd540e68	-0.05177155
2	0xbd850a62	-0.06496121
3	0xbd84f79d	-0.06492541
4	0xbe4d0d0c	-0.20024508
5	0x3e81a1c2	0.25318724
6	0xbd72e975	-0.059304673
7	0xbd8280a6	-0.06372194
8	0xbd66b70d	-0.056326915
9	0xbd87adaf	-0.066249244
10	0xbd5ce0a1	-0.05392516
11	0x3dab1e16	0.08355348
12	0x3eb57403	0.35440072
13	0xbdf1ca4b	-0.118061624
14	0xbd90a81b	-0.070633136
15	0xbd95db07	-0.07317167
16	0xbe2296aa	-0.15877786
17	0xbcdc8c3a	-0.026922334
18	0xbda740be	-0.081666455
19	0xbde76adf	-0.11299681
20	0xbd51a650	-0.051184
21	0xbdaeb9b8	-0.08531517
22	0xbd8aa378	-0.067694604
23	0xbd88f436	-0.066872045
24	0xbd90b2bd	-0.070653416
25	0xbdb971e7	-0.09054928
26	0xbd7f9c7b	-0.06240509
27	0xbd7358e9	-0.059410963
28	0x3cf990e8	0.030464604
29	0xbd72faa6	-0.05932107
30	0x3c8a5de2	0.01689047
31	0xbda23f84	-0.07922271
32	0xbd882cca	-0.06649168
33	0xbd3e5239	-0.046465132
34	0x3b344d69	0.002751196
35	0xbd8e98b8	-0.069627225
36	0xbdc0df55	-0.09417597
37	0xbd83deb2	-0.0643896
38	0x3eaec9a0	0.34138203
39	0xbd5c99f1	-0.053857747
40	0xbd4f18c3	-0.050560724
41	0xbd97a017	-0.074035816
42	0x3eeeeede	0.46666616
43	0x3ce29f2d	0.027663792
44	0xbd5eaaed	-0.054362226
45	0xbd68ea12	-0.05686385
46	0xbd88efcb	-0.06686362
47	0xbd142dc6	-0.036176465
48	0xbd3eae4a	-0.046552934
49	0xbd925b7d	-0.07146356
50	0xbd8d9b9e	-0.06914447
51	0xbd790511	-0.060795847
52	0xbcfbc9bf	-0.030735848
53	0xbd54bcf3	-0.05193801
54	0xbdb4cfce	-0.08828698
55	0xbd81fba5	-0.063468255
56	0xbd8b5fa3	-0.06805351
57	0xbda7beba	-0.08190675
58	0xbdaa617b	-0.08319374
59	0xbd8a65cc	-0.067576975
60	0xbd72dd60	-0.05929315
61	0xbcce1551	-0.025156649
62	0xbda7948e	-0.081826314
63	0xbd90ffb5	-0.07080022
64	0xbd981ce6	-0.07427387
65	0xbdb4858b	-0.08814534
66	0xbd9a4e18	-0.075344265
67	0xbd9fe900	-0.07808113
68	0xbd7ce025	-0.0617372
69	0xbdafc9cc	-0.085834116
70	0xbd70d23e	-0.058794253
71	0xbd3dd2e7	-0.04634371
72	0xbdbc190a	-0.09184463
73	0xbd799b4c	-0.06093912
74	0xbd8e8513	-0.06958976
75	0xbd65c34d	-0.056094456
76	0xbd9e1ee2	-0.07720734
77	0xbd73e4f9	-0.059544537
78	0x3f038cf4	0.5138695
79	0xbd8a66d6	-0.06757896
80	0xbe4f7b88	-0.20261967
81	0xbd914a34	-0.07094231
82	0xbd782381	-0.060580734
83	0xbd6feb7e	-0.058574192
84	0xbda72cd9	-0.08162851
85	0x3ef1ef20	0.4725275
86	0xbd33c5f9	-0.043889973
87	0xbdb42ffc	-0.08798215
88	0xbd646022	-0.055755742
89	0xbd80b8b1	-0.06285227
90	0xbd991480	-0.07474613
91	0xbdca9ae0	-0.09892821
92	0xbe519f64	-0.20470959
93	0xbd80d9a4	-0.06291512
94	0xbd6acf4f	-0.05732661
95	0xbd5e25a3	-0.054235112
96	0xbd1b3f94	-0.03790243
97	0xbd8701ff	-0.065921776
98	0xbd42aa0b	-0.047525447
99	0xbded152b	-0.11576303
100	0xbda99ea3	-0.08282211
101	0xbd4c0676	-0.04981085
102	0xbd3b4c09	-0.04572681
103	0xbd72d9e2	-0.05928982
104	0xbd985da1	-0.07439733
105	0xbd852e0b	-0.065029226
106	0xbd9ba9de	-0.07600759
107	0x3ef309f4	0.4746853
108	0xbd4c007d	-0.049805153
109	0xbd5aef6c	-0.053450987
110	0xbd9a1d63	-0.07525136
111	0xbd6a0e4a	-0.057142533
112	0xbe0407ad	-0.12893553
113	0xbd722be7	-0.0591239
114	0xbdc0d561	-0.09415699
115	0xbd7df438	-0.062000483
116	0xbca3d032	-0.019996736
117	0xbd8b4764	-0.06800726
118	0xbd86381b	-0.0655367
119	0xbda41742	-0.080122486
120	0xbdae45ec	-0.0850943
121	0xbd89ee6b	-0.06734928
122	0xbd6eca3c	-0.058298334
123	0xbd9c4b32	-0.0763153
124	0x3d377613	0.04479034
125	0xbd721ca3	-0.05910934
126	0xbd3d4444	-0.04620768
127	0xbd760a67	-0.060068514
128	0xbd8c226b	-0.06842502
129	0xbd6420df	-0.05569541
130	0xbd853875	-0.06504909
131	0xbd522cd2	-0.051312275
132	0xbc13ff04	-0.009032968
133	0xbdd5fa72	-0.10448159
134	0xbd6e2794	-0.058143213
135	0xbd4d6dea	-0.05015365
136	0xbd58cd30	-0.052930057
137	0xbd9a758f	-0.07541954
138	0xbd2e2370	-0.042514265
139	0xbdf2fb2b	-0.11864313
140	0x3d0a06b8	0.033697814
141	0xbda50ab4	-0.08058682
142	0xbd906522	-0.070505396
143	0xbd6ba9c8	-0.057534963
144	0xbf049fa9	-0.5180612
145	0xbd329329	-0.043597374
146	0xbd725edd	-0.0591725
147	0xbed4b58c	-0.4154476
148	0xbd362540	-0.044469118
149	0xbd6c17c3	-0.05763985
150	0xbd93c6f1	-0.072156794
151	0xbd710f70	-0.058852613
152	0xbd56961a	-0.05238924
153	0xbe67bae1	-0.22629882
154	0xbd6058f0	-0.054772317
155	0xbd55f77a	-0.052237965
156	0xbdb0c76c	-0.08631787
157	0xbd804391	-0.06262887
158	0x3caeb45a	0.021326233
159	0xbd808e05	-0.06277088
160	0xbd4ca432	-0.049961276
161	0xbd5022fb	-0.05081461
162	0xbd6e2a7a	-0.058145978
163	0xbd43e0cd	-0.04782181
164	0xbd8b2c18	-0.067955196
165	0xbd86827a	-0.06567855
166	0xbd826b8a	-0.06368168
167	0xbd4e9304	-0.050433174
168	0xbd20b6d4	-0.03923686
169	0xbd89db10	-0.06731236
170	0x3e86b885	0.26312652
171	0xbdefc87f	-0.117081635
172	0xbd473c75	-0.04864164
173	0xbd79cb30	-0.06098479
174	0xbd48b0ae	-0.04899662
175	0xbd5e11f9	-0.05421636
176	0xbdba259d	-0.090892054
177	0xbd72ed4f	-0.059308346
178	0xbd537480	-0.051624775
179	0xbd8adad5	-0.0678002
180	0xbd98c67a	-0.074597314
181	0xbd4ef1d0	-0.05052358
182	0xbda69c62	-0.081352964
183	0xbd8421f1	-0.06451786
184	0xbd5e16c6	-0.054220937
185	0xbd7fcc59	-0.06245074
186	0xbd8cd200	-0.06875992
187	0xbe84b1a8	-0.2591679
188	0xbd60ec2b	-0.054912727
189	0xbe1130e9	-0.14178814
190	0xbe817d5d	-0.25290957
191	0xbd4cce8b	-0.050001662
192	0xbe4e4c02	-0.20146182
193	0xbd76394c	-0.060113236
194	0xbd69bfdc	-0.057067737
195	0xbd88ce2b	-0.066799484
196	0xbd834277	-0.064091615
197	0xbda6a988	-0.08137804
198	0xbd84672d	-0.06464992
199	0xbd81c07a	-0.0633554
200	0xbdb8f367	-0.090308
201	0xbd94decb	-0.07269057
202	0xbd3b68ac	-0.04575412
203	0xbd4f48e8	-0.05060664
204	0xbd8a3117	-0.067476444
205	0xbd99d684	-0.07511619
206	0x3e98a129	0.29810455
207	0xbd6dddfa	-0.05807302
208	0xbea49c6a	-0.32150584
209	0xbd4e20e8	-0.05032435
210	0xbd50c55a	-0.05096946
211	0xbd2fbb0d	-0.042902995
212	0xbd976272	-0.07391824
213	0x3e8c5937	0.27411816
214	0xbd40c41d	-0.04706203
215	0xbdd63aa4	-0.104604036
216	0xbd64e7f2	-0.055885263
217	0xbd606581	-0.0547843
218	0xbd877a7e	-0.066151604
219	0xbd82599d	-0.063647486
220	0xbe85c75d	-0.26128665
221	0xbd4f510e	-0.05061441
222	0xbd48ee68	-0.049055487
223	0xbd5b25eb	-0.05350296
224	0xbd2bce80	-0.04194498
225	0xbd6d1046	-0.057876848
226	0xbd53e8b3	-0.05173559
227	0xbdca5dc0	-0.09881163
228	0xbd8a36aa	-0.067487076
229	0xbd7212bc	-0.059099898
230	0xbcedc925	-0.029026577
231	0xbd4a8183	-0.04943992
232	0xbd8a92b1	-0.067662604
233	0xbd74b4e5	-0.059742827
234	0xbd5d0f4f	-0.053969678
235	0x3e669eb4	0.22521478
236	0xbe4006da	-0.18752614
237	0xbd807f4f	-0.06274282
238	0xbd820795	-0.063491024
239	0xbd62dc3c	-0.055385813
240	0xbe7cd30b	-0.24689882
241	0xbd66bae0	-0.05633056
242	0xbdb38009	-0.08764655
243	0xbd6f2be4	-0.058391467
244	0xbd41ed98	-0.047345728
245	0xbdb29e13	-0.087215565
246	0xbd858d8e	-0.0652114
247	0xbd87607a	-0.06610198
248	0xbdb3b5eb	-0.087749325
249	0xbd58619c	-0.052827463
250	0xbd60f479	-0.054920647
251	0xbda24708	-0.079237044
252	0xbe69bc5c	-0.2282576
253	0xbd5efc10	-0.054439604
254	0xbd2ccbf4	-0.042186692
255	0xbd67d9d4	-0.05660422

lstm.bias_hh f4 [512]
0	0xbd6ea446	-0.058262132
1	0xbd540e68	-0.05177155
2	0xbd850a62	-0.06496121
3	0xbd84f79d	-0.06492541
4	0xbe520b5d	-0.20512147
5	0x3e6e44c3	0.23268418
6	0xbd72e975	-0.059304673
7	0xbd8280a6	-0.06372194
8	0xbd66b70d	-0.056326915
9	0xbd87adaf	-0.066249244
10	0xbd5ce0a1	-0.05392516
11	0x3db2b360	0.08725619
12	0x3ebbe3f9	0.36697367
13	0xbdf1bc93	-0.11803546
14	0xbd90a81b	-0.070633136
15	0xbd95db07	-0.07317167
16	0xbe1b8c7c	-0.1519031
17	0xbcdc8c3a	-0.026922334
18	0xbda740be	-0.081666455
19	0xbdd7991f	-0.105272524
20	0xbd51a650	-0.051184
21	0xbdaeb9b8	-0.08531517
22	0xbd8aa378	-0.067694604
23	0xbd88f436	-0.066872045
24	0xbd90b2bd	-0.070653416
25	0xbdbe6853	-0.09297242
26	0xbd7f9c7b	-0.06240509
27	0xbd7358e9	-0.059410963
28	0x3cda0d92	0.026617799
29	0xbd72faa6	-0.05932107
30	0x3cd81644	0.026377805
31	0xbda23f84	-0.07922271
32	0xbd882cca	-0.06649168
33	0xbd3e5239	-0.046465132
34	0x3b330a16	0.0027319244
35	0xbd8e98b8	-0.069627225
36	0xbdc0df55	-0.09417597
37	0xbd83deb2	-0.0643896
38	0x3eb29d6d	0.3488573
39	0xbd5c99f1	-0.053857747
40	0xbd4f18c3	-0.050560724
41	0xbd97a017	-0.074035816
42	0x3eeebfc9	0.46630695
43	0x3d1a902e	0.037735157
44	0xbd5eaaed	-0.054362226
45	0xbd68ea12	-0.05686385
46	0xbd88efcb	-0.06686362
47	0xbd142dc6	-0.036176465
48	0xbd48855f	-0.048955318
49	0xbd925b7d	-0.07146356
50	0xbd8d9b9e	-0.06914447
51	0xbd790511	-0.060795847
52	0xbcfbcd4e	-0.030737545
53	0xbd54bcf3	-0.05193801
54	0xbdb4cfce	-0.08828698
55	0xbd81fba5	-0.063468255
56	0xbd8b5fa3	-0.06805351
57	0xbda7bd13	-0.0819036
58	0xbdaa617b	-0.08319374
59	0xbd8a7f7a	-0.067625955
60	0xbd72dd60	-0.05929315
61	0x3c446e92	0.011989253
62	0xbd4f65f8	-0.050634354
63	0xbd90ffb5	-0.07080022
64	0xbd67a72a	-0.056555904
65	0xbdb4858b	-0.08814534
66	0xbd9a4e18	-0.075344265
67	0xbd9fe900	-0.07808113
68	0xbd7ce025	-0.0617372
69	0xbdafc9d4	-0.085834175
70	0xbd70d23e	-0.058794253
71	0xbd3dd2e7	-0.04634371
72	0xbdbc1242	-0.0918317
73	0xbd799b4c	-0.06093912
74	0xbd8e8513	-0.06958976
75	0xbd65c34d	-0.056094456
76	0xbd9e1ee2	-0.07720734
77	0xbd73e4f7	-0.05954453
78	0x3f0385d8	0.51376104
79	0xbd8a66d6	-0.06757896
80	0xbe665372	-0.2249277
81	0xbd914a34	-0.07094231
82	0xbd782381	-0.060580734
83	0xbd6feb7e	-0.058574192
84	0xbda72cd9	-0.08162851
85	0x3ef300c0	0.4746151
86	0xbd33c5f9	-0.043889973
87	0xbdb4abc5	-0.08821825
88	0xbd646022	-0.055755742
89	0xbd80b8b1	-0.06285227
90	0xbd991480	-0.07474613
91	0xbdca9a49	-0.09892709
92	0xbe5b6386	-0.21424684
93	0xbd80d9a4	-0.06291512
94	0xbd6acf4f	-0.05732661
95	0xbd5e25a3	-0.054235112
96	0xbd1b3f94	-0.03790243
97	0xbd8701ff	-0.065921776
98	0xbd42aa0b	-0.047525447
99	0xbdee22c6	-0.11627726
100	0xbda99ea3	-0.08282211
101	0xbd4c0676	-0.04981085
102	0xbd3b4bec	-0.0457267
103	0xbd72d9e2	-0.05928982
104	0xbd985da1	-0.07439733
105	0xbd852e09	-0.06502921
106	0xbd9ba9de	-0.07600759
107	0x3ef5f9b5	0.48042074
108	0xbd68e006	-0.05685427
109	0xbd5aef6c	-0.053450987
110	0xbd9a1d63	-0.07525136
111	0xbd6a0e4a	-0.057142533
112	0xbe508be2	-0.20365861
113	0xbd722be7	-0.0591239
114	0xbdc0d51a	-0.09415646
115	0xbd7df438	-0.062000483
116	0xbca346b4	-0.019931175
117	0xbd8b36f0	-0.06797588
118	0xbd86381b	-0.0655367
119	0xbda41742	-0.080122486
120	0xbdaf33e3	-0.085548185
121	0xbd89ee6b	-0.06734928
122	0xbd6eca3c	-0.058298334
123	0xbd9c4b36	-0.07631533
124	0x3d33c727	0.0438911
125	0xbd721ca3	-0.05910934
126	0xbd3d4444	-0.04620768
127	0xbd760a67	-0.060068514
128	0xbd8c224e	-0.068424806
129	0xbd6420df	-0.05569541
130	0xbd853875	-0.06504909
131	0xbd522cd2	-0.051312275
132	0xbb35ee2c	-0.002776037
133	0xbdea057d	-0.11426828
134	0xbd6e2794	-0.058143213
135	0xbd4d6dea	-0.05015365
136	0xbd58cd30	-0.052930057
137	0xbd9a758f	-0.07541954
138	0xbd2e2370	-0.042514265
139	0xbdf35f5a	-0.11883421
140	0x3d207a07	0.039178874
141	0xbda50ab6	-0.080586836
142	0xbd906522	-0.070505396
143	0xbd6ba9c8	-0.057534963
144	0xbef126a4	-0.47099793
145	0xbd329329	-0.043597374
146	0xbd725edd	-0.0591725
147	0xbef337c2	-0.47503477
148	0xbd362540	-0.044469118
149	0xbd6c17c3	-0.05763985
150	0xbd93c6f1	-0.072156794
151	0xbd710f70	-0.058852613
152	0xbd56961a	-0.05238924
153	0xbe674b15	-0.22587235
154	0xbd6058f0	-0.054772317
155	0xbd55f77a	-0.052237965
156	0xbdb048d1	-0.086076386
157	0xbd804391	-0.06262887
158	0x3cc0dab8	0.023541793
159	0xbd808e05	-0.06277088
160	0xbd4ca432	-0.049961276
161	0xbd5022fb	-0.05081461
162	0xbd6e4ccc	-0.058178708
163	0xbd43e0cd	-0.04782181
164	0xbd8b2c18	-0.067955196
165	0xbd86827a	-0.06567855
166	0xbda9f08b	-0.08297833
167	0xbd4e9304	-0.050433174
168	0xbd20b6d4	-0.03923686
169	0xbd89db10	-0.06731236
170	0x3e869561	0.26285842
171	0xbdca305d	-0.09872506
172	0xbd473c75	-0.04864164
173	0xbd79cb30	-0.06098479
174	0xbd48b0ae	-0.04899662
175	0xbd5e11f9	-0.05421636
176	0xbdba0b8f	-0.09084236
177	0xbd72ed4f	-0.059308346
178	0xbd537480	-0.051624775
179	0xbd8adad5	-0.0678002
180	0xbd98c67a	-0.074597314
181	0xbd4ef1d0	-0.05052358
182	0xbda69c62	-0.081352964
183	0xbd8421f1	-0.06451786
184	0xbd5e16c6	-0.054220937
185	0xbd7fcc59	-0.06245074
186	0xbd8cd200	-0.06875992
187	0xbe83ada5	-0.25718418
188	0xbd60ec2b	-0.054912727
189	0xbe105c3e	-0.14097688
190	0xbe8595fb	-0.2609099
191	0xbd4cce8b	-0.050001662
192	0xbe4d6a0e	-0.20059988
193	0xbd76394c	-0.060113236
194	0xbd69bfdc	-0.057067737
195	0xbd88ce2b	-0.066799484
196	0xbd834277	-0.064091615
197	0xbda6a988	-0.08137804
198	0xbd84672d	-0.06464992
199	0xbd81c07a	-0.0633554
200	0xbdb8f365	-0.09030799
201	0xbd94decb	-0.07269057
202	0xbd3b68ac	-0.04575412
203	0xbd4f48e8	-0.05060664
204	0xbd8a3117	-0.067476444
205	0xbd99d684	-0.07511619
206	0x3e98d389	0.2984889
207	0xbd6dddfa	-0.05807302
208	0xbe9c03a3	-0.30471525
209	0xbd4e20e8	-0.05032435
210	0xbd50c55a	-0.05096946
211	0xbd2fbb0d	-0.042902995
212	0xbd976272	-0.07391824
213	0x3e8b45a2	0.27201563
214	0xbd40c41d	-0.04706203
215	0xbdd63951	-0.10460151
216	0xbd64e7f2	-0.055885263
217	0xbd606581	-0.0547843
218	0xbd877a7e	-0.066151604
219	0xbd82599d	-0.063647486
220	0xbe832614	-0.2561499
221	0xbd4f510e	-0.05061441
222	0xbd48ee68	-0.049055487
223	0xbd5b25eb	-0.05350296
224	0xbd2bce80	-0.04194498
225	0xbd6d1046	-0.057876848
226	0xbd53e8b3	-0.05173559
227	0xbdca5e26	-0.09881239
228	0xbd8a36aa	-0.067487076
229	0xbd7212bc	-0.059099898
230	0xbcedc925	-0.029026577
231	0xbd4a8183	-0.04943992
232	0xbd8a92b1	-0.067662604
233	0xbd74b4e5	-0.059742827
234	0xbd5d0f4f	-0.053969678
235	0x3e6c6957	0.23087059
236	0xbe497de9	-0.19676937
237	0xbd807f4f	-0.06274282
238	0xbd820795	-0.063491024
239	0xbd62dc3c	-0.055385813
240	0xbe8339c5	-0.25630012
241	0xbd66bae0	-0.05633056
242	0xbdb38009	-0.08764655
243	0xbd6f2be4	-0.058391467
244	0xbd41ec9c	-0.04734479
245	0xbdb29e11	-0.08721555
246	0xbd858d8e	-0.0652114
247	0xbd87607a	-0.06610198
248	0xbdb3bbed	-0.087760784
249	0xbd58619c	-0.052827463
250	0xbd60f479	-0.054920647
251	0xbda24708	-0.079237044
252	0xbe692009	-0.22766127
253	0xbd5efc10	-0.054439604
254	0xbd2ccbf4	-0.042186692
255	0xbd67d9d4	-0.05660422

output_w.weight f4 [5, 128]
0	0xbc1df583	-0.009641054
1	0xbbe020a6	-0.0068398295
2	0xbc3e36ea	-0.011609772
3	0x3a527694	0.0008028534
4	0xbced3bd9	-0.028959202
5	0xbca3a379	-0.01997541
6	0xbb9a1085	-0.0047016763
7	0xba806472	-0.000979556
8	0x3b36283c	0.0027794978
9	0xbb31a788	-0.0027107913
10	0xbb6312a0	-0.0034648553
11	0xbd46e8b5	-0.04856177
12	0xbca597ba	-0.02021395
13	0xb9fb773f	-0.00047963296
14	0xbb4b677e	-0.0031037028
15	0x3ad10e98	0.0015949784
16	0xbeb96739	-0.36211565
17	0x3b2a1b69	0.002595628
18	0xba687f38	-0.0008869055
19	0x3e48fe73	0.19628315
20	0x3c771143	0.015079799
21	0xb8bd7938	-9.034801e-05
22	0x3bb62394	0.0055584405
23	0xbb68fde2	-0.0035551717
24	0xbba2a815	-0.0049638846
25	0x3d36c8cc	0.04462509
26	0xba2a4620	-0.0006495435
27	0x3c08a51f	0.008340149
28	0xbd00cd86	-0.031446002
29	0xbacdbd0a	-0.0015696597
30	0x3cd22171	0.025650712
31	0x3c4c6fd7	0.012477837
32	0xbc631489	-0.013859876
33	0x3a8bb7c4	0.0010659625
34	0x3bf7d70c	0.0075634774
35	0x3bb721ae	0.0055887317
36	0x3bc2edac	0.005948743
37	0xbc03d094	-0.008045334
38	0x3cd498d8	0.025951788
39	0xba61384c	-0.0008591458
40	0xbc67bc97	-0.014144084
41	0xbbbdcad4	-0.0057920013
42	0x3c706727	0.014673031
43	0xbd9e4b4c	-0.077292055
44	0x3b450a9a	0.0030066133
45	0x3b03e016	0.002012258
46	0x3c3a466f	0.011369332
47	0xbace2bba	-0.0015729584
48	0xbc28f61b	-0.010312582
49	0x3c189ad9	0.009314262
50	0xbb2b9942	-0.0026183878
51	0xbc029f31	-0.0079725245
52	0xba8d96aa	-0.0010802348
53	0x3b97aec2	0.004628987
54	0xbabdcfba	-0.0014481463
55	0xb9fc59a0	-0.0004813196
56	0xbbe5ea3e	-0.0070164492
57	0xbc4cafa8	-0.012493052
58	0x3b55bdf2	0.0032614437
59	0x3d955461	0.072914846
60	0xbbe83cbf	-0.0070873196
61	0xbe07359c	-0.13204044
62	0x3dbdbb89	0.09264285
63	0x3c468cf6	0.012118569
64	0xbca1bd51	-0.019743593
65	0xbc2740f4	-0.010208357
66	0x3b8fd0d4	0.004388908
67	0x3b5f5dd3	0.0034083023
68	0xbc6a067a	-0.014283771
69	0xbc510167	-0.012756682
70	0x3b1479eb	0.0022655677
71	0xba33f39f	-0.00068646105
72	0xbbf2df0f	-0.0074118446
73	0x3a10956d	0.000551543
74	0x3a8f3d02	0.0010928216
75	0xbbd49df0	-0.006488554
76	0x39027d40	0.00012444425
77	0x3b6c09b6	0.003601653
78	0xbe497fc6	-0.19677648
79	0xbb8fb6b7	-0.004385795
80	0x3e91841f	0.28421113
81	0x3bf03c17	0.007331382
82	0xbb5278b9	-0.0032115413
83	0xbb95c68c	-0.004570788
84	0xba6e99e0	-0.00091019087
85	0x3e2f7358	0.17133844
86	0x3c21c532	0.009873675
87	0xbd26abf4	-0.04069133
88	0xbb0b670a	-0.0021271133
89	0x3a430dc2	0.000744071
90	0xbb48c373	-0.0030634075
91	0xbc37466d	-0.011186224
92	0xbdb4b0fc	-0.088228196
93	0xbaf3946c	-0.0018583662
94	0x39a7a59c	0.0003197611
95	0xba938292	-0.0011254123
96	0x3c09190d	0.008367789
97	0xbc43c646	-0.011949128
98	0xbc186e38	-0.009303622
99	0x3c3260be	0.010887323
100	0x3a97eab6	0.0011590335
101	0x3b3a586d	0.0028434054
102	0x3c8cd411	0.017190965
103	0x3b4bcf10	0.003109876
104	0x391442a7	0.0001413921
105	0x3bd1d160	0.0064031333
106	0x39f42688	0.00046568015
107	0x3ccbe9aa	0.024891693
108	0xbdf24016	-0.1182863
109	0x3c20e026	0.009819066
110	0xbb2254af	-0.0024769714
111	0x3bf10927	0.0073558274
112	0x3dc9ec90	0.09859574
113	0x3ae8c106	0.0017757721
114	0xbb9640d7	-0.004585366
115	0x3ab3e4aa	0.0013724763
116	0xbc7307df	-0.01483342
117	0xbb7f951f	-0.0038998795
118	0xbbd8fb88	-0.0066217817
119	0x3afbce8c	0.0019211336
120	0xba7e67b2	-0.0009704783
121	0xbb87e90a	-0.0041476535
122	0x3b14e475	0.0022719179
123	0x3b61d2b2	0.003445786
124	0xbc00e1f3	-0.0078663705
125	0xbb406bfa	-0.0029361234
126	0xba2b1355	-0.0006526013
127	0xbbc63e15	-0.006049881
128	0x3cf43972	0.029812548
129	0x3ba76c84	0.0051093716
130	0xbb8e4f98	-0.0043429844
131	0xb999d3ba	-0.00029340183
132	0xbdd577e7	-0.1042326
133	0xbda553ab	-0.08072599
134	0xbaac27eb	-0.0013134455
135	0x3bd6785d	0.00654511
136	0xbae2700c	-0.0017275824
137	0x3c04ba90	0.008101121
138	0x3aa7ba98	0.0012796698
139	0x3d4117d9	0.047141884
140	0x3d0166c6	0.031592153
141	0xbcb5db67	-0.022199346
142	0x3c2219f6	0.009893885
143	0xbc09e7f9	-0.008417123
144	0x3f0edcf5	0.55805904
145	0x3b32e3cb	0.002729642
146	0x3c435e4b	0.011924337
147	0x3edbe342	0.4294682
148	0xbc5affaf	-0.013366624
149	0xbc08d660	-0.008351892
150	0xbb9d0c57	-0.004792731
151	0xbc1687f3	-0.009187686
152	0xbc0370c7	-0.008022494
153	0xbd4f9f51	-0.050689045
154	0x3b5ffc8f	0.0034177636
155	0xbc305e09	-0.010764607
156	0xbd1b4a00	-0.03791237
157	0xbb92f2d8	-0.0044845156
158	0x3d7c5c26	0.061611317
159	0xbb3afbc4	-0.0028531412
160	0x3c3c7942	0.0115035195
161	0x3b4dc8f1	0.0031400288
162	0x3c9371c6	0.017998587
163	0xbbde340c	-0.006781107
164	0x3c47546a	0.012166122
165	0x3a561947	0.0008167219
166	0xbd0c0e97	-0.0341936
167	0xbbb954ba	-0.005655852
168	0x3b94f2ec	0.00454556
169	0xbbdc0b74	-0.0067152325
170	0x3dc55d80	0.09636974
171	0x3e012a5f	0.1261382
172	0xba76b366	-0.0009410888
173	0x3c145281	0.009052874
174	0xbc050116	-0.008117935
175	0xb94310d8	-0.00018602924
176	0x3bb3a05c	0.005481763
177	0xbbbc4ab4	-0.00574621
178	0x3b0d2078	0.0021534245
179	0x3a1e3c21	0.00060361816
180	0xbc42cf9b	-0.011890317
181	0xbaab52e1	-0.0013070964
182	0x3b0d85a4	0.0021594549
183	0xbc097f01	-0.0083920965
184	0x3b943339	0.004522708
185	0x3b8101c1	0.0039369767
186	0xbb66254d	-0.0035117448
187	0xbd1ba571	-0.037999574
188	0x3b06f540	0.0020592958
189	0xbd4c6b30	-0.04990691
190	0xbd4ce380	-0.05002165
191	0xbbedb7ae	-0.0072545623
192	0xbe179d8b	-0.14806192
193	0x3c25fe32	0.010131406
194	0xbb561a65	-0.003266954
195	0x3b5dc743	0.0033840693
196	0x3b4782bb	0.0030442912
197	0x3c9df155	0.019280115
198	0x3b02ed39	0.0019977822
199	0x3b202048	0.0024433304
200	0xbc21b7fc	-0.009870525
201	0x3bb3cbd6	0.0054869456
202	0x3be4155b	0.0069605536
203	0x3acad5ae	0.0015475058
204	0x3b43d4d7	0.00298815
205	0x3a9f8e4a	0.0012173143
206	0xbd01b2e4	-0.031664744
207	0xb9b672f0	-0.0003479938
208	0x3dae4957	0.08510082
209	0xbc7cb3d1	-0.015423731
210	0xbb8ed960	-0.004359409
211	0x3963c81c	0.00021722954
212	0x3ad8bb98	0.00165354
213	0xbd87545c	-0.06607887
214	0xbb5e6ddd	-0.0033939995
215	0x3c1d484e	0.009599758
216	0xbb2fad6a	-0.0026806244
217	0xbb4d6f72	-0.0031346944
218	0x3911e628	0.00013914017
219	0x3bf066a6	0.0073364554
220	0xbcd8155f	-0.026377378
221	0xbb659477	-0.003503112
222	0xbb4083c1	-0.0029375406
223	0x3bdb26c3	0.0066879704
224	0x3be52c74	0.0069938246
225	0x3bdd8e35	0.006761337
226	0x3bfef723	0.007780926
227	0xbcc328c7	-0.023823155
228	0xbb167918	-0.002296036
229	0x3b5a3c5d	0.003330014
230	0xbcb50f72	-0.022102091
231	0x3bb170a8	0.005415041
232	0x3c0b58f5	0.008505096
233	0xbc3e739a	-0.011624241
234	0x3a030aa1	0.0004998837
235	0x3dceb58d	0.10093222
236	0xb6a4c180	-4.9101072e-06
237	0xbbc36509	-0.005962972
238	0x3c000016	0.0078125205
239	0xbc3af4ca	-0.011410901
240	0x3db13fe3	0.086547635
241	0xbb4e005e	-0.0031433324
242	0x3c090323	0.008362564
243	0x3c0e2e19	0.008677983
244	0x3a2f8f20	0.00066970475
245	0x3850dc40	4.979619e-05
246	0x3b78fb3f	0.0037991551
247	0xbb21fe57	-0.0024718249
248	0x3d65e99d	0.056130994
249	0xb972f0c6	-0.00023168614
250	0x3aa44529	0.0012532818
251	0xbc1ae049	-0.009452888
252	0x3d13a594	0.03604658
253	0xbba97092	-0.00517089
254	0xbbb7291a	-0.0055896165
255	0xbb111378	-0.0022136848

output_w.bias f4 [5]
0	0xbd1f8a88	-0.038950473
1	0x3d74fd87	0.059812095
2	0xbf6a82bc	-0.91605735
3	0xbf773747	-0.9656872
4	0xbde702fb	-0.11279865

square_avg f4 [64]
0	0x3e0a9baf	0.13535951
1	0x3e539c99	0.20665206
2	0x3d9678ea	0.07347281
3	0x31ac53d5	5.0153894e-09
4	0x38e5bcc6	0.00010954733
5	0x3d134690	0.035955966
6	0x3d249906	0.040184997
7	0x3af2c5df	0.0018522105
8	0x3c7b70b4	0.015346695
9	0x382ae751	4.074659e-05
10	0x3d819246	0.063267276
11	0x3d35251b	0.04422484
12	0x3e024414	0.12721282
13	0x3c336f42	0.010951819
14	0x3c0c02bd	0.008545575
15	0x3d09e05d	0.033661235
16	0x3d858439	0.0651936
17	0x3622ab72	2.4239675e-06
18	0x3cbcf9e4	0.023068376
19	0x3f5d0273	0.8633186
20	0x3a8a0698	0.001053053
21	0x3d8e01e0	0.069339514
22	0x3ad57c53	0.0016287662
23	0x3a985808	0.0011622915
24	0x3d7685c5	0.060186166
25	0x339c32c3	7.2735496e-08
26	0x3df7be36	0.12096827
27	0x38297762	4.0403924e-05
28	0x3dec2fde	0.115325674
29	0x3df288e6	0.118425176
30	0x3e43649c	0.19081348
31	0x3b76d111	0.0037661234
32	0x3c70dd18	0.01470115
33	0x3ea2a992	0.31769997
34	0x3e07f226	0.13275966
35	0x3d2caea0	0.042158723
36	0x3deb6c99	0.11495323
37	0x3da2bb5b	0.079458915
38	0x3bad6797	0.00529189
39	0x3c9ae0ee	0.018906083
40	0x3d00e25a	0.031465866
41	0x314b864b	2.9616725e-09
42	0x3ab57eb8	0.0013846969
43	0x3c9fc3b6	0.019502502
44	0x3657f5df	3.2180612e-06
45	0x39cf69a8	0.00039560837
46	0x3d29f2b4	0.041491225
47	0x3c521ad2	0.012823777
48	0x3af9cefa	0.0019058876
49	0x3e883f3d	0.26610747
50	0x2fcab292	3.6870468e-10
51	0x3cf9de90	0.030501634
52	0x2e120057	3.319686e-11
53	0x2d15d2ec	8.5165035e-12
54	0x3d7bd7f1	0.061485235
55	0x3b3aea8c	0.0028521148
56	0x3c9bcc41	0.019018294
57	0x30222adc	5.8996164e-10
58	0x2d873892	1.5372845e-11
59	0x3d70d4ca	0.05879668
60	0x3cc46549	0.023974078
61	0x3cd18727	0.025577141
62	0x3b865440	0.004099399
63	0x3d37e9f7	0.04490086

square_avg f4 [5]
0	0x40dbc0cd	6.8672853
1	0x40e0aa85	7.0208154
2	0x3d7acace	0.061228566
3	0x3e782448	0.2423259
4	0x3cc815ca	0.024424452
