S-LSTM/Goal+Socail_Array_PyTorch/social_lstm/save/0/social_model_epoch_14.pth (torch, 815071 bytes, 22 tensors)

embedding_b f4 [64]
-0.05291351 0.33467695 0.26456228 -0.00016327004 -3.5139042e-08 -0.006615638 -0.10263562 -1.2028328e-06
-0.15452969 -4.0824167e-12 0.023373026 -0.050058022 -0.1875638 -0.09672553 -0.02029471 -2.5581046e-05
-0.02635434 -0.0039014544 -0.17470065 -0.060689993 -0.004477695 -0.031071745 -0.011066851 -0.01989935
-0.04603357 -0.020648643 0.039010208 -0.014387901 0.353905 -0.15181541 -0.028416323 -0.03429632
-0.0772669 -0.00934822 0.083792575 -0.040218536 0.19158632 0.0797827 -0.010908405 -0.15705764
-0.037499793 -0.009946059 -1.8249849e-10 -0.029227026 -0.007324961 -0.017291851 0.0021251831 0.054793295
-0.15755954 0.13723077 0.02382805 0.060264472 -4.596609e-06 -3.424884e-07 0.047404174 -0.07011069
-0.020550128 -1.93199e-07 -0.0030854992 0.09400412 0.132167 0.096969694 -0.13353306 -0.026675256
00000000: d6bb 58bd c75a ab3e b574 873e 7833 2bb9
00000010: c9eb 16b3 fec7 d8bb a032 d2bd 0571 a1b5
00000020: 083d 1ebe 24a3 8fac ca78 bf3c a409 4dbd
00000030: ba10 40be 0918 c6bd 1741 a6bc e196 d6b7
00000040: 0fe5 d7bc 8baf 7fbb bae4 32be 1296 78bd
00000050: a1b9 92bb 2c8a febc bd51 35bc f603 a3bc
00000060: b28d 3cbd 5827 a9bc 2bc9 1f3d 3bbb 6bbc
00000070: 0933 b53e 8075 1bbe 59c9 e8bc 4c7a 0cbd
00000080: 1c3e 9ebd 4729 19bc 719b ab3d 31bc 24bd
00000090: 342f 443e 1d65 a33d 2bb9 32bc b8d3 20be
000000a0: 6299 19bd ccf4 22bc c2a8 48af 846d efbc
000000b0: 3a06 f0bb a4a7 8dbc a846 0b3b ef6e 603d
000000c0: 4a57 21be 3986 0c3e 0b33 c33c e1d7 763d
000000d0: 923c 9ab6 3fdf b7b4 e12a 423d 3296 8fbd
000000e0: be58 a8bc 2372 4fb4 1636 4abb 3b85 c03d
000000f0: c956 073e 0c98 c63d e4bc 08be 1186 dabc

output_b f4 [5]
0.032218844 -0.00658909 -0.8948709 -0.8556318 -0.07737507
00000000: e8f7 033d 4be9 d7bb 4216 65bf b00a 5bbf
00000010: d276 9ebd

embedding_w.weight f4 [64, 4]
0.28615296 -0.69197816 -0.116936095 0.2850618 0.133141 1.4151781 -0.10637732 0.37288037
-1.156805 -0.74111503 -0.15506771 -0.09982833 -3.9206788e-27 2.0155961e-09 2.4900047e-24 3.5104235e-06
-3.7779443e-21 -4.1960045e-21 1.1501268e-18 3.6225606e-28 0.5777122 -0.5701911 0.3716195 0.46538445
0.54868746 0.7441548 0.14900428 0.020245858 1.1527544e-17 -1.2324617e-13 -6.0030995e-18 -5.3290322e-14
0.07558264 0.24587736 -0.039839674 0.31868738 -7.238553e-19 3.6116735e-12 5.9443587e-19 3.842595e-12
-0.60904527 0.571795 0.33587053 -0.398567 -0.37830088 0.05016217 -0.35382065 0.054342683
0.54998755 -0.28557554 -0.52974284 0.4387506 0.96993357 0.21621026 0.11388307 0.21196744
0.14009093 0.040294364 0.2112104 0.117275044 1.7808353e-14 8.6508006e-29 1.0175217e-13 -1.6217447e-28
0.021645831 0.03745325 0.13405205 -0.03562923 -1.1491831e-05 1.14456725e-05 3.2803584e-19 7.89919e-05
0.34782302 -0.5448799 0.2843121 -0.41159502 0.9845038 0.31878528 -1.0148153 -0.3149602
0.008131014 -0.0013012664 0.013044136 0.0023441163 0.07484445 0.05670887 0.29201892 -0.060315076
0.00638241 -0.0016263875 -0.0014987683 -0.0014853992 0.011571381 0.030375937 -0.008467141 0.02541608
-0.3307449 0.2286272 0.58639735 0.10824873 -0.010614019 0.0039817235 0.09926574 0.020998104
-0.81247675 -1.2153211 0.106246956 -0.8998874 -0.0035362593 -0.0027829765 0.018769866 -0.022311436
-1.3190708 -0.8022526 -0.028288333 0.059961192 -0.5249305 -0.4904141 0.566596 0.62866557
0.18951671 0.12456029 0.2642095 -0.16505317 -0.8088919 0.28401387 -0.017279562 0.21575037
-0.72221416 0.6193873 -0.203484 -0.23939162 0.28790194 1.1530799 -0.104764484 -0.3407223
1.4121052 -0.22870247 0.16914748 0.42544863 0.77392447 0.66111624 0.026870577 0.26656362
-0.69988877 1.3117284 0.007694397 0.5469597 1.297873 -0.99630004 0.2377969 -0.45821062
0.01124284 -0.008309817 0.0022091253 0.0039366283 -0.18506454 0.31320894 0.2570439 -0.045146715
1.3503034 0.4150214 0.064555466 0.27887258 0.0024661548 0.00067113986 0.01967522 0.0022447277
8.5055144e-18 -3.704841e-18 3.1080805e-17 3.430857e-20 -0.11097406 0.20939122 0.2171959 0.09617682
-0.0017271424 -1.3169607e-07 0.00043899502 -2.0067301e-09 0.007166814 0.0135339275 -0.037017684 0.001477641
0.14865942 1.031167 0.009132818 -0.0011023066 -0.37019283 0.7912823 0.11914576 0.038652975
0.37492698 0.4373023 0.093078844 0.1623777 -0.59303194 -1.1746227 -0.17204726 0.17696947
-0.058819607 -0.009867533 -0.04090484 -0.020600252 -1.255484 0.9211926 -0.25947183 0.14161816
-9.25958e-14 1.6974582e-08 -3.4328738e-28 8.0897455e-11 -1.8490881e-17 1.126978e-17 8.252275e-28 1.29552e-13
0.31451753 -1.0040495 -0.098188795 -0.03555706 0.6928841 -0.47364333 0.08148666 -0.3042341
0.6211081 -0.5187221 -0.20457682 0.16121821 6.45229e-19 4.8067218e-26 -3.4958514e-19 3.665647e-14
-2.8303429e-11 0.00023428659 7.001677e-07 -0.0001984015 -1.0825312 -0.7818997 -0.03421025 -0.014509981
-0.5248652 -1.0868974 -0.16321312 0.034954026 1.028053 0.962907 0.07373385 0.06841041
-0.60333085 0.2605451 0.07751502 0.12748408 -1.1786041 0.73158586 -0.23614584 -0.043525804
00000000: a482 923e 7b25 31bf 317c efbd 9ff3 913e
00000010: 1d56 083e 8e24 b53f 5adc d9bd 2dea be3e
00000020: 3012 94bf b7b9 3dbf 12ca 1ebe cc72 ccbd
00000030: 6850 9b93 be82 0a31 a0a7 4018 9e94 6b36
00000040: 09ba 8e9d 4485 9e9d 90ba a921 689b e511
00000050: f2e4 133f 0bf8 11bf e944 be3e df46 ee3e
00000060: c876 0c3f ee80 3e3f 9494 183e a4da a53c
00000070: 4aa5 5423 4ac3 0aaa ac79 dda2 8fff 6fa9
00000080: 12cb 9a3d 46c7 7b3e ed2e 23bd fe2a a33e
00000090: f6a4 55a1 2026 7e2c 4e72 2f21 0533 872c
000000a0: 64ea 1bbf 2861 123f 39f7 ab3e f910 ccbe
000000b0: a7b0 c1be d976 4d3d fb27 b5be 6f96 5e3d
000000c0: fccb 0c3f f536 92be 3a9d 07bf eba3 e03e
000000d0: 914d 783f 3966 5d3e 873b e93d fe0d 593e
000000e0: ff73 0f3e b40b 253d 8a47 583e e62d f03d
000000f0: 4467 a028 e852 db10 2220 e529 a094 4d91
00000100: 9952 b13c 9468 193d f144 093e f5ef 11bd
00000110: 0acd 40b7 ca06 4037 60a3 c120 74a8 a538
00000120: dc15 b23e 407d 0bbf 5b91 913e 95bc d2be
00000130: 7108 7c3f d337 a33e 78e5 81bf 7742 a1be
00000140: f237 053c 418f aaba 12b7 553c bf9f 193b
00000150: 0c48 993d 8f47 683d 8183 953e f10c 77bd
00000160: 8923 d13b 822c d5ba 5272 c4ba bab1 c2ba
00000170: e495 3d3c f5d6 f83c c3b9 0abc 6235 d03c
00000180: 6557 a9be 401d 6a3e 231e 163f 83b1 dd3d
00000190: 6ce6 2dbc 1e79 823b d64b cb3d 3704 ac3c
000001a0: 7afe 4fbf a48f 9bbf 0198 d93d 055f 66bf
000001b0: 96c0 67bb 9962 36bb 43c3 993c 79c6 b6bc
000001c0: 50d7 a8bf 6d60 4dbf efbc e7bc de99 753d
000001d0: d861 06bf 8f17 fbbe 6f0c 113f 3af0 203f
000001e0: ab10 423e 7719 ff3d 7846 873e b303 29be
000001f0: 8a13 4fbf 446a 913e de8d 8dbc aaed 5c3e
00000200: 07e3 38bf 2b90 1e3f 1c5e 50be 1423 75be
00000210: e267 933e 1f98 933f c38e d6bd 2773 aebe
00000220: ddbf b43f fb30 6abe ff34 2d3e 67d4 d93e
00000230: ea1f 463f ea3e 293f af1f dc3c 077b 883e
00000240: e92b 33bf b7e6 a73f 4821 fc3b 8d05 0c3f
00000250: b420 a63f 850d 7fbf 0881 733e 959a eabe
00000260: e433 383c e625 08bc f9c6 103b d5fe 803b
00000270: 8f81 3dbe ec5c a03e 429b 833e c3eb 38bd
00000280: bed6 ac3f af7d d43e a835 843d 63c8 8e3e
00000290: 369f 213b 6fef 2f3a ed2d a13c 481c 133b
000002a0: 28e6 1c23 3caf 88a2 bd55 0f24 8404 221f
000002b0: 5e46 e3bd a76a 563e 9a68 5e3e 5af8 c43d
000002c0: 4861 e2ba 5768 0db4 ea28 e639 c5e6 09b1
000002d0: 98d7 ea3b 68bd 5d3c db9f 17bd 68ad c13a
000002e0: 2d3a 183e 48fd 833f d1a1 153c 467b 90ba
000002f0: ea89 bdbe 7a91 4a3f b102 f43d 9552 1e3d
00000300: 6ef6 bf3e 16e6 df3e 1fa0 be3d 5746 263e
00000310: f1d0 17bf 095a 96bf 282d 30be 7c37 353e
00000320: d4ec 70bd 6fab 21bc d58b 27bd dcc1 a8bc
00000330: b3b3 a0bf 47d3 6b3f 7ed9 84be 5a04 113e
00000340: d881 d0a9 80cf 9132 9095 d991 38e5 b12e
00000350: 5c8c aaa3 08e4 4f23 34c3 8212 d2dc 112a
00000360: 7108 a13e b284 80bf 3517 c9bd 48a4 11bd
00000370: da60 313f 6181 f2be 7ae2 a63d 92c4 9bbe
00000380: f100 1f3f f9ca 04bf 967c 51be 6316 253e
00000390: 2070 3e21 7004 6e15 d05b cea0 0816 2529
000003a0: a8f5 f8ad d4aa 7539 28f3 3b35 ff09 50b9
000003b0: 6290 8abf 942a 48bf 0c20 0cbd 45bb 6dbc
000003c0: 915d 06bf 741f 8bbf 5721 27be f42b 0f3d
000003d0: 3e97 833f 1381 763f c601 973d c21a 8c3d
000003e0: e473 1abf 2b66 853e 32c0 9e3d 308b 023e
000003f0: 80dc 96bf 3649 3b3f 37d0 71be 1d48 32bd

embedding_w.bias f4 [64]
0.08173908 0.1377334 0.13239786 -0.00016327004 -3.5139042e-08 -0.03407202 -0.045120906 -1.2028328e-06
0.14731215 -4.0824167e-12 -0.0377926 -0.0018839746 0.1477563 0.2093358 -0.02029471 -2.5581046e-05
-0.02635434 -0.0039014544 0.09948318 -0.012899921 -0.004477695 -0.031071745 -0.011066851 -0.01989935
-0.04603357 -0.020648643 -0.10617872 -0.014387901 0.15861973 0.125863 -0.028416323 -0.031554457
0.22922984 0.006633959 0.3718646 0.26246166 0.00104594 -0.061189566 -0.010908405 0.10342177
0.048126876 -0.009946059 -1.8249849e-10 -0.029227026 -0.007324961 -0.017291851 -0.025232194 -0.11158399
0.042921063 0.12411596 0.02382805 -0.12558451 -4.596609e-06 -3.424884e-07 0.033113696 -0.07011069
0.004477703 -1.93199e-07 -0.0030854992 0.3739075 -0.13759834 -0.13250095 0.11489466 -0.2667454
00000000: d266 a73d fc09 0d3e 4e93 073e 7833 2bb9
00000010: c9eb 16b3 1a8f 0bbd b3d0 38bd 0571 a1b5
00000020: ffd8 163e 24a3 8fac 6acc 1abd b3ef f6ba
00000030: 6d4d 173e 205c 563e 1741 a6bc e196 d6b7
00000040: 0fe5 d7bc 8baf 7fbb d6bd cb3d 315a 53bc
00000050: a1b9 92bb 2c8a febc bd51 35bc f603 a3bc
00000060: b28d 3cbd 5827 a9bc 3b74 d9bd 3bbb 6bbc
00000070: 366d 223e 3be2 003e 59c9 e8bc 3f3f 01bd
00000080: 3abb 6a3e ae61 d93b 0965 be3e 6061 863e
00000090: ec17 893a e9a1 7abd 2bb9 32bc cbce d33d
000000a0: b020 453d ccf4 22bc c2a8 48af 846d efbc
000000b0: 3a06 f0bb a4a7 8dbc bfb3 cebc 2686 e4bd
000000c0: ffcd 2f3d 8230 fe3d 0b33 c33c 3a99 00be
000000d0: 923c 9ab6 3fdf b7b4 3aa2 073d 3296 8fbd
000000e0: b2b9 923b 2372 4fb4 1636 4abb ce70 bf3e
000000f0: 94e6 0cbe 54ae 07be e44d eb3d da92 88be

embedding_t_w.weight f4 [1, 8]
0.9425163 -0.31751692 0.08596234 -0.4793712 0.072372355 -0.06753624 0.4417769 -0.51855946
00000000: c048 713f 9491 a2be 060d b03d 2470 f5be
00000010: f537 943d 7150 8abd 9530 e23e 50c0 04bf

lstm.weight_ih f4 [512, 65]
-0.026735073 0.05114616 -0.038974766 8.751e-42 0.00015085199 -0.049687665 -0.018418582 2.3986904e-05
-0.035258785 -2.7356396e-07 0.07467749 -0.008263132 -0.04201295 -0.01800331 -0.008619251 3.6168635e-06
0.0041732136 -7.5452226e-06 -0.015197361 0.040317405 1.4960326e-14 0.0070561855 -1.6588284e-23 4.2173528e-05
-0.018445062 0.002568539 -0.07043775 0.0003937999 -0.052238446 -0.0545795 0.013026971 -0.027877782
0.08002503 0.070612125 -0.03367456 -0.0008984942 0.04246019 -0.04240765 -5.6295496e-05 0.0098986365
-0.035745747 8.7913415e-20 0.00034002878 -0.014700015 -0.00014543431 5.0770467e-14 0.034898512 0.035329804
-0.027353281 -0.069820195 0.010400477 -0.009583604 -8.503931e-14 1.295843e-05 -0.047363695 -0.0029121726
-0.0025619604 -0.00035474251 1.51811e-40 -0.049150534 -0.07617229 0.012041746 -0.019588498 0.0057608597
-0.015995646 -0.009639228 -0.06731539 -0.043483485 -0.0001517866 -3.141147e-05 0.004938773 -0.015956815
3.3710894e-05 -0.008769603 4.6990515e-08 0.02863133 0.01580782 -0.010184554 -0.018388355 -0.010596146
0.0051191235 -0.0032710573 0.0013365371 -0.0022369886 -0.0030802567 0.00040537922 -0.001997966 -0.00013435475
5.3689767e-08 -0.0052546673 -0.0002503137 -0.023697823 -8.94918e-07 -0.06534114 0.0019943342 0.004312925
0.0035601484 0.004168191 0.018771458 -0.04580278 -0.029152187 -0.034523223 0.0019107045 1.038041e-15
0.005750162 -0.0182389 3.4713812e-05 -4.5004163e-07 -0.01103125 2.3762282e-06 -8.756266e-14 -0.0026889632
0.0057119736 -0.016282622 -0.03836322 0.0026275238 -0.0033398562 3.16987e-06 0.00012508391 -0.024011914
0.0022174185 -0.012425247 -5.3055366e-05 4.405032e-06 -0.06683362 -0.004717418 -0.012749724 0.005699168
0.012837756 -0.015440345 -0.0033106173 -0.049651846 -0.018120443 3.126525e-08 3.881155e-05 -0.0064520338
-0.005398807 0.005514505 -0.008993399 -3.970322e-06 0.021778276 0.0070411307 -0.0031943114 -0.026634699
-0.003848065 -0.0014825752 -0.0019799129 -2.6192316e-05 -0.0074432776 -0.004633039 -0.0024017752 -0.007655269
-0.00034478202 -1.813581e-07 -0.0013337176 -3.918824e-06 -0.005054368 1.6996e-06 -0.03755571 -0.00011400394
-0.0087878695 0.004561821 0.015598478 0.015798975 -0.055109613 -0.036006268 -0.024022244 -0.017789554
1.3999904e-06 0.005144016 -0.026031023 -2.7815895e-07 0.0036120508 3.716536e-05 0.003911916 9.713107e-09
0.0029068505 0.0040343916 -0.004954796 -0.012275932 0.009927107 0.00852962 -0.005294273 5.6894737e-07
-0.013454508 -0.007187299 -0.0068029435 6.8922327e-06 0.00013592045 -0.035188355 0.0051134364 -0.022264188
0.0049616923 0.012896007 -0.024637306 0.0050965054 -0.054880813 -0.032515377 -0.00024222108 -9.05712e-07
-0.00035387813 -0.005779342 -1.2833974e-08 -0.009524682 -0.0002094775 0.0034064911 0.006032108 0.00068730046
-0.019760096 -0.0011984027 -3.0025774e-05 -0.0006136204 0.0003450769 -0.0051552523 0.00068272173 -0.003791159
-0.00038489758 4.0611267e-05 -7.8870513e-19 0.0027082101 -1.2903867e-05 -0.013569955 1.9201862e-06 -0.051321186
0.0023277714 0.0013000177 0.00079326995 -0.015908808 0.004328444 -0.05011188 -0.02878162 -0.022214575
-0.016262578 -9.123466e-09 0.0016832976 -0.017586697 0.0003458702 -1.1014994e-07 0.0016878654 -0.00013406202
0.0034031589 -0.0014936416 -0.004699884 -0.005006712 -0.019567065 0.0028187998 -0.010656769 -1.7764121e-05
0.00040503743 -0.008920736 0.005749297 0.0029394897 -2.1255037e-06 0.000107269094 -0.049522493 0.0067359814
00000000: 8303 dbbc a37e 513d 01a4 1fbd 6518 0000
00000010: 062e 1e39 4b85 4bbd 91e2 96bc 7c37 c937
00000020: 846b 10bd 58de 92b4 83f0 983d 1662 07bc
00000030: c515 2cbd ad7b 93bc c237 0dbc 3eb9 7236
00000040: 74bf 883b f82c fdb6 5afe 78bc dd23 253d
00000050: 2ac0 8628 9337 e73b 9a6e a099 7be3 3038
00000060: 191a 97bc ef54 283b ab41 90bd ee76 ce39
00000070: fbf7 55bd c18e 5fbd 146f 553c f25f e4bc
00000080: 2ae4 a33d 179d 903d 56ee 09bd ed88 6bba
00000090: bcea 2d3d a5b3 2dbd d41e 6cb8 e42d 223c
000000a0: 226a 12bd 6694 cf1f e445 b239 55d8 70bc
000000b0: ba7f 18b9 5da6 6429 bef1 0e3d fcb5 103d
000000c0: fd13 e0bc e4fd 8ebd c366 2a3c 8c04 1dbc
000000d0: d37d bfa9 0868 5937 6f00 42bd 26da 3ebb
000000e0: 90e6 27bb bcfc b9b9 30a7 0100 1252 49bd
000000f0: 3800 9cbd be4a 453c 0f78 a0bc 98c5 bc3b
00000100: 4d09 83bc daed 1dbc a7dc 89bd bd1b 32bd
00000110: e828 1fb9 cfbf 03b8 6ed5 a13b deb7 82bc
00000120: cc64 0d38 62ae 0fbc 9ed2 4933 408c ea3c
00000130: 677f 813c 1edd 26bc 2da3 96bc 759b 2dbc
00000140: 52be a73b 3c5f 56bb be2e af3a 719a 12bb
00000150: 22de 49bb 1489 d439 4ff0 02bb 94e1 0cb9
00000160: 8698 6633 582f acbb 893c 83b9 f021 c2bc
00000170: 4c3a 70b5 93d1 85bd 60b3 023b 7053 8d3b
00000180: 6151 693b 5295 883b 9ac6 993c b29b 3bbd
00000190: 91d0 eebc 3968 0dbd 9b70 fa3a f498 9526
000001a0: db6b bc3b bf69 95bc ac99 1138 409d f1b4
000001b0: 6abc 34bc 4a77 1f36 702c c5a9 5139 30bb
000001c0: 822b bb3b 2263 85bc c022 1dbd 8932 2c3b
000001d0: 7de1 5abb f4b9 5436 f528 0339 a2b4 c4bc
000001e0: 1c52 113b 4393 4bbc c487 5eb8 f0ce 9336
000001f0: 11e0 88bd 9294 9abb 38e4 50bc 16c0 ba3b
00000200: 7455 523c 80f9 7cbc f1f6 58bb bc5f 4bbd
00000210: 5371 94bc 8248 0633 96c9 2238 956b d3bb
00000220: 7ae8 b0bb 05b3 b43b 0d59 13bc ce38 85b6
00000230: 5b68 b23c 49b9 e63b a757 51bb 0331 dabc
00000240: d12f 7cbb f852 c2ba 6dc1 01bb 92b7 dbb7
00000250: bde6 f3bb bfd0 97bb 1a67 1dbb 0dd9 fabb
00000260: dcc3 b4b9 56bb 42b4 23d0 aeba 717e 83b6
00000270: 1d9f a5bb d01d e435 04d4 19bd 6615 efb8
00000280: fffa 0fbc 547b 953b c290 7f3c da6c 813c
00000290: 9eba 61bd 4f7b 13bd 4cca c4bc 66bb 91bc
000002a0: 4ee7 bb35 228f a83b 033f d5bc e055 95b4
000002b0: 28b8 6c3b 00e2 1b38 882f 803b b2de 2632
000002c0: dc80 3e3b ee32 843b d75b a2bb fe20 49bc
000002d0: 4ea5 223c d2bf 0b3c 957b adbb c4b9 1835
000002e0: 4c70 5cbc 6f83 ebbb 3aeb debb d443 e736
000002f0: de85 0e39 aa21 10bd 9d8e a73b 6363 b6bc
00000300: b195 a23b c649 533c 2dd4 c9bc 9600 a73b
00000310: b4ca 60bd d82e 05bd bafc 7db9 0e20 73b5
00000320: b888 b9b9 a260 bdbb 6a7c 5cb2 690d 1cbc
00000330: 30a7 5bb9 703f 5f3b fda8 c53b f42b 343a
00000340: eddf a1bc b913 9dba dcdf fbb7 5edb 20ba
00000350: 70eb b439 64ed a8bb aef8 323a 1875 78bb
00000360: 14cc c9b9 0456 2a38 e0c8 68a1 3a7c 313b
00000370: b07d 58b7 8454 5ebc 8cdc 0036 2a36 52bd
00000380: 868d 183b 5b65 aa3a 72f3 4f3a 3053 82bc
00000390: 9fd5 8d3b 1d42 4dbd 6fc7 ebbc 57fb b5bc
000003a0: 1939 85bc 6ebd 1cb2 18a2 dc3a fa11 90bc
000003b0: ea55 b539 928b ecb3 5d3b dd3a 0093 0cb9
000003c0: 8807 5f3b 4cc6 c3ba 7c01 9abb 580f a4bb
000003d0: 1c4b a0bc 9dbb 383b bb99 2ebc 2904 95b7
000003e0: 345b d439 4728 12bc 9964 bc3b 74a4 403b
000003f0: e0a3 0eb6 a8f5 e038 19d8 4abd 82b9 dc3b

lstm.weight_hh f4 [512, 128]
-0.044901576 0.023594659 0.0030433224 0.0077183284 -0.094323516 -0.012617443 0.010660101 0.013934209
0.023216799 -0.016863722 -0.013016351 -0.04632995 0.047648873 -0.03728739 -0.0018642837 0.01480142
0.03879345 0.0068125613 0.029812302 0.01936832 0.016437883 -0.0189236 0.017958442 0.004128564
-0.02141026 -0.025785055 0.002963083 0.022019234 0.004380338 0.013109769 0.07002004 0.022694664
0.015624283 0.01901703 0.000123067 -0.0061499686 -0.013837499 0.01356301 -0.042675134 0.016644398
-0.017716372 -0.041354172 -0.009145878 0.021714319 0.01805562 0.014235685 -0.01261645 0.020358337
0.02067591 0.005973053 0.034070503 -0.018530004 0.0095613105 0.009052214 0.009641463 0.006228766
0.014388114 -0.02040312 0.00038888422 -0.02107923 -0.0016473474 -0.069127776 -0.004685459 -0.006983828
-0.022676326 0.019000268 0.014010352 0.013437199 0.011275118 0.003153286 -0.03244485 -0.026693696
0.004284305 0.021653868 -0.0039289007 -0.013935825 -0.0047613233 -0.011018814 0.033762284 -0.0070213256
0.031107187 0.0002556828 0.014606703 0.0068517425 -0.006820608 -0.020445306 -0.01423344 -0.0071301586
0.010979543 -0.024502354 -0.018581355 0.0050521805 -0.021961585 -0.01627819 0.022695655 -0.01213415
0.011230834 0.009209484 -0.0023961614 -0.0034831567 -0.018343754 -0.02322687 0.019911343 0.0114307
0.003610962 -0.022840073 -0.0025874209 0.020933092 -0.010736697 0.020146752 0.019639036 -0.005110448
-0.0024850187 -0.0071586748 0.021878324 0.019505037 -0.016420193 0.01870401 0.01050797 -0.019695621
0.039940614 0.011933528 -0.0044824905 0.009468522 0.00895781 0.035770975 0.017732184 0.020400487
0.004423963 0.0020831157 0.00081510935 -0.0072443434 -0.014915851 -0.024191933 0.0028168103 0.0026002198
0.006640899 0.001589933 0.0016431536 -0.0049646166 0.011919498 -0.009045732 0.0050698253 -0.0058812895
0.00409738 -0.0064327493 0.019321272 0.009896505 0.003048204 -0.00412579 0.005095254 -0.0012461315
-0.0029839023 0.00551642 8.959143e-05 0.005358821 0.0045557683 -0.0049005463 0.021130713 0.0031997077
0.002153481 0.0021714144 0.0019405065 -0.00036395312 -0.0045320475 -0.007417629 0.02163225 0.002492176
-0.0015890647 -0.00888123 -0.04006382 -0.0015453254 0.0055786674 0.0034364022 -0.0021808553 0.015150625
-0.0013164028 -0.0029717744 -0.0006617736 0.002774223 0.00198918 -0.0008373331 -0.010192616 -0.0029683933
0.0030443997 -0.022175722 0.004228045 -0.027509434 0.0051897992 -0.014464558 0.000532481 0.006670453
-0.022474315 0.007900457 0.009976172 0.0036202932 0.0071490416 0.013162333 -0.023735385 -0.011160865
0.007818639 0.0070941844 0.0035365 0.00167511 -0.002968532 0.004823594 0.036940146 0.010201925
-0.03328504 -0.0063513466 -0.00081796903 0.0051741987 -0.00044951064 -0.029694375 -0.0056588794 -0.0041318573
0.004025259 0.0018961501 -0.010432412 0.014795375 -0.0052895397 0.0012613871 0.009343249 0.0012486208
0.0025154047 0.004328046 0.004455149 0.0016564113 -0.008072167 -0.0086629465 0.0076764976 -0.0069943066
-0.0057438896 -0.010837999 -0.0013544967 0.03784871 -0.0013232685 0.007450229 0.010155358 -0.0069142925
-0.013956041 -0.003126691 0.008542482 0.0025739113 0.0074933013 0.026473748 0.005850316 -0.006571391
0.002903741 -0.0010988781 -0.001229363 -0.0081610875 -0.009777764 0.0018760999 0.005917644 0.0018156612
00000000: b7ea 37bd 9649 c13c 7a72 473b 08ea fc3b
00000010: b02c c1bd 64b9 4ebc b4a7 2e3c 4f4c 643c
00000020: 2831 be3c ca25 8abc 8842 55bc 79c4 3dbd
00000030: 772b 433d aaba 18bd fb5a f4ba a881 723c
00000040: e1e5 1e3d e83b df3b ee38 f43c 50aa 9e3c
00000050: bda8 863c aa05 9bbc 951d 933c e848 873b
00000060: 9264 afbc 2e3b d3bc 4930 423b ae61 b43c
00000070: f088 8f3b 5bca 563c ab66 8f3d 29ea b93c
00000080: fefc 7f3c 9ac9 9b3c 8c0b 0139 ad85 c9bb
00000090: adb6 62bc 6337 5e3c 1fcc 2ebd d559 883c
000000a0: ed21 91bc fe62 29bd 98d8 15bc 3ae2 b13c
000000b0: 61e9 933c ca3c 693c 3ab5 4ebc 87c6 a63c
000000c0: 8760 a93c 9ab9 c33b 838d 0b3d 3ccc 97bc
000000d0: 0ba7 1c3c bd4f 143c 3af7 1d3c ad1a cc3b
000000e0: 20bc 6b3c 7224 a7bc 28e3 cb39 59ae acbc
000000f0: ceeb d7ba dd92 8dbd 7b88 99bb 98d8 e4bb
00000100: b4c3 b9bc 73a6 9b3c ad8b 653c b327 5c3c
00000110: 46bb 383c 5ca7 4e3b e4e4 04bd bdac dabc
00000120: 5b63 8c3b 7463 b13c 02be 80bb 1653 64bc
00000130: e004 9cbb 4188 34bc 524a 0a3d 2613 e6bb
00000140: 80d4 fe3c 2a0d 8639 f450 6f3c 9584 e03b
00000150: 687f dfbb ea7c a7bc 6033 69bc 1ba4 e9bb
00000160: 8be3 333c 29b9 c8bc ed37 98bc c38c a53b
00000170: c8e8 b3bc d759 85bc 3dec b93c 50ce 46bc
00000180: 8801 383c 60e3 163c eb08 1dbb ac45 64bb
00000190: a445 96bc 4746 bebc 1d1d a33c d547 3b3c
000001a0: e4a5 6c3b 1b1b bbbc b891 29bb e07b ab3c
000001b0: f9e8 2fbc cd0a a53c 0be2 a03c 8c75 a7bb
000001c0: b2db 22bb 5193 eabb 2c3a b33c 07c9 9f3c
000001d0: a483 86bc 2739 993c 9f29 2c3c b658 a1bc
000001e0: c598 233d d884 433c dbe1 92bb dc21 1b3c
000001f0: c7c3 123c 9684 123d 1643 913c ec1e a73c
00000200: e4f6 903b e284 083b 10ad 553a f561 edbb
00000210: 9d61 74bc 292e c6bc 3c9a 383b 7368 2a3b
00000220: e69b d93b 4c65 d03a 165f d73a 39ae a2bb
00000230: 004a 433c 8d34 14bc c720 a63b d5b7 c0bb
00000240: 5143 863b d0c9 d2bb a547 9e3c f324 223c
00000250: 60c4 473b a331 87bb 17f6 a63b 3c55 a3ba
00000260: 938d 43bb 16c3 b43b 08e3 bb38 0c99 af3b
00000270: 8e48 953b c394 a0bb 511a ad3c 30b2 513b
00000280: 6a21 0d3b 4a4e 0e3b 9858 fe3a f6d0 beb9
00000290: 9281 94bb 950f f3bb 1e36 b13c c653 233b
000002a0: 2a48 d0ba 9482 11bc f619 24bd 848c caba
000002b0: 41cd b63b 4335 613b aeec 0ebb 543a 783c
000002c0: 268b acba 1ac2 42bb e07a 2dba bdcf 353b
000002d0: e75c 023b 7980 5bba eefe 26bc 6089 42bb
000002e0: 8d84 473b dca9 b5bc 6a8b 8a3b 775b e1bc
000002f0: 310f aa3b c1fc 6cbc 3296 0b3a d193 da3b
00000300: 0e1c b8bc eb70 013c 1973 233c 7142 6d3b
00000310: 8242 ea3b d3a6 573c b670 c2bc 10dc 36bc
00000320: c019 003c 5576 e83b a0c4 673b 5d8f db3a
00000330: b48b 42bb 3d0f 9e3b 8d4e 173d fa25 273c
00000340: e555 08bd f51e d0bb f96c 56ba 538c a93b
00000350: 4cac ebb9 9e41 f3bc 1f6e b9bb 8864 87bb
00000360: 52e6 833b 3d88 f83a b5ec 2abc 4d68 723c
00000370: e053 adbb 2155 a53a 6d14 193c c3a8 a33a
00000380: 7dd9 243b 48d2 8d3b 80fc 913b f11b d93a
00000390: 1f41 04bc 08ef 0dbc 218b fb3b 7f30 e5bb
000003a0: 3d37 bcbb dd91 31bc 5e89 b1ba 4007 1b3d
000003b0: 8671 adba 0d21 f43b a962 263c 4a91 e2bb
000003c0: e1a7 64bc 2ce9 4cbb c4f5 0b3c 11af 283b
000003d0: 5e8a f53b 79df d83c 02b4 bf3b d354 d7bb
000003e0: b14c 3e3b 3b08 90ba 9422 a1ba 15b6 05bc
000003f0: ea32 20bc 77e7 f53a cce8 c13b 7bfb ed3a

lstm.bias_ih f4 [512]
-0.103531614 -0.13766214 -0.12239958 -0.1291974 -0.19454288 0.24569489 -0.12429934 -0.11157825
-0.110612534 -0.11971124 -0.12408122 -0.08774748 0.06642439 -0.14825633 -0.13655584 -0.11085505
-0.0899465 -0.12201219 -0.09647483 -0.030069832 -0.12240629 -0.09820456 -0.106962904 -0.137412
-0.11314556 -0.13134359 -0.13253018 -0.115016624 -0.07140719 -0.12584351 -0.06632024 -0.1179521
-0.10115856 -0.13006772 -0.12403335 -0.13143843 -0.11594636 -0.13458332 0.2965205 -0.13637371
-0.123022184 -0.1201007 0.49792263 0.073858574 -0.12521058 -0.12969935 -0.1393465 -0.1044534
-0.0887871 -0.10619347 -0.114607684 -0.11607226 -0.11201363 -0.1086017 -0.12926356 -0.1344587
-0.120574914 -0.18059303 -0.12701826 -0.13249432 -0.1540976 -0.08895636 -0.14474827 -0.12569918
-0.20047021 -0.13691981 -0.13085528 -0.12361334 -0.136409 -0.13136743 -0.10807715 -0.11661273
-0.15208586 -0.11528446 -0.116133526 -0.13707621 -0.15566325 -0.098142326 0.574379 -0.13052766
-0.22010648 -0.13554025 -0.10350323 -0.14194821 -0.13383763 0.513403 -0.09502021 -0.21366467
-0.10973323 -0.13215347 -0.11747424 -0.1249981 -0.2413847 -0.112497 -0.09801843 -0.11196687
-0.1211319 -0.11495794 -0.12471606 -0.21786286 -0.11589451 -0.117729455 -0.13398506 -0.11330404
-0.1326617 -0.12306567 -0.114319526 0.46307537 -0.09920613 -0.11728265 -0.11521828 -0.13983731
-0.174131 -0.10965562 -0.18242817 -0.12850897 -0.12690611 -0.14142646 -0.15268897 -0.12629628
-0.17497407 -0.12067268 -0.15044326 -0.10702851 -0.14706992 -0.12877494 -0.12035057 -0.12491516
-0.06992459 -0.09538241 -0.084534355 -0.09539024 0.003255483 -0.09702096 -0.08701914 -0.078190185
-0.08079317 -0.07662651 -0.08928385 -0.13939546 -0.08529347 -0.087581135 -0.095881954 -0.09272767
-0.50848866 -0.088916875 -0.068425745 -0.35624355 -0.073836274 -0.07075375 -0.06918887 -0.109040335
-0.073982075 -0.2245538 -0.08539436 -0.07475004 -0.15588477 -0.09418864 -0.14510499 -0.08886675
-0.06433941 -0.09644932 -0.21340606 -0.10283041 -0.07653222 -0.10444475 -0.06551033 -0.095668815
-0.07671982 -0.075047486 0.27636805 -0.08395203 -0.08657082 -0.09109074 -0.09502447 -0.07693822
-0.20483695 -0.079521336 -0.08195733 -0.09209685 -0.080215394 -0.07939423 -0.10343807 -0.09418581
-0.0764005 -0.10959437 -0.083966516 -0.32647082 -0.106464095 -0.1457976 -0.28464425 -0.08701281
-0.28871372 -0.09475962 -0.10089305 -0.08995177 -0.08358673 -0.12787257 -0.08683303 -0.07310523
-0.14511824 -0.07790776 -0.09214525 -0.09339601 -0.09957314 -0.06587374 0.31980735 -0.09076056
-0.34984007 -0.086262025 -0.085166484 -0.10362157 -0.09437106 0.3027374 -0.068958975 -0.17111297
-0.080552764 -0.09968475 -0.07427298 -0.13001986 -0.24295557 -0.08972544 -0.063781366 -0.076545864
-0.08315765 -0.08515999 -0.09273178 -0.15660118 -0.080953024 -0.08987789 -0.06318059 -0.092889294
-0.09087823 -0.10618178 -0.076640956 0.23497069 -0.21057698 -0.0907628 -0.08699438 -0.09599373
-0.31786254 -0.07281538 -0.12398277 -0.08354508 -0.16567989 -0.10756677 -0.10261402 -0.09208323
-0.12544934 -0.074899174 -0.10377539 -0.08759608 -0.21677709 -0.08664932 -0.07631686 -0.08753893
00000000: 6208 d4bd 4ef7 0cbe a2ac fabd 534c 04be
00000010: 4036 47be 7197 7b3e a790 febd 2383 e4bd
00000020: d388 e2bd 2b2b f5bd 4b1e febd f3b4 b3bd
00000030: 8309 883d 82d0 17be 4bd5 0bbe f907 e3bd
00000040: df35 b8bd 87e1 f9bd 9894 c5bd 0255 f6bc
00000050: 26b0 fabd 791f c9bd 5e0f dbbd bbb5 0cbe
00000060: dcb8 e7bd ef7e 06be feb5 07be d68d ebbd
00000070: ef3d 92bd 1fdd 00be e8d2 87bd df90 f1bd
00000080: 382c cfbd 7930 05be 3205 febd cc97 06be
00000090: 4975 edbd 36d0 09be 89d1 973e 8da5 0bbe
000000a0: 0ef3 fbbd 5bf7 f5bd b7ef fe3e 2a43 973d
000000b0: 3437 00be e8cf 04be d9b0 0ebe aaeb d5bd
000000c0: 03d6 b5bd f67b d9bd 6fb7 eabd 4bb7 edbd
000000d0: 6767 e5bd 916a debd ab5d 04be 8baf 09be
000000e0: fbef f6bd 61ed 38be 1311 02be 97ac 07be
000000f0: c3cb 1dbe c12e b6bd e438 14be 49b7 00be
00000100: 1048 4dbe b534 0cbe edfe 05be fe28 fdbd
00000110: cdae 0bbe 2f85 06be 8e57 ddbd a8d2 eebd
00000120: 65bc 1bbe 421a ecbd 6ad7 edbd b55d 0cbe
00000130: 3066 1fbe d8fe c8bd 810a 133f 0ba9 05be
00000140: 9863 61be 10cb 0abe 80f9 d3bd df5a 11be
00000150: bb0c 09be 616e 033f f599 c2bd e9ca 5abe
00000160: d1bb e0bd 3d53 07be 5696 f0bd 01ff ffbd
00000170: 8d2d 77be d464 e6bd e3bd c8bd e34e e5bd
00000180: 0014 f8bd 126f ebbd 226b ffbd 7117 5fbe
00000190: 1a5a edbd 241c f1bd 6133 09be f30b e8bd
000001a0: 78d8 07be db09 fcbd 5b20 eabd 3718 ed3e
000001b0: 952c cbbd e331 f0bd 90f7 ebbd 8331 0fbe
000001c0: 664f 32be 2093 e0bd 73ce 3abe db97 03be
000001d0: adf3 01be 19d2 10be 7f5a 1cbe d053 01be
000001e0: 672c 33be 3d23 f7bd cc0d 1abe c331 dbbd
000001f0: 7f99 16be 94dd 03be 5c7a f6bd 85d3 ffbd
00000200: a034 8fbd da57 c3bd 5920 adbd f55b c3bd
00000210: f159 553b edb2 c6bd 1737 b2bd 2d22 a0bd
00000220: e476 a5bd 5cee 9cbd 73da b6bd afbd 0ebe
00000230: 58ae aebd bd5d b3bd c25d c4bd 01e8 bdbd
00000240: 502c 02bf 0d1a b6bd cc22 8cbd 8e65 b6be
00000250: 7937 97bd 58e7 90bd e5b2 8dbd 8a50 dfbd
00000260: ea83 97bd 6ef1 65be 3de3 aebd 8d16 99bd
00000270: 42a0 1fbe f9e5 c0bd 6796 14be c5ff b5bd
00000280: 61c4 83bd 3987 c5bd 1e87 5abe c098 d2bd
00000290: edbc 9cbd 21e7 d5bd 482a 86bd 03ee c3bd
000002a0: 481f 9dbd 7fb2 99bd 1d80 8d3e 0bef abbd
000002b0: 0b4c b1bd c88d babd 309c c2bd c991 9dbd
000002c0: c7c0 51be 15dc a2bd 3fd9 a7bd 469d bcbd
000002d0: f847 a4bd 7199 a2bd 57d7 d3bd 7de4 c0bd
000002e0: de77 9cbd 0373 e0bd a3f6 abbd 2f27 a7be
000002f0: d909 dabd f74b 15be e4bc 91be c633 b2bd
00000300: 49d2 93be 5511 c2bd 04a1 cebd a238 b8bd
00000310: 852f abbd 07f1 02be 84d5 b1bd 32b8 95bd
00000320: e099 14be 1b8e 9fbd a6b6 bcbd 6846 bfbd
00000330: 01ed cbbd d0e8 86bd cabd a33e ace0 b9bd
00000340: 3d1e b3be 25aa b0bd c46b aebd 8c37 d4bd
00000350: 9d45 c1bd 6600 9b3e 5d3a 8dbd 3d38 2fbe
00000360: d9f8 a4bd 8527 ccbd 6f1c 98bd ed23 05be
00000370: 58c9 78be f9c1 b7bd ce9f 82bd 14c4 9cbd
00000380: 8f4e aabd 5c68 aebd 29ea bdbd 0f5c 20be
00000390: b3ca a5bd e611 b8bd d364 81bd be3c bebd
000003a0: 5e1e babd d575 d9bd eff5 9cbd 289c 703e
000003b0: 7ea1 57be d9e1 b9bd 1c2a b2bd 5c98 c4bd
000003c0: e1be a2be 3b20 95bd aeea fdbd af19 abbd
000003d0: fda7 29be f74b dcbd 4d27 d2bd 2296 bcbd
000003e0: cb75 00be bd64 99bd 3188 d4bd 9365 b3bd
000003f0: d0fa 5dbe 3375 b1bd 044c 9cbd 9c47 b3bd

lstm.bias_hh f4 [512]
-0.104239866 -0.13766205 -0.12239958 -0.1291974 -0.19972147 0.21932484 -0.12429906 -0.111578345
-0.11061193 -0.11970925 -0.12408123 -0.08276822 0.082447164 -0.14405526 -0.13655475 -0.11085479
-0.082815856 -0.122012146 -0.09647484 -0.021903077 -0.12241254 -0.098204516 -0.10696292 -0.13741194
-0.113145515 -0.13557303 -0.13253018 -0.115016624 -0.076069236 -0.12585303 -0.05326648 -0.117952526
-0.10115853 -0.13006768 -0.12412298 -0.13144186 -0.1159463 -0.13458322 0.3061141 -0.1363738
-0.1230222 -0.12010002 0.4969198 0.0861131 -0.12521058 -0.12969935 -0.13934627 -0.10445476
-0.101910986 -0.10619347 -0.11460775 -0.116072334 -0.11215309 -0.1086017 -0.12926373 -0.1344587
-0.120574884 -0.17944211 -0.12701826 -0.13255477 -0.15410042 -0.04449141 -0.102625646 -0.12569918
-0.1734294 -0.13691981 -0.13085528 -0.12361333 -0.13640898 -0.13136919 -0.10807867 -0.11661278
-0.15176104 -0.11528517 -0.116133526 -0.13707621 -0.15566419 -0.09812905 0.5741072 -0.1305243
-0.24559508 -0.13554032 -0.10350352 -0.14194821 -0.13383766 0.5187766 -0.09502029 -0.21776327
-0.109734826 -0.13215426 -0.11747442 -0.12486561 -0.2562196 -0.112497 -0.09801843 -0.11196687
-0.1211319 -0.11495832 -0.124716 -0.22252156 -0.11589451 -0.117729455 -0.13389523 -0.11330282
-0.13265991 -0.12306275 -0.114319466 0.47577727 -0.107573576 -0.117282666 -0.11521828 -0.13983731
-0.26752362 -0.10965562 -0.18241128 -0.12850544 -0.12599975 -0.13934977 -0.15268885 -0.12629645
-0.17633021 -0.12067271 -0.15045473 -0.10704871 -0.14861774 -0.12877491 -0.12035029 -0.12491516
-0.06988945 -0.09538241 -0.084534355 -0.09539024 0.009956625 -0.10924224 -0.08701914 -0.078190185
-0.08079317 -0.07662651 -0.08928385 -0.13963866 -0.078985654 -0.08763366 -0.095881954 -0.09272767
-0.45181003 -0.088916875 -0.068425745 -0.42332757 -0.073836274 -0.07075375 -0.06918887 -0.109040335
-0.073982075 -0.22342429 -0.08539436 -0.07475004 -0.15557711 -0.09418864 -0.14183728 -0.08886675
-0.06433941 -0.09644932 -0.21394971 -0.10283041 -0.07653222 -0.10444475 -0.0885212 -0.095668815
-0.07671982 -0.075047486 0.27556923 -0.062107436 -0.08657082 -0.09109074 -0.09502447 -0.07693822
-0.20331375 -0.079521336 -0.08195733 -0.09209685 -0.08021285 -0.07939423 -0.10343807 -0.09418581
-0.0764005 -0.10955171 -0.083966516 -0.32368892 -0.106464095 -0.14480071 -0.29989144 -0.08701281
-0.2868473 -0.09475962 -0.10089305 -0.08995177 -0.08358673 -0.12787257 -0.08683303 -0.07310523
-0.1451175 -0.07790776 -0.09214525 -0.09339601 -0.09957314 -0.06587365 0.32078806 -0.09076056
-0.32663065 -0.086262025 -0.085166484 -0.10362157 -0.09437106 0.29727966 -0.068958975 -0.17064989
-0.08055275 -0.09968475 -0.07427298 -0.13002029 -0.23144874 -0.08972544 -0.063781366 -0.076545864
-0.08315765 -0.08515999 -0.09273178 -0.15663935 -0.080953024 -0.08987789 -0.06318068 -0.092889294
-0.09087823 -0.10618178 -0.076640956 0.24710602 -0.22207384 -0.0907628 -0.08699438 -0.09599373
-0.33307382 -0.07281538 -0.12398185 -0.08354508 -0.16557951 -0.107560754 -0.10261402 -0.09208323
-0.1255364 -0.074899174 -0.10377539 -0.08759608 -0.21480483 -0.08664932 -0.07631686 -0.08753893
00000000: b67b d5bd 48f7 0cbe a2ac fabd 534c 04be
00000010: c983 4cbe b196 603e 8190 febd 3083 e4bd
00000020: 8288 e2bd 202a f5bd 4d1e febd 6282 a9bd
00000030: 0fda a83d 3983 13be 02d5 0bbe d607 e3bd
00000040: 5c9b a9bd 81e1 f9bd 9a94 c5bd 156e b3bc
00000050: 6db3 fabd 731f c9bd 600f dbbd b7b5 0cbe
00000060: d6b8 e7bd a8d3 0abe feb5 07be d68d ebbd
00000070: 30ca 9bbd 9edf 00be f42d 5abd 1891 f1bd
00000080: 342c cfbd 7630 05be 3034 febd b298 06be
00000090: 4175 edbd 2fd0 09be fdba 9c3e 93a5 0bbe
000000a0: 10f3 fbbd 00f7 f5bd 466c fe3e 115c b03d
000000b0: 3437 00be e8cf 04be cab0 0ebe 61ec d5bd
000000c0: b5b6 d0bd f67b d9bd 78b7 eabd 55b7 edbd
000000d0: 85b0 e5bd 916a debd b65d 04be 8baf 09be
000000e0: f7ef f6bd acbf 37be 1311 02be 70bc 07be
000000f0: 80cc 1dbe a03c 36bd 652d d2bd 49b7 00be
00000100: 7a97 31be b534 0cbe edfe 05be fc28 fdbd
00000110: ccae 0bbe a585 06be 5a58 ddbd aed2 eebd
00000120: 3f67 1bbe a21a ecbd 6ad7 edbd b55d 0cbe
00000130: 6f66 1fbe e2f7 c8bd b1f8 123f 29a8 05be
00000140: 477d 7bbe 15cb 0abe a7f9 d3bd df5a 11be
00000150: bd0c 09be 8bce 043f ff99 c2bd 56fd 5ebe
00000160: a7bc e0bd 7253 07be 6e96 f0bd 8ab9 ffbd
00000170: 372f 83be d464 e6bd e3bd c8bd e34e e5bd
00000180: 0014 f8bd 456f ebbd 1a6b ffbd b1dc 63be
00000190: 1a5a edbd 241c f1bd d51b 09be 4f0b e8bd
000001a0: 00d8 07be 5308 fcbd 5320 eabd 1499 f33e
000001b0: 894f dcbd e531 f0bd 90f7 ebbd 8331 0fbe
000001c0: dbf8 88be 2093 e0bd 06ca 3abe ee96 03be
000001d0: 1406 01be b5b1 0ebe 775a 1cbe db53 01be
000001e0: e88f 34be 4123 f7bd ce10 1abe 5b3c dbbd
000001f0: 402f 18be 92dd 03be 367a f6bd 85d3 ffbd
00000200: 3322 8fbd da57 c3bd 5920 adbd f55b c3bd
00000210: 1d21 233c 65ba dfbd 1737 b2bd 2d22 a0bd
00000220: e476 a5bd 5cee 9cbd 73da b6bd 70fd 0ebe
00000230: 3bc3 a1bd 4779 b3bd c25d c4bd 01e8 bdbd
00000240: a553 e7be 0d1a b6bd cc22 8cbd 64be d8be
00000250: 7937 97bd 58e7 90bd e5b2 8dbd 8a50 dfbd
00000260: ea83 97bd 56c9 64be 3de3 aebd 8d16 99bd
00000270: 9b4f 1fbe f9e5 c0bd cb3d 11be c5ff b5bd
00000280: 61c4 83bd 3987 c5bd a215 5bbe c098 d2bd
00000290: edbc 9cbd 21e7 d5bd 9a4a b5bd 03ee c3bd
000002a0: 481f 9dbd 7fb2 99bd 6917 8d3e 5e64 7ebd
000002b0: 0b4c b1bd c88d babd 309c c2bd c991 9dbd
000002c0: 7b31 50be 15dc a2bd 3fd9 a7bd 469d bcbd
000002d0: a246 a4bd 7199 a2bd 57d7 d3bd 7de4 c0bd
000002e0: de77 9cbd a65c e0bd a3f6 abbd 8eba a5be
000002f0: d909 dabd a346 14be 5f8b 99be c633 b2bd
00000300: a6dd 92be 5511 c2bd 04a1 cebd a238 b8bd
00000310: 852f abbd 07f1 02be 84d5 b1bd 32b8 95bd
00000320: af99 14be 1b8e 9fbd a6b6 bcbd 6846 bfbd
00000330: 01ed cbbd c4e8 86bd 553e a43e ace0 b9bd
00000340: 223c a7be 25aa b0bd c46b aebd 8c37 d4bd
00000350: 9d45 c1bd 0a35 983e 5d3a 8dbd d8be 2ebe
00000360: d7f8 a4bd 8527 ccbd 6f1c 98bd 0a24 05be
00000370: e600 6dbe f9c1 b7bd ce9f 82bd 14c4 9cbd
00000380: 8f4e aabd 5c68 aebd 29ea bdbd 1166 20be
00000390: b3ca a5bd e611 b8bd df64 81bd be3c bebd
000003a0: 5e1e babd d575 d9bd eff5 9cbd 5c09 7d3e
000003b0: 5367 63be d9e1 b9bd 1c2a b2bd 5c98 c4bd
000003c0: a788 aabe 3b20 95bd 32ea fdbd af19 abbd
000003d0: ad8d 29be d048 dcbd 4d27 d2bd 2296 bcbd
000003e0: 9d8c 00be bd64 99bd 3188 d4bd 9365 b3bd
000003f0: ccf5 5bbe 3375 b1bd 044c 9cbd 9c47 b3bd

output_w.weight f4 [5, 128]
-0.010417801 -0.011801999 -0.0067694476 -0.0034603286 -0.0027080374 -0.027059868 -0.00421309 0.0011824709
0.0058137644 -0.0039430317 -0.004932748 -0.018243946 -0.030521136 -0.0055560423 0.00071572943 0.001258116
-0.36332366 -0.004186667 -0.0017938579 0.18151045 0.011586563 0.007364686 0.00018692389 0.0055639716
0.0035235928 0.044844266 -0.010566248 -0.0012097216 -0.01647405 0.005416725 0.030831192 0.00021487108
-0.010358743 -0.0021493328 0.02187872 0.0008574133 0.012644417 0.0016890271 0.049848873 -0.014562386
0.0040861405 0.00095130265 0.0057956455 -0.04098404 0.0053667757 0.0016690852 0.004262277 -0.0036439002
-0.026989406 -0.0021252064 -0.0034529115 0.010394056 0.016839506 -0.003842822 0.0037068387 -0.0060345996
0.0007429161 -0.03878238 -0.0014896834 0.07651144 -0.0026213652 -0.15394619 0.13333876 0.00215748
-0.017539332 -0.01027777 -0.0012300651 -0.0009876861 -0.0049168747 -0.009537151 0.006546938 0.007624882
-0.013256592 -0.0018471673 0.0065807803 0.0026993984 -0.0012167792 0.015438749 -0.16620317 -0.007905683
0.2775129 -0.0057001123 -0.008216468 0.0017513572 0.011091323 0.14950685 0.0036757146 -0.06572719
-0.0024536843 -0.0069117104 0.00598865 -0.013645253 -0.07100001 -0.0016989063 -0.0041975034 0.00097376807
0.006317093 0.0001408087 0.003182791 0.037023418 0.00093694916 0.002121332 0.012513441 0.0035312134
0.0025690703 0.008670681 -0.007269306 0.024856135 -0.11887377 -0.0012788597 0.0033415146 0.0024304232
0.13801196 0.0010945565 -0.014857179 -0.0010354824 -0.0071536084 0.011654045 0.0045790807 -0.0055681956
0.0035301559 -0.0053841677 0.009388645 -0.0027571963 0.001436798 -0.010118594 -0.001887786 -0.0023772935
0.026843628 0.0056117643 -0.004496062 -0.002068748 -0.12000537 -0.07832974 -0.000767638 0.0072945366
0.0004810449 0.0093546165 -0.006146356 0.043149225 0.027904008 -0.047795665 0.009971117 -0.0015279511
0.50572467 0.0005474056 0.004742787 0.4036612 -0.026908828 -0.0041982965 0.002033007 -0.006625107
-0.004195893 -0.045248207 0.008810187 -0.0044850013 -0.02727823 -0.0035892343 0.06294311 -0.0019697605
0.010190541 -0.0014382945 0.0026285008 -0.004974569 0.0039053885 0.0051208925 -0.03991966 0.0072410596
-0.0011139608 0.0035042127 0.09563551 0.094711535 -0.00031477978 0.005124469 0.0049015726 0.009495447
0.014734831 -0.0017543652 0.004233313 -0.008697465 -0.015934365 -0.00651974 -0.005547217 -0.0023491916
-0.0030619355 0.021005616 -0.0016028304 -0.034481436 0.009455084 -0.02027121 -0.032905012 -0.00067125336
-0.108136505 0.0057115545 -0.0015265043 0.0032363923 0.0020480277 0.012426182 0.0019728192 -0.00015692168
-0.015638385 0.015331107 0.00028622884 -0.0039031121 0.0031063962 -0.005542673 -0.034637205 -0.0002595646
0.13687149 -0.011641365 -1.8719147e-05 0.0010441705 -2.4377805e-06 -0.06458151 -0.000176662 0.02941507
-0.00031081148 0.0038912972 0.0027811667 -0.0033819966 -0.012077274 -0.004398674 -0.0008913748 0.0032715355
0.0020866154 -0.0011416407 0.003687658 -0.03724406 -0.0002732926 -0.0011780126 -0.03513449 0.00068793015
0.011744917 -0.014713044 -0.01229777 0.09719319 0.006527179 0.0015131182 0.002980582 -0.0046909326
0.09869423 -0.0016292272 0.016143184 0.005453578 -0.020576142 -0.012526328 0.0080576325 -5.967915e-05
0.046061635 0.006618532 -0.004255989 -0.002154206 0.030974558 0.0010982868 -0.0010991984 0.0030394734
00000000: 6daf 2abc 2c5d 41bc 3ed2 ddbb aec6 62bb
00000010: 5479 31bb a8ac ddbc f60d 8abb 24fd 9a3a
00000020: 6481 be3b 8c34 81bb e4a2 a1bb 5474 95bc
00000030: 7607 fabc 760f b6bb ca9f 3b3a 5ee7 a43a
00000040: 8f05 babe 4f30 89bb e21f ebba e0dd 393e
00000050: 91d5 3d3c 7753 f13b 0001 4439 fa51 b63b
00000060: 14ec 663b 9fae 373d 0e1e 2dbc 858f 9eba
00000070: 96f4 86bc c87e b13b b291 fc3c 044f 6139
00000080: b8b7 29bc d2db 0cbb 003b b33c 08c4 603a
00000090: 872a 4f3c 5862 dd3a 552e 4c3d 1397 6ebc
000000a0: 08e5 853b d760 793a 66e9 bd3b e1de 27bd
000000b0: c7db af3b 35c5 da3a 92aa 8b3b 80ce 6ebb
000000c0: e318 ddbc 0c47 0bbb 3e4a 62bb d54b 2a3c
000000d0: 01f3 893c dbd7 7bbb 6fee 723b e4bd c5bb
000000e0: 41c0 423a 46da 1ebd 7b41 c3ba 08b2 9c3d
000000f0: 36cb 2bbb 12a4 1dbe f589 083e 8264 0d3b
00000100: a5ae 8fbc 1864 28bc 233a a1ba 3f75 81ba
00000110: bc1d a1bb b641 1cbc b287 d63b 25da f93b
00000120: 2d32 59bc a61c f2ba 96a3 d73b 64e8 303b
00000130: 567c 9fba cff2 7c3c 2a31 2abe d686 01bc
00000140: 2c16 8e3e 02c8 babb 5d9e 06bc cc8d e53a
00000150: 61b8 353c 5318 193e 42e4 703b fa9b 86bd
00000160: fecd 20bb a17b e2bb 703c c43b 5790 5fbc
00000170: 7468 91bd d6ad deba 368b 89bb 7844 7f3a
00000180: 9eff ce3b 0ca6 1339 5f96 503b dea5 173d
00000190: 989d 753a 0c06 0b3b 2d05 4d3c ee6b 673b
000001a0: d95d 283b 790f 0e3c 5c33 eebb 189f cb3c
000001b0: 1774 f3bd 699f a7ba 50fd 5a3b bc47 1f3b
000001c0: 0253 0d3e 3977 8f3a 866b 73bc 06b9 87ba
000001d0: d168 eabb 9cf0 3e3c 1d0c 963b 6975 b6bb
000001e0: 305a 673b ac6d b0bb d5d2 193c 14b2 34bb
000001f0: f152 bc3a 76c8 25bc 966f f7ba 5ecc 1bbb
00000200: 2be7 db3c e4e2 b73b b453 93bb d593 07bb
00000210: 60c5 f5bd 586b a0bd 503b 49ba 0207 ef3b
00000220: c134 fc39 1b44 193c 5f67 c9bb 3ebd 303d
00000230: f296 e43c 63c5 43bd e55d 233c 8845 c8ba
00000240: 2c77 013f c57f 0f3a 6269 9b3b aeac ce3e
00000250: e76f dcbc dd91 89bb 333c 053b 6d17 d9bb
00000260: b47d 89bb 2f56 39bd 9a58 103c ebf6 92bb
00000270: 9876 dfbc 5c39 6bbb 51e8 803d 1917 01bb
00000280: 3af6 263c 2885 bcba ed42 2c3b b601 a3bb
00000290: 8cf1 7f3b 29cd a73b cc82 23bd 6946 ed3b
000002a0: 5202 92ba efa6 653b 8ddc c33d 1ff8 c13d
000002b0: 0709 a5b9 29eb a73b 5f9d a03b cb92 1b3c
000002c0: 5c6a 713c baf2 e5ba 9ab7 8a3b d07f 0ebc
000002d0: c988 82bc 8ba3 d5bb 6ec5 b5bb e5f4 19bb
000002e0: c1aa 48bb f813 ac3c 1016 d2ba 683c 0dbd
000002f0: 7fe9 1a3c cf0f a6bc 68c7 06bd 0df7 2fba
00000300: ac76 ddbd fe27 bb3b fc14 c8ba a719 543b
00000310: 3438 063b 2f97 4b3c 6a4a 013b 588b 24b9
00000320: 121c 80bc 532f 7b3c fc10 9639 5bcb 7fbb
00000330: ae94 4b3b 509f b5bb bedf 0dbd 2c16 88b9
00000340: 0a28 0c3e 6cbb 3ebc 1007 9db7 8cdc 883a
00000350: c098 23b6 5043 84bd 583e 39b9 dff7 f03c
00000360: 69f4 a2b9 2205 7f3b 3c44 363b 7da4 5dbb
00000370: c2df 45bc c022 90bb 26ab 69ba 4267 563b
00000380: 99bf 083b 1ba3 95ba a3ac 713b 3a8d 18bd
00000390: b648 8fb9 8b67 9aba 2fe9 0fbd 3656 343a
000003a0: c16d 403c fb0e 71bc 967c 49bc 390d c73d
000003b0: f2e1 d53b d253 c63a de55 433b 65b6 99bb
000003c0: 3320 ca3d cb8b d5ba b63e 843c eeb3 b23b
000003d0: 4c8f a8bc 3a3b 4dbc 2904 043c 0050 7ab8
000003e0: 20ab 3c3d 45e0 d83b d375 8bbb 942d 0dbb
000003f0: 5bbe fd3c 64f4 8f3a fa12 90ba e731 473b

output_w.bias f4 [5]
-0.035981953 0.0543751 -0.8798081 -0.9154619 -0.116069786
00000000: d061 13bd 6db8 5e3d 1b3b 61bf b65b 6abf
00000010: ffb5 edbd

square_avg f4 [64]
0.031860802 0.16508096 0.05303131 1.9207866e-10 3.1580336e-11 0.010170226 0.010177907 5.277851e-11
0.0047359504 1.2510639e-11 0.01639963 0.003964281 0.040346697 0.006143144 0.0013169674 1.4374402e-10
0.0016110961 2.316346e-09 0.006729129 0.27399015 8.2017095e-06 0.013990439 7.7921534e-08 5.0767274e-05
0.018084139 0.00024165837 0.08656799 1.3853955e-07 0.084367864 0.06268803 0.033538017 0.012156131
0.027203502 0.07420734 0.036880463 0.014983235 0.09731364 0.031502318 6.8630555e-07 0.0029230933
0.016169986 6.163928e-07 1.724542e-11 0.0033575483 1.9442671e-08 2.9158508e-07 0.028688928 0.01220885
0.0013210495 0.16561076 0.0012800366 0.02538939 7.328077e-11 3.9756885e-11 0.061315406 0.0026718127
0.009620523 3.8968044e-11 4.3834683e-09 0.03219315 0.021382159 0.01731902 0.008492993 0.01742284
00000000: 7980 023d fc0a 293e 5c37 593d 5631 532f
00000010: 4ce4 0a2e 05a1 263c 3cc1 263c 521f 682e
00000020: 0830 9b3b e916 5c2d 8458 863c cde6 813b
00000030: 9442 253d 6d4c c93b 189e ac3a 580c 1e2f
00000040: 6a2b d33a 972d 1f31 0680 dc3b 7048 8c3e
00000050: 139a 0937 2738 653c d155 a733 f2ee 5438
00000060: 3025 943c ad65 7d39 8f4a b13d 76c1 1434
00000070: 0fc9 ac3d 9562 803d 295f 093d 822a 473c
00000080: e1d9 de3c 05fa 973d f80f 173d 3e7c 753c
00000090: 604c c73d 9308 013d 8f3a 3835 5e91 3f3b
000000a0: eb76 843c 3176 2535 3cb1 972d 500a 5c3b
000000b0: e302 a732 268b 9c34 0b05 eb3c a107 483c
000000c0: 1127 ad3a de95 293e e7c6 a73a 69fd cf3c
000000d0: 6825 a12e 46da 2e2e dd25 7b3d 9419 2f3b
000000e0: 669f 1d3c 1e62 2b2e 659d 9631 f7dc 033d
000000f0: a329 af3c 9ee0 8d3c 3226 0b3c 58ba 8e3c

square_avg f4 [5]
3.9858003 10.913623 0.12446354 0.42680353 0.04088699
00000000: 5a17 7f40 339e 2e41 bee6 fe3d fe85 da3e
00000010: 1e79 273d
