S-LSTM/Goal+Socail_Array_PyTorch/social_lstm/save/0/social_model_epoch_7.pth (torch, 819255 bytes, 22 tensors)

embedding_b f4 [64]
00000000: 558a 9c3c 4aac 94bd 7e10 1fbe 1dfa 353e
00000010: e79b c73b fd55 aebc 5946 31bd 41af 9bbd
00000020: 1759 2e3d 0589 943e e5be 23be d82d 023e
00000030: c3dd b2bc 6410 fb3c 5637 42bc c424 753d
00000040: 73e3 a6bb fd03 87bc 6dbe eebd dc0a 983d
00000050: 160c adbc ba6c cdba e3d2 7fbd 80b4 803d
00000060: e283 eabd 73d0 623e 0876 9dbd 689c 21bd
00000070: 7aa9 85bc 01fa 81bc 0e65 7c3d 00c0 43bd
00000080: 4b91 2b3d 502e c4bd 83bf bfbc e384 203d
00000090: fc39 09be 3234 48bb 4fbf 9f3d e073 c839
000000a0: 26b5 8d3d a809 0e3e b6b5 21bd 1ee7 81bc
000000b0: f773 ddbc c099 75b1 9caf a73c 1623 07be
000000c0: a5b5 9bbc 009a c1bc 818b 913d 665d 4c3e
000000d0: cea8 40be a3e8 3abc 43a5 e1ba cae1 64bd
000000e0: 3b30 c0bd f51a ba3d 98b1 8fbc a23d bf3d
000000f0: 9e66 4abd 2c4a cabd c435 20bc 4f4e 47bd
0.01910893 -0.07259424 -0.15533635 0.17771192 0.006091583 -0.021281237 -0.04327998 -0.076017864
0.04256543 0.29010788 -0.15990789 0.127128 -0.02183426 0.030647464 -0.011854013 0.059849516
-0.005093032 -0.016481394 -0.116574146 0.07423946 -0.021123927 -0.0015672662 -0.062456977 0.06284428
-0.11450936 0.2214983 -0.07688528 -0.0394558 -0.016316164 -0.015866281 0.06161981 -0.047790527
0.04188661 -0.09579146 -0.02340675 0.03918923 -0.13401026 -0.003054869 0.07800161 0.00038233306
0.06919317 0.13870871 -0.039479934 -0.015857276 -0.027032835 -3.573959e-09 0.02046948 -0.13196978
-0.019007513 -0.023633003 0.071066864 0.19957504 -0.18814394 -0.011408004 -0.001721539 -0.05587939
-0.09384199 0.09087173 -0.017540738 0.093379274 -0.04941427 -0.098774284 -0.009778444 -0.048658665

output_b f4 [5]
00000000: 28b7 043c 1817 0cba 262d 36bf 1b5e 30bf
00000010: ff92 d33b
0.0081003085 -0.00053440174 -0.7116264 -0.68893594 0.0064567323

embedding_w.weight f4 [64, 4]
00000000: 954b 863f c8ff bfbe 120c 64bd 3319 d7bd
00000010: 7c2e 07bf 9b85 83bd 54ac 87be 7245 073e
00000020: 50f1 cabe 77d6 693d ce8b 193e c049 20be
00000030: 1349 84bf 8e96 823f 5232 35be f08c 903e
00000040: 6e28 22bd 7448 2fbc 7e49 8bbd 2cf6 853c
00000050: b2b3 0fbc 6134 ff3c 3a4e 233e a584 11bc
00000060: 1fba 03bf 63ba 5d3f bee1 253b d9e6 bbbd
00000070: 2ca4 02bf b871 5f3e 1b89 d5bd 002f c9b9
00000080: b946 aa3c 55b2 773f 835b b5bd 0c79 903b
00000090: b4e8 25bf cba9 9fbf f4a4 26be 97b3 373e
000000a0: e813 2c3e ad38 b8bd e496 36be 89d1 973d
000000b0: 708a b33d b472 783f 3ace e93d 6d06 c13e
000000c0: 6a3d 323c e622 113d b6f8 a33d 210a 5cbc
000000d0: b8d6 85bf e019 47be e7a0 8ebd 6cb7 2dbe
000000e0: 05ea e33d 2ba2 96bf 0b3a 093e 3be8 22bd
000000f0: d67b a63f 651d 483f 7073 793c 4baa 2fbc
00000100: 04ff 5139 26a7 b5a0 ceff 1739 04b3 68a2
00000110: 0290 943c 7483 6f3d 136f 41bd 8f02 b7bd
00000120: 4959 1fbf 350a a8be 4cd5 123f 0826 6e3e
00000130: 66b2 813f 7a65 54bf 6e9e 893d 19aa a9bc
00000140: 98c8 613f 10c3 1abf 700e c9bd ee5f 29bd
00000150: 9c5d 17ab a5cf d935 0484 611c a09c 6b39
00000160: 8f20 b63d 748e 0ebf 9d66 9d3d 847b 433e
00000170: f76e 823f ae14 28be 15a7 c83e bf76 bb3e
00000180: 26d0 903f 7481 3b3f 793c b93d c993 bf3d
00000190: 2bc5 5c3f 8f88 703f 4e88 3d3d 23a0 1e3c
000001a0: 0a86 1f3e 0b4b 883e 0479 fbbd ad58 58be
000001b0: 5f67 80bf df7d 613f f7a0 84be 229c dc3d
000001c0: b0f2 703b 974b e83c 18fe c9bc 3d25 55bd
000001d0: 564d 4f3f 322d 74be 8eb8 31bd 886a 9b3d
000001e0: 2452 f33e d341 293f e4d9 c23c 4091 6d3d
000001f0: 137b 963f e10a df3d c36b 26be 152f 653e
00000200: 6489 f4bd ee4a 913d 24b2 a0bb ce78 a73d
00000210: 2dd4 f53e 48bb eb3e 1b47 a5bd db71 0bbe
00000220: 6bdb 513d e42c 733d 382a 1abd f35d 71bd
00000230: 68d5 823f bd4c 55bf 2870 663e ea6e 00bf
00000240: c3b8 54bf fb5e 573e a485 813d 1dd3 19be
00000250: 7ea6 31bb f633 d83a ede1 4eba 1d82 d7b9
00000260: d479 123f 2528 78bf a9b2 8e3e 0a9d b13d
00000270: 662d 683d 3bb3 ad3d 63a9 103d 3fc1 4a3d
00000280: e381 94bf 27db 11bf 5a09 01be 0dd8 6dbd
00000290: 9ac4 eabc e425 943f f054 a23d ba49 d63e
000002a0: 28c1 99be 8dc4 66bf 0f6e 353d bef9 16bf
000002b0: 52e1 14bc 2701 88bc ebff afba 73bc 4abc
000002c0: 296a 0cbd fcce 10bc 429a 02bb 925b 083d
000002d0: 1a4d af20 e43c d4a2 9f1b 0d21 ba65 46a3
000002e0: a983 81bd 67ab 9a3d 98af 4a3d 6f52 2c3e
000002f0: c7c9 023f d430 ad3e d402 6bbc ceac 413e
00000300: 49b2 2c3f 1e47 47bf bff6 9fbd 628e f93d
00000310: 95fc 923c 570c a3bc 207b 743c 13bd 01bc
00000320: 9e9e ecbd 02ae a13f 8235 b43d 5893 f0bc
00000330: 595a aa3f 44ff 4f3e 639d 053d 9d6a 113e
00000340: af56 e63e a663 d63e bcb4 1abe 2773 4ebe
00000350: bebe c134 6801 2030 ec68 123b 780d fa2f
00000360: 9f28 b734 6889 f836 8201 3bb7 84d4 cb39
00000370: b0c1 343f cc8f ebbe 90e5 503d b347 1a3e
00000380: 66e4 2abf bcf8 e0bc 0aff abbe bfd8 4c3e
00000390: 8315 933f f1d0 e93e 9c32 193e 370b 32be
000003a0: f056 443c 59b1 043d 4231 40bd fdee 04bd
000003b0: 453a 1f3f 48b6 7f3f 1136 693c 2bc3 2fbd
000003c0: 984f 5fbf 8458 893e 88f5 2b3e 3229 aebc
000003d0: 9473 9cbe b6c7 8dbf db9b 15bd 6e37 b0be
000003e0: 4972 103d 1c12 8a3c fb67 7dbd 92de 32bc
000003f0: dec2 523f 246d 773f 9cda 233c 5f46 113d
1.0491816 -0.37499833 -0.055675574 -0.10502853 -0.52805305 -0.064219676 -0.26498663 0.13210085
-0.39637232 0.057089295 0.14994738 -0.15653133 -1.03348 1.0202196 -0.17694977 0.28232527
-0.039589338 -0.0106984265 -0.06801127 0.016352735 -0.00877087 0.031152906 0.1594781 -0.008881723
-0.51455873 0.8661253 0.0025311555 -0.0917489 -0.51031756 0.21820724 -0.104265414 -0.00038372725
0.020785676 0.9675649 -0.08855345 0.004408961 -0.648082 -1.2473692 -0.16273862 0.17939602
0.16804469 -0.08995185 -0.17830998 0.074130125 0.08766639 0.97050023 0.11416288 0.37700215
0.0108789 0.035433672 0.08006422 -0.013430149 -1.0456152 -0.19443464 -0.069642834 -0.16964501
0.1112862 -1.176824 0.13401048 -0.039772253 1.3006542 0.7816985 0.015225276 -0.010721753
0.00020026794 -3.0773202e-19 0.00014495777 -3.1536633e-18 0.018135075 0.058474973 -0.04722507 -0.08936035
-0.62245613 -0.32820287 0.57356715 0.23256695 1.0132568 -0.8296734 0.06719671 -0.020710992
0.88196707 -0.6045389 -0.09817207 -0.04135125 -5.3775886e-13 1.6228192e-06 7.461688e-22 0.00022469694
0.08892929 -0.55686116 0.076855876 0.19090086 1.0190114 -0.16414139 0.39189973 0.36614034
1.1313522 0.73244405 0.09044737 0.0935436 0.86238354 0.9395837 0.04627257 0.009681734
0.15578476 0.26619753 -0.12278941 -0.21127577 -1.0031546 0.8808269 -0.25904056 0.107719675
0.0036765747 0.028356357 -0.024657294 -0.052037466 0.8097738 -0.23845366 -0.043388896 0.075886786
0.47523606 0.66116065 0.023785539 0.05799985 1.1756309 0.10890747 -0.16252045 0.22381242
-0.11940268 0.0709437 -0.0049040485 0.081773385 0.4801344 0.46041322 -0.08070203 -0.13617651
0.051234644 0.059368983 -0.03763792 -0.058927488 1.0221376 -0.8332022 0.22503722 -0.5016924
-0.83094424 0.21032326 0.06324318 -0.1502194 -0.0027107294 0.0016494978 -0.0007891942 -0.00041104938
0.57217145 -0.96936256 0.27870682 0.08672531 0.05668392 0.08481451 0.03531779 0.0495007
-1.1602138 -0.56975025 -0.12601224 -0.05806737 -0.0286582 1.1574063 0.07926357 0.41853124
-0.3003018 -0.9014366 0.044294413 -0.58974826 -0.009086924 -0.016602112 -0.001342771 -0.012374031
-0.03428093 -0.008838411 -0.001992837 0.033290453 2.9697175e-19 -5.7527186e-18 4.7809214e-19 -1.0755143e-17
-0.0632394 0.07552224 0.049483865 0.16828321 0.5108914 0.33826315 -0.014343936 0.18913576
0.6745954 -0.7784289 -0.07810735 0.121853605 0.017942706 -0.019903345 0.014921933 -0.007918614
-0.11553691 1.2631228 0.08799268 -0.029367134 1.3308822 0.2031222 0.0326208 0.14200826
0.4498801 0.418729 -0.15108007 -0.20161115 3.6087835e-07 5.820966e-10 0.002234037 4.5484305e-10
3.4115962e-07 7.406972e-06 -1.114642e-05 0.00038877514 0.70608044 -0.46008146 0.051000178 0.15066414
-0.6675476 -0.027462356 -0.33593017 0.20004557 1.149094 0.45667222 0.14960712 -0.1738709
0.011983618 0.032395694 -0.046921976 -0.03245448 0.6219829 0.99887514 0.014234082 -0.042910736
-0.87230825 0.26825345 0.16792881 -0.021259878 -0.3055693 -1.1076572 -0.03652559 -0.3441729
0.03526524 0.016854338 -0.06186674 -0.010917323 0.82328594 0.9665091 0.010000851 0.0354675

embedding_w.bias f4 [64]
00000000: 4f95 6fbc 48ac 94bd 2e48 a43d 7756 04be
00000010: e79b c73b fd55 aebc 6e14 a0bb 7639 9ebd
00000020: 4b32 32bd a15e c03c dcde e13d 8994 aa3d
00000030: c3dd b2bc a48b ec3c 9a58 173e 36df c4bd
00000040: 73e3 a6bb fd03 87bc 4859 053c e3cb b23e
00000050: eaad b33d ba6c cdba ecfc c53d 40cf 1abd
00000060: 9add a7bd bd24 8c3d 6537 843d 91a8 22be
00000070: 7aa9 85bc cdf3 3e3e b2e1 b73e 1422 2c3c
00000080: 4b91 2b3d f8e5 103e 83bf bfbc afdd 5fbd
00000090: 091f d43b 3234 48bb 399a c03d e073 c839
000000a0: 184a e73d 3a70 2b3e 895b 9b3d 1ee7 81bc
000000b0: f773 ddbc c099 75b1 9caf a73c c4dd 853d
000000c0: 3bd8 173d 009a c1bc 11ef 16bc 539f 9a3d
000000d0: 6c83 e33d a3e8 3abc 43a5 e1ba 4b4e 3d3c
000000e0: 5330 c0bd adcd 463e 98b1 8fbc d84b a63d
000000f0: 738e 8bbd 9a4a 0f3e c435 20bc 3b11 bebd
-0.014623 -0.072594225 0.0802158 -0.12923609 0.006091583 -0.021281237 -0.004885248 -0.077258036
-0.043504994 0.023482623 0.11028835 0.08329112 -0.02183426 0.02887518 0.14779893 -0.096128866
-0.005093032 -0.016481394 0.008138962 0.34921178 0.08773406 -0.0015672662 0.09667382 -0.037795305
-0.08196564 0.06842945 0.06455878 -0.15884615 -0.016316164 0.1864769 0.3591438 0.010506172
0.04188661 0.14150226 -0.02340675 -0.054654773 0.0064734262 -0.003054869 0.09404416 0.00038233306
0.11293429 0.1674203 0.07585818 -0.015857276 -0.027032835 -3.573959e-09 0.02046948 0.06536439
0.037071448 -0.023633003 -0.009212271 0.0754992 0.11109051 -0.011408004 -0.001721539 0.011554311
-0.09384217 0.19414397 -0.017540738 0.08119935 -0.068142794 0.13993302 -0.009778444 -0.0928063

embedding_t_w.weight f4 [1, 8]
00000000: d26d 1abe 681a e2bd daeb 36be e4bd 7bbc
00000010: f84e 19be 497b 95bd a7be 0ebe 0bd8 28bc
-0.15080956 -0.11040193 -0.17863408 -0.015365098 -0.1497153 -0.072989054 -0.13939916 -0.010305415

lstm.weight_ih f4 [512, 65]
00000000: 4655 babc 0626 d43b f64f e0ba a59b 1fbc
00000010: 7e74 b9ba 38cf 13b8 f10c 9eba f27a d0ba
00000020: bdf7 46bc b798 b7bc d7e0 98bb 387e ecbc
00000030: a81b 3838 9d16 023c 3f1a 97bc e611 d6bc
00000040: 3351 5fb7 f522 bbb9 a4a0 cc3b 1649 73bd
00000050: 1043 dbbc fe4b 0180 d3b9 9d3a 1fb5 94bc
00000060: b62a 87bc e25f 3abd 8049 3cb8 f80e a6ba
00000070: 8ea2 32b8 e1af 01bd aa32 83bd de25 c9bc
00000080: 41b4 093c 4b7e 96bc a2be a438 3a14 89bc
00000090: ba6d 1d3b 46de c026 a599 babc 1f6c 0b3c
000000a0: 2ccb 9abb 28c0 20bd d4ef 53bc be7a bda7
000000b0: 50ba 182b 0f54 e23b 4d0e c03b 82a4 57bc
000000c0: b766 8abc 7837 af37 3a00 5abc cac1 49bd
000000d0: cc20 f3ba a6e8 b4b6 ee7c d238 1ad5 ebbb
000000e0: c059 1b3c 9b79 2ebd 5af8 b638 a43a 04bd
000000f0: 8ea7 d53a 035a aabc b40d 3e38 e112 b9bc
00000100: 4444 14bc ee96 d2bc d532 5cbc daee 4dbc
00000110: aaf7 24be 83d2 8fbc 5d2f af3a 3dce 34bd
00000120: ffed 003c 66cd 7abd 254c d7bd 8b66 8c3c
00000130: 8b07 62be c6bc d4b9 6177 d8bd fba6 cdbd
00000140: 90ba ecbc 6226 d9ba fe41 363c 78eb 883d
00000150: 4baf b4bd 9df8 0bbd 763b f716 163e 66bd
00000160: 2ac1 12bd c033 16bd b374 05be ef5e 523b
00000170: fca4 bdbc 70e7 d1bb 2fb5 59bd 9755 30be
00000180: c9c7 46bd 3f60 46bd ff96 01bd b857 7fbb
00000190: 566c b8bd fa7a abbc 7c3d b6b5 b264 c7bd
000001a0: dc04 70bc 78b3 44be e205 a1be c1a0 18be
000001b0: 5e62 78af eef7 ccb9 0db7 eb39 f9dc 24bd
000001c0: 2b45 24bd 527d 20bd 309a 4e28 ce1d 01be
000001d0: 6c1d 40bd 804a 973b c6da a43b b58b 499a
000001e0: d878 ffbc 9252 6abc 6088 87bd f745 11b8
000001f0: c9cd cebd 7c5e a9bc 26c5 e2bd d109 c039
00000200: c9e6 55bd 9d1c 983d bdeb b83d 332c e7bc
00000210: fde7 7ebc 2e66 9d39 bc74 d0bc 9227 be3c
00000220: 87c7 2a3d d4a4 033c 439d d73c bbaf 92be
00000230: 9fea aa3c 8f53 c13d 0158 173c ffd8 abbd
00000240: 8627 1cbe bef4 433e e210 2abc 81cb 4a3c
00000250: ffd1 7ebd f0f2 51bd 75dd 493d 2110 4718
00000260: 401e e2bd f278 5a3c 8bc5 ac3d b9fc 933e
00000270: 72a4 143d dc07 443d d925 ffbc e4c4 973d
00000280: a1d5 2e3e 84f5 2f3e 77d6 2ebc ed0b 643e
00000290: ee43 183c 746c 08bd 600e 8ebd a4b7 34b7
000002a0: 51b6 debd 7070 0abd 384a 66be 34a2 b23d
000002b0: e007 08be 5c43 1535 9cf9 1abb ccee d9b4
000002c0: 8f33 cfbc 3ee7 6d3d c6f1 f0bc 1c02 51ae
000002d0: e898 0f3e 4db5 523e 83ab 9f3d b21e 94b7
000002e0: 171f 4999 fb39 f1bc 9994 21bd 562e 5f3e
000002f0: 389a 1438 872d 8a3e 1871 85bd 0bbc 23be
00000300: b354 283b cebf bf3d 77ea 54bd d4cd 81bd
00000310: f1ae 133c f8aa 93bb 41c7 383e 40c1 b9bb
00000320: aba3 ba3b 0ed4 e83d 702e fa3c e0f2 523d
00000330: 232a aebd 6870 16bc 901f 963e 5074 003b
00000340: 1169 4abd 39f5 4cbe c7c6 0a3e ccf3 8ab4
00000350: b676 0dbd 3b78 2c3e e423 91be 011c c9bd
00000360: 5ccf 14a0 127e a3bc 3a63 e63d f25b f83d
00000370: d1a6 b03d 2a45 abbd a0ca 9a3d 060f adbc
00000380: 4e36 a7bd c90d e13d b7d2 903d 9cc2 9fbd
00000390: fc01 e4bb 6079 77bc 873c 22be 138e 76bc
000003a0: 2a04 8b37 41e1 3fbd 3023 903a 564c 33bd
000003b0: 909e a43e 270b 89be 1e83 ffb8 30f4 9dbb
000003c0: a20a 74ba c95b 4fbc 1d5b 0e3d fb07 71bd
000003d0: 4056 4fa5 4e35 893e 4c36 173d 1bec e6bc
000003e0: aa02 ae38 f7c0 f61b ed59 0d3c 0217 e93c
000003f0: 7b9c e53b 9d61 54bb 3997 c43d 57e7 c13d
-0.02274574 0.0064742593 -0.0017113674 -0.009741698 -0.0014149097 -3.524052e-05 -0.00120583 -0.0015905781
-0.012144026 -0.022411687 -0.004665475 -0.02886878 4.3894775e-05 0.007939962 -0.018445132 -0.026131582
-1.3310741e-05 -0.00035693464 0.006244736 -0.059395872 -0.026765376 -1.19096e-40 0.0012033529 -0.018152772
-0.016499858 -0.045501597 -4.4891145e-05 -0.0012669256 -4.2589898e-05 -0.03166187 -0.06406148 -0.02455419
0.008404792 -0.018370768 7.8556375e-05 -0.016733278 0.00240217 1.3382924e-15 -0.022778342 0.008509665
-0.004723927 -0.039245754 -0.012935597 -5.2591115e-15 5.425981e-13 0.006906993 0.00586108 -0.01316178
-0.016894681 2.0887455e-05 -0.013305718 -0.049257077 -0.0018549203 -5.391502e-06 0.0001003685 -0.0071970345
0.009481847 -0.04259644 8.724695e-05 -0.032282487 0.0016300546 -0.020794874 4.5312292e-05 -0.02259201
-0.009049479 -0.025706735 -0.013439854 -0.012569154 -0.16110101 -0.017556434 0.0013365556 -0.044141997
0.007869243 -0.06123104 -0.1051257 0.01713874 -0.2207319 -0.00040576438 -0.10569645 -0.100416146
-0.028897554 -0.0016567225 0.011124132 0.06685537 -0.08822497 -0.034172643 3.9942527e-25 -0.056211554
-0.035828747 -0.036670446 -0.13032798 0.0032100042 -0.02314996 -0.0064057633 -0.053151306 -0.1722015
-0.048530374 -0.04843163 -0.03163814 -0.0038962197 -0.090050384 -0.020932663 -1.3577951e-06 -0.09736003
-0.014649596 -0.19209087 -0.314498 -0.14905073 -2.2590416e-10 -0.00039094634 0.00044959076 -0.0402498
-0.040105026 -0.039182015 1.1468731e-14 -0.12609026 -0.04690306 0.0046170354 0.0050309626 -4.167868e-23
-0.031185552 -0.014301913 -0.06617808 -3.4635854e-05 -0.10097844 -0.020674936 -0.11072759 0.00036628408
-0.052222047 0.074273326 0.090293385 -0.028219318 -0.01555824 0.00030021503 -0.025446288 0.023212228
0.04169419 0.008034904 0.026320105 -0.28649697 0.02086383 0.09439766 0.00923729 -0.08390998
-0.15249452 0.1913633 -0.010380002 0.012377621 -0.062211987 -0.051257074 0.049283464 2.572829e-24
-0.11040926 0.0133345 0.08436116 0.2890375 0.03628964 0.047859058 -0.031145977 0.07410601
0.1707368 0.171835 -0.01067125 0.22270174 0.009293539 -0.033306554 -0.069363356 -1.0771593e-05
-0.10874618 -0.033798635 -0.2248925 0.08722344 -0.13284254 5.5604846e-07 -0.0023647314 -4.0593147e-07
-0.02529314 0.058081858 -0.029412162 -4.752297e-11 0.14023173 0.20576973 0.07796385 -1.7657268e-05
-1.0397735e-23 -0.029446593 -0.039448354 0.2179502 3.5429577e-05 0.2698786 -0.065157115 -0.15989701
0.002568525 0.09362756 -0.051981416 -0.06338087 0.009013877 -0.004506465 0.1804476 -0.005668789
0.0056957803 0.11368571 0.030539721 0.051501155 -0.08504131 -0.009182073 0.29320955 0.0019600578
-0.049416605 -0.2001542 0.1355239 -2.588189e-07 -0.03453704 0.1684274 -0.28347695 -0.098197944
-1.2604697e-19 -0.019957576 0.11249395 0.12126912 0.08625568 -0.083628014 0.07558179 -0.021125328
-0.08164655 0.109889574 0.07071441 -0.07800791 -0.0069582444 -0.015104622 -0.15843402 -0.015048522
1.657203e-05 -0.04684568 0.0010996815 -0.04377397 0.32152224 -0.2676632 -0.0001218377 -0.004820369
-0.0009309446 -0.012656161 0.03475486 -0.0588455 -1.798361e-16 0.2679848 0.036917016 -0.028188756
8.297463e-05 4.0821987e-22 0.008627397 0.028453354 0.0070071793 -0.0032406815 0.09599156 0.09467953

lstm.weight_hh f4 [512, 128]
00000000: 90b4 3b3a 9e74 2c3a 3b4f b13c 1429 77bc
00000010: 0aff af3a d100 d03b 3406 963b 04c4 c6bb
00000020: 5c75 5d3a 38b0 90bb 488c d739 b6e6 25bb
00000030: 6ab7 fd3b 37e2 84bb 786a cf39 38d8 c7ba
00000040: 3d1a 823b 7c74 2a3b 5f2a 6ebb 20ed 1e3a
00000050: dc15 eeb9 4edd cbbb 3ea0 dabb 2043 d93b
00000060: 0c5b abb9 534c f33b 87c5 cdbb de31 10bb
00000070: 90e1 b13a 4000 10ba b20d 443b a444 7cbb
00000080: 3659 b9ba 724b dc3a e83d 1ebb cf3c ddba
00000090: 2823 c23a 50d1 5cbb 98a8 0bbc ec1e 91ba
000000a0: 08e9 063d d422 7e3b 503b 9e3a 9bf2 9dbb
000000b0: 8649 023a 688d 76ba 7e36 7d3b 2eaa e93a
000000c0: 0c32 313c 7699 4d3b 62b3 e0bb ddcb 0b3b
000000d0: 6e97 fa3b d448 c839 71d3 2f3b ca24 553a
000000e0: b89f a3bb 6c09 0abb 2c7a 09bc 9965 29bb
000000f0: 186d ef3b 7a14 babb 8663 333c de89 c4bb
00000100: 7993 903a 0c83 d4ba de17 0d3a fa53 1a3c
00000110: a125 f5ba e498 a83a 4d5b d1bb 5ae8 1cbb
00000120: 102d 0dbd e0d0 2239 d6cc 36bb 0c1d 7cb9
00000130: debf 0c3a 7ab8 d0bc 4271 38bb f096 033b
00000140: c035 f437 30f7 fc3a e8a7 b739 b2b3 563b
00000150: 0ef4 b139 304d 313c beab 1cbb 9da6 c93b
00000160: 437c 4b3c 781d 3d39 c573 ebba 2a69 cf3a
00000170: 8a1f ee3b 3c33 b5b9 5ce6 f6bb b830 34ba
00000180: 87a9 38bb fc3e e93a 1b07 8b3c dc48 f2bb
00000190: 24c8 2dbb 39a9 54bc 28c0 793b 5f9e 953d
000001a0: 73a1 363a e248 f73b 2e0b 063c 01d7 403c
000001b0: c0e3 cdb7 c49e 96ba 7255 aa3b ec08 63bb
000001c0: 00ec 1b37 8e48 3f3b b00e 94bb 7bc6 2d3b
000001d0: 2279 8b3b 3470 2dbc e4c9 5d3a bbb0 c7bb
000001e0: da3d 44bb d0ff 0939 cc56 d8ba 2ee4 d3b9
000001f0: c27d 95bb 20c3 76ba 0cc8 003b e959 80bb
00000200: c4d5 c9ba 735e a93c b4c2 763c 4649 a4bc
00000210: 7acf 77bc a4ea 33bc deda 233e c2e2 0f3c
00000220: 6045 cab8 7889 843c 2cd2 663a 8f7e c13b
00000230: e6c0 60bc f8af 9e3c ae49 2dbc 43a8 b23b
00000240: cd2c 83bc 5b02 ab3b 4465 e93a 1fef acba
00000250: 6895 0d3c 302f 25bd 5240 a83a 5bb9 f6bb
00000260: 72b0 14bc 0d5a 8dbb 04be 383b 1836 b239
00000270: d207 8b3c be6b 1f3c 86d7 cabb 5a84 f0ba
00000280: b8b1 d7bc 7b29 52bc 4dc9 343c 7af5 58bc
00000290: 495a 98bc 21b2 6cbc 89cb 553d 1bda 0b3c
000002a0: 1645 973e 5c42 97bc 8f51 fbbb 39ae 4c3c
000002b0: a8c6 33bc 56b8 ea3b 3bb3 b4bb 750c ac3a
000002c0: acfa 113c 3631 303d a419 f03c 4b4c 54bc
000002d0: db75 8cbb 81c1 443c 3bd7 20bc 685d cd3c
000002e0: 67cd 803c 0368 2cbc 915b 063c 2c55 573b
000002f0: 001b 56bc 7dbf 83bc 88e4 fbba 72ee 833c
00000300: 0410 57bc 4fff c13d dc19 e4ba 205b 12bc
00000310: 75ba 20bc 9e7b 103c 151b 773b 7003 ecb9
00000320: 5935 87be 8b88 793b c3e1 913c ca3d 1d3a
00000330: 784d f33a 1012 77be badc 25bc 2930 253b
00000340: 3e58 5abc be32 d1bb 86f2 2d3b 72e6 953c
00000350: 705c 3cbc c9ae 843d 37fa 1e3d ded5 783b
00000360: c1e8 163e c608 953c 20ae 56bc 6843 8dbb
00000370: 0c1f 0cbc 7e1d d0bb 5ea5 91bc f184 9eba
00000380: ca27 0cbc 3c22 79bb 88e1 3a3d 8c44 063c
00000390: f781 a5bc cc0f 6fbd 5118 0e3c fe01 693e
000003a0: bc6d bb3c d0e4 febb 0971 cdba ee52 babb
000003b0: b524 523c abf5 933b 2605 a5bb 8163 7fbc
000003c0: 405d b23b 2ac0 de3d 4fb7 373c 51ca 48bc
000003d0: 122e 153c 3a93 f6bc 9d1f 82b9 e317 743b
000003e0: 0c38 56bc c0e0 2838 daf9 683b c0f0 2fbc
000003f0: 849a 933b 0ad6 543c 2227 513d b7d3 1cbc
0.000716039 0.00065786566 0.021644225 -0.015085477 0.0013427448 0.0063477536 0.004578376 -0.0060658474
0.0008447969 -0.004415538 0.00041112513 -0.0025314516 0.007742812 -0.004055287 0.00039561442 -0.0015246933
0.003970413 0.0026009372 -0.0036341173 0.0006062556 -0.00045411184 -0.00622145 -0.0066719344 0.0066303164
-0.00032683497 0.00742487 -0.0062796506 -0.002200238 0.0013571251 -0.00054932013 0.002991539 -0.0038493061
-0.0014140967 0.0016807152 -0.0024145786 -0.0016879084 0.0014811503 -0.0033694096 -0.008524083 -0.0011071838
0.03293708 0.0038778083 0.001207212 -0.0048201806 0.00049700623 -0.00094052264 0.0038637216 0.0017827207
0.010815155 0.0031371987 -0.0068573216 0.0021331229 0.0076474464 0.00038201234 0.002682891 0.0008130787
-0.004993405 -0.0021062745 -0.008390944 -0.002584791 0.007306706 -0.0056787105 0.010949021 -0.0059978804
0.0011030278 -0.0016213371 0.00053822796 0.009419436 -0.0018703231 0.0012862948 -0.0063890577 -0.0023942203
-0.034466803 0.00015527336 -0.0027893088 -0.00024043414 0.00053691666 -0.02547859 -0.0028143679 0.002007898
2.9112096e-05 0.0019299742 0.0003502958 0.0032760915 0.00033941906 0.010821626 -0.0023906077 0.006153895
0.012419763 0.00018035423 -0.0017963579 0.0015824188 0.0072669433 -0.00034561183 -0.007534785 -0.0006873715
-0.0028177218 0.001779526 0.016971162 -0.0073939394 -0.0026516998 -0.012979799 0.0038108919 0.073055975
0.0006966807 0.00754653 0.008181376 0.011770011 -2.4543959e-05 -0.0011491408 0.005198174 -0.003464277
9.293668e-06 0.0029187533 -0.0045183524 0.0026516009 0.0042563835 -0.010585833 0.0008460565 -0.006094066
-0.0029944093 0.00013160636 -0.001650536 -0.00040415063 -0.0045621106 -0.0009413231 0.0019650487 -0.003916968
-0.001539879 0.02067492 0.015061069 -0.02005447 -0.01512515 -0.010981236 0.1600146 0.008782091
-9.645033e-05 0.016178831 0.0008805122 0.0059049795 -0.013717866 0.019371018 -0.010576649 0.0054521873
-0.016012574 0.0052187867 0.0017806669 -0.0013193822 0.008641578 -0.040328205 0.0012836552 -0.0075294203
-0.009075271 -0.0043137134 0.002818943 0.0003399111 0.016971502 0.009730278 -0.006190243 -0.0018349991
-0.02632986 -0.0128272725 0.011034322 -0.01324212 -0.018597739 -0.014446766 0.05219606 0.008535887
0.29544896 -0.01846426 -0.0076696347 0.01249271 -0.010972656 0.007163088 -0.00551453 0.0013126271
0.0089098625 0.04301568 0.029309101 -0.012957643 -0.0042865104 0.012009026 -0.00981694 0.025068954
0.015722943 -0.010522845 0.008200542 0.0032857163 -0.013067961 -0.01608252 -0.0019217888 0.01610491
-0.013126377 0.094725244 -0.0017402726 -0.008932859 -0.00981008 0.008818535 0.003770535 -0.0004501599
-0.2640789 0.003807577 0.017807847 0.0005998282 0.0018562516 -0.24127984 -0.010123426 0.0025205708
-0.013326703 -0.006384223 0.002654226 0.018298361 -0.011496648 0.0647865 0.038812842 0.0037969272
0.14737226 0.01819266 -0.013103038 -0.004311014 -0.008552324 -0.006351172 -0.017779049 -0.0012094063
-0.008554408 -0.003801479 0.04562524 0.008195054 -0.020203574 -0.058364674 0.00867279 0.22754666
0.022879474 -0.0077787414 -0.0015673946 -0.0056861555 0.012826134 0.00451537 -0.005036014 -0.015587688
0.005443245 0.10876496 0.011213138 -0.012255267 0.009105222 -0.0300995 -0.00024819086 0.0037245683
-0.013074886 4.0263636e-05 0.0035549314 -0.010738552 0.0045045037 0.012990484 0.05106271 -0.009571961

lstm.bias_ih f4 [512]
00000000: a0dc 17be b82a 49be 80c6 ad3d 04d3 10be
00000010: 9b2e 53be b74c 21be 8e5b e53e 43f6 19be
00000020: 227f 54be 79d3 12be d4d6 29be b8bf 3fbe
00000030: c3bb 24be 0825 22be bdbe 25be 6443 2cbe
00000040: 3c7e 29be ce2a 2ebe 0bc9 03be 2710 20be
00000050: 8aeb 22be e127 80be 8229 4ebe 333e fdbd
00000060: 5780 22be b668 2abe 221e 51be dca7 2bbe
00000070: aac5 02be a0b2 22be cec1 31be e082 3ebe
00000080: 92c5 07be 41c0 6dbe e694 24be 5873 26be
00000090: 3790 25be 50df 3ebe 824a 9abd 662e 2ebe
000000a0: 6f23 e23e 4683 24be b1a3 0fbe a534 28be
000000b0: 7244 21be e85a 1cbe 7dc8 3abe 1edf 3dbe
000000c0: fa19 2ebe 1ea5 b1bd 762e c8bd f5fe 2fbe
000000d0: f4ec 32be 4d53 23be 888c 4dbe da04 24be
000000e0: 89bf 28be fc6e 2abe 4cfb f3bd b3d3 0abe
000000f0: 8e46 90be 2139 3dbe ccbf 1fbe 7ab3 69be
00000100: f2b7 78be 5d4f c03e cb40 25be 96b0 63be
00000110: ab57 38be e7f0 25be 6118 39be a995 fbbd
00000120: 43d5 233d cb3c 21be 653c 30be 6e36 1ebe
00000130: acc9 49be c7da 073f 15f8 13be 60d0 c2be
00000140: 9960 15be 61d2 15be 77c9 2fbe 5d7c 52be
00000150: 78e8 02be 2e5c cabd b269 ddbd e2fa 2abe
00000160: 3012 f73e 6e9f 44be 4a43 4dbe f440 5cbe
00000170: 178e 60be 3e16 15be ca26 83bd 81da 20be
00000180: 1a84 32be 5710 20be e19f ebbd 779a 24be
00000190: 08fa 27be 9c87 d8bd babb 19be 7408 cb3e
000001a0: 7e63 1abe a085 3dbe 343e 1fbe 37db 0bbe
000001b0: b6a1 1fbe cebc 22be c9f1 30be c11c 39be
000001c0: cc9f 12be d77f ec3e f39d 8dbe 92ce 30be
000001d0: 3e9e 2cbe b9b4 1cbe 9e20 1dbe 4e11 4bbe
000001e0: daed 3abe 390a 13be 529e 1cbe 1483 e6bd
000001f0: b60a 37be 3737 33be 2c44 24be 73e7 17be
00000200: 8192 c1bd e426 85be 31e3 d43d cbd3 71be
00000210: 276d 5ebe d067 c9bd ae38 aa3d 201e 91bd
00000220: 3619 f6bd 10b7 44be 65c6 b8bd 0f4d e1bd
00000230: 23fd d3bd 4bd9 90be 341d d3bd e131 b4bd
00000240: 4ed1 cfbd ce30 e3bd dd91 c1bd 5754 debd
00000250: c04b cfbd 2262 53be 9957 9ebe be7a 95bd
00000260: debd d6bd 98f3 b1bd 5e2d 1ebe 73ae cebd
00000270: 04fe aebd 0e33 b2bd 1b91 c6bd e05c bcbd
00000280: 32c2 aebd 7cce 22be b431 b4bd 2ce5 e0bd
00000290: 28a5 adbd 9779 cdbd a76f d9bd 1032 c0bd
000002a0: 8f29 893e a974 b7bd b050 9bbd b2eb d1bd
000002b0: bb44 c4bd 5da7 abbd 8419 d8bd 1d1e 02be
000002c0: 8fb2 46be af9a 61be 7e44 4ebd cbff e6bd
000002d0: b296 c4bd 03f5 d0bd 47ff c0bd 3e16 c6bd
000002e0: 1614 cebd a5e1 d0bd 2dd2 82bd d812 8dbd
000002f0: 19bb 58be 0a19 a6be d774 a8bd 02ff 2cbe
00000300: ff26 0fbe 98da 2cbd 5eb4 cfbd 3573 21be
00000310: 14ce f2bd e982 c7bd f169 cbbd cbf8 c2bd
00000320: 57ef 53be cebf d0bd 9320 d2bd effb d6bd
00000330: 42d2 e0bd 11a7 8f3e da84 cabd 79c7 41be
00000340: bf46 b0bd 7feb c2bd 75a8 dfbd bb63 28be
00000350: d26e a6bd 3e38 07be ebeb 2fbe 4419 edbd
00000360: 9255 873e 6ca6 b7bd 699b ffbd 3fb3 e5bd
00000370: 04ca 2bbe fbe2 c1bd dc3d 99be e04e aabd
00000380: 56a6 e1bd 95b2 b8bd 10d4 4cbe c979 dbbd
00000390: 29bb 14be 0a69 43be 2662 c6bd 2ce0 3bbd
000003a0: 9ddc adbd 77e6 debd ce6c d5bd ae0c 0fbe
000003b0: 2415 c3bd f345 a7bd 0eeb bdbd 13f3 f5bd
000003c0: be94 d4bd 6bbf 113e 3edd aabe 4cff c9bd
000003d0: 7aac 37be 6d6a 2abe 2a02 cabd d65a 09be
000003e0: 4629 ecbd b8b5 9dbd d215 9ebd d74e 49be
000003f0: 344d b9bd 9471 cfbd 23ef 9abe e6f4 cbbd
-0.14830256 -0.19645202 0.084851265 -0.14142996 -0.20623247 -0.1575192 0.44796413 -0.15035348
-0.20751622 -0.14338483 -0.16585857 -0.18725479 -0.1608725 -0.15834439 -0.16186042 -0.16822582
-0.16552061 -0.17008516 -0.1286966 -0.15631162 -0.15910164 -0.25030425 -0.20133021 -0.12365379
-0.1586927 -0.16641507 -0.20421651 -0.16763252 -0.12770715 -0.15888453 -0.17359087 -0.18604612
-0.13258961 -0.2321787 -0.16072425 -0.16254938 -0.16168295 -0.18639874 -0.075337425 -0.17009887
0.4416766 -0.16065702 -0.14027287 -0.16426332 -0.15748766 -0.15269053 -0.18240543 -0.18542144
-0.17002097 -0.08674072 -0.09774487 -0.17187102 -0.17473203 -0.15949745 -0.2007314 -0.16017476
-0.16479315 -0.166439 -0.119131655 -0.1355732 -0.2817883 -0.18478824 -0.15600508 -0.22822371
-0.2428892 0.3756055 -0.16137998 -0.22235331 -0.18002193 -0.16205178 -0.18075706 -0.12284405
0.039998304 -0.15745847 -0.17210539 -0.15450451 -0.19705838 0.530682 -0.14450105 -0.38049603
-0.1458763 -0.14631034 -0.17166696 -0.20555253 -0.12783992 -0.09880863 -0.108111754 -0.16697267
0.48256063 -0.19201443 -0.200452 -0.21509153 -0.21929203 -0.14559266 -0.06403883 -0.15708353
-0.17433205 -0.15631233 -0.11505104 -0.16074549 -0.16403973 -0.105727404 -0.15013018 0.39654887
-0.15077016 -0.18508005 -0.15551072 -0.13657843 -0.15589032 -0.15892336 -0.17279734 -0.18077375
-0.1431877 0.46191284 -0.27659568 -0.172663 -0.1685724 -0.15303315 -0.15344474 -0.1983082
-0.18254796 -0.14359368 -0.1529477 -0.1125547 -0.1787518 -0.17501532 -0.1604163 -0.14834385
-0.094517715 -0.26006234 0.10394896 -0.23615949 -0.21721326 -0.09834254 0.08311592 -0.07085824
-0.12016527 -0.19210458 -0.09022216 -0.11001026 -0.10351016 -0.2829078 -0.103083044 -0.08798576
-0.101473436 -0.11093293 -0.09451649 -0.1085593 -0.1012187 -0.20642903 -0.30926207 -0.07298802
-0.10485433 -0.0868904 -0.15446994 -0.10091867 -0.085445434 -0.08701144 -0.096956454 -0.09197402
-0.085331336 -0.1589908 -0.087985426 -0.10981211 -0.08478767 -0.10032957 -0.10616999 -0.09384549
0.2678952 -0.08957798 -0.07583749 -0.102500334 -0.09583422 -0.083815314 -0.10551742 -0.127068
-0.19404052 -0.22031663 -0.050358288 -0.112792574 -0.09599055 -0.10202982 -0.0942369 -0.09672211
-0.10062425 -0.10199288 -0.06387744 -0.0688836 -0.21165122 -0.32440978 -0.082254104 -0.16894153
-0.1397972 -0.042200655 -0.10141824 -0.15766604 -0.118557125 -0.09741766 -0.09932316 -0.0952011
-0.2069677 -0.10192834 -0.10260119 -0.10497271 -0.109776035 0.2805715 -0.09888621 -0.18923749
-0.08607244 -0.095175736 -0.109208025 -0.16444294 -0.08126606 -0.13205048 -0.1717984 -0.11577085
0.26432472 -0.08967289 -0.12480814 -0.11215829 -0.16776282 -0.09467121 -0.29930007 -0.083158255
-0.11018054 -0.09018437 -0.2000277 -0.10716588 -0.14524521 -0.19083038 -0.09686689 -0.045868084
-0.08489344 -0.108838014 -0.104211435 -0.1396968 -0.09525517 -0.08167639 -0.09273349 -0.12009253
-0.10379933 0.14233176 -0.3337192 -0.09863147 -0.17936888 -0.1664216 -0.09863694 -0.13413557
-0.1153131 -0.07700676 -0.07719006 -0.19658981 -0.090479285 -0.10129085 -0.30260572 -0.0995882

lstm.bias_hh f4 [512]
00000000: 4ddd 17be bc25 7bbe 40ef 5738 a4b3 d6bd
00000010: 760b 72be de4c 21be 23f8 ee3e 10e7 19be
00000020: eb20 55be 4d52 35be f3d6 29be 22c1 3fbe
00000030: 4bbb 24be d1fc efbd 5ebd 25be 8743 2cbe
00000040: 2179 29be 8d13 2ebe 61d0 03be 8211 20be
00000050: a6eb 22be 9610 75be 5482 f8bd 493d fdbd
00000060: 3684 22be 3768 2abe 5a2a 40be c9a7 2bbe
00000070: 3ec1 02be 01b1 22be c3c0 31be 587e 3ebe
00000080: e1fa 07be 1e7d 75be e294 24be a474 26be
00000090: da8f 25be eff9 3ebe dd0e a0bd 8b2f 2ebe
000000a0: a99a e13e 8b83 24be dba2 0fbe f745 28be
000000b0: 5745 21be 005b 1cbe 4dd6 3abe 8efe 3dbe
000000c0: 0783 20be 301a a3bd 480e c8bd 3ef2 2fbe
000000d0: c2e7 32be d656 23be f62d 4dbe be13 24be
000000e0: d2c0 28be a124 2abe bdf3 f3bd bfd1 0abe
000000f0: 291d 97be fb20 88be 71be 1fbe dc90 7dbe
00000100: 1a0b 83be ee6f bd3e f60d 25be 58ea 60be
00000110: 6fdf 39be 996b 26be d124 39be 4596 fbbd
00000120: bfad 803d ea3c 21be 9734 30be 0b33 1ebe
00000130: 38c9 49be 6d74 033f 7ea0 13be 27d8 bcbe
00000140: 3260 15be e7d0 15be 8fc8 2fbe 0695 46be
00000150: 53e8 02be 85fb 92bd f8c2 a0bd 902e 2ebe
00000160: c90a f83e 67df 3fbe 6efe 51be b201 5dbe
00000170: 92d1 54be fa13 15be 487c cabd c8bc 20be
00000180: eb7f 32be 7b12 20be 165b 02be 2f99 24be
00000190: 89b7 25be 8b67 15be 559c 19be 20c3 a93e
000001a0: e5b4 1abe ccae 3dbe eb47 1fbe 86b3 bfbd
000001b0: a0a1 1fbe fea7 22be f2fb 30be 619b 3abe
000001c0: c1a1 12be 9918 e93e 340b a5be 0693 30be
000001d0: c237 35be 6a16 49be c120 1dbe 4e95 4abe
000001e0: 20ee 3abe 440a 13be 329f 1cbe 900f 03be
000001f0: 0e7f 36be 193e 33be f4ca 01be 90dc 17be
00000200: 8092 c1bd 9b5a 8cbe c809 c43d 2564 7abe
00000210: ac8c 65be d067 c9bd 011c 0e3e 051e 91bd
00000220: e212 f6bd 538f 41be 65c6 b8bd 0e4d e1bd
00000230: 23fd d3bd 7e9d 91be 341d d3bd e131 b4bd
00000240: 4ed1 cfbd ce30 e3bd ea91 c1bd 5754 debd
00000250: c04b cfbd 2791 41be 8d98 a7be be7a 95bd
00000260: debd d6bd 98f3 b1bd 8f28 1dbe 73ae cebd
00000270: 07fe aebd 0e33 b2bd 1b91 c6bd e55c bcbd
00000280: 87c2 aebd 9fdf 22be b431 b4bd 2ce5 e0bd
00000290: 28a5 adbd 3a7a cdbd f2c6 ccbd 1032 c0bd
000002a0: 9cb7 813e a974 b7bd b050 9bbd a2eb d1bd
000002b0: bb44 c4bd 5da7 abbd 8419 d8bd e222 02be
000002c0: efba 47be 1877 53be 9f44 4ebd ccff e6bd
000002d0: b296 c4bd 03f5 d0bd d3fe c0bd 3f16 c6bd
000002e0: 1614 cebd aae1 d0bd 3dd2 82bd d812 8dbd
000002f0: f755 53be 8729 adbe d774 a8bd 845d 2ebe
00000300: efb9 0cbe 1987 5bbd 91b4 cfbd 2d6d 21be
00000310: 327f f2bd 7883 c7bd f169 cbbd cbf8 c2bd
00000320: 1845 10be cebf d0bd 9320 d2bd f0fb d6bd
00000330: 42d2 e0bd e608 943e 9583 cabd 4681 48be
00000340: bf46 b0bd 7feb c2bd 75a8 dfbd cec5 28be
00000350: d26e a6bd eefa 09be 9296 2cbe 1125 edbd
00000360: 72a7 8c3e f41e b8bd 67f9 ffbd 7aae e5bd
00000370: 52e2 2cbe fbe2 c1bd 75bb b1be 734e aabd
00000380: 5ca6 e1bd 95b2 b8bd 2753 47be c979 dbbd
00000390: a086 16be a22d 64be 0162 c6bd ea05 b83d
000003a0: 44dc adbd 9fe6 debd fc6c d5bd 5b53 06be
000003b0: 2415 c3bd f345 a7bd 0beb bdbd 7e18 f6bd
000003c0: be94 d4bd 04d5 f53d a3d0 abbe a3ff c9bd
000003d0: 5a8c 37be f949 1dbe 2a02 cabd 9a5e 09be
000003e0: 4629 ecbd b8b5 9dbd d215 9ebd 46c9 4abe
000003f0: 2e4e b9bd 9271 cfbd 0246 bcbe 2cf4 cbbd
-0.14830513 -0.24526113 5.1482813e-05 -0.104834825 -0.23637185 -0.15751979 0.46673688 -0.1502955
-0.20813338 -0.17707177 -0.16585903 -0.18726018 -0.16087072 -0.11718143 -0.16185519 -0.16822635
-0.16550113 -0.16999646 -0.12872459 -0.15631679 -0.15910205 -0.23932108 -0.12134233 -0.12365205
-0.15870747 -0.16641317 -0.18766156 -0.16763224 -0.12769029 -0.15887834 -0.17358689 -0.18602884
-0.13279296 -0.2397351 -0.1607242 -0.16255432 -0.16168156 -0.1865003 -0.07815335 -0.17010324
0.4406331 -0.16065805 -0.14026968 -0.1643294 -0.15749107 -0.15269089 -0.18245812 -0.18554136
-0.15674983 -0.07963979 -0.09768349 -0.17182252 -0.17471221 -0.15951094 -0.20037064 -0.16023156
-0.16479805 -0.16615535 -0.11911724 -0.13556574 -0.29514435 -0.26587662 -0.15599991 -0.2476229
-0.25594407 0.36999458 -0.16118607 -0.21964395 -0.1815164 -0.16251983 -0.1808045 -0.12284521
0.062831394 -0.15745893 -0.17207561 -0.15449159 -0.19705665 0.51349527 -0.14416692 -0.3688366
-0.14587477 -0.14630471 -0.17166351 -0.19392785 -0.12783937 -0.0717688 -0.07849687 -0.1700995
0.48445728 -0.18737565 -0.20507213 -0.21582678 -0.2078307 -0.14558402 -0.09886986 -0.15697014
-0.1743161 -0.1563205 -0.12730059 -0.1607406 -0.16183294 -0.1459028 -0.15001042 0.3315668
-0.15108068 -0.18523711 -0.15554778 -0.09360413 -0.15588999 -0.15884396 -0.1728361 -0.18223335
-0.14319517 0.4552658 -0.3223511 -0.17243585 -0.17697051 -0.19637457 -0.15344526 -0.19783518
-0.182549 -0.14359385 -0.15295103 -0.12798905 -0.17821905 -0.17504157 -0.12675077 -0.14830232
-0.09451771 -0.27412876 0.09572178 -0.24452265 -0.22416943 -0.09834254 0.1387787 -0.07085804
-0.1201532 -0.1890233 -0.09022216 -0.11001025 -0.10351016 -0.2844047 -0.103083044 -0.08798576
-0.101473436 -0.11093293 -0.09451659 -0.1085593 -0.1012187 -0.18903027 -0.32733575 -0.07298802
-0.10485433 -0.0868904 -0.15347503 -0.10091867 -0.085445456 -0.08701144 -0.096956454 -0.09197406
-0.08533197 -0.15905617 -0.087985426 -0.10981211 -0.08478767 -0.100330785 -0.09998883 -0.09384549
0.25335395 -0.08957798 -0.07583749 -0.102500215 -0.09583422 -0.083815314 -0.10551742 -0.12708619
-0.19504903 -0.206509 -0.05035841 -0.11279258 -0.09599055 -0.10202982 -0.09423604 -0.09672212
-0.10062425 -0.10199292 -0.06387756 -0.0688836 -0.20638262 -0.33820745 -0.082254104 -0.17027861
-0.13742803 -0.053595636 -0.10141862 -0.15764304 -0.11840667 -0.097418725 -0.09932316 -0.0952011
-0.14088857 -0.10192834 -0.10260119 -0.10497272 -0.109776035 0.2891304 -0.098883785 -0.19580564
-0.08607244 -0.095175736 -0.109208025 -0.16481707 -0.08126606 -0.13474628 -0.16854313 -0.115793355
0.274715 -0.08990279 -0.124987416 -0.112149194 -0.1688321 -0.09467121 -0.3471333 -0.08315744
-0.11018059 -0.09018437 -0.19465314 -0.10716588 -0.14699793 -0.22283033 -0.096866615 0.08985503
-0.08489278 -0.10883831 -0.10421178 -0.13117735 -0.09525517 -0.08167639 -0.092733465 -0.1201639
-0.10379933 0.1200352 -0.33557615 -0.09863212 -0.17924634 -0.1536025 -0.09863694 -0.13414994
-0.1153131 -0.07700676 -0.07719006 -0.19803342 -0.09048115 -0.10129084 -0.36772162 -0.099586815

output_w.weight f4 [5, 128]
00000000: a5d6 0c3c 2cd5 a2bc 2c2c 42bd 055d 2c3d
00000010: 2974 91bd e8af b13b 665d 8d3d ba04 233c
00000020: 3270 033c 713a 073d 461d e7ba 3063 8d38
00000030: d304 b03b a01c df3d d8be 46ba e05f c2ba
00000040: 48a1 b93b 18e1 5a3a 7033 403b ffdf 223c
00000050: a4bf 23bb 1ae4 6dbc c3af f33d 5402 d9bb
00000060: 7016 883b 9b6a 9f3a dc1e 203b f3ae 40bc
00000070: 45ad 1fbb 68ef 23bb 3cf2 a939 8519 483b
00000080: 83e5 53bc 020f 5f3c 9434 493a ef38 9dbb
00000090: 1ea9 803b e978 56bc 3f4b b13d c2e0 ecb9
000000a0: f58b 1b3e 308c 0a3a b9b2 1fbb c410 3b3b
000000b0: 35b1 5fbb 9c7e cdb9 4300 f83b 38d7 4dbc
000000c0: 5512 563b c762 b7bd aa0b 343c 8ece 57bb
000000d0: 93f2 973b a00b d439 3ec6 103c 3a43 e83b
000000e0: c5b7 98bb 704d e8b9 164f 2f3c 8c74 5f3a
000000f0: dcad f4bc 4228 a33d f661 583c e13d 2a3d
00000100: 7a59 8fbc 722f 083d 5ca6 5fbc d0f9 f4b9
00000110: befc 6d3c e4cf 25bb 26ee 8a3a 2a87 063c
00000120: a42c 6f3e f80f 493a 7418 6fbb 6097 193c
00000130: 9beb 4a3b 93aa 81bb a68a 41bb f057 8abd
00000140: 4104 083c b84e 54bc aa5e a6ba 28c9 973c
00000150: 3c3d abbb 164d 6b3c 2460 813d 347e a63c
00000160: b6b4 2f3d f08b d93b 645e 22bc 84f3 063b
00000170: e451 5f3c 33bf cf3a 5376 7d3e 535b a1bb
00000180: 46a2 0dbc 70e1 0b3c 9d8f eb3c 1c64 3bba
00000190: 6009 0ebc 6007 42bd 802a e6ba 92fa 14be
000001a0: 2426 9b3b 84cb a83a 97bd 93bb fc16 32bc
000001b0: 8dbf 633b a66f adb9 4029 b93a 8855 b1bc
000001c0: 8df6 d3bb 1e79 3e3c e445 b63d a9e0 923b
000001d0: 73b5 923b 6069 83ba 42e0 4fb9 1063 8b3b
000001e0: 8ac4 5dbc 94bb 58bb 312c a03b 27cb 37bb
000001f0: c969 24bc bf50 ebbb 87bc 3cbd bcd9 ab3a
00000200: 2449 4abb 9025 513d 3f30 843d 92d0 a23c
00000210: 2b62 6c3b 827a 713b 52bc 5fbc fb79 5abc
00000220: 7d52 5cbc 3a65 133c 35c6 3bbb 2a01 a53b
00000230: fe41 113b f0ff a43d 6055 a43b e06a 9537
00000240: 3510 00bb ef0f e4bb 6419 debb c488 7c3a
00000250: a845 69bb 97b5 3cbd 2f6d c13c be8d 823c
00000260: 14ef df3b db06 b13a a0b4 213d 9845 ff3a
00000270: e892 fdbb 9aee b9bb 6d91 ef3b d529 093b
00000280: b2a7 213c f3f5 b33c 64e1 f3bb f0ed 1f3c
00000290: fce8 8f3a 508c 543c 130e 35bc 0d0a 79bb
000002a0: cc64 993e 96f3 1e3c 5043 4db9 69ad b83a
000002b0: 6ecd dc3b 1e6d 9abb 37e3 9dbb e032 133c
000002c0: ae86 bf3c 4003 fabb 0e64 46bc 68a1 bb3b
000002d0: 30e7 aeba e789 51bb 212b 95bb bb1a 41bc
000002e0: 9001 b7b9 044d e63b 5433 18bc ea34 6c3b
000002f0: 76dc 07bc a5b2 74be 1150 4fbb 76bf 94ba
00000300: 7ec4 1fbd 23a9 613d 61a3 8e3b 39a2 a23c
00000310: a3bc 703c 6882 ecba 229f 07bb 18a2 c639
00000320: 0e0a 4abe ee0e 9dbb a00a 63b8 3dfb daba
00000330: c2f8 9fbb 3bc2 923d 1bdb 4e3c d14f c23d
00000340: 4148 093c 4643 823b 5511 8bbb 6c73 f5bc
00000350: 58c5 1d3c 816b 1b3d d229 4bba 512e dcbc
00000360: c20f babd 35d3 223c 4278 2f3c f8ce eabb
00000370: e268 fb3c de73 ed3b 4b80 c6bd 3275 613c
00000380: 1dce 0d3c f2f1 c03b 12e7 f0bd c27c dbbb
00000390: 9d67 673c 8360 8abd 196d 24bc d764 15be
000003a0: c6b5 f1bb 8289 96ba ccab 74ba baa1 5c3d
000003b0: a3bd f3bb 9689 93bb 0256 9bbb 5558 9d3c
000003c0: 695e 3f3a df76 28bd de44 5d3e dbdd c339
000003d0: 1c8c c93b 4695 30bd 9e2b 8439 906f 393c
000003e0: 7356 a63b da07 36bb 1e49 253a 9019 f73c
000003f0: 247f ac3c 2495 d0b9 8495 803e 7d29 133c
0.008596097 -0.019877039 -0.047405407 0.042080898 -0.07102234 0.005422581 0.0690258 0.009949857
0.008022355 0.03301472 -0.0017632626 6.741879e-05 0.005371669 0.10894132 -0.00075815385 -0.0014829598
0.005664978 0.00083495816 0.0029327534 0.0099411 -0.0024986053 -0.014519716 0.11898758 -0.006622592
0.0041530654 0.0012162508 0.0024432456 -0.011760461 -0.0024364751 -0.0025014523 0.0003241467 0.003053279
-0.012933138 0.013614418 0.0007675376 -0.004798047 0.0039264103 -0.013090351 0.0865693 -0.00045180885
0.15190108 0.0005285172 -0.0024368002 0.0028543929 -0.0034132723 -0.00039194978 0.0075683906 -0.012563519
0.0032664735 -0.08954387 0.010989109 -0.0032929513 0.0046370714 0.00040444452 0.008836327 0.007088092
-0.004660579 -0.00044308184 0.010700008 0.0008524142 -0.029868059 0.07966663 0.013206949 0.04156292
-0.01749872 0.033248372 -0.013650503 -0.00046725431 0.01452559 -0.0025300914 0.0010599538 0.008210937
0.23356873 0.0007669921 -0.003648308 0.0093744695 0.0030963186 -0.0039571016 -0.0029532104 -0.06755054
0.008301795 -0.012958221 -0.0012693007 0.018528536 -0.0052258056 0.01436164 0.063171655 0.02032385
0.04289695 0.0066389963 -0.0099102 0.0020591924 0.013630364 0.0015849828 0.24752168 -0.004924217
-0.008644646 0.008537635 0.028755004 -0.00071484013 -0.008669227 -0.047370315 -0.0017560273 -0.1454871
0.0047347713 0.0012878035 -0.004508685 -0.010869738 0.0034751624 -0.00033080316 0.0014126673 -0.02164723
-0.0064686 0.011625556 0.08900049 0.004482348 0.004477197 -0.0010025911 -0.00019824601 0.0042537525
-0.013535628 -0.003307079 0.0048880805 -0.0028044672 -0.010034987 -0.0071812565 -0.04607823 0.0013111155
-0.003086635 0.051061213 0.06454515 0.019874845 0.0036069255 0.0036846702 -0.013655739 -0.0133347465
-0.013447401 0.008996302 -0.0028652076 0.005035539 0.0022164579 0.08056629 0.0050150603 1.7811952e-05
-0.001954091 -0.0069599072 -0.006777929 0.0009633417 -0.0035594497 -0.046071615 0.023611633 0.015936729
0.0068339203 0.0013506071 0.039478898 0.0019475697 -0.00773846 -0.0056741955 0.0073110373 0.0020929475
0.009866642 0.021967864 -0.00744264 0.009761319 0.0010979469 0.012972906 -0.011050719 -0.0038000375
0.29959714 0.00970163 -0.000195754 0.0014089766 0.0067383563 -0.004712715 -0.004818346 0.0089842975
0.02337965 -0.007629782 -0.012108816 0.0057260282 -0.0013344046 -0.0031973065 -0.0045522605 -0.011786158
-0.00034905644 0.007028224 -0.009289581 0.0036042281 -0.008292308 -0.23896272 -0.0031633417 -0.0011348564
-0.03900575 0.055092942 0.0043529724 0.019852744 0.014693412 -0.0018044235 -0.0020694216 0.00037886272
-0.19730398 -0.0047930395 -5.4130913e-05 -0.0016706955 -0.004881949 0.07165953 0.012625481 0.0948788
0.008379043 0.003975305 -0.0042440095 -0.029962264 0.00962957 0.03794432 -0.0007750067 -0.026877554
-0.09085037 0.009938051 0.010709824 -0.007165786 0.03068966 0.0072464785 -0.09692439 0.013760852
0.008655098 0.005888217 -0.11762823 -0.006698222 0.014123824 -0.067566894 -0.0100357765 -0.14589249
-0.0073764054 -0.0011485072 -0.0009333461 0.053865172 -0.007438378 -0.0045024855 -0.0047404775 0.019207159
0.000730014 -0.04112899 0.21608302 0.00037358594 0.0061507355 -0.04311111 0.000252095 0.0113181025
0.0050762235 -0.0027775676 0.0006305146 0.030163556 0.02105672 -0.0003978397 0.2511407 0.00898206

output_w.bias f4 [5]
00000000: 7ba1 93bd 0508 8f3d 042d 46bf d262 24bf
00000010: e1c8 91bc
-0.07208534 0.069839515 -0.7741244 -0.6421329 -0.017795982

square_avg f4 [64]
00000000: 54c6 a63b 2893 f83a 8f9c da39 2ee4 0d3d
00000010: 5a97 7039 53b1 c93a cc69 833c c644 073a
00000020: 22b2 ca3c 532f 093e 5199 ec3a af44 853d
00000030: 3326 ac38 8129 773c 5635 d23d 7f19 2a3c
00000040: 166b 9c31 0d69 133c 5468 dc3c fa3b 353d
00000050: af66 913c 44b9 2731 4278 383c c98b 0f3c
00000060: 5b57 fa3b ded1 1a3d 8f2e 263a 3c84 8d3c
00000070: ebcd 973b b4cf 9f3c 9091 c63c 6d03 003c
00000080: d901 273a c57c 9b3b 5807 083a 867b 5a3c
00000090: 9b81 423b db8d 8135 a9fe 773d b724 8838
000000a0: 395e 0d3d f0c2 b53d e8cd 893d c2b1 e435
000000b0: 7891 e337 e987 112e b6fa 533a 420e 103b
000000c0: 0508 973c 3037 df33 5f92 bb3d 1f46 1e3d
000000d0: 2023 b139 ed6a 0233 d130 8031 4d99 1c3b
000000e0: 4935 153b 9d6d 9a3c 83c8 2937 b761 e23c
000000f0: dc0f 693b d23d d93c 8f25 5a3a 17b1 173c
0.0050895605 0.0018964754 0.00041696845 0.034641437 0.00022944566 0.001538793 0.016041659 0.00051600893
0.024743143 0.13396959 0.0018051063 0.06507241 8.208714e-05 0.015085579 0.10264079 0.010382055
4.552372e-09 0.008997214 0.026905216 0.04424665 0.017749159 2.440701e-09 0.01125914 0.008761355
0.007639808 0.0377978 0.0006339335 0.017274968 0.0046327016 0.01950822 0.024239331 0.007813317
0.000637082 0.0047450983 0.00051890826 0.013335114 0.0029679302 9.652534e-07 0.060545597 6.491824e-05
0.034513686 0.08875072 0.067287266 1.7039058e-06 2.7128248e-05 3.3089895e-11 0.000808637 0.0021981155
0.018436441 1.0394285e-07 0.091587774 0.03864109 0.0003378624 3.0365232e-08 3.73084e-09 0.0023895085
0.0022767356 0.018851096 1.011987e-05 0.027634485 0.0035562431 0.026518736 0.00083216367 0.00925853

square_avg f4 [5]
00000000: 8ed5 b040 5142 7d41 ff33 bb3d 3ab8 aa3e
00000010: adac 5c3d
5.5260687 15.828691 0.09140777 0.3334368 0.053875614
