S-LSTM/Goal+Socail_Array_PyTorch/social_lstm/save/0/social_model_epoch_1.pth (torch, 819255 bytes, 22 tensors)

embedding_b f4 [64]
0	0xb8c72c84	-9.497351e-05
1	0x3ddd6cd0	0.1081177
2	0x3dd2db1f	0.102957
3	0x3d2bd534	0.041951373
4	0xbcd37247	-0.025811328
5	0xbd371e5e	-0.044706695
6	0xbba0ea59	-0.004910749
7	0xbc83d2be	-0.0160917
8	0xba7c2bf7	-0.00096195884
9	0xbd0f52b9	-0.034991
10	0x391fe3b7	0.00015248252
11	0xba98b427	-0.0011650369
12	0x3d0378bb	0.03209756
13	0xba09f01b	-0.0005261914
14	0x3d9155b0	0.07096422
15	0x3d8439e0	0.06456351
16	0x3c35e727	0.011102474
17	0xbc0d1203	-0.008610251
18	0xbc8d654a	-0.017260212
19	0x3cdfaf8a	0.027305383
20	0xbd24f087	-0.040268447
21	0x3d885ac4	0.06657937
22	0xbc1c5957	-0.009542785
23	0xbdccc105	-0.09997753
24	0x3df2a578	0.11847967
25	0xb70772e8	-8.073381e-06
26	0x3c3c8751	0.011506871
27	0x3dd14692	0.10218538
28	0x3df9b626	0.12192945
29	0xbb8f56d5	-0.004374365
30	0x3d5100c6	0.05102613
31	0x3d76f7ca	0.060294904
32	0x3e91dd5d	0.284892
33	0xbd8e5b2d	-0.06950984
34	0xb19af9e1	-4.510398e-09
35	0x3dbbbad4	0.09166494
36	0xbc64f1f1	-0.013973699
37	0x3e04c842	0.12967017
38	0xbab64ee2	-0.0013909007
39	0x3d4ae998	0.04953918
40	0x3cb86692	0.022509847
41	0x3d979d6f	0.07403075
42	0xb85d773c	-5.280155e-05
43	0xbd20483a	-0.03913138
44	0xbe3e82a2	-0.1860452
45	0xbc8cf605	-0.017207155
46	0xbd0f994b	-0.0350583
47	0xbce6d198	-0.028176114
48	0x3bc98526	0.0061499057
49	0xbcb83e75	-0.02249072
50	0xbd253a75	-0.040338952
51	0xbb8ed871	-0.004359298
52	0xb1850036	-3.8708334e-09
53	0xbcb08740	-0.021548867
54	0x3e5361db	0.20642798
55	0xb6058f14	-1.9901827e-06
56	0x3dd14b43	0.10219433
57	0x3d8669a4	0.06563118
58	0x3ce4b4e0	0.02791828
59	0xac3207c6	-2.5299637e-12
60	0xbcf4c76d	-0.02988025
61	0xbe432cc0	-0.1906004
62	0xbd1594f1	-0.036518995
63	0x3df7acfd	0.12093542

output_b f4 [5]
0	0xbbe92926	-0.007115501
1	0xbb295c44	-0.0025842348
2	0xbed61598	-0.4181335
3	0xbee38157	-0.44434616
4	0xbc50c6a0	-0.012742668

embedding_w.weight f4 [64, 4]
0	0x11685248	1.8326928e-28
1	0xb2014850	-7.52523e-09
2	0x1fd4aa80	9.006756e-20
3	0xb5eb1e02	-1.7517598e-06
4	0x3f422cf5	0.7584985
5	0xbed03f13	-0.40673122
6	0xbd8682fd	-0.06567953
7	0x3dc972ca	0.098363474
8	0x3f4fb421	0.8113423
9	0xbe6663e5	-0.22499044
10	0x3d8eb906	0.06968884
11	0x3d410f51	0.047133747
12	0xbf34aa73	-0.70572585
13	0x3ee3f79f	0.44524857
14	0xbd4b46e0	-0.04962814
15	0x3e02c20c	0.12769336
16	0x3f08b1da	0.5339638
17	0x3ee190aa	0.44055682
18	0x3d411681	0.047140602
19	0xbbfcde01	-0.0077168946
20	0x3e4e6f28	0.2015959
21	0x3f4b5d79	0.794395
22	0x3e274864	0.16336209
23	0x3db370eb	0.08761772
24	0x370482d7	7.898277e-06
25	0x2bc507f4	1.3999899e-12
26	0x383ded32	4.5282017e-05
27	0x288c63ae	1.5586352e-14
28	0xbc92c587	-0.017916454
29	0x3b5c0fd9	0.0033578782
30	0xbd1114a2	-0.035420068
31	0x3b8059f8	0.003916975
32	0xb3bacf47	-8.6990035e-08
33	0x2e523de0	4.7803428e-11
34	0xb6698edc	-3.480286e-06
35	0x2fe6a754	4.195565e-10
36	0x3f0fb7ed	0.56140023
37	0xbeeb2ad2	-0.45931107
38	0xbd0d9936	-0.03456994
39	0xbc773dec	-0.015090447
40	0x3e395002	0.18096927
41	0xbf439796	-0.76403177
42	0xbd4a283f	-0.049354788
43	0xbe22ad0c	-0.15886325
44	0x1c52ef00	6.979207e-22
45	0x34e703a6	4.3029758e-07
46	0x9bfa3440	-4.1392796e-22
47	0x369b5d20	4.630201e-06
48	0xbdb1f74b	-0.086897455
49	0x3f5be4e8	0.8589616
50	0x3d8d4f41	0.06899882
51	0x3d8d40d2	0.06897129
52	0xa480a318	-5.578744e-17
53	0xb43c3194	-1.7526901e-07
54	0xa8856db8	-1.4813549e-14
55	0xb285e360	-1.5586636e-08
56	0x3f3ec62e	0.7452115
57	0xbf1b2366	-0.6060089
58	0x3db5118f	0.0884124
59	0xbd620101	-0.05517674
60	0x3e732e22	0.23748067
61	0x3f52eef8	0.8239589
62	0xbdba97e6	-0.091110036
63	0xbd116d2c	-0.035504505
64	0x3f078d12	0.5294963
65	0xbf028f70	-0.5100012
66	0x3e95d236	0.2926194
67	0xbe6836b9	-0.22677125
68	0x36605aea	3.343152e-06
69	0x97d35098	-1.36559e-24
70	0x36d860be	6.448564e-06
71	0x24830580	5.682151e-17
72	0x3edf2e63	0.43590078
73	0xbef960af	-0.48706576
74	0x3d4ccf04	0.050002113
75	0x3ccde4b0	0.02513346
76	0x3f090e46	0.53537405
77	0xbf186bda	-0.5953957
78	0x3ddacf7e	0.10684107
79	0x39c2c8a8	0.00037152064
80	0x3e88b626	0.26701468
81	0x3e286959	0.16446437
82	0x3dfa4187	0.122195296
83	0x3da87d40	0.082270145
84	0xbe0a6c81	-0.13517953
85	0x3f6cd75c	0.9251611
86	0x3dd52934	0.104082495
87	0x3e37eaae	0.17960617
88	0xbc160e2a	-0.00915865
89	0x3a7abd4e	0.0009564952
90	0xbc896e13	-0.01677612
91	0xba97ae76	-0.0011572379
92	0x3d753e3e	0.059873812
93	0xbe9f20f0	-0.31079817
94	0x3e28ef3d	0.16497512
95	0xbdd9f2ec	-0.10642037
96	0x3f8f2801	1.1184083
97	0x3e1b94f2	0.15193537
98	0x3e041eb4	0.12902337
99	0x3db274af	0.08713662
100	0x313022b0	2.5631088e-09
101	0x318e614a	4.1438044e-09
102	0x304921d4	7.3171447e-10
103	0xb68ee46c	-4.2585216e-06
104	0x3f433be7	0.7626328
105	0x3d73827a	0.059450604
106	0xbdd5560d	-0.104168035
107	0xbe372165	-0.17883833
108	0xbf347250	-0.7048693
109	0xbe1f2d4b	-0.15544622
110	0xbcf4c633	-0.029879665
111	0x3dbaebc5	0.09127001
112	0x3f5078ef	0.8143453
113	0x3ecf7a28	0.40522885
114	0x3d429680	0.04750681
115	0x3be44760	0.0069665164
116	0x3d962132	0.0733055
117	0xbdc4e6d4	-0.096143395
118	0x3d85fb0c	0.06542024
119	0xbdbbdd9a	-0.091731265
120	0xbecdb239	-0.40175036
121	0xbf41ff2e	-0.7578
122	0x3d349230	0.044084728
123	0xbe40ce48	-0.1882869
124	0xbf4fbee4	-0.8115065
125	0x3f055e0f	0.5209665
126	0x3bed6f34	0.0072459225
127	0xbe0adb14	-0.13560134
128	0xbf40d11c	-0.75319076
129	0xbf4753c5	-0.778622
130	0xbdb69786	-0.089156196
131	0xbd742de7	-0.05961409
132	0x3ecc5401	0.3990784
133	0x3df8ba7e	0.121449456
134	0x3d3e06be	0.04639315
135	0x3da80c12	0.08205427
136	0xa405dc2f	-2.902628e-17
137	0x08b2edec	1.07689205e-33
138	0xa500f3e9	-1.118487e-16
139	0x20fcc8c0	4.2823306e-19
140	0x3eed692e	0.46369308
141	0xbf1d3b3c	-0.6141851
142	0x3dc895e2	0.09794213
143	0x3daf6822	0.08564784
144	0xbc68cd44	-0.014209095
145	0x37ada114	2.0698215e-05
146	0x3b3401b6	0.002746684
147	0xb51180a4	-5.4203906e-07
148	0xbf19db23	-0.601
149	0xbf34ed7a	-0.7067486
150	0xbc94cbaa	-0.01816352
151	0xbcf9cb79	-0.030492531
152	0x3f66f651	0.902196
153	0x3eca206d	0.39477864
154	0x3d7a4882	0.061104305
155	0xbd3eaf70	-0.04655403
156	0xbdea7438	-0.11447948
157	0x3f272c61	0.6530209
158	0xbd35e77e	-0.04441022
159	0x3b8d7056	0.00431637
160	0x3f522a49	0.8209577
161	0x3eb45ca5	0.35226932
162	0x3d33f94b	0.043938916
163	0xbcdd22d7	-0.026994152
164	0x3ddc6f0a	0.107633665
165	0xbf7a48b3	-0.9776718
166	0xbe1815d9	-0.14852084
167	0xbe75b1f7	-0.2399367
168	0x32f4f95c	2.8518734e-08
169	0x9c0a5858	-4.577455e-22
170	0x23897450	1.490283e-17
171	0xb515e328	-5.583738e-07
172	0x3eca8ed1	0.39562085
173	0x3e57858e	0.21047041
174	0x3d83e689	0.064404555
175	0x3dd4ef0f	0.10397159
176	0xbe80a28f	-0.25124022
177	0xbdc0b634	-0.094097525
178	0x3e2efbe1	0.17088272
179	0x3e002321	0.125134
180	0xbd2a9b41	-0.041651968
181	0x3c184255	0.009293159
182	0xbc96a5e6	-0.018389653
183	0xbd5792da	-0.052630283
184	0x3f14eb83	0.5817186
185	0x3eb37e5d	0.35057345
186	0x3d8a4da9	0.06753094
187	0xbcd667bd	-0.026172513
188	0xbbf2c331	-0.0074085225
189	0x3ca8613c	0.020554177
190	0xbd0fc443	-0.03509928
191	0x3c8ae716	0.016955893
192	0xbca87ef7	-0.020568354
193	0x3c946513	0.018114602
194	0x3d6702fc	0.05639933
195	0xbdbfb197	-0.093600444
196	0x3e5c7769	0.21529926
197	0xbf45dab4	-0.7728684
198	0x3d6366ac	0.055517837
199	0xbe0c8bf3	-0.13725261
200	0xbe9ce368	-0.30642247
201	0xbd0e02ce	-0.034670644
202	0x3e003299	0.12519301
203	0xbc3c1e81	-0.011481882
204	0xb58e0223	-1.0580446e-06
205	0x3054b996	7.7388884e-10
206	0xb5fceb73	-1.8843988e-06
207	0x3306fe0e	3.1430368e-08
208	0xaa24ca92	-1.4636407e-13
209	0xacc01297	-5.459032e-12
210	0x22669114	3.1247616e-18
211	0xab96d5d6	-1.0717492e-12
212	0x3c6fbe76	0.014632812
213	0x27025b46	1.8090604e-15
214	0x39c71612	0.00037972681
215	0x2d9cf83b	1.7845383e-11
216	0xbf7f30f5	-0.9968408
217	0x3d317bf9	0.04333112
218	0xbdb8f3dd	-0.09030888
219	0x3c5953aa	0.013264576
220	0x1cace698	1.1441612e-21
221	0x8de510fc	-1.41173035e-30
222	0x9e0ed725	-7.561908e-21
223	0x1a990020	6.327952e-23
224	0xbd132c70	-0.03593105
225	0xbf745337	-0.95439476
226	0x3da2000a	0.07910164
227	0xbddd8638	-0.10816616
228	0x3f305004	0.68872094
229	0x3f1ec4c0	0.62018967
230	0xbd2e2c92	-0.042522974
231	0x3d2ae59c	0.04172288
232	0x3ee59157	0.44837448
233	0xbf10d8a5	-0.56580573
234	0x3cc78d73	0.02435944
235	0xbdbf0087	-0.093262725
236	0xa4581e3b	-4.686314e-17
237	0x2ac0392d	3.4145725e-13
238	0x279bde40	4.3262106e-15
239	0x2d442c57	1.11511555e-11
240	0xbeecab14	-0.46224272
241	0xbed9f08a	-0.4256633
242	0xbe5a5eca	-0.21325222
243	0xbe8f1529	-0.2794583
244	0x3f0313be	0.51202
245	0xbdd674a7	-0.104714684
246	0xbcd37434	-0.025812246
247	0x3c282cb2	0.010264562
248	0x3e928fc6	0.28625315
249	0x3e031654	0.12801486
250	0x3db3eca3	0.08785369
251	0x3daf5b7e	0.085623726
252	0x3e7a2cb7	0.2443112
253	0xbf88873c	-1.066627
254	0x3e09c349	0.13453402
255	0xbd75219a	-0.059846498

embedding_w.bias f4 [64]
0	0xb8c72c84	-9.497351e-05
1	0x3e14eeb0	0.14544177
2	0xbdd38d18	-0.10329646
3	0xbd1293aa	-0.035785355
4	0x3e995a8f	0.29951903
5	0x3df58611	0.11988462
6	0xbba0ea59	-0.004910749
7	0xbc83d2be	-0.0160917
8	0xba7c2bf7	-0.00096195884
9	0x3eabc7b6	0.33550805
10	0x3ec50dc4	0.38487065
11	0xba98b469	-0.0011650446
12	0x3de4b13f	0.111666195
13	0xba09f01b	-0.0005261914
14	0x3eab2486	0.33426303
15	0x3e493566	0.19649276
16	0xbd0b30b5	-0.033981998
17	0xbc0d1203	-0.008610251
18	0x3e8dcf57	0.2769725
19	0xbd3ccfc4	-0.04609658
20	0xbd24f091	-0.040268485
21	0x3dc2b60f	0.09507381
22	0xbc1c5957	-0.009542785
23	0x3e493d4a	0.19652286
24	0x3e08d549	0.13362612
25	0xb70772e8	-8.073381e-06
26	0x3e842ad8	0.25813937
27	0x3dbe6c02	0.092979446
28	0xbdca7b5c	-0.0988681
29	0xbb8f56d5	-0.004374365
30	0xbd146ab8	-0.036234587
31	0x3e94cb38	0.29061294
32	0x3add1833	0.0016868174
33	0x3e9197cb	0.2843612
34	0xb19af9f3	-4.510406e-09
35	0x3de037b1	0.10948122
36	0xbc64f1f1	-0.013973699
37	0x3e040bf9	0.12895192
38	0x3e3327f0	0.17495704
39	0x3d7f18df	0.06227958
40	0x3e777348	0.2416507
41	0x3dde41b3	0.10852375
42	0xb85d7742	-5.2801573e-05
43	0xbd204846	-0.039131425
44	0x3dcb5fde	0.099303946
45	0xbc8cf605	-0.017207155
46	0x3e968906	0.29401416
47	0xbce6d198	-0.028176114
48	0x3bc98526	0.0061499057
49	0x3e128887	0.14309894
50	0xbd64f41d	-0.055896867
51	0xbb8ed871	-0.004359298
52	0xb1850036	-3.8708334e-09
53	0xbcb08740	-0.021548867
54	0xbcca57c7	-0.024700059
55	0xb6058f3e	-1.9901922e-06
56	0xbd0ae07e	-0.0339055
57	0x3d9d503c	0.07681319
58	0x3e44a274	0.19202596
59	0xac3207c6	-2.5299637e-12
60	0x3d4526ec	0.048132822
61	0x3e03ec37	0.12883078
62	0xbd159527	-0.036519196
63	0x3e19697d	0.14981647

embedding_t_w.weight f4 [1, 8]
0	0x3deb5ee2	0.11492707
1	0xbe16b26f	-0.14716505
2	0x3c6c54e4	0.014424536
3	0xbd9fb81e	-0.077987894
4	0x3e155f14	0.1458705
5	0xbe432809	-0.19058241
6	0x3e0dd447	0.13850509
7	0xbc989f79	-0.01863073

lstm.weight_ih f4 [512, 65]
0	0x3808cea2	3.261737e-05
1	0xbddf620a	-0.10907371
2	0xbca6f005	-0.020378122
3	0x3c908a5c	0.0176441
4	0xbda69cb6	-0.08135359
5	0xbc417796	-0.011808297
6	0xbac9fa80	-0.0015409738
7	0x3004e577	4.834741e-10
8	0x3132ff54	2.6047546e-09
9	0xbdee55d4	-0.11637464
10	0xbe0fdef7	-0.14049898
11	0x3b32de04	0.0027292976
12	0xbb98f180	-0.004667461
13	0x0555fa60	1.00611985e-35
14	0xbe187495	-0.14888223
15	0xbd0fcec9	-0.035109315
16	0xbc9bf04e	-0.019035485
17	0x84beb0b0	-4.4831047e-36
18	0xbdcbd068	-0.0995186
19	0xbce63a27	-0.028103901
20	0xbbd27260	-0.006422326
21	0xbc21dfc2	-0.009880008
22	0xabe6f100	-1.6409374e-12
23	0xbcd4fbd9	-0.025998997
24	0xbdec3522	-0.11533572
25	0x3645dd98	2.9484272e-06
26	0xbdb73bca	-0.08946951
27	0xbc781b05	-0.015143161
28	0xbd24131d	-0.04005729
29	0xbaaa76b7	-0.001300535
30	0xbd0daa42	-0.0345862
31	0xbd211fb6	-0.039336883
32	0xbd92149a	-0.07132836
33	0xbdafae6d	-0.08578191
34	0xb7333567	-1.0681665e-05
35	0xbd9b4961	-0.07582355
36	0xaba22456	-1.1520878e-12
37	0xbd9e0e56	-0.07717578
38	0xbd941223	-0.07230022
39	0xbaa1a163	-0.0012331422
40	0xbdbaf3cf	-0.09128534
41	0xbdc06fd3	-0.09396329
42	0xb5bc178c	-1.4013945e-06
43	0xbc61bb08	-0.013777502
44	0x3a61de65	0.0008616208
45	0xba8668ad	-0.0010254584
46	0xbdaddcfb	-0.08489414
47	0x1949b0f0	1.0427189e-23
48	0xba992172	-0.0011682941
49	0xbd894220	-0.067020655
50	0xb9a777a0	-0.0003194185
51	0xba034b4e	-0.00050084747
52	0xb4b7aa38	-3.4210257e-07
53	0xb695c20c	-4.463136e-06
54	0x3bc3c5a0	0.0059744865
55	0xbb3e2581	-0.0029014053
56	0xbd643bb2	-0.055720992
57	0xbd0d8aff	-0.034556385
58	0xbda65594	-0.081217915
59	0x3603eefa	1.9659624e-06
60	0xbcaa95d3	-0.020823395
61	0xbba737a6	-0.0051030694
62	0xbbb19304	-0.005419137
63	0xbde0729a	-0.109593585
64	0xbc529ddb	-0.0128550185
65	0xb5b5d2c1	-1.3546888e-06
66	0xbcd21099	-0.02564268
67	0xbb142b84	-0.0022608945
68	0xbc7c6979	-0.015406006
69	0xbd2a606d	-0.041595865
70	0xbc994f12	-0.018714461
71	0x3694bd94	4.4328135e-06
72	0x9aa52c66	-6.831413e-23
73	0x383b2467	4.4618177e-05
74	0xbd019ff6	-0.03164669
75	0xbd464232	-0.048402973
76	0xb68a537d	-4.12244e-06
77	0xbcd70245	-0.0262462
78	0x3b01825d	0.001976154
79	0xbd5b1f16	-0.053496443
80	0xbd23af34	-0.03996201
81	0xbbab129a	-0.0052207233
82	0x04fda500	5.9631543e-36
83	0xbccd8f3a	-0.02509271
84	0xba7e9a35	-0.00097123097
85	0xbb011727	-0.0019697638
86	0xbd0195cd	-0.031637
87	0xb6644dd8	-3.4019959e-06
88	0xbbafedff	-0.0053689475
89	0xbd0c3341	-0.034228567
90	0xba73a360	-0.0009294059
91	0xbcf80fe2	-0.030281011
92	0xbcc2cff4	-0.0237808
93	0xbc19500a	-0.009357462
94	0xb9d4fb7c	-0.00040623161
95	0xbbd88007	-0.006607059
96	0xbd576868	-0.052589804
97	0xbcf1c92f	-0.029514877
98	0xbcff0078	-0.031128153
99	0xb61d3938	-2.3428129e-06
100	0xbc893cc3	-0.016752606
101	0xb9d57f70	-0.00040721474
102	0xbcd5c2e4	-0.026093908
103	0xbccafffd	-0.024780268
104	0xbca3050e	-0.019899871
105	0xbd1a2cb9	-0.037640307
106	0xbca2746a	-0.019830901
107	0x36e17fe0	6.720409e-06
108	0xbb16abf2	-0.002299067
109	0x378b9c70	1.6642938e-05
110	0x38acfae0	8.248328e-05
111	0xbd1c66a8	-0.038183838
112	0xb499e8f2	-2.866796e-07
113	0xbb0afa5b	-0.0021206352
114	0xbc49ab16	-0.0123088565
115	0xb86b6306	-5.612059e-05
116	0xb6b69b7e	-5.4421243e-06
117	0xb507b7f4	-5.0559106e-07
118	0x337bfd84	5.8671063e-08
119	0xbce33dbd	-0.0277394
120	0x30e9e897	1.7019087e-09
121	0xbc084e21	-0.008319409
122	0xbcbef47c	-0.023309939
123	0xbca22f19	-0.019797849
124	0xb90b902a	-0.00013309778
125	0xbc0e57f7	-0.008687965
126	0xb96b9b58	-0.00022469216
127	0xbad2b54b	-0.0016075758
128	0xbd07212b	-0.032990616
129	0xbaa847ba	-0.0012838759
130	0x04691800	2.7400039e-36
131	0xbd0fb41b	-0.03508387
132	0xbbe1597e	-0.0068771234
133	0xbd0bdf58	-0.034148544
134	0xbd31fb62	-0.043452628
135	0x3a618f40	0.0008604415
136	0xb65446bb	-3.1631632e-06
137	0x96878ed4	-2.1900564e-25
138	0x326a75a8	1.3647345e-08
139	0xbd853f14	-0.06506172
140	0xbdfc6220	-0.12323403
141	0x8501d3d4	-6.1044575e-36
142	0xbc8d668e	-0.017260816
143	0xb2afa36e	-2.0447e-08
144	0xbdc08785	-0.09400848
145	0xbd5b0638	-0.053472728
146	0xbcc98e28	-0.024603918
147	0x3a485924	0.00076426775
148	0xbd716cda	-0.0589417
149	0xbc9a308b	-0.018821975
150	0x3c395a88	0.011313088
151	0xbcb841f6	-0.02249239
152	0x2006e359	1.1425465e-19
153	0xbd10391a	-0.035210706
154	0xbc7adb3b	-0.015311058
155	0x3b3a7c90	0.0028455593
156	0xbd42bf52	-0.04754574
157	0xbdcbe513	-0.09955802
158	0x3c18a020	0.0093155205
159	0xbbd2624c	-0.0064204093
160	0xbd50e642	-0.05100084
161	0xbe112418	-0.14173925
162	0xbdb5c7d8	-0.08876008
163	0xbd44ae1b	-0.048017602
164	0x3b9ecdce	0.004846311
165	0xbd0df7c2	-0.03466011
166	0x35383660	6.862447e-07
167	0xbdcc9763	-0.09989812
168	0xbc447ecc	-0.011993121
169	0xbc9277be	-0.017879363
170	0xbcc57e0b	-0.024107954
171	0xbdc080c2	-0.093995586
172	0x3861e896	5.3860793e-05
173	0x3c3ad45c	0.0114031695
174	0x3a89cd36	0.0010513428
175	0xbb2b2aa5	-0.0026117947
176	0xbd4e5819	-0.050376985
177	0x35cf2dff	1.5436088e-06
178	0xbc0de05a	-0.008659447
179	0xbd66fa37	-0.056390967
180	0xba399306	-0.0007079098
181	0xb8cf57c2	-9.886875e-05
182	0x35904e58	1.0751637e-06
183	0xaec3ddb8	-8.9069585e-11
184	0xbde26299	-0.11053962
185	0x052a63d8	8.0117e-36
186	0xbd44a328	-0.04800716
187	0xba980f44	-0.0011601229
188	0xbd90320b	-0.07040795
189	0x3612089e	2.1760711e-06
190	0xbd58bd1a	-0.052914716
191	0xbbb08975	-0.00538748
192	0x3c34a1d2	0.011024909
193	0xbd776219	-0.060396288
194	0xbc21bc42	-0.009871544
195	0x369a5fb4	4.600699e-06
196	0xbde3efe1	-0.11129738
197	0xbda2b872	-0.079453364
198	0x3c8e7326	0.017388891
199	0xbdcf72ec	-0.101293415
200	0xbdc018c4	-0.09379724
201	0xadbaa50e	-2.121905e-11
202	0xb7203095	-9.548055e-06
203	0x388f2ed6	6.827495e-05
204	0xbdbdfe38	-0.09277004
205	0xbd582a77	-0.052774873
206	0xb72121bc	-9.604202e-06
207	0xbd631a60	-0.055445075
208	0x84c01e00	-4.5166534e-36
209	0xbde9db80	-0.114188194
210	0xbda6aa34	-0.081379324
211	0xbdc93132	-0.098238364
212	0x84064000	-1.5781012e-36
213	0xbdcfb263	-0.101414464
214	0xbda75df7	-0.08172219
215	0xbcae49d7	-0.021275444
216	0xbd9a5076	-0.07534878
217	0x0dd8b228	1.3354917e-30
218	0xbdd49259	-0.10379476
219	0xbe01affa	-0.12664786
220	0x368991b2	4.0998793e-06
221	0xbdca7e9e	-0.098874316
222	0x3d21849d	0.03943311
223	0xbd98a60c	-0.07453546
224	0xbcc598c8	-0.024120703
225	0xbc2c4128	-0.010513581
226	0x3ce64f9a	0.028114129
227	0x3cd1990f	0.02558568
228	0xbdcf68a1	-0.10127378
229	0x339c94b8	7.291368e-08
230	0xbde42dd2	-0.11141552
231	0x2723dcf2	2.2740569e-15
232	0x3c42e74a	0.011895964
233	0xbdd63dc7	-0.10461002
234	0xbcdf17f4	-0.027233101
235	0xbe10b633	-0.14132003
236	0xbd18fb1b	-0.037348848
237	0xb6196db6	-2.2862637e-06
238	0xbcff1782	-0.03113914
239	0x3b8b0cf2	0.0042434866
240	0xbc3278c3	-0.01089305
241	0xbe129b1c	-0.14316982
242	0xb5ea7e0f	-1.7471046e-06
243	0xbcecc19d	-0.028900916
244	0xbdad5a13	-0.08464446
245	0xba85c2ba	-0.0010205128
246	0xae0d241b	-3.2091756e-11
247	0xb92ac9dd	-0.00016287663
248	0x9edce3c6	-2.3387611e-20
249	0x3d359f8d	0.044341613
250	0xbbab2c06	-0.005223754
251	0xbd882388	-0.06647402
252	0xbd99fa0e	-0.07518397
253	0xbdc785b3	-0.09742298
254	0x3a37c746	0.000701059
255	0x3d165970	0.036706388

lstm.weight_hh f4 [512, 128]
0	0xbbbd6a5b	-0.005780501
1	0x3b9a43bb	0.004707781
2	0x39c7ea4c	0.00038130803
3	0xb77f8bc0	-1.52317225e-05
4	0xbb57cc32	-0.0032928106
5	0xbb50eb9a	-0.003187871
6	0xbc2f84f7	-0.010712854
7	0xbc3eec9e	-0.011653094
8	0xbcaead42	-0.02132285
9	0x3c38e6b5	0.011285474
10	0xba86c7ca	-0.001028293
11	0xbc2589d5	-0.0101036625
12	0x3c6bc226	0.01438955
13	0x3c1d0273	0.0095831035
14	0xbc713b38	-0.0147235915
15	0x3c0aa5df	0.008462398
16	0x3b977224	0.004621761
17	0x3c0b8bc5	0.00851721
18	0x3c088304	0.008332018
19	0x3c4717c4	0.012151662
20	0xbc0695f5	-0.0082144635
21	0xbaf82a28	-0.0018933462
22	0x3ab53256	0.0013824205
23	0xbc01992c	-0.007910054
24	0x3a59e721	0.0008312334
25	0xbe082208	-0.13294232
26	0x3bef50fb	0.007303355
27	0x3c052ee0	0.008128852
28	0x3be35b4a	0.0069383727
29	0x3ba5ddf2	0.0050618583
30	0x3c5876c1	0.013211907
31	0x3c25cb16	0.01011922
32	0xbb879daa	-0.004138668
33	0x3d7477c9	0.05968455
34	0xbd08e8e0	-0.033425212
35	0xbbe4723e	-0.0069716265
36	0x3adc3fb0	0.0016803648
37	0xbc88c0a5	-0.016693423
38	0x3caf7557	0.021418257
39	0xbb5d8375	-0.0033800278
40	0xbbe3ff54	-0.0069579277
41	0xb9c0621e	-0.00036694197
42	0x3b0c1b22	0.0021378477
43	0xbbc2208e	-0.005924291
44	0xbb276640	-0.0025543123
45	0xbba4ec35	-0.005033041
46	0x3c05b53e	0.008160887
47	0x3bf99393	0.007616469
48	0x3bf2263a	0.007389811
49	0xbba1662b	-0.0049255094
50	0x3bc05c60	0.005870387
51	0x3bc2265d	0.0059249834
52	0x3bd7f2ee	0.006590239
53	0xbc87dccc	-0.016584776
54	0x3b139673	0.0022520095
55	0xbbde28ea	-0.0067797797
56	0xbbfe7bec	-0.0077662375
57	0x3c27bb67	0.010237551
58	0xbc44af15	-0.012004633
59	0x3e11ed09	0.14250578
60	0xbbec7058	-0.007215541
61	0xbc257a45	-0.010099952
62	0xbba526f2	-0.005040043
63	0xbbefaa8b	-0.0073140315
64	0x3ad38eee	0.0016140619
65	0xbc5057a3	-0.012716207
66	0xbc2bd0a3	-0.010486755
67	0xbc8fb5fd	-0.017542833
68	0xb96df850	-0.00022694585
69	0xbc770cf9	-0.0150787765
70	0x3be3853f	0.0069433744
71	0x3b96e677	0.0046051103
72	0xbb885921	-0.0041610156
73	0x3b9ffb0c	0.004882222
74	0x3ca2f235	0.019890884
75	0xbc20571d	-0.009786394
76	0x3c4bcc90	0.012438908
77	0xbb0381df	-0.0020066423
78	0x39c7f99f	0.0003814222
79	0x3ba154d5	0.004923443
80	0xbca5b794	-0.020229138
81	0x3c1ac8e1	0.009447307
82	0xbc8e1f4d	-0.01734891
83	0x3d41c66f	0.04730838
84	0x3c2dec18	0.010615371
85	0x39a2ec5a	0.00031075143
86	0xbc027366	-0.007962083
87	0x3a3bbe1c	0.00071618124
88	0xbbb37b45	-0.0054773414
89	0x3c73326c	0.0148435645
90	0xbb9af9de	-0.0047294935
91	0x3c7d3eb2	0.015456842
92	0xbc7a1b8f	-0.01526536
93	0xbc7cd27f	-0.015431046
94	0xbbc0f5e9	-0.00588869
95	0xbc2f78e5	-0.010709976
96	0xbe1a6fdd	-0.15081735
97	0x3bfed1fe	0.007776498
98	0x3c004637	0.0078292405
99	0x3c74140e	0.01489736
100	0x3c305b32	0.01076393
101	0x3bcece10	0.0063111857
102	0xbb97c9f4	-0.004632229
103	0x3c72fef3	0.014831292
104	0xba07d29b	-0.0005181224
105	0xbc05982f	-0.008153959
106	0x3a381c60	0.0007023271
107	0xba50d037	-0.0007965597
108	0xbba2bf50	-0.004966654
109	0x3b9574eb	0.004561057
110	0xbbd70602	-0.0065619955
111	0x3bd72880	0.0065661073
112	0xbbe00e0b	-0.0068376116
113	0x3d27d46a	0.04097406
114	0xbba3ff0e	-0.00500477
115	0xbbf3cc23	-0.0074401065
116	0xbb90bec7	-0.0044172737
117	0xbc30200f	-0.010749831
118	0x3b80da38	0.0039322637
119	0x3dea389f	0.11436581
120	0xbc16a990	-0.0091957
121	0x3b5a7194	0.0033331858
122	0x3c104e67	0.008807755
123	0x3c0062fa	0.007836098
124	0x3c2f893f	0.010713874
125	0x3af3cbd5	0.0018600175
126	0xbb12d82c	-0.002240668
127	0xbc3596b4	-0.011083294
128	0xbb4df946	-0.0031429096
129	0x3a59542c	0.00082904357
130	0x3a665aa6	0.00087873114
131	0x3aae9d5e	0.0013322046
132	0xba0354f3	-0.0005009912
133	0xb9346818	-0.00017204916
134	0xbb2e8dc1	-0.0026634785
135	0xbb890864	-0.0041819084
136	0xbc1cd7f9	-0.009572976
137	0x3b6d20cb	0.0036182876
138	0xba8e56d6	-0.0010859619
139	0xbbbfb254	-0.005850116
140	0x3af79e07	0.00188917
141	0x3af559ef	0.0018718819
142	0xbaf5b445	-0.0018745741
143	0x3ab4abfa	0.0013784163
144	0x3b2aad0a	0.002604308
145	0x3a882388	0.0010386566
146	0x3ab0600c	0.0013456359
147	0x3c06ec54	0.008235056
148	0xbb6cf573	-0.0036157041
149	0xba171968	-0.00057639787
150	0x398f6887	0.00027352964
151	0x3abc30e6	0.0014357835
152	0x39a27652	0.00030987203
153	0xbdb7854e	-0.08960973
154	0x3bb57efd	0.00553882
155	0x3abc44ce	0.0014363767
156	0x39ab36e4	0.00032656558
157	0x3ab735de	0.0013977846
158	0x3b100ff1	0.0021982158
159	0x3b528d30	0.0032127611
160	0xbac4f4d8	-0.0015026582
161	0x3cf791f7	0.030220969
162	0xbc841998	-0.016125485
163	0xba8eaad4	-0.0010884651
164	0xba32147c	-0.00067932135
165	0x3b088e17	0.0020836645
166	0x3c2f2129	0.010689058
167	0xb9a00404	-0.0003052057
168	0xba25b24a	-0.00063208176
169	0x3b17282a	0.002306471
170	0xbaaae6b8	-0.001303873
171	0xba6308a6	-0.00086606515
172	0x39b70290	0.0003490639
173	0xbafc470c	-0.0019247248
174	0x3aa5795e	0.0012624671
175	0x3ae22bc1	0.0017255471
176	0x39e0c250	0.00042869383
177	0xbaade12a	-0.0013265957
178	0x38bd8840	9.037601e-05
179	0x3b8cab62	0.0042928914
180	0x3ad20a98	0.0016024886
181	0xbc3aec08	-0.011408813
182	0xb83d9e80	-4.5208726e-05
183	0xb9848f10	-0.00025283592
184	0xbba17c6b	-0.004928162
185	0x3b994eb0	0.0046785697
186	0xba2ce493	-0.00065953395
187	0x3d823b16	0.06358926
188	0xba5a3dde	-0.0008325259
189	0xbb8ebcc6	-0.0043559996
190	0xbade0259	-0.0016937956
191	0xbb24c47a	-0.0025141523
192	0x3947a3a4	0.0001903908
193	0xbae4c9e9	-0.0017455193
194	0xbaca265c	-0.0015422809
195	0xbb2cd038	-0.0026369225
196	0xba593390	-0.00082855765
197	0xbc26ce31	-0.010180996
198	0x39fb384e	0.000479164
199	0x3bf3f759	0.0074452576
200	0xbada40c6	-0.0016651384
201	0x3bd54ca7	0.006509382
202	0x3b99d1a8	0.0046941824
203	0xbafabd06	-0.001912982
204	0x3a04251e	0.0005040931
205	0x38435ae0	4.6576257e-05
206	0xba39c76c	-0.0007086906
207	0x3a5f2d82	0.0008513556
208	0xbb87bab0	-0.004142128
209	0x3afc10fb	0.0019231135
210	0xbb3b346b	-0.002856518
211	0x3cf5ba42	0.029996041
212	0x3b4e938d	0.0031521053
213	0xbab39248	-0.0013700211
214	0xba73f194	-0.00093057123
215	0x38e92024	0.000111162924
216	0xba7bf375	-0.0009611168
217	0xbbb5af6d	-0.005544594
218	0xbb02adb0	-0.0019939952
219	0x3b935443	0.0044961288
220	0xbb9fcae4	-0.0048764814
221	0xbb11d5cb	-0.0022252675
222	0xba444d62	-0.00074883376
223	0xbb20329b	-0.0024444226
224	0xbd9ff2c5	-0.078099765
225	0x3b015710	0.0019735731
226	0x3b418197	0.0029526704
227	0x3b46a952	0.0030313325
228	0x3b0fb26c	0.0021926416
229	0x3a95963c	0.0011412571
230	0xba7da10c	-0.0009675182
231	0x39b0eaae	0.00033744186
232	0xb9c10412	-0.0003681486
233	0xbb02e454	-0.001997252
234	0x3b96632e	0.00458946
235	0xba3f9a29	-0.00073090434
236	0xba815d70	-0.0009869765
237	0x3b4ddf40	0.0031413585
238	0xbaac50c7	-0.0013146632
239	0x39c0cda8	0.0003677432
240	0xbac18ca6	-0.0014766648
241	0x3c1f6f21	0.009731085
242	0x3a2b24da	0.00065286236
243	0xb9f6f800	-0.0004710555
244	0x3982e9d8	0.0002496976
245	0xbc463d25	-0.012099539
246	0x3a5af162	0.0008352009
247	0x3d94b79e	0.07261585
248	0xbb8e16ee	-0.0043362295
249	0x3ac8919a	0.0015302182
250	0x39a42610	0.00031308876
251	0x3aa3def3	0.0012502357
252	0x3bf9e48f	0.0076261233
253	0x38186100	3.6329962e-05
254	0xbb12135c	-0.002228937
255	0xbb85b2cd	-0.0040801526

lstm.bias_ih f4 [512]
0	0xbe57a84f	-0.21060298
1	0xbe396e6e	-0.18108532
2	0xbe106f94	-0.14105064
3	0xbd976cce	-0.073938
4	0xbe259674	-0.16170675
5	0xbe1a34f7	-0.15059267
6	0xbe4acb38	-0.19804084
7	0xbe43d5bf	-0.19124506
8	0xbcc022a1	-0.023454012
9	0xbe1635de	-0.14668986
10	0xbe4f3cb8	-0.20238006
11	0xbde92d7e	-0.1138563
12	0xbcc80ceb	-0.024420222
13	0xbe36a154	-0.1783498
14	0xbe51c55b	-0.20485441
15	0xbe375adb	-0.17905752
16	0xbe33d617	-0.17562138
17	0xbe418b32	-0.18900755
18	0xbe41e589	-0.18935217
19	0x3d04954e	0.03236895
20	0xbe379dec	-0.17931336
21	0xbe318005	-0.17333992
22	0xbe41fdf0	-0.18944526
23	0xbe368413	-0.1782382
24	0xbe30475b	-0.1721472
25	0x3eed9db3	0.46409377
26	0xbdf1bd28	-0.11803657
27	0xbe503915	-0.20334275
28	0xbe56be83	-0.20971112
29	0xbe50a523	-0.20375495
30	0xbe27d862	-0.16391137
31	0xbdaf1616	-0.085491344
32	0xbe2e2f6c	-0.17010278
33	0x3eb4aa46	0.35286158
34	0x3e50dff3	0.2039793
35	0xbe4060ca	-0.18786922
36	0xbe840339	-0.2578371
37	0xbca634f7	-0.020288927
38	0xbddffe7c	-0.10937211
39	0xbe41cf2b	-0.18926685
40	0xbe2373df	-0.1596217
41	0xbe24eb2d	-0.16105337
42	0xbe422f28	-0.18963301
43	0xbe50343b	-0.20332424
44	0xbe32742d	-0.1742713
45	0xbe74731a	-0.23872033
46	0xbe4e3535	-0.20137484
47	0xbe4446a0	-0.19167566
48	0xbe295a91	-0.16538455
49	0xbe2cad93	-0.16863088
50	0xbe44de68	-0.19225466
51	0x3bcd360a	0.0062625455
52	0xbe4b63dd	-0.19862314
53	0x3ca686fc	0.020328037
54	0xbd52a90a	-0.05143074
55	0xbe5c3280	-0.21503639
56	0xbe097e66	-0.13427123
57	0xbe122254	-0.14270908
58	0xbe43a758	-0.19106805
59	0xbc924695	-0.017855922
60	0xbe44d8eb	-0.19223373
61	0xbe22955a	-0.15877286
62	0xbe3cf422	-0.18452504
63	0xbe24b5c8	-0.16084969
64	0xbe32437c	-0.17408556
65	0xbe425fca	-0.18981853
66	0xbe3814cf	-0.17976688
67	0xbe1c3709	-0.15255369
68	0xbdedfff5	-0.116210856
69	0x3d35a9f6	0.04435154
70	0xbe4b4e6a	-0.19854131
71	0xbe1b4aa1	-0.15165187
72	0xbe80b1bf	-0.2513561
73	0xbb6437f9	-0.0034823401
74	0xbe05ccc8	-0.13066399
75	0xbe2af14c	-0.1669361
76	0x3c32080b	0.010866175
77	0xbe397d65	-0.1811424
78	0xbe2ab9fe	-0.16672513
79	0xbe4aa257	-0.1978849
80	0xbe1f6b4d	-0.15568276
81	0xbe31f13a	-0.17377177
82	0xbdeff7cb	-0.11717185
83	0x3daa1ca1	0.08306242
84	0xbe18d6db	-0.14925711
85	0xbdf3e4f0	-0.11908901
86	0xbe421da7	-0.18956624
87	0xbe3cf236	-0.18451771
88	0xbe3eb442	-0.1862345
89	0xbdbfa9f7	-0.0935859
90	0xbe4220bd	-0.18957801
91	0xbdcee870	-0.10102928
92	0xbe2ba005	-0.16760261
93	0xbe105d26	-0.14098033
94	0xbe33b9bf	-0.17551325
95	0xbe534c92	-0.20634678
96	0x3de652be	0.112462506
97	0xbe412300	-0.18861008
98	0xbd3281c0	-0.04358077
99	0xbe235bb4	-0.1595295
100	0xbe273ce0	-0.16331816
101	0xbe4e370a	-0.20138183
102	0xbd7e17ed	-0.062034536
103	0xbda20769	-0.079115696
104	0xbe38fa72	-0.18064287
105	0xbe310680	-0.17287636
106	0xbce9b5da	-0.028529096
107	0xbe3904a6	-0.1806818
108	0xbe07589a	-0.13217393
109	0xbe353039	-0.17694177
110	0xbe4ab2ee	-0.19794819
111	0xbe4ea5bf	-0.20180415
112	0xbe4fd6c8	-0.20296776
113	0x3d4c63d5	0.049899895
114	0xbe636b31	-0.22208859
115	0xbe4ef336	-0.20209965
116	0xbe61a85c	-0.2203688
117	0x3d41361d	0.047170747
118	0xbe47d4d3	-0.1951478
119	0x3ed10d27	0.40830347
120	0xbe2a2b1c	-0.16618007
121	0xbe350212	-0.17676571
122	0xbe46c916	-0.19412646
123	0xbe48cdae	-0.1960971
124	0xbd76d21a	-0.060258962
125	0xbe19c580	-0.15016747
126	0xbe2a0a4c	-0.1660549
127	0xbddaf3aa	-0.106910065
128	0xbde158ac	-0.11003241
129	0xbd9a4782	-0.0753317
130	0xbe088f30	-0.13335872
131	0xbe17112d	-0.14752646
132	0xbdb732a3	-0.08945205
133	0xbe204011	-0.1564944
134	0xbdefdcb5	-0.117120184
135	0xbe1a0491	-0.15040804
136	0xbdb89d98	-0.090144336
137	0xbde7cdce	-0.11318551
138	0xbdfa6026	-0.1222537
139	0xbe138afd	-0.14408489
140	0xbe35904f	-0.1773083
141	0xbdd2c0ae	-0.10290657
142	0xbe076c46	-0.13224897
143	0xbdd7fb8a	-0.10546024
144	0xbdea363d	-0.114361264
145	0xbdba4af0	-0.090963244
146	0xbdd2b5c6	-0.10288577
147	0xbd84405c	-0.06457588
148	0xbe06fbb4	-0.13181955
149	0xbe113e8a	-0.14184013
150	0xbdca6e85	-0.09884361
151	0xbd9d7d90	-0.07689965
152	0xbe0de52d	-0.13856955
153	0x3e819d7d	0.25315467
154	0xbdb7fae3	-0.089834
155	0xbdd3fd3e	-0.103510365
156	0xbde8364d	-0.11338482
157	0xbdc6e347	-0.097113185
158	0xbe25179f	-0.16122292
159	0xbe0a20c2	-0.13489059
160	0xbdedbdc1	-0.11608458
161	0x3e08e3b1	0.13368107
162	0xbc3af643	-0.011411252
163	0xbe00d45b	-0.12581007
164	0xbe1468d3	-0.14493112
165	0xbdcdce23	-0.10049083
166	0xbdf48dbc	-0.11941096
167	0xbdb8f5cb	-0.09031256
168	0xbe214b47	-0.15751372
169	0xbdec4ebe	-0.115384564
170	0xbe275f81	-0.16345026
171	0xbe220aee	-0.15824482
172	0xbe3ff4ad	-0.1874568
173	0xbe2a9aab	-0.16660564
174	0xbdd1969b	-0.10233804
175	0xbdcf3d2c	-0.101190895
176	0xbe1652f2	-0.14680079
177	0xbe088f8e	-0.13336012
178	0xbdcd2fcb	-0.100188814
179	0xbe097a84	-0.13425642
180	0xbdd473cd	-0.1037365
181	0xbcf1d122	-0.029518668
182	0xbe2d0f80	-0.16900444
183	0xbe00381b	-0.12521403
184	0xbe0b8973	-0.13626651
185	0xbe0085fd	-0.12551112
186	0xbe162d43	-0.14665703
187	0x3cffa3a1	0.031205954
188	0xbdd5aecb	-0.1043373
189	0xbe025a27	-0.12729703
190	0xbde6f914	-0.11277977
191	0xbdb55edc	-0.088559836
192	0xbdff1957	-0.12456005
193	0xbde196b9	-0.11015076
194	0xbdc5422a	-0.096317604
195	0xbe1342ef	-0.14381002
196	0xbe2d00bc	-0.16894811
197	0xbd8b63db	-0.06806155
198	0xbdc0a1bc	-0.094058484
199	0xbe066b7b	-0.13126938
200	0xbdfa1798	-0.122115314
201	0xbdd56928	-0.104204476
202	0xbe107dc4	-0.14110476
203	0xbdc16c81	-0.094445236
204	0xbe2c4a8c	-0.16825312
205	0xbdcf34bc	-0.1011748
206	0xbdfd6ea0	-0.12374616
207	0xbde6d50d	-0.11271105
208	0xbe070525	-0.13185556
209	0xbdc93be9	-0.0982588
210	0xbe7a732e	-0.24458
211	0x3dee862d	0.11646686
212	0xbdd0629d	-0.10175059
213	0xbe05cd11	-0.13066508
214	0xbdd7a832	-0.105301276
215	0xbdb5ff87	-0.088866286
216	0xbdc09752	-0.09403862
217	0xbdbbb492	-0.091653004
218	0xbdbbec96	-0.091759846
219	0xbdf9ea3c	-0.1220288
220	0xbdef9e8e	-0.11700164
221	0xbe055891	-0.13022067
222	0xbd9d2777	-0.07673543
223	0xbde5bd2e	-0.11217724
224	0xbcf211db	-0.02954953
225	0xbdcaf8ab	-0.09910711
226	0xbdba24a5	-0.09089021
227	0xbdd52a7f	-0.10408496
228	0xbdd18923	-0.10231235
229	0xbdd18451	-0.102303155
230	0xbe34045b	-0.17579786
231	0xbe5a51b3	-0.21320228
232	0xbdde2a55	-0.10847918
233	0xbdc7a327	-0.09747916
234	0xbe0b2f05	-0.13592155
235	0xbdd9bf5e	-0.106322035
236	0xbe50bfd5	-0.20385678
237	0xbdf60a6c	-0.120137066
238	0xbdcef9a2	-0.101062074
239	0xbe081b09	-0.13291563
240	0xbdc92d5c	-0.09823105
241	0xbe0d47d4	-0.13796932
242	0xbe055d78	-0.13023937
243	0xbe03efd8	-0.12884462
244	0xbe56ca51	-0.20975615
245	0xbdd13310	-0.102148175
246	0xbdc483a9	-0.09595425
247	0x3e84ac1c	0.2591256
248	0xbde27359	-0.11057157
249	0xbe132630	-0.14370036
250	0xbe02be8d	-0.12768002
251	0xbdbf5bd1	-0.093436845
252	0xbdfcf969	-0.12352259
253	0xbe0cbccc	-0.13743895
254	0xbe46e91c	-0.19424862
255	0xbe080c94	-0.13286048

lstm.bias_hh f4 [512]
0	0xbe73d70e	-0.23812506
1	0xbe38dd64	-0.18053204
2	0xbe21d6c3	-0.15804581
3	0xbd9429a2	-0.07234503
4	0xbe2c3e7e	-0.16820714
5	0xbd68d36b	-0.05684225
6	0xbe34b587	-0.17647372
7	0xbe1c012d	-0.15234824
8	0xbdab593f	-0.08366632
9	0xbe2978de	-0.16550013
10	0xbe200648	-0.15627396
11	0xbd97c71a	-0.074110225
12	0xbcbc8876	-0.023014288
13	0xbe3c63b6	-0.18397412
14	0xbe46d9e1	-0.19419052
15	0xbe359c6f	-0.17735456
16	0xbe5eadd5	-0.21745999
17	0xbe3b32f2	-0.18281153
18	0xbe3bd0c1	-0.18341352
19	0x3d9239cc	0.0713993
20	0xbe377899	-0.17917098
21	0xbe11f835	-0.1425484
22	0xbe3e301f	-0.18573044
23	0xbe42bdf8	-0.1901778
24	0xbe230eed	-0.15923662
25	0x3ee610eb	0.44934782
26	0xbe023598	-0.12715757
27	0xbe4ae6f5	-0.19814666
28	0xbe5803e5	-0.21095236
29	0xbe4cd3df	-0.20002697
30	0xbe2a7d29	-0.16649307
31	0xbdb875ad	-0.0900682
32	0xbe4856d4	-0.19564372
33	0x3e9eb3d9	0.30996588
34	0x3e75612c	0.2396285
35	0xbe387d59	-0.18016566
36	0xbe76ae3b	-0.24089901
37	0xbd0985f1	-0.033575002
38	0xbdb7fc08	-0.08983618
39	0xbe3b386b	-0.1828324
40	0xbe432c60	-0.19059896
41	0xbe2ba82e	-0.16763374
42	0xbe027b34	-0.12742311
43	0xbe375e6f	-0.17907117
44	0xbe4009ea	-0.18753782
45	0xbe284f33	-0.16436462
46	0xbe4303ce	-0.1904442
47	0xbe40e6ad	-0.18837996
48	0xbe4bf84f	-0.19918941
49	0xbe5640af	-0.20923112
50	0xbe49669c	-0.19668049
51	0xbc01acf5	-0.007914771
52	0xbe4de060	-0.20105124
53	0xbc9971fd	-0.018731112
54	0xbd906556	-0.07050578
55	0xbe5d5063	-0.21612696
56	0xbe036b81	-0.12833978
57	0xbe3bd613	-0.18343382
58	0xbe467780	-0.19381523
59	0x3ca5366b	0.02016755
60	0xbe43696a	-0.19083181
61	0xbe0e148b	-0.13875024
62	0xbe3093f6	-0.17243943
63	0xbe22cca9	-0.15898384
64	0xbe4c195f	-0.19931553
65	0xbe509a0a	-0.20371261
66	0xbe4133ea	-0.1886746
67	0xbe25a8a4	-0.16177613
68	0xbe392c2f	-0.18083261
69	0x3d7a19ec	0.061059877
70	0xbe5d3776	-0.21603188
71	0xbdf822a8	-0.12115985
72	0xbe85acee	-0.26108497
73	0xbd7b9a52	-0.06142647
74	0xbe035fe6	-0.12829551
75	0xbe2cb51b	-0.16865961
76	0xbdaf7ce1	-0.08568741
77	0xbe3a64e4	-0.18202549
78	0xbe465d6b	-0.19371574
79	0xbe42f315	-0.19038041
80	0xbdf327a8	-0.11872798
81	0xbe391234	-0.1807335
82	0xbb7a656b	-0.0038207422
83	0x3df32522	0.11872317
84	0xbe25d4cc	-0.16194457
85	0xbe0b9183	-0.13629727
86	0xbe3fb8f8	-0.18722904
87	0xbe419aac	-0.18906659
88	0xbe424362	-0.18971017
89	0xbe30d65b	-0.1726927
90	0xbe2c461b	-0.16823618
91	0xbd90aa53	-0.07063737
92	0xbe2918ec	-0.16513413
93	0xbe270abf	-0.16312693
94	0xbe2d666b	-0.169336
95	0xbe3b0b54	-0.1826604
96	0x3dea93a6	0.11453943
97	0xbe49c8e2	-0.19705537
98	0xbddd85cc	-0.10816535
99	0xbe22546a	-0.15852514
100	0xbe38492a	-0.1799666
101	0xbe43e1fc	-0.19129175
102	0xbe2e4519	-0.17018546
103	0xbd8ada90	-0.06779969
104	0xbe4b8c61	-0.19877769
105	0xbe284be6	-0.16435203
106	0xbce56ec0	-0.028006911
107	0xbe3bbdca	-0.18334118
108	0xbdcdf074	-0.100556284
109	0xbdd7068c	-0.104992956
110	0xbe4c781f	-0.19967698
111	0xbe39fdff	-0.18163298
112	0xbe448f22	-0.19195226
113	0xbc1af516	-0.009457847
114	0xbe37ecd5	-0.17961438
115	0xbe39165b	-0.18074934
116	0xbe1769a2	-0.1478639
117	0xbd13ec96	-0.036114298
118	0xbe4f7a37	-0.20261465
119	0x3ed4eba4	0.4158603
120	0xbe49645d	-0.19667192
121	0xbe5157f5	-0.20443709
122	0xbe6fc20a	-0.23413864
123	0xbe44ae83	-0.19207196
124	0xbdbcaae6	-0.09212284
125	0xbda26f36	-0.07931368
126	0xbd1e4a0c	-0.038644835
127	0xbdfcd900	-0.12346077
128	0xbde2d0f3	-0.1107501
129	0xbd98ec33	-0.074669264
130	0xbe0d838a	-0.1381971
131	0xbe20a57e	-0.1568813
132	0xbdbe3b2c	-0.0928863
133	0xbe33651d	-0.1751904
134	0xbde8bb06	-0.11363797
135	0xbe2bbd7a	-0.16771498
136	0xbd0aeb7b	-0.033915978
137	0xbddf6cbb	-0.109094106
138	0xbe0fbb57	-0.14036308
139	0xbe380fe2	-0.17974809
140	0xbe2c3093	-0.16815405
141	0xbdd1d978	-0.10246557
142	0xbe03c9c4	-0.12869936
143	0xbdd901fb	-0.10596081
144	0xbdd2233b	-0.10260626
145	0xbdbada21	-0.09123636
146	0xbdd4ebf4	-0.10396567
147	0xbd886518	-0.06659907
148	0xbe050ef5	-0.12993987
149	0xbe087665	-0.13326414
150	0xbdca40ea	-0.098756626
151	0xbd9e039a	-0.07715531
152	0xbe0d93b7	-0.1382588
153	0x3e85c3c5	0.26125923
154	0xbdf870c2	-0.12130882
155	0xbdd37e00	-0.10326767
156	0xbde7e97b	-0.1132383
157	0xbdc7ad05	-0.09749798
158	0xbe228411	-0.15870692
159	0xbe35b0d5	-0.17743237
160	0xbdee58e7	-0.116380505
161	0x3d921a44	0.07133916
162	0xbcede20c	-0.029038452
163	0xbdf6701e	-0.120331034
164	0xbe0cf569	-0.13765492
165	0xbe35eb75	-0.17765601
166	0xbdc5f745	-0.096663035
167	0xbdb92bb9	-0.090415426
168	0xbe0f7b01	-0.14011766
169	0xbe00e958	-0.12589014
170	0xbe1f6f95	-0.15569909
171	0xbe1cf6a6	-0.15328464
172	0xbe3346c3	-0.17507462
173	0xbe107ba7	-0.1410967
174	0xbdd06650	-0.101757646
175	0xbdce7c4a	-0.100823
176	0xbe1567e2	-0.1459041
177	0xbe1461e3	-0.14490466
178	0xbdccdd21	-0.100031145
179	0xbdb5c959	-0.08876295
180	0xbdd440cd	-0.10363922
181	0xbe3776c4	-0.17916399
182	0xbe1e66da	-0.15468922
183	0xbe005ca7	-0.12535344
184	0xbe2919d7	-0.16513763
185	0xbe13dc33	-0.14439468
186	0xbe187705	-0.14889152
187	0xbd34f359	-0.044177387
188	0xbdd6ee2c	-0.104946464
189	0xbe128b77	-0.14311014
190	0xbde12b38	-0.109945714
191	0xbdb55262	-0.08853604
192	0xbe100a91	-0.14066531
193	0xbddfab34	-0.10921326
194	0xbdc65b24	-0.096853524
195	0xbe016bf3	-0.12638836
196	0xbe148579	-0.14504041
197	0xbda4b237	-0.08041804
198	0xbdc06efc	-0.093961686
199	0xbdc94e38	-0.09829372
200	0xbe03cb02	-0.1287041
201	0xbdccc46b	-0.09998401
202	0xbde9cf88	-0.114165366
203	0xbdc3b023	-0.0955508
204	0xbe32499c	-0.17410892
205	0xbdd66612	-0.10468687
206	0xbe15cdae	-0.14629242
207	0xbde28ed2	-0.11062397
208	0xbdee063c	-0.11622283
209	0xbdc9ee66	-0.09859924
210	0xbe464897	-0.19363628
211	0x3e1c9acb	0.15293424
212	0xbdd7cab5	-0.1053671
213	0xbe01c818	-0.12673986
214	0xbdd7f32d	-0.10544429
215	0xbdb5fc1e	-0.08885978
216	0xbdbff025	-0.09371976
217	0xbdb4578f	-0.08805763
218	0xbdbb507c	-0.091462106
219	0xbe02d2ff	-0.12775801
220	0xbe0d7306	-0.13813409
221	0xbe119e35	-0.14220507
222	0xbd9cef89	-0.07662875
223	0xbde7e10b	-0.113222204
224	0x3d8b8aa6	0.068135545
225	0xbdcbab50	-0.09944785
226	0xbe18b557	-0.14912926
227	0xbdd80983	-0.10548689
228	0xbdc4a916	-0.09602563
229	0xbdd2c12c	-0.10290751
230	0xbe2509fd	-0.16117091
231	0xbded74f7	-0.11594575
232	0xbdded529	-0.10880501
233	0xbdc94fc1	-0.09829665
234	0xbe0a0121	-0.13476993
235	0xbdd99c27	-0.10625487
236	0xbe2aab71	-0.16666962
237	0xbe2414ad	-0.16023512
238	0xbdcea2f2	-0.10089673
239	0xbe0c2050	-0.13684201
240	0xbdc76cee	-0.097375736
241	0xbdbf3367	-0.09335976
242	0xbe044d67	-0.12920152
243	0xbe02ed42	-0.12785819
244	0xbe49171c	-0.19637722
245	0xbdb01572	-0.0859784
246	0xbdc62976	-0.09675877
247	0x3e79dc1f	0.24400376
248	0xbddd613d	-0.10809562
249	0xbe13bd63	-0.14427714
250	0xbe11b709	-0.14229979
251	0xbdbde79d	-0.09272692
252	0xbe0ace71	-0.13555314
253	0xbe27a3b4	-0.16371042
254	0xbdd86341	-0.10565806
255	0xbe03c390	-0.1286757

output_w.weight f4 [5, 128]
0	0xbadc4356	-0.0016804736
1	0x3c3da8e6	0.011575913
2	0xbc6f8224	-0.01461843
3	0x3cc35bb3	0.023847437
4	0xbb98f828	-0.0046682544
5	0x3c12724a	0.008938381
6	0xbc137683	-0.009000423
7	0xbd7f673f	-0.062354323
8	0xbe525dbb	-0.20543568
9	0x3c936f9d	0.017997557
10	0x3beb3414	0.007177839
11	0xbd80769a	-0.062726215
12	0xbd919b3f	-0.07109689
13	0x3b6ad98c	0.0035835234
14	0xbc11d2e3	-0.008900377
15	0x3c0d52f5	0.0086257355
16	0x391a2338	0.00014699704
17	0xbadd98bf	-0.0016906484
18	0x3b25b463	0.002528452
19	0x3da3b0fd	0.07992742
20	0xbc2dc6aa	-0.010606447
21	0xbd034815	-0.032051165
22	0x3ba2ee79	0.004972276
23	0x3b14e9e8	0.0022722427
24	0x3cd62596	0.02614097
25	0x3b304f4c	0.0026902733
26	0xbc4a7cc2	-0.012358846
27	0x3b6f04e2	0.0036471416
28	0x3a9accf0	0.0011810344
29	0x3c1e2d9c	0.009654429
30	0x3cbc8d22	0.023016516
31	0x3e28035d	0.16407533
32	0xbcb9a165	-0.022659967
33	0x3cee9be0	0.029127061
34	0xbd6500ab	-0.05590884
35	0xbc53cea8	-0.012927689
36	0x3a268776	0.0006352583
37	0x3ded7c1f	0.1159594
38	0x3d02e7f2	0.03195948
39	0xbc442977	-0.011972777
40	0x3c59f110	0.013302103
41	0x3c6cb916	0.014448425
42	0xbc7844c0	-0.01515311
43	0x3cb5628a	0.022141714
44	0x3da7123e	0.08157776
45	0xbd437c2d	-0.047725845
46	0x3c14d487	0.009083874
47	0x3b47d158	0.0030489769
48	0xbb48a3b6	-0.0030615157
49	0x3c99c7c3	0.018772012
50	0x3b0e3c58	0.0021703448
51	0xbcaf7900	-0.021420002
52	0x3b865798	0.0040997975
53	0xbe040ed8	-0.12896287
54	0xbc834730	-0.016025156
55	0xbb7b9e9b	-0.0038394097
56	0xbd54db7e	-0.051967137
57	0x3cc9d61b	0.024638226
58	0x3acee2be	0.0015784127
59	0xbe2c5f7c	-0.168333
60	0xbabcb080	-0.0014395863
61	0xbc25db34	-0.010123063
62	0x3b130194	0.002243136
63	0xbc8188e3	-0.015812343
64	0xbc7e5695	-0.015523572
65	0xbc246069	-0.010032752
66	0xbc309a43	-0.010778966
67	0xbc8cb825	-0.01717765
68	0x3bc8e754	0.006131092
69	0xbdff74bf	-0.124734394
70	0x3b8f55f8	0.004374262
71	0x3c2a69be	0.010401187
72	0x3ceb8141	0.028748157
73	0x3daad8fe	0.08342169
74	0x3d3c5a6b	0.045984667
75	0x3aea8572	0.0017892553
76	0xbde2e32c	-0.11078486
77	0x3a068a96	0.0005132345
78	0xbc1cd10b	-0.009571324
79	0xba8226b0	-0.0009929743
80	0xbd079ced	-0.03310864
81	0x3aac5a4e	0.0013149471
82	0x3d434206	0.047670387
83	0x3e2e79f4	0.17038709
84	0x3c2b6ca2	0.010462912
85	0xbcc84c70	-0.02445051
86	0xbc0bf19f	-0.008541494
87	0x3af7f5f7	0.0018917908
88	0x39493312	0.00019187879
89	0xbd33745c	-0.04381214
90	0xbc3e1a1c	-0.011602905
91	0x3cc69007	0.0242386
92	0xbce76c5a	-0.028249908
93	0xbc48e485	-0.012261515
94	0x3b0b51fa	0.0021258579
95	0xbc7cc442	-0.015427651
96	0x3e0f0e52	0.13970307
97	0x3bc03a6e	0.0058663404
98	0x3d40a3f2	0.04703135
99	0x3c313149	0.010814973
100	0xbb110837	-0.002213014
101	0x3b4b11fb	0.003098606
102	0x3c29f6f8	0.010373823
103	0x3d8d460b	0.06898125
104	0xbbf84a46	-0.0075772135
105	0xbac7ef19	-0.0015253752
106	0x3d291b07	0.04128554
107	0xbbcad0a9	-0.006189425
108	0x3acc7fdf	0.0015602073
109	0x3d171238	0.03688261
110	0xbbe6fda5	-0.0070492798
111	0x3c778ce3	0.015109274
112	0x39fa3140	0.0004772041
113	0xbc98314d	-0.018578196
114	0x3c8ccb27	0.017186714
115	0xbc0161c2	-0.007896842
116	0xbd6023d9	-0.054721687
117	0xbd6c824a	-0.05774144
118	0xbb363212	-0.002780084
119	0x3cf3c603	0.029757505
120	0xbc2297c4	-0.009923879
121	0x3cfda029	0.03096016
122	0xbcb1eab7	-0.021718366
123	0x3bbed9fb	0.005824325
124	0xbb3a8232	-0.002845895
125	0xbd97bdb5	-0.074092306
126	0xbd795494	-0.060871676
127	0xbcac8228	-0.021058157
128	0x3d42074d	0.047370244
129	0xbc87a047	-0.016555918
130	0xbd5dc98e	-0.054147296
131	0x3b14443d	0.002262368
132	0x3b926e41	0.0044687097
133	0xbb828507	-0.0039831433
134	0x3cd292a1	0.025704684
135	0x3d21f63e	0.039541475
136	0xbdf869a1	-0.12129522
137	0xbc81cd25	-0.01584489
138	0x3dd6f492	0.10495867
139	0x3da1eacb	0.07906111
140	0xbd2a11cd	-0.041520882
141	0xbbd7d98c	-0.006587213
142	0xbc2ec6ac	-0.010667484
143	0x3c22d03e	0.009937344
144	0xbd3c24f0	-0.045933664
145	0x3cc7e382	0.024400476
146	0xbb627305	-0.003455342
147	0xbc1d5324	-0.009602342
148	0x3d304d24	0.043042317
149	0x3c2d5c70	0.010581121
150	0x3cae58e6	0.021282624
151	0xbd49b4e0	-0.04924476
152	0xbca065ce	-0.019579794
153	0x3e1b937f	0.15192984
154	0xbd70fec5	-0.058836717
155	0x3be0f596	0.0068652136
156	0x3c40f037	0.011776022
157	0xbafaf3f4	-0.001914619
158	0xbb29d6c8	-0.0025915373
159	0xbdb48535	-0.0881447
160	0x3cb3814d	0.021912241
161	0xbc537a77	-0.012907616
162	0x3cc0fd6d	0.023558343
163	0xbce9db81	-0.02854705
164	0x3d5dd6e0	0.05416
165	0x3d36c3b5	0.044620235
166	0xbda9de97	-0.08294409
167	0x3c854894	0.01626996
168	0xbb9ab8a5	-0.0047217184
169	0xbccab4ad	-0.024744356
170	0xbc28592a	-0.010275165
171	0xbc5bdf19	-0.01341989
172	0xbce0a988	-0.027424589
173	0x3cb40b44	0.021978028
174	0x3b007e17	0.0019606405
175	0xbcc74105	-0.024322996
176	0x3c6d1a0b	0.014471541
177	0x3cb91055	0.022590796
178	0x3bf9864e	0.0076148873
179	0xbd15f009	-0.03660587
180	0xbc163659	-0.009168231
181	0x3b0a8117	0.0021134072
182	0xbc040f24	-0.00806025
183	0xbaf6ffb0	-0.0018844511
184	0x3ccd1319	0.02503352
185	0xbd1a81f4	-0.03772159
186	0xbcead840	-0.02866757
187	0x3e4b4179	0.19849195
188	0xbc474362	-0.012162061
189	0x3d1fa700	0.038977623
190	0x3c2507ac	0.01007263
191	0xbc1c00d6	-0.009521684
192	0xbc6d9308	-0.014500387
193	0xbb06a861	-0.002054714
194	0xbc99cbd7	-0.018773956
195	0xbbed26aa	-0.007237275
196	0x3cfd6e6e	0.030936446
197	0xbc926bc1	-0.017873647
198	0x3ca10105	0.019653806
199	0xbd1cc2a7	-0.038271572
200	0xbcd48433	-0.025941944
201	0xbdc220c5	-0.094789065
202	0x3b5723de	0.0032827775
203	0x3c8b40c2	0.016998652
204	0x3dcfbb93	0.10143199
205	0xbc3ff060	-0.011715025
206	0xbce1f644	-0.027583249
207	0xbae7c192	-0.001768159
208	0x3c77868e	0.015107764
209	0xbc4db4b6	-0.012555292
210	0x3ddee864	0.10884169
211	0xbb935e1d	-0.004497303
212	0xbc719d73	-0.0147470115
213	0x3c820b06	0.015874397
214	0xbc934f7d	-0.017982239
215	0xbc64342d	-0.013928455
216	0xbc409b1c	-0.011755731
217	0x3c6dfdcd	0.014525843
218	0x3ba7e2d3	0.005123475
219	0x3ca30650	0.019900471
220	0xbc5fc78c	-0.0136584155
221	0x3c9af133	0.01891384
222	0xbcd0c02b	-0.025482258
223	0xbac84b74	-0.0015281276
224	0x3d6cf8af	0.05785435
225	0x3c99649e	0.018724736
226	0x3c70b0cc	0.014690589
227	0xbc5e495a	-0.013567293
228	0xbcce0190	-0.02514723
229	0x3b99b36e	0.004690579
230	0xbc357847	-0.01107604
231	0x3e87f4e7	0.26554033
232	0xbcaecdfd	-0.021338457
233	0x3c741368	0.014897205
234	0x3a74ec5d	0.0009343082
235	0xbbcebe3d	-0.0063092993
236	0x3c79152e	0.015202804
237	0xbc8a0700	-0.016849041
238	0x3aea8446	0.0017892204
239	0x3c7c87c3	0.0154132275
240	0x3cd0d403	0.02549172
241	0x3df4cca0	0.119530916
242	0xbcf4f491	-0.029901775
243	0xbc992a53	-0.01869694
244	0xbdee7620	-0.11643624
245	0x3d5b1f2e	0.053496532
246	0xbca2b39f	-0.01986104
247	0xbd629de0	-0.055326343
248	0x3d5c38f0	0.053765237
249	0xbc866c58	-0.016409084
250	0x3c89a738	0.016803369
251	0x3cab9d71	0.020949097
252	0xbd80185d	-0.06254647
253	0x3ca883ce	0.020570662
254	0x3b9d056f	0.0047919075
255	0xbc9b6931	-0.018971058

output_w.bias f4 [5]
0	0xbb7bf010	-0.003844265
1	0x3c8f2542	0.01747382
2	0xbec51c7b	-0.3849829
3	0xbed39dd9	-0.41331366
4	0x3d13d0bd	0.03608774

square_avg f4 [64]
0	0x30377379	6.673911e-10
1	0x3d815725	0.063154496
2	0x3b7edc5b	0.0038888666
3	0x3c8e3de4	0.017363496
4	0x3c18a134	0.009315778
5	0x3c7acb65	0.015307282
6	0x328042f7	1.4931613e-08
7	0x37c6488d	2.3637223e-05
8	0x30d87d88	1.5751747e-09
9	0x3c69503c	0.014240321
10	0x3c03fa78	0.008055322
11	0x3104307f	1.9236095e-09
12	0x3cb2aaec	0.021810018
13	0x30b1f1c0	1.2947154e-09
14	0x3cea747c	0.028619997
15	0x3c62e124	0.013847623
16	0x3b9fc137	0.004875328
17	0x33178054	3.527414e-08
18	0x3c0984fa	0.0083935205
19	0x3b6a1dc5	0.003572331
20	0x3a433760	0.0007446911
21	0x3cdc2736	0.026874166
22	0x355a5891	8.134021e-07
23	0x39f6169a	0.00046937616
24	0x3d968d97	0.07351225
25	0x2e7b35ed	5.7118688e-11
26	0x3cfd4313	0.030915773
27	0x3cd8e9d7	0.026478691
28	0x3c871a6a	0.016492087
29	0x3982c0ff	0.00024939326
30	0x3c75937c	0.014988776
31	0x3c83aee6	0.016074609
32	0x3d7408a0	0.059578538
33	0x3bd1315e	0.006384059
34	0x2ee18748	1.0255846e-10
35	0x3c9fc46a	0.019502837
36	0x33817ffc	6.030311e-08
37	0x3ce1c26f	0.027558533
38	0x3cc8ab0d	0.024495626
39	0x3c0c2fdc	0.008556332
40	0x3ca93c32	0.020658586
41	0x3cbb7edc	0.02288764
42	0x2f88d539	2.488976e-10
43	0x3af65761	0.0018794351
44	0x3a9bee79	0.0011896632
45	0x3908aa72	0.00013033467
46	0x3c0c9db7	0.008582524
47	0x36e9f4f6	6.9724583e-06
48	0x396366f9	0.00021686767
49	0x3c0a1fdb	0.0084304465
50	0x3803904e	3.1367228e-05
51	0x3190257c	4.195213e-09
52	0x2ebadd35	8.497595e-11
53	0x341096e5	1.346594e-07
54	0x3dbeaa2f	0.09309804
55	0x2fbe3e4c	3.4605063e-10
56	0x3cadd6fc	0.021220677
57	0x3cbc9935	0.023022274
58	0x3c0f4dfd	0.008746621
59	0x2e509685	4.7427413e-11
60	0x3c382b4f	0.011240794
61	0x39995157	0.00029243037
62	0x3a0aac67	0.0005289972
63	0x3d373e87	0.044737365

square_avg f4 [5]
0	0x4117983b	9.474666
1	0x40cca40a	6.3950243
2	0x3e433743	0.1906405
3	0x3e7cde3c	0.2469415
4	0x3cfcfa90	0.030881196
