S-LSTM/Goal+Socail_Array_PyTorch/social_lstm/save/0/social_model_epoch_20.pth (torch, 815071 bytes, 22 tensors)

embedding_b f4 [64]
-0.05456023 0.34424302 0.26569405 -0.0025503116 -1.2385134e-07 0.0077367392 -0.08849355 -0.013494974
-0.1650384 -0.009347077 0.0071318164 -0.01758105 -0.19021074 -0.12459872 -0.03339329 -0.022525806
-0.024588864 -0.019985048 -0.14123094 -0.054040004 -0.0055067623 -0.033891577 -0.0037426222 0.0005177423
-0.05337769 -0.009577687 0.056749023 -0.008977809 0.3509611 -0.15385397 -0.03884917 -0.057024773
-0.1437418 0.015735213 0.09701363 -0.029104607 0.18029356 0.09243764 -0.008782726 -0.1634612
-0.026695462 -0.0043470035 -0.007460565 -0.0391095 -0.0074247536 -0.005362686 -0.0091656875 0.068838924
-0.10378901 0.14808 -0.008056494 0.06854149 -5.3419593e-05 -0.016747525 0.072175086 -0.06479622
-0.019019522 -0.0062869657 -0.023223525 0.079069205 0.13998994 0.063499756 -0.12810346 -0.023662088
00000000: 8c7a 5fbd 9f40 b03e 0d09 883e 2123 27bb
00000010: fffb 04b4 7984 fd3b 1b3c b5bd 061a 5dbc
00000020: d4ff 28be 7c24 19bc 03b2 e93b 2206 90bc
00000030: 9bc6 42be 9d2d ffbd 67c7 08bd 0a88 b8bc
00000040: 966e c9bc afb7 a3bc d89e 10be 0d59 5dbd
00000050: 1272 b4bb e5d1 0abd c846 75bb 19b9 073a
00000060: 91a2 5abd bbeb 1cbc aa71 683d a917 13bc
00000070: 2cb1 b33e e58b 1dbe 4f20 1fbd cf92 69bd
00000080: 0d31 13be 22e7 803c 15af c63d c96c eebc
00000090: e09e 383e f24f bd3d 6ce5 0fbc 5f62 27be
000000a0: 71b0 dabc 4f71 8ebb c177 f4bb 4831 20bd
000000b0: 594b f3bb 78b9 afbb ae2b 16bc 6cfb 8c3d
000000c0: 558f d4bd 49a2 173e 63ff 03bc 7b5f 8c3d
000000d0: da0e 60b8 1b32 89bc 88d0 933d e1b3 84bd
000000e0: d4ce 9bbc e402 cebb 433f bebc 09ef a13d
000000f0: 8659 0f3e 290c 823d 8e2d 03be ffd6 c1bc

output_b f4 [5]
0.02916564 -0.0038073251 -0.9168627 -0.8807003 -0.0795819
00000000: c8ec ee3c 5184 79bb 84b7 6abf 9375 61bf
00000010: d6fb a2bd

embedding_w.weight f4 [64, 4]
0.24123631 -0.7618385 -0.1240122 0.3627151 0.094456874 1.4380316 -0.060129743 0.36233166
-1.1593425 -0.70079863 -0.16056128 -0.1059756 -8.341963e-23 -0.000116975985 -1.4150094e-25 -5.5826044e-05
-1.6251533e-07 -1.2890405e-14 2.7307137e-15 -6.950078e-11 0.7592115 -0.5393274 0.48323962 0.4832851
0.5622841 0.8221872 0.12717086 0.042687565 0.018069416 0.0031960902 0.030167352 0.00818582
0.023439653 0.3218559 0.050615918 0.3234244 -9.019406e-05 -8.848118e-12 -0.0059541455 -1.7681391e-07
-0.5991835 0.4656298 0.39225015 -0.42597505 -0.5132276 0.023847327 -0.45213792 0.056947626
0.6057117 -0.34614375 -0.63262165 0.4213023 1.0318723 0.35227937 0.13790439 0.1875418
0.15779325 0.06547741 0.32737893 0.12301576 0.056793723 0.065753885 0.08245237 -0.088707514
0.063724086 0.10771296 0.260749 -0.087042265 0.057340365 -0.000550148 0.03987698 -0.0074897707
0.37338427 -0.5360523 0.38046637 -0.45640633 1.051361 0.34848046 -1.1045539 -0.31127536
-1.8015999e-05 -1.5274121e-07 8.322959e-09 0.00016859855 0.09089058 0.0796201 0.44691712 -0.060731504
2.2251802e-06 -8.722706e-05 -2.0946811e-06 -0.0029774078 0.009244754 -0.00041205308 -0.018361237 0.016145682
-0.3466262 0.28765807 0.6948546 0.14280128 0.011549382 -0.020833727 0.015219501 -0.0012789267
-0.82230836 -1.1623324 0.2011469 -0.99496436 0.0010822524 0.0069384146 0.005828359 0.0071695945
-1.3517548 -0.80271924 -0.019863369 0.104805805 -0.6196931 -0.55511814 0.6329805 0.63971907
0.25929418 0.23900497 0.31165743 -0.22238366 -0.7299272 0.25059006 -0.037053246 0.2327336
-0.70700747 0.6464534 -0.13377173 -0.3398291 0.25498655 1.1555307 -0.08167099 -0.422806
1.4724387 -0.20883445 0.18654525 0.46743584 0.8495417 0.68046886 0.11637068 0.23140906
-0.7198146 1.3190818 -0.009113909 0.6089906 1.2945513 -1.0044867 0.25665978 -0.4155325
0.016210191 0.007159092 0.013142305 0.0066370405 -0.22558129 0.30166483 0.27207786 -0.039118584
1.4591792 0.48624292 0.13942116 0.28470024 -2.7111907e-10 -0.00028235978 -2.2176952e-10 -0.0015662151
0.0018943932 -0.0012451131 -0.003823416 -0.00014000613 -0.15188567 0.23377325 0.36376604 0.07922343
-0.02326089 0.00878655 -0.0026238689 0.0074475305 8.425021e-06 -6.601025e-07 0.002490726 -6.0836508e-05
0.12560819 1.0339941 -0.0052618682 -0.05309653 -0.33176926 0.6947392 0.11327568 -0.034982774
0.14850675 0.40324488 -0.027878154 0.15846804 -0.67912394 -1.2344681 -0.17169726 0.15274382
-0.019901235 -0.011886566 -0.0009805812 -0.026419485 -1.2635709 1.0013528 -0.22365633 0.1808368
-6.03192e-07 -1.6469996e-11 0.00033281156 5.8002566e-19 0.0046826135 0.019528344 0.028889708 -0.033361405
0.34810728 -0.99875605 -0.096787 -0.015991902 0.7752175 -0.47410187 0.0911992 -0.31183198
0.65400994 -0.5838686 -0.22400647 0.23057586 0.0042295693 -0.006589975 0.010022255 -0.0076081026
0.014369296 0.027151775 0.014797456 -0.035066094 -1.0824655 -0.7315077 -0.011785114 0.025875837
-0.5719653 -1.0664567 -0.22615057 0.020414704 0.9829834 1.0541037 0.08689279 0.01661269
-0.5724285 0.2947062 0.071107246 0.13736227 -1.1493014 0.6953125 -0.22032683 -0.07743279
00000000: a706 773e d907 43bf 1cfa fdbd cbb5 b93e
00000010: 9b72 c13d 6b11 b83f 9b4a 76bd 8983 b93e
00000020: 5665 94bf 8a67 33bf 2d6a 24be bc09 d9bd
00000030: 40b2 c99a 0151 f5b8 702b 2f96 c226 6ab8
00000040: e07f 2eb4 8036 68a8 c7c4 4427 76d5 98ae
00000050: af5b 423f 5c11 0abf 2f6b f73e 2571 f73e
00000060: daf1 0f3f dc7a 523f 1439 023e 28d9 2e3d
00000070: 5006 943c 7f75 513b 8621 f73c d11d 063c
00000080: 8404 c03c 4cca a43e a352 4f3d e297 a53e
00000090: 9126 bdb8 62a8 1bad fe1a c3bb 3dda 3db4
000000a0: 1764 19bf 0767 ee3e 03d5 c83e 6719 dabe
000000b0: e262 03bf 785b c33c 9f7e e7be ea41 693d
000000c0: ec0f 1b3f c139 b1be 7ef3 21bf efb4 d73e
000000d0: 6414 843f f65d b43e cf36 0d3e f50a 403e
000000e0: 8e94 213e 0519 863d 369e a73e b0ef fb3d
000000f0: 89a0 683d f9a9 863d cadc a83d 49ac b5bd
00000100: c681 823d 9d98 dc3d e580 853e 3743 b2bd
00000110: bbdd 6a3d cf37 10ba 0b56 233d c06c f5bb
00000120: 392c bf3e b93a 09bf 7dcc c23e 17ae e9be
00000130: ff92 863f 086c b23e 0662 8dbf 7c5f 9fbe
00000140: 1021 97b7 2f01 24b4 c3fc 0e32 d4c9 3039
00000150: d724 ba3d dd0f a33d 52d2 e43e 99c1 78bd
00000160: 4e54 1536 aced b6b8 5992 0cb6 9d20 43bb
00000170: 4f77 173c d408 d8b9 4e6a 96bc f343 843c
00000180: fd78 b1be eb47 933e fee1 313f 803a 123e
00000190: 9e39 3d3c 7eab aabc 375b 793c a9a1 a7ba
000001a0: cd82 52bf 4fc7 94bf 74f9 4d3e fcb5 7ebf
000001b0: 5dda 8d3a a45b e33b d2fb be3b ebee ea3b
000001c0: 4d06 adbf 027f 4dbf 81b8 a2bc 6da4 d63d
000001d0: 35a4 1ebf 391c 0ebf 030b 223f a1c4 233f
000001e0: 35c2 843e b8bd 743e 9091 9f3e 8bb8 63be
000001f0: 82dc 3abf 574d 803e 25c5 17bd b851 6e3e
00000200: 71fe 34bf f87d 253f 75fb 08be 14fe adbe
00000210: 998d 823e 6ee8 933f 1f43 a7bd 077a d8be
00000220: df78 bc3f b3d8 55be b805 3f3e c053 ef3e
00000230: 917b 593f 3533 2e3f c053 ee3d 7ff6 6c3e
00000240: c545 38bf acd7 a83f 8152 15bc cfe6 1b3f
00000250: dbb3 a53f 0593 80bf e968 833e adc0 d4be
00000260: 3ccb 843c d196 ea3b d352 573c 887b d93b
00000270: c8fe 66be d073 9a3e ca4d 8b3e cf3a 20bd
00000280: 62c6 ba3f d5f4 f83e 6cc4 0e3e 3bc4 913e
00000290: 9e0c 95af b009 94b9 92d6 73af 7549 cdba
000002a0: 4a4d f83a 1033 a3ba 4792 7abb 9cce 12b9
000002b0: eb87 1bbe 4162 6f3e 8b3f ba3e e53f a23d
000002c0: 9f8d bebc 76f5 0f3c 37f5 2bbb 6a0a f43b
000002d0: 3159 0d37 e631 31b5 733b 233b b42a 7fb8
000002e0: 6f9f 003e eb59 843f c06b acbb bf7b 59bd
000002f0: a9dd a9be 6eda 313f 14fd e73d 194a 0fbd
00000300: 2712 183e 1d76 ce3e ba60 e4bc 7245 223e
00000310: 11db 2dbf 0d03 9ebf 68d1 2fbe e068 1c3e
00000320: ea07 a3bc dfbf 42bc d886 80ba ad6d d8bc
00000330: b1bc a1bf 542c 803f 2a06 65be 482d 393e
00000340: 0aeb 21b5 22df 90ad 367d ae39 8031 2b21
00000350: 9c70 993b e8f9 9f3c 1caa ec3c f8a5 08bd
00000360: 1e3b b23e 7aae 7fbf 4338 c6bd 7301 83bc
00000370: a774 463f 7bbd f2be a5c6 ba3d 71a8 9fbe
00000380: 326d 273f 6a78 15bf f461 65be 141c 6c3e
00000390: 3398 8a3b b8f0 d7bb 6234 243c 644d f9bb
000003a0: 326d 6b3c 666d de3c 0771 723c 77a1 0fbd
000003b0: 3b8e 8abf 1744 3bbf 5a16 41bc 90f9 d33c
000003c0: 516c 12bf a781 88bf 0494 67be bd3c a73c
000003d0: cda4 7b3f dfec 863f d9f4 b13d 5617 883c
000003e0: ad8a 12bf bbe3 963e ada0 913d b2a8 0c3e
000003f0: 4f1c 93bf 0000 323f 5b9d 61be 1595 9ebd

embedding_w.bias f4 [64]
0.07889617 0.14829308 0.13425878 -0.0025503116 -1.2385134e-07 -0.019392325 -0.031770293 -0.013494974
0.12832154 -0.009347077 -0.053364713 0.029769436 0.14305013 0.17784876 -0.03339329 -0.022525806
-0.024588864 -0.019985048 0.12709408 -0.006428109 -0.0055067623 -0.033891577 -0.0037426222 0.0005177423
-0.05337769 -0.009577687 -0.08703414 -0.008977809 0.15649478 0.12250333 -0.03884917 -0.05433616
0.15952852 0.03162071 0.38360998 0.27035585 -0.009255387 -0.047692634 -0.008782726 0.09291631
0.058164664 -0.0043470035 -0.007460565 -0.0391095 -0.0074247536 -0.005362686 -0.036215227 -0.09552487
0.07562147 0.13502426 -0.008056494 -0.11583809 -5.3419593e-05 -0.016747525 0.058003128 -0.06479622
0.00565354 -0.0062869657 -0.023223525 0.35706335 -0.12633234 -0.163413 0.11590271 -0.2595786
00000000: 5194 a13d 24da 173e 227b 093e 2123 27bb
00000010: fffb 04b4 a7dc 9ebc 9121 02bd 061a 5dbc
00000020: b966 033e 7c24 19bc f594 5abd 08df f33c
00000030: bc7b 123e fc1d 363e 67c7 08bd 0a88 b8bc
00000040: 966e c9bc afb7 a3bc f324 023e e3a2 d2bb
00000050: 1272 b4bb e5d1 0abd c846 75bb 19b9 073a
00000060: 91a2 5abd bbeb 1cbc f53e b2bd a917 13bc
00000070: 2b40 203e 07e3 fa3d 4f20 1fbd 988f 5ebd
00000080: 725b 233e b884 013d 8768 c43e 156c 8a3e
00000090: e8a3 17bc 5a59 43bd 6ce5 0fbc e84a be3d
000000a0: 123e 6e3d 4f71 8ebb c177 f4bb 4831 20bd
000000b0: 594b f3bb 78b9 afbb 6b56 14bd 8ba2 c3bd
000000c0: 6edf 9a3d cd43 0a3e 63ff 03bc 853c edbd
000000d0: da0e 60b8 1b32 89bc b094 6d3d e1b3 84bd
000000e0: 5541 b93b e402 cebb 433f bebc 02d1 b63e
000000f0: 445d 01be bd55 27be 665e ed3d 7ce7 84be

embedding_t_w.weight f4 [1, 8]
0.9809311 -0.32971904 0.18792927 -0.50968075 0.056945167 -0.015322439 0.5344349 -0.6566433
00000000: 4d1e 7b3f efd0 a8be 8870 403e 707a 02bf
00000010: 563f 693d f80a 7bbc bad0 083f c619 28bf

lstm.weight_ih f4 [512, 65]
0.014771663 -0.018613867 0.003645547 1.869564e-09 3.7121274e-06 -0.03434993 -0.013980929 -9.962502e-13
-0.030706935 -0.0049971715 0.027185852 0.034038585 0.015788974 -0.044532184 -0.018935494 -0.0007767606
-0.008208301 -9.674573e-07 -0.026378006 0.005814403 0.0009747739 -0.014984005 7.1902e-41 0.007006273
-0.009194235 -8.381334e-12 -0.017404888 -1.0194258e-07 -0.011996353 0.001583946 -0.014334099 0.023870127
0.03453788 0.03012504 -0.072358854 -0.04756762 -0.010610854 -0.051336292 -6.8631252e-06 0.0005530801
-0.051722024 -0.00059730944 1.9350417e-05 -0.0065945606 0.00017146763 1.04516075e-05 0.008831279 0.017268449
-0.01782797 0.016305376 -0.00021342728 0.01516907 -9.20693e-05 1.2374114e-05 -0.006392493 -0.023198882
0.015372144 4.628806e-13 0.0011587981 -0.0076204226 0.015521931 -0.029915763 0.013252595 0.035403803
-0.04602283 -0.004689263 -0.056642152 -0.028245531 -7.604808e-07 -3.8327795e-07 -0.022570925 -0.01765674
-4.728204e-05 -0.02061801 -2.5905324e-06 -0.0021282805 0.007226188 -0.018101146 -0.029680567 -0.002571285
-0.0006406114 -0.0015632269 1.9783594e-05 -0.0077330866 -0.019593371 -0.00015765228 -0.0019888636 -4.7654925e-05
-0.0022439184 -0.0075235046 1.9002917e-05 -0.014952437 -2.1429736e-05 -0.043698046 -0.006745759 -0.0012535034
-0.004527284 -0.001163958 -0.0017060929 -0.06293294 -0.03776697 -0.033634383 -0.023610631 -2.8552233e-05
-0.0049799643 -0.03437091 -6.9908e-41 1.24188045e-05 -0.0050382684 0.0003059638 0.00030296342 -0.017480588
-0.01428846 -0.02007403 -0.020466683 6.0382513e-06 -0.020625725 -0.00010725061 1.8861341e-05 -0.027212022
-0.007840939 -0.011807892 1.018154e-07 -1.6711965e-09 -0.036111668 -0.0035052386 -0.022686051 -0.012260045
0.002031676 -0.025929991 -0.016312823 -0.026514446 -0.009942413 0.00065495097 1.9822414e-06 -0.020325663
-0.006855468 0.0041279634 -0.015558004 1.1045177e-06 0.004478743 -0.020368407 -0.017616237 -0.013620495
0.0014563639 0.0029749062 0.007272806 0.00018289845 0.007594361 -0.0014505613 0.004318725 0.006292397
-0.00017214546 -0.002274648 -0.004987249 -3.4401113e-05 0.0046761795 -2.873251e-15 -0.020848507 -0.018804953
0.012625729 -0.018777512 -0.0008531036 0.020550339 -0.03681633 -0.014380387 -0.0064629023 -0.009906242
1.7171838e-05 -0.0033376035 -0.022123802 5.4330376e-06 0.00018775521 -0.0025628363 -2.7580725e-05 3.3437573e-05
-0.0037231173 -0.004012358 -0.013066276 -0.018051943 1.9830554e-07 -0.010867158 1.2694058e-05 2.160126e-05
-0.010901115 0.008021821 -0.0035549034 1.0944409e-10 -2.1160496e-10 -0.015035571 -0.013666573 -0.011523149
-0.011225996 -0.02104793 -0.011925651 -0.0046467474 -0.035050493 -0.032379683 0.002941059 -0.00085184094
-0.009233197 -0.0052146306 -6.270898e-09 -0.0055981576 -1.2677804e-06 -0.0037868638 -0.0008096851 -0.0031227847
-0.010896437 2.9038289e-05 9.680324e-05 0.0007812509 6.096615e-05 -0.008183807 0.0025549745 0.0003971234
0.00079302734 2.6111833e-05 -0.0005724558 -0.0028640474 0.00015588786 -0.01894769 -0.00077094365 -0.04658689
-0.011234615 -0.0012921356 0.0011491321 -0.0017495614 0.0026856423 -0.03674105 -0.01577159 -0.01651069
-0.013054011 1.7913499e-05 -0.00015176032 -0.013809698 0.000392553 1.5125148e-05 -0.00041154775 -8.139577e-06
3.673409e-05 -0.0033952454 -0.0016201586 -0.0032458068 -0.023849001 -2.1304522e-06 -0.0043409592 1.4377216e-05
0.00020663341 -0.010870857 0.0015520474 -0.00038745796 -2.7053932e-11 1.9055307e-08 -0.039638154 -0.008829836
00000000: d804 723c 1c7c 98bc 21ea 6e3b b879 0031
00000010: dd1d 7936 83b2 0cbd 4410 65bc b235 8cab
00000020: 1c8d fbbc 50bf a3bb ddb4 de3c 0b6c 0b3d
00000030: e157 813c 6167 36bd 9c1e 9bbc 859f 4bba
00000040: 1c7c 06bc 94d9 81b5 b016 d8bc bf86 be3b
00000050: f887 7f3a 797f 75bc 6fc8 0000 e194 e53b
00000060: 6ba3 16bc 2c72 13ad b294 8ebc 87eb dab3
00000070: 5a8c 44bc 699c cf3a 92d9 6abc 498b c33c
00000080: 9877 0d3d cac8 f63c e130 94bd 44d6 42bd
00000090: 26d9 2dbc 0146 52bd cc49 e6b6 94fc 103a
000000a0: 79da 53bd c294 1cba b452 a237 2f17 d8bb
000000b0: fecb 3339 5059 2f37 12b1 103c 9076 8d3c
000000c0: f70b 92bc da92 853c 73cb 5fb9 b187 783c
000000d0: 5415 c1b8 6a9a 4f37 1e78 d1bb 950b bebc
000000e0: 72db 7b3c 104a 022b d0e2 973a bdb4 f9bb
000000f0: b34f 7e3c e711 f5bc 6a21 593c 9403 113d
00000100: 6f82 3cbd 64a8 99bb 9a01 68bd 2c63 e7bc
00000110: d823 4cb5 52c5 cdb4 a9e6 b8bc dea4 90bc
00000120: b450 46b8 1ae7 a8bc 02d9 2db6 9f7a 0bbb
00000130: a9c9 ec3b db48 94bc a924 f3bc 0183 28bb
00000140: b4ee 27ba 31e5 ccba f2f4 a537 d565 fdbb
00000150: 4782 a0bc 764f 25b9 9857 02bb 16e1 47b8
00000160: b40e 13bb bb87 f6bb 7468 9f37 11fb 74bc
00000170: 02c4 b3b7 b9fc 32bd 870b ddbb 984c a4ba
00000180: 9c59 94bb f38f 98ba fa9e dfba fce2 80bd
00000190: 8ab1 1abd 35c4 09bd 156b c1bc 7483 efb7
000001a0: f82e a3bb 83c8 0cbd e0c2 0080 5c5a 5037
000001b0: 0f18 a5bb c469 a039 10d7 9e39 7333 8fbc
000001c0: 251a 6abc 4b72 a4bc bfa9 a7bc 2f9c ca36
000001d0: 48f7 a8bc bceb e0b8 6c38 9e37 bfeb debc
000001e0: 4877 00bc e375 41bc 9ca5 da33 00b0 e5b0
000001f0: d4e9 13bd 25b8 65bb 19d8 b9bc 5bde 48bc
00000200: de25 053b 226b d4bc 78a2 85bc d334 d9bc
00000210: 81e5 22bc 04b1 2b3a a606 0536 0182 a6bc
00000220: d5a3 e0bb de43 873b 00e7 7ebc f03e 9435
00000230: 6bc2 923b a5db a6bc ed4f 90bc 7f28 5fbc
00000240: 77e3 be3a a5f6 423b b850 ee3b 6ec8 3f39
00000250: 1eda f83b c320 beba 1784 8d3b 7430 ce3b
00000260: f281 34b9 4312 15bb 146c a3bb ea49 10b8
00000270: a33a 993b 200a 4fa7 7dca aabc d80c 9abc
00000280: 25dc 4e3c 4cd3 99bc d0a2 5fba 2f59 a83c
00000290: b8cc 16bd b79b 6bbc c1c6 d3bb ca4d 22bc
000002a0: 3e0c 9037 b2bb 5abb fa3c b5bc 704d b636
000002b0: 28e0 4439 42f5 27bb 285d e7b7 523f 0c38
000002c0: 8bff 73bb 197a 83bb ef13 56bc abe1 93bc
000002d0: d0ed 5434 2a0c 32bc 90f8 5437 5a34 b537
000002e0: 979a 32bc f56d 033c 62f9 68bb 8cab f02e
000002f0: 80a9 68af c157 76bc c3e9 5fbc 97cb 3cbc
00000300: 3ded 37bc b56c acbc ce63 43bc be43 98bb
00000310: 1b91 0fbd 8fa0 04bd c8be 403b 144e 5fba
00000320: d646 17bc 7edf aabb 6777 d7b1 c070 b7bb
00000330: 9a28 aab5 082d 78bb 0c41 54ba a2a7 4cbb
00000340: f886 32bc 4097 f337 d802 cb38 dccc 4c3a
00000350: e8b5 7f38 6015 06bc 5c71 273b 0035 d039
00000360: 2ae3 4f3a bc0a db37 dc10 16ba beb2 3bbb
00000370: d475 2339 3038 9bbc 2719 4aba e5d1 3ebd
00000380: 6411 38bc e05c a9ba 7a9e 963a 8a51 e5ba
00000390: 9a01 303b c97d 16bd 6c33 81bc 6d41 87bc
000003a0: 7ee0 55bc f244 9637 da21 1fb9 1242 62bc
000003b0: 92cf cd39 04c2 7d37 01c5 d7b9 388f 08b7
000003c0: ee12 1a38 c482 5ebb 805b d4ba 9ab7 54bb
000003d0: fb5e c3bc e4f8 0eb6 9b3e 8ebb ac35 7137
000003e0: bcab 5839 ae1b 32bc 126e cb3a ba23 cbb9
000003f0: 0af8 edad 10af a332 9e5b 22bd 04ab 10bc

lstm.weight_hh f4 [512, 128]
-0.0022498928 0.007919173 -0.0108563425 0.00049900485 0.0010882111 -0.008227598 -0.010038722 0.0027327724
-6.5747125e-05 -0.007897294 -0.0029733942 -0.011297336 0.04513137 0.0016484094 -0.0010418515 -0.0010987091
0.01766592 0.003498538 0.007932665 0.00021458726 -0.00633853 -0.012491679 0.0050352504 -0.004023769
0.011115442 -0.0027405745 -0.011447909 -0.015264621 -0.011769588 -0.0063274326 0.021755168 0.011162996
-0.009583048 0.003996864 0.004828648 -0.00077833724 0.010673729 -0.002515952 -0.005320395 -0.008342578
0.007753448 0.0034750218 -0.026465403 -0.0056479084 -0.00023174286 0.009588181 -0.013299882 -0.00402236
-0.011359249 -0.004087277 -0.0011064785 -0.0065061715 -0.00943675 0.0074879946 -0.010712034 -0.009383268
-0.007869629 -0.0021632253 0.0038490759 -0.018347396 -0.0021663078 -0.009767254 -0.0076968186 0.002135506
-0.009861388 0.0032059737 -0.003561216 0.007644217 -0.00796623 0.011352154 -0.0010601103 -0.0128246285
0.0061882827 0.0066453423 -0.0017639913 0.0074890824 0.005827763 -0.012045277 0.041530628 -0.009363526
-0.009448107 0.000744223 -0.010027162 0.0056591844 0.0018038647 -0.029422147 -0.012191902 0.00017335417
0.0031360588 0.004057471 -0.009193408 0.008011171 -0.004991195 0.008547736 0.0063718194 0.0008847374
0.0066266246 0.0026856407 0.008535792 -0.0052831904 -0.0071056415 0.0047832904 -0.0042527067 -0.0026035912
0.008962976 -0.01462574 0.000986958 0.019797366 -0.0015503571 -0.00143262 0.010679669 -0.0091649555
-0.019314503 -0.0044668326 0.005431953 0.01075113 0.0066008815 0.0026373349 -0.0059109954 0.0017034903
0.0052227383 -0.009020202 0.0030364417 -0.0052770977 0.001030507 -0.0014544106 -0.0012708138 -0.008989294
0.001276101 -0.0073650354 0.009328017 0.0012385813 0.0060859905 -0.009448802 0.005302531 -0.003433087
0.007405516 0.00033038252 -0.0039924956 -0.015086676 -0.004011867 -0.00411624 -0.007627492 -0.0048635527
-0.004544904 0.0013664253 -0.0005037326 0.00039837387 0.006858278 -0.0010261193 0.002613446 -0.009839835
-0.0066956314 0.011541638 -0.0009817062 0.007405651 -0.0009439117 0.0047096694 -0.008013847 -0.00523448
0.008794364 -0.007216842 -0.0012160016 0.005361616 0.00048336823 0.007261054 -0.0034606876 0.0026897928
0.00031654767 0.0032706459 -0.0183498 -0.025287213 -0.0071793925 -0.009691581 0.010703205 0.0060533187
-0.006923958 0.008822488 -0.006146775 -0.0011668667 -0.0071579735 -0.010146668 0.008820365 -0.000931195
0.005808474 0.000112747446 0.0019666706 -0.023921447 -0.0022949397 -0.009099197 0.0069546537 0.0063293134
-0.0057829 -0.004371351 -0.0035364043 -0.0034829874 0.0010289606 0.0057453485 -0.008377982 0.005733617
-0.0031074847 0.0062560397 -0.0056795524 -0.0033106222 -0.001327623 -0.0047330935 0.028752955 -0.0004064683
-0.01073602 -0.0017376207 -0.006791059 -0.004229655 -0.004788784 -0.018429777 -3.456601e-05 -0.0013993774
-0.0037818924 0.012427611 -0.004847463 -0.00057557214 -0.004833144 -0.000990025 -0.0031258224 -0.007502381
0.0003872161 -0.00083015795 -0.0032899356 -0.0029024298 0.0028066493 0.0076496485 -0.007830001 -0.001507994
-0.007480605 -0.0013470753 -0.008094492 0.017350288 0.0036865368 -0.008712396 -0.0078605525 0.0054519046
-0.008496319 -0.0029994743 -0.0011901221 -0.004941797 -0.008920007 0.001185165 0.00940546 0.011458473
-0.0062597273 0.011699252 0.006960216 -0.008337789 -0.014816256 0.00082296476 0.0005732407 -0.005366362
00000000: f072 13bb 6bbf 013c cdde 31bc a6cf 023a
00000010: 4ea2 8e3a 0ccd 06bc 7479 24bc 5018 333b
00000020: b8e1 89b8 a763 01bc 47dd 42bb 7618 39bc
00000030: acdb 383d 710f d83a bc8e 88ba 8f02 90ba
00000040: 1fb8 903c ba47 653b 02f8 013c d402 6139
00000050: 72b3 cfbb e6a9 4cbc befe a43b d2d9 83bb
00000060: 8b1d 363c 369b 33bb 0390 3bbc 7618 7abc
00000070: 3bd5 40bc 5a56 cfbb e537 b23c 00e5 363c
00000080: 3702 1dbc 20f8 823b a339 9e3b 5409 4cba
00000090: dde0 2e3c ace2 24bb b556 aebb 4faf 08bc
000000a0: a310 fe3b 31bd 633b f9cd d8bc 1712 b9bb
000000b0: 0000 73b9 bf17 1d3c c0e7 59bc 00ce 83bb
000000c0: 251c 3abc 91ee 85bb 4207 91ba b931 d5bb
000000d0: 999c 1abc da5d f53b 8781 2fbc 47bc 19bc
000000e0: 9eef 00bc e6c4 0dbb c740 7c3b 474d 96bc
000000f0: 9df8 0dbb d506 20bc 9835 fcbb d8f3 0b3b
00000100: a991 21bc 501b 523b 4a63 69bb 577c fa3b
00000110: ca84 02bc 63fe 393c 66f3 8aba 641e 52bc
00000120: 14c7 ca3b 2cc1 d93b ba35 e7ba fa66 f53b
00000130: d2f6 be3b 8e59 45bc 051c 2a3d 7969 19bc
00000140: 3ccc 1abc f617 433a f748 24bc ae70 b93b
00000150: a86f ec3a b706 f1bc 8bc0 47bc 68c6 3539
00000160: 5686 4d3b 89f4 843b f39f 16bc 4941 033c
00000170: 2e8d a3bb ce0b 0c3c b2ca d03b b9ed 673a
00000180: 2824 d93b 9301 303b b5d9 0b3c 9d1e adbb
00000190: 71d6 e8bb 26bd 9c3b 4a5a 8bbb 03a1 2abb
000001a0: 72d9 123c cda0 6fbc d15c 813a 162e a23c
000001b0: 5a35 cbba c0c6 bbba c7f9 2e3c 9c28 16bc
000001c0: 7339 9ebc 825e 92bb 86fe b13b 8225 303c
000001d0: 354c d83b 23d7 2c3b 06b1 c1bb a647 df3a
000001e0: 8123 ab3b 78c9 13bc 0aff 463b 81eb acbb
000001f0: 1412 873a eca1 beba 6f91 a6ba d547 13bc
00000200: d842 a73a 6556 f1bb 8ad4 183c e457 a23a
00000210: fd6c c73b 26cf 1abc dbc0 ad3b a4fd 60bb
00000220: f9a9 f23b 3137 ad39 7bd3 82bb 1b2e 77bc
00000230: fb75 83bb 86e1 86bb 0af0 f9bb 705e 9fbb
00000240: 6bed 94bb a019 b33a ec0c 04ba d6dc d039
00000250: 68bb e03b da7e 86ba 5946 2b3b 4237 21bc
00000260: 0767 dbbb 2319 3d3c 98ac 80ba 1aab f23b
00000270: d870 77ba 9253 9a3b 834c 03bc 0086 abbb
00000280: 3c16 103c 427b ecbb 3e62 9fba 7fb0 af3b
00000290: 966c fd39 23ee ed3b b4cc 62bb 3c47 303b
000002a0: 4ff6 a539 5558 563b 5252 96bc 2127 cfbc
000002b0: 1c41 ebbb 70c9 1ebc 7f5c 2f3c eb5a c63b
000002c0: 5fe2 e2bb 328c 103c e36a c9bb 8df1 98ba
000002d0: 6f8d eabb 363e 26bc 4b83 103c 701b 74ba
000002e0: 0355 be3b d372 ec38 42e3 003b e9f6 c3bc
000002f0: b366 16bb cc14 15bc dde3 e33b 2166 cf3b
00000300: 7b7e bdbb 8d3d 8fbb 05c3 67bb d542 64bb
00000310: 30de 863a 7a43 bc3b ce43 09bc 11e1 bb3b
00000320: f1a6 4bbb 77ff cc3b 8a1b babb 06f7 58bb
00000330: a303 aeba 1118 9bbb 518b eb3c 401b d5b9
00000340: 22e6 2fbc e0c0 e3ba 8887 debb eb98 8abb
00000350: 3beb 9cbb 0bfa 96bc f8fa 10b8 506b b7ba
00000360: a0d9 77bb 2e9d 4b3c 78d7 9ebb fee1 16ba
00000370: 5a5f 9ebb bac3 81ba 99da 4cbb 89d6 f5bb
00000380: 4403 cb39 f59e 59ba f69b 57bb b136 3ebb
00000390: c3ef 373b e7a9 fa3b 6849 00bc e2a7 c5ba
000003a0: dd1f f5bb 5990 b0ba c39e 04bc 3122 8e3c
000003b0: d399 713b 70be 0ebc 8cc9 00bc e4a5 b23b
000003c0: 2534 0bbc d492 44bb dffd 9bba ccee a1bb
000003d0: 3925 12bc 8a57 9b3a 5c19 1a3c 52bc 3b3c
000003e0: 661e cdbb 38ae 3f3c 8612 e43b 399b 08bc
000003f0: e2bf 72bc 3bbc 573a 8845 163a 4fd8 afbb

lstm.bias_ih f4 [512]
-0.09701625 -0.09991356 -0.06366239 -0.09080851 -0.19753674 0.24298768 -0.074419856 -0.073502
-0.09399883 -0.09542028 -0.075250566 -0.0053792745 0.18844263 -0.14383069 -0.09942167 -0.08339422
-0.12688836 -0.07553725 -0.0906522 -0.077826686 -0.08821253 -0.09385273 -0.088502236 -0.07863675
-0.08846352 -0.092969075 -0.082602605 -0.07308995 -0.009001269 -0.088271074 -0.025075112 -0.08471647
-0.08937448 -0.08423347 -0.042464606 -0.07178875 -0.079670176 -0.07731068 0.31125218 -0.0652392
-0.07894629 -0.07838947 0.44606984 0.039117202 -0.066723086 -0.08839511 -0.08404525 -0.07391113
-0.0504903 -0.08245969 -0.07064889 -0.087122045 -0.092267156 -0.082101196 -0.08277092 -0.098173894
-0.08592855 -0.112714425 -0.07403638 -0.12532823 -0.09274839 -0.055149876 -0.09624334 -0.10078293
-0.13130814 -0.110595785 -0.06437626 -0.08974206 -0.07600997 -0.10074708 -0.10634865 -0.08378019
-0.08551111 -0.085506454 -0.054664087 -0.089034505 -0.09251013 -0.08273436 0.5534859 -0.09064043
-0.21966565 -0.08203085 -0.07052084 -0.09026932 -0.083760396 0.5028348 -0.078845546 -0.15349004
-0.06884558 -0.08534796 -0.05368897 -0.1040646 -0.2405543 -0.08912302 -0.07462432 -0.086989366
-0.091965556 -0.061404433 -0.08879205 -0.13983364 -0.10198974 -0.057346422 -0.097495444 -0.080382265
-0.08103795 -0.09403365 -0.07728722 0.44461265 -0.09178777 -0.06606787 -0.076562315 -0.09492113
-0.17147481 -0.09312713 -0.113106765 -0.087791376 -0.026301617 -0.08064545 -0.106563 -0.08743808
-0.15391362 -0.090225466 -0.0961862 -0.096583284 -0.06810554 -0.08092728 -0.087395266 -0.069965586
-0.09037281 -0.07038391 -0.039365727 -0.059574045 -0.04351003 -0.09604842 -0.062116344 -0.061160043
-0.07555101 -0.06449692 -0.055814944 -0.124557905 -0.0076521784 -0.08815667 -0.088853985 -0.05635541
-0.5211929 -0.0692994 -0.06661397 -0.39263073 -0.07276946 -0.05957229 -0.08088022 -0.058034535
-0.060285803 -0.23787908 -0.05680018 -0.05369871 -0.11394662 -0.07185891 -0.0540214 -0.0534494
-0.06258137 -0.053234395 -0.14093369 -0.06572075 -0.055808146 -0.063663974 -0.06401365 -0.047834694
-0.08402453 -0.089095026 0.26424858 -0.11585276 -0.04381591 -0.054294992 -0.064928316 -0.062234063
-0.19221577 -0.054597255 -0.07719199 -0.068942636 -0.041999605 -0.06945961 -0.052795123 -0.055583026
-0.07690997 -0.05038928 -0.054036424 -0.31103715 -0.08038793 -0.16212054 -0.2641482 -0.07300324
-0.22519708 -0.076477386 -0.05791933 -0.070305325 -0.050882235 -0.10660639 -0.09567826 -0.050812807
-0.10049081 -0.07554604 -0.051109403 -0.06961922 -0.06582591 -0.05339675 0.30572972 -0.06253346
-0.33846924 -0.06792125 -0.056436118 -0.07589859 -0.0763647 0.28975263 -0.058100723 -0.11903262
-0.061565187 -0.059437767 -0.058067217 -0.088679776 -0.28593346 -0.080592476 -0.050380606 -0.06309398
-0.057852432 -0.054734834 -0.047641225 -0.138497 -0.07472576 -0.04656629 -0.059587307 -0.0743059
-0.061637424 -0.08556748 -0.06695482 0.21424668 -0.2013242 -0.056002047 -0.045985922 -0.06756157
-0.28573295 -0.07528306 -0.100580804 -0.069156185 -0.09934753 -0.049959328 -0.071204856 -0.054954547
-0.12939844 -0.06297955 -0.06480396 -0.0923358 -0.23583491 -0.06794794 -0.066483006 -0.04263246
00000000: 75b0 c6bd 7b9f ccbd 6d61 82bd d0f9 b9bd
00000010: 1247 4abe c3d1 783e 7069 98bd 3788 96bd
00000020: 7582 c0bd b56b c3bd f81c 9abd a044 b0bb
00000030: 1bf7 403e 5a48 13be 979d cbbd 97ca aabd
00000040: 06ef 01be 46b3 9abd dca7 b9bd 9963 9fbd
00000050: c5a8 b4bd dc35 c0bd a940 b5bd 4e0c a1bd
00000060: 5d2c b5bd 9266 bebd 8e2b a9bd 2fb0 95bd
00000070: 0f7a 13bc 77c7 b4bd 526a cdbc d47f adbd
00000080: f809 b7bd 9982 acbd 5eef 2dbd fb05 93bd
00000090: 1e2a a3bd 1055 9ebd 725c 9f3e 219c 85bd
000000a0: 98ae a1bd a98a a0bd 4463 e43e 5c39 203d
000000b0: 1da6 88bd 7f08 b5bd eb1f acbd b85e 97bd
000000c0: ebce 4ebd a0e0 a8bd 5eb0 90bd 0b6d b2bd
000000d0: 90f6 bcbd ac24 a8bd cd83 a9bd 650f c9bd
000000e0: 4ffb afbd d2d6 e6bd 63a0 97bd 0b56 00be
000000f0: def2 bdbd d6e4 61bd 3a1b c5bd 4867 cebd
00000100: a475 06be 0b80 e2bd b3d7 83bd afca b7bd
00000110: 1dab 9bbd 7c54 cebd 52cd d9bd f394 abbd
00000120: 7320 afbd 021e afbd 73e7 5fbd b957 b6bd
00000130: f375 bdbd a270 a9bd 40b1 0d3f b1a1 b9bd
00000140: 08f0 60be caff a7bd 3b6d 90bd 1fdf b8bd
00000150: 928a abbd c8b9 003f c679 a1bd 7e2c 1dbe
00000160: e9fe 8cbd e9ca aebd f7e8 5bbd d21f d5bd
00000170: de53 76be 2186 b6bd a3d4 98bd 7b27 b2bd
00000180: 7058 bcbd 3783 7bbd 9bd8 b5bd 8d30 0fbe
00000190: ffdf d0bd 15e4 6abd b1ab c7bd 759f a4bd
000001a0: 3af7 a5bd b794 c0bd c348 9ebd 45a4 e33e
000001b0: 3afb bbbd 974e 87bd b4cc 9cbd 0266 c2bd
000001c0: 1897 2fbe 70b9 bebd 85a4 e7bd f7cb b3bd
000001d0: 7d76 d7bc 7129 a5bd b43d dabd bc12 b3bd
000001e0: 889b 1dbe 21c8 b8bd 45fd c4bd 75cd c5bd
000001f0: eb7a 8bbd 34bd a5bd 4afc b2bd 1e4a 8fbd
00000200: 6115 b9bd 7025 90bd f53d 21bd ea03 74bd
00000210: 9337 32bd 09b5 c4bd b56d 7ebd f482 7abd
00000220: 7dba 9abd f616 84bd 369e 64bd 3718 ffbd
00000230: 20bf fabb 7c8b b4bd 14f9 b5bd eed4 66bd
00000240: e66c 05bf d8ec 8dbd e86c 88bd e506 c9be
00000250: 2808 95bd 1302 74bd 87a4 a5bd 9fb5 6dbd
00000260: 3fee 76bd 9396 73be 4ea7 68bd 2ef3 5bbd
00000270: d85c e9bd c42a 93bd 8b45 5dbd c2ed 5abd
00000280: a92a 80bd 4f0c 5abd ec50 10be 9a98 86bd
00000290: 1597 64bd 4262 82bd 9719 83bd 50ee 43bd
000002a0: 0e15 acbd 7477 b6bd 974b 873e 3644 edbd
000002b0: 5078 33bd 6d64 5ebd 23f9 84bd 25e9 7ebd
000002c0: 36d4 44be 5fa1 5fbd d616 9ebd cc31 8dbd
000002d0: c707 2cbd d740 8ebd b33f 58bd 07ab 63bd
000002e0: f982 9dbd fd64 4ebd 4c55 5dbd 4340 9fbe
000002f0: 6da2 a4bd ed02 26be 6f3e 87be b982 95bd
00000300: 109a 66be 2da0 9cbd d23c 6dbd 3dfc 8fbd
00000310: e469 50bd 7354 dabd f7f2 c3bd 1721 50bd
00000320: 20ce cdbd e2b7 9abd 1858 51bd 8694 8ebd
00000330: bccf 86bd 8db6 5abd 9b88 9c3e 8b11 80bd
00000340: d74b adbe 4c1a 8bbd 8f29 67bd b870 9bbd
00000350: 1965 9cbd 755a 943e 06fb 6dbd 60c7 f3bd
00000360: c72b 7cbd 0475 73bd e4d7 6dbd be9d b5bd
00000370: df65 92be ab0d a5bd e55b 4ebd 6b37 81bd
00000380: acf6 6cbd a231 60bd 7223 43bd 28d2 0dbe
00000390: d209 99bd 4bbc 3ebd d211 74bd b12d 98bd
000003a0: 8677 7cbd 013e afbd 9c1f 89bd 7b63 5b3e
000003b0: ee27 4ebe 6762 65bd bc5b 3cbd b85d 8abd
000003c0: 974b 92be 012e 9abd 4ffd cdbd c2a1 8dbd
000003d0: b876 cbbd 27a2 4cbd dad3 91bd 0518 61bd
000003e0: 0681 04be 6cfb 80bd f0b7 84bd 8d1a bdbd
000003f0: b57e 71be 4a28 8bbd 3e28 88bd 609f 2ebd

lstm.bias_hh f4 [512]
-0.09715106 -0.09991356 -0.06366239 -0.09080851 -0.2025311 0.22023016 -0.074419856 -0.073502
-0.09399883 -0.09542023 -0.075250566 -0.0012024654 0.20254225 -0.14338206 -0.09942166 -0.08339422
-0.11990638 -0.07553725 -0.0906522 -0.069921084 -0.08821259 -0.09385273 -0.088502236 -0.07863675
-0.08846352 -0.09596037 -0.082602605 -0.07308995 -0.013180711 -0.088271186 -0.01429927 -0.08471647
-0.08937448 -0.08423345 -0.04249958 -0.07178875 -0.079670176 -0.07731068 0.31957445 -0.0652392
-0.07894629 -0.078389466 0.44550988 0.04997796 -0.066723086 -0.08839511 -0.08404525 -0.07391113
-0.05614814 -0.08245969 -0.07064891 -0.087122045 -0.09227791 -0.082101196 -0.08277092 -0.098173894
-0.08592854 -0.11261257 -0.07403638 -0.12538171 -0.092748426 -0.014956707 -0.062123712 -0.10078293
-0.11099554 -0.110595785 -0.06437626 -0.08974206 -0.07600997 -0.10074726 -0.106348656 -0.08378019
-0.085458115 -0.08550647 -0.054664087 -0.089034505 -0.09251015 -0.08273406 0.55332994 -0.09064039
-0.24324861 -0.08203085 -0.07052084 -0.09026932 -0.083760396 0.5058801 -0.078845546 -0.15435244
-0.06884558 -0.08534796 -0.05368897 -0.10405282 -0.25233743 -0.08912302 -0.07462432 -0.086989366
-0.091965556 -0.061404433 -0.08879205 -0.14133497 -0.10198974 -0.057346422 -0.097492024 -0.080382265
-0.08103795 -0.09403352 -0.07728722 0.45258322 -0.09934923 -0.06606787 -0.076562315 -0.09492113
-0.25383008 -0.09312713 -0.11310366 -0.087791376 -0.026108123 -0.08038713 -0.10656299 -0.08743808
-0.15468067 -0.090225466 -0.09618629 -0.096584074 -0.069233134 -0.08092728 -0.08739528 -0.069965586
-0.09037106 -0.07038391 -0.039365727 -0.059574045 -0.037087787 -0.10672709 -0.062116344 -0.061160043
-0.07555101 -0.06449692 -0.055814944 -0.124764875 -0.0018932398 -0.08815738 -0.088853985 -0.05635541
-0.47029063 -0.0692994 -0.06661397 -0.45524246 -0.07276946 -0.05957229 -0.08088022 -0.058034535
-0.060285803 -0.23726922 -0.05680018 -0.05369871 -0.11368083 -0.07185891 -0.051484887 -0.0534494
-0.06258137 -0.053234395 -0.1410045 -0.06572075 -0.055808146 -0.063663974 -0.08471196 -0.047834694
-0.08402453 -0.089095026 0.2638138 -0.09610521 -0.04381591 -0.054294992 -0.064928316 -0.062234063
-0.19197334 -0.054597255 -0.07719199 -0.068942636 -0.041999564 -0.06945961 -0.052795123 -0.055583026
-0.07690997 -0.05038866 -0.054036424 -0.3087906 -0.08038793 -0.16123994 -0.2735196 -0.07300324
-0.22411361 -0.076477386 -0.05791933 -0.070305325 -0.050882235 -0.10660639 -0.09567826 -0.050812807
-0.10049076 -0.07554604 -0.051109403 -0.06961922 -0.06582591 -0.05339675 0.30627713 -0.06253346
-0.31928173 -0.06792125 -0.056436118 -0.07589859 -0.0763647 0.28677484 -0.058100723 -0.11901053
-0.061565187 -0.059437767 -0.058067217 -0.088679776 -0.27810195 -0.080592476 -0.050380606 -0.06309398
-0.057852432 -0.054734834 -0.047641225 -0.13850202 -0.07472576 -0.04656629 -0.059587307 -0.0743059
-0.061637424 -0.08556748 -0.06695482 0.22200987 -0.21141529 -0.056002047 -0.045985922 -0.06756157
-0.29689774 -0.07528306 -0.10058078 -0.069156185 -0.09934335 -0.049959064 -0.071204856 -0.054954547
-0.12942521 -0.06297955 -0.06480396 -0.0923358 -0.23488271 -0.06794794 -0.066483006 -0.04263246
00000000: 23f7 c6bd 7b9f ccbd 6d61 82bd d0f9 b9bd
00000010: 5064 4fbe 0484 613e 7069 98bd 3788 96bd
00000020: 7582 c0bd ae6b c3bd f81c 9abd 0b9c 9dba
00000030: 3c67 4f3e bfd2 12be 959d cbbd 97ca aabd
00000040: 7a91 f5bd 46b3 9abd dca7 b9bd c932 8fbd
00000050: cda8 b4bd dc35 c0bd a940 b5bd 4e0c a1bd
00000060: 5d2c b5bd df86 c4bd 8e2b a9bd 2fb0 95bd
00000070: e9f3 57bc 86c7 b4bd 7c47 6abc d47f adbd
00000080: f809 b7bd 9682 acbd 0a14 2ebd fb05 93bd
00000090: 1e2a a3bd 1055 9ebd 439f a33e 219c 85bd
000000a0: 98ae a1bd a88a a0bd df19 e43e b0b5 4c3d
000000b0: 1da6 88bd 7f08 b5bd eb1f acbd b85e 97bd
000000c0: 98fb 65bd a0e0 a8bd 60b0 90bd 0b6d b2bd
000000d0: 33fc bcbd ac24 a8bd cd83 a9bd 650f c9bd
000000e0: 4dfb afbd 6ba1 e6bd 63a0 97bd 1064 00be
000000f0: e3f2 bdbd fa0c 75bc 6f75 7ebd 4867 cebd
00000100: a151 e3bd 0b80 e2bd b3d7 83bd afca b7bd
00000110: 1dab 9bbd 9454 cebd 53cd d9bd f394 abbd
00000120: aa04 afbd 041e afbd 73e7 5fbd b957 b6bd
00000130: f675 bdbd 7a70 a9bd 08a7 0d3f aba1 b9bd
00000140: 2a16 79be caff a7bd 3b6d 90bd 1fdf b8bd
00000150: 928a abbd 5c81 013f c679 a1bd 910e 1ebe
00000160: e9fe 8cbd e9ca aebd f7e8 5bbd a519 d5bd
00000170: 5f32 81be 2186 b6bd a3d4 98bd 7b27 b2bd
00000180: 7058 bcbd 3783 7bbd 9bd8 b5bd 1dba 10be
00000190: ffdf d0bd 15e4 6abd e6a9 c7bd 759f a4bd
000001a0: 3af7 a5bd a594 c0bd c348 9ebd fdb8 e73e
000001b0: 9c77 cbbd 974e 87bd b4cc 9cbd 0266 c2bd
000001c0: 04f6 81be 70b9 bebd e4a2 e7bd f7cb b3bd
000001d0: b4e0 d5bc 02a2 a4bd b23d dabd bc12 b3bd
000001e0: 9c64 1ebe 21c8 b8bd 51fd c4bd dfcd c5bd
000001f0: 1aca 8dbd 34bd a5bd 4cfc b2bd 1e4a 8fbd
00000200: 7614 b9bd 7025 90bd f53d 21bd ea03 74bd
00000210: 5de9 17bd bc93 dabd b56d 7ebd f482 7abd
00000220: 7dba 9abd f616 84bd 369e 64bd ba84 ffbd
00000230: 9626 f8ba db8b b4bd 14f9 b5bd eed4 66bd
00000240: efc9 f0be d8ec 8dbd e86c 88bd 8a15 e9be
00000250: 2808 95bd 1302 74bd 87a4 a5bd 9fb5 6dbd
00000260: 3fee 76bd b4f6 72be 4ea7 68bd 2ef3 5bbd
00000270: 7fd1 e8bd c42a 93bd d1e1 52bd c2ed 5abd
00000280: a92a 80bd 4f0c 5abd 7c63 10be 9a98 86bd
00000290: 1597 64bd 4262 82bd 777d adbd 50ee 43bd
000002a0: 0e15 acbd 7477 b6bd 9a12 873e cfd2 c4bd
000002b0: 5078 33bd 6d64 5ebd 23f9 84bd 25e9 7ebd
000002c0: a994 44be 5fa1 5fbd d616 9ebd cc31 8dbd
000002d0: bc07 2cbd d740 8ebd b33f 58bd 07ab 63bd
000002e0: f982 9dbd 5764 4ebd 4c55 5dbd cd19 9ebe
000002f0: 6da2 a4bd 151c 25be c30a 8cbe b982 95bd
00000300: 0a7e 65be 2da0 9cbd d23c 6dbd 3dfc 8fbd
00000310: e469 50bd 7354 dabd f7f2 c3bd 1721 50bd
00000320: 19ce cdbd e2b7 9abd 1858 51bd 8694 8ebd
00000330: bccf 86bd 8db6 5abd 5bd0 9c3e 8b11 80bd
00000340: e578 a3be 4c1a 8bbd 8f29 67bd b870 9bbd
00000350: 1965 9cbd 27d4 923e 06fb 6dbd cbbb f3bd
00000360: c72b 7cbd 0475 73bd e4d7 6dbd be9d b5bd
00000370: 6163 8ebe ab0d a5bd e55b 4ebd 6b37 81bd
00000380: acf6 6cbd a231 60bd 7223 43bd 79d3 0dbe
00000390: d209 99bd 4bbc 3ebd d211 74bd b12d 98bd
000003a0: 8677 7cbd 013e afbd 9c1f 89bd 8e56 633e
000003b0: 407d 58be 6762 65bd bc5b 3cbd b85d 8abd
000003c0: fb02 98be 012e 9abd 4cfd cdbd c2a1 8dbd
000003d0: 8774 cbbd e0a1 4cbd dad3 91bd 0518 61bd
000003e0: 0b88 04be 6cfb 80bd f0b7 84bd 8d1a bdbd
000003f0: 1885 70be 4a28 8bbd 3e28 88bd 609f 2ebd

output_w.weight f4 [5, 128]
-0.013494217 -0.0041018454 0.0024331613 0.004639057 -0.026213905 -0.025863767 0.002675307 0.006120997
0.0068515725 -0.0034447738 -0.0055143433 -0.04641453 -0.020964148 -0.005919857 -0.0086445 0.002952292
-0.35562342 3.8062804e-05 -0.0012949071 0.20071007 0.014432013 0.0038562845 -0.006537019 0.0026011588
-0.006713178 0.05044167 -0.0073379483 0.0045653386 -0.018341376 0.013465455 0.0335168 0.002779154
-0.0010019126 -0.00029034243 0.012442153 -0.003500679 0.004392149 0.0047905617 0.035588793 -0.0016169471
-0.0009906976 -0.0022622396 0.009566351 -0.06889403 0.0059522823 -0.00090390194 0.012730974 -0.0009825681
-0.018504143 0.005870398 0.002691141 -0.0022124907 -0.00031875318 0.004021293 0.008093532 -0.003067814
0.004888552 -0.017033203 -0.0051692887 0.06367863 -0.00080812775 -0.14467342 0.09936473 0.00678704
-0.026183737 -0.006515257 -0.0026371267 -0.001031768 -0.004739143 -0.008250406 -0.0010629301 0.0068163737
-0.0047615673 -0.0074107754 0.00126119 -0.0013735967 0.0038843472 0.0010507661 -0.1857761 -0.005526878
0.28668785 -0.0012134931 0.0017268423 -0.00022405364 -0.0005380687 0.16497658 0.006183044 -0.046717405
-0.0021971297 0.0020970565 -0.00016192632 -0.009691758 -0.078841515 0.0006705925 -0.0055541913 -0.0021845156
0.001578203 0.00012871606 -0.0022910454 0.03231345 0.006345309 0.0018993367 0.0015120923 0.009541068
0.00075394736 0.004471217 0.0018593152 0.026815683 -0.11611697 -0.0009368111 -0.0037273692 0.010752546
0.118089154 -0.0050265626 -0.0020663303 0.0013493705 -0.008928096 -0.0032859484 0.0068410276 -0.010048845
0.00047084913 0.0019682096 0.0070200227 0.0029665222 -0.005566514 -0.0037121808 -0.0015631631 -0.0028233395
0.022432901 0.007096914 -0.009030144 -0.008925137 -0.110393964 -0.08020367 -0.001193401 0.0037354126
0.0016890748 -0.0012124422 0.0024975762 0.048591185 0.030187305 -0.022948788 0.005289024 -0.005536967
0.5351422 0.0041929116 0.01511447 0.41296387 -0.019549908 -0.01102699 0.00028377236 -0.001799026
0.004523084 -0.049340677 -0.0017891016 -0.013728277 -0.035098482 -0.0077046137 0.06005119 0.006151794
-0.003638159 0.0036869308 0.0144348815 -0.0051717763 0.014717662 -0.005351598 -0.034485593 -0.003793588
-0.0056671225 -0.0034815103 0.09631728 0.11799708 0.005238424 0.009222691 -0.012021811 0.002226109
0.014690493 -0.0047323415 0.0029539466 -0.0137403 -0.002208205 0.0027695552 -0.0120166 -0.009249796
0.0019195064 0.0046401657 -0.0001153246 -0.03614649 0.0021630833 -0.041244756 -0.045756288 -0.0051785028
-0.12687846 0.0050492175 -0.002320133 0.0073545645 9.923766e-06 0.0066867243 -0.0044869273 -0.009090464
-0.013434081 0.010549888 -0.002476955 0.004218834 0.0007188516 0.0073189735 -0.03498005 -0.004478745
0.10789687 -0.016475458 0.005362313 -0.0004766616 6.5782006e-05 -0.0635983 -0.007040267 0.015969886
-0.009179474 -0.0015794823 -0.0042402437 0.0020741639 -0.017443132 -0.00807147 0.009022064 0.008303249
0.008296147 0.0058449954 0.00588993 -0.034993615 -0.0032110976 0.00011896136 -0.017315432 0.009034094
0.007870926 -0.0077209957 -0.0021777973 0.0995388 -0.00497126 0.0022803196 0.008267698 -0.01923157
0.09274563 0.0033015858 0.0061356802 0.0100101605 -0.0045486246 0.0033356324 -0.005467903 -0.008425626
0.045036297 -0.0032789253 -0.01089913 -0.013122645 0.028902678 0.0025155458 -0.0022420674 -0.0056311726
00000000: d916 5dbc c668 86bb ac75 1f3b 3b03 983b
00000010: 8bbe d6bc 40e0 d3bc 3454 2f3b a592 c83b
00000020: 2883 e03b b7c1 61bb aab1 b4bb 2a1d 3ebd
00000030: 01bd abbc 5cfb c1bb a9a1 0dbc 3e7b 413b
00000040: 4614 b6be a0a5 1f38 dfb9 a9ba f186 4d3e
00000050: 4074 6c3c b8b9 7c3b 7d34 d6bb 3478 2a3b
00000060: 38fa dbbb ed9b 4e3d 2c73 f0bb d698 953b
00000070: a740 96bc 369e 5c3c e948 093d 7822 363b
00000080: 9c52 83ba 1a39 98b9 2cda 4b3c a66b 65bb
00000090: 04ec 8f3b 25fa 9c3b 8ec5 113d beef d3ba
000000a0: 4cda 81ba 1542 14bb 2fbc 1c3c 5018 8dbd
000000b0: 5d0b c33b d5f3 6cba 9395 503c 84c9 80ba
000000c0: 0096 97bc 785c c03b db5d 303b 6fff 10bb
000000d0: 541e a7b9 0dc5 833b bc9a 043c 610d 49bb
000000e0: 2530 a03b 3789 8bbc 2363 a9bb f169 823d
000000f0: 89d8 53ba 4525 14be bc7f cb3d d165 de3b
00000100: 477f d6bc f07d d5bb a5d3 2cbb 643c 87ba
00000110: d04a 9bbb b62c 07bc 0452 8bba e35b df3b
00000120: ec06 9cbb 17d6 f2bb 844e a53a 420a b4ba
00000130: 8890 7e3b dcb9 893a 173c 3ebe d01a b5bb
00000140: c0c8 923e 120e 9fba 3657 e23a f1ef 6ab9
00000150: 2e0d 0dba 9fef 283e 229b ca3b c05a 3fbd
00000160: b8fd 0fbb c56e 093b c4ca 29b9 2eca 1ebc
00000170: a977 a1bd b3ca 2f3a efff b5bb 172a 0fbb
00000180: b5db ce3a f4f7 0639 5d25 16bb 1c5b 043d
00000190: 4fec cf3b 2af3 f83a 6631 c63a 2452 1c3c
000001a0: 8da4 453a 4983 923b 44b4 f33a 90ac db3c
000001b0: bcce edbd 5494 75ba e146 74bb 722b 303c
000001c0: bad8 f13d ddb5 a4bb 456b 07bb 5cdd b03a
000001d0: 2647 12bc 1159 57bb b32a e03b e9a3 24bc
000001e0: 4ddc f639 14fd 003b 3808 e63b fc69 423b
000001f0: 4e67 b6bb 0f48 73bb 0de3 ccba c707 39bb
00000200: 34c5 b73c 3b8d e83b 2bf3 13bc bd3a 12bc
00000210: 3b16 e2bd d241 a4bd e56b 9cba d3cd 743b
00000220: f263 dd3a cfea 9eba 60ae 233b 8d07 473d
00000230: 5e4b f73c 19ff bbbc 8d4f ad3b 726f b5bb
00000240: 14ff 083f b164 893b afa2 773c 0070 d33e
00000250: 2127 a0bc 8caa 34bc 48c7 9439 4ccd ebba
00000260: 6136 943b 7319 4abd 4a80 eaba 91ec 60bc
00000270: 6dc3 0fbd fc76 fcbb 3df8 753d fd94 c93b
00000280: 2e6e 6ebb 6fa0 713b 4880 6c3c 0178 a9bb
00000290: 5922 713c 755c afbb c440 0dbd d89d 78bb
000002a0: 45b3 b9bb 0d2a 64bb fe41 c53d 74a8 f13d
000002b0: 16a7 ab3b c51a 173c 21f7 44bc e9e3 113b
000002c0: 65b0 703c c211 9bbb 0097 413b ff1e 61bc
000002d0: 88b7 10bb 6d81 353b 46e1 44bc 758c 17bc
000002e0: f297 fb3a 880c 983b 6cda f1b8 580e 14bd
000002f0: 84c2 0d3b 43f0 28bd f26a 3bbd 6eb0 a9bb
00000300: 6dec 01be e873 a53b 5f0d 18bb 8ffe f03b
00000310: 407e 2637 4f1c db3b 1307 93bb 2bf0 14bc
00000320: 9f1a 5cbc 70d9 2c3c 6954 22bb 253e 8a3b
00000330: 5071 3c3a 00d4 ef3b 3e47 0fbd 70c2 92bb
00000340: 09f9 dc3d 8af7 86bc 57b6 af3b 70e8 f9b9
00000350: 72f4 8938 d33f 82bd 0ab2 e6bb 47d3 823c
00000360: 8165 16bc a206 cfba bef1 8abb b2ee 073b
00000370: e6e4 8ebc 333e 04bc 47d1 133c 5a0a 083c
00000380: 90ec 073c 6087 bf3b 5000 c13b 7755 0fbd
00000390: 4771 52bb e57a f938 18d9 8dbc bd03 143c
000003a0: 0ef5 003c 6800 fdbb 60b9 0ebb 00db cb3d
000003b0: f4e5 a2bb 6a71 153b 3d75 073c 878b 9dbc
000003c0: 6cf1 bd3d 6b5f 583b d10d c93b a801 243c
000003d0: a10c 95bb a09a 5a3b 182c b3bb a30b 0abc
000003e0: fb77 383d 3de3 56bb 4492 32bc 5d00 57bc
000003f0: 4fc5 ec3c dbdb 243b a6ef 12bb b385 b8bb

output_w.bias f4 [5]
-0.03899783 0.057116896 -0.9018795 -0.9402304 -0.117863454
00000000: 30bc 1fbd 68f3 693d 93e1 66bf f1b2 70bf
00000010: 6562 f1bd

square_avg f4 [64]
0.049770296 0.13972911 0.04376825 9.628819e-10 1.7027624e-11 0.010855098 0.015124622 1.5276108e-06
0.006442183 1.9886539e-08 0.016816428 0.008948641 0.07391887 0.0133548295 0.0047398345 0.003172533
0.0062971767 1.0035655e-05 0.0058543133 0.2637913 6.9898083e-09 0.020808771 4.643231e-09 0.0019956373
0.049814858 1.0201302e-06 0.057180658 2.7737192e-06 0.08013717 0.09384126 0.024045438 0.0037188837
0.024049519 0.11319045 0.08857739 0.019445766 0.111604586 0.05790751 5.9843927e-07 0.009979231
0.031086765 2.166089e-09 6.4758794e-09 0.015577849 0.00014995516 8.092642e-09 0.012581499 0.019385176
0.0006926677 0.1429533 0.00045466772 0.046758678 2.52339e-11 5.9529466e-08 0.06260968 0.0036640563
0.018011473 7.4719605e-07 2.579013e-06 0.037302367 0.023537828 0.015563113 0.0066075413 0.0134899095
00000000: f0db 4b3d 2615 0f3e 5646 333d 6556 8430
00000010: cdc6 952d 95d9 313c 43cd 773c 4f08 cd35
00000020: f318 d33b f6d2 aa32 9bc2 893c 529d 123c
00000030: c762 973d 37ce 5a3c 9d50 9b3b 45ea 4f3b
00000040: 8c58 ce3b cf5e 2837 8ad5 bf3b a70f 873e
00000050: 012b f031 2877 aa3c 4b8a 9f31 3dc9 023b
00000060: aa0a 4c3d 68eb 8835 4436 6a3d 2224 3a36
00000070: f51e a43d d92f c03d f0fa c43c 84b8 733b
00000080: 7f03 c53c 65d0 e73d 1068 b53d ba4c 9f3c
00000090: f290 e43d 6d30 6d3d 6fa4 2035 ee7f 233c
000000a0: aca9 fe3c 3eda 1431 7082 de31 3c3a 7f3c
000000b0: 483d 1d39 d107 0b32 a222 4e3c a9cd 9e3c
000000c0: 2494 353a 5a62 123e 7860 ee39 0786 3f3d
000000d0: b1f5 dd2d 57ad 7f33 8139 803d aa20 703b
000000e0: cc8c 933c ec92 4835 1b13 2d36 5eca 183d
000000f0: 67d2 c03c 6dfc 7e3c 1384 d83b c804 5d3c

square_avg f4 [5]
5.4436736 10.112875 0.050776247 0.14787579 0.02482939
00000000: 9332 ae40 56ce 2141 c1fa 4f3d c06c 173e
00000010: 0167 cb3c
