S-LSTM/Goal+Socail_Array_PyTorch/social_lstm/save/0/social_model_epoch_0.pth (torch, 819255 bytes, 22 tensors)

embedding_b f4 [64]
000000 f0 03 60 bc 1e 51 94 3d 1b b1 10 3e 4d 93 9d 3d
       -0.013672814 0.072420344 0.1413006 0.07694111
000010 0d a6 56 bc 88 19 17 bd 5a 4d 13 ba bc 95 eb bb
       -0.013101113 -0.036889583 -0.0005619131 -0.0071894806
000020 06 5f b9 bb 59 47 d1 bc d9 53 59 3c fd d7 c5 bb
       -0.0056570796 -0.025546717 0.01326462 -0.0060377107
000030 bf 2f 35 3c ba b7 e2 ba 08 c7 75 3d db ed 45 3d
       0.011058747 -0.0017297186 0.060004264 0.04832254
000040 9a ed 86 3c f4 b2 67 bc f4 55 01 3b c5 09 9c 3d
       0.01647072 -0.014141787 0.001973507 0.07619051
000050 33 6f 90 bc f4 d5 21 3d 3b 58 9f bb 76 21 8f bc
       -0.017631149 0.039510682 -0.004862813 -0.01747201
000060 36 86 ca 3d fb 38 64 bb 0c 72 91 bb 44 b9 ae 3d
       0.0988888 -0.0034824002 -0.0044386443 0.0853143
000070 3d 81 22 3e 71 2d bc bc 81 c7 d3 3d 76 fa 51 3d
       0.15869613 -0.022970887 0.10340787 0.05126425
000080 44 5a 84 3e e7 73 9e ba 96 5f 14 b6 c2 4a 8f 3d
       0.25850117 -0.0012088985 -2.2109357e-06 0.06996681
000090 19 3a eb b5 80 c1 e4 3d 48 11 08 ba 85 7f 5b 3d
       -1.7525773e-06 0.1116972 -0.00051905634 0.05358841
0000a0 0f 12 9c 3c 5a 32 c9 3d 56 8b 17 bc ea 9c 88 bc
       0.01905158 0.09824057 -0.009249529 -0.016676385
0000b0 81 5b b6 bd 6a 31 a5 bb 82 ab 88 bc 5e d9 81 ba
       -0.08904172 -0.005041291 -0.016683344 -0.0009906699
0000c0 7c 18 5c bc 39 1e 02 3c e5 5a 7f 3c 8e c8 e5 ba
       -0.013433572 0.007941776 0.015585636 -0.0017531083
0000d0 a4 c7 f7 bb f0 97 dd b8 42 c0 4d 3e 5f 45 71 b9
       -0.007561641 -0.00010566402 0.20092872 -0.00023009394
0000e0 5d bb 19 3e 13 04 6b 3d 04 73 dd 3c 00 54 ac bb
       0.1501288 0.057376932 0.027032383 -0.005259037
0000f0 1b 56 99 bd c9 3f ba bd 02 12 e8 3a 31 12 d5 3d
       -0.074871264 -0.09094197 0.0017705562 0.1040386

output_b f4 [5]
000000 9a ad 1b bc f1 ce aa bb 51 6b a7 be d8 de a1 be
       -0.009501839 -0.0052126576 -0.32699063 -0.3161533
000010 34 53 b1 bc
       -0.02164612

embedding_w.weight f4 [64, 4]
000000 9e 5d fe ba e3 f8 97 b8 89 d5 cf 3b 0f 04 10 b8
       -0.0019406562 -7.2466e-05 0.006342594 -3.4336055e-05
000010 f0 96 20 3f fe f2 b7 be 62 63 7f bd 46 9d 7e 3d
       0.6273031 -0.35927576 -0.06235064 0.062161706
000020 74 1c 13 3f 1d 1a 3e be ee db 6c 3d c5 f0 44 3d
       0.5746529 -0.18564649 0.05782693 0.04808118
000030 7d 6d 0c bf 4c 40 b0 3e 92 c9 6a bd 9d fb f4 3d
       -0.54854566 0.34424055 -0.05732114 0.11962054
000040 41 ca db 3e 8b 5c b1 3e 7e 73 88 3d 73 bf 46 3d
       0.42927745 0.34640917 0.066626534 0.048522424
000050 aa f3 12 3e d5 ef 1a 3f 72 ba 36 3e df ab 38 3d
       0.14350763 0.60522205 0.1784456 0.045085784
000060 e0 52 17 93 d5 4e f7 31 00 cf c4 17 3a 44 12 b8
       -1.909974e-27 7.1976083e-09 1.2718457e-24 -3.4872653e-05
000070 02 76 4e 3d 9b e9 d7 3c 3d 70 a2 bc d1 83 46 bc
       0.05040551 0.026356509 -0.01982891 -0.012116388
000080 4e 47 9b 3b cf 13 ae bb 9b 80 83 bb cd 0f 24 bc
       0.004738725 -0.00531242 -0.0040131337 -0.010013533
000090 af 9e ed 3e 61 3e c9 be f2 f0 1a bd 24 58 73 bd
       0.46410128 -0.39305404 -0.03782744 -0.05941023
0000a0 3b 5b 18 3e 75 6e 16 bf 00 f7 66 bd 21 44 0d be
       0.14878552 -0.58762294 -0.0563879 -0.1379552
0000b0 ff 6b 1f 39 ad 37 02 ae 4d d0 3f b2 fc df 16 a9
       0.00015203653 -2.9608028e-11 -1.1165025e-08 -3.3500966e-14
0000c0 ed 53 e9 bd 6f 3d 2d 3f 07 52 dd 3c e4 2a b9 3d
       -0.11392961 0.67671865 0.027016653 0.09041384
0000d0 ce f9 8b 2f 68 50 d3 b5 c0 2e 7b 1f d6 9b e0 36
       2.546145e-10 -1.5744126e-06 5.3189988e-20 6.693862e-06
0000e0 a4 d7 16 3f bc 77 01 bf 1a 4e bb 3d cf 2c cc bd
       0.5892279 -0.50573325 0.09145756 -0.09969484
0000f0 f5 e6 19 3e 7d c8 30 3f 1b 63 a3 bd 63 03 28 bd
       0.1502951 0.6905592 -0.07977887 -0.041018855
000100 4a cb b0 3e 41 06 b6 be 5b 48 7b 3e bd f9 ca bd
       0.34530097 -0.35551646 0.2453932 -0.09910915
000110 53 e6 8d bc 1d fa cb 3b 39 5a 7b b9 7a 95 2f 3b
       -0.017321741 0.006224884 -0.00023970836 0.0026791976
000120 46 5a ac 3e 18 f6 ca be a9 2a 1a 3d 3b 4d fc bb
       0.33662623 -0.3964088 0.03763834 -0.0076996363
000130 e6 2e bd 3e 67 dd f1 be 36 9f 31 3d 5f 99 d7 3c
       0.36949843 -0.4723923 0.043364726 0.02631825
000140 38 a0 ba 3c cd f0 b5 3d 64 5c 43 3d 5a 3f 4e 3b
       0.022781476 0.0888382 0.047695532 0.0031470866
000150 a2 3d 00 be 29 f6 40 3f 0f 04 78 3d e3 59 38 3e
       -0.12523511 0.7537561 0.060550746 0.18003039
000160 e3 a8 76 37 83 fb 8e b9 c0 69 ab 34 ef ca b4 38
       1.4702065e-05 -0.0002727174 3.1928175e-07 8.620868e-05
000170 19 b9 96 3d f3 dd 75 be 50 8e 07 3e 28 ab 99 bd
       0.07359523 -0.24010448 0.13237882 -0.075033486
000180 fb 07 64 3f dc 6f d8 3d ba 16 12 3e 33 9d 89 3d
       0.8907468 0.105682105 0.14266482 0.067194365
000190 7c bb a8 3c 2a 93 a1 bc 20 90 0d 3c 26 96 8d bb
       0.020597212 -0.019723494 0.008640319 -0.0043208776
0001a0 d9 f5 1d 3f c8 f8 3f bb 58 fb e8 bd 99 37 55 be
       0.6170326 -0.0029292572 -0.11376065 -0.2082199
0001b0 81 43 1f bf 71 c3 ca bd 1e 95 b2 bd 42 60 0a 3e
       -0.6221238 -0.09900559 -0.08719848 0.13513282
0001c0 4f 45 11 3f 39 bd 97 3e 7e 66 f8 3c 81 01 4b bd
       0.5674638 0.29636553 0.03032231 -0.04956198
0001d0 bf 2b 36 3c ef 2f dc 3c 16 dc 46 3c fc 55 a7 3c
       0.011118828 0.026878325 0.0121374335 0.020426743
0001e0 3d f2 80 be e9 b0 13 bf 65 91 e5 3d 51 ac f8 bd
       -0.25184813 -0.5769182 0.112093724 -0.12142242
0001f0 ad 92 2f bf 7c 4b eb 3e bc c9 59 bd b7 0e 1e be
       -0.68583184 0.45956028 -0.053170905 -0.15435301
000200 7a 90 19 bf 70 b4 22 bf 32 d0 ad bd 2a 66 7f bd
       -0.5998608 -0.63556576 -0.08486976 -0.06235329
000210 db e7 79 3e db b0 a1 3d 0e 58 72 bd 5c 94 93 3d
       0.24404852 0.07895061 -0.059166007 0.07206032
000220 2f 77 12 2f 46 17 01 8c 0c 5b f4 a7 e4 3d c6 a5
       1.3320965e-10 -9.944802e-32 -6.7822318e-15 -3.4389464e-16
000230 d7 2f da 3e 5b 8f f5 be 18 76 ee 3d 60 ee 6f 3d
       0.42614624 -0.47960934 0.11643618 0.05857694
000240 c0 46 f1 98 1c be 31 06 20 ef e6 91 0e 22 b3 b1
       -6.236848e-24 3.342967e-35 -3.6434974e-28 -5.213457e-09
000250 f9 e5 e6 be a3 35 13 bf 53 c5 cd bc e1 c9 27 bd
       -0.4509733 -0.5750372 -0.025118506 -0.04096401
000260 ef 35 33 3f e4 21 a0 3e 83 7c 93 3d 30 d2 3b bd
       0.7000417 0.31275856 0.07201483 -0.045854747
000270 f8 a6 19 be 34 21 02 3f ab 14 b1 bd e7 b7 d5 3c
       -0.150051 0.50831914 -0.0864652 0.026088668
000280 30 01 29 3f 9b cd 8d 3e 73 ae e1 3d 65 ba e0 3c
       0.66017437 0.27695927 0.11019602 0.02743263
000290 11 a7 92 3d fb 9f 49 bf 9b 2d 3c be 51 98 48 be
       0.07160772 -0.78759736 -0.18376772 -0.19589354
0002a0 42 4e 20 bd 6c 5d 2b 3d 20 4f 7e 3c c7 35 44 3d
       -0.039137132 0.04183714 0.015521795 0.04790285
0002b0 e3 01 cb 3d 5c 49 95 3d 8e c8 69 3d 6e e7 7a 3c
       0.09912469 0.07289383 0.05707603 0.015313966
0002c0 a4 7f 83 be 1f 29 b3 bd cd 9e bf 3d 99 70 11 3e
       -0.2568332 -0.087480776 0.09356461 0.14203109
0002d0 94 ca 50 3d 35 f2 b5 bc a9 e9 08 3d b8 80 da bc
       0.050974444 -0.02221022 0.03342596 -0.026672706
0002e0 b4 00 e8 3e 77 60 99 3e b7 07 e1 3d 32 af 5e 3d
       0.45313036 0.2995641 0.109877996 0.054366298
0002f0 60 50 7d 2d fb db f8 b6 50 cc 32 31 70 b1 32 b9
       1.4399232e-11 -7.416585e-06 2.6018547e-09 -0.00017041503
000300 04 85 0d bb 54 ad ec 37 e2 1e ec 3b d9 c9 c0 38
       -0.0021594176 2.8214105e-05 0.00720583 9.1928705e-05
000310 31 30 42 3e 31 c5 21 bf 05 a1 0e 3d fe f9 07 be
       0.18963696 -0.63191515 0.03482153 -0.13278958
000320 36 13 07 be 89 24 ac bd ae 66 7b 3e 10 6b 9a bd
       -0.13190922 -0.08405406 0.24550888 -0.07539952
000330 54 53 82 b1 fd 93 8e 36 8a 39 45 35 69 f3 41 39
       -3.7929713e-09 4.249158e-06 7.347195e-07 0.00018496592
000340 99 8b 5f bc 7e 64 90 3a e7 c9 f1 3c 0b 33 90 3b
       -0.0136441225 0.0011016277 0.02951522 0.004400616
000350 50 2d 74 0c e2 29 78 8a 7b d2 97 ae d4 c3 ac 0f
       1.8810712e-31 -1.1948643e-32 -6.904074e-11 1.703594e-29
000360 a5 09 56 bf 28 c1 8f 3d b0 05 d0 bd d5 b5 0c 3d
       -0.83608466 0.070192635 -0.10157335 0.034353096
000370 00 bf ba 18 28 79 ac 24 66 b1 57 2e 8a b2 88 aa
       4.8272734e-24 7.4798356e-17 4.90429e-11 -2.428234e-13
000380 77 23 3d bd 38 1e 42 bf cb 36 35 bd 18 80 d4 bd
       -0.0461764 -0.7582736 -0.044241708 -0.103759944
000390 b3 6c 04 3f 6a 0a ff 3e 89 14 f6 bc a5 58 93 3c
       0.5172836 0.49812633 -0.030039089 0.017986605
0003a0 d3 7f c5 3e 91 33 e7 be 37 ed 28 3d 2f 14 0e be
       0.38574085 -0.4515653 0.04124185 -0.13874887
0003b0 a1 b2 6c 3a d3 fa 95 bb 83 ce 80 39 a1 79 15 bb
       0.00090293033 -0.0045770197 0.00024567926 -0.0022808092
0003c0 2d 81 9a be 96 46 44 be b0 ba 15 be 48 55 34 be
       -0.30176678 -0.19167551 -0.14621997 -0.17610657
0003d0 91 77 c7 3e fc 54 fc bd bd fd f2 bb cd 10 cf bb
       0.3895841 -0.12320897 -0.007415502 -0.0063191415
0003e0 d5 ff 71 3d 40 3c fd 3c 25 cb 33 3d 8e 2a 9c 3c
       0.05908187 0.030912519 0.043894906 0.01906326
0003f0 c9 31 54 3e 43 1d 67 bf 45 ca d8 3d ef 8f 9e bd
       0.20722117 -0.90279025 0.10585455 -0.07742297

embedding_w.bias f4 [64]
000000 4c 0d 60 bc f9 fa e0 3d a5 57 87 bd 22 a4 9d ba
       -0.013675045 0.10985369 -0.06608514 -0.0012027065
000010 c5 04 a1 3e f1 da 03 3e 37 b5 96 ba c0 95 eb bb
       0.3144895 0.12876488 -0.0011498098 -0.0071894825
000020 dd 61 b9 bb 7e df b1 3e be 54 cd 3e c6 0e c6 bb
       -0.005657418 0.34740824 0.40103716 -0.0060442416
000030 b3 69 ba 3d 11 59 06 bb 80 20 a6 3e 52 5e 39 3e
       0.09102192 -0.0020499865 0.3244667 0.18102387
000040 a0 53 ee bc a9 36 68 bc 05 d3 98 3e 13 d4 11 3b
       -0.02909261 -0.014173188 0.29848495 0.002225165
000050 45 6f 90 bc 0f 84 8b 3d 7b 47 d0 bb d4 33 92 3e
       -0.017631182 0.068122976 -0.0063561774 0.28555167
000060 eb 9f e9 3d 2b 39 64 bb 75 3c 79 3e e3 c6 9b 3d
       0.11407455 -0.0034824114 0.24339469 0.07606294
000070 06 0e 81 bd b3 74 be bc 61 1e 80 3c df c4 90 3e
       -0.06301503 -0.023249006 0.015639486 0.282752
000080 f4 ee cf bc 4a c4 b6 3e 4c 08 16 b6 72 f1 b3 3d
       -0.025382496 0.35696632 -2.2356571e-06 0.087862864
000090 7c 61 9a b9 a2 47 e3 3d 7d c8 34 3e a7 05 88 3d
       -0.000294458 0.11097647 0.17654605 0.06641703
0000a0 71 0c 75 3e db 18 08 3e 93 b4 17 bc 02 9d 88 bc
       0.23930527 0.13290732 -0.009259361 -0.01667643
0000b0 fb 18 4e 3e 79 31 a5 bb 20 41 a1 3e 7a d9 81 ba
       0.20126717 -0.005041298 0.31495 -0.0009906732
0000c0 8e 14 5c bc 23 1c 33 3e 15 21 18 ba b3 7f ed ba
       -0.013432635 0.17491202 -0.00058032695 -0.0018119722
0000d0 34 cc f7 bb d6 98 dd b8 38 85 fc bc 25 09 88 b9
       -0.0075621847 -0.00010566569 -0.030825242 -0.00025946755
0000e0 27 74 5a 3c b1 80 8c 3d ca e0 44 3e 20 54 ac bb
       0.013333357 0.068604834 0.19226375 -0.005259052
0000f0 3a 4f 89 3b f0 f2 6e 3e 02 0b e8 3a 28 34 08 3e
       0.0041903527 0.23334861 0.0017703476 0.13301146

embedding_t_w.weight f4 [1, 8]
000000 da f7 f4 3c b5 3e 5a be 6c 6c 2d 3d de 87 e0 bd
       0.029903341 -0.21312983 0.042339727 -0.109634146
000010 7f 0b 15 3e 9d 13 29 be fe a0 63 3d 3e ff 05 bd
       0.14555167 -0.16511388 0.055573456 -0.03271412

lstm.weight_ih f4 [512, 65]
000000 93 2b b5 b6 ef 56 b7 bd 9e 2c 39 bd 3a 10 c9 3b
       -5.399293e-06 -0.08952128 -0.045208566 0.0061359676
000010 ae 63 a9 bd 62 fd 24 3b 78 cd 2d 85 7d a8 f8 3a
       -0.082709655 0.0025175442 -8.1721596e-36 0.0018971112
000020 c0 d3 bb 11 c6 b3 13 be 36 ff 15 be 80 65 52 84
       2.96339e-28 -0.14424047 -0.14648136 -2.4731988e-36
000030 f7 16 20 bc c0 76 71 84 de a4 17 be 33 9c 23 bd
       -0.0097711 -2.8383941e-36 -0.14808986 -0.039943885
000040 4e 7d d8 bc 16 6c 7e 28 60 3d 01 be 7c e2 51 bd
       -0.026426937 1.412327e-14 -0.12621069 -0.051241383
000050 ea db 2a 3c 7e 93 14 bc b3 12 ee b4 7a 65 06 be
       0.010428408 -0.009068368 -4.434456e-07 -0.13124648
000060 b2 6f 80 bd b0 e3 63 37 28 2d b8 bd 27 97 ba bc
       -0.06271304 1.3583267e-05 -0.08992988 -0.022777153
000070 c2 18 64 bc 18 25 e0 37 bd 83 6e bd 75 16 c9 bd
       -0.013921918 2.6720154e-05 -0.058231104 -0.098187365
000080 56 f2 7c bd 98 8e dd bd 10 09 a9 34 37 90 93 bd
       -0.061754547 -0.10818213 3.1485297e-07 -0.07205241
000090 70 5c 4a 05 e3 58 b6 bd 7e 83 22 bd 46 2e 3f bc
       9.5149724e-36 -0.089036725 -0.039676182 -0.011668747
0000a0 f0 ce 85 bd e6 d4 d1 bd c3 b6 bc 3b 76 03 46 bb
       -0.06533611 -0.10245685 0.0057590916 -0.0030214465
0000b0 33 aa 37 bd 50 f6 c4 b8 e9 6b c0 bd 33 02 1b 37
       -0.04484005 -9.3918876e-05 -0.09395582 9.239232e-06
0000c0 cb fe af b2 dc cf b1 bd 5b 6c 8d bc c0 0a f7 03
       -2.0488548e-08 -0.08682224 -0.017263582 1.4519823e-36
0000d0 80 e8 9f 1b 88 32 f4 35 68 0e 48 bc 48 45 03 3b
       2.6454593e-22 1.8194123e-06 -0.012210466 0.0020030309
0000e0 57 e7 95 bd d4 aa 71 bc cf ee cb bd 64 25 06 3a
       -0.07319515 -0.014750201 -0.099576585 0.0005117266
0000f0 7f 5c 20 bc 59 70 89 bd fb df 6c 3c 97 f2 a2 bd
       -0.009787678 -0.06710882 0.014457698 -0.079564266
000100 a1 1c db bc 33 12 92 38 a0 fd 13 bd 7c 8a af bc
       -0.02674705 6.9652124e-05 -0.036130548 -0.02142834
000110 5b 54 1f bc be 22 9e bd a3 98 1d bd 80 39 ef 83
       -0.009724702 -0.0772147 -0.038475644 -1.4060359e-36
000120 9c ea e7 b9 e0 5d a9 88 fe ed 8e bd 78 99 d8 bd
       -0.0004423455 -1.0193387e-33 -0.06978987 -0.10576147
000130 fa 0c d4 af 1e 1b ee bc 80 93 21 04 2e 23 bd bd
       -3.8571796e-10 -0.029065665 1.8993188e-36 -0.092352256
000140 86 f0 7d bd 45 92 8e bc 3a bf bd b8 84 ba 88 bd
       -0.06199696 -0.017403731 -9.047841e-05 -0.066762
000150 77 de ef bc 25 fa 36 bb dd b4 14 bd 60 71 3a 85
       -0.029280884 -0.0027920094 -0.036305297 -8.766502e-36
000160 3e 5a 9f bd 07 5f 34 bd 64 dd f4 b8 e9 87 44 bd
       -0.07780884 -0.044035938 -0.00011676064 -0.047981177
000170 ff 9b df bc 43 2d ff bc 52 e6 a2 3a e0 f4 0b bd
       -0.027296064 -0.031149512 0.001242826 -0.034169078
000180 39 57 94 bd f9 b2 3a bd d9 57 bb bd c6 7c 9b b7
       -0.07243199 -0.045580838 -0.09147615 -1.8535542e-05
000190 35 1f 26 bd 59 4f 9e b3 70 07 41 bd 3d 28 45 bd
       -0.040557105 -7.3718816e-08 -0.047126234 -0.048134077
0001a0 ab ba b1 bc bc 27 86 bd 07 9a 62 bd 98 ce 49 bb
       -0.021695456 -0.065505475 -0.055322673 -0.0030793305
0001b0 e2 ba 8e bb 35 7a 18 bd 55 34 18 ba 8a 14 9c bd
       -0.0043557743 -0.03722592 -0.0005806138 -0.07621105
0001c0 9a 81 8d 34 d4 37 cb b9 9f f5 3d bd 98 aa d5 bb
       2.6357594e-07 -0.00038760772 -0.04637682 -0.0065205805
0001d0 84 1b 12 31 50 c9 1d a9 bf ca 42 3a 1d 51 a3 bc
       2.1261437e-09 -3.5035614e-14 0.0007430724 -0.019936139
0001e0 70 18 7e 35 44 02 3c bd 3d 0b 0b bd 44 b4 48 bd
       9.4657935e-07 -0.0459006 -0.033946265 -0.04900004
0001f0 5a f6 4a 34 74 ee 12 bb 15 e7 3e bd eb f9 35 bc
       1.8902338e-07 -0.0022419961 -0.046607096 -0.011106948
000200 84 ca 6a bd c6 e9 a4 bc d0 97 8e 1d 8e 80 0f bc
       -0.05732204 -0.020131003 3.7744057e-21 -0.008758677
000210 34 0a 48 3b e7 7f 7f bd 60 21 f8 bc 3b b4 e0 3b
       0.003052366 -0.062377837 -0.030289352 0.0068574226
000220 40 ff 65 85 70 3d b8 3b cd 78 52 b2 22 c3 07 bd
       -1.081441e-35 0.0056225583 -1.2251076e-08 -0.033145078
000230 98 08 a3 bd 80 43 75 04 e9 2f d4 bc 65 6d 9d 31
       -0.079606235 2.8830606e-36 -0.025901752 4.581738e-09
000240 bf e3 a2 bd 66 e7 b1 bd 88 cc 81 bc c0 c9 ac 0f
       -0.07953595 -0.08686714 -0.015844598 1.703822e-29
000250 dc a1 00 bd 5c b5 27 bc 96 c9 57 3c ad 20 27 bc
       -0.03140436 -0.010236111 0.01317062 -0.010200662
000260 a4 39 24 2e f8 06 21 bd 34 dc 27 3c 08 34 5b 39
       3.7340478e-11 -0.039313287 0.010245372 0.0002090485
000270 cc e6 19 bd 85 ac b2 bd fe c8 94 3c a0 42 64 34
       -0.03757362 -0.08724312 0.018162247 2.1258393e-07
000280 e5 85 08 bd 5a 38 ce bd de c2 d4 bb 23 77 2c bd
       -0.033330817 -0.10069342 -0.0064929565 -0.042105805
000290 25 95 38 3a 74 79 85 bb 52 af 51 36 c6 85 29 bd
       0.0007041267 -0.004073316 3.1245477e-06 -0.041387342
0002a0 ed 27 8e 3c c4 0c 67 bd 3d 7d e2 3b 69 27 95 bd
       0.017353022 -0.05640866 0.006911902 -0.072829075
0002b0 58 28 bd 3b c6 b3 05 3c ab ab 95 bd a0 cd ed 39
       0.0057726316 0.008160537 -0.07308134 0.00045357365
0002c0 d1 f2 8c bd 24 ac d8 b6 08 a6 89 25 35 f4 ea bc
       -0.06882251 -6.4573414e-06 2.387822e-16 -0.0286809
0002d0 ca ad ee bc f0 59 21 84 78 0c 70 b6 ea fb 72 2e
       -0.029135603 -1.8966756e-36 -3.5770045e-06 5.5248174e-11
0002e0 dd f8 c0 bd a2 8f 03 b8 69 c4 88 bc a3 42 30 3c
       -0.09422467 -3.1366602e-05 -0.016695218 0.010758075
0002f0 94 8e 95 bd b0 78 c9 37 c3 28 0a bd 30 55 04 bc
       -0.07302585 2.4017267e-05 -0.03373028 -0.008076951
000300 11 cd 40 3b 73 2b ac 3b 04 eb be 3b 02 ec db 85
       0.0029419104 0.005254203 0.005826356 -2.0681357e-35
000310 06 1f 82 bd bc 14 54 bd aa 3f 65 bd 28 b9 ab bc
       -0.063535735 -0.051777586 -0.055968918 -0.020962313
000320 d1 7d b3 bd c8 9c 59 05 0e 7f d2 3a 4c 42 e1 b3
       -0.08764232 1.0232087e-35 0.0016059594 -1.0489438e-07
000330 f3 03 f6 bc aa 88 ce bc 2a 9e d1 b5 e8 96 7b bd
       -0.03003118 -0.02521165 -1.5617745e-06 -0.061423212
000340 00 c0 61 03 3a b4 04 bd 7a b3 a1 bd ce a8 36 bd
       6.6341962e-37 -0.03239844 -0.078955606 -0.04459458
000350 c0 7c 5a 0f 43 7f 2c bd 32 9d 80 bd 90 3b 49 39
       1.0772256e-29 -0.042113554 -0.062799826 0.00019191043
000360 c2 8c bd bd 30 1d 0e 32 6c 97 f5 bd dd 0b 7a bd
       -0.09255363 8.272124e-09 -0.11991772 -0.06104647
000370 f5 bd 1d ba c1 4e 4a bd 80 6f 7d bd 18 54 5e bd
       -0.00060173805 -0.04939151 -0.061873913 -0.054279417
000380 d0 27 ef 33 26 f1 82 bd 5d 0a 32 bc a1 87 93 bd
       1.11365466e-07 -0.06393652 -0.010866729 -0.072036035
000390 aa e8 76 bd e0 99 6e 84 fe ce 59 bd 60 56 40 05
       -0.06028048 -2.8047421e-36 -0.05317592 9.043661e-36
0003a0 67 51 9e bd e8 ed 83 bd 54 b6 33 bd 20 71 d1 bd
       -0.0773037 -0.064418614 -0.043875054 -0.10226655
0003b0 5f db 70 bd 3e 4d 41 bc 74 0a 08 bc 92 29 28 bd
       -0.05880296 -0.011798201 -0.0083032735 -0.04105527
0003c0 c5 fe 4c 3a e6 01 d5 bd 56 2e 63 38 b2 26 9a 0f
       0.0007819946 -0.10400753 5.416417e-05 1.5200477e-29
0003d0 ed 99 12 bd 73 f0 a1 bc ec cb 71 85 4a 7d 59 b8
       -0.035791326 -0.019767975 -1.136922e-35 -5.1853516e-05
0003e0 74 14 ff b6 21 10 83 bd 60 8c f1 84 c5 3b 48 bd
       -7.6019733e-06 -0.06399561 -5.678774e-36 -0.048885126
0003f0 e6 3b 38 bd 78 e8 58 bd c1 2f 97 b4 62 c4 17 3c
       -0.044979 -0.052956074 -2.8160687e-07 0.00926313

lstm.weight_hh f4 [512, 128]
000000 28 58 5b 3c f4 06 11 bc 6f a5 be bc 4b e9 47 bc
       0.013387717 -0.008851755 -0.023272244 -0.0122016175
000010 e0 59 ae bb 08 5a 8e bc c9 f3 a4 3a ab 70 16 3b
       -0.0053207725 -0.017376915 0.0012584861 0.002295534
000020 40 74 f0 bc 64 7d c1 bb 4c 11 b3 3c eb 81 7e 3c
       -0.029352307 -0.0059048403 0.021858834 0.015533905
000030 c6 88 10 bc 59 e5 5f bb 5e b9 8e 3b 55 65 cd bb
       -0.008821672 -0.0034163801 0.0043555936 -0.0062681832
000040 5f 9e 3a bc 88 01 ed 3a 6c 94 53 3b bd 7b 22 3d
       -0.011390298 0.0018082121 0.0032284511 0.039668787
000050 42 38 50 3c 95 2b 6f 3c 0a f1 ed bb 83 99 2b bc
       0.012708725 0.014597793 -0.0072614 -0.010473612
000060 be f0 02 bc 93 07 ff bd 52 f2 8c bc 18 cd 02 3c
       -0.007991968 -0.124526165 -0.017205391 0.0079834685
000070 42 d0 1b bc 0f f7 47 3c 18 99 ea bb a7 c0 08 bc
       -0.009510102 0.012204899 -0.0071593635 -0.008346713
000080 a0 a4 1e 3c dc 55 97 3d ca d0 81 bd b2 8f f9 3b
       0.009682804 0.07389423 -0.063386515 0.007616007
000090 cf bb 6e 3c 7d 02 3e bb f5 e8 a2 bc d6 61 4d 3c
       0.014571144 -0.0028993182 -0.019886473 0.012535533
0000a0 31 7c 90 3b ad ef 16 bc 0d d8 10 bc e7 26 d6 3a
       0.004409336 -0.009212417 -0.008840573 0.0016338498
0000b0 94 a1 01 bb 44 02 fd 3b 37 f7 29 bc 0c f4 45 bc
       -0.0019780146 0.0077212173 -0.010373882 -0.012082111
0000c0 1e 27 c0 bb b4 d3 06 3c 00 ae f8 b7 2f 88 28 bc
       -0.005864038 0.008229185 -2.9644929e-05 -0.010286375
0000d0 b0 47 b0 bb 27 1f 04 bd de 5a 1b bc 59 ce ff 3b
       -0.0053796396 -0.03225627 -0.009482114 0.007806581
0000e0 ad 77 84 3c 74 68 68 bc ca c7 59 bb c4 74 0d 3e
       0.016170347 -0.01418506 -0.0033230656 0.13814074
0000f0 21 d0 05 3c 0d 2f 80 3c 26 73 00 3c 82 fa ac 3b
       0.008167298 0.015647436 0.0078399535 0.0052788863
000100 16 63 55 3c f1 ec 89 bc a6 69 83 bb c4 99 18 3c
       0.013024112 -0.016836615 -0.004010397 0.009314004
000110 e8 30 a2 3c c2 10 20 bd 9c 72 e6 3b 02 05 31 bc
       0.019798711 -0.03907848 0.0070327055 -0.010804417
000120 70 4b e3 39 4c e0 50 3c a8 b3 07 3c 25 98 1b bc
       0.0004335302 0.012748789 0.0082825795 -0.009496723
000130 e7 7c 75 3d b6 ac 8e 3b 31 22 99 ba 9f 9a dd 3b
       0.05993357 0.004354085 -0.0011683163 0.006762817
000140 ec fa 91 bc b7 ea cf bb ab 78 eb ba c1 2e 88 3d
       -0.017819844 -0.006345119 -0.0017965039 0.066495426
000150 80 13 76 39 11 00 7b 3c 59 ff ed 3a ec 85 38 bc
       0.00023467652 0.01531984 0.0018157765 -0.011262398
000160 7a ac 60 bc 96 d9 3e 3c 57 c1 46 3c 75 95 50 bb
       -0.013712997 0.011648556 0.012131057 -0.0031827365
000170 aa 09 75 bc 4c f9 ec 3b 99 34 f1 3b c3 90 46 bb
       -0.014955917 0.007231867 0.0073610065 -0.0030298687
000180 59 ba fb bd 24 6b 09 3c 80 ee 40 bd f1 93 ef 3b
       -0.12291402 0.008387361 -0.04710245 0.007311337
000190 e7 e9 71 bc 68 7d 84 39 30 6c c2 3b a3 e3 29 3d
       -0.014765239 0.00025270437 0.005933307 0.041476857
0001a0 6c 67 0b 3c 13 c1 86 3b c7 15 98 bc 6e fe 17 3c
       0.008508544 0.0041123717 -0.018565072 0.009276969
0001b0 b2 bd 0e bc 1b ea 10 bc 7c 1b d6 ba b0 1f 24 bc
       -0.008712219 -0.008844878 -0.0016335095 -0.0100173205
0001c0 d2 e4 32 3c d4 5b 8d 3d 52 79 28 bc c6 a7 19 3b
       0.010918813 0.069022804 -0.010282831 0.0023445948
0001d0 d0 e8 77 bc e9 10 be 3c 39 16 3f 3c 7c 1d e9 3d
       -0.01513119 0.023201423 0.011663013 0.11382577
0001e0 96 79 5d 3c ea 89 da bb 4c 14 cf 3a d0 3a 1f bc
       0.013517758 -0.0066692727 0.0015798896 -0.009718612
0001f0 d8 25 80 bc 05 9c 7e bb 19 1a eb 3c cb 7b c2 bc
       -0.015643045 -0.003885032 0.028698968 -0.02374067
000200 50 40 9a 39 b6 ca 46 bb 4f d9 46 bb ba e9 66 bb
       0.00029421085 -0.0030333227 -0.0030341928 -0.0035234527
000210 89 23 bf ba cc 74 ff bb b4 f4 33 bc 9d 13 18 bb
       -0.0014582734 -0.0077959057 -0.010983635 -0.002320505
000220 58 87 6a bc 9d 9a 46 3c 1f 90 5a 3b 61 39 a9 ba
       -0.014314495 0.012121824 0.0033350063 -0.0012910777
000230 64 4f 40 3a 03 ae ff 3b 3c fc 53 bb ec 0d 17 3b
       0.0007336049 0.0078027262 -0.0032346388 0.002304907
000240 78 01 08 3b ee 9f 09 3b 01 28 8e 3b ef 7f 0c 3d
       0.0020752829 0.0020999867 0.004338265 0.034301694
000250 35 0c 34 bc 06 87 7d 3b 92 6e ad ba 22 f7 a6 ba
       -0.0109892385 0.0038685217 -0.0013231805 -0.0012738446
000260 94 4f f5 ba 73 38 30 be 8f 08 02 3c b4 4a b1 3a
       -0.0018715733 -0.17209034 0.007936611 0.0013526292
000270 5c a1 da b9 66 1a a8 ba 12 b8 85 3a 5e 7b bc ba
       -0.00041700422 -0.001282525 0.0010201952 -0.0014380028
000280 33 a6 4c 3b 90 68 ad 3d 09 34 83 bd b1 d6 ca 3a
       0.0031226992 0.08467209 -0.06406409 0.001547536
000290 28 9b 56 3b 9e b7 9d bb b5 d7 76 3b ef 49 b3 3b
       0.003274629 -0.0048131486 0.0037665193 0.00547146
0002a0 10 a2 1c 39 c1 39 64 bb 7b 30 2b bb 0b 13 94 ba
       0.00014937692 -0.0034824463 -0.0026121426 -0.0011297179
0002b0 b8 37 30 b9 46 eb 1f 3b ea 90 67 bb 7d af 4f 3b
       -0.00016805425 0.0024401709 -0.0035334178 0.0031690293
0002c0 18 06 69 3a 1c b2 fb bb 96 63 ba ba 52 1c 12 3c
       0.00088891527 -0.0076811444 -0.0014220353 0.008917885
0002d0 b4 4e ee ba 84 7a f7 bc 93 05 27 bb 60 1b 97 3a
       -0.0018181414 -0.030209787 -0.00254855 0.0011528544
0002e0 16 b9 0c bc 5d 53 57 3c 26 61 1d bb 3e fd d2 3d
       -0.00858905 0.013142434 -0.0024014204 0.10302208
0002f0 80 21 19 b9 0c b9 ff bb c4 e5 ce 3a c9 01 47 3b
       -0.00014603697 -0.0078040417 0.0015785028 0.0030366054
000300 e7 84 dc 3a 6e fd ce bb 3c bd 62 3b 54 61 86 3a
       0.0016824276 -0.0063168323 0.0034597656 0.0010252395
000310 e4 68 d9 3b 36 29 db bc 76 ce 9c ba 74 d9 90 3b
       0.0066348184 -0.02675305 -0.0011963386 0.0044204537
000320 21 6a 4b bb 20 31 99 3c 65 55 40 3b 74 27 9c bb
       -0.00310386 0.018700182 0.0029347774 -0.0047654454
000330 a3 25 32 3d ac b2 70 3b 04 07 83 3b b8 aa 0f 3c
       0.043492924 0.003672759 0.003998639 0.00876873
000340 bc 8a 49 bc 96 49 66 3b 57 a5 80 bc 05 aa 84 3d
       -0.012301143 0.0035139075 -0.01570384 0.06477741
000350 cc 82 2b 3c fe cc 08 3b 2e 1a 9d 3b 4f 86 55 3b
       0.010468196 0.0020874138 0.0047943806 0.0032581275
000360 7e e5 2f bb 14 26 af 3b 96 72 13 3b 77 74 41 bb
       -0.002683967 0.0053451154 0.0022498718 -0.0029518881
000370 35 b1 43 bc 34 d8 33 39 2c f8 2e 3b 2c 74 ba 39
       -0.011944105 0.00017151312 0.0026698215 0.0003556324
000380 4d e6 1b be 48 2b 4a 3b b0 06 47 bd e4 0a 44 3b
       -0.15224572 0.0030848552 -0.048590362 0.0029913718
000390 20 2e 4f 3b f8 0b c7 3b 88 b0 dd 3a a1 4f 4f 3c
       0.0031613186 0.006074425 0.0016913572 0.012653262
0003a0 65 78 5c 3b 66 8d bf bb 37 74 33 bc 04 48 8c 3b
       0.0033641097 -0.0058457134 -0.010953001 0.004281046
0003b0 9b a9 12 bc 1c 62 6f bb 98 eb 8c bb ea ca 15 bb
       -0.00895157 -0.0036526984 -0.004300546 -0.0022856542
0003c0 3c 1c 91 bb ba 8a 3d 3d f8 a5 81 bb dc 14 57 3a
       -0.0044284146 0.046274878 -0.0039565526 0.00082047074
0003d0 46 a5 ac ba cb 69 e8 bb 93 5e 44 3b f4 54 15 3e
       -0.0013171814 -0.0070926896 0.0029963597 0.14583188
0003e0 f1 13 fe bb 27 96 a3 bb cd 1d 84 3b 20 10 1f 39
       -0.007753842 -0.004992265 0.004031873 0.00015169429
0003f0 10 5e f4 3b fc 0c a2 bb 6e 6f bf 3c 90 ad 73 bc
       0.007457502 -0.0049453955 0.023368564 -0.0148729235

lstm.bias_ih f4 [512]
000000 f1 00 24 be cb 8e 45 be 4d d1 17 bd 9c f9 b4 bc
       -0.16015984 -0.19292752 -0.03706484 -0.02209168
000010 7d d9 bb bd 02 a2 dc bd 67 45 0b be b3 58 0c be
       -0.09172342 -0.10773088 -0.13600694 -0.13705711
000020 42 1d 93 bc 9e ae 83 bd 1f fc f9 bd 0a c7 ae bd
       -0.017958287 -0.0642979 -0.122062914 -0.085340574
000030 d4 d7 33 3b cd c4 00 be 85 e6 20 be dd 45 dd bd
       0.0027441876 -0.12575074 -0.15712936 -0.10804341
000040 2f 9c af bd d0 92 35 be 88 7b 21 be e4 0a 44 3d
       -0.085747115 -0.17731786 -0.1576978 0.04786195
000050 7b bd c5 bd f0 07 c5 bd c8 e0 16 be 3c be df bd
       -0.09655281 -0.096206546 -0.14734185 -0.10924956
000060 73 18 b2 bd 7b 90 9c 3e 27 b0 d0 bd 5e 4c 34 be
       -0.086960696 0.3057898 -0.101898484 -0.17607257
000070 c7 46 fc bd 30 b7 33 be 89 5b e9 bd e9 0e 82 bd
       -0.12318187 -0.17550349 -0.11394412 -0.063505
000080 1a 01 98 bd 28 8c 5a 3e 63 40 23 3e c8 b7 ec bd
       -0.07422085 0.21342528 0.1594253 -0.11558491
000090 0f 27 46 be 8e 94 bb bb 6a 07 0f be f4 7c 25 be
       -0.19350837 -0.005724496 -0.13967672 -0.16160947
0000a0 16 c4 82 bd 82 a8 3b bd 9a 3f 09 be 00 45 f8 bd
       -0.06385057 -0.045815 -0.13403168 -0.12122536
0000b0 f8 6f e6 bd 30 39 39 be c7 92 1b be 11 e7 1a be
       -0.11251825 -0.18088222 -0.1519271 -0.15127207
0000c0 0d 43 54 bd de 7f 9c bd 32 69 d9 bd 37 d2 8e bc
       -0.051821757 -0.07641576 -0.106157675 -0.017434223
0000d0 1a 48 16 be da 4b 08 3d 67 dd c1 3c b3 c5 1d be
       -0.14675942 0.033275463 0.023665143 -0.15407448
0000e0 54 24 ab bd d4 50 89 bd c6 ab ea bd e7 d9 55 bd
       -0.083565384 -0.0670487 -0.114585444 -0.05220976
0000f0 0a 9e 0a be 1a 9e e6 bd 58 27 08 be 98 90 0f be
       -0.1353685 -0.11260624 -0.13296258 -0.14020002
000100 fb f3 01 be 9d 7e 18 be 49 4d e1 bd 2e ae a5 bd
       -0.12690727 -0.14892049 -0.11001069 -0.08089863
000110 5a 39 3e bc d8 00 56 3d 12 ce f5 bd d5 cb e9 bd
       -0.011610353 0.0522469 -0.120021954 -0.11415831
000120 24 55 4b be 56 0d bc 3c 07 cc ce bd 4a c0 c1 bd
       -0.19856697 0.022955578 -0.10097509 -0.09460504
000130 ff c1 83 3d ff 81 a5 bd 2a b8 4d bd 26 37 02 be
       0.06433486 -0.080814354 -0.05022446 -0.1271635
000140 f6 fd e2 bd e9 95 10 be a1 88 a3 bd 53 6d 1a 3d
       -0.110835955 -0.14119686 -0.07985044 0.037701916
000150 f3 ec a2 bd 5c aa 5a bd 82 81 01 be dc 2d 01 be
       -0.07955351 -0.053385124 -0.1264706 -0.1261515
000160 b1 83 06 be 14 da 2a bd a2 22 2d be f9 04 b9 bd
       -0.13136174 -0.04171188 -0.16907743 -0.090341516
000170 ec eb 31 be c6 3e ff bb 79 5b 35 be 9f cd 31 be
       -0.17375153 -0.0077894656 -0.17710675 -0.17363594
000180 19 46 ac 3d a7 23 14 be be 33 3d 3c 51 7f f9 bd
       0.084118076 -0.14466725 0.011547981 -0.12182487
000190 a6 e3 0b be 47 1e 22 be 2e 68 c5 3c 57 b3 8b bd
       -0.1366106 -0.15831862 0.024097528 -0.06821316
0001a0 0e db c1 bd 7b 1e 12 be d0 f8 16 3d 42 76 0b be
       -0.094656095 -0.1426944 0.03685838 -0.1361933
0001b0 9f bf a1 bd 92 02 13 be 2b 38 1a be a8 8f f7 bd
       -0.07897877 -0.14356449 -0.15060489 -0.12087947
0001c0 b4 84 29 be ea 26 31 3d 9b 7b 05 be 94 f6 12 be
       -0.16554528 0.043250002 -0.13035433 -0.14351875
0001d0 1a 3c 23 be 80 71 b3 3c a0 e9 18 be 22 34 84 3e
       -0.15940896 0.021904707 -0.14932871 0.25821024
0001e0 1b ee e1 bd 71 7d c0 bd da 41 01 be ac 91 3b be
       -0.11031743 -0.09398926 -0.12622777 -0.18317288
0001f0 b4 65 8c bd 45 d3 91 bd 2e c1 e7 bd c5 b4 a6 bd
       -0.06855336 -0.071203746 -0.11316143 -0.08139948
000200 68 ea ae bd b5 99 e4 bd a0 63 c9 bd ae 29 e9 bd
       -0.08540803 -0.1116213 -0.09833455 -0.11384903
000210 b8 db 97 bd 1d 2d c8 bd 45 bb c6 bd 76 ff e8 bd
       -0.07414955 -0.0977423 -0.097036876 -0.1137685
000220 a6 28 46 bd d9 95 c1 bd b5 0f 23 bd 79 cb c6 bd
       -0.04837861 -0.09452409 -0.0398099 -0.09706778
000230 89 9c 05 be 76 87 cd bd 2d 90 e9 bd 9e b3 a5 bd
       -0.13047995 -0.10035603 -0.114044525 -0.080909
000240 fb 06 fa bd ef 4d ac bd 9c 48 b8 bd 3d 82 e4 bb
       -0.12208363 -0.08413302 -0.08998224 -0.0069735334
000250 fc c0 d3 bd 8e d1 a3 bd 36 aa cf bd 03 f9 bf bd
       -0.10339543 -0.07998954 -0.10139887 -0.09373667
000260 c4 1c a9 bd 2c 31 44 3e c7 8a 0d bd a4 33 d6 bd
       -0.0825744 0.19159383 -0.034556177 -0.104590684
000270 2a 33 bc bd 77 d2 b3 bd 7f c1 04 be eb 89 bb bd
       -0.09189446 -0.08780377 -0.12964438 -0.09157165
000280 9f ad 93 bd e1 9e ba 3d bf 9e e1 3c f6 04 e9 bd
       -0.0721085 0.09112335 0.027541516 -0.11377899
000290 3b ae e9 bd fc b7 58 bd 04 07 06 be 45 a1 8b bd
       -0.11410185 -0.052909836 -0.13088614 -0.06817869
0002a0 1b b5 17 be 67 7b a3 bd b6 cd ed bd 11 ab 29 be
       -0.1481518 -0.079825215 -0.11611502 -0.16569163
0002b0 81 36 0f be 34 14 24 be 75 91 c6 bd 6f c2 b9 bd
       -0.13985635 -0.16023332 -0.096957125 -0.090702884
0002c0 40 dd b7 bd ce 71 af bd 06 33 c8 bd 14 76 0b be
       -0.08977747 -0.085666284 -0.09775357 -0.13619262
0002d0 e6 55 ac bd ae 2f ab 3c c0 a0 e8 bd a3 b9 cb bd
       -0.08414821 0.020896759 -0.11358786 -0.09947517
0002e0 88 88 ad bd c6 ed 7f bd 13 c1 c3 bd 33 0a 1f 3d
       -0.08473307 -0.062482618 -0.0955831 0.038828086
0002f0 72 dd cd bd 26 9b 78 bd 71 3a d3 bd ba 46 94 bd
       -0.10052003 -0.060694836 -0.10313881 -0.072400525
000300 8b 2f 90 bd 3f cb bf bd 04 e5 ab bd 22 c4 c1 bd
       -0.07040318 -0.09364938 -0.08393291 -0.094612375
000310 6f 36 fc bd 9e 35 de bc 6c c5 b3 bd 0d 6c c4 bd
       -0.1231507 -0.027125176 -0.087778896 -0.095909216
000320 7c 23 cd bd b4 8b 00 bd 7b bd 00 be f8 a1 b1 bd
       -0.10016534 -0.03138323 -0.12572281 -0.08673471
000330 40 e8 a9 bd 34 18 56 bd 98 b8 47 bd 7a 5d a2 bd
       -0.08296251 -0.052269176 -0.048760027 -0.079279855
000340 c8 55 ab bd 85 ed b8 bd 16 8e 3d be 48 b1 52 3d
       -0.08365971 -0.09029678 -0.18511233 0.0514386
000350 65 c4 d4 bd ed 84 b4 bd 34 6f a5 bd ca 9f a9 bd
       -0.10389022 -0.08814416 -0.08077851 -0.082824305
000360 dc 2c b5 bd b2 4e dd bd 92 a4 b6 bd ed 8f c8 bd
       -0.08846447 -0.108060256 -0.08918108 -0.09793077
000370 33 07 b5 bd 8a c6 96 bd 68 3b 96 bd cc fe b7 bd
       -0.08839264 -0.07362087 -0.073355496 -0.089841455
000380 c9 11 40 bc 0e 7e c9 bd 87 57 ee 3b 6a a2 df bd
       -0.01172299 -0.09838496 0.0072736177 -0.1091965
000390 66 39 cd bd 18 48 b7 bd 94 1a 25 be fb 32 18 be
       -0.100207135 -0.08949298 -0.1612342 -0.14863198
0003a0 f8 d2 c9 bd 0e 83 bc bd 98 08 e1 bd b6 47 bf bd
       -0.09854692 -0.09204684 -0.10987967 -0.0933985
0003b0 1a 66 21 be 76 b9 a9 bd dd ce b1 bd 8a c0 99 bd
       -0.15761605 -0.08287327 -0.08682034 -0.07507427
0003c0 38 ff b7 bd 0d 6d b0 bd 9b f3 b9 bd 19 17 e4 bd
       -0.08984226 -0.0861455 -0.09079667 -0.11137218
0003d0 b4 c3 39 be 40 4a cb bd dd bc b0 bd 20 d4 6c 3e
       -0.18141061 -0.099262714 -0.08629773 0.23127794
0003e0 52 84 be bd 1d 8d 8a bd a4 d0 a2 bd b9 67 9c bd
       -0.09302582 -0.067651965 -0.07949951 -0.07636971
0003f0 27 af c5 bd ef c0 56 bd d7 47 2c be b7 aa f3 bd
       -0.09652548 -0.05243009 -0.1682428 -0.11897796

lstm.bias_hh f4 [512]
000000 88 42 5e be 85 b7 42 be 50 f5 7e bd b3 8f a3 bc
       -0.21705067 -0.1901532 -0.062245667 -0.019965982
000010 62 00 e9 bd d4 a4 0b ba 7c 28 a9 bd cb 61 b0 bd
       -0.11377026 -0.00053269905 -0.08259675 -0.086124025
000020 00 e8 a2 bd 7a 32 cf bd bb 63 84 bd e5 6d 21 bd
       -0.07954407 -0.101170495 -0.064643346 -0.039411444
000030 43 f0 8b 3b 98 c0 13 be c2 20 0d be a9 b1 d3 bd
       0.004270585 -0.14428937 -0.13782027 -0.1033662
000040 b4 1f 31 be 83 31 1c be 28 92 0d be 42 fc b5 3d
       -0.1729725 -0.15253262 -0.13825285 0.08886005
000050 85 3a c5 bd a5 80 41 bd 7c 23 06 be 79 bf 0c be
       -0.09630302 -0.047241826 -0.13099474 -0.13744916
000060 48 e3 87 bd 02 d4 91 3e fb c4 e5 bd 75 e4 21 be
       -0.06635147 0.28482062 -0.11219212 -0.15809806
000070 e7 08 02 be ae 56 29 be f2 ed f0 bd ff 4f 8c bd
       -0.12698708 -0.16536972 -0.117641345 -0.068511955
000080 e6 28 03 be db d2 19 3e f4 b1 4c 3e 84 29 c9 bd
       -0.1280857 0.15021841 0.19989759 -0.098223716
000090 fb 7e 2e be 35 9e a4 bc 45 96 f0 bd ca 77 fd bd
       -0.17040627 -0.02009497 -0.11747412 -0.123763636
0000a0 f0 15 ed bd b2 73 72 bd b0 99 6c bd b1 19 a8 bd
       -0.1157645 -0.059192367 -0.057763755 -0.08208025
0000b0 88 be 02 be dc 1a 96 bd 27 4f ef bd 33 9f 0e be
       -0.12767994 -0.07329342 -0.11685019 -0.13927917
0000c0 ef f9 e8 bd 24 1f 13 be d8 ee 0c be 1a ad 09 bd
       -0.11375796 -0.14367348 -0.13762987 -0.03361235
0000d0 f9 35 21 be 08 77 e2 bb 40 8a 48 3a 96 1d 21 be
       -0.15743245 -0.0069111623 0.00076499954 -0.15733942
0000e0 8d 38 9c bd 70 1e ff bd 98 41 f2 bd f0 75 5e bc
       -0.07627974 -0.12456977 -0.11828917 -0.013577923
0000f0 5c 41 05 be e3 01 af bd f6 bb cc bd d7 b8 0a be
       -0.13013214 -0.08545282 -0.09996788 -0.13547073
000100 9a 1a 29 be 0b c3 36 be 26 74 16 be 33 a9 c2 bd
       -0.16514054 -0.1784784 -0.14692745 -0.095049284
000110 89 44 c8 bd 02 6c 8e 3d 2a ed 2c be 40 57 96 bd
       -0.09778697 0.069541946 -0.16887346 -0.0734086
000120 a2 e1 5c be 64 d2 19 bd 8b 7f c8 bd 2d 38 d0 bd
       -0.21570447 -0.03755416 -0.09789952 -0.10166965
000130 3d ea 15 bd 09 3f ab bd 86 05 cc bd 01 90 d9 bd
       -0.03660034 -0.083616324 -0.09961991 -0.1062317
000140 3a e1 76 bd 8d 78 29 be f7 a0 20 3d d8 d4 9b 3d
       -0.060273387 -0.16549893 0.039216008 0.07608956
000150 12 ab e2 bd 96 f5 a5 bd 34 5f f0 bd 38 6a 24 be
       -0.11067785 -0.081034824 -0.117369086 -0.16056144
000160 2f 19 14 be c1 1e 28 be a9 2d c1 bd d1 5b 66 bd
       -0.14462732 -0.16417982 -0.09432537 -0.056239907
000170 35 d2 2e be 92 fe 59 bd 96 8c 0c be 09 d6 e3 bd
       -0.17072375 -0.053221293 -0.13725504 -0.11124808
000180 ea b7 b0 3d e7 7e 28 be bd 35 74 bd 99 15 f4 bd
       0.08628829 -0.1645466 -0.05962156 -0.11918182
000190 84 1c 29 be 04 58 fb bd aa db ea bd 60 34 67 bd
       -0.16514784 -0.12272647 -0.11467679 -0.056446433
0001a0 53 9c 18 be e0 44 f6 bd 29 a6 19 3d 52 aa 13 be
       -0.14903383 -0.120248556 0.03751198 -0.14420441
0001b0 1e d1 31 bd fc ae 4c bd ee 25 20 be f0 e1 8d bd
       -0.04341232 -0.049971566 -0.15639469 -0.0692786
0001c0 84 07 05 be d1 34 95 bc 13 e9 76 bd c2 5e af bd
       -0.12991148 -0.018213661 -0.06028087 -0.085629955
0001d0 d1 f9 97 bd f1 d0 90 bd 8e 30 34 be 3b f3 89 3e
       -0.074206956 -0.070711024 -0.17596647 0.26943383
0001e0 35 6c 2c be 3a 4d 09 be ea 79 42 be 57 d4 2b be
       -0.16838153 -0.13408366 -0.18991819 -0.1678022
0001f0 0c c9 d5 bd 32 de 53 3c c4 be 0f 3d e2 4c d3 bd
       -0.10438737 0.012931393 0.035094038 -0.103173986
000200 6e b7 b6 bd 42 89 b6 bd e4 8c e4 bd 06 db 08 be
       -0.08921705 -0.089128986 -0.11159685 -0.13364801
000210 4a 73 dc bd bd d1 02 be e5 0a 99 bd ed cc 17 be
       -0.10764177 -0.12775321 -0.07472781 -0.14824267
000220 fc 4e 22 3c bb 67 a3 bd 46 dd 97 bd 1d 21 1d be
       0.009906527 -0.079787694 -0.074152514 -0.15344663
000230 e9 76 f4 bd 6b e8 c3 bd 94 52 ce bd 0e 6e ad bd
       -0.11936743 -0.095658146 -0.10074344 -0.08468257
000240 f4 be 7d bd 80 57 b5 bd ba 76 cc bd 25 64 17 bc
       -0.061949685 -0.0885458 -0.09983583 -0.009240185
000250 7e 2a c5 bd 63 8a 63 bd f0 f7 cb bd 10 1e c4 bd
       -0.09627245 -0.055551898 -0.099594 -0.095760465
000260 4c 80 a7 bd 3f 60 51 3e ff a8 98 bd d0 3e d1 bd
       -0.081787676 0.20446871 -0.074541084 -0.10217059
000270 89 7d b8 bd dd c5 b7 bd c9 7d fc bd 01 cf 15 be
       -0.09008319 -0.08973286 -0.12328679 -0.14629747
000280 62 90 97 bd 63 be 38 3c c0 d1 02 3c 4c 6b a7 bd
       -0.07400586 0.0112758605 0.007984579 -0.08174762
000290 b7 23 c3 bd 36 51 16 be 22 84 cf bd 4f f1 93 bd
       -0.095282964 -0.14679417 -0.10132624 -0.0722376
0002a0 2e 56 8c bd 35 1e 12 be 19 5a ce bd f4 96 11 be
       -0.06852375 -0.14269336 -0.100757785 -0.1421774
0002b0 49 e5 f5 bd bd 6a b1 bd 4a 73 b7 bd af 60 b0 bd
       -0.12006623 -0.08662937 -0.089575365 -0.08612191
0002c0 88 4c ad bd 7d 61 f9 bd bb 61 b2 bd fe a2 a0 bd
       -0.08461863 -0.121767975 -0.08710047 -0.07843588
0002d0 a1 14 a9 bd 04 22 0d be 5a 23 b3 bd 70 96 cf bd
       -0.08255888 -0.13782507 -0.08746977 -0.101361156
0002e0 c0 f5 08 be c3 04 da bd 9b 1d cd bd 7f 31 1a bd
       -0.13374996 -0.106454395 -0.100154124 -0.03764486
0002f0 93 7d df bd f3 5e bb bd 38 54 ad bd 0c 06 94 bd
       -0.10912623 -0.091489695 -0.08463329 -0.07227716
000300 62 c5 da bd 46 8c b7 bd 29 46 c0 bd 86 f1 35 bd
       -0.10682179 -0.08962302 -0.09388382 -0.044419788
000310 8a eb 83 bd 67 ba 25 bd ed 65 b1 bd db ca 0c bd
       -0.0644141 -0.04046097 -0.08662019 -0.034373146
000320 19 0f 05 be 3c bb da bc fa c7 a4 bd 09 2d d3 bd
       -0.1299404 -0.026700608 -0.08045955 -0.10311324
000330 34 34 b7 bd 1a 37 b8 bd bb bc 0f be 36 e2 83 bd
       -0.08945504 -0.08994885 -0.14036839 -0.06439631
000340 2b 8e 62 bd 8d ba bf bd 11 8b fd bd e7 d7 ba 3d
       -0.055311363 -0.093617536 -0.123800404 0.09123211
000350 7d af 00 be 6a d5 9d bd d9 0a aa bd 4d be a8 bd
       -0.12566943 -0.07706721 -0.0830285 -0.08239422
000360 a9 16 ad bd f9 14 c8 bd c5 8f af bd 88 a9 d7 bd
       -0.08451588 -0.09769625 -0.08572344 -0.105303824
000370 19 b9 f2 bd 9d b1 19 be 5e f2 8c bd dc bd c5 bd
       -0.11851711 -0.1500916 -0.06882165 -0.096553534
000380 a1 74 b6 3d 4f 35 cd bd 30 42 8c bd 36 ef f1 bd
       0.08908964 -0.100199334 -0.06848562 -0.11813204
000390 d0 51 a6 bd b1 5e c4 bd f0 f1 00 be 6d 27 34 bd
       -0.08121073 -0.095883735 -0.12592292 -0.04398291
0003a0 aa b6 d1 bd 33 0f c7 bd d9 78 dc bd 2b 3f be bd
       -0.102399185 -0.09719696 -0.10765237 -0.09289392
0003b0 a2 05 ce bd 18 4e 15 be b4 b3 ae bd d1 54 db bd
       -0.10059668 -0.14580572 -0.085303694 -0.10709537
0003c0 15 e8 a2 bd 02 b0 1c bd 1a 01 b2 bd 34 d2 cb bd
       -0.079544224 -0.03825379 -0.08691616 -0.099522024
0003d0 30 fe 22 be c3 fb a2 bd d5 9d c7 bd 38 bd 50 3e
       -0.15917277 -0.07958176 -0.09746901 0.20384681
0003e0 c8 cc a8 bd 22 fa 8c bd e7 51 f7 bd 72 3a 87 bd
       -0.08242184 -0.068836465 -0.120761685 -0.066029444
0003f0 c3 51 e4 bd 35 d1 c2 bd 0e b5 b1 bc 4f d0 e5 bd
       -0.11148407 -0.09512559 -0.021692779 -0.11221372

output_w.weight f4 [5, 128]
000000 0b a2 17 3c 6b 97 01 3d df 99 08 bd 3e a4 6e 3c
       0.009254943 0.031638544 -0.033349868 0.014565526
000010 5a 5b 2b bc b6 e1 f0 3b 4e 63 56 bc 29 ab a7 bd
       -0.010458792 0.0073511256 -0.0130851995 -0.08186943
000020 3e c5 4c be 86 08 9f 3c d7 39 94 3c cc 7e a9 bd
       -0.19997117 0.019413244 0.018093986 -0.08276138
000030 5f 81 b0 bd 04 50 04 3c ac 3d 3e bc 9c 60 94 3c
       -0.086184256 0.008075718 -0.011611383 0.018112473
000040 20 11 df bb 2e ac 19 3c 26 f2 d4 3b 51 15 ab 3d
       -0.0068074614 0.00937943 0.006498593 0.08353675
000050 f5 87 79 bc d5 a5 24 bd 01 d8 5c bb 62 25 10 bc
       -0.015230169 -0.040197212 -0.0033698084 -0.008797975
000060 20 38 02 3d 46 5a 75 ba 17 e3 bf bc 74 29 41 3c
       0.031791806 -0.000935946 -0.023423715 0.011789668
000070 d1 47 99 3b ff 47 8c 3c 56 8b a6 3c 31 6e 11 3e
       0.0046777506 0.017124174 0.020330112 0.14202191
000080 2c 29 80 bd 1e d2 d3 3c f6 a7 5f bd 49 60 69 bc
       -0.06257853 0.025857028 -0.05460354 -0.014244148
000090 a0 78 99 3c 43 0d 1e 3e 12 38 35 3c 99 0c e3 bc
       0.018734276 0.15434746 0.0110607315 -0.027715968
0000a0 ba c1 b4 3c 51 c5 35 3c f8 34 03 bd af ab 58 3d
       0.022065032 0.011094407 -0.032032937 0.052898105
0000b0 31 4a c9 3d 41 4b c8 bd f0 dd a8 3c 7c 23 52 3b
       0.09828604 -0.097799785 0.02061364 0.0032064607
0000c0 a2 8f c2 bc 6d 19 cb 3c 48 f6 86 3b d8 74 94 bc
       -0.02375013 0.024792397 0.0041187145 -0.018122122
0000d0 7b a4 b4 bb bb d4 06 be 46 6d 04 bd a2 40 c7 bb
       -0.0055127717 -0.13167088 -0.032330774 -0.006080703
0000e0 7f f6 93 bd da bf dc 3c 30 5e 19 bc 17 f0 28 be
       -0.0722475 0.02694695 -0.009360835 -0.16497837
0000f0 51 95 11 3c 70 94 9f bb 52 f3 76 3c 3d 08 6d bc
       0.008885697 -0.00486999 0.0150726605 -0.014467296
000100 88 3d 19 bc cb ff a6 bc 9b a3 52 bc 56 83 c4 bc
       -0.009353049 -0.020385643 -0.012856389 -0.023988407
000110 b7 fb 83 3c c0 5c 01 be 25 d5 51 3d 42 dd 8c 3b
       0.016111238 -0.12633038 0.05122866 0.004298837
000120 70 28 b8 3d e4 fb ac 3d 66 13 7f 3d c4 af f7 3a
       0.08992088 0.08446482 0.06227436 0.0018896987
000130 20 c3 e2 bd 75 da 68 bc ee 1b 2e bc 00 a4 95 b5
       -0.110723734 -0.01421224 -0.010626776 -1.1149095e-06
000140 77 a2 10 bd 7a 62 69 3b d7 f7 58 3d f3 57 20 3e
       -0.03531119 0.0035611675 0.052970733 0.1565855
000150 d8 c0 56 3c cd 4e 06 bc ad 9c 15 bc c3 23 bf bb
       0.013107501 -0.0081974985 -0.009131593 -0.0058331206
000160 eb 5a 84 bb 6b 1e 75 bd 38 67 9b bc 44 53 6b 3c
       -0.0040391586 -0.059843462 -0.018970117 0.014363114
000170 05 3a 30 bc 93 89 a4 bc 22 a3 70 bc a5 66 b8 bc
       -0.01075602 -0.020085132 -0.014687331 -0.022509882
000180 22 2d 07 3e af 5f 97 3b f5 fc 38 3d 0d 1f 9b 3c
       0.1320081 0.0046195607 0.045163114 0.018935705
000190 fb e8 81 bc 44 b8 f5 ba 8d 50 9a 3c d9 b8 9c 3d
       -0.015858164 -0.0018746932 0.018837238 0.076524444
0001a0 1f 44 42 bb 90 dd 20 ba 13 79 1a 3d 9d 27 44 bb
       -0.0029642654 -0.0006136531 0.03771312 -0.0029930838
0001b0 7a 75 72 ba 16 e3 4b 3d 56 15 1f bc e5 c3 84 3c
       -0.0009249073 0.049777113 -0.009709677 0.016206691
0001c0 fc 34 27 3c 45 d6 74 bc ba 50 1e 3d 48 cc 67 bc
       0.010205504 -0.014943664 0.038651206 -0.014147826
0001d0 63 3f b6 bd f3 ff 3d bd 62 38 0b 3b ef 20 fb 3c
       -0.08898809 -0.04638667 0.0021243324 0.030655352
0001e0 3c 7b a7 bc aa 40 29 3d bb 0f ec bc 3a 7e e4 3b
       -0.020444505 0.041321434 -0.028816095 0.006973055
0001f0 5f e3 8c bc 85 9d b7 bd d9 f7 bf bd a2 79 be bb
       -0.017198263 -0.08965591 -0.09373445 -0.0058128396
000200 07 f4 7b 3d e6 db 80 bc 8c c2 da bd d2 53 0d 3c
       0.06151202 -0.015729856 -0.10681638 0.008625941
000210 1a fd 1d 3b 43 4a 41 bb 81 4c d7 3c 3e cd 0b 3d
       0.002410716 -0.0029493726 0.026281597 0.03413128
000220 9a 63 ef bd 29 45 a2 bc e0 0e 2c 3e 2b 32 b6 3d
       -0.11688919 -0.019808369 0.1680255 0.088962875
000230 53 3a 32 bd b1 56 ec bb 5c 1f 31 bd b0 c9 d9 3c
       -0.043512654 -0.007212483 -0.043242797 0.02658543
000240 03 c1 8b bd c0 b9 1b 3d 83 32 2a 3c e8 fa 20 bc
       -0.068239234 0.038018942 0.0103880195 -0.009825446
000250 6a 5c 58 3d a2 e8 b5 3b da 01 a6 3c 8e 12 d7 bd
       0.052822508 0.0055514136 0.020264555 -0.10501586
000260 47 3e 89 bc a0 9a 15 3e 77 ac 8a bd 15 40 9b 3c
       -0.016753329 0.14609766 -0.06771176 0.018951455
000270 0d a3 f1 3c 57 18 83 bb 44 aa a1 3c a7 d3 70 bd
       0.029496694 -0.0040007043 0.01973451 -0.058795597
000280 f2 8c 24 3c 32 ee 28 bc 63 e9 cd 3c 54 c7 3c bd
       0.01004337 -0.010310696 0.025135702 -0.04608853
000290 f7 fc fc 3d 38 c3 74 3d c3 42 9a bd 53 ed 2a 3b
       0.12352937 0.059756488 -0.07532265 0.0026081398
0002a0 c5 34 e0 bc 04 23 a4 bc b4 c4 07 bc c4 ff 2b bd
       -0.027368912 -0.020036228 -0.008286644 -0.041991964
0002b0 73 26 35 bd ca c3 a4 3c 19 d1 21 3d ff 2e 1b bd
       -0.04422612 0.02011289 0.03950605 -0.037886616
0002c0 11 17 5e 3d e9 99 f9 3c 1c f0 a8 3c 49 01 40 bd
       0.054221217 0.030468898 0.020622306 -0.046876226
0002d0 c7 b6 81 bc b3 2a 69 3b a7 34 c5 ba 89 3e 86 bc
       -0.015834225 0.003557843 -0.0015045599 -0.016387241
0002e0 24 2c de 3c 72 60 36 bd b6 bd c4 bd e4 88 42 3e
       0.027120657 -0.04452557 -0.09606497 0.18997532
0002f0 70 cf bd bc e9 a7 51 3d 8b 0c bb 3c 46 df 8b bc
       -0.023170203 0.051185522 0.02283313 -0.017074239
000300 f3 a8 db bc a5 c4 86 bc be e0 f0 bc d0 cf 2b bd
       -0.02681396 -0.01645119 -0.02940404 -0.041946232
000310 99 d7 13 3d e4 16 96 bc 02 73 87 3d f3 c8 f2 bc
       0.03609428 -0.018321462 0.06613733 -0.029636836
000320 10 ca c6 bd 49 8f dc bd db 0e 21 3d 62 6c 3d 3b
       -0.09706509 -0.10769517 0.039320808 0.0028903713
000330 f5 e9 c7 3d 2b 29 f3 bc 00 d4 34 bd bc a5 d3 3a
       0.09761421 -0.029682716 -0.04414749 0.0016147415
000340 a0 39 bf ba 2d e4 20 bc e8 cf f6 3d 22 b1 89 ba
       -0.0014589317 -0.009820026 0.12051374 -0.001050506
000350 79 47 a1 bc 73 fd 8b 3c 23 53 ff bc 9b e1 cf bc
       -0.019687401 0.017088627 -0.031167572 -0.025376132
000360 f9 9c c7 bc db d4 24 3c d9 48 0c 3c 93 3e 49 3d
       -0.024366843 0.010060514 0.00856229 0.04913194
000370 70 6e fe bc 76 30 0f bc 2e d5 45 bd 14 88 26 bc
       -0.03105852 -0.008739581 -0.048299007 -0.0101642795
000380 69 fb 7f 3d e2 72 03 3d 39 02 04 3d 1e 14 4e 3b
       0.062495623 0.032091983 0.032228682 0.0031445096
000390 b9 30 2f bd 8e c5 13 3c a7 1e ed bc c8 fe 82 3e
       -0.042771075 0.009019269 -0.02894528 0.25585008
0003a0 d4 99 32 bc a0 ca ee 3c 6a b7 a1 3c a2 01 33 bb
       -0.010900933 0.029149354 0.019740779 -0.0027314206
0003b0 5d b2 cc 3c 9c 18 08 ba 85 60 01 bc a1 54 07 3d
       0.024987394 -0.00051916554 -0.007896547 0.033039693
0003c0 57 20 4e 3d 70 8a fc 3d 63 f5 ba bd 38 f7 05 bd
       0.05032381 0.12331092 -0.09128835 -0.03270647
0003d0 bb e9 25 be 31 30 2f 3d c4 85 8c bc d6 a4 5c bd
       -0.16202442 0.04277057 -0.017153628 -0.053868137
0003e0 2c 6f 62 3d 40 80 b4 bc 95 df 1d 3d d2 37 33 3d
       0.055281803 -0.02203381 0.038543303 0.043754406
0003f0 f7 95 8c bd fb 70 0f 3d c6 5a 16 bc e4 65 fd bc
       -0.06864541 0.035019856 -0.0091769155 -0.030932374

output_w.bias f4 [5]
000000 d4 22 cc bb 7d 55 73 3c 06 68 96 be 4f f2 91 be
       -0.006229738 0.014851925 -0.2937624 -0.2850518
000010 73 a0 e0 3c
       0.027420258

square_avg f4 [64]
000000 da c1 b7 33 a1 99 5c 3d e3 1e 35 3c c6 43 1e 3d
       8.556863e-08 0.05385745 0.011054727 0.038638853
000010 c3 c3 11 3c aa d6 c2 3b 88 ef 19 31 a6 d0 ce 38
       0.008896771 0.005946 2.2400588e-09 9.861709e-05
000020 42 19 12 37 bf bb 41 3c 5e 87 a7 3b dd 05 83 33
       8.708159e-06 0.011824547 0.0051125726 6.1012294e-08
000030 c5 e2 3c 3c 1c ce 87 31 94 13 90 3c 03 8a ea 3b
       0.011528675 3.952449e-09 0.01758746 0.0071575656
000040 b7 0c 78 3a d3 42 47 35 7d 4d d5 3b c8 63 00 3c
       0.0009462344 7.423052e-07 0.0065094815 0.00783629
000050 f3 a1 ad 39 85 be 90 3c 84 d7 6c 32 00 94 07 3b
       0.00033117793 0.017668972 1.37860106e-08 0.002068758
000060 b6 f4 a3 3d a2 a5 00 38 32 b6 05 3d 6e ab b8 3c
       0.08005659 3.0671836e-05 0.032644458 0.022542682
000070 a6 e4 fd 3c f4 55 d8 34 e9 d4 92 3c 19 57 87 3c
       0.030992817 4.0295674e-07 0.01792379 0.016521024
000080 2b 3c 89 3d e9 12 c1 3b ae 30 9c 2f df e8 4d 3c
       0.06700929 0.005892147 2.8410824e-10 0.012567728
000090 d9 70 e9 30 0c 30 d3 3c c4 6f d4 3c e0 ae c5 3b
       1.6985054e-09 0.025779746 0.0259322 0.0060328096
0000a0 0b a1 a7 3c 2e 0d 8d 3c 77 bc 26 39 1e 06 2a 39
       0.020462533 0.017218199 0.00015901202 0.00016214742
0000b0 68 30 4e 3b 7b 1f 23 38 2a a5 0a 3c 02 e7 21 30
       0.0031461958 3.8891547e-05 0.00846223 5.889974e-10
0000c0 98 5b de 33 03 0e ad 3b 32 1f b6 3b 83 ac 6e 31
       1.03543414e-07 0.0052812113 0.005557918 3.473162e-09
0000d0 17 17 c5 37 df 6c 54 30 00 43 1d 3e 2e ce b1 30
       2.3494982e-05 7.7279866e-10 0.1535759 1.2937045e-09
0000e0 44 71 c8 3c ba fd ac 3c 6a fe c9 3b 77 a4 f0 37
       0.024468072 0.02111708 0.0061643617 2.8686814e-05
0000f0 90 6f 7d 3a 89 9a c1 3b 39 65 48 3a ed 52 f4 3c
       0.0009667808 0.0059083146 0.0007644478 0.029824698

square_avg f4 [5]
000000 ce 01 25 41 ba a8 67 40 7b 31 07 3e 3a b8 5b 3e
       10.312941 3.6196733 0.13202469 0.21456996
000010 36 f0 86 3c
       0.016471963
