S-LSTM/Goal+Socail_Array_PyTorch/social_lstm/save/0/social_model_epoch_3.pth (torch, 819255 bytes, 22 tensors)

embedding_b f4 [64]
00000000: 6cf1 5a3b 8537 e2bc fa42 30be 0a95 503e
00000010: 4c85 7ebc c6ff d5bb f28b 873b 2add 22bd
00000020: 6bbd 463d 9af5 8a3e 56ef 19be 80d7 a33d
00000030: 47dd 003d b6a1 cb3c 2e51 d9bc a229 963d
00000040: 0aec 56ba a4bd ac3c 0194 06be 81c0 4c3d
00000050: 6865 cf3c 2c05 19bb 5454 61bd 910b d43d
00000060: 0de2 9fbd 0643 383e 3196 ccbc bef7 39bc
00000070: ba93 a73b 6aa3 963c ffeb 2a3d c8dd 453b
00000080: 922f 4ebc 4004 c439 5251 56bc 9487 b73c
00000090: 4846 ffbd 9e1c 9fb9 1322 dd3c bc7d 98b9
000000a0: f080 db3d d668 a93d a721 61bd 91c3 afbb
000000b0: c555 6db9 2734 6ab9 d566 8eb0 4578 1ebe
000000c0: 55a0 5cbc f56c 92bc 9066 da3d e396 403e
000000d0: e5b8 bdbd 3cff 7d3c 60a7 f4b3 f41d 173d
000000e0: 2679 44bd 6bf1 8a3d 1655 96af 5f55 d63d
000000f0: 8364 f43c bb35 dabc 421d 4bba d479 dbbb
0.0033408059 -0.027614364 -0.1721305 0.20369354 -0.01553471 -0.0065307347 0.004136556 -0.0397617
0.048520487 0.27140504 -0.15032706 0.08000088 0.031461027 0.024857383 -0.026527967 0.073321596
-0.0008198625 0.021086521 -0.13142397 0.049988274 0.025316909 -0.002334903 -0.055012062 0.103537686
-0.07806788 0.17994317 -0.02497396 -0.01135057 0.005114046 0.018388469 0.04172897 0.0030192006
-0.012584584 0.000373872 -0.013080912 0.022403516 -0.12464577 -0.00030348165 0.026993787 -0.0002908538
0.10717952 0.08271949 -0.054963734 -0.0053638895 -0.00022634033 -0.00022335407 -1.0361086e-09 -0.15475567
-0.0134659605 -0.01787422 0.106640935 0.18807559 -0.092637815 0.015502747 -1.1392581e-07 0.0368938
-0.0479671 0.06784328 -2.7345298e-10 0.10465502 0.029833084 -0.026636949 -0.0007748195 -0.0066978727

output_b f4 [5]
00000000: 64c7 9a3b 282c 5dbc 5457 11bf 21d4 12bf
00000010: 54d0 2a3b
0.0047234762 -0.013499297 -0.5677388 -0.57354933 0.0026064115

embedding_w.weight f4 [64, 4]
00000000: aad4 553f b455 95be 49b4 a13c 31b0 ddbd
00000010: 63ad a5be 80aa 1fbd b357 18be 14f9 9f3d
00000020: d4ed dabe 3b81 b8bc 6f00 813d 05e9 cebd
00000030: 3b45 62bf ffd1 693f e5f7 23be 1d2a 803e
00000040: ebe5 063b deb9 02b6 1b01 843b fcd4 3c3c
00000050: 8ef7 e230 cf79 b137 fa19 a2b6 347d e1ba
00000060: 4c89 c7be 1006 593f a7dc fb3d 6a23 db3c
00000070: d715 dfbe 6a34 223e 2455 0cbe f09a 273d
00000080: cd46 a53b 4af7 5d3f a97d 1dbd 5cb2 8d3d
00000090: 1b0e 15bf 5dde 8abf 5d26 08be b893 db3d
000000a0: f9d3 ff3e f353 bb3c 04b9 ccbd 9699 253d
000000b0: eb9b b23c 2572 603f 46e3 873d c86e 6b3e
000000c0: 60f3 08be f93f 4f3c ae5f f3bc 3f8c e8bd
000000d0: d552 62bf 7ca2 49be 44e8 fdbd 2e67 afbd
000000e0: f9a9 ac3d 3f64 89bf 80e6 953d d2ab 0ebe
000000f0: 6d05 8f3f d1c6 0f3f 0e79 d53d 0cbd 3f3d
00000100: 408c 7226 9044 9ea1 d815 31b7 44ea bc22
00000110: d868 e9bb f693 713d bff9 853d 2a3d 243d
00000120: f276 c2be 7f91 04be 5c79 443e 4073 4d3e
00000130: 2ae3 533f b5be 2dbf e282 633d 7c06 e7bc
00000140: 9d2f 2e3f e96b 12bf 4804 0bbe fe37 14bd
00000150: b410 0138 387f 9c39 2328 9bb8 a7cc d53a
00000160: 80e4 9a3d e608 1fbf 4a41 f63d 41e2 b03d
00000170: 0a74 603f 78dc febd 709a b33e 6402 9d3e
00000180: 06e2 793f 1eb1 113f 3e44 d53d a544 9d3d
00000190: 3251 393f 84aa 5e3f fba1 333d 6083 c5bb
000001a0: c11b 8c3e fdf5 003f ff1e 6ebd 70af 9cbd
000001b0: 0b67 69bf 476a 3d3f 22bd 82be 694c f03d
000001c0: b3ff a3bd 78b2 90bd 88e2 36bd a9d7 5f3d
000001d0: 532a 353f c913 45be 7024 0fbd 9090 963d
000001e0: 4367 b73e c0ba 193f f4ca e53d f128 c13d
000001f0: ee2d 823f af75 fcbb c47c 19be fcd0 0d3e
00000200: 389b 353a dabc ed3a fc4c 1039 cec5 4a3c
00000210: 0828 f83e 14f3 e93e a105 943c 5cf1 93bd
00000220: b6e0 a63a 1eb9 9bb0 a746 fd37 c01c 8d25
00000230: 70eb 593f 4e06 25bf e0c5 f93d 2e68 85be
00000240: cd9a 31bf c35f 8e3d bac0 a0bc ddad 0dbe
00000250: c6b4 20a4 b43c 5033 2482 0c1d 70e8 1235
00000260: 21df 0b3f 30ef 64bf 2e22 7c3e 836c 85bd
00000270: a63b 0323 e0c5 d92d 02f9 bf94 bc4a eb36
00000280: d09b 75bf 08f3 01bf 4f32 b0bd b82f 88bb
00000290: 3869 47bd c525 803f b186 eb3c cf8c 833e
000002a0: f87d 06be b442 58bf 225a 233c 06ed afbe
000002b0: c331 cfbb 99ff eebb 109a 703b 2813 b4bb
000002c0: fc2f 63a5 5b24 b120 bea1 9933 7a81 7ea3
000002d0: 44fc 09a6 2126 7d14 ac0d 1818 fbf1 3a17
000002e0: e10f b717 c538 8717 9efa 9d10 9e62 7a24
000002f0: 4549 1b3f 20c9 b83d a68e b1bd c98e 683d
00000300: a9e0 063f 4f89 4dbf 266c 5abd 3c9b 04bd
00000310: 0cfe 9f3a 386f b6bb d507 c63b 3403 05ba
00000320: 7b14 afbd 4b72 8f3f 0837 ef3d 4e1e 533d
00000330: da40 933f 281d 1b3e e609 503d 59c7 d33d
00000340: 27ec ea3e 1b0a 043f 1ee0 83bd 2565 cdbd
00000350: 30ab 64bd 72bc 61bc f75a 06bd 41ee 9a3c
00000360: a511 2d11 a49b 5da5 4a43 8020 64c3 1c1a
00000370: 44e9 193f de17 dabe 0176 2d3d e0d8 e83d
00000380: ea15 f3be 5c48 38bd 2fbe 71be 20db 033e
00000390: ea94 803f 7961 cf3e 89d7 113e 6978 c2bd
000003a0: 576e 4294 f4ee fe1e 50e5 f493 4cd8 2e96
000003b0: bbec 0d3f 64a9 633f c098 7f3c d9e6 16bc
000003c0: 87e0 46bf f94a 143e d60d d43d 4a19 f5bc
000003d0: 0089 55be 29c9 8ebf 6012 103d 27c6 a9be
000003e0: 8e12 0bac b21a 8fab 5cd1 26b1 2051 8d2c
000003f0: 8fc4 3a3f c034 553f 2747 7cbd 310a e33d
0.83527625 -0.2916695 0.019739287 -0.108246215 -0.32358846 -0.03898096 -0.14877205 0.0781118
-0.42759573 -0.02252256 0.06298911 -0.10103039 -0.8838689 0.91336054 -0.16012533 0.2503213
0.002058382 -1.9479698e-06 0.004028452 0.011525389 1.6514023e-09 2.1156766e-05 -4.8310003e-06 -0.0017203451
-0.38971937 0.84774876 0.122979455 0.026750285 -0.4357135 0.15840307 -0.13704354 0.040919244
0.0050438405 0.8670546 -0.038449917 0.06918785 -0.5822465 -1.084911 -0.13295884 0.107215345
0.4996641 0.022867179 -0.099962264 0.040429674 0.021802863 0.8767417 0.06635146 0.22991478
-0.1337409 0.01264953 -0.02970871 -0.11354875 -0.8840764 -0.19690889 -0.12397817 -0.08564602
0.08430857 -1.0733718 0.07319355 -0.13932732 1.1173531 0.56162745 0.1042348 0.04681115
8.415069e-16 -1.0724645e-18 -1.0555108e-05 5.120554e-18 -0.007123094 0.058978997 0.06541776 0.040097393
-0.37981373 -0.12946127 0.1918692 0.20063496 0.827685 -0.6786912 0.05554474 -0.028201334
0.680414 -0.5719591 -0.13575852 -0.03618621 3.0771553e-05 0.00029849424 -7.398452e-05 0.0016311602
0.07563114 -0.6212295 0.12024172 0.086369045 0.8767706 -0.12444395 0.35078764 0.30665886
0.9761051 0.56910884 0.10413407 0.076791085 0.7238952 0.86978936 0.04385565 -0.006027624
0.27364925 0.5037535 -0.05813503 -0.076506495 -0.91172856 0.7399029 -0.25534922 0.11733324
-0.08007755 -0.0706529 -0.04464963 0.05464903 0.70767707 -0.19245829 -0.03494686 0.07351792
0.3582097 0.6005058 0.11220351 0.09431637 1.0170267 -0.0077044587 -0.14989 0.13849252
0.00069277314 0.0018137947 0.00013761589 0.012376262 0.4846804 0.45693266 0.01806909 -0.0722377
0.0012731764 -1.1330348e-09 3.019285e-05 2.4479083e-16 0.85124874 -0.64462745 0.12195945 -0.26056045
-0.6937683 0.06951859 -0.01962315 -0.13835855 -3.484759e-17 4.8483983e-08 1.8596127e-21 5.472748e-07
0.5463734 -0.8942747 0.24622414 -0.065148376 7.114155e-18 2.4757918e-11 -1.9384288e-26 7.012246e-06
-0.95940876 -0.5076146 -0.086033456 -0.004156079 -0.04868433 1.0011526 0.02875075 0.25693366
-0.13133991 -0.8447678 0.00997022 -0.34360522 -0.0063230707 -0.007293653 0.0036712922 -0.0054954477
-1.9705369e-16 3.0009024e-19 7.1540384e-08 -1.3796785e-17 -4.7873307e-16 1.2780755e-26 1.9652442e-24 6.0405264e-25
1.1830106e-24 8.738501e-25 6.231172e-29 5.429364e-17 0.60658675 0.090227365 -0.08669786 0.056776796
0.52686554 -0.8028764 -0.053325795 -0.032374606 0.0012206449 -0.0055674575 0.006043414 -0.00050740247
-0.08548828 1.1206754 0.11680418 0.051542573 1.1504166 0.15147841 0.05079069 0.10340757
0.45883295 0.5157792 -0.06439231 -0.100290574 -0.05582732 -0.013777839 -0.032801595 0.018912436
1.3652731e-28 -1.9221428e-16 2.1728572e-19 3.241788e-23 0.6012156 -0.42596334 0.042348865 0.113694906
-0.47477657 -0.044990882 -0.23607706 0.12876558 1.0045445 0.40504053 0.14242376 -0.09495623
-9.816258e-27 2.6992125e-20 -6.182038e-27 -1.4123859e-25 0.5543935 0.88930345 0.015600383 -0.009210312
-0.7768635 0.14481725 0.103542015 -0.029919285 -0.20853043 -1.1155139 0.035173774 -0.3315899
-1.9763388e-12 -1.0168171e-12 -2.4275186e-09 4.0164677e-12 0.72956175 0.83283615 -0.061591294 0.11085928

embedding_w.bias f4 [64]
00000000: cab3 ffbc 8137 e2bc a969 c43d 2cf3 dabd
00000010: 4c85 7ebc c6ff d5bb 838f 313d 3e31 28bd
00000020: 638a 24bd 7ed7 163b 5f4e 503e 8558 113d
00000030: 47dd 003d 57e2 bc3c 5492 0a3e 4206 aebd
00000040: 0aec 56ba a4bd ac3c 661a 45bb dcf3 a73e
00000050: 5621 0b3e 2c05 19bb b6d8 e03d b8b0 903a
00000060: 8b1d 37bd e3d9 cb3c 2970 043e d020 08be
00000070: ba93 a73b 5707 653e 4211 b13e 7fe8 7e3d
00000080: 922f 4ebc 8b9a 793e 5251 56bc 153e 96bd
00000090: af2f af3c 0810 9fb9 4129 313d bc7d 98b9
000000a0: a805 1b3e 8cfb e43d af3f 823d 91c3 afbb
000000b0: c555 6db9 2734 6ab9 d566 8eb0 e3f6 613d
000000c0: edc1 323d f56c 92bc 5a43 cf3c e7ba 803d
000000d0: f6b1 613e 3cff 7d3c 60a7 f4b3 113d d93d
000000e0: 5a79 44bd bc94 303e 1655 96af 57f7 bc3d
000000f0: a023 2d3c 8ec4 5d3e 421d 4bba 12bf 54bd
-0.03121366 -0.027614357 0.095904656 -0.106909126 -0.01553471 -0.0065307347 0.043349754 -0.041062586
-0.04017104 0.0023016627 0.20342396 0.03548481 0.031461027 0.023057146 0.13532382 -0.08497287
-0.0008198625 0.021086521 -0.003007555 0.32803237 0.13586935 -0.002334903 0.10978834 0.0011038994
-0.04470591 0.02488417 0.1293341 -0.13293767 0.005114046 0.22366081 0.3458348 0.062233444
-0.012584584 0.2437536 -0.013080912 -0.0733606 0.021385042 -0.00030338787 0.043252233 -0.0002908538
0.15138876 0.11180791 0.06359803 -0.0053638895 -0.00022634033 -0.00022335407 -1.0361086e-09 0.05516709
0.043641973 -0.01787422 0.02530067 0.06285649 0.22040543 0.015502747 -1.1392581e-07 0.106073506
-0.047967292 0.17244238 -2.7345298e-10 0.09226864 0.010567576 0.21657011 -0.0007748195 -0.05194003

embedding_t_w.weight f4 [1, 8]
00000000: 0c48 aabd 0996 1fbd dfab a9bd 740c e1bb
00000010: 73d9 5abd 4d40 36bd 7c2d 06bd 2153 313c
-0.08314523 -0.038961444 -0.08284735 -0.0068679396 -0.053430032 -0.044494916 -0.03275822 0.010823042

lstm.weight_ih f4 [512, 65]
00000000: 22dc 4bbd 10bd 5e3b f8f1 d4bb fda2 dcbc
00000010: 68f8 4b3a c265 18ba 0145 65bc 36da 83bb
00000020: 2978 8cbc d167 56bd 090d 1fbd acb8 a7bc
00000030: 55e1 d0bb e0e0 ce38 1090 7bbd 662e 6abd
00000040: a85f 96b0 164a bb3b 9f8e 203b 6c12 a5bd
00000050: 14b6 6bbd d047 e0ab 8e2e f7bc 780f 45bd
00000060: 7fd8 3cbd 704c 4abd bf08 f7bc 1417 49bc
00000070: 87a1 c43b a678 41bd 693c b4bd bec8 41bd
00000080: 5281 0b39 2934 78bd 9878 86b6 bbee 86bd
00000090: 92d1 bbbb 56f1 0fba 99f0 88bd b44a f1b9
000000a0: bbd8 dbbc f36d 05bd f58e 24bd ae36 d3a7
000000b0: 30a2 ed38 ffd9 40ba dc00 ecb9 0b61 35bc
000000c0: c078 76bd c482 feb7 1a35 bfbc 5553 9ebd
000000d0: c047 23bd f8b6 033c 32e4 b8b9 5048 17bd
000000e0: 047b 2d3c 8c6f 91bd cea4 893a 40bd 2fbd
000000f0: 1bd5 1dbc 9cf4 96bd cc42 7635 0128 1abd
00000100: f6f1 7abb e05f eebc 82ae 4ebd 1ce6 e5bd
00000110: f30d 9abe aaf5 2239 350f 1811 36c0 6abe
00000120: 4e93 03bd f1be 08be 7af8 4c3d 290c ea3c
00000130: 3615 79be 328a 0ebd db9d 22be c89d 5a3c
00000140: 4633 43bd 7c06 beb9 4102 43bc f44a c2bb
00000150: 0ac6 0d3b 0820 823d 7f5d 27bb 3d6f 8cbd
00000160: 7c10 b73d 647d 89bd 3502 f7bd 0780 c9bd
00000170: 644d 07be b341 b4bc e30c 2c3d 2997 f4bd
00000180: 9f4f 6a3d a036 4238 7636 a9bd e492 d0bb
00000190: d415 23bd 617e b2bd a2e8 2f0e ecc4 a0bc
000001a0: b8b9 3291 e04a 17be 07f9 a7be 00eb b4bd
000001b0: 63b5 0f3a 8954 193c f621 2cbc 74bc 8eb7
000001c0: b1d6 77bb 0a56 f13c c22f 8b3a 08b7 a5be
000001d0: 10b0 a03d bb3c aabc 1901 05bd a61f 22b6
000001e0: d4ce 203c 9a08 93bd 01ab a23a 6ae0 5b25
000001f0: 2cf1 36be 8fe9 37be fec1 e13b aaf4 1b39
00000200: 011a cbbd 0f3d 003d 42f5 413b 7cd3 013c
00000210: ea0e 95bc 4000 913d 2cde dd3a b213 420e
00000220: 4e3b 583d 3045 ad3d 1aa0 963d 4b6d 27be
00000230: 6266 ad3d dc19 e33d 8c42 893b 4fe6 a9bc
00000240: 67f5 1fbe 6093 fa3d 64a3 633a 637c d8bb
00000250: aa6f cbbb eb9a 8fbd f21d cdbc 5998 703a
00000260: 2877 27be dd41 14bd c626 903d 0619 5e3e
00000270: e108 293e 55d7 de3d b43e c2bb fd99 083d
00000280: 6161 de3d e264 ef3d 6cf5 f1b7 dc58 023e
00000290: 1c9b b831 7e29 a0bd 2475 643c 4a60 6c13
000002a0: 9aaa 09be bede 6694 cc90 f3bd 17b2 ea3d
000002b0: 2fcd 32be 6624 3037 c4ac 9cbb 06e5 a0ba
000002c0: 2eaa 0080 6a2f 483d b2ec 83bd 2aad 1937
000002d0: a528 c43d 3e07 e43d 06dd 363e daea 493c
000002e0: c0ac 95bb 9352 99bd b0c7 f2b9 6d96 cf3d
000002f0: 496f 430d 775e 4e3e b80c 813c f8ee 37be
00000300: e474 d8b9 31e9 2d3e 1f85 bfbc d2a6 57bd
00000310: b68e 73bd 031c 4abb 5cda 193e 8670 aa34
00000320: b77c 7c8d f25b 3c3e 22cd 67bc 1ace ae3d
00000330: 6906 e3bd 495b 16bd a96d 503e 44f0 bdbd
00000340: 2a4e 343c 5009 68be 4089 ca3d 34fe c236
00000350: 89aa 4dbd 5569 db3d bd96 83be 60cd 2abe
00000360: 20b1 103b 8616 adbd cc73 a83c abd5 e73d
00000370: 5100 8b3d e1eb cd3c b0c6 c43d ccab 03bd
00000380: e216 debd 51b2 a83d 264c 1b3c 01f3 4a3b
00000390: 1146 c63c b285 6d3b 2911 d1bd 0846 e9bb
000003a0: 230e 0080 943d c6bd bc93 1b3b 0c35 a8bd
000003b0: 04cb 5a3e abe9 2abe e4ce 7e38 f419 07b6
000003c0: fa42 a136 26f5 13b6 8bbc f83b 5f62 12be
000003d0: 6000 9725 b71e 693e cf09 2f3c e62a b5bb
000003e0: 7391 46bd 20f0 e3b4 4227 03be 2848 3fbd
000003f0: 16ba df3c df53 878f 140e bf3d 252c 863d
-0.049770482 0.0033987202 -0.0064985715 -0.026933188 0.0007780851 -0.0005813503 -0.013993503 -0.0040238155
-0.01714714 -0.0523451 -0.03883079 -0.0204738 -0.006374518 9.864732e-05 -0.061416686 -0.057173155
-1.0941124e-09 0.005715619 0.0024499071 -0.08060154 -0.05754669 -1.5936089e-12 -0.030173566 -0.048110455
-0.046104904 -0.049389303 -0.030155538 -0.012273569 0.006000701 -0.0472342 -0.08800585 -0.047310583
0.00013304249 -0.06059662 -4.00755e-06 -0.06588503 -0.00573177 -0.0005490979 -0.06686515 -0.0004602276
-0.026836744 -0.03257556 -0.040175397 -5.862355e-15 0.000113312504 -0.00073567027 -0.00045014068 -0.0110705
-0.06017375 -3.0340052e-05 -0.02334075 -0.07730738 -0.039863348 0.008039229 -0.00035265234 -0.036934197
0.010588411 -0.07101354 0.0010501386 -0.042905092 -0.009633328 -0.07370874 9.1739344e-07 -0.037635807
-0.0038291193 -0.029098451 -0.050459392 -0.112255305 -0.30088767 0.00015541041 1.1995372e-28 -0.22924885
-0.032122903 -0.13354088 0.050041653 0.028570252 -0.24324498 -0.034799762 -0.1588053 0.013343282
-0.04765632 -0.00036244455 -0.011902393 -0.0059293453 0.0021632933 0.06353766 -0.0025537906 -0.068571545
0.08938691 -0.067133695 -0.12060968 -0.098388724 -0.13213116 -0.022003984 0.042004477 -0.11942894
0.05720484 4.6304078e-05 -0.08262341 -0.006365167 -0.03981574 -0.08715511 2.1682424e-30 -0.01962515
-1.4098953e-28 -0.14774656 -0.3280718 -0.08833885 0.0005482046 0.009358534 -0.010506144 -1.7015474e-05
-0.0037817175 0.029459972 0.0010619091 -0.32366204 0.07846081 -0.020780912 -0.03247175 -2.4158303e-06
0.009814937 -0.07179375 0.0012410582 1.9071257e-16 -0.17865437 -0.1796019 0.0068895807 0.00014873096
-0.09917069 0.03130823 0.0029595648 0.007923957 -0.018195588 0.07080126 0.0016927174 2.392183e-30
0.052790932 0.08460462 0.07354756 -0.16350286 0.084667936 0.11088917 0.004188841 -0.020739703
-0.15620957 0.12235141 0.000868371 -0.006606625 -0.0062083798 -0.0701197 -0.025038693 0.0009177975
-0.16354048 -0.036195625 0.070386454 0.21689233 0.16507293 0.10880915 -0.005927885 0.03334998
0.10858417 0.11689164 -2.8843722e-05 0.1272921 5.3727387e-09 -0.07820414 0.013943944 2.9834862e-27
-0.13443986 -1.1655961e-26 -0.11892852 0.11459749 -0.17461084 1.0498892e-05 -0.0047813375 -0.0012275286
-6.1049e-41 0.048873343 -0.064416304 9.159829e-06 0.09578065 0.11134194 0.17857751 0.012324059
-0.0045677125 -0.07486453 -0.00046306616 0.10136113 6.022297e-31 0.20153223 0.015753135 -0.17962253
-0.0004128582 0.16983487 -0.023378907 -0.052649327 -0.05946227 -0.003083945 0.15024704 3.174684e-07
-7.7803615e-31 0.1839445 -0.014148029 0.085354045 -0.11085207 -0.03670815 0.20354332 -0.09274343
0.011004964 -0.22659802 0.098894596 5.8112437e-06 -0.050211463 0.1071345 -0.25700942 -0.16679907
0.002207823 -0.08451562 0.020563029 0.11320051 0.0678717 0.02513689 0.09608209 -0.03214626
-0.10844208 0.08237136 0.009478604 0.0030967596 0.024203332 0.0036243019 -0.10208351 -0.007118944
-5.071e-42 -0.09679714 0.002373918 -0.08213243 0.21366507 -0.166907 6.0751e-05 -2.0131674e-06
4.805971e-06 -2.2047402e-06 0.0075908354 -0.14295338 2.6194579e-16 0.22765623 0.010683491 -0.0055287955
-0.048478555 -4.245676e-07 -0.12807944 -0.046699673 0.027310412 -1.3344334e-29 0.09328857 0.06551389

lstm.weight_hh f4 [512, 128]
00000000: 7202 f63b 5c46 42bb 3046 78ba d040 55bd
00000010: c279 16bc b573 fabb 462e cc3c f8f2 83ba
00000020: 4d4c 71ba 5c41 0939 abd7 8bbc 6327 96bc
00000030: 6708 76bc 026a a4bb 6106 de3c 7cb7 adbb
00000040: cafe 703c 78ba e4ba 4b68 253c e1a6 a93c
00000050: d675 c0bc dd8f 0ebd f038 63bc 05e8 06bd
00000060: cf58 fd3c 5c3c 983b c15f 17bc 3a66 97bc
00000070: 205d 41bc ba8b 923b 1065 963b cf54 16bb
00000080: e894 3c3c 1f98 62bb 60bc 003c 3be3 a33c
00000090: b391 8d3b 9093 35b8 a4ba 2abc 9784 95bc
000000a0: a5b2 313d 8876 3c3b 8b46 063c ae4a 84bc
000000b0: 255b 5c3c 5e04 04bc c5cf 5cbb 1260 c13b
000000c0: 21a4 d63c 7de4 683d 64bd 0b3a 7bd0 4bbd
000000d0: 3eae 52bd 6de7 67bc 6718 b83b ee68 90bb
000000e0: 4601 c43a 480e f33b 3e4c e63c 3ec6 b8bb
000000f0: 1c78 073c 32f3 ccbc f547 8dbc 8fa1 24bc
00000100: 7e4e 20bc 1077 20bc 3025 1e3c 53ef 5a3c
00000110: 4624 843b 1905 d2bb fcf5 7a3a a734 ce3c
00000120: fef9 84bd f410 c0bc 5295 7bbc dddf 9b3c
00000130: f6c7 afbc 55b9 8bbd 0478 fe3b 0c2f 7f3b
00000140: 2602 18bc 7ad2 103b 2f75 42bc b25f dd3b
00000150: 84b0 3b3d ba42 0f3d 3bbf 813c be29 dd3a
00000160: 187f 1b3d 38d9 2d3c 87e9 383c 2a7b 5e3b
00000170: 5fb1 553c 33f1 22bc 0064 dfbc 162c 363b
00000180: 2006 bfbb 501f e8bc e873 f23c a619 ad3c
00000190: 98d1 45ba d0ee 08bd 7950 013b 65dd c23d
000001a0: 1dc7 ac3a aec0 413b 00b6 6cb7 aee9 be3c
000001b0: 3a7a 51bc 9007 32ba d4d4 a03c b022 c23a
000001c0: 12f9 d8bc e854 c43c 65b9 bf3a ce69 e53b
000001d0: 1026 d03c 3674 21bd 3fd3 f43a 156f 19bc
000001e0: ade8 54bc c0e6 e23b 3d11 953c 94ba feba
000001f0: 0321 c93a 3d0c 8a3b 7887 4c3c 6ab8 033c
00000200: 917e a4bc 1815 193e 6048 a03d 7366 1a3d
00000210: a6e0 ef3b 233a c13c aba1 4e3e 3201 533c
00000220: 77ba b9bc 8e84 373d 0c81 973c 90a2 5f3c
00000230: ca01 d63c 3533 b83d 23ab aabc 53cf 1cbc
00000240: 6455 d539 05d0 973c 88e1 84bc 9ac2 5bbc
00000250: 1302 cb3c 9e99 7dbd 4311 4a3c 6e0a f93c
00000260: fc2a 95bc 70c0 c13a 184e 763d 91aa 973c
00000270: 68d5 133c 0810 3bba 54a1 09bc ee20 1cbc
00000280: 4962 d2bc 1abe 633c 1cb4 3abc bcb4 8bbc
00000290: abf4 efbb dfa3 323b 752e d03c 581a bc3a
000002a0: 64ad 113e 59b1 193c 14b4 f83b 0a25 063c
000002b0: edff 9ebc 0e3d dfbb a01a 653c 162a 053c
000002c0: 6a5a b63c f486 ba3c 6935 7cbc 2014 713c
000002d0: f89a 373a 4e95 7c3c a926 98bc c24c 3b3c
000002e0: 9466 81bc 8606 bbbc e6b9 a4bb 26b0 7dbc
000002f0: c416 2ebd 86fd fabd 025a 2d3c a13b ec3c
00000300: 9658 d5bc b041 3c3e b88c 613a 4dec a93b
00000310: 727b a7bc db85 333c 08ac 95bc affd b7bc
00000320: 6dad 66be f380 9a3c 9088 2a3b f8c8 2b3b
00000330: 1f12 c83c 569d 72be e873 32bc 59da 093c
00000340: 6166 313c 540d 283c 5a67 b43b e5c9 8b3b
00000350: 85a5 61bd ff66 753d 3c55 593c 6e5b 95bc
00000360: b78f bf3d dceb ed3c 92b2 76bc 3fa4 03bd
00000370: 94d7 463c f3b0 25bc dfa4 aabd 6193 973c
00000380: c9ea 963c 5b52 1d3d 0f5d 33bd 6d5f 93bc
00000390: c54b d73c 6f22 01bd 09bc 1cbb 4344 b93d
000003a0: df1b b03c a4af 65bb 89ba 3f3c b970 df3c
000003b0: 6587 273c f782 82bb da7f b8bb 70dd d639
000003c0: c461 cc3c 9c92 a23d 7175 033d 01a8 ac3b
000003d0: 892a fb3c 5892 8bbd 6f84 e8bb d814 013d
000003e0: e0a4 123c 80b4 6e3b 3e40 8fbc ae5b 8c3d
000003f0: bd10 983c 6703 ebbb 8208 0a3e e95b eebb
0.0075076157 -0.0029643988 -0.0009470908 -0.052063763 -0.009184303 -0.007643188 0.024924409 -0.0010066917
-0.000920479 0.00013089686 -0.017070612 -0.018329328 -0.015016652 -0.00501752 0.027102651 -0.005301414
0.014709184 -0.0017450592 0.010095666 0.020709457 -0.023493689 -0.034805167 -0.013868555 -0.032936115
0.030926136 0.0046458673 -0.009239138 -0.018481363 -0.011801988 0.004472223 0.0045896843 -0.0022938733
0.011510111 -0.0034575535 0.007857412 0.020005813 0.004320347 -4.329119e-05 -0.010420475 -0.0182517
0.04338326 0.0028757174 0.00819553 -0.016148891 0.013449465 -0.008057682 -0.0033693176 0.005901345
0.02620131 0.05685853 0.00053306506 -0.04975937 -0.0514357 -0.014154297 0.0056181434 -0.00440704
0.0014953993 0.007417474 0.028112527 -0.0056388667 0.008268382 -0.025018308 -0.017246226 -0.010048284
-0.009784339 -0.009794012 0.009652421 0.013362723 0.0040326444 -0.006409299 0.00095733977 0.025171591
-0.06492995 -0.023445584 -0.015355425 0.019027645 -0.021457653 -0.06822459 0.007765772 0.0038937954
-0.009277856 0.002209811 -0.011868759 0.0067557925 0.045822635 0.034975745 0.015838256 0.0016873402
0.037963003 0.010610871 0.011286146 0.0033947923 0.013042777 -0.009945202 -0.027269363 0.0027797273
-0.0058295876 -0.028335243 0.029596284 0.021130394 -0.00075461855 -0.033430874 0.0019731803 0.09514884
0.0013181899 0.002956431 -1.4109071e-05 0.023304787 -0.012785489 -0.0006791288 0.019632734 0.0014811363
-0.026485953 0.023966268 0.0014627395 0.0070011383 0.025408775 -0.039417468 0.0018678679 -0.009364863
-0.012994927 0.00692448 0.018196696 -0.0019434267 0.0015344921 0.0042128847 0.01248347 0.008039573
-0.020079883 0.14949453 0.078263044 0.03769536 0.0073204814 0.023587292 0.20178859 0.012878703
-0.022671921 0.04480415 0.018494152 0.013649598 0.0261239 0.08994142 -0.020833557 -0.009570914
0.00040690147 0.018531809 -0.016220823 -0.013413096 0.024781263 -0.06191408 0.012333217 0.030400481
-0.018208973 0.0014782082 0.06013307 0.01851395 0.009023048 -0.0007135873 -0.00840028 -0.009529335
-0.025681632 0.013900304 -0.0113954805 -0.017053954 -0.007322868 0.002725832 0.025412777 0.0014351113
0.142263 0.009380662 0.0075898264 0.008187542 -0.019409144 -0.006812698 0.013983399 0.00812771
0.02225991 0.022769429 -0.015393593 0.014714271 0.0007003988 0.015416456 -0.018573122 0.011431875
-0.015795983 -0.022830259 -0.0050270436 -0.015483892 -0.04250218 -0.12255387 0.010580542 0.028837027
-0.026043218 0.18384433 0.00086040376 0.00518564 -0.020444605 0.010957207 -0.018270507 -0.022459833
-0.22527094 0.018860316 0.002602134 0.0026212316 0.024422703 -0.23692831 -0.010891892 0.008413875
0.010827632 0.010257084 0.0055054845 0.004266011 -0.055089492 0.059912678 0.01326495 -0.018232074
0.09353583 0.02904313 -0.015057223 -0.03213906 0.012136359 -0.010112989 -0.08332228 0.018502893
0.018422501 0.03840862 -0.04378992 -0.017989838 0.026281247 -0.03152698 -0.0023915789 0.09046223
0.021497665 -0.0035047317 0.011702188 0.02727543 0.010225152 -0.0039828974 -0.0056304755 0.00040982245
0.024948962 0.0793812 0.032094423 0.005269051 0.03065993 -0.06815022 -0.0070958654 0.03151402
0.008950442 0.0036423504 -0.017486688 0.06853424 0.018562669 -0.0071720365 0.13479808 -0.00727414

lstm.bias_ih f4 [512]
00000000: 82e3 65be 7633 95bd 19fc 863d a3d2 23be
00000010: b57d c1bd ae99 42be 76dd cd3e 5b49 61be
00000020: 27f2 74be aa01 cdbd 1194 61be d341 68be
00000030: bafb 45be 80c5 7bbd 0ee6 4dbe 713b 55be
00000040: e6aa 67be 50f5 50be ac8b 50be 995c 4dbe
00000050: 79af 4cbe 8a6c 66be a6ec 18be db44 3bbe
00000060: 941d 20be 002d 54be 71ce 50be 40ca 52be
00000070: 8cb1 40be 125a 57be 7600 58be e2b9 5ebe
00000080: 7d14 5ebe 5a3b 70be de88 46be 354f 39be
00000090: 8b34 5bbe a288 7ebe bec0 ecbd 8da1 5bbe
000000a0: 60e7 7b3e 7e41 65be 2060 5abe 2c9a 80be
000000b0: ef53 5fbe 1c3a 5fbe a871 84be 04cb 84be
000000c0: a8d3 1ebe 4318 fbbd 903f 5dbe e217 10be
000000d0: df71 2fbe 96ce 5abe 34f0 60be 974f 5ebe
000000e0: 7838 55be 3546 5ebe 8c7d 42be b0b8 4dbe
000000f0: ea7a 44be f382 b0bd 6bf9 3ebe 1630 18be
00000100: e565 82be 517f de3e 9184 86be c4b5 70be
00000110: 31c6 19be 7ef4 51be 87af 56be f45e 34be
00000120: 63f1 613c be83 50be 24fd 68be 7ccd 3ebe
00000130: d107 40be c1f1 ff3e 7e11 43be 8372 8cbe
00000140: 399e 59be 9c8e 59be 1e00 57be f2bd 13be
00000150: cec1 20be 0bad f1bd fdaa 12bd fad1 5bbe
00000160: 88d0 ee3e cbff 34be da28 33be e7ec 73be
00000170: 7e25 77be 81d8 63be 595e 3fbc 97dc 99be
00000180: a48b 6ebe 5ba1 52be fa7f b7bd ea83 3dbe
00000190: 106a 19be 4945 9dbd 2b46 7ebe 98b6 7a3e
000001a0: f9ca 6abe 00e6 80be fc5b 58be d4d1 1ebe
000001b0: df1b 48be fd55 8abe 4328 4cbe 0dba 51be
000001c0: 65a5 38be ec18 fd3e 0311 61be 5e36 88be
000001d0: 49d2 12be 8684 1bbe fb51 55be 06a2 8dbe
000001e0: 460e 51be b58a 43be 1bb2 5fbe 4a07 8bbd
000001f0: bd92 8cbe c3fd 8bbe da69 dabd 65e2 58be
00000200: 1e6a c5bd b933 4abe 3cf3 cfbc 2d7d 31be
00000210: 88a1 67be 2d8f b9bd 1fa2 823d faa3 04be
00000220: 4d76 0fbe 212e 40be a2ee cebd 76f0 c8bd
00000230: 7a6a cdbd 64ff 7abe 0413 bfbd 0bdb cabd
00000240: ed42 fabd 6328 f0bd a57b c5bd 1a96 cebd
00000250: a528 bfbd c548 1abe edea 7bbe 0bc2 91bd
00000260: 56c5 87bd c044 b5bd 8156 85be 394d bbbd
00000270: 5a35 debd d831 d6bd 96bd eabd bd43 d0bd
00000280: e489 c6bd 8686 49be dce8 b4bd 4417 aebd
00000290: f14c ccbd e923 04be 7aa4 a8bd aa88 cbbd
000002a0: 1d33 0b3e e59e d4bd f550 ccbd 9c26 09be
000002b0: 2e36 cebd c9a1 cabd 6f80 d7bd 0108 13be
000002c0: 8f6d 58be 3397 2cbe 2d22 e6bd 4dc4 81bd
000002d0: a38a 9cbd 63ac dcbd 939d 10be d65d d2bd
000002e0: 568b e0bd bd27 bfbd a377 aabd 72bc c0bd
000002f0: 82bd 84be f6f8 79be e754 bdbd 35fc 70be
00000300: a225 76be 5aed c03d df71 0abe ceaf 23be
00000310: de9b 0bbe f2ed 1bbe 3ebd ccbd 8641 85bd
00000320: 04da eabd 7c43 c1bd a057 f7bd d1a2 97bd
00000330: 7904 b1bd 0514 6b3e c0c4 eabd 4c76 49be
00000340: dcea f1bd 08fe d2bd ef05 d2bd 9aea 3ebe
00000350: 00ff 64bd 834b e0bd 6527 14be cc11 30be
00000360: 5c98 803e 2e3b 3cbe 96b9 f0bd 0856 26be
00000370: 52d2 21be ed40 e5bd 13de 1dbe 365d 35be
00000380: d7cf e9bd 96b5 d2bd 9c8a 4abe abea b8bd
00000390: 0605 62be 766b 36be 0fbb f3bd dada b1bd
000003a0: 214b 15be 3a73 1abe 4c1f 1ebe e11b 10be
000003b0: 1aed a7bd 6080 febd 305e d4bd 2b15 1abe
000003c0: f6f0 aabd 3b46 623e 33bf 85be aa95 10be
000003d0: 7751 4cbe 46ea 44be 10ca d0bd 5943 26be
000003e0: 98d3 b6bd dcaa b8bd 612e bebd a953 7cbe
000003f0: 6631 39be 9e27 09be 6c17 23be aaae 14be
-0.22450069 -0.07285206 0.065910526 -0.1599832 -0.09447805 -0.19003937 0.40208024 -0.22000639
-0.23920499 -0.10010083 -0.22029139 -0.2268136 -0.19334307 -0.061467648 -0.2010729 -0.20823456
-0.22623786 -0.2040608 -0.2036578 -0.20054854 -0.19988813 -0.22502342 -0.14934024 -0.18287985
-0.15636283 -0.20720291 -0.20391251 -0.20584965 -0.18817729 -0.21030453 -0.21093926 -0.21750596
-0.21687503 -0.23460141 -0.19388148 -0.18096621 -0.21406762 -0.24856809 -0.115602 -0.21448345
0.24599981 -0.22388265 -0.21325731 -0.25117624 -0.21809362 -0.2179951 -0.25867963 -0.2593614
-0.15510428 -0.12260487 -0.21606278 -0.1407161 -0.17133282 -0.21367869 -0.2196663 -0.21710049
-0.20822322 -0.2170647 -0.18993205 -0.20089984 -0.19187513 -0.086187266 -0.18649833 -0.14862093
-0.25468364 0.4345651 -0.26273015 -0.23506838 -0.1501701 -0.20503423 -0.20965396 -0.17614347
0.013790461 -0.20362756 -0.22752815 -0.18633074 -0.18752982 0.4998913 -0.19049641 -0.27431116
-0.21251763 -0.21245807 -0.20996138 -0.14427927 -0.1569893 -0.118005835 -0.0358076 -0.21466818
0.46643472 -0.17675702 -0.17496052 -0.2382084 -0.24135396 -0.22250558 -0.011680209 -0.3005111
-0.23295456 -0.20569365 -0.089599565 -0.18507352 -0.14981866 -0.07679231 -0.24831454 0.24483716
-0.2292899 -0.25175476 -0.21128839 -0.1550973 -0.19541882 -0.2701873 -0.19937234 -0.20481129
-0.18031843 0.49433076 -0.21979146 -0.2660398 -0.1433803 -0.15187272 -0.20832054 -0.27662677
-0.20415601 -0.19095881 -0.21845286 -0.067885 -0.27455702 -0.27342042 -0.10664721 -0.21180113
-0.09639381 -0.19746293 -0.025384538 -0.17332907 -0.22620213 -0.09060512 0.063785784 -0.12953177
-0.14009972 -0.18767597 -0.10104109 -0.09811489 -0.100300744 -0.24511486 -0.09329799 -0.099050604
-0.12219796 -0.11726453 -0.09642724 -0.10087223 -0.09333924 -0.15066822 -0.24601336 -0.07117089
-0.06629436 -0.08851004 -0.2604256 -0.091455884 -0.1085002 -0.10458726 -0.11461942 -0.1016917
-0.09694269 -0.19680223 -0.08833477 -0.08500531 -0.09975613 -0.12904324 -0.082344964 -0.09938176
0.13593717 -0.10381869 -0.09976379 -0.13393635 -0.10068928 -0.09894139 -0.10522544 -0.14358522
-0.21135543 -0.16854553 -0.11236987 -0.063362695 -0.0764363 -0.10775068 -0.1412261 -0.10271804
-0.10964076 -0.09333751 -0.083236 -0.09410943 -0.25925833 -0.24411377 -0.092447095 -0.2353371
-0.24037793 0.09420271 -0.13520001 -0.15985033 -0.13633677 -0.15227488 -0.099970326 -0.06506638
-0.114673644 -0.094367 -0.1207726 -0.07404102 -0.08643431 0.22956856 -0.11463308 -0.19674033
-0.11812374 -0.10302359 -0.10255038 -0.18644181 -0.05590725 -0.10951903 -0.14468153 -0.17194289
0.2511624 -0.1838195 -0.11754148 -0.16243756 -0.15802887 -0.11194024 -0.15416746 -0.17711338
-0.114165954 -0.10288541 -0.19779438 -0.09029134 -0.22072229 -0.1781443 -0.11900913 -0.08684321
-0.1457944 -0.15083018 -0.15441626 -0.14073135 -0.081995204 -0.12426829 -0.10369527 -0.15047137
-0.08346741 0.22097103 -0.26122436 -0.14119592 -0.19952951 -0.19229993 -0.1019479 -0.16236629
-0.08927077 -0.09016964 -0.0928619 -0.24641289 -0.1808525 -0.13394019 -0.15926903 -0.14519754

lstm.bias_hh f4 [512]
00000000: ca88 66be 9c9d 0dbe 88dd 2ebd 0b1d e7bd
00000010: c92f 17be cac5 42be a165 e23e c636 5ebe
00000020: cadd 7bbe d179 24be 6faa 61be a315 69be
00000030: 48ab 45be 389b a2bb f575 4bbe 624a 55be
00000040: 1c9a 66be 22af 4dbe d770 53be fa56 4ebe
00000050: 38d7 4cbe 7c18 55be 3174 2dbd dc0e 3bbe
00000060: 1f36 22be 66ea 53be 3fbb 06be a3b1 52be
00000070: 2ab3 3ebe e8a7 56be c292 57be 12f5 5dbe
00000080: 20c5 6fbe a22c 82be ea84 46be 296f 3abe
00000090: bec7 5abe 5e7e 83be 4cdf f3bd 2e59 5cbe
000000a0: 8980 7a3e a4da 65be e6fe 59be 3d94 81be
000000b0: ac4f 60be 2356 5fbe 23d2 86be b987 85be
000000c0: 6dc8 06be 1ae4 e9bd 4d4e 59be 28e6 0dbe
000000d0: 1f5b 2ebe 6606 5fbe b456 5ebe c714 65be
000000e0: 257b 55be 86b5 56be 6a9d 41be abec 4cbe
000000f0: d04e 69be 8ff2 3dbe 4a67 3ebe 14f9 51be
00000100: e313 93be 4f08 d93e 0c72 82be 4490 64be
00000110: 7bdd 20be 1a93 62be 0881 59be 317f 34be
00000120: 6828 1b3d 88a3 50be 6c37 66be 461b 3dbe
00000130: 029d 3fbe fbc4 ea3e c25e 3abe 44a2 80be
00000140: 3954 59be 7849 58be a423 56be 723f e1bd
00000150: 0d9e 20be eb44 a2bd 974f a13b e1d4 82be
00000160: 6961 f13e 9794 0ebe b9e7 4dbe 2a43 7cbe
00000170: 2d53 59be 0438 61be 06bc 54bd 0b13 94be
00000180: 9ef6 6bbe 3c91 53be 545c d8bd 20d5 3cbe
00000190: 13f4 12be 3cb5 05be ecdf 72be 2d91 273e
000001a0: 93b2 7ebe f44d 84be 3aca 59be fb99 bcbd
000001b0: 31ef 47be ea65 86be 087c 51be 803e 63be
000001c0: 29b3 39be 2afb f23e b81d 92be 387d 83be
000001d0: 848e 2bbe 4564 63be 3b73 55be 1550 8bbe
000001e0: 9c65 51be 48a2 43be 65a4 60be cd54 bdbd
000001f0: ccc2 87be 9de8 91be 4164 8bbd 7f4a 57be
00000200: 38ed c4bd 547e 73be b70a 12bd 1d7b 3dbe
00000210: ad86 88be d58d b9bd 2447 1b3e 7c36 04be
00000220: aa13 0ebe f389 34be e0f0 cebd 87d9 c8bd
00000230: 8e69 cdbd 070e 7fbe 4f0c bfbd 0edb cabd
00000240: 2f41 fabd bc2b f0bd 804f c6bd 9492 cebd
00000250: 7228 bfbd 101e e5bd c9d5 94be 79c1 91bd
00000260: d3c3 87bd e643 b5bd f6f2 6ebe 344d bbbd
00000270: c86a debd 6020 d6bd a8c3 eabd 5453 d0bd
00000280: 0a70 cbbd 3514 4abe e5e8 b4bd 1b10 aebd
00000290: 024a ccbd 6c09 0bbe a9f2 96bd ea87 cbbd
000002a0: 1c8e f13d e0a3 d4bd c950 ccbd 720f 09be
000002b0: c788 cebd 4aa9 cabd 3f7d d7bd 3787 15be
000002c0: 8e30 5cbe a347 1abe 5085 e6bd 30cb 81bd
000002d0: 228f 9cbd ecc9 dcbd 7a8f 10be 5e78 d2bd
000002e0: 1e8d e0bd 4338 bfbd 70e1 aabd e4b9 c0bd
000002f0: 8f25 51be e9f8 8abe 8554 bdbd f9e0 81be
00000300: 9097 5bbe 14a2 9d3d c505 0bbe e01f 23be
00000310: 44ec 07be dfbb 1dbe e5b9 ccbd d842 85bd
00000320: 7ec5 35bd 8243 c1bd f54f f7bd 62b0 97bd
00000330: bf04 b1bd 91fe 813e 6348 e8bd 1ced 78be
00000340: afd5 f1bd 99ff d2bd 4c01 d2bd 9b8b 43be
00000350: 45fe 64bd 4f53 eabd 6ae6 0dbe 5e17 34be
00000360: 0e91 903e 7c7e 54be 7d8f 00be 2fc9 24be
00000370: 40c5 29be d43f e5bd 104b 6abe c213 2fbe
00000380: f85c eabd c2b6 d2bd 1832 42be 69ff b8bd
00000390: bc05 7bbe cb88 74be 7400 f0bd 5a04 7d3d
000003a0: 0018 13be f2d7 1abe b87e 1ebe 7cfa fcbd
000003b0: 1dee a7bd 6f8d febd d438 d4bd 26c8 27be
000003c0: a7fd aabd 1582 303e 36b3 88be fca3 11be
000003d0: 56e2 4abe aa06 27be acc4 d0bd 9010 28be
000003e0: bed4 b6bd f1aa b8bd 612e bebd 497a 81be
000003f0: 2ab5 39be 1794 06be eb3e 80be 53c3 12be
-0.22513118 -0.13829654 -0.042691737 -0.112848364 -0.14764322 -0.19020763 0.44218162 -0.21700582
-0.24596325 -0.16062094 -0.22037672 -0.2276216 -0.1930362 -0.004962351 -0.19869216 -0.20829156
-0.22519726 -0.20086339 -0.20648514 -0.20150366 -0.20003974 -0.20810121 -0.042347137 -0.18267387
-0.15840958 -0.20694885 -0.13157366 -0.20575576 -0.18623033 -0.20962489 -0.21052077 -0.21675518
-0.23415041 -0.25424677 -0.1938664 -0.18206467 -0.21365258 -0.25682348 -0.11907825 -0.21518394
0.24463095 -0.22446686 -0.21288642 -0.2530841 -0.21905392 -0.21810202 -0.26332197 -0.2608011
-0.13162394 -0.1142046 -0.21221276 -0.13857329 -0.17026947 -0.21779785 -0.21712762 -0.22371207
-0.20847757 -0.20967683 -0.18907705 -0.20012157 -0.22783971 -0.1854956 -0.18594089 -0.20505172
-0.2872611 0.4238915 -0.25477636 -0.22320658 -0.15709488 -0.22126427 -0.21240628 -0.17626645
0.03788033 -0.20374882 -0.2248208 -0.18467435 -0.18712237 0.4585341 -0.1820021 -0.251238
-0.21223535 -0.21121776 -0.20912033 -0.10998429 -0.15685292 -0.07923301 0.004922818 -0.2555304
0.4714463 -0.1392387 -0.20107926 -0.24634996 -0.21223135 -0.21994025 -0.051937126 -0.2892078
-0.23043296 -0.20660871 -0.10564485 -0.18440676 -0.1435092 -0.13057417 -0.23718232 0.16363974
-0.24872808 -0.25840724 -0.2126855 -0.09209057 -0.19524838 -0.2624963 -0.2045747 -0.2219181
-0.1813475 0.47457248 -0.285383 -0.25681472 -0.16753584 -0.22206219 -0.20844738 -0.27209535
-0.20448917 -0.19104874 -0.21937712 -0.0924469 -0.26515806 -0.28497782 -0.06806231 -0.21024512
-0.096155584 -0.23778659 -0.03565475 -0.18503995 -0.2666525 -0.090602554 0.15163857 -0.12911409
-0.13874689 -0.17630748 -0.10104537 -0.09807115 -0.100298986 -0.24907695 -0.093285196 -0.099050626
-0.12219464 -0.11727092 -0.09683132 -0.10086551 -0.09333886 -0.111873746 -0.29069355 -0.0711698
-0.066291474 -0.08850841 -0.2333487 -0.09145585 -0.10860211 -0.10455394 -0.114631 -0.101721436
-0.09933479 -0.19734271 -0.088334836 -0.084991656 -0.09975053 -0.13577813 -0.073705025 -0.09938033
0.11794683 -0.10382819 -0.09976346 -0.13384798 -0.10084682 -0.098955706 -0.10521936 -0.14602362
-0.21502897 -0.1506639 -0.11255896 -0.06337583 -0.07644488 -0.10780701 -0.14117232 -0.102768645
-0.10964416 -0.09336903 -0.0834378 -0.09410456 -0.20424484 -0.27143028 -0.092446364 -0.25366953
-0.21444535 0.076969296 -0.1357642 -0.15930128 -0.13273722 -0.15403698 -0.09996394 -0.0650689
-0.044377796 -0.09436704 -0.120757975 -0.07406689 -0.08643483 0.2538953 -0.11341932 -0.243092
-0.11808335 -0.10302658 -0.102541536 -0.19096224 -0.055906553 -0.11441671 -0.13857427 -0.17587039
0.28235668 -0.20751375 -0.12554736 -0.1609237 -0.16579151 -0.11193815 -0.22880197 -0.17097381
-0.11443514 -0.102887645 -0.18964422 -0.090330906 -0.24513906 -0.23880307 -0.117188364 0.061771728
-0.14364624 -0.15121439 -0.15478027 -0.123524636 -0.081997134 -0.1242932 -0.103624016 -0.16384944
-0.083491616 0.17237122 -0.26699227 -0.14222711 -0.19812903 -0.16311136 -0.10193762 -0.16412568
-0.08927296 -0.090169795 -0.0928619 -0.2528861 -0.18135515 -0.1314243 -0.25048003 -0.14332323

output_w.weight f4 [5, 128]
00000000: e7c7 8e3b 5bc5 3fbd 0e20 38bd 6443 4d3d
00000010: d0ed 03be 443c 543b faac 4e3d 8015 d9b8
00000020: 57cc 933b 6aab 2f3d e699 93bb 38c7 4dbc
00000030: 7c81 1cbb 3fbd f03d 6331 283c 687a 843a
00000040: c011 f4b8 ddd6 4dbc 1545 19bc 5cea be3b
00000050: ef44 94bb a44c f4bc 801c 123e 055c 8e3b
00000060: 79a3 d33b aa78 cc3b 1165 a03b 24ef 48bc
00000070: 4445 6bbc 2e99 373b 6adc 3a3b e466 d63b
00000080: df91 aebc 8b86 cb3c b1e9 6f3b 3157 543c
00000090: fa5a e43b b824 ffbc 1012 963d 106c dcba
000000a0: 643c 003e 4808 6f3a fed3 d53a 75f9 0d3c
000000b0: 189d 97b9 28c9 0fba 3d5f b43c 9429 01bc
000000c0: 9177 8c3b 708e aabd 92d9 3fbc 1e13 b9bc
000000d0: 7356 7dbc d23f dabb 361c 083c 8293 febb
000000e0: 3396 813b 0e7a 073b 5389 de3b 6443 55bb
000000f0: dd91 d0bd 847c c03d da8a 86bb 6f48 063e
00000100: edcc acbd 30cc dc3c eb68 fbbb b4cb 13bb
00000110: f47c a03c cfe6 65bc 3cc5 753a 8b76 d23b
00000120: 6563 4e3e 0544 8ebb f0c1 263a 175a 6b3c
00000130: e5ba 1dbc 7ce0 8e3a a9f0 00bc c7f2 0bbe
00000140: 409f 78b9 1675 65bb b8ce 52bc dceb b03c
00000150: a82d 45bc 5d1e 003d e741 983d c6e3 073d
00000160: cd87 ed3c 825f ad3c c003 b3bc f37b 5f3c
00000170: 44dc 6d3c c100 30bb 2163 573e 4a6b 1a3b
00000180: a15d 87bb 7617 c93b e912 3bbb b443 ae3a
00000190: 3805 26bb 0030 3fbd ae89 90bc fd0d 01be
000001a0: 564d 123c 32c6 abbc 2fcb 37bc 89de a4bc
000001b0: 9a18 1bbc a704 65bc fc23 0dbb 6a16 30bd
000001c0: dc1e d7bb 2a30 053c 4da1 fd3d 652e b43c
000001d0: 7a4c 163c 8e8d 903c 60a1 7439 483b 20ba
000001e0: d529 86bc ee3e 8cbb 20ad 7c3b 153a a93c
000001f0: af52 21bd 5782 e8bc d284 22bd 6a66 883c
00000200: 763e 25bc 512c c33d 4f33 7a3d c7c2 e63c
00000210: ae90 f63b 685d 90ba 53cd 0bbd 26b1 a9bc
00000220: e14e e6bc e52f ad3c 6e77 42ba 7fb1 1c3c
00000230: 6055 c039 1183 053d 87ff 913a fc4a 853a
00000240: a250 22bc 9b9f 40bc 9896 38bc b21a 9b3c
00000250: 6e05 1cba 7186 d2bc 01c2 b63c 30b2 05bc
00000260: 2d94 dd3c 8f58 8e3a 15e6 853d e8a9 cbb9
00000270: e9a5 533c 739a d0bc b2bc d83c dc20 cab9
00000280: 1cee bbbb b9ee 013d f686 44bb 9478 8f3c
00000290: 2ba7 e5bb c17b c33c 573d f3bc 0d03 22bc
000002a0: 581d 7e3e acff 8f3b 3bf8 07bc 8a2d 8b3a
000002b0: d0bf be3b 7f2c b4bb d7f2 0ebb 34f6 e43c
000002c0: ce27 bb3c 7eca 123c fe9c 5a3c e1fc 0d3d
000002d0: 0240 eb3c 7f36 473b 2ef1 713b 0d9c 603c
000002e0: 148a 0cbb 5f73 143c 2acc b13b 8bda 0f3c
000002f0: 8cfb 66ba 7a81 51be c6c5 693c f7c6 53bc
00000300: e78e 21be bc40 f93c b250 883c 5d38 0e3d
00000310: 9e9a af3c b72c 413c f615 9abb 7b85 a5bb
00000320: 6ac2 23be bba3 8eba e257 3b3c 234e 0ebc
00000330: a15d ebbb 2d0d 7f3d fe7d b93c bd49 563e
00000340: 7046 e1bb 362a 41bc 1d14 00bc 1403 11bd
00000350: 5af8 a43c 7001 903c 35a1 603b 6aef 28bd
00000360: 6c2f a8bd dee1 283d 2f89 493c 31c1 08bc
00000370: cbf1 083d 90c3 753c fb3e 9fbd 9d9a b73d
00000380: 0051 393c 58e8 f93a 10d1 edbd ce5e 7cbc
00000390: 21eb c93b 4217 90bd a9c1 67bc 3b56 07be
000003a0: a563 413c c540 4fbc d0a6 56b9 9ec2 3e3d
000003b0: 4c5e 60bb 65a5 8abb ee4c a7bb b6cb dc3c
000003c0: 3bfd 1c3b 20d5 50bd 19b6 293e 354f 89bb
000003d0: 26cc be3c 6666 27bd 9f74 d63b 481f 923c
000003e0: 5480 ebbb 3087 f3bb c92b 4c3b 2d3f 0e3d
000003f0: 5551 283d 98ec e2bb 22b8 4e3e 750e 4a3c
0.0043573263 -0.046819072 -0.044952445 0.050113097 -0.12883687 0.0032384554 0.050457932 -0.00010351371
0.004510443 0.042888083 -0.00450443 -0.0125597045 -0.002388089 0.11754846 0.010265681 0.0010107281
-0.00011638133 -0.012563434 -0.009354849 0.0058262777 -0.004524819 -0.029821701 0.14268684 0.0043444657
0.0064586964 0.00623997 0.0048948606 -0.012264047 -0.014359776 0.0028014886 0.0028512725 0.0065430272
-0.021309791 0.024844429 0.0036607797 0.012960241 0.006968853 -0.031145439 0.07327664 -0.0016816873
0.12523037 0.00091183605 0.0016313789 0.008665432 -0.00028918008 -0.00054849917 0.02201807 -0.007883448
0.0042867144 -0.08327949 -0.011709588 -0.022592124 -0.015462506 -0.00666044 0.008307507 -0.007769049
0.0039546727 0.0020672115 0.0067912727 -0.0032541389 -0.10184071 0.093987495 -0.004105908 0.13113569
-0.08437524 0.026952833 -0.0076724193 -0.0022551836 0.019590832 -0.01403208 0.00093753985 0.006422823
0.20155104 -0.0043416047 0.00063612964 0.014364741 -0.009627079 0.0010900642 -0.007869878 -0.13666831
-0.00023710448 -0.0035012416 -0.012866668 0.021596842 -0.012034811 0.031278957 0.07434445 0.033176206
0.028995419 0.021163706 -0.021852374 0.013640392 0.014517847 -0.0026855918 0.21033908 0.0023562484
-0.0041310345 0.00613683 -0.0028545207 0.0013295324 -0.00253327 -0.046676636 -0.017643776 -0.12602992
0.008929571 -0.02096853 -0.011217876 -0.020125644 -0.009466315 -0.01397816 -0.002153634 -0.042990126
-0.006564958 0.008129159 0.12384281 0.021994779 0.009173507 0.017645624 0.0002332977 -0.0006112349
-0.016377369 -0.0042799627 0.003855534 0.020657578 -0.039385494 -0.028382463 -0.03967745 0.016650397
-0.010085693 0.09529937 0.061084088 0.028169049 0.0075245714 -0.0011014165 -0.03413136 -0.020714354
-0.028113784 0.021141002 -0.0007418309 0.009563803 0.00036684703 0.032595698 0.0011138775 0.0010169442
-0.00990692 -0.011756803 -0.011266373 0.018933628 -0.0005951737 -0.025698872 0.022309305 -0.008160159
0.027048195 0.0010860133 0.06538025 -0.00038845767 0.012917974 -0.025464272 0.026457164 -0.00038552925
-0.005735172 0.031721804 -0.002998767 0.01751355 -0.0070084534 0.023862721 -0.029692335 -0.009888423
0.24815881 0.004394492 -0.008298929 0.001061843 0.0058212057 -0.0054984684 -0.0021812224 0.02794943
0.022846129 0.008959411 0.013343094 0.034664992 0.028717045 0.0030397472 0.0036917436 0.01370908
-0.0021444606 0.00906071 0.0054259496 0.008780132 -0.0008811287 -0.20459548 0.014268344 -0.012925855
-0.15777169 0.030426376 0.016640041 0.03472172 0.021436032 0.011790446 -0.004702325 -0.0050513125
-0.15992132 -0.0010882536 0.011434527 -0.008685621 -0.0071827923 0.062268425 0.022643086 0.20926566
-0.006874852 -0.011789849 -0.007817295 -0.035403326 0.020137955 0.01757881 0.0034275774 -0.041243948
-0.0821217 0.04123103 0.0123007735 -0.008346842 0.033433717 0.015000239 -0.077756844 0.08965037
0.011310816 0.0019066436 -0.11612141 -0.015403463 0.0061620628 -0.07035686 -0.014145293 -0.13216488
0.011803542 -0.01264972 -0.00020470773 0.04657232 -0.0034235893 -0.0042311423 -0.0051056063 0.026952606
0.0023954648 -0.0509845 0.16573371 -0.0041903504 0.023290705 -0.04086914 0.006544664 0.017837182
-0.0071869288 -0.007431887 0.0031154028 0.034728218 0.04109319 -0.006925177 0.20187429 0.012332548

output_w.bias f4 [5]
00000000: a7ae 9abd 3341 693d c274 21bf 2ac5 06bf
00000010: 8134 b4bc
-0.075528435 0.056946944 -0.63068783 -0.526446 -0.021997692

square_avg f4 [64]
00000000: 5811 543b 8b0f 963a 4791 1a3a 6718 2b3d
00000010: 62bd 2433 ffee 9831 1960 af3c 52a8 7e3a
00000020: 4349 aa3c 4985 f73d 18eb 783b 0b80 133d
00000030: c0f5 553a 0c80 823c 59e8 6f3d 0318 8a3c
00000040: 1a3e 0130 588f ac39 71d1 143a c475 023d
00000050: 9af4 dc3c 921e 8136 a26f 173c fe54 533c
00000060: 18d5 373c fe08 293d 1fe9 d73b 86df 863c
00000070: 1e2d 4139 4a0f 923c fe91 7d3c 7c40 8a3c
00000080: c139 2832 477b 453c 6f51 0033 eb18 e63b
00000090: a2ea 8b3a 249e 6f30 5747 e83c ebda 2730
000000a0: f486 293d 2978 533d d433 4a3c 9b80 7a35
000000b0: 238a bd2f 6d54 fc2f 7c5d 5a2e 1280 003a
000000c0: a0c4 c53c 7ea9 2333 d1b0 a73d 9fa5 323d
000000d0: 04d4 c73b 634d 8e39 23bc b22e 71d6 7e3c
000000e0: 528f 0d3b 0f14 a93c 86b3 472e 1032 233d
000000f0: a1cc 8e3c e909 523d bdd5 be2f b809 a43c
0.003235897 0.0011448724 0.0005896282 0.04177132 3.835647e-08 4.450953e-09 0.021408128 0.0009714413
0.020786887 0.12085969 0.0037981924 0.036010783 0.0008161925 0.015930198 0.058571193 0.016857153
4.701818e-10 0.00032913196 0.0005676961 0.03185059 0.026972104 3.8480584e-06 0.009242924 0.012898682
0.011220239 0.04126834 0.0065890695 0.016464006 0.00018422722 0.017829556 0.015476702 0.016876452
9.792019e-09 0.012053317 2.9876386e-08 0.0070220134 0.0010674784 8.7172425e-10 0.02835433 6.1065347e-10
0.041388467 0.051628266 0.012341458 9.3319403e-07 3.4477052e-10 4.589852e-10 4.9650492e-11 0.00049018965
0.02414161 3.8105547e-08 0.08188022 0.04361498 0.0060982723 0.00027142008 8.1279226e-11 0.0155540565
0.0021600318 0.020639447 4.540681e-11 0.039842665 0.017431559 0.051278982 3.471267e-10 0.020024166

square_avg f4 [5]
00000000: c0e3 d540 1240 7341 038d 8b3d 8216 703e
00000010: 24fa a63c
6.6840515 15.203142 0.06814005 0.23446086 0.020382948

square_avg f4 [64, 4]
00000000: 3850 1539 9c06 1d38 085a a538 2a08 1438
00000010: 19a4 7a38 325d a037 77fb 8a38 5259 1539
00000020: 0725 e337 d49c 4b37 aa77 ac37 d4d7 6237
00000030: b758 263a aacb 763a da2a 9e3a 6804 833b
00000040: 871c e42f 7f0d 402e 669c 5b30 1c26 e831
00000050: 2755 892e 5ae5 3d2f 5a2d 6c2f 6fb1 9030
00000060: 8ab8 c639 48af 113a f89b f839 91c5 b53a
00000070: 220a 8738 f8d9 c138 3aaf 4d38 0f37 df38
00000080: cffd 5b39 e424 283a ae3a f739 6654 533a
00000090: dca4 a43a 69f5 723a 7a6d 1f3b e633 353b
000000a0: b621 c837 3b9d de38 28be 3d38 dd43 b739
000000b0: 78bf db39 8ceb 823a bd95 3f3a 9249 a53a
000000c0: 9f14 9337 3496 1038 ea73 6537 8198 4638
000000d0: 262d ad39 d275 8739 1cea 103a a51e 063a
000000e0: efbf 903a fa1f 9b3a 59c3 bb3a a4f1 aa3a
000000f0: 9b10 0e3a c6b6 843a b407 e739 91b8 983a
00000100: 737e a62d 0447 6d2d 4a91 df2e 795e 332d
00000110: 4d43 d536 5bf4 2538 554a a536 f3c0 c838
00000120: 2c46 9c37 fd04 9a36 1c8d 8437 aad8 5239
00000130: cf1b c539 1e46 fa39 4719 243a 91d2 9f3a
00000140: eaa0 ae39 0500 8e39 c274 213a a20d 3e3a
00000150: 0e21 8b33 ddd6 0f31 9c20 6d33 5da4 c231
00000160: 9bf4 6239 c161 9a39 8b8e 9339 ce5a b739
00000170: ea23 0e39 e274 c439 f290 0c39 737c e83a
00000180: 1cf6 063a b1eb a23a 0918 e739 dfb6 b23a
00000190: 3eb8 073a 65af bd3a 1608 543a fa8a a23a
000001a0: 1721 9f38 e089 b238 9dff 1139 b602 f538
000001b0: 6dce ef39 90b0 a13a 9dab 093a adbf 063b
000001c0: 06ee 1137 117a 0537 f224 f736 dea0 3438
000001d0: 951a 0039 d5a0 c039 ffae 8a39 28b8 843a
000001e0: 07c9 6439 2063 e439 ef2c 8139 7822 d139
000001f0: 7c58 1539 bd18 2d3a daea 4439 84e1 133b
00000200: 086b 622f 4786 ce2f 3601 eb2e 22c6 1b32
00000210: 8639 0039 21a6 8639 bf69 3b39 76de 9f39
00000220: 563e 3630 e8fb 8c2c bff8 172f cc36 a52d
00000230: 3af0 ae39 bceb 0839 a099 4639 cc99 7839
00000240: 5bd6 8638 f119 b637 b6d9 9b38 c581 4238
00000250: c732 a02c 76b5 a42e f40d 262c a41b 092f
00000260: 98d3 293a bab3 6a3a 0b11 1f3a 3257 053a
00000270: afd8 ef2c 7a79 152e 4f9e ea2b eabf 5d2f
00000280: 3ddb a539 c165 0b3b c7a7 1f3a b009 053b
00000290: 0d38 273a 43a6 7d3a 17ab 903a 7afb d73a
000002a0: a044 8639 4167 e739 a7ab af39 1d17 073a
000002b0: 3c8c db32 7695 4d32 4dbf 9733 9627 5032
000002c0: 1831 072d 48cf 892b a1ec 7f2e c73e 072c
000002d0: a16c c52c fe27 872b 8af8 f12b 25ba 382b
000002e0: 3461 4029 d716 082c bb3c be2b 0020 972c
000002f0: d413 1738 e418 9e37 b4af e737 81ef 0438
00000300: 6a2c 233a a156 253a 1206 0b3a 2b6f eb39
00000310: 87e2 a82f 9e7d 5332 9c60 df30 35ef 422f
00000320: 2b84 7a3a 873d 573a 2988 e23a e75c 083b
00000330: 6e41 9439 9cfc b03a 45d8 ed39 4535 3e3b
00000340: 180d 9838 a489 0b39 6cac 0839 8913 7739
00000350: a030 f236 8214 1637 2737 b436 66b2 3c38
00000360: b34a 7c2b 9acc c42c ad72 3e2c e058 5c2d
00000370: 7683 1c39 4e1a 3239 5b73 9139 ee9b 373a
00000380: f68c 0439 abd9 c337 0642 2139 591a 8239
00000390: 0b28 6339 44d0 543a 1eee a739 7852 793a
000003a0: 1d05 162b da71 0d2d 3024 052b c431 4b2d
000003b0: 5535 f639 2dd0 393a 7cd3 583a e74b 213a
000003c0: 3351 8f39 1987 243a e589 b639 8303 ed3a
000003d0: ced6 353a 60b8 183a b43b a43a f09c 673a
000003e0: 7c32 122d 72bb 162d 2d82 022e 4540 072d
000003f0: 2d2c 323a 2732 e53a 0237 0c3a 1fa2 e03a
0.00014239631 3.7437872e-05 7.884583e-05 3.5293553e-05 5.9757473e-05 1.9116884e-05 6.627192e-05 0.00014243022
2.7077751e-05 1.2136257e-05 2.055972e-05 1.3520901e-05 0.0006345617 0.00094145036 0.0012067214 0.003998328
4.1493228e-10 4.3667733e-11 7.989399e-10 6.756421e-09 6.245165e-11 1.7270932e-10 2.1480187e-10 1.0527809e-09
0.00037902995 0.000555743 0.00047418452 0.0013868083 6.439189e-05 9.243557e-05 4.9039e-05 0.00010643724
0.00020980019 0.00064141885 0.0004715523 0.00080615876 0.0012561339 0.00092681363 0.0024326728 0.0027649342
2.3857556e-05 0.000106150714 4.523821e-05 0.00034955042 0.0004191359 0.0009988411 0.00073083845 0.0012610427
1.7533368e-05 3.4472163e-05 1.3676452e-05 4.734891e-05 0.0003303077 0.0002583699 0.0005528049 0.0005116261
0.0011043529 0.0011835091 0.0014325186 0.0013041985 0.00054193445 0.0010125272 0.00044065493 0.0011651685
1.892817e-11 1.3487659e-11 1.01666744e-10 1.0195949e-11 6.3557295e-06 3.956664e-05 4.9260366e-06 9.572683e-05
1.8629325e-05 4.5901384e-06 1.5801335e-05 0.00020107874 0.00037595487 0.00047735957 0.000625987 0.0012193491
0.00033307757 0.00027084365 0.0006159061 0.0007249956 6.4787045e-08 2.0931374e-09 5.521052e-08 5.664829e-09
0.00021644162 0.00029446 0.00028144228 0.00034972135 0.00013555554 0.00037471118 0.00013405437 0.0017737284
0.00051483675 0.0012429861 0.0004407766 0.0013634822 0.00051772955 0.0014471827 0.0008088363 0.0012401037
7.587874e-05 8.5133826e-05 0.00013923501 0.00011683015 0.00045739432 0.0012335945 0.00052517076 0.0020561025
8.698093e-06 7.955839e-06 7.3654746e-06 4.3065163e-05 0.00012216934 0.00036740923 0.00026451793 0.0010125684
0.00021818663 0.00043561403 0.00024638275 0.00039889268 0.0001424271 0.00066031126 0.00018779506 0.0022564838
2.0592605e-10 3.7566592e-10 1.0686778e-10 9.067238e-09 0.0001222846 0.00025682247 0.00017873103 0.0003049259
6.62998e-10 4.0070065e-12 1.3821742e-10 1.8782663e-11 0.0003336685 0.00013057789 0.00018939981 0.00023708417
6.429545e-05 2.170817e-05 7.431528e-05 4.637406e-05 4.553111e-12 7.4900905e-11 2.3597764e-12 1.2469897e-10
0.00064783683 0.0008953173 0.0006067908 0.00050865405 6.8168453e-12 3.398657e-11 1.667064e-12 2.0168014e-10
0.00031634598 0.0021270367 0.00060903694 0.0020299964 0.00063788967 0.0009675959 0.0011037317 0.0016478144
0.000256096 0.00044136684 0.00033506492 0.00051532855 2.5558727e-08 1.1966554e-08 7.066283e-08 1.2116194e-08
7.6847625e-12 9.791968e-13 5.8190456e-11 1.9219502e-12 5.611137e-12 9.603427e-13 1.7193063e-12 6.562826e-13
4.2716874e-14 1.933944e-12 1.3517168e-12 4.295231e-12 3.6019672e-05 1.8846658e-05 2.7619164e-05 3.1694308e-05
0.0006224575 0.0006307159 0.0005303334 0.0004490552 3.071998e-10 1.23103785e-08 1.6252844e-09 1.772918e-10
0.0009556438 0.00082107674 0.001728301 0.0020807327 0.0002827751 0.0013503018 0.00045365296 0.002902345
7.250364e-05 0.00013307348 0.00013034203 0.00023563033 7.2178227e-06 8.945472e-06 5.3708386e-06 4.498884e-05
8.963205e-13 5.5933704e-12 2.7064282e-12 1.2525286e-11 0.00014926292 0.00016985202 0.00027742502 0.00070041313
0.00012641013 2.3347171e-05 0.00015378752 0.00024815163 0.00021663324 0.0008118192 0.00032030133 0.0009510885
5.32978e-13 8.040202e-12 4.730131e-13 1.1550264e-11 0.00046960512 0.00070882106 0.000827126 0.0006152973
0.00027335584 0.00062762346 0.00034816485 0.0018082712 0.00069366104 0.0005825814 0.001253 0.0008835336
8.310349e-12 8.568134e-12 2.9674197e-11 7.688132e-12 0.0006796744 0.001748626 0.0005348773 0.001713816
