S-LSTM/Goal+Socail_Array_PyTorch/social_lstm/save/0/social_model_epoch_18.pth (torch, 815071 bytes, 22 tensors)

embedding_b f4 [64]
000000 26 be 29 bd 94 0b b9 3e 25 e9 87 3e a2 2e c3 3c
       -0.041441105 0.36141646 0.26545063 0.023825947
000010 d9 7c 80 bc 9c 58 75 bc 89 0b b3 bd a1 41 bb ba
       -0.015684532 -0.014974739 -0.087424345 -0.0014286527
000020 00 59 1d be 4d 19 0c 3d de 75 e3 3b 47 cf 65 bc
       -0.15365982 0.034203816 0.006941541 -0.01402647
000030 72 0d 49 be 47 db e8 bd 64 a4 37 bd e4 30 33 bb
       -0.19634035 -0.11369949 -0.04483451 -0.0027342374
000040 b9 f1 8e bc 54 82 51 ba 5d 12 20 be 1b 19 36 bd
       -0.017449247 -0.00079921377 -0.15632005 -0.044457536
000050 38 e6 81 3b f6 70 2c bd 00 57 d2 b6 1f c1 32 bb
       0.003964212 -0.042099915 -6.268616e-06 -0.0027275754
000060 c8 78 8d bd d7 59 0b bc 2e de 62 3d df 54 c0 ba
       -0.06907803 -0.008505306 0.05538767 -0.0014673731
000070 20 a6 b5 3e e2 48 28 be 14 f9 06 bd ab d8 86 bd
       0.35478306 -0.16434053 -0.032952383 -0.06584295
000080 72 03 0a be 85 9e 63 3c c3 5c c1 3d e0 44 f0 bc
       -0.13477877 0.0138927745 0.09441521 -0.029329717
000090 7c 56 45 3e b7 c5 a4 3d a6 ca 00 bc f1 5c 2f be
       0.19271272 0.080455236 -0.007860815 -0.17125298
0000a0 91 fb 91 bc 41 38 6d bb 2f f3 83 bc 85 31 58 bd
       -0.017820152 -0.003619686 -0.01610717 -0.0527816
0000b0 fa 93 ed 3b 12 51 b5 3c c8 35 8c bb 9b 6d 6c 3d
       0.007250306 0.022133384 -0.004278872 0.057721715
0000c0 b8 3e f2 bd 36 f1 11 3e fc 36 6e 3c 9c cc 8e 3d
       -0.11828369 0.14252171 0.0145394765 0.0697262
0000d0 52 cb a7 bb 2d 46 9a 3b 8d 65 55 3d 6e a4 8d bd
       -0.005120673 0.0047080726 0.0520988 -0.06916128
0000e0 ab 02 09 bc 33 82 c3 ba 89 3a 87 bb 5c 11 ab 3d
       -0.0083624525 -0.0014916122 -0.004126851 0.083529204
0000f0 41 75 0a 3e c7 4f 92 3d 38 e4 06 be bb 61 b6 bc
       0.13521291 0.071441226 -0.13172996 -0.022263398

output_b f4 [5]
000000 c9 7a e6 3c 7f c2 d4 bb f5 c6 69 bf ab 55 5d bf
       0.02813472 -0.0064929123 -0.9131921 -0.86458844
000010 62 e0 a1 bd
       -0.07904126

embedding_w.weight f4 [64, 4]
000000 04 35 6f 3e c6 39 3c bf b9 54 0c be f3 38 b5 3e
       0.23360068 -0.73525655 -0.13704194 0.3539501
000010 d8 29 db 3d 49 9a b3 3f 58 9b 8f bd 2f 01 c5 3e
       0.107013404 1.4031459 -0.07012051 0.38477466
000020 56 62 94 bf 84 2e 35 bf 0a d1 17 be fe de ce bd
       -1.159251 -0.707741 -0.14825836 -0.10101126
000030 f0 d9 e5 3b be fe 04 bb f6 0f d7 3b e6 3a 39 bb
       0.0070145056 -0.002029344 0.006563182 -0.0028263866
000040 80 e1 14 3b 5c ce a5 3c 60 43 5a 3d af 13 c9 bc
       0.0022717416 0.020240001 0.05328691 -0.024545519
000050 0c 6d 38 3f 66 42 0b bf 35 d3 e8 3e fa 70 f9 3e
       0.7204139 -0.5439819 0.45473638 0.48719007
000060 31 30 11 3f 7c df 4f 3f 35 f5 fb 3d 2c 40 c8 3c
       0.5671416 0.81200385 0.12302629 0.024444662
000070 ce 4d 36 b6 e3 32 90 ba 42 38 2d 38 96 92 e2 a7
       -2.7165402e-06 -0.0011001494 4.129881e-05 -6.288653e-15
000080 43 c0 83 3d a4 de 89 3e 98 68 6f 3c 20 3e ac 3e
       0.064331554 0.26927674 0.014612339 0.33641148
000090 0c 00 2f bd dc 1e 82 3c c2 d2 30 bd 5d 74 2f 3d
       -0.042724654 0.015883856 -0.043169744 0.042835582
0000a0 47 7a 21 bf f2 7e fb 3e 9f fe ba 3e d4 db da be
       -0.63077205 0.4912029 0.36522385 -0.4274584
0000b0 ab cb ff be 94 2c 46 3d 9b 10 dd be f5 c3 75 3d
       -0.49960074 0.048382357 -0.4317673 0.060001332
0000c0 27 1f 1a 3f a6 d6 b1 be 07 21 19 bf 93 81 d6 3e
       0.60203785 -0.34734076 -0.5981602 0.41895732
0000d0 5b fc 80 3f f4 f2 b0 3e 94 19 fc 3d 39 5d 5b 3e
       1.0077013 0.3456036 0.12309566 0.2142228
0000e0 9f 3b 34 3e fb e9 4c 3d 4e 30 9b 3e 6a ab ef 3d
       0.17600869 0.05002783 0.3031029 0.117026165
0000f0 10 bd 95 3c a8 74 b2 3d ab cc fc 3c 67 33 6f bd
       0.018278629 0.08713657 0.030859312 -0.05839863
000100 4d 55 91 3d 46 ea c3 3d de d2 53 3e b0 13 b4 bd
       0.07096348 0.095661685 0.20685908 -0.087928176
000110 50 d8 fe a0 22 22 af 37 50 c8 81 8b 5b 4d 14 38
       -4.3172417e-19 2.087752e-05 -4.999039e-32 3.5357993e-05
000120 48 66 b4 3e 6c 68 15 bf c3 ab bc 3e 2d cb db be
       0.35234284 -0.5836246 0.36849794 -0.42928448
000130 3d 26 85 3f 6a 5f b8 3e 15 56 8c bf b3 0c a0 be
       1.0402294 0.36010295 -1.096377 -0.3125969
000140 5f 02 cf 3c 7d 18 71 3c 3e 92 01 3d 4c 81 7d 3c
       0.025269685 0.014715311 0.031633608 0.015472721
000150 b4 bf c0 3d 28 e8 a8 3d 01 dc c9 3e 5d 06 64 bd
       0.094115645 0.08247405 0.39425662 -0.05567013
000160 20 ab 1b 96 c0 47 1d 96 c4 21 b3 2a e2 ba 0d 26
       -1.2574798e-25 -1.2704999e-25 3.1820217e-13 4.9172475e-16
000170 ff 3c 1d b9 85 45 b9 39 9c f7 76 3b 36 c0 d5 3a
       -0.0001499541 0.00035337746 0.0037684208 0.0016307894
000180 26 d3 ac be 60 e6 89 3e 96 e2 26 3f 4d 49 07 3e
       -0.33754843 0.26933575 0.6518949 0.13211556
000190 22 80 89 bc bb 61 af bb ce c6 c3 bb 2f 36 ff 3b
       -0.016784731 -0.0053522266 -0.005974627 0.0077884416
0001a0 23 ee 55 bf 82 da 96 bf 6a ba 4d 3e ce 53 77 bf
       -0.8356649 -1.1785433 0.20090643 -0.9661225
0001b0 bc 6b 31 26 ba dd 3f b6 d0 d2 91 1f 18 0f e3 b8
       6.155522e-16 -2.859028e-06 6.175865e-20 -0.00010827015
0001c0 cf 48 ab bf a7 64 4e bf 70 8c 86 bc c8 ab bb 3d
       -1.3381594 -0.80622333 -0.016424388 0.09163624
0001d0 91 09 0f bf 5f 5e 0b bf ea 2a 1b 3f 84 5b 25 3f
       -0.5587397 -0.54440874 0.60612357 0.64592767
0001e0 48 68 80 3e 03 cd 55 3e 1a 39 93 3e 44 42 62 be
       0.2507956 0.20878987 0.28754503 -0.22095591
0001f0 00 d8 3d bf b4 4f 8c 3e 7e be 07 bd ab 9e 71 3e
       -0.74157715 0.2740456 -0.033140652 0.23595683
000200 04 57 3a bf 3b bd 21 3f f3 b8 1d be 9f 51 a3 be
       -0.72789025 0.6317937 -0.15402584 -0.3189821
000210 64 87 84 3e ab 7c 93 3f 02 30 b0 bd ad b7 c7 be
       0.25884545 1.1522421 -0.08602907 -0.3900732
000220 ef af b9 3f fe c2 53 be 86 aa 48 3e 2f f0 f2 3e
       1.4506816 -0.20679852 0.195963 0.4744887
000230 d2 7a 55 3f 7f ee 2c 3f 95 f0 df 3d 89 c4 83 3e
       0.83390534 0.67551416 0.10934559 0.25735882
000240 3b d3 3a bf f8 fa a7 3f f0 20 ea b9 d0 80 1a 3f
       -0.7297856 1.3123465 -0.00044656498 0.603528
000250 35 a6 a6 3f 93 0a 82 bf 75 6c 76 3e 2d bb d4 be
       1.3019472 -1.0159477 0.2406481 -0.41549054
000260 a6 ca c7 3b 34 97 b3 3a 4f 35 ba 3c a4 bc bc bb
       0.0060971556 0.0013701678 0.022730498 -0.0057597924
000270 12 c6 31 be 96 4b 93 3e 91 f1 90 3e c2 ef 74 bd
       -0.17360714 0.28768605 0.283093 -0.059798963
000280 1e 0f b7 3f f5 7b f7 3e c5 6a 03 3e 20 bb 98 3e
       1.4301488 0.4833676 0.12833698 0.29830265
000290 32 7d b9 b8 5f 9b 5e bb e9 52 51 3a 32 52 ba ba
       -8.844807e-05 -0.003396712 0.0007985072 -0.001421517
0002a0 b1 41 2f bd 4a 33 8c 3c 3f 05 ca bc 86 73 03 bd
       -0.042787258 0.0171143 -0.024660705 -0.032092594
0002b0 fb 37 06 be f5 7c 62 3e c6 63 a4 3e 15 23 9d 3d
       -0.13107292 0.2211798 0.3210737 0.07672707
0002c0 3d 7d 9a bd 14 5e 74 3d 9c 62 71 bd fb 10 61 bc
       -0.075434186 0.059660032 -0.05893193 -0.013736959
0002d0 ac 8c 3e 3c 76 92 10 3d 10 97 a3 3b c3 ea 97 3d
       0.0116302185 0.035295926 0.0049923733 0.07417824
0002e0 72 02 12 3e d1 70 83 3f 62 15 0e 3c bf 01 25 bd
       0.14258745 1.0268804 0.00867209 -0.04028487
0002f0 ea 5c a8 be 1f 66 36 3f 8e 49 e5 3d e8 38 81 bc
       -0.32883388 0.71249574 0.1119567 -0.015774205
000300 4e 08 67 3e de 82 d0 3e 0e 64 2c 3c 2e a0 17 3e
       0.22561762 0.40724844 0.010521902 0.14807197
000310 ac fa 26 bf 13 e6 9d bf 5d 5d 1b be 60 f5 37 3e
       -0.65226245 -1.2335838 -0.15172334 0.17964697
000320 67 27 59 3c 02 39 47 bd 5a cd c0 bb 4b 68 ba 3c
       0.013254023 -0.04863835 -0.005883855 0.022754809
000330 c8 93 9e bf 73 16 7a 3f 16 09 67 be 9d 26 32 3e
       -1.2388849 0.97690505 -0.2256206 0.17397542
000340 7d c1 ac ba e4 42 87 34 07 6c e4 3a 6d 3a 4a 34
       -0.0013180223 2.519438e-07 0.0017427214 1.8833971e-07
000350 28 eb 83 3c e2 ed d4 3c 20 95 b6 3c 12 e6 8c bd
       0.016103342 0.025992338 0.022287905 -0.0687982
000360 3a 45 ad 3e 58 14 81 bf 97 2d ad bd 94 6a e3 bc
       0.33841878 -1.0084333 -0.08455961 -0.027760781
000370 00 c1 40 3f 1f 4a 09 bf e8 4b 8d 3d 46 b8 a5 be
       0.75294495 -0.53628725 0.068992436 -0.32367152
000380 38 85 27 3f 0d 25 11 bf 1c aa 5e be a9 18 4b 3e
       0.6543765 -0.5669716 -0.21744579 0.19833626
000390 74 e0 3f 38 fe 1c 0d 0b f2 2d 88 36 79 b0 3b 32
       4.5746987e-05 2.7177424e-32 4.0584646e-06 1.0924958e-08
0003a0 e5 4a 8d 31 ed f7 88 b0 12 fe 97 37 1f 7d 12 b0
       4.1121546e-09 -9.965767e-10 1.8118913e-05 -5.32923e-10
0003b0 04 90 8a bf 07 a3 3e bf ad ad 4f bc 2b 68 90 3c
       -1.08252 -0.7446751 -0.012675685 0.017627796
0003c0 0d c2 0b bf d1 c7 8c bf fc d2 3b be 9d 9d 28 3d
       -0.54592973 -1.0998479 -0.18342203 0.041165937
0003d0 5d 6b 81 3f 52 b0 84 3f d9 58 a6 3d 8c 87 49 3d
       1.011089 1.0366309 0.08122415 0.049201533
0003e0 3a 22 14 bf 20 31 8c 3e ea 0a b5 3d 47 d2 16 3e
       -0.57864726 0.2738123 0.08839972 0.14728652
0003f0 d8 3f 96 bf 89 08 37 3f 88 16 77 be 36 2a 90 bd
       -1.1738234 0.714974 -0.24129689 -0.07039301

embedding_w.bias f4 [64]
000000 f4 11 bd 3d 94 20 29 3e 37 00 09 3e a2 2e c3 3c
       0.0923194 0.16516334 0.13378988 0.023825947
000010 d9 7c 80 bc 71 d0 2c bd f7 bc f9 bc a1 41 bb ba
       -0.015684532 -0.042190973 -0.030485613 -0.0014286527
000020 b0 2d 11 3e 4d 19 0c 3d 9b 32 5c bd f9 82 09 3d
       0.14177585 0.034203816 -0.0537592 0.03357217
000030 26 c4 0c 3e 87 68 42 3e 64 a4 37 bd e4 30 33 bb
       0.137467 0.18985187 -0.04483451 -0.0027342374
000040 b9 f1 8e bc 54 82 51 ba dd d7 e8 3d 15 bd 51 3b
       -0.017449247 -0.00079921377 0.11369298 0.003200357
000050 38 e6 81 3b f6 70 2c bd 00 57 d2 b6 1f c1 32 bb
       0.003964212 -0.042099915 -6.268616e-06 -0.0027275754
000060 c8 78 8d bd d7 59 0b bc 4c d2 b5 bd df 54 c0 ba
       -0.06907803 -0.008505306 -0.088780016 -0.0014673731
000070 db e6 23 3e 17 22 e6 3d 14 f9 06 bd 5a 4d 81 bd
       0.16006033 0.11236971 -0.032952383 -0.06313582
000080 d7 97 2d 3e 21 23 f4 3c c7 4a c3 3e c6 cf 8a 3e
       0.16952454 0.029801907 0.38142988 0.27111644
000090 ca ed 3b 3b 07 7a 75 bd a6 ca 00 bc 04 57 b1 3d
       0.002867567 -0.059930827 -0.007860815 0.08659175
0000a0 12 c1 89 3d 41 38 6d bb 2f f3 83 bc 85 31 58 bd
       0.06726278 -0.003619686 -0.01610717 -0.0527816
0000b0 fa 93 ed 3b 12 51 b5 3c 1b b2 00 bd c0 8d db bd
       0.007250306 0.022133384 -0.031419855 -0.10720396
0000c0 7d 7f 87 3d 2a 8e 04 3e fc 36 6e 3c 99 a7 eb bd
       0.06616113 0.12944856 0.0145394765 -0.11506576
0000d0 52 cb a7 bb 2d 46 9a 3b c1 32 1b 3d 6e a4 8d bd
       -0.005120673 0.0047080726 0.0378902 -0.06916128
0000e0 3d 6d 86 3c 33 82 c3 ba 89 3a 87 bb c2 66 b9 3e
       0.01640951 -0.0014916122 -0.004126851 0.3621121
0000f0 85 72 07 be 33 06 20 be 21 b4 e8 3d e0 cd 84 be
       -0.1322728 -0.15627365 0.11362482 -0.2593832

embedding_t_w.weight f4 [1, 8]
000000 d5 f7 73 3f cd 48 ac be 13 3b 10 3e e3 96 fa be
       0.95300037 -0.33649293 0.14085035 -0.48943242
000010 c9 6b 85 3d f6 b2 b5 bd 11 19 f5 3e 93 3b 26 bf
       0.06514699 -0.08872025 0.47870687 -0.64934653

lstm.weight_ih f4 [512, 65]
000000 11 2b f4 bb 04 42 ec bc 0a 01 1c bd 04 eb ba 3b
       -0.007451423 -0.028840072 -0.03808693 0.0057042856
000010 fe 23 64 b8 50 03 b0 bc db a4 85 3b a6 5f 01 b7
       -5.4392956e-05 -0.021485955 0.00407849 -7.711269e-06
000020 b8 f3 89 39 2a 1f 78 bc ac a9 8b 3c 40 aa 37 bc
       0.0002631226 -0.015144149 0.01704868 -0.011210024
000030 8f 35 2f bc a8 c3 7b bc 83 c0 34 bb 41 c4 b8 3b
       -0.010693922 -0.015366472 -0.0027580566 0.0056386297
000040 24 64 dd 3b 66 0d 0e 3b 1c b1 94 3b ea ed 5c 3b
       0.0067563225 0.0021675467 0.0045377146 0.0033711144
000050 09 15 6c bb 78 a8 2a 3b 34 72 67 35 70 8e ba 90
       -0.003602328 0.0026040357 8.6220393e-07 -7.3583524e-29
000060 9d 44 fa bb 10 f4 79 8e ec e1 09 bc 09 e5 e5 b9
       -0.007637574 -3.0809131e-30 -0.00841568 -0.00043848928
000070 57 67 70 bd 02 d8 c0 bc 74 8c d0 3b 70 99 c9 bb
       -0.058692303 -0.0235405 0.0063643996 -0.0061523244
000080 ec c1 18 3c 19 2b 47 3c b1 ae 94 bd 64 62 e0 bc
       0.009323578 0.012156271 -0.07259882 -0.027390666
000090 71 ac 60 bc 08 5a a1 bc bc b1 0d ba 8e 01 e9 ba
       -0.013712988 -0.01969625 -0.00054052076 -0.0017776953
0000a0 77 89 a8 bc 66 b1 1d b4 1c dc ed 36 55 81 c2 bb
       -0.02057336 -1.4686302e-07 7.0887745e-06 -0.0059358277
0000b0 2c a2 4b bc 42 11 01 bc 24 94 4f 3c bb 03 1d 3c
       -0.0124288015 -0.00787765 0.012669597 0.009583409
0000c0 04 68 9a 3b 94 dd e4 bc d6 3d 0f 3c 6f fd b3 3b
       0.0047121067 -0.027937688 0.00874277 0.005492858
0000d0 72 64 cb 34 4b 39 00 3c 82 27 1b bc fa 75 9a 3b
       3.788478e-07 0.00782616 -0.009469869 0.004713771
0000e0 58 4d 39 ba be 10 02 bb de 54 e8 b6 c8 b2 4e bd
       -0.0007068715 -0.0019846405 -6.9240186e-06 -0.050463468
0000f0 ff 07 a2 bc 62 2d 25 bc 65 54 03 bb f8 1e a1 3b
       -0.019779203 -0.010081621 -0.0020039317 0.004917022
000100 1d af 9e bc 15 f6 1b bc d9 5a 1f bd 76 d5 d5 bc
       -0.01937061 -0.00951912 -0.038905 -0.026102763
000110 63 29 23 3c 58 c2 76 37 7f e8 12 bc 07 44 47 bc
       0.009958598 1.4707992e-05 -0.008966564 -0.012162215
000120 16 3f 65 b6 ba e0 3a bc 07 40 55 3b d4 73 b5 3b
       -3.416038e-06 -0.011406118 0.0032539384 0.0055374894
000130 cd c0 38 bc 79 cf 7f bc 09 88 7c bc 38 26 80 b9
       -0.011276436 -0.01561343 -0.015413293 -0.00024442538
000140 10 de 81 3b 85 2f fd 3b 97 73 1a 37 55 bc 36 3c
       0.0039632395 0.007726612 9.206028e-06 0.0111533
000150 b6 ba 1a bc 3c f7 30 ba b6 47 d1 3b ca d1 06 3b
       -0.009443929 -0.0006750708 0.0063867224 0.0020571821
000160 3c 54 d3 b7 26 c1 9f ba ee 3d f6 20 e5 90 a8 bb
       -2.5192385e-05 -0.00121883 4.1715003e-19 -0.005144226
000170 d6 f4 36 b5 0a 55 1e bd 49 55 7a bc 5c a4 0b 3c
       -6.8156567e-07 -0.03865532 -0.015279123 0.008523073
000180 0e 79 6c bb 96 25 81 bb 77 93 9a 3b 55 e2 33 bd
       -0.0036082896 -0.003941248 0.004717286 -0.04391702
000190 fe 5f b3 bc f7 4a 84 bc e0 b1 00 ba 2a 45 81 39
       -0.021896359 -0.016149027 -0.0004909318 0.0002465633
0001a0 ac 0c e3 3a 6d f4 af bc 38 4c 7d 32 08 5a 42 b6
       0.0017322502 -0.021478856 1.4743868e-08 -2.8960658e-06
0001b0 aa 1c 8f 39 fd fd 2b 3b 18 e8 23 b9 97 1d 3a bc
       0.00027296442 0.0026243918 -0.00015631353 -0.011359594
0001c0 ce 14 9d bb 24 cb 93 bb d6 7a e3 bc a1 65 02 3c
       -0.00479374 -0.0045103002 -0.027768534 0.0079588005
0001d0 4c 6e 67 bc b0 d0 be b6 56 8c d8 3b 14 99 ae bb
       -0.014125418 -5.6867357e-06 0.006608526 -0.005328307
0001e0 20 b4 44 3c 68 bb 02 ba ac 4c c5 3a f6 e5 7e b8
       0.012005836 -0.0004987032 0.0015052757 -6.0772487e-05
0001f0 ea e3 fc bc f3 2e 7c bc 7d 03 a2 bc 5e a4 e8 bb
       -0.030870397 -0.015392053 -0.019777054 -0.007099672
000200 31 10 69 bb 2e 26 12 bb 47 8a 9d bc 3e 7c 2a bd
       -0.003556263 -0.002230059 -0.019230975 -0.041622393
000210 50 cd 2b bc 0f a7 dd 3b e6 43 1b b9 f9 89 cd bc
       -0.010485962 0.0067642997 -0.00014807246 -0.025090205
000220 7e da 00 bd dc 95 5b 36 23 2a bf bc 8e 5d 0b bc
       -0.03145837 3.2720773e-06 -0.023335522 -0.008506192
000230 0f af 8c 3b f0 2d 71 bc 61 ab c1 bc 5d 0c e0 bc
       0.0042933295 -0.014720425 -0.02364129 -0.027349645
000240 8c 98 ec bb e6 f5 75 3b 22 41 fa 3b 1b 5d 37 37
       -0.0072203334 0.00375306 0.007637159 1.0929328e-05
000250 0e 7d 9a 3b 06 34 7f bb 35 9d 54 bb bb 51 b7 3b
       0.0047146147 -0.003894092 -0.0032442336 0.00559446
000260 4a 71 31 33 33 84 33 b8 39 af 71 bc 3a ca 02 90
       4.131406e-08 -4.2800046e-05 -0.014751249 -2.579377e-29
000270 f2 e0 16 3c f4 ec 63 b5 88 19 b7 bc a1 f7 bb bc
       0.009208905 -8.49089e-07 -0.022351041 -0.022945227
000280 70 b8 d2 3b 48 d1 37 bc d8 85 25 3b 12 92 c2 3b
       0.006430678 -0.01121933 0.002525678 0.005937823
000290 c5 4d 63 bd 4a 70 f0 bc 16 95 9a bc 46 65 69 bc
       -0.05549409 -0.029350419 -0.018869918 -0.014245337
0002a0 80 6f be b6 a2 ad b4 bb 90 02 14 bd 82 9f ee 31
       -5.6754216e-06 -0.0055138627 -0.036135256 6.9448456e-09
0002b0 ca e7 c0 36 42 aa 28 bc 72 dd bf bb 68 e9 52 bc
       5.7490297e-06 -0.010294499 -0.0058552558 -0.012873031
0002c0 97 e7 47 bc d7 02 c0 bb ed 22 c9 bc ed e7 6d bc
       -0.012201211 -0.0058597135 -0.024552787 -0.014520627
0002d0 00 09 3f 3c 16 59 8f bc 5a 0a 7b b5 d1 56 d4 3b
       0.011659861 -0.017498534 -9.351985e-07 0.006480076
0002e0 13 06 8a bc 85 29 c9 3b e6 3f bb bb 62 03 18 35
       -0.0168486 0.0061389827 -0.0057144044 5.6629335e-07
0002f0 aa 4e 6a b7 bf 3a 90 bc 30 b4 0f bc 88 60 08 bd
       -1.3965802e-05 -0.017606137 -0.008770987 -0.033295184
000300 1b 6b 6c bc ce 1c 95 bc 6c c2 a0 bc 25 62 16 bc
       -0.014429833 -0.018202212 -0.019623958 -0.009178673
000310 ca 8f 1f bd 66 d8 ea bc a8 c7 e9 39 b8 25 75 b7
       -0.038955487 -0.02866764 0.0004458998 -1.461192e-05
000320 9b fb 21 bc f2 e8 98 bb c0 49 b9 33 3d 98 e6 bb
       -0.009886648 -0.004666441 8.628149e-08 -0.007037191
000330 7d 18 c4 bb d0 4e 19 3b 78 79 23 bc 84 ac 2f bc
       -0.0059843645 0.0023392923 -0.009977691 -0.010722283
000340 15 6b 44 bc 2d 4b 86 b8 70 6c 35 3a 2b a6 85 3a
       -0.011988421 -6.4036205e-05 0.00069207605 0.0010196617
000350 aa 92 15 b7 3a 4c 11 bc ba ff b5 ba 0c 0f c6 b9
       -8.91524e-06 -0.0088682715 -0.0013885417 -0.00037776714
000360 0a 20 45 3a 40 bb 6f 34 76 91 0d 37 e9 be c9 38
       0.0007519728 2.232673e-07 8.438123e-06 9.619987e-05
000370 b2 5f 0b 3a a2 24 17 bc 80 20 15 b5 93 dd 27 bd
       0.0005316689 -0.009225043 -5.555412e-07 -0.040982794
000380 16 91 ea ba 20 12 c3 39 c3 a3 2f bb 9d 75 bb bb
       -0.0017896022 0.00037206803 -0.002680049 -0.0057208077
000390 e3 30 03 3c aa 7f 28 bd 4b e4 8e bc 6c c8 93 bc
       0.008007261 -0.041137375 -0.017442843 -0.018039905
0003a0 76 36 b0 bc 74 85 b4 37 d0 26 e2 b8 13 9d 6a bc
       -0.021510344 2.1519816e-05 -0.00010783749 -0.014319676
0003b0 e8 cc a1 b5 18 0d da 35 d4 c2 8a b6 02 1f 8c bb
       -1.205507e-06 1.6246076e-06 -4.1354015e-06 -0.0042761574
0003c0 8d 54 39 bb 0a 2e 94 bb 41 5a b8 ba 66 14 aa bb
       -0.0028279156 -0.00452209 -0.0014064984 -0.00519042
0003d0 34 fb a1 bc 8e 64 bc b9 8e 35 5b bc 28 00 19 b5
       -0.019773103 -0.00035933073 -0.013379468 -5.699717e-07
0003e0 76 78 91 39 35 f7 8b bc a6 39 8a bb f2 a8 f0 bb
       0.00027746306 -0.017085651 -0.004218298 -0.0073443586
0003f0 da 4f d0 31 0e 2a 97 b7 4e e6 12 bd d5 51 04 bc
       6.062675e-09 -1.8020186e-05 -0.035864167 -0.008076151

lstm.weight_hh f4 [512, 128]
000000 84 7e 2b bc 04 5b f0 bb f0 bb 7f b9 aa 41 4a 3b
       -0.010467175 -0.0073350687 -0.00024388707 0.0030861893
000010 b0 dc 85 3c 3c e1 14 bc f3 b3 50 bb 05 5f 3f 3b
       0.016340584 -0.009086903 -0.003184554 0.0029200923
000020 3e 0a 3f bb 06 e3 21 bc 28 48 9f ba c7 28 37 bc
       -0.0029150392 -0.009880787 -0.0012152242 -0.011179156
000030 ea ca 87 3c d7 7c 41 bc b4 f3 8b bb 75 7b 2b 3c
       0.01657625 -0.011809549 -0.004270995 0.010466446
000040 49 47 66 3b ca 2e 4b 3b 73 94 a7 3b 58 21 22 3c
       0.0035137704 0.003100323 0.005114132 0.009895645
000050 38 9d 66 ba e0 9f 2c bc 18 ea 3f ba be 35 b4 ba
       -0.0008797231 -0.010536164 -0.00073209545 -0.0013748927
000060 40 04 92 bb 33 44 a4 3b 0e 8f 4e bb f6 ad b2 bb
       -0.004456073 0.005013013 -0.0031518373 -0.0054528667
000070 a2 02 0b 3b 83 aa 90 3b d0 1a c7 3b 0e 2e 6c 3b
       0.0021211286 0.004414858 0.0060761943 0.0036038193
000080 d4 06 ee 3b d4 36 8c 3b 29 1a 17 3c 54 fd f7 3a
       0.0072639976 0.004278997 0.009222546 0.0018920102
000090 ce 6c f8 3b b8 90 6a ba f1 84 b1 3c ba 26 b5 bb
       0.00758133 -0.00089479564 0.021669837 -0.005528298
0000a0 0b 02 d2 bb f1 d3 c3 bb 03 82 06 bd 25 38 25 3c
       -0.006408935 -0.005976193 -0.032838833 0.010084187
0000b0 8a bf 93 3b 26 03 ba 3b 7e ce a6 3b aa ec 6f bb
       0.004508917 0.005676645 0.0050905338 -0.0036609569
0000c0 90 0e e1 bb 40 2e 0a ba 5d 3d 11 3c 78 b7 0e bc
       -0.006868191 -0.0005271174 0.008864728 -0.008710735
0000d0 b9 91 ea ba 03 f9 49 3c 5c 7e d0 3b b8 40 1b bc
       -0.0017896212 0.012327435 0.0063627195 -0.009475879
0000e0 74 fb 25 3c 5c 53 d0 3a 10 c1 c1 b9 8e ff 3a bb
       0.010130752 0.0015893984 -0.0003695567 -0.002853367
0000f0 0a 08 d2 ba d4 6d ac bb 04 96 bb ba 46 cb 13 bb
       -0.0016024124 -0.005262116 -0.0014311676 -0.002255158
000100 40 75 17 b9 dd bc da ba a4 31 9e ba d6 45 90 3a
       -0.00014444161 -0.0016688366 -0.0012069237 0.0011007141
000110 fa 57 75 ba c0 8d 09 bc 95 ee 95 3b f0 58 c1 39
       -0.0009359118 -0.008395612 0.0045755603 0.00036878092
000120 91 c5 35 bc a7 74 06 3c c0 ea 9a 3b d8 ed 68 3b
       -0.011094467 0.008206523 0.0047276914 0.0035542157
000130 e4 a6 03 bb 95 8c 1c 3c d0 d3 28 3d 82 87 02 bc
       -0.0020088488 0.009555002 0.041217625 -0.007966878
000140 b2 32 02 3c 2b 9b 70 bb fe b0 ed 3a 16 95 81 3b
       0.007946657 -0.003671358 0.0018134413 0.00395454
000150 1a 2a bf 3b 24 70 af bc 70 d2 68 39 25 76 d1 3a
       0.0058338763 -0.021415778 0.00022203638 0.0015980644
000160 75 77 8e bb d1 d4 a0 bb ef f3 7e 3b ee 15 2a bc
       -0.0043477365 -0.004908182 0.003890272 -0.010381205
000170 8c 22 1c 3a f9 16 d7 bb 22 b2 d5 3a 05 4e 2b 3c
       0.00059560756 -0.006564018 0.0016303698 0.010455613
000180 78 34 04 3c 40 a2 23 39 d4 f5 64 3a 47 8e 68 bb
       0.00806915 0.00015605334 0.0008734141 -0.0035485195
000190 56 5c 66 3a 22 87 e9 3a 40 9d 11 ba 65 0d e5 3b
       0.0008787563 0.0017816762 -0.0005554743 0.006990122
0001a0 9e 61 00 3c dd 8f c0 b9 5e 9f 4f bc 54 6e c7 3c
       0.007835774 -0.0003672828 -0.012672273 0.0243446
0001b0 00 9d f8 38 f7 00 2b 3a 28 0e cd b9 5a 79 ce bb
       0.00011854805 0.0006523276 -0.00039111194 -0.0063010873
0001c0 60 9e 90 3b 8c 01 e6 b9 88 ff 64 3a 6a eb 09 3c
       0.004413411 -0.0004387017 0.0008735587 0.0084179435
0001d0 70 b2 6b bb 09 70 68 bb bc 68 dc 39 1e 38 1e ba
       -0.0035964511 -0.0035467169 0.00042039703 -0.0006035584
0001e0 70 f3 3e ba d4 2f 33 bc 14 4b dc 3b fc 1a 6b 3a
       -0.00072842 -0.010936696 0.006722817 0.00089685596
0001f0 86 5c 0f 3c 2a c3 9a 3b 20 e4 09 b9 5c 3c a0 bb
       0.008750087 0.0047229724 -0.00013150321 -0.004890008
000200 a5 d6 d9 bb b5 d6 ba bb c0 fd 29 38 1e 52 d6 39
       -0.006647902 -0.0057018646 4.0529063e-05 0.00040878443
000210 8f be 08 bc 80 7b 5f b8 ba 49 14 bb da f5 4e 3b
       -0.008346214 -5.328236e-05 -0.0022626952 0.0031579644
000220 74 19 37 ba 5e 89 13 bb c1 42 af 3b 62 a8 0f bc
       -0.0006984689 -0.0022512297 0.005348534 -0.008768173
000230 3a 90 42 3c 48 bb 21 bc 30 dd d6 3a 7e 0a 4f 3b
       0.011875207 -0.0098713115 0.0016392823 0.0031591947
000240 50 b8 63 bb ef b6 33 3b 2c 9c b7 3a f7 8d 8a 3b
       -0.003474731 0.002742227 0.0014008335 0.0042283493
000250 58 b1 83 3b f4 af 42 bb f0 7c 94 ba 42 ca 74 bb
       0.0040189438 -0.0029706927 -0.0011328738 -0.0037352
000260 71 ce c4 ba 1e 38 05 3b d0 a2 a5 37 3b 32 94 3a
       -0.0015015138 0.0020327638 1.9745348e-05 0.0011306474
000270 3c af 2f 3c aa a3 23 3a 3b 7b 5f 3b 2c 94 11 3a
       0.0107229315 0.00062423444 0.003410055 0.00055533904
000280 5e c9 44 3b 7a 8b 97 3a 4e 04 2f bb 90 88 09 bb
       0.003002725 0.0011561953 -0.0026705447 -0.0020985939
000290 d8 ce f5 3a 86 72 37 bb d6 8a 41 3a 26 01 1f bb
       0.0018753661 -0.0027991845 0.0007383054 -0.002426216
0002a0 c1 7f 83 3a d8 01 ac 39 92 19 0d bc 96 54 4a bc
       0.001003258 0.0003280777 -0.0086120535 -0.012349268
0002b0 a6 34 ca 3a f6 c5 42 ba 92 ce 3f 3b ce c7 18 bb
       0.0015427067 -0.0007430011 0.0029267413 -0.0023312452
0002c0 13 2f 19 3b 49 3a 34 3b 22 5a 01 3b 32 70 b2 ba
       0.0023374006 0.002750056 0.0019737561 -0.0013613759
0002d0 ca c1 5a 3b c3 d7 c1 ba 39 34 ee ba b8 1d 59 bb
       0.0033379667 -0.0014789033 -0.0018173523 -0.0033129286
0002e0 5e 91 0e bb 20 cc 46 bb 79 1b 05 bb 52 46 45 bc
       -0.0021754126 -0.003033407 -0.0020310564 -0.012040691
0002f0 70 98 95 3b c4 81 fb bb 59 7e 50 bb 30 64 7d b9
       0.004565291 -0.0076753814 -0.003181359 -0.00024165283
000300 a4 e7 83 3a 02 bf 85 ba 8d e1 b1 3a ab a6 b3 3a
       0.0010063541 -0.001020402 0.0013571248 0.0013706287
000310 5d 5e 9a 3b 2a 0e 98 3a 16 44 0c ba c7 df 97 3a
       0.004710956 0.0011600901 -0.0005350722 0.0011587077
000320 50 7b 46 3b 38 fe fa 39 cc 56 b0 3b 8f a6 2f 3a
       0.0030285902 0.00047873124 0.0053814407 0.00067005394
000330 9e 08 c0 bb fe 40 12 3b 40 5c 5b 3c 86 dd 41 ba
       -0.0058604022 0.002231657 0.013388693 -0.0007395375
000340 87 d9 19 3c f0 b6 13 bb fb e8 31 bb 6d 41 84 3a
       0.0093902415 -0.002253946 -0.0027146924 0.0010090299
000350 c0 99 f8 b7 95 83 2f bb ef 0f c4 ba 50 aa 87 3a
       -2.96355e-05 -0.002678131 -0.0014958362 0.001035044
000360 4a 7f be 3a b9 a9 0c 3a 7c ad 3f ba 9a ba f3 3a
       0.0014533785 0.0005365867 -0.0007311923 0.001859504
000370 68 3e 48 bb 0a 19 c1 ba df 9a c4 3a a2 1d 16 3a
       -0.0030554775 -0.0014732194 0.0014999768 0.00057264615
000380 0a 36 85 3b 9f d3 45 3b d2 d5 35 ba 90 0f 99 3b
       0.00406528 0.003018595 -0.0006936464 0.0046710446
000390 73 a7 cf 3a 3f f1 35 bb da c1 af 3b 5e 01 01 3a
       0.001584275 -0.0027762202 0.005363685 0.0004921163
0003a0 df 88 94 3b 18 13 c5 bb f6 32 21 bb 62 4e c3 3b
       0.004532918 -0.006014239 -0.0024597025 0.0059602717
0003b0 dd 25 33 bb 6f 47 98 ba 41 ce 9a 3a 32 da ca 3b
       -0.00273358 -0.0011617969 0.0011810736 0.0061905617
0003c0 f9 27 11 3c 0e 43 ad 3a b2 36 7a 3b 94 b5 29 3b
       0.008859628 0.0013218836 0.0038179574 0.0025895583
0003d0 74 6f e1 ba 8b 6e 8c 3a ac 7e 73 3b 6b 97 de ba
       -0.0017199353 0.0010714097 0.003715436 -0.0016982382
0003e0 7d c1 95 3a 33 22 c7 3b 12 be e4 3b 91 a7 91 ba
       0.0011425462 0.006077075 0.006980666 -0.0011112561
0003f0 aa fc b8 bb c3 ad 4a 3b cd dd 1a bb 6f f8 1e bb
       -0.0056453543 0.0030926324 -0.0023630739 -0.0024256965

lstm.bias_ih f4 [512]
000000 fd b9 0b be 76 29 b0 bd 96 ce c2 bd 92 e0 c5 bd
       -0.13645168 -0.08601658 -0.095120594 -0.09661974
000010 e7 5b 45 be 43 b3 73 3e 22 7c d2 bd 1b b5 b0 bd
       -0.19273339 0.23798852 -0.10277583 -0.08628293
000020 86 d3 d5 bd e3 1c c8 bd b9 bd b5 bd 1f ae 0d bd
       -0.104407355 -0.09771135 -0.08874077 -0.034589883
000030 dc bb 41 3e bd 8b 0b be cf 21 de bd 4d d7 ba bd
       0.18919319 -0.13627525 -0.10846292 -0.091230966
000040 a8 25 f2 bd 0e 71 d0 bd 69 cb a2 bd 67 e1 94 bd
       -0.118235886 -0.101778135 -0.07948954 -0.072695546
000050 56 22 bd bd de e2 b5 bd e1 a6 d4 bd 2e e2 bd bd
       -0.09235065 -0.08881162 -0.10383392 -0.09271656
000060 fd e0 e3 bd 68 cc c0 bd 52 90 d4 bd d2 ba c2 bd
       -0.111268975 -0.094139874 -0.103790894 -0.095082894
000070 fa ff ea bc 7a 5f b7 bd 81 22 36 bd 06 78 c2 bd
       -0.028686512 -0.089537576 -0.0444665 -0.09495549
000080 bf 73 d2 bd ef 23 c9 bd 0b ad 8d bd 55 7a e7 bd
       -0.10275983 -0.09821307 -0.06917771 -0.1130263
000090 f7 c4 dd bd 4e 65 d2 bd 03 df 9c 3e 9a 29 b3 bd
       -0.10828584 -0.102732286 0.30638894 -0.08748169
0000a0 2b 8d d2 bd 0b d0 b1 bd 75 6e ef 3e 1c 49 33 3d
       -0.10280832 -0.08682259 0.4676396 0.043770894
0000b0 bf 5a b7 bd 5c c3 d4 bd c9 0e a2 bd 1a 81 f4 bd
       -0.08952855 -0.10388824 -0.07912976 -0.11938687
0000c0 ed a4 7b bd 4c d4 d4 bd fe ea c8 bd de a7 cb bd
       -0.061436582 -0.10392055 -0.09810446 -0.099441275
0000d0 ba 53 d3 bd 68 eb c4 bd c2 28 ca bd 39 91 d1 bd
       -0.10318704 -0.09615213 -0.09871055 -0.10232777
0000e0 fc a3 b4 bd 3a 64 0d be db ee e3 bd e0 1d 01 be
       -0.0882034 -0.13807765 -0.111295424 -0.12609053
0000f0 7e 16 c0 bd 5e 6a 86 bd ff 1b f3 bd 4b db e3 bd
       -0.0937929 -0.06563257 -0.11870574 -0.11125811
000100 89 7b 09 be 9a 3f f5 bd fe 8a bf bd 8e 1b cf bd
       -0.13426031 -0.11975022 -0.093526825 -0.101126775
000110 fb c8 d9 bd c6 1d e8 bd f9 0c b4 bd 56 f1 b0 bd
       -0.10634037 -0.11333804 -0.08791537 -0.08639781
000120 1d e5 b5 bd ed dd e0 bd f1 bd d5 bd 0d 76 d4 bd
       -0.088815905 -0.10979829 -0.10436619 -0.10374079
000130 e2 15 ea bd 01 9b c3 bd 61 df 0c 3f 34 e1 d5 bd
       -0.11429955 -0.09551049 0.5502835 -0.10443345
000140 8b 50 58 be f0 2d cf bd 1a c8 c9 bd 51 f1 db bd
       -0.21124475 -0.10116184 -0.098526195 -0.10739387
000150 3a 37 b6 bd 52 2e f6 3e eb 3a b5 bd 96 54 3c be
       -0.088972524 0.48082215 -0.08849128 -0.18391642
000160 66 ea b8 bd 25 8b f7 bd 79 07 9c bd 5c 09 d2 bd
       -0.09029083 -0.120870866 -0.07618613 -0.102556914
000170 10 ab 71 be dd 55 e8 bd a7 93 af bd 3e 15 b8 bd
       -0.23600411 -0.11344502 -0.08573084 -0.089884266
000180 e9 69 be bd 23 fc b2 bd 71 e7 d7 bd d6 41 28 be
       -0.092975445 -0.087394975 -0.10542191 -0.16431364
000190 32 c8 cc bd 36 22 cc bd 50 24 df bd 4b 8e c0 bd
       -0.09999122 -0.09967463 -0.10895598 -0.0940214
0001a0 aa 37 a7 bd 6d a3 e0 bd a7 67 b6 bd c1 02 df 3e
       -0.08164914 -0.10968671 -0.08906489 0.4355679
0001b0 2b c9 cf bd af d6 b0 bd c4 9f d3 bd 34 e5 ba bd
       -0.101457916 -0.08634698 -0.10333207 -0.09125748
0001c0 46 de 38 be 7b 20 d3 bd c9 ad 0d be 33 2c b3 bd
       -0.1805354 -0.103089295 -0.13835825 -0.08748665
0001d0 1e bd af bc 92 75 b9 bd 30 f7 e9 bd 16 e3 d9 bd
       -0.021452483 -0.09055628 -0.114241004 -0.10639016
0001e0 fb 73 28 be b2 ef 9a bd 42 c5 d5 bd 45 f6 c8 bd
       -0.16450493 -0.075652495 -0.104380146 -0.09812597
0001f0 46 ca c6 bd 0d 94 a6 bd 56 f5 d5 bd b7 f7 dd bd
       -0.09706549 -0.08133707 -0.10447185 -0.108382635
000200 fd 32 de bd e4 ee 4b bd b0 5f 81 bd 5b 24 79 bd
       -0.10849569 -0.04978837 -0.06317079 -0.060825687
000210 5d 43 28 bd 70 ae d3 bd a2 2e 93 bd be 2a 6d bd
       -0.041079868 -0.10336006 -0.07186629 -0.05790209
000220 10 c0 aa bd 01 fb 83 bd fa a5 47 bd 25 2d fa bd
       -0.08337414 -0.064443596 -0.048742272 -0.12215642
000230 2b ba 51 bc af bc 9d bd 6b be b9 bd df 6e 80 bd
       -0.012800734 -0.07702004 -0.090695225 -0.06271147
000240 d4 02 06 bf 88 31 8b bd 84 f0 63 bd 31 49 c9 be
       -0.52348065 -0.06796557 -0.055649295 -0.39313653
000250 b2 6b 6e bd 08 09 8a bd 47 52 ad bd 6c f4 95 bd
       -0.058208175 -0.06740004 -0.08462959 -0.073220104
000260 bc dd 8d bd 67 54 65 be ea 8c b2 bd 6d 98 91 bd
       -0.06927058 -0.22395478 -0.087182835 -0.07109151
000270 36 e3 02 be 89 25 76 bd 3a 22 b5 bd 74 fe 8a bd
       -0.12781987 -0.06009439 -0.08844419 -0.06786814
000280 d0 1a 77 bd b2 5e 82 bd 73 15 51 be 25 dd af bd
       -0.060328305 -0.06365718 -0.20418338 -0.08587102
000290 fb 05 9b bd 67 66 81 bd c0 5f 78 bd 42 b2 74 bd
       -0.075695 -0.0631836 -0.06063819 -0.059740312
0002a0 a6 fa 86 bd 23 33 7a bd 03 df 81 3e 41 e5 ee bd
       -0.06590776 -0.061083924 0.25365457 -0.116648205
0002b0 18 8c 7e bd ce 97 7a bd f1 e0 81 bd 10 78 99 bd
       -0.062145323 -0.06117993 -0.06341732 -0.07493603
0002c0 c9 69 79 be ce ad 5e bd 34 b2 8b bd cc d4 8c bd
       -0.2435676 -0.05436497 -0.06821099 -0.06876525
0002d0 9b 97 69 bd 68 cf 82 bd 35 9d 92 bd ce fc 8b bd
       -0.057029348 -0.06387216 -0.07158891 -0.06835328
0002e0 30 f8 82 bd bb 40 73 bd 60 8d 9b bd c9 00 a9 be
       -0.06394994 -0.059387904 -0.075953245 -0.33008412
0002f0 7d b4 87 bd f3 87 22 be 59 83 8d be 1a 29 95 bd
       -0.06626222 -0.15872173 -0.27639273 -0.0728323
000300 c9 de 74 be 8e c8 73 bd 55 6e 5c bd 0f 0c 5f bd
       -0.23913111 -0.059517436 -0.05381616 -0.05445486
000310 d5 83 84 bd 9e 82 cb bd 49 11 98 bd 27 67 44 bd
       -0.064704575 -0.099370226 -0.07425172 -0.047949936
000320 a7 ba b7 bd 3d a2 8f bd 6d 73 67 bd 0d 88 84 bd
       -0.08971148 -0.07013366 -0.056506563 -0.06471262
000330 5a 17 99 bd f3 c4 8d bd dd b7 99 3e dc ac 8e bd
       -0.07475157 -0.06922331 0.3002309 -0.06966564
000340 11 3f ad be ff 1e 97 bd 4d d3 69 bd ac 0c 6c bd
       -0.33837178 -0.07378959 -0.057086278 -0.057629272
000350 dc 58 a8 bd 66 89 92 3e b5 ae 63 bd 32 50 e9 bd
       -0.082200736 0.28620452 -0.055586535 -0.11392249
000360 1f 86 71 bd a6 cc a6 bd 6f 50 80 bd a6 5a 9e bd
       -0.0589658 -0.08144502 -0.062653415 -0.077321336
000370 50 de 89 be f0 dc 8b bd 81 86 38 bd f6 57 82 bd
       -0.26927423 -0.0682925 -0.045050148 -0.063644335
000380 34 dc 6e bd ca d7 73 bd b8 24 3d bd 2a 67 f3 bd
       -0.05831547 -0.059531964 -0.046177596 -0.11884911
000390 2a 5c 81 bd fc a8 45 bd 49 79 7b bd de 46 74 bd
       -0.06316407 -0.04825686 -0.061394963 -0.059637897
0003a0 69 46 63 bd d1 12 a8 bd 61 73 83 bd b7 6c 59 3e
       -0.05548707 -0.08206714 -0.06418491 0.21232878
0003b0 79 71 4a be 74 da 58 bd b8 1e 8e bd a3 83 50 bd
       -0.19769849 -0.052942708 -0.06939453 -0.05090679
0003c0 f9 e9 9b be 96 87 69 bd 47 6a cb bd 1f 9e 61 bd
       -0.30451944 -0.05701407 -0.0993238 -0.055082437
0003d0 62 d5 01 be 35 ad 5a bd c5 be 9a bd ab 82 9e bd
       -0.12679055 -0.05338784 -0.07555918 -0.07739767
0003e0 37 6f 0e be 1c a5 92 bd e5 8e 8d bd 1e e9 8c bd
       -0.13909613 -0.07160398 -0.069120206 -0.06880401
0003f0 3a 67 6f be b9 08 78 bd 42 68 af bd 04 91 96 bd
       -0.23379222 -0.060555194 -0.085648075 -0.07351878

lstm.bias_hh f4 [512]
000000 ef f5 0b be 76 29 b0 bd 96 ce c2 bd 92 e0 c5 bd
       -0.13668035 -0.08601658 -0.095120594 -0.09661974
000010 52 86 4a be ef 6a 5b 3e 1c 7c d2 bd 1b b5 b0 bd
       -0.19777802 0.2142751 -0.10277578 -0.08628293
000020 82 d3 d5 bd d4 1c c8 bd b9 bd b5 bd 9b 88 f7 bc
       -0.104407325 -0.097711235 -0.08874077 -0.030216506
000030 11 af 50 3e 58 57 0a be c5 21 de bd 4d d7 ba bd
       0.20379283 -0.13509881 -0.10846285 -0.091230966
000040 e0 c0 e3 bd 0e 71 d0 bd 69 cb a2 bd a5 86 84 bd
       -0.11120772 -0.101778135 -0.07948954 -0.06470994
000050 71 22 bd bd de e2 b5 bd e1 a6 d4 bd 2c e2 bd bd
       -0.09235085 -0.08881162 -0.10383392 -0.092716545
000060 fd e0 e3 bd fe 87 c7 bd 52 90 d4 bd d2 ba c2 bd
       -0.111268975 -0.09742735 -0.103790894 -0.095082894
000070 c8 30 07 bd c4 5f b7 bd 04 89 07 bd 08 78 c2 bd
       -0.033005506 -0.08953813 -0.033089653 -0.094955504
000080 bf 73 d2 bd ed 23 c9 bd 95 c5 8d bd 63 7a e7 bd
       -0.10275983 -0.098213054 -0.069224514 -0.1130264
000090 f7 c4 dd bd 4c 65 d2 bd aa 4e a1 3e 9a 29 b3 bd
       -0.10828584 -0.10273227 0.31505328 -0.08748169
0000a0 2b 8d d2 bd 07 d0 b1 bd 6e 19 ef 3e 49 44 61 3d
       -0.10280832 -0.08682256 0.4669909 0.054996762
0000b0 bf 5a b7 bd 5c c3 d4 bd c9 0e a2 bd 1a 81 f4 bd
       -0.08952855 -0.10388824 -0.07912976 -0.11938687
0000c0 ec ac 8d bd 4c d4 d4 bd 00 eb c8 bd e1 a7 cb bd
       -0.06917748 -0.10392055 -0.09810448 -0.0994413
0000d0 aa 5d d3 bd 68 eb c4 bd c2 28 ca bd 39 91 d1 bd
       -0.103205994 -0.09615213 -0.09871055 -0.10232777
0000e0 fa a3 b4 bd 2d 1f 0d be db ee e3 bd 67 2c 01 be
       -0.088203385 -0.13781424 -0.111295424 -0.12614594
0000f0 91 16 c0 bd 47 c4 c5 bc 62 4e a9 bd 4b db e3 bd
       -0.09379304 -0.024141444 -0.082669035 -0.11125811
000100 ff cf e5 bd 9a 3f f5 bd fe 8a bf bd 8e 1b cf bd
       -0.11221313 -0.11975022 -0.093526825 -0.101126775
000110 fb c8 d9 bd fb 1d e8 bd 03 0d b4 bd 56 f1 b0 bd
       -0.10634037 -0.11333843 -0.08791544 -0.08639781
000120 4e b8 b5 bd f1 dd e0 bd f1 bd d5 bd 0d 76 d4 bd
       -0.08873044 -0.10979832 -0.10436619 -0.10374079
000130 f4 15 ea bd 87 9a c3 bd 90 d3 0c 3f 24 e1 d5 bd
       -0.114299685 -0.09550958 0.5501032 -0.10443333
000140 3c 0a 71 be f0 2d cf bd 1a c8 c9 bd 51 f1 db bd
       -0.2353906 -0.10116184 -0.098526195 -0.10739387
000150 3a 37 b6 bd c2 fc f7 3e eb 3a b5 bd d3 d9 3d be
       -0.088972524 0.48435026 -0.08849128 -0.18540125
000160 67 ea b8 bd 29 8b f7 bd 79 07 9c bd b8 fc d1 bd
       -0.09029084 -0.120870896 -0.07618613 -0.102532804
000170 dc b9 7e be dd 55 e8 bd a7 93 af bd 3e 15 b8 bd
       -0.24875587 -0.11344502 -0.08573084 -0.089884266
000180 e9 69 be bd 23 fc b2 bd 71 e7 d7 bd 49 67 2a be
       -0.092975445 -0.087394975 -0.10542191 -0.16640963
000190 32 c8 cc bd 36 22 cc bd d1 1f df bd 43 8e c0 bd
       -0.09999122 -0.09967463 -0.108947404 -0.09402134
0001a0 a6 37 a7 bd 3a a3 e0 bd a7 67 b6 bd 95 98 e3 3e
       -0.08164911 -0.10968633 -0.08906489 0.44452348
0001b0 22 b7 df bd af d6 b0 bd c4 9f d3 bd 34 e5 ba bd
       -0.10923602 -0.08634698 -0.10333207 -0.09125748
0001c0 77 7a 88 be 7b 20 d3 bd 7a ac 0d be 22 2c b3 bd
       -0.26655933 -0.103089295 -0.13835326 -0.08748652
0001d0 17 72 ad bc 09 94 b8 bd 2c f7 e9 bd 17 e3 d9 bd
       -0.021172566 -0.090126105 -0.114240974 -0.10639017
0001e0 52 6e 29 be b4 ef 9a bd 77 c5 d5 bd 69 f7 c8 bd
       -0.1654599 -0.07565251 -0.10438054 -0.09812815
0001f0 af 4f c9 bd 0d 94 a6 bd 51 f5 d5 bd b7 f7 dd bd
       -0.098296516 -0.08133707 -0.10447181 -0.108382635
000200 c8 30 de bd e4 ee 4b bd b0 5f 81 bd 5b 24 79 bd
       -0.10849148 -0.04978837 -0.06317079 -0.060825687
000210 a5 ad 0d bd 36 63 ea bd a2 2e 93 bd be 2a 6d bd
       -0.03458943 -0.11444704 -0.07186629 -0.05790209
000220 10 c0 aa bd 01 fb 83 bd fa a5 47 bd f7 9d fa bd
       -0.08337414 -0.064443596 -0.048742272 -0.12237161
000230 5e 17 e3 bb f8 be 9d bd 6b be b9 bd df 6e 80 bd
       -0.006930276 -0.0770244 -0.090695225 -0.06271147
000240 be 18 f1 be 88 31 8b bd 84 f0 63 bd 55 10 ea be
       -0.4708919 -0.06796557 -0.055649295 -0.45715585
000250 b2 6b 6e bd 08 09 8a bd 47 52 ad bd 6c f4 95 bd
       -0.058208175 -0.06740004 -0.08462959 -0.073220104
000260 bc dd 8d bd 8d 97 64 be ea 8c b2 bd 6d 98 91 bd
       -0.06927058 -0.22323437 -0.087182835 -0.07109151
000270 9b 9a 02 be 89 25 76 bd 64 98 af bd 74 fe 8a bd
       -0.1275429 -0.06009439 -0.08573988 -0.06786814
000280 d0 1a 77 bd b2 5e 82 bd 1f 37 51 be 25 dd af bd
       -0.060328305 -0.06365718 -0.20431183 -0.08587102
000290 fb 05 9b bd 67 66 81 bd 71 e0 a7 bd 42 b2 74 bd
       -0.075695 -0.0631836 -0.08197106 -0.059740312
0002a0 a6 fa 86 bd 23 33 7a bd 53 9c 81 3e 69 32 c5 bd
       -0.06590776 -0.061083924 0.25314578 -0.096287556
0002b0 18 8c 7e bd ce 97 7a bd f1 e0 81 bd 10 78 99 bd
       -0.062145323 -0.06117993 -0.06341732 -0.07493603
0002c0 cb e8 78 be ce ad 5e bd 34 b2 8b bd cc d4 8c bd
       -0.24307553 -0.05436497 -0.06821099 -0.06876525
0002d0 82 97 69 bd 68 cf 82 bd 35 9d 92 bd ce fc 8b bd
       -0.057029255 -0.06387216 -0.07158891 -0.06835328
0002e0 30 f8 82 bd a8 3d 73 bd 60 8d 9b bd 51 c4 a7 be
       -0.06394994 -0.05938497 -0.075953245 -0.32766965
0002f0 7d b4 87 bd f5 98 21 be 48 e5 92 be 1a 29 95 bd
       -0.06626222 -0.15781005 -0.28690553 -0.0728323
000300 64 95 73 be 8e c8 73 bd 55 6e 5c bd 0f 0c 5f bd
       -0.23787457 -0.059517436 -0.05381616 -0.05445486
000310 d5 83 84 bd 9e 82 cb bd 49 11 98 bd 27 67 44 bd
       -0.064704575 -0.099370226 -0.07425172 -0.047949936
000320 9a ba b7 bd 3d a2 8f bd 6d 73 67 bd 0d 88 84 bd
       -0.08971138 -0.07013366 -0.056506563 -0.06471262
000330 5a 17 99 bd f3 c4 8d bd 34 0b 9a 3e dc ac 8e bd
       -0.07475157 -0.06922331 0.30086672 -0.06966564
000340 e9 de a2 be ff 1e 97 bd 4d d3 69 bd ac 0c 6c bd
       -0.31810692 -0.07378959 -0.057086278 -0.057629272
000350 dc 58 a8 bd f8 c4 90 3e b5 ae 63 bd dc 31 e9 bd
       -0.082200736 0.28275275 -0.055586535 -0.11386463
000360 1f 86 71 bd a6 cc a6 bd 6f 50 80 bd a8 5a 9e bd
       -0.0589658 -0.08144502 -0.062653415 -0.07732135
000370 d2 33 85 be f0 dc 8b bd 81 86 38 bd f6 57 82 bd
       -0.26016098 -0.0682925 -0.045050148 -0.063644335
000380 34 dc 6e bd ca d7 73 bd b8 24 3d bd fa 6b f3 bd
       -0.05831547 -0.059531964 -0.046177596 -0.11885829
000390 2a 5c 81 bd fc a8 45 bd 49 79 7b bd de 46 74 bd
       -0.06316407 -0.04825686 -0.061394963 -0.059637897
0003a0 69 46 63 bd d1 12 a8 bd 61 73 83 bd fd 47 62 3e
       -0.05548707 -0.08206714 -0.06418491 0.22097774
0003b0 b2 2a 55 be 74 da 58 bd b8 1e 8e bd a3 83 50 bd
       -0.20817068 -0.052942708 -0.06939453 -0.05090679
0003c0 4b 39 a2 be 96 87 69 bd 37 6a cb bd 1f 9e 61 bd
       -0.31684336 -0.05701407 -0.09932368 -0.055082437
0003d0 36 d3 01 be c0 ac 5a bd c5 be 9a bd ab 82 9e bd
       -0.12678227 -0.053387403 -0.07555918 -0.07739767
0003e0 67 7a 0e be 1c a5 92 bd e5 8e 8d bd 1e e9 8c bd
       -0.1391388 -0.07160398 -0.069120206 -0.06880401
0003f0 14 38 6e be b9 08 78 bd 42 68 af bd 04 91 96 bd
       -0.2326358 -0.060555194 -0.085648075 -0.07351878

output_w.weight f4 [5, 128]
000000 2a a9 7c bc e2 80 8f 3b 74 e6 aa 3a 8c 69 35 3b
       -0.015421191 0.0043793777 0.0013038651 0.002768132
000010 1c c5 97 bc 9f 13 d2 bc 02 35 5a 3a c4 b0 09 3c
       -0.018526606 -0.025644122 0.0008323939 0.008403961
000020 5e 2c 8d 3b 25 bc 1b 3b 46 89 5c bc e2 fe 0f bd
       0.0043082675 0.0023763266 -0.013460463 -0.035155185
000030 fe ac d6 bc 92 c1 ae 3b 00 c5 67 bb 30 98 46 3a
       -0.026205536 0.005333134 -0.0035365224 0.0007575778
000040 ea 5d b7 be 6b ee 8c 3a 9f 86 ff bb 1c 76 50 3e
       -0.35813838 0.0010752206 -0.0077980305 0.20357555
000050 1c 2b c5 3b 3e 25 e0 3b 0b 97 cc bb 14 b5 9a bb
       0.006017102 0.006840377 -0.0062435917 -0.004721293
000060 d1 e7 f8 3a 8a 05 39 3d 36 ad 17 bc 33 76 a5 bb
       0.0018989985 0.045171298 -0.009257605 -0.005049491
000070 e3 1d 9a bc 06 82 53 bb 5f a5 15 3d 7d c3 b4 ba
       -0.01881308 -0.0032273545 0.036534663 -0.001379117
000080 8a fc bf bb 86 aa 5f 3a 9d ae c0 3c b2 35 98 3a
       -0.0058589624 0.0008532185 0.023520762 0.0011612682
000090 4a bf ad bb 9a 04 d3 3b 0d 84 0e 3d f5 af 0f 3b
       -0.0053023444 0.0064397575 0.034793902 0.0021924947
0000a0 50 10 75 39 12 4e d5 bb 4d 5e 23 3c e6 ce 5f bd
       0.00023371098 -0.006509551 0.0099712135 -0.054640673
0000b0 24 bf 84 b9 3c e9 9e 3b 00 be 48 bb dc 5d 61 3a
       -0.00025319413 0.004849581 -0.0030630827 0.0008597055
0000c0 84 76 d5 bc 2e 0a 0f 3c 51 82 86 3b 07 ef bf 3b
       -0.02605749 0.008730454 0.0041048904 0.0058573517
0000d0 dc 97 46 3c 78 25 c9 3a 41 35 b1 3b 2a ff 65 bb
       0.012121167 0.001534625 0.0054079597 -0.0035094717
0000e0 79 9f cf 3b b3 f8 e7 bc c8 ab 50 bc 5b 62 90 3d
       0.0063361493 -0.028316831 -0.012736268 0.0705001
0000f0 a1 b9 a1 bb 56 fe 10 be 2f 3a df 3d 22 a2 94 3a
       -0.004935459 -0.14159521 0.108997695 0.0011339823
000100 04 d1 c0 bc 8d 37 11 bc 6d 58 a8 bb 44 33 1d bb
       -0.023537166 -0.008863342 -0.0051374943 -0.0023986856
000110 1f ad 9e ba c6 d9 4e bc 2d 9c 30 3c c2 53 0f 3c
       -0.0012106037 -0.012625163 0.010779423 0.008747997
000120 36 a1 1f bc 23 a7 d0 bb aa 72 99 bb 0b 94 66 bb
       -0.0097430255 -0.0063675805 -0.0046828585 -0.0035183455
000130 40 1e f0 b8 c3 d3 36 3b af c4 3a be be ea 3b ba
       -0.00011449726 0.0027897216 -0.18239091 -0.0007168463
000140 d0 3f 92 3e cf 86 18 3b 87 33 0e bc f2 dc 34 bb
       0.2856431 0.0023273712 -0.008679277 -0.0027597514
000150 18 2a f1 3b 10 85 26 3e 88 85 79 3b 97 4e 56 bd
       0.0073597543 0.16261697 0.0038073976 -0.052321043
000160 81 4e 06 bb 3d 48 df bb 60 7b bf ba 0e c7 69 bc
       -0.002049357 -0.0068140314 -0.0014608912 -0.01426865
000170 c5 52 98 bd 76 40 51 3a 9f 9e 9c bb 7a 63 00 bb
       -0.07437662 0.0007982323 -0.0047796513 -0.0019590543
000180 cf fd 10 3b eb ed 47 3b f6 8f 1e bb 1c e8 f4 3c
       0.0022123938 0.00305068 -0.0024194694 0.029895835
000190 bd a4 c8 3b b4 82 95 3b 59 0b fe 3b a0 99 bd 39
       0.006123154 0.0045627 0.0077528176 0.0003616335
0001a0 73 44 7c bb ab 1b 1a 3c b4 99 6a 3b 35 1e d3 3c
       -0.0038492947 0.009406011 0.003579718 0.02577124
0001b0 af c0 ec bd 7c cb 92 bb 8f a3 89 ba 7e 3b 75 3a
       -0.11560189 -0.0044798236 -0.0010501015 0.00093548733
0001c0 ff 37 f6 3d 58 55 11 bb 45 14 da bb 72 b9 37 3c
       0.12022399 -0.0022176113 -0.0066552483 0.011213647
0001d0 54 fd 8f 3b 7c 48 ea 3b ae e3 44 3a 57 7c 20 bb
       0.0043942127 0.007149754 0.00075107336 -0.0024488175
0001e0 ac de 8b bb 48 d3 a9 38 59 2f 71 3a 84 3b 0b 3c
       -0.004268488 8.097902e-05 0.0009200476 0.008498076
0001f0 aa ca 75 ba ba 97 0a bc ec 1a a4 39 c6 86 57 bb
       -0.00093762076 -0.008459026 0.00031300576 -0.0032886728
000200 77 93 e5 3c 3c b1 12 3c 4c 07 4d bb 40 d0 ae bb
       0.028024418 0.008953389 -0.0031284867 -0.005334884
000210 78 88 e6 bd 0b d4 9e bd bd 6d aa 3b 92 0e 32 bc
       -0.11256498 -0.07755288 0.00520107 -0.010867732
000220 04 99 cc 3b e5 fa 51 3c c2 06 40 bb 34 4d 25 3d
       0.006243827 0.012816166 -0.0029300903 0.04035683
000230 f8 0a d1 3c 90 28 de bc aa d6 a4 3b ef 87 ae bb
       0.025517926 -0.027118951 0.0050304728 -0.005326263
000240 9b bd 05 3f a7 80 40 bb 12 10 b5 3b 4f 05 d0 3e
       0.5224244 -0.0029373558 0.0055255974 0.4062905
000250 7d 6d b9 bc 04 df 9f 3a c7 45 47 3c 9b fd f0 b9
       -0.022635216 0.0012197201 0.012162632 -0.00045965318
000260 5f 83 23 bb 54 dc 42 bd 28 9b 21 3c 5f 8a 34 3a
       -0.002495013 -0.047573403 0.009863652 0.0006887074
000270 12 ea 21 bd 75 4b 50 ba 08 22 5b 3d 79 21 78 bb
       -0.039529867 -0.0007945814 0.05349925 -0.0037861748
000280 66 ef 7c 3b 81 ff 11 bc 3a 83 a9 b9 3c 1d ba 3a
       0.003859484 -0.008911015 -0.00032331963 0.0014199386
000290 57 f2 06 3c 17 70 f6 3b 9a 89 0e bd a8 48 9a 3b
       0.008236489 0.0075206864 -0.034799196 0.0047083683
0002a0 de 30 af ba c1 a3 5a 3c 50 c3 c3 3d 8a ff ce 3d
       -0.0013366004 0.013344706 0.09558737 0.10107334
0002b0 ec c6 48 ba ea 76 32 ba 2e cd ae 3b 69 84 06 3c
       -0.0007659036 -0.00068078807 0.005334518 0.00821028
0002c0 86 c5 6c 3c 5b 3a 22 ba 4a de 16 bc da 24 75 ba
       0.01445139 -0.0006188505 -0.009208271 -0.00093514996
0002d0 1b 30 6f bc 5b 89 85 bc b3 26 0b 3b 2b f9 e2 3a
       -0.014598872 -0.016300848 0.0021232783 0.001731669
0002e0 15 28 a7 bb a6 f9 84 3c c5 ce 58 ba 93 df ea bc
       -0.0051012137 0.016232323 -0.0008270557 -0.028671062
0002f0 94 53 39 3b 55 6b db bc b6 b4 20 bd c0 42 0e bb
       0.0028278576 -0.026784578 -0.03923484 -0.0021707267
000300 58 b4 de bd f4 1e a8 3a 6b 8d e0 bb 6d de 50 bb
       -0.108742416 0.0012826608 -0.006852796 -0.0031870857
000310 ae 5b bd ba c3 56 2c 3c b1 1f fe ba 7e 3c 55 3b
       -0.0014446878 0.0105187325 -0.0019388107 0.0032537277
000320 10 cf 91 bc 9c 48 2c 3c 89 bc f1 ba 00 98 89 bb
       -0.01779893 0.010515358 -0.0018443029 -0.004199028
000330 88 81 5a 3a f8 e9 0e 39 42 fe 07 bd 40 77 c3 3a
       0.00083353417 0.00013629335 -0.033201464 0.0014912859
000340 cc 51 f6 3d c2 37 93 bb f2 8b 29 3b 7b 0a 00 bb
       0.1202732 -0.004492731 0.0025870767 -0.0019537497
000350 e4 d3 15 bc 16 b8 83 bd c6 b2 55 ba a6 34 ba 3c
       -0.009144757 -0.06431596 -0.00081519445 0.022730183
000360 b0 55 9d b9 a0 28 10 3c 67 02 41 3c a9 1c 6b bb
       -0.00030009216 0.008798748 0.011780358 -0.0035875237
000370 33 2b 2c bc b0 9d d1 ba cc fe a1 3a db fc 0d 3b
       -0.010508346 -0.0015992429 0.001235926 0.0021665606
000380 a1 bf 82 bb 70 38 03 bb 0a bc 37 bb 8e 88 13 bd
       -0.003990129 -0.0020022653 -0.0028035664 -0.0360189
000390 9c 33 4e 3b bd a5 b3 3b d6 a2 f3 bc 26 19 51 3b
       0.0031463867 0.005482404 -0.029740732 0.0031905859
0003a0 d5 6a db 3b a1 43 b2 bb b1 9a 26 bc 1e ee c7 3d
       0.006696085 -0.005440191 -0.010168717 0.09762214
0003b0 58 27 19 ba 34 14 0c bb bb ee bb ba 29 f5 05 bc
       -0.00058423495 -0.0021374347 -0.0014338115 -0.0081761265
0003c0 06 84 bf 3d d2 67 a4 3a 14 46 8b 3b b0 7d 77 39
       0.09351353 0.0012543148 0.0042502973 0.00023602578
0003d0 f6 de dc bc 0e b3 d5 bb d8 b4 8a 3a 16 e4 d0 3b
       -0.026961785 -0.006521589 0.001058246 0.006374846
0003e0 1a 27 4c 3d 30 5f 3a 3b 75 b6 ca bb 40 d3 3b bc
       0.049841978 0.0028438084 -0.0061863014 -0.01146394
0003f0 c1 17 c5 3c 01 23 7e bb d0 3b dd 3a 6c d7 a3 3b
       0.024059178 -0.0038778188 0.0016878787 0.0050000455

output_w.bias f4 [5]
000000 b9 00 24 bd 12 01 5f 3d 7c ef 65 bf cf 98 6c bf
       -0.04003975 0.05444438 -0.8981855 -0.9242067
000010 da 89 f0 bd
       -0.11745043

square_avg f4 [64]
000000 0c f7 e8 3c 5c 93 c7 3d 2e ac 7b 3d 4c 78 cc 39
       0.028438114 0.097449034 0.0614435 0.0003899954
000010 73 cf f2 39 ad 16 34 3c a6 34 16 3c 97 b6 61 30
       0.000463124 0.010991734 0.009167826 8.2114e-10
000020 db 07 1d 3c 39 58 2f 3a 58 de 0b 3d ea cb 2d 3c
       0.009584392 0.00066888664 0.03414759 0.010607699
000030 f2 79 bb 3d bb 16 f7 3b f3 f6 1d 3b f6 62 f6 3b
       0.091541186 0.0075405515 0.0024103492 0.0075191213
000040 e4 b6 eb 3b f7 82 10 30 a0 9b 01 3c 5c ec 4f 3e
       0.007193433 5.2573007e-10 0.007910639 0.20305008
000050 93 13 43 3b 6b 8e d5 3c e4 f1 62 2e 52 97 27 35
       0.0029766306 0.026068887 5.1601293e-11 6.243255e-07
000060 bc 4d 46 3d 6f 2a a0 37 9b d9 12 3d e0 90 30 30
       0.048413977 1.9093246e-05 0.035852056 6.4234307e-10
000070 2e e5 ad 3d 42 40 00 3e 83 7d d4 3c 37 88 94 3b
       0.08490978 0.12524512 0.025938755 0.0045328396
000080 38 0f 59 3c b9 88 c9 3d 5d 17 a0 3d 3d c7 a4 3c
       0.013248257 0.09840531 0.07816956 0.020114535
000090 1b 50 8f 3d fe bb 04 3d bf fd d9 34 21 7c 5c 3c
       0.06997701 0.032405846 4.0604024e-07 0.013457329
0000a0 27 3f 9e 3c 8a ff f9 33 06 fd e8 39 0b 13 51 3c
       0.019317223 1.1641448e-07 0.00044439005 0.012760888
0000b0 5e a6 3a 3b 4e 25 a0 3a d4 50 52 3c 94 b0 29 3c
       0.002848051 0.0012218149 0.012836654 0.010357041
0000c0 41 f5 31 3a 0a d6 f4 3d 0c 65 84 38 04 37 ba 3c
       0.000678856 0.11954887 6.313072e-05 0.022731312
0000d0 26 7e 13 32 bb 72 7f 3b c5 e2 08 3d b2 d8 c9 3a
       8.585209e-09 0.0038978297 0.03341939 0.0015399663
0000e0 b4 33 af 3b 68 66 11 32 d3 be 66 31 c5 98 01 3d
       0.0053467397 8.463395e-09 3.3577876e-09 0.031639833
0000f0 ea f0 2e 3c bf 13 45 3c 1e 48 be 3b 57 ef 17 3c
       0.010677556 0.012028634 0.005806937 0.009273372

square_avg f4 [5]
000000 88 81 a0 40 d9 99 b1 40 66 18 54 3e 77 fd 02 3e
       5.015812 5.55003 0.20712432 0.12792002
000010 98 66 a7 3c
       0.020434663
