S-LSTM/Goal+Socail_Array_PyTorch/social_lstm/save/0/social_model_epoch_10.pth (torch, 815071 bytes, 22 tensors)

embedding_b f4 [64]
00000000: a4ae 86bd fa52 a73e e5fc 7f3e 1273 b6ba
00000010: 3732 243d 4d0c eabc ab41 bcbd ee66 3fbc
00000020: e7fb 30be b4d6 b0bb b9ab 313c 3f39 3abd
00000030: e57a 41be cf6a c5bd 96ab 74bc 30c2 94bc
00000040: 1c80 37af bee8 43bc 3fbd 24be a40e 72bd
00000050: 8f35 4ebc 0143 d7bc 93a8 35bc c531 423d
00000060: fe44 f0bc 7c6a a9b5 b5d7 dd3b 3772 293d
00000070: 795b b03e 3828 15be fe0f 8cbc 68b2 1e39
00000080: 5fd0 84bd a2bc 49bc bf31 633d f9b3 6cbd
00000090: e9ca 393e 1685 8e3d 9fdb 0fbd 2924 2dbe
000000a0: 4d1c 39bd d908 1b3d 768b 9eb6 12ff 22bc
000000b0: 98d2 89b2 4cef 4fbc f54e 983b 15e2 743d
000000c0: dd4c 12be 6e03 f33d baa4 1fbc aa0e 933d
000000d0: f6d3 57bc 27e7 ccb9 cd86 2c3d a4cc 26bd
000000e0: 7e0b a6bc b247 b1bb b436 7abc c7cb cc3d
000000f0: f39e 103e 5c75 183e d652 c9bd ce2c e0bc
-0.06576279 0.32680494 0.24998815 -0.0013919792 0.04008695 -0.028570319 -0.09192213 -0.011682255
-0.17283593 -0.0053966884 0.0108441645 -0.04546475 -0.18894537 -0.09639513 -0.014933487 -0.018159002
-1.6689267e-10 -0.0119573455 -0.16087817 -0.059095994 -0.012586012 -0.026277067 -0.0110875545 0.047410745
-0.029329773 -1.2622472e-06 0.006770099 0.04136869 0.34444788 -0.14566123 -0.01709747 0.00015134516
-0.06485056 -0.01231304 0.055467363 -0.057788823 0.1814381 0.06958978 -0.035121556 -0.16908325
-0.045193005 0.037850235 -4.7250023e-06 -0.009948509 -1.6044666e-08 -0.01269133 0.0046480843 0.05978592
-0.14287134 0.118658885 -0.009743864 0.07180531 -0.013173094 -0.00039082134 0.042120744 -0.040722504
-0.020269152 -0.005410158 -0.015271831 0.09999805 0.14123134 0.14888519 -0.09830253 -0.027365115

output_b f4 [5]
00000000: 5e6e 263d a9e3 f1bb 321b 56bf 12e4 4dbf
00000010: 211d 73bd
0.040632598 -0.0073818755 -0.83635247 -0.8042613 -0.05935395

embedding_w.weight f4 [64, 4]
00000000: a0f4 b53e eba4 37bf 2283 973c d6a7 613e
00000010: 9216 fe3d 4501 b13f 53e9 d6bd 57f0 b23e
00000020: 926d 94bf c5a2 44bf 7b62 28be ea08 5cbd
00000030: e005 4ab9 b57a 5837 bfef cfb7 30e0 1337
00000040: b5e6 eabd d5da a43c 908d 61bc e3e1 8c3d
00000050: 0080 143f 8818 1fbf ec75 9d3e 5e78 d33e
00000060: 1a24 103f 84d9 433f 3db0 293e 25e2 383c
00000070: fba5 cc3c 2bae 9bbb 97ac f03b c9dc 373c
00000080: f5f7 4d3e e10c 773e a6dc 943a fd74 8a3e
00000090: 3b42 80b1 90b1 48ab a4ba 12b8 5069 4619
000000a0: c4c2 06bf 000f 433f de5c 763e 324d abbe
000000b0: 8d1e 97be 6730 9e3d 2293 5cbe cf64 853d
000000c0: ba6c f53e 55a5 7fbe 5ac3 04bf 2cb1 ce3e
000000d0: 37b3 7d3f 735e a93d 770b 0c3e eb44 653e
000000e0: 84e4 743d e686 313d c4af 993d d2b4 683d
000000f0: 1e6d 0dbb 418d 9a3d 1b8d 4b3d e8ea 6f3d
00000100: 993c e198 71aa 8aa9 764e a826 cd66 6795
00000110: f1c2 55ba 237c 763b 8dc8 02bb c3ea d83b
00000120: 80d3 c03e cb00 04bf 19ac 8a3e 378b b7be
00000130: db90 643f e0d1 973e c0de 71bf d3af a2be
00000140: ff57 c93c 290a 8f3b a00c 283d 2482 003c
00000150: 13cc 2d3d c68d c93c f8e0 c93d 075f 65bd
00000160: 05b8 b0ba 0f6c fca3 2d34 17bc 560d f6ba
00000170: 66ca b33c 2173 a4bb 2231 3fbb f391 b7bd
00000180: e4c7 61be fb0c 363e 2c00 d23e db3f b83d
00000190: 20a0 2425 5a8f a925 b869 9526 3631 cd25
000001a0: 737f 63bf dd67 95bf 1e57 07bd 8b48 46bf
000001b0: 7865 46bd 7331 263c 51da 4cbd 9680 54bd
000001c0: 231f a3bf 57f2 4bbf 8c3f 5cbd 72bf 443d
000001d0: 69f6 bebe aa75 ebbe ec9a d33e 8d31 0c3f
000001e0: 5f20 f03d 5e35 e43d dd69 2e3e 89f4 eabd
000001f0: 244d 5dbf a821 7e3e 0f5f adbb f5ce 433e
00000200: 48a3 47bf ebcc 1d3f 1b88 31be 964f 31be
00000210: 1209 c43e 6b1a 943f 0aa3 afbd aff6 93be
00000220: 7290 b23f f2f7 83be b359 123e ae29 c33e
00000230: 1b0a 403f 9143 1f3f 9ab3 003c 9752 983e
00000240: 3b42 2dbf a23b a03f 0b38 a3bb 3510 003f
00000250: b34b a73f 05e2 7bbf d595 6a3e e762 f3be
00000260: e0fd 4d3c 1b92 22bd 469d d53c e2dc 623d
00000270: 80e7 b9bd d6a0 f13e 79c4 513e 6576 7fbd
00000280: 6447 a83f 3a98 ad3e 0861 f73c f582 8c3e
00000290: a8ef 97bc 8a5e c43c 75c1 33bd 42bb d9bc
000002a0: fed0 071e 6cf6 de9c f21d 211c 686e a0a5
000002b0: 4cea 38bd 6887 4e3d 8788 b73d 90c2 843d
000002c0: c738 339e 2d7f 0000 2939 1829 aa99 4f96
000002d0: 8489 0d3c 3ec5 5a3c 5f4f 463c a63f 563c
000002e0: 6ccf 653e 8ec5 823f dd82 7c3d a721 4d3c
000002f0: a4ea d3be c8b3 5b3f 2200 013e 6896 583d
00000300: 8184 c73e 7943 b53e 5741 cc3d f707 0a3e
00000310: 2c34 17bf 3a29 8fbf 6b40 ecbd f4d1 383e
00000320: afb7 9dbc 30b7 103c f0ff 993c 46a3 f93b
00000330: f374 9fbf 04a8 613f 273b 7bbe 2d88 1c3e
00000340: 46ab 3c3c 65ed 383c 8f89 0e3c e7f2 18bc
00000350: c6f0 bdb5 eb70 cab4 253e af35 86ff 44b4
00000360: e19e 923e 4530 88bf d19a cbbd a3e8 44bd
00000370: e016 243f 8188 e6be c081 1a3e c0f4 8ebe
00000380: 8e25 163f f9b1 10bf ca59 18be 01c6 0b3e
00000390: 03a0 95ba 8818 0338 074c a938 6305 073a
000003a0: c755 03bd 98f9 c3bb ab54 15bc d534 65bb
000003b0: 3301 88bf d207 52bf fa73 c4bd 9d0d 26bd
000003c0: f29c febe 65aa 88bf e52e b8bd d3bf 9b3d
000003d0: aaf6 823f a366 633f 80a5 403d 1e2d e63d
000003e0: 67f3 2cbf dec6 743e 1ba2 d13c e8cb 003e
000003f0: 84fd 92bf e3a2 453f c422 70be 1ec6 e7bc
0.35538197 -0.7173602 0.018495146 0.2203668 0.12406649 1.3828512 -0.10493722 0.3494899
-1.1595938 -0.76810867 -0.16443817 -0.05371944 -0.0001926641 1.2903173e-05 -2.4787963e-05 8.8140805e-06
-0.11469785 0.020123878 -0.013766661 0.06879022 0.5800781 -0.62146807 0.3075403 0.4130277
0.56305087 0.7650378 0.16571136 0.011284386 0.02498149 -0.004750987 0.007344793 0.011222073
0.2011412 0.24126007 0.0011357262 0.2704238 -3.73282e-09 -7.130069e-13 -3.4982935e-05 1.0257628e-23
-0.5264094 0.76194763 0.24058864 -0.33457333 -0.29515496 0.07724076 -0.21540502 0.06513368
0.47934514 -0.24965413 -0.5186058 0.40369546 0.99101585 0.08269968 0.13676248 0.22389571
0.059788242 0.04334154 0.07504228 0.05681307 -0.0021579931 0.07546473 0.049695116 0.058573633
-5.8222325e-24 -6.157998e-14 1.1678609e-15 -4.6731174e-26 -0.00081543537 0.0037610612 -0.0019955963 0.0066197827
0.37661362 -0.5156371 0.27084425 -0.358484 0.8928353 0.2965231 -0.94480515 -0.31774768
0.024578093 0.004365225 0.041027665 0.007843528 0.04243095 0.024603736 0.098573625 -0.05599883
-0.0013482576 -2.736766e-17 -0.009228748 -0.0018772285 0.021947097 -0.0050186072 -0.0029173573 -0.089633845
-0.22048908 0.17778389 0.41015756 0.089965545 1.4278985e-16 2.9413966e-16 1.0367607e-15 3.5595178e-16
-0.8886635 -1.1672322 -0.033042066 -0.7745444 -0.048436612 0.010143626 -0.05001289 -0.05188044
-1.2743877 -0.79666656 -0.05377154 0.04803414 -0.3729737 -0.45988208 0.41329134 0.5476311
0.11724924 0.111429915 0.17032571 -0.11472423 -0.8644583 0.24817526 -0.005290873 0.19121917
-0.7798352 0.61640805 -0.17337076 -0.17315516 0.3828817 1.1570562 -0.08576019 -0.28899142
1.3950331 -0.25775105 0.1429203 0.38117737 0.7501542 0.62212473 0.00785532 0.2975051
-0.67679185 1.2518198 -0.004981046 0.5002473 1.3069977 -0.98391753 0.22908719 -0.47536394
0.012572736 -0.03969012 0.02607597 0.05538643 -0.09077358 0.4719302 0.20485105 -0.06236877
1.3146787 0.33905202 0.030197635 0.27443662 -0.018546894 0.023970861 -0.043885667 -0.02657855
7.190059e-21 -1.4754426e-21 5.3309135e-22 -2.783039e-16 -0.045145318 0.050422102 0.089615874 0.06482422
-9.487922e-21 4.5622e-41 3.380036e-14 -1.6769815e-25 0.008638743 0.01335269 0.0121038845 0.013076698
0.22442406 1.0216539 0.06164824 0.01252023 -0.41389954 0.858212 0.12597707 0.052877814
0.3896828 0.3540304 0.099734 0.13479601 -0.5906398 -1.1184456 -0.11535724 0.18048841
-0.019252626 0.008832738 0.018798798 0.0076183407 -1.2457565 0.88146996 -0.24534284 0.15286322
0.011515444 0.011287068 0.008699789 -0.009335256 -1.4151672e-06 -3.770759e-07 1.3056602e-06 -1.8346881e-07
0.2863684 -1.0639731 -0.09941638 -0.048073422 0.64097404 -0.4502602 0.15088558 -0.27921104
0.58651054 -0.56521565 -0.14878002 0.13649751 -0.0011415485 3.125568e-05 8.072709e-05 0.0005150644
-0.032064226 -0.0059806816 -0.009114425 -0.0034974117 -1.0625366 -0.8204318 -0.09592433 -0.040540326
-0.49729115 -1.0677 -0.089933194 0.07604947 1.0231526 0.88828486 0.047032833 0.11239074
-0.675589 0.23903987 0.025589993 0.12577784 -1.1483617 0.7720167 -0.23450762 -0.028292712

embedding_w.bias f4 [64]
00000000: 21b3 903d 8cf4 033e 7aed ef3d 1273 b6ba
00000010: 3732 243d 35a4 67bd b53a 09bd ee66 3fbc
00000020: 748c 0f3e b4d6 b0bb db0f 51bd ca9a 803b
00000030: f5a1 183e 463f 5a3e 96ab 74bc 30c2 94bc
00000040: 1c80 37af bee8 43bc dabe f43d 120c 36bc
00000050: 8f35 4ebc 0143 d7bc 93a8 35bc c531 423d
00000060: fe44 f0bc 7c6a a9b5 b490 0fbe 3772 293d
00000070: 5df9 173e 6208 093e fe0f 8cbc d8dc 3f3b
00000080: b01e 7a3e 647f 793b 2fba b03e db16 7e3e
00000090: f03c 25bc 6ef7 93bd 9fdb 0fbd a899 c93d
000000a0: e9ac 283d d908 1b3d 768b 9eb6 12ff 22bc
000000b0: 98d2 89b2 4cef 4fbc 81b2 bcbc 08de debd
000000c0: b0b3 8b3d a204 d83d baa4 1fbc c678 ecbd
000000d0: f6d3 57bc 27e7 ccb9 aa0a e33c a4cc 26bd
000000e0: 36f7 a73b b247 b1bb b436 7abc 7270 c33e
000000f0: c58c 06be 5391 a9bd 2444 1d3e 780a 8bbe
0.07065416 0.12886256 0.11715217 -0.0013919792 0.04008695 -0.056553084 -0.033503253 -0.011682255
0.14018422 -0.0053966884 -0.05104051 0.0039247023 0.14905532 0.213132 -0.014933487 -0.018159002
-1.6689267e-10 -0.0119573455 0.119504645 -0.011111276 -0.012586012 -0.026277067 -0.0110875545 0.047410745
-0.029329773 -1.2622472e-06 -0.14020044 0.04136869 0.14841218 0.13382104 -0.01709747 0.002927592
0.24425769 0.0038070315 0.34517047 0.24813406 -0.010085329 -0.07224928 -0.035121556 0.09843761
0.041180525 0.037850235 -4.7250023e-06 -0.009948509 -1.6044666e-08 -0.01269133 -0.023034336 -0.10882193
0.06821382 0.10547759 -0.009743864 -0.11546473 -0.013173094 -0.00039082134 0.027715046 -0.040722504
0.0051259054 -0.005410158 -0.015271831 0.38171726 -0.13139637 -0.082796715 0.15358025 -0.27156425

embedding_t_w.weight f4 [1, 8]
00000000: 04b3 6d3f a3a7 b3be bc30 9a3d 6797 e6be
00000010: 30e1 19bd 4910 e9bc f269 833e 49a1 d7be
0.9285128 -0.35088834 0.075288266 -0.45037386 -0.03756827 -0.028450148 0.25666767 -0.42115238

lstm.weight_ih f4 [512, 65]
00000000: aacf 75bc 34e4 83ba af63 bbbd 8072 e737
00000010: 5bbd d6bc b084 e8bc 6018 a4b9 8890 8b31
00000020: caa0 75ba 7c87 83a6 6094 9d39 6403 24bd
00000030: c29d b1bb f048 26bb 9a45 0abc 7f83 adbb
00000040: 2a86 03ae d318 0ba3 1281 a7bc b33a c23c
00000050: 780e 9434 2d22 1cba 365b ab28 2d8d 00bd
00000060: 4aeb 0cbc 5894 8038 e907 4cbd 3e2b 26bd
00000070: 021d d8bd b45a ebbc a84d a33a 430c bbbc
00000080: 80b9 84bc 8a68 bf3c 62fd e0bc 3307 663b
00000090: 703a 1a3c 3d64 edbc 203a aa37 aa79 42bc
000000a0: ea19 0f3b 719a e6bc 44b6 d338 0de5 01bb
000000b0: 14df 4a3a eebf 9332 cb46 1a3c d87a 413c
000000c0: acb4 773b d6c9 aabd 4e9e 2baf 1bbe c6bc
000000d0: 7ad3 01b9 fa08 03ba d12a f1bc abd9 54bc
000000e0: 0cda 0d3c 23ad 4731 e20c dba8 827c d7bd
000000f0: 67ee 55bd 89f2 343c 7831 99bc e5c4 d2bc
00000100: c7ef b2bc 947c d53b ea0b 93bd 9fca 15bd
00000110: 8447 28b7 6c0f e23b 4aa4 983b 6621 84bc
00000120: ccf3 3339 0f13 04bc 038a d3b1 2233 5dbc
00000130: 3758 96ba 14d2 583a c46d d6bc 7861 d3ba
00000140: 834b 35ba 8d0f 3ea5 704f d2b6 c54e 483b
00000150: 06ae 8dbb 60c8 75a8 99af b7b9 c424 e695
00000160: fe07 463b 62d3 0bbc 1cec f636 f888 98ba
00000170: 4bbf 8a3b 9771 78bd b210 c2ba 8a79 a8bb
00000180: 5689 94bc 9d30 c1bc 9ce5 6abc f6fc 67bd
00000190: 4749 2bbd 354f 1ebd 2bab febb dc7a 4c37
000001a0: 0d81 04bc 6e1c c1bc e533 863b e873 5f37
000001b0: a8ad 1b39 f4bc 23b6 09f1 1e37 201a 79bc
000001c0: 0a06 89bc 7fc1 2cbc 1073 7bbc 9fef 9632
000001d0: 5de4 c3bc 1027 fe38 3afc 8d3b 60c7 41b9
000001e0: a0d1 4d3b 1184 d03a ece4 4236 2ccd bc25
000001f0: 880c 78bd 183a 40ba 43dc 10bd 7cb0 90bc
00000200: c84a 61bc fee3 c5bb d6ee 6b3b f589 a0bd
00000210: 5e04 0fbd d4b4 f43a 90f7 9e3b a89a 62b9
00000220: 6ce9 9dbc 0097 46ba cde3 43bc a1e4 05ad
00000230: 7d81 8cbc ae98 67bb 931f 16bb 832d edbc
00000240: 69d8 c0ba 40de 8b37 f8a8 6637 10f9 30b6
00000250: 5b8a 833b 6211 5abb 2c53 87ae eecc 4eba
00000260: 0eba 8819 005f 653a c352 25bc f4d3 b638
00000270: 2878 57b9 20d8 2c3b e40d 72bd 6a93 20bc
00000280: cfef d6bb 730d c5bc 903c e2bc 42f3 93bc
00000290: 41b9 6dbd 8544 41bd d7a2 42bd 03e6 9ebb
000002a0: 2841 fdb5 6385 1fbc bd04 d7bc c1eb 293b
000002b0: 0858 5538 826d 0b3b 02be 273a 74fa 4f38
000002c0: 768d 93bc db2a a8bc e9a7 4ebc 5297 82bc
000002d0: 1e10 3727 8e84 f6bc 90bc 4138 d441 3f38
000002e0: c41a ee39 b923 a73b 48ec 723a ad7f fda7
000002f0: d28d e4a4 5ed8 73bd ea5e ad3a 13ad 1cbd
00000300: e543 c2bc 3fc6 8ebc 1ac7 7abb b121 94bc
00000310: e8ce 39bd b8fe c4bc 24e9 83b8 a9f9 b8bb
00000320: a004 9abc e2a5 57bc 1494 21ba 6248 05bd
00000330: 6cff 083a ea56 413c 572b 3a3c caf0 46bc
00000340: c3f2 06bd 9e27 0d3b 7c85 5dba 3c45 2a34
00000350: 30a6 592e b8b0 54bc 33c6 6a3c 1805 9d2f
00000360: 7e8c 5b39 5eae b49c 8cb9 3c3c fe77 2fbb
00000370: 4087 8c3a 16a5 d6bc 08ed 783c 1fe3 3abd
00000380: 8d7d 68bc 7f92 b73b 78d7 90bc 6967 06bc
00000390: a6a2 343c 3860 4fbd 7134 1abd 0187 25bd
000003a0: 629d edbc 7cc6 ea36 561c d6bb 80da e2bc
000003b0: aa83 d73b fe8a f933 d6d5 443b 1859 d4b8
000003c0: 46ba 83b7 9d83 ebbb f895 64bc ef70 abbc
000003d0: 86bc bcbc d8d6 851f eea4 cfbc 044d 2db8
000003e0: 8c42 47b8 26e0 bcbc 6247 49bc c408 4dbc
000003f0: a236 3735 f05d 32ab 6751 30bd 3409 64bc
-0.015003124 -0.0010062517 -0.091498725 2.7590664e-05 -0.026213339 -0.028383583 -0.00031298678 4.0618637e-09
-0.0009369968 -9.126674e-16 0.00030055922 -0.040042296 -0.0054204175 -0.0025373064 -0.008439446 -0.0052952166
-2.9905113e-11 -7.540462e-18 -0.020447288 0.02370963 2.7577676e-07 -0.00059560203 1.902437e-14 -0.031384636
-0.008601019 6.131147e-05 -0.04981223 -0.040568583 -0.10552408 -0.028729774 0.0012459056 -0.022832995
-0.016201735 0.023365278 -0.027464572 0.0035099506 0.009413347 -0.028978461 2.0292646e-05 -0.011869827
0.0021835514 -0.028149815 0.00010095214 -0.0019820363 0.00077389297 1.7200332e-08 0.009416292 0.011809073
0.0037796898 -0.083392784 -1.56086e-10 -0.024260571 -0.0001238118 -0.0004998591 -0.029439362 -0.012991349
0.008657943 2.9056728e-09 -2.4319471e-14 -0.10521795 -0.05222931 0.011044153 -0.018700346 -0.025728652
-0.02184285 0.006515095 -0.07180007 -0.036570188 -1.0030231e-05 0.006898811 0.0046582567 -0.016129207
0.00017161592 -0.008061185 -6.1565983e-09 -0.013500961 -0.0011470382 0.000827105 -0.026175387 -0.001612707
-0.0006915854 -1.6485142e-16 -6.2677354e-06 0.0030564528 -0.0043237237 -1.36436815e-14 -0.0003503531 -9.2954266e-26
0.0030217166 -0.008534284 7.358858e-06 -0.00116375 0.0042342297 -0.060655203 -0.0014806001 -0.0051414417
-0.018131893 -0.023582751 -0.01433697 -0.056637727 -0.04181793 -0.038649756 -0.0077718697 1.2187953e-05
-0.008087409 -0.023573127 0.004095542 1.3318822e-05 0.00014846644 -2.4398878e-06 9.473654e-06 -0.015203983
-0.016726512 -0.01054418 -0.015347257 1.7571265e-08 -0.023912603 0.0001211894 0.0043330463 -0.00018480187
0.0031405464 0.00159085 2.9041503e-06 3.275183e-16 -0.060558826 -0.00073328754 -0.035366308 -0.01766228
-0.013750739 -0.0060391417 0.0036000512 -0.07838813 -0.034916274 0.0018669614 0.004851289 -0.00021610653
-0.019276343 -0.00075756013 -0.011956167 -7.6109405e-12 -0.017151589 -0.0035338807 -0.0022907003 -0.028952366
-0.0014712933 1.6673584e-05 1.3748409e-05 -2.6371017e-06 0.004014296 -0.003327452 -6.1538635e-11 -0.0007888813
1.4137217e-23 0.0008749813 -0.010090533 8.7179156e-05 -0.0002054876 0.0026373938 -0.05909528 -0.009800771
-0.006559349 -0.024054265 -0.02761677 -0.01806033 -0.058038 -0.047184486 -0.047518577 -0.004849197
-1.8868932e-06 -0.009736392 -0.026247377 0.0025927874 5.0865143e-05 0.0021274989 0.0006398858 4.95859e-05
-0.01801179 -0.020528248 -0.012613275 -0.015941296 2.5405089e-15 -0.030092504 4.61904e-05 4.5599256e-05
0.0004541484 0.005100694 0.0009266776 -7.0360033e-15 -9.911949e-17 -0.059532516 0.0013227139 -0.038250994
-0.023714015 -0.017428515 -0.0038265646 -0.018082472 -0.045363337 -0.02404724 -6.2899926e-05 -0.005644996
-0.018801033 -0.013162108 -0.0006163728 -0.032539733 0.0005226049 0.011800507 0.011362872 -0.0121423695
-0.03294636 0.0021538506 -0.00084503717 1.5857671e-07 4.948769e-11 -0.012981586 0.014329481 2.8561753e-10
0.00020937805 -1.1956474e-21 0.011518847 -0.0026774402 0.001072146 -0.026201766 0.015193231 -0.045626756
-0.01419009 0.0056021805 -0.017680869 -0.008203366 0.011025107 -0.05062887 -0.03764767 -0.040411953
-0.02900571 6.99685e-06 -0.0065341396 -0.02769208 0.006576975 1.16202486e-07 0.0030034683 -0.00010125543
-1.5703157e-05 -0.0071873204 -0.013951771 -0.020927874 -0.023039114 5.668312e-20 -0.0253472 -4.131814e-05
-4.7507274e-05 -0.023056101 -0.012285085 -0.012514297 6.8252314e-07 -6.336867e-13 -0.04304638 -0.01391821

lstm.weight_hh f4 [512, 128]
00000000: f412 c5bc f878 003b 4d28 8d3b 0dc5 883b
00000010: 724f 7dbd 25d4 a1bc 990d c3bc 28d7 ca3c
00000020: 9061 b1bc 614f ff3a 131d 7b3c 7fe8 c8bb
00000030: 057c d43c ecf2 b4bc 7802 893b 54a8 eaba
00000040: 0f58 013d 11a8 8a3b 8817 003c f882 383d
00000050: f41b 0a3c e178 8e3b f436 32bb 20a2 e5ba
00000060: 1fd4 c9bc 6ac4 b1bb 188e 3c3a 31fd 303c
00000070: 5aaa b4bc 66fe 9a3c bb81 083d 2a06 ca3c
00000080: 717f 0cbb ae1c 9abb 0257 033d 52fa 1b3c
00000090: eb41 b33c 8437 89bc c0ef 58bb 1532 f03b
000000a0: 2a2f 653c aa80 22bc 4242 ffbc 137d 123d
000000b0: 2819 adba aaa6 bdbb 357d 8c3b e143 78bc
000000c0: 91b6 85bc 8e48 b2bb 165e 8ebb f064 5c3a
000000d0: 7675 383c c275 23bc b060 e63b 52e9 a23b
000000e0: 793d f8ba 2cec d5bc 52b2 7f3c 10e2 943b
000000f0: 31e2 73bb 95e8 3ebd 3882 af3c 2ec1 e1bb
00000100: 8270 d2bc 380a 943c 42f5 2b3c 1b99 453b
00000110: bb1e df3b 98bf 383c c8c6 2d3b 1a83 c5bb
00000120: ee4c 443c 58d9 8bbb e6e4 2ebb 7eed 373b
00000130: 7fbf d9ba 384a b73b 8243 2c3d ecf2 dabc
00000140: d575 0e3c 14e0 bcbc 13ea d03c dc45 b9ba
00000150: 70e3 c039 4028 f4bc 5834 babb 3635 cfbc
00000160: 0758 ab3a a7ab b13b b1cb 0ebc d23d a53c
00000170: 49a0 44bd f043 2a3a 5212 0d3c 2096 20bc
00000180: a8c2 f2b9 9179 4fbc acba b33b 5f5f 9c3c
00000190: 1c90 88ba d69b 5f3b 682a f03b f488 d03c
000001a0: 00c7 193a 661d 193b a6cd 19bb fa3d 0e3d
000001b0: 78dd 11bd f36e 42bb 9802 a73a 6e5e d43b
000001c0: 67cf 9e3c 4442 84bb 2269 bb3a 105f 55bc
000001d0: 7153 053c 68fd a03c 674a e53b 5248 913c
000001e0: fcf2 923c aa3b 37bb a9c4 013c 9235 373b
000001f0: b68e d93c 46ac 43bc 336d b73b d6b5 3fbc
00000200: 6bb0 ac3b 63f0 373b 8541 2e3b ad85 5abb
00000210: 551a 043c 9e38 20bc 530a c03b cb4a a0bb
00000220: c64c af3b fc9c e1ba 6c59 bdba a6fa 9e3a
00000230: 9e6f 4cbc ca84 8b3b 0381 41bb eca4 db39
00000240: 9221 92bc d134 2cbb eb19 d2ba 4887 6fbc
00000250: a233 8eb9 ecd5 343a 4831 1c39 e571 b4ba
00000260: 1f5b b53b cea9 8d3b b6d2 883a c690 f9ba
00000270: 4014 363c f2f6 a0bb 5612 23bc 3264 95bb
00000280: 60d2 bf39 ecd4 433b 63b4 ba3a 341c b23a
00000290: 2613 c4bb 4fbf 773b 1e71 863c 073d 333b
000002a0: a0ff 8aba f078 9438 97f7 32bd a7a5 91bc
000002b0: 0e58 143a 565f b73a bb9c 48bb 1270 963b
000002c0: 5085 9abb a866 1dba 122a 85bb 2487 53b8
000002d0: 7075 ae39 ade4 75ba 5423 a9bb 8b74 2fbb
000002e0: b6fe ffb9 5d70 85b9 6cac 79bb 7475 f3bb
000002f0: 950d 98ba 20d0 003b 716d 91ba efb7 283b
00000300: 206b ad3b cad0 ceba 3dea 01bb 8e1f cbba
00000310: 1a31 45bb ebbb d5ba 8e71 58bb 2a4a cf3a
00000320: fd21 1aba 0d5c 9b3b 48e2 15bb 9ed6 9bba
00000330: f022 7ab6 0b50 f639 c830 443d c265 b93b
00000340: e320 02bc 3660 903b 4e90 a2bb f8b3 e93a
00000350: 37a9 3ebb cc30 ebbc becf 4c3a 27a2 edbb
00000360: e622 863b 74cf 6439 7cf7 a0ba 82d7 4dba
00000370: c09a 07ba ef47 083b 5a25 3dba f940 833a
00000380: 288e ff38 cf66 273b c076 66b8 a07f 93b7
00000390: 4d2a 94ba fa33 193b 483a 973a ab6a b9bb
000003a0: d0e2 f6b8 fd1a b93a 2ae4 76bb cd6f a93c
000003b0: e89f 3dba 2e8a eab9 5ade 99bb b162 18bb
000003c0: ea65 b0bb caee 3f3a 4e37 3abb f8fd b03b
000003d0: b817 3c3c 75b2 7c3a 8305 34bb 5bd3 09bb
000003e0: 1a4c babb eb88 10bb 6a0c 81bb ba45 cbba
000003f0: 88e9 4bbc 688c ca3a 206a 8fb8 304e d93b
-0.02405689 0.0019603353 0.0043077827 0.004173881 -0.061843343 -0.019754479 -0.023810195 0.024760798
-0.021652967 0.0019478613 0.015326756 -0.0061312313 0.025938043 -0.02208849 0.0041812025 -0.0017902949
0.03157812 0.004231461 0.00781811 0.045046777 0.008429516 0.004347906 -0.00271934 -0.001751963
-0.02463728 -0.0054250257 0.00071928045 0.010802553 -0.022053886 0.018920135 0.033326846 0.024661142
-0.0021438266 -0.004703126 0.0320654 0.00952013 0.021882018 -0.016750105 -0.0033101887 0.007330189
0.013988296 -0.009918371 -0.031159524 0.03576381 -0.001320635 -0.00578769 0.004287387 -0.015152902
-0.016322406 -0.005440778 -0.004344712 0.0008407375 0.011258474 -0.009976806 0.007030569 0.0049716616
-0.0018939219 -0.026113592 0.01560648 0.0045435503 -0.0037213678 -0.046608526 0.021424398 -0.006889484
-0.025688414 0.018071279 0.010495486 0.0030151072 0.0068090833 0.011276148 0.0026516188 -0.0060275914
0.011981232 -0.0042678528 -0.0026686727 0.002806514 -0.0016612856 0.0055935644 0.042056568 -0.026727162
0.0086950855 -0.023056068 0.02550224 -0.00141352 0.00036790548 -0.029804349 -0.0056825094 -0.025293928
0.0013072499 0.005422074 -0.008715556 0.02017108 -0.048004422 0.0006495109 0.008610325 -0.009801418
-0.00046302867 -0.012663261 0.0054848995 0.019088445 -0.0010418925 0.0034119985 0.007329274 0.02545593
0.000586614 0.002336347 -0.0023468523 0.034727074 -0.0356116 -0.0029668182 0.0012741862 0.0064809835
0.019386007 -0.00403622 0.00142983 -0.013023153 0.00813757 0.019652084 0.006997395 0.01773468
0.01793813 -0.0027959147 0.007920423 0.0027955514 0.026557308 -0.011942929 0.0055977344 -0.011701068
0.005270054 0.0028066866 0.0026589346 -0.0033343837 0.008062919 -0.009779124 0.0058606057 -0.0048917285
0.0053497283 -0.0017212923 -0.0014446205 0.0012129142 -0.0124777835 0.004257773 -0.002952636 0.0004189381
-0.017838273 -0.0026276598 -0.0016029453 -0.014619656 -0.0002712282 0.0006898332 0.00014895678 -0.0013766853
0.005534544 0.004323221 0.0010438773 -0.0019040338 0.011113226 -0.0049122507 -0.009953102 -0.0045590634
0.000365871 0.002988155 0.0014244433 0.0013588727 -0.005983728 0.0037803238 0.01641136 0.0027349608
-0.0010604747 7.079716e-05 -0.04369315 -0.017779185 0.0005658873 0.0013990204 -0.0030610997 0.0045909965
-0.004715599 -0.00060043717 -0.004063853 -5.043218e-05 0.00033275364 -0.00093800836 -0.005161682 -0.0026772346
-0.00048827165 -0.00025451454 -0.0038097156 -0.007429773 -0.0011600727 0.0019655302 -0.0011095238 0.0025744399
0.0052923113 -0.0015778777 -0.0019823455 -0.0015497075 -0.0030089081 -0.0016306614 -0.0033026668 0.0015814949
-0.00058796984 0.004741198 -0.002287047 -0.0011889522 -3.727324e-06 0.00046980413 0.047898084 0.0056578824
-0.007942411 0.0044060005 -0.00496105 0.0017830124 -0.002909256 -0.028709792 0.00078129384 -0.007251996
0.0040935157 0.00021821057 -0.0012280787 -0.00078522426 -0.0005172901 0.002079483 -0.00072153436 0.001001387
0.00012185826 0.0025543456 -5.4946868e-05 -1.7583196e-05 -0.001130411 0.0023376928 0.0011537755 -0.0056584678
-0.00011772441 0.0014122423 -0.0037672617 0.020683194 -0.0007233606 -0.0004473491 -0.004695696 -0.0023252184
-0.005383243 0.0007321654 -0.0028414312 0.005401369 0.011480264 0.0009639629 -0.0027469106 -0.0021030519
-0.0056853415 -0.0022054266 -0.0039382474 -0.0015508451 -0.012445815 0.0015453221 -6.838539e-05 0.006631635

lstm.bias_ih f4 [512]
00000000: d8fa 30be 6d1f 1dbe ecc9 1bbe 4461 f9bd
00000010: 9af8 23be b15c 6f3e 85a9 f3bd a010 f9bd
00000020: 937c 16be cf32 edbd d992 0fbe d7d7 27be
00000030: deb6 76bd d81a 13be 8925 05be e13c efbd
00000040: 3348 64bd abb3 ffbd 3884 eabd d993 d23b
00000050: 3c1b 34be 7321 d4bd 3fc2 e9bd 9adf 01be
00000060: e8c2 f6bd 28f8 37be 53e0 0abe 9f81 08be
00000070: be8a cbbd 4d7f 21be f8fd f1bd f6aa 05be
00000080: a49c 12be 9f9a 13be a46e 27be c30f 25be
00000090: d5b7 ffbd cee4 08be 8a50 aa3e b9ea 1abe
000000a0: fb8b f2bd cca9 1dbe 733f 073f 5d72 31bc
000000b0: aad8 05be c4a6 0cbe e2a5 2dbe bf15 03be
000000c0: f0d4 f4bd f7f8 01be 3369 00be 87f9 d9bd
000000d0: c42f 38be 8b74 1ebe 8282 0fbe 8fe9 0ebe
000000e0: 0dbc 23be 5ade 49be 9ce6 f4bd 5084 23be
000000f0: 1773 3fbe 189d 90bd be92 1abe 4865 fabd
00000100: f881 68be 6bf1 02be 360f ecbd 561e 11be
00000110: 8928 21be 4e48 1ebe 1b8c fbbd ad95 07be
00000120: 9c5a 3bbe 4b81 11be 30b2 1dbe 9d6d 0cbe
00000130: 7525 22be b06b 16be 09dc 173f b137 14be
00000140: a91a 5dbe b098 f0bd 0eab 09be 8117 17be
00000150: 6c40 15be 851c ff3e 8e33 1dbe ea8b 45be
00000160: 9b5c 08be 83e6 17be 4827 1bbe 4ecd 22be
00000170: c88b 52be 38fa efbd b680 fbbd 43e4 fabd
00000180: d543 08be 0480 1bbe c287 1dbe 0b97 67be
00000190: 9d92 f7bd 2dd2 1ebe 54d2 5bbe fdd8 07be
000001a0: 1205 10be 8dc8 22be 79f1 09be 810f d43e
000001b0: 7199 0abe f460 16be 431e eabd 809a 09be
000001c0: 710b 0bbe ecf2 15be c471 33be 3271 29be
000001d0: 998a 18be 7ff6 3cbe b93c 1ebe fa96 12be
000001e0: b45f 2dbe 1ab7 21be fd3e 28be fa10 d8bd
000001f0: 05db 0dbe f116 07be cbb1 39be 104f 01be
00000200: b176 b9bd f3bf bdbd cc25 bfbd bd9d a7bd
00000210: adff 833d 74b0 9abd f824 48bd 3f7e 78bd
00000220: 5bf3 66bd 9bcf cabd a0dc c6bd 1cc1 17be
00000230: 17c8 23be 4b64 dbbd 4dfa cbbd 05d7 dbbd
00000240: 7133 e6be 85af a1bd 210f abbd e9d8 a0be
00000250: d7ce 0abe d9b7 bfbd 00b1 a3bd 61b9 d2bd
00000260: 547a 3abd bf8c 7cbe 1b00 a1bd d873 b4bd
00000270: db1b 2fbe 63ef 83bd b4e8 4dbe 86dd 62bd
00000280: 7753 a7bd 7917 b2bd acfb 4abe c634 e6bd
00000290: 8665 76bd 90cf 86bd 3dc8 0abc fac9 bbbd
000002a0: 8885 94bd 54f8 07be dfee 8b3e 3273 a5bd
000002b0: a48f aebd fd44 b4bd 986c bdbd 8cfe 65bd
000002c0: 5f0f 2dbe dfd6 c5bd 66ad 6abd 1886 abbd
000002d0: 6790 10be a9f3 babd c76b afbd 0e6d b3bd
000002e0: 22b9 cfbd 8c7c 3bbe 2843 89bd 999c b3be
000002f0: b7d5 e2bd 48da 03be dd38 8fbe 9af7 95bd
00000300: c5bc a4be 564c e0bd eae9 9cbd 6512 afbd
00000310: 19e0 cfbd a69d 01be 6440 bfbd f9cd b4bd
00000320: 52b2 03be 9773 b4bd 39e6 bebd 0551 c4bd
00000330: 26d7 c1bd a0c5 ebbd c390 aa3e 0189 61bd
00000340: b5e4 b4be 96b0 7cbd 265b 4dbd 9782 b7bd
00000350: 0769 abbd ef01 a23e f572 d1bd cba0 0ebe
00000360: 5a76 c6bd eddb bebd f12d c9bd f7ac 07be
00000370: 0ed3 4ebe 3917 b5bd 1230 c0bd 0397 c5bd
00000380: 5f2f d1bd 4c01 bebd bac3 cabd cb20 34be
00000390: a388 bbbd 6103 d7bd adb8 1bbe 803c 6dbd
000003a0: b3dc d6bd 056c d8bd 561e 95bd ab39 4a3e
000003b0: 884c 63be 48ac c3bd 4b54 7cbd 6f0e acbd
000003c0: ceb2 8fbe dc7d c6bd 5ca8 ebbd 8f1f 93bd
000003d0: 4ae3 e7bd d05c 1bbe 5aea bcbd 74b6 a9bd
000003e0: 6494 c7bd 195e c4bd cd9c aabd 36d3 c9bd
000003f0: e327 65be 0627 c3bd e420 d3bd 5c44 81bd
-0.1728319 -0.15344019 -0.15213746 -0.12176755 -0.16012803 0.23375203 -0.11897568 -0.12161374
-0.14695959 -0.115819566 -0.14020862 -0.1639093 -0.06023299 -0.14365709 -0.130026 -0.116815336
-0.055732917 -0.12485441 -0.11451 0.006426316 -0.17588514 -0.103579424 -0.114140026 -0.12682953
-0.12048894 -0.17965758 -0.13562135 -0.13330697 -0.09938572 -0.15771218 -0.11816019 -0.13053498
-0.14317566 -0.14414452 -0.163508 -0.16119294 -0.12486235 -0.13368532 0.3326457 -0.15128602
-0.118431054 -0.15396804 0.5283119 -0.010830489 -0.13070932 -0.13735491 -0.1695781 -0.12801264
-0.11954677 -0.12692629 -0.1254013 -0.10643297 -0.17986971 -0.15474145 -0.14014629 -0.13956283
-0.15989704 -0.19713727 -0.11958048 -0.15968442 -0.18696247 -0.07061213 -0.1509504 -0.12226349
-0.22705829 -0.12787406 -0.11526339 -0.14171728 -0.15738119 -0.1545727 -0.12282582 -0.1324069
-0.18296283 -0.14209478 -0.15400004 -0.13713689 -0.15834601 -0.14689517 0.5932012 -0.1447437
-0.21592201 -0.11747873 -0.13444158 -0.1475506 -0.14575356 0.49826446 -0.15351698 -0.19291654
-0.13316576 -0.14834027 -0.15151703 -0.1589863 -0.20561135 -0.11717647 -0.12280409 -0.12250569
-0.13307126 -0.15185553 -0.15383819 -0.22616212 -0.12088511 -0.15509863 -0.21466953 -0.13266368
-0.14064434 -0.15896817 -0.13471021 0.4141808 -0.13535096 -0.14685422 -0.11431553 -0.13437843
-0.13578583 -0.14643449 -0.17523867 -0.16547087 -0.14896621 -0.18453406 -0.15452851 -0.14315405
-0.16931039 -0.15792504 -0.16430278 -0.10550113 -0.1385308 -0.13192345 -0.18134229 -0.12627816
-0.09055842 -0.09265127 -0.09333381 -0.08184383 0.06445251 -0.07553187 -0.04886338 -0.060667273
-0.056384426 -0.09902879 -0.0971005 -0.14819759 -0.15994297 -0.10712489 -0.099598505 -0.10734371
-0.44961122 -0.07894806 -0.08352495 -0.3141549 -0.13555466 -0.09361238 -0.079927444 -0.102892645
-0.045526817 -0.24663065 -0.07861348 -0.08811158 -0.1710047 -0.06442144 -0.201083 -0.055387042
-0.081702165 -0.08695883 -0.19822568 -0.112405345 -0.060155414 -0.06582558 -0.008470592 -0.09169383
-0.072520316 -0.13278323 0.27330682 -0.080786124 -0.08523491 -0.08802221 -0.09249228 -0.056150958
-0.16900395 -0.09660124 -0.057294272 -0.08375186 -0.14117585 -0.09128506 -0.08565479 -0.08761035
-0.10142733 -0.1830923 -0.06702262 -0.35080412 -0.11075919 -0.12876236 -0.2797307 -0.07322617
-0.3217527 -0.1095206 -0.07661803 -0.0854843 -0.10150165 -0.12657794 -0.093384534 -0.08828349
-0.12860993 -0.088111095 -0.09321255 -0.09585766 -0.094648644 -0.11512303 0.3331357 -0.055062298
-0.3533074 -0.061691843 -0.050135754 -0.08960455 -0.08369642 0.316421 -0.102270044 -0.13928525
-0.096905425 -0.09319291 -0.09823216 -0.13249575 -0.20197698 -0.0884232 -0.09384169 -0.09647944
-0.102141134 -0.09277591 -0.09900613 -0.17590635 -0.09156921 -0.10498691 -0.15207167 -0.057919025
-0.10491314 -0.10567478 -0.07281177 0.19748561 -0.22197163 -0.095543444 -0.061603826 -0.084011905
-0.28066105 -0.096919745 -0.115067214 -0.07183754 -0.11322649 -0.15172124 -0.092243865 -0.08286753
-0.097451 -0.0958826 -0.083306886 -0.098547384 -0.22378497 -0.095289275 -0.10309008 -0.06311867

lstm.bias_hh f4 [512]
00000000: 4ec8 32be 121f 1dbe 0fca 1bbe 5e61 f9bd
00000010: 8d88 29be 1a28 503e d8a2 f3bd f412 f9bd
00000020: ed72 16be fb1c edbd 2793 0fbe fcd8 20be
00000030: 7f0a 28bd 31cf 0abe fe1a 05be 9e37 efbd
00000040: 977e 46bd 48b3 ffbd b684 eabd dc60 733c
00000050: fb59 34be e120 d4bd 43c2 e9bd 2edf 01be
00000060: c9bf f6bd d437 3ebe 53e0 0abe 9281 08be
00000070: bb77 d6bd 38b7 21be ec06 d1bd 6ead 05be
00000080: 529c 12be 869a 13be 9897 27be ee38 25be
00000090: e9b6 ffbd f7e2 08be 3803 b03e 36eb 1abe
000000a0: 658c f2bd 37a7 1dbe a8cd 063f ae04 583b
000000b0: b4d8 05be c9a6 0cbe 86a3 2dbe 5c25 03be
000000c0: b28c 10be f9f8 01be 3b6a 00be 3efa d9bd
000000d0: e649 3abe 6974 1ebe 1484 0fbe 8de9 0ebe
000000e0: 95bb 23be cf6b 44be 94e6 f4bd cc95 23be
000000f0: 637e 3fbe 6cc4 b1bc 1e3b cabd 4a65 fabd
00000100: eec4 41be 6df1 02be 2b0f ecbd 531e 11be
00000110: 4e28 21be 124d 1ebe d09c fbbd 8396 07be
00000120: 6197 39be 1388 11be 10b2 1dbe a76d 0cbe
00000130: ec28 22be a603 16be b6bd 173f b42c 14be
00000140: 180c 79be f69b f0bd 7daf 09be 4117 17be
00000150: 8440 15be b5f3 013f 7d34 1dbe 0e9f 4dbe
00000160: ce70 08be 85ec 17be 9928 1bbe e08b 21be
00000170: 45ba 64be fdf9 efbd ba80 fbbd 2fe4 fabd
00000180: d543 08be 8385 1bbe 4487 1dbe 8756 72be
00000190: a392 f7bd 09d2 1ebe f794 5abe bcd0 07be
000001a0: 75f0 0fbe 1cbb 22be 05f1 09be 0d6c de3e
000001b0: 5b08 14be 1761 16be 341e eabd 999a 09be
000001c0: c468 73be 2ff3 15be cd5e 33be 0643 29be
000001d0: 0466 16be 430f 31be 3f3c 1ebe 8b98 12be
000001e0: 0699 2fbe 20b7 21be 2f78 28be 8ff3 d8bd
000001f0: e603 10be e516 07be e3ad 39be 104f 01be
00000200: a718 b9bd f3bf bdbd cc25 bfbd bd9d a7bd
00000210: 6883 923d a01c b7bd f824 48bd 3f7e 78bd
00000220: 5bf3 66bd aecf cabd a0dc c6bd 2c2a 18be
00000230: 784a 1bbe 91bd dbbd 4dfa cbbd 05d7 dbbd
00000240: 1258 c6be 85af a1bd 210f abbd 3156 c5be
00000250: 53ce 0abe d9b7 bfbd 00b1 a3bd 61b9 d2bd
00000260: 547a 3abd f4e7 79be 1b00 a1bd d873 b4bd
00000270: 98b6 2ebe 1eef 83bd 8727 49be 86dd 62bd
00000280: 7753 a7bd 7917 b2bd aaf3 4cbe e534 e6bd
00000290: 8665 76bd 90cf 86bd 103c 0bbd fac9 bbbd
000002a0: 8885 94bd 54f8 07be cf2f 8b3e 25f5 66bd
000002b0: a48f aebd fd44 b4bd 986c bdbd 8efe 65bd
000002c0: f785 28be dfd6 c5bd 66ad 6abd 1886 abbd
000002d0: f744 10be a9f3 babd c76b afbd 0e6d b3bd
000002e0: 22b9 cfbd 2e64 3abe 2843 89bd 6de6 b1be
000002f0: b5d5 e2bd 38ae 02be 1bd7 9dbe 9af7 95bd
00000300: 1b6b a2be 564c e0bd eae9 9cbd 6512 afbd
00000310: 19e0 cfbd a69d 01be 5b40 bfbd e7cd b4bd
00000320: 78ae 03be 9573 b4bd 39e6 bebd 0551 c4bd
00000330: 29d7 c1bd efb2 ebbd 0b73 ab3e 0389 61bd
00000340: 58c5 a6be 96b0 7cbd 265b 4dbd 9782 b7bd
00000350: 0769 abbd 52ef 9c3e f572 d1bd 95df 0cbe
00000360: 9c75 c6bd eddb bebd f12d c9bd e6b2 07be
00000370: 7683 3fbe 3917 b5bd 1230 c0bd 0397 c5bd
00000380: 5f2f d1bd 4c01 bebd bac3 cabd 574d 34be
00000390: a388 bbbd 6103 d7bd c2ba 1bbe 843c 6dbd
000003a0: b3dc d6bd e36b d8bd 561e 95bd 7377 5e3e
000003b0: 4aac 70be 48ac c3bd 4b54 7cbd 6f0e acbd
000003c0: 8f84 99be dc7d c6bd a6a0 ebbd 6f1f 93bd
000003d0: 05e1 e6bd e328 1bbe 5aea bcbd 74b6 a9bd
000003e0: bcfc c7bd 195e c4bd d09c aabd 03d3 c9bd
000003f0: bb3f 61be 0627 c3bd e420 d3bd 5c44 81bd
-0.17459223 -0.15343884 -0.15213798 -0.121767744 -0.16555996 0.20327798 -0.11896294 -0.12161818
-0.14692278 -0.11577793 -0.14020978 -0.15707773 -0.041025635 -0.135556 -0.12998578 -0.1168053
-0.04846057 -0.12485367 -0.11451094 0.014854636 -0.1761245 -0.10357834 -0.114140056 -0.12682793
-0.12048299 -0.18575984 -0.13562135 -0.13330677 -0.104720555 -0.15792549 -0.10206398 -0.1305444
-0.14317444 -0.14414415 -0.16366422 -0.16134998 -0.12486059 -0.1336783 0.34377456 -0.15128788
-0.118431844 -0.15395819 0.52657557 0.0032961774 -0.13070947 -0.13735498 -0.1695691 -0.1280722
-0.14116171 -0.12692632 -0.12540524 -0.10643433 -0.18192253 -0.15474094 -0.14015228 -0.1395628
-0.15989526 -0.1918175 -0.11958042 -0.15975112 -0.18700556 -0.021700107 -0.09874557 -0.122263506
-0.18922779 -0.12787409 -0.115263306 -0.14171724 -0.15738031 -0.15459087 -0.12285769 -0.1324101
-0.18124153 -0.14212064 -0.15399957 -0.13713704 -0.15835923 -0.1464983 0.5927385 -0.14470178
-0.2432102 -0.11748497 -0.1344585 -0.14754964 -0.14575392 0.5076249 -0.15352054 -0.20080206
-0.13324282 -0.14836319 -0.15152206 -0.15776014 -0.22336681 -0.11717603 -0.12280412 -0.12250554
-0.13307126 -0.1518765 -0.15383631 -0.2366582 -0.120885156 -0.1550981 -0.21345888 -0.1326322
-0.14056571 -0.15891689 -0.13470848 0.4344181 -0.14456312 -0.14685474 -0.11431542 -0.1343788
-0.23770434 -0.14643548 -0.17516632 -0.16529474 -0.14687353 -0.17290978 -0.1545267 -0.14316003
-0.17148218 -0.15792513 -0.16452096 -0.1059333 -0.14063987 -0.13192327 -0.18132739 -0.12627816
-0.09037905 -0.09265127 -0.09333381 -0.08184383 0.0715397 -0.08941007 -0.04886338 -0.060667273
-0.056384426 -0.09902893 -0.0971005 -0.14859837 -0.15165126 -0.10729516 -0.099598505 -0.10734371
-0.38739067 -0.07894806 -0.08352495 -0.3854232 -0.13555269 -0.09361238 -0.079927444 -0.102892645
-0.045526817 -0.2440489 -0.07861348 -0.08811158 -0.17061841 -0.06442092 -0.19643985 -0.055387042
-0.081702165 -0.08695883 -0.20014825 -0.112405576 -0.060155414 -0.06582558 -0.033992827 -0.09169383
-0.072520316 -0.13278323 0.27184913 -0.05638613 -0.08523491 -0.08802221 -0.09249228 -0.056150965
-0.16457354 -0.09660124 -0.057294272 -0.08375186 -0.14088808 -0.09128506 -0.08565479 -0.08761035
-0.10142733 -0.18202278 -0.06702262 -0.34746113 -0.11075918 -0.12761772 -0.30828175 -0.07322617
-0.3172234 -0.1095206 -0.07661803 -0.0854843 -0.10150165 -0.12657794 -0.09338447 -0.08828335
-0.12859523 -0.08811108 -0.09321255 -0.09585766 -0.09464867 -0.11508738 0.33486208 -0.055062305
-0.32572436 -0.061691843 -0.050135754 -0.08960455 -0.08369642 0.30651337 -0.102270044 -0.13757165
-0.09690401 -0.09319291 -0.09823216 -0.13251838 -0.18702492 -0.0884232 -0.09384169 -0.09647944
-0.102141134 -0.09277591 -0.09900613 -0.17607628 -0.09156921 -0.10498691 -0.15207961 -0.05791904
-0.10491314 -0.10567453 -0.07281177 0.21725254 -0.23503223 -0.095543444 -0.061603826 -0.084011905
-0.29983947 -0.096919745 -0.11505251 -0.0718373 -0.11273388 -0.15152316 -0.092243865 -0.08286753
-0.09765002 -0.0958826 -0.08330691 -0.098547004 -0.21996967 -0.095289275 -0.10309008 -0.06311867

output_w.weight f4 [5, 128]
00000000: b445 73ba 9118 b1bb d295 b0bb 35e5 38bb
00000010: b058 c238 2916 d1bc 49b0 653b d821 b5b9
00000020: 5ef2 1c3c 2b97 0bbc 8236 c2bb 4d61 c2bc
00000030: 3b88 acbc 1237 30bb 96e9 2bbb b6c2 cb3b
00000040: db76 adbe 5120 46ba 02f5 2cbb eb3d 1d3e
00000050: f38c b23c a539 f63a 8e37 3ebb 0de4 053c
00000060: a275 003c 0d67 263d ecd9 ccba 6282 2abb
00000070: 18b7 85bc 713c 0dbc f874 e93c 3619 e0bb
00000080: 3888 43b9 e235 6d3a f8d8 8a3c 8880 4c39
00000090: d8e6 65bb fe3b d53b c8f4 263d b071 10bc
000000a0: b9b0 15bc e86f ab3b 33fe 383c 2229 bcbc
000000b0: de23 533c 2423 a939 60f7 633b e3e1 33bb
000000c0: 790b b4bc 1490 da3b d38b 5abc fed0 e33b
000000d0: 87c5 083d 3aa6 5dbb a0b6 d73a 1aca 01bc
000000e0: ae2c 19bc cf46 6ebd e1d5 38bc 5456 973d
000000f0: 6fb9 813a 96bb 20be 8523 2f3e 24bd 413c
00000100: 5b1a a0bc 6145 07bc de1c dcba e43a 5db9
00000110: a283 1cbc 53f9 29bc 9fa6 843c 19d4 f4ba
00000120: b4d0 cabb bd65 98bb 8b3d 8f3b 2872 853b
00000130: aae1 0f3c ffa6 833c f2ae 19be 2d08 f13b
00000140: 568b 973e 7c12 a33b a6e5 13bc 5e60 203c
00000150: 5303 873b fcec 0a3e d218 a7bb 9cbb 8bbd
00000160: 0470 d2bb 3dcb 253b 531e 3a3c 1ca5 53bc
00000170: 5425 99bd 1b2b 38bb 3cac 6d3a 1003 903b
00000180: 1c37 a3bb 85fa d7bb dc9c e93b 1366 573d
00000190: 692b 85bb c478 d539 bd7b d73c 9b40 1abb
000001a0: 2aef e8bb 80ac 363b 1f0c 96bb 1cec a83c
000001b0: 1a6b ddbd 94eb 443b 7256 233b f492 4abb
000001c0: 8d4a 233e a03f 24bc af4a 5cbc c3d4 4a3c
000001d0: 9bfc 02bc a392 a43c 7e1f 20bb a248 35bc
000001e0: ea0c dbbb 5d4e 31bb 0774 883a d4c2 5d3b
000001f0: db60 86bb def0 b7ba c0a5 4fbc 1365 263c
00000200: 1cfb 5a3c c29d 4bbb 24e3 5bbc 66f7 63bb
00000210: 09c7 e9bd fbe3 9bbd b2df 89bc 6757 913c
00000220: f93e fdba fed1 9a3c be45 e4bb 7175 023d
00000230: ab4c a43c 1f92 43bd 5239 a33c 88ff cfb9
00000240: 315c f33e a651 c03b de52 11ba d1c8 cf3e
00000250: 781c 4bbd 3805 8b3b f4d7 24bc 1382 60ba
00000260: 887c 83bc d1f6 24bd 2fcb ca3b 8fa7 4bbc
00000270: b9de 03bd 3840 95ba 1614 7b3d 2676 123c
00000280: fa77 323c ce78 00bb abc7 4e3c 8cb4 38bc
00000290: c5a2 9b3c c05f 65ba efc9 28bd 5a22 2fbb
000002a0: 1451 b3bb f118 5b3b bc3c bf3d 3d54 b33d
000002b0: bd6e d0b9 a20e f03b cf87 043c cd49 a13c
000002c0: 498a bf3b 706f 823b bce3 c13a edfe 603a
000002d0: c786 ecbc fc3c 91bc c259 70bc 8a25 cbbb
000002e0: 50b1 e6bb f90c c13c e61a e2bb 6858 e0bc
000002f0: be31 993c 4ad6 5cbc 006f 4fbd 0e35 123b
00000300: 0539 02be c5c6 b7ba dd2b 5f3c c9ff 1e3c
00000310: bb61 973b 825b df3c 4a07 2739 5058 383c
00000320: f3c9 3dbc 3225 753c babd 413c cc1c 25bb
00000330: e257 903b 85ed 22bc 1824 06bd 4556 e4bb
00000340: e49c 103e 8668 90bc eeb6 fb3b 1c68 db3b
00000350: 4595 3a3c 1f06 7bbd c487 46bb 9348 c83c
00000360: cca7 5e3b 4de3 823c ac81 0f3c 2c2e e13a
00000370: e9cd a7bc 9ee3 a0bb 63b5 1abc 48d7 a23c
00000380: 1edb e13a 8049 3b3b c698 193c c680 0ebd
00000390: c2b9 0b3c 1aa7 1fbc d38f 70bd 147c 3a3c
000003a0: 6ae6 af3c b573 e2bc 05b9 37bc 24fe bd3d
000003b0: 027c 893c 8a52 053c 9822 503c 4d64 20bc
000003c0: 5f4c d93d 14e8 f2ba a79b ce3c 12cb be3a
000003d0: c4c0 6dbc b40a 3dbc cd0e 913c 2b56 cebb
000003e0: 07b5 153d ea68 643c 6c5b 943b 2010 d23a
000003f0: ab04 c93c 1a44 4ebb 61ea acbb 3b84 d33a
-0.0009280101 -0.00540454 -0.0053889537 -0.002821279 9.26716e-05 -0.025523262 0.00350477 -0.00034548226
0.009579269 -0.008519928 -0.005926908 -0.023728037 -0.021061053 -0.0026888293 -0.0026231757 0.0062182797
-0.33879742 -0.0007557916 -0.0026391153 0.15355651 0.021795725 0.001878549 -0.0029024812 0.008172047
0.007840546 0.04062562 -0.0015628911 -0.0026017656 -0.016322657 -0.008620367 0.028498158 -0.006838943
-0.00018647395 0.00090488617 0.016949162 0.00019502838 -0.003508022 0.0065073958 0.040760785 -0.008816168
-0.009136372 0.005231846 0.011291075 -0.022968832 0.012886969 0.00032260374 0.0034784898 -0.0027447871
-0.021978127 0.0066700075 -0.013339001 0.006952404 0.0333915 -0.0033821003 0.0016457625 -0.00792172
-0.009349031 -0.058172997 -0.011281461 0.07389513 0.0009897182 -0.15696558 0.17103393 0.01182488
-0.019543817 -0.008256287 -0.0016793271 -0.00021098141 -0.009552868 -0.010374385 0.016192732 -0.0018678933
-0.00618943 -0.0046508 0.00437135 0.0040724464 0.00878183 0.01607084 -0.15008143 0.007355711
0.29598492 0.0049765687 -0.00902692 0.009788601 0.0041202693 0.13566965 -0.0050993944 -0.06822893
-0.0064220447 0.0025298141 0.011359769 -0.012917783 -0.07477823 -0.0028101865 0.00090664974 0.0043948963
-0.004980935 -0.0065911436 0.007129295 0.05258758 -0.004064013 0.00040716503 0.02630412 -0.0023537043
-0.0071085887 0.0027873814 -0.0045790817 0.020620398 -0.108114436 0.0030047642 0.0024923352 -0.0030910345
0.15946408 -0.010024935 -0.01344554 0.012379828 -0.007994796 0.020089453 -0.0024432833 -0.01106468
-0.006684889 -0.0027054765 0.0010410555 0.003383805 -0.0041009015 -0.0014033576 -0.012673795 0.010155934
0.013365533 -0.0031069373 -0.013420854 -0.0034784912 -0.11414916 -0.07611843 -0.016830299 0.017741872
-0.0019321135 0.01889896 -0.0069663217 0.031850282 0.02005609 -0.047746774 0.019924793 -0.00039672502
0.47531274 0.0058691083 -0.0005543659 0.40582898 -0.049587697 0.0042425655 -0.010061253 -0.00085643044
-0.016050592 -0.040274445 0.006188772 -0.012430086 -0.032194827 -0.0011386937 0.061298452 0.008939302
0.010892862 -0.0019603255 0.012620847 -0.0112735145 0.018998513 -0.00087499246 -0.041208204 -0.0026723356
-0.0054723118 0.0033431614 0.09337756 0.087563016 -0.00039755358 0.007325963 0.00808902 0.019688511
0.0058453423 0.0039805695 0.0014792602 0.0008582909 -0.02887286 -0.017729275 -0.014669837 -0.0061995434
-0.0070401803 0.023565756 -0.006900179 -0.027385905 0.018700477 -0.013478825 -0.050642967 0.0022309455
-0.12717064 -0.001402103 0.013621298 0.009704539 0.0046198047 0.027265314 0.00015929076 0.011251524
-0.011583793 0.014962481 0.0118250195 -0.0025194166 0.0044050077 -0.009944324 -0.032749265 -0.006968292
0.14122349 -0.017627966 0.007681719 0.0066957604 0.011388128 -0.061285134 -0.0030293325 0.024448669
0.0033974526 0.015977526 0.0087589435 0.0017179898 -0.020483928 -0.0049099466 -0.00944266 0.019878045
0.001723144 0.0028577745 0.009374803 -0.034790777 0.008528175 -0.00974443 -0.05873091 0.011382122
0.021472175 -0.027643064 -0.011213546 0.09276989 0.016782764 0.008137355 0.01270356 -0.009789539
0.1061027 -0.00185323 0.025220705 0.0014556369 -0.014511291 -0.011538196 0.017707253 -0.006296893
0.036549594 0.013941029 0.0045275 0.0016026534 0.024538359 -0.0031473697 -0.0052769636 0.001613743

output_w.bias f4 [5]
00000000: 6220 e2bc 6fa1 5b3d 4e3b 52bf f745 5dbf
00000010: 0b94 c9bd
-0.027603332 0.053620752 -0.8212174 -0.8643488 -0.0984269

square_avg f4 [64]
00000000: af16 7e3c 79b5 453e 58d2 5b3d 0fbb e32f
00000010: 39a2 873a 3681 5d3b b98b 683c 790a 6935
00000020: ae32 9e3b 6483 0432 3184 9d3c 613d 363a
00000030: bacf f63c 1c86 433c 966a 323a 201a 5f3a
00000040: 97ea ba2d abbd b532 9503 7b3b 7bbe 263e
00000050: a74e ac37 bab1 0a3b e7c9 e534 de50 f23a
00000060: d9e3 633c 704b 882e 02b1 5a3c 3b90 083b
00000070: f9ce c33d 0158 e33c 908c 803c 071d 9d3c
00000080: 273c 153d 3659 5b3d 7f22 483d 3ee9 433c
00000090: 178c f03d 6f64 173d def2 7c34 9d6d 2d3b
000000a0: de3d b33c 626c 053a 43d2 ca2e a9e7 8a3a
000000b0: 2966 0c2e 112b 9e2f 3d45 b73c 18da a03c
000000c0: 6f1c 1a3b b5be da3d 5666 ab37 e633 273d
000000d0: a120 d732 a2f2 692f e35d 983d e68e 453b
000000e0: 4f05 573c 4aea e031 9bc3 d935 cf29 163d
000000f0: f114 143d d356 a13c a563 593c 0ac2 343c
0.015508338 0.19307508 0.053667396 4.1423973e-10 0.0010348029 0.003379894 0.014193469 8.6814504e-07
0.004827819 7.713286e-09 0.019228073 0.0006951895 0.030128349 0.01193383 0.00068060437 0.0008510668
2.124993e-11 2.1157424e-08 0.0038301696 0.162836 2.0540623e-05 0.0021163062 4.2801477e-07 0.0018487235
0.013909304 6.1979644e-11 0.013347866 0.0020837921 0.09560961 0.027751924 0.015692025 0.01917888
0.03643432 0.053551875 0.048861023 0.011957465 0.1174547 0.036961015 2.3557683e-07 0.002646304
0.021880087 0.00050896977 9.2232465e-11 0.0010597605 3.192305e-11 2.8770633e-10 0.022371883 0.019635245
0.0023515483 0.10680906 2.0432442e-05 0.04082098 2.5044132e-08 2.1277427e-10 0.074397825 0.0030144989
0.013123824 6.5458936e-09 1.6224689e-06 0.036660966 0.036152784 0.019694721 0.013268386 0.011032591

square_avg f4 [5]
00000000: b636 b040 4735 6d41 1fd9 843d fc70 693e
00000010: 2bba a83c
5.5066786 14.825507 0.06486725 0.22797006 0.020596584
