S-LSTM/Goal+Socail_Array_PyTorch/social_lstm/save/0/social_model_epoch_3.pth (torch, 815043 bytes, 22 tensors)

embedding_b f4 [64]
000000 d8 58 8c 3c df 4c 65 3e ab f1 68 3e c4 4d e9 b8
       0.017132208 0.22392605 0.22748439 -0.00011124791
000010 40 d4 51 bb 5d c7 18 3d c3 59 6f bd 33 7d 52 bc
       -0.003201738 0.037299503 -0.058435213 -0.012847233
000020 e5 e7 0d be 65 05 21 bd d8 99 29 3d 02 9b 8b bd
       -0.13857992 -0.039311785 0.041406482 -0.06816675
000030 41 85 4c be 9e 71 58 bd 71 2c 3c bc 49 06 ec bc
       -0.19972707 -0.05284273 -0.011485205 -0.02881159
000040 9c 3d c5 b9 76 07 15 b8 97 92 4b be 48 1a 7c bd
       -0.0003762067 -3.5531317e-05 -0.19880138 -0.0615485
000050 ac 9f 3d bc f8 c4 ce bb c8 57 a4 b8 60 e9 f1 bb
       -0.011573713 -0.0063101016 -7.83648e-05 -0.007382557
000060 ec fe fe 3b 12 fe 9c bc a9 e2 82 3d 84 4f 7f bc
       0.007781854 -0.019164119 0.06390888 -0.015582923
000070 a1 b9 95 3e 6b aa 25 be 04 8d fc bc b7 a0 18 3d
       0.29243186 -0.1617829 -0.03082896 0.037262645
000080 49 8b 84 bc ac f4 d0 3c 0a 7b d0 3c b5 17 50 bd
       -0.016179698 0.025507294 0.025449295 -0.05080386
000090 1e 5e 14 3e 07 96 a0 3d 54 33 b5 ac f9 73 0b bb
       0.14489028 0.078411154 -5.150028e-12 -0.0021278842
0000a0 22 78 33 bd 8a 8d 13 3d b1 45 8b b2 a8 e0 05 bb
       -0.04381574 0.036023654 -1.6213422e-08 -0.0020428095
0000b0 b2 e4 0b b9 66 5f b5 bc fb 2e 71 3d 87 7b ee 3d
       -0.00013341269 -0.022140216 0.058882695 0.11644655
0000c0 ea c0 2b be f2 6b c8 3d e7 71 e6 bc 26 7b 0a 3e
       -0.1677281 0.09786214 -0.028130485 0.1352354
0000d0 92 5b 8f bc c4 ca ef ba 1e 23 ca 3c 1d 4b 13 bd
       -0.017499719 -0.0018294682 0.024674948 -0.035960305
0000e0 d6 a9 6f 3d 7b 08 13 bb c6 0b 18 b4 7a 42 ab 3d
       0.058511578 -0.0022435475 -1.4160386e-07 0.08362289
0000f0 ad 5b 25 3e 4f 91 33 3e 49 8d fd bc 0e 9a ae 3d
       0.16148253 0.175359 -0.03095116 0.08525477

output_b f4 [5]
000000 c9 be 14 3d b8 01 d8 bb ff 1d 1b bf d0 8f 15 bf
       0.03631476 -0.0065920018 -0.60592645 -0.58422565
000010 4e 0c 60 bd
       -0.054699235

embedding_w.weight f4 [64, 4]
000000 d4 17 e6 3e 66 12 3b bf a7 69 48 3d 31 19 99 3d
       0.44940054 -0.7307495 0.048928883 0.07475508
000010 34 b4 7a 3d c6 39 91 3f cf 62 f3 bc 0c 85 80 3e
       0.06120701 1.1345756 -0.029710202 0.25101507
000020 7f 17 6d bf a5 0c 33 bf f4 28 bb bd a4 48 19 bb
       -0.9261398 -0.6994117 -0.091386706 -0.0023389244
000030 74 3d 65 28 50 ce 04 a9 a3 bb 83 26 b6 40 ff a8
       1.2725379e-14 -2.9488835e-14 9.14081e-16 -2.8338751e-14
000040 b8 e8 d3 20 62 4e 8f 2c c6 b2 50 31 30 82 e7 af
       3.589879e-19 4.0730067e-12 3.0369605e-09 -4.211116e-10
000050 61 54 1e 3f c4 c3 0e bf aa 50 66 3e 9d 52 84 3e
       0.618475 -0.55767465 0.22491708 0.2584428
000060 94 d4 bc 3e 68 d9 31 3f d6 14 01 3e 3b b9 86 bb
       0.36880934 0.6947236 0.12605605 -0.0041114367
000070 15 99 a5 3c 12 29 a2 bb e5 f5 c0 3c 5d 2e 85 3c
       0.020214597 -0.0049487436 0.023554752 0.01625746
000080 dc ce 04 3f 64 7f 49 3e aa e7 df bd 67 13 86 3d
       0.5187814 0.19677502 -0.10932858 0.065466695
000090 0d c6 47 3d 77 11 8a 3c b1 72 42 3d 84 b4 11 3d
       0.04877286 0.016854031 0.04747266 0.035572544
0000a0 fe fa bb be 48 58 56 3f 15 02 c1 3d f4 37 f5 bd
       -0.3671493 0.83728456 0.09424225 -0.11973563
0000b0 97 43 92 be ca 11 98 3e 6c 43 28 be 90 3d e0 ba
       -0.28567192 0.29701072 -0.1643197 -0.0017108191
0000c0 d4 6d de 3e 92 9a c3 bd cd 7e d3 be 70 cb e4 3d
       0.43443167 -0.09550966 -0.4130768 0.11171615
0000d0 30 eb 7a 3f 3e f6 3a bd 90 29 f0 3d d4 8d 36 3d
       0.9801512 -0.04564499 0.117266774 0.04456885
0000e0 a3 07 7c bc 4a 6d 0e bc f5 ee ca 3c f4 c1 83 bc
       -0.01538268 -0.008693049 0.024772147 -0.016083695
0000f0 c9 34 c3 bc 20 6f a8 38 ef 36 be bc 18 86 95 3c
       -0.02382888 8.031563e-05 -0.023219554 0.018252417
000100 b8 6a 2c 9b 4a 34 12 9c a4 b7 53 23 30 4f 4f b3
       -1.4261989e-22 -4.837493e-22 1.147722e-17 -4.8267964e-08
000110 c8 f6 a6 29 58 99 d5 9b 28 08 13 a2 f1 61 24 9d
       7.4146906e-14 -3.533699e-22 -1.9926533e-18 -2.1755854e-21
000120 92 72 8a 3e f9 75 a5 be 6c 3a 13 3e 37 8e d2 bd
       0.27040535 -0.32316568 0.14377755 -0.102810316
000130 75 3e 03 3f ee 3a 70 3e b9 2c 0d bf 97 a3 55 be
       0.51267177 0.2345998 -0.55146366 -0.20863186
000140 ca db 5d 39 7f 3d 24 3a 5c ab 0c 3b a7 ee 2e 3b
       0.0002115808 0.0006265267 0.0021464443 0.002669254
000150 5e 1e c5 b8 bb 4b 8c bb a0 22 cd 36 72 ef a6 3a
       -9.399348e-05 -0.0042814887 6.113507e-06 0.0012736155
000160 6e d8 16 a2 4c 3e f2 b3 24 21 b6 a9 b8 8d 3e 2b
       -2.0443368e-18 -1.1280335e-07 -8.0881726e-14 6.7698234e-13
000170 b0 26 bc ba 5c 45 9d 3a 51 c6 96 3b 67 10 97 bc
       -0.0014354791 0.001199882 0.004601278 -0.018440438
000180 8a f5 42 3d 17 04 a7 3d 60 fc 45 3d 06 77 ef bd
       0.047597446 0.08155077 0.048336387 -0.11692624
000190 e5 c4 9c 3c f5 e8 9c bc e9 fe 9c 3c 8b 02 9c bc
       0.019136855 -0.019154051 0.01916452 -0.019044181
0001a0 5b a4 2d bf f6 08 81 bf a8 ac 00 bd 5e 5d cd be
       -0.6782891 -1.008086 -0.031414658 -0.40110296
0001b0 dd 19 83 bc 38 80 17 bd d5 17 e1 bb 4e ad ca bb
       -0.016003544 -0.036987513 -0.006869296 -0.0061852103
0001c0 4c 10 82 bf 50 bf 39 bf 84 31 91 bd f0 b7 af 3c
       -1.0161223 -0.72557545 -0.070895225 0.021450013
0001d0 cc 21 da bc 80 d3 82 be e1 eb 8b 3d b6 d5 47 3e
       -0.026627444 -0.25551987 0.068321 0.19515118
0001e0 68 57 38 bd e8 e3 39 3d c2 19 37 3c c0 7d 3f 3d
       -0.045005232 0.045383364 0.011175575 0.046750784
0001f0 05 dc 5f bf 7a ce 04 3e 0a 39 13 bd 87 d3 17 3e
       -0.874451 0.1296939 -0.03594307 0.14826785
000200 41 8c 33 bf 50 66 00 3f 13 f2 03 be 56 45 5d bd
       -0.70135885 0.50156116 -0.12885313 -0.054021202
000210 f1 ec e5 3e c0 30 84 3f 82 22 e6 bc 1d 5d ed 3c
       0.44907334 1.0327377 -0.028092626 0.028975064
000220 12 6b 9b 3f b0 80 6f be d2 e0 9a 3d 49 c4 3c 3e
       1.214205 -0.23388934 0.07562412 0.18434252
000230 09 68 50 3f 4c 86 be 3e d2 4b 26 bd 9a d3 2c 3e
       0.81408745 0.37211835 -0.04059965 0.16877595
000240 16 33 06 bf 60 e9 82 3f 57 8d 3e bb 6d 58 91 3e
       -0.524217 1.022747 -0.0029075944 0.28387776
000250 1d 25 87 3f c1 46 4b bf 75 89 36 3e d9 74 aa be
       1.0558201 -0.79404837 0.17825873 -0.33292273
000260 66 b7 1b 92 ca 4b 03 91 74 fa 9b 8d bc 29 a3 21
       -4.913543e-28 -1.0357432e-28 -9.612907e-31 1.1056357e-18
000270 a7 de 39 be 32 f1 27 3f e6 49 ec 3d 2b 46 f1 3d
       -0.18151341 0.6560241 0.115375325 0.117809616
000280 ac 59 94 3f 64 90 ef 3d d9 d8 c4 3c 11 ae dc 3d
       1.1589866 0.11697462 0.024029182 0.10775388
000290 17 c2 f6 bc 9b 59 db 3d 0d 82 fa 3c b5 ee 65 3d
       -0.030121846 0.1071045 0.030579591 0.056135852
0002a0 89 86 26 9e 9c 24 f4 9d 02 91 0f 1a 2a e8 b0 1e
       -8.815788e-21 -6.4624115e-21 2.9688843e-23 1.8730746e-20
0002b0 f4 9b 90 30 d5 42 94 b3 d8 49 f7 30 30 d3 4c 39
       1.0521704e-09 -6.903944e-08 1.7992603e-09 0.0001953363
0002c0 e0 d2 cb 2e 00 96 94 1f 3c 3f 5e 2c cc 04 73 2b
       9.26883e-11 6.292859e-20 3.15832e-12 8.63376e-13
0002d0 c7 b7 dc 3b 63 b2 f7 bb 49 12 8b 3c 6f 5c 6b 3c
       0.006735775 -0.007559107 0.016976492 0.0143653
0002e0 ab 7f a9 3e 57 d1 67 3f d7 d5 2f 3d f3 9d af 3d
       0.33105215 0.905538 0.042928543 0.08575048
0002f0 0f 03 f3 be ea 58 54 3f d8 91 9e 3c b3 03 53 3d
       -0.4746327 0.8294817 0.019356653 0.0515172
000300 6e 9a 00 3f c5 a0 49 3e ed 89 6a 3d 9a 04 7d 3d
       0.5023564 0.19690235 0.057260443 0.061771967
000310 ab d7 c1 be 47 c5 81 bf ef e8 d4 bc b2 1b 26 3c
       -0.37859854 -1.0138329 -0.025989978 0.010138439
000320 6d 83 14 3d fa 5f da 3b e6 63 f2 3c d9 b0 ac bd
       0.03625815 0.0066642733 0.02958865 -0.084321685
000330 9b 2c 87 bf 59 0b 20 3f c1 2b 65 be 59 b2 7e 3c
       -1.0560488 0.62517315 -0.22379972 0.015545451
000340 c3 3e 95 bc 94 cb d1 3b 16 2d 6c bc 19 60 08 3c
       -0.018218404 0.006402442 -0.014415046 0.008323693
000350 a0 a2 82 b3 44 63 fc 35 d8 8f 27 2c 2e 1b 3f b8
       -6.083178e-08 1.8804353e-06 2.3811977e-12 -4.556326e-05
000360 be e9 89 3e 36 38 84 bf 2f 6f 13 3c af c8 bc bd
       0.26936144 -1.0329654 0.008998676 -0.09217965
000370 b7 f7 bd 3e 26 07 8d be b9 f6 33 3e 90 85 0b be
       0.37103054 -0.27544516 0.17574586 -0.13625169
000380 29 43 fc 3e f1 8f 2a bf cc f7 c6 bd d6 b3 f8 3c
       0.4926999 -0.6662589 -0.09715232 0.03035919
000390 46 7a e8 34 9c eb de 39 30 ae 65 27 0e 86 2b b8
       4.3302333e-07 0.00042518682 3.1874561e-15 -4.0894425e-05
0003a0 6e b5 5d 26 ea 07 9b 29 81 af 4e b3 7a 60 cc a4
       7.692066e-16 6.8847556e-14 -4.8122732e-08 -8.8634335e-17
0003b0 b5 e6 5d bf 7d 87 48 bf ec b4 56 be 8b 98 ce bc
       -0.86680156 -0.7833174 -0.20967454 -0.025219223
0003c0 0e 35 9d be 22 f9 65 bf 72 55 5d bd a9 ba 80 3d
       -0.3070454 -0.8983327 -0.054036565 0.062856026
0003d0 0c ae 64 3f 4d 63 25 3f ae 8d 89 3c 76 ae e8 3d
       0.89328074 0.64604646 0.016791191 0.11361401
0003e0 fb 1c 3c bf 23 74 f7 3d e2 bb b4 bc c1 70 39 3d
       -0.7348172 0.12082698 -0.022062246 0.045273546
0003f0 b2 8a 8a bf 00 00 38 3f 42 9a 40 be 69 a9 40 3e
       -1.0823576 0.71875 -0.18808845 0.18814625

embedding_w.bias f4 [64]
000000 1d a5 21 3e d0 34 bc 3c 66 49 be 3d c4 4d e9 b8
       0.15785642 0.022974402 0.092913434 -0.00011124791
000010 40 d4 51 bb 67 7a 04 3c 4f 3d 2a 3b 33 7d 52 bc
       -0.003201738 0.008085824 0.0025976484 -0.012847233
000020 23 27 51 3e 65 05 21 bd 7c 0f b9 bc 83 54 18 bc
       0.20425086 -0.039311785 -0.022590391 -0.009297493
000030 af 85 19 3e 4e 1a 87 3e 71 2c 3c bc 49 06 ec bc
       0.14992402 0.26387256 -0.011485205 -0.02881159
000040 9c 3d c5 b9 76 07 15 b8 b9 bd d7 3d 56 70 51 bc
       -0.0003762067 -3.5531317e-05 0.105342336 -0.012783131
000050 ac 9f 3d bc f8 c4 ce bb c8 57 a4 b8 60 e9 f1 bb
       -0.011573713 -0.0063101016 -7.83648e-05 -0.007382557
000060 ec fe fe 3b 12 fe 9c bc a7 c6 b2 bd 84 4f 7f bc
       0.007781854 -0.019164119 -0.08729296 -0.015582923
000070 22 72 c1 3d 3d 51 0c 3e 04 8d fc bc 78 46 24 3d
       0.09445597 0.13702865 -0.03082896 0.040106267
000080 ed 71 99 3e b6 fc 2b 3d 1e 61 a3 3e 30 eb 86 3e
       0.2996973 0.04198905 0.31910032 0.2635131
000090 6f 6b 4b bd d1 93 86 bd 54 33 b5 ac 0e 6d 8e 3e
       -0.049663004 -0.065711625 -5.150028e-12 0.27817577
0000a0 80 cb 35 3d 8a 8d 13 3d b1 45 8b b2 a8 e0 05 bb
       0.044383526 0.036023654 -1.6213422e-08 -0.0020428095
0000b0 b2 e4 0b b9 66 5f b5 bc fc ca f8 3c 1b 0a 6d bd
       -0.00013341269 -0.022140216 0.030370228 -0.057870965
0000c0 59 25 a8 3d 4c f1 ac 3d e7 71 e6 bc 0f 5c 62 bd
       0.082102485 0.08444461 -0.028130485 -0.055263575
0000d0 92 5b 8f bc c4 ca ef ba 1a 29 23 3c 1d 4b 13 bd
       -0.017499719 -0.0018294682 0.00995853 -0.035960305
0000e0 9e 80 ad 3d 7b 08 13 bb c6 0b 18 b4 dd 77 bd 3e
       0.084717974 -0.0022435475 -1.4160386e-07 0.3700551
0000f0 ae 12 f2 bd 78 f6 79 bd 4a e2 69 3e 65 08 2b be
       -0.11819969 -0.061026067 0.22840229 -0.16702421

embedding_t_w.weight f4 [1, 8]
000000 f9 a6 10 3f f7 e1 31 be 3b 77 80 3d cf ad 32 be
       0.5650478 -0.17371355 0.062727414 -0.17449115
000010 86 c7 1c be 20 39 03 3e 52 d4 4c bd 2e 85 e4 bd
       -0.15310487 0.1281476 -0.050007172 -0.111582145

lstm.weight_ih f4 [512, 65]
000000 c1 c4 84 bd 74 7c f1 3b 56 3d 32 be 85 90 e8 3b
       -0.0648284 0.0073695723 -0.1740621 0.007097306
000010 55 ad 11 13 7a 7c 13 bd 78 9f 0d 3d c8 51 41 b9
       1.8387032e-27 -0.036007382 0.03457591 -0.0001843638
000020 88 4f 18 bd b8 b6 b2 23 c8 8b d1 3c ca fb b6 3c
       -0.037185222 1.9376183e-17 0.025579348 0.02233686
000030 58 4e d9 bb af 73 b6 bd 0c dc 09 29 37 ae a1 b8
       -0.0066316538 -0.08908784 3.061097e-14 -7.709528e-05
000040 18 05 8d b6 6b c4 31 33 41 ef 60 3c 45 1b 21 bd
       -4.2027204e-06 4.1389665e-08 0.013728918 -0.039332647
000050 80 89 6f 9f 90 72 16 9c db 9a 7f 38 1c e6 2e a1
       -5.0723956e-20 -4.9778905e-22 6.0940958e-05 -5.925804e-19
000060 ae 5d 3f bd cc ef ca b2 06 1d 70 bd ba 1f 24 b1
       -0.0467202 -2.3624942e-08 -0.05862143 -2.3883175e-09
000070 8c ad 31 be b4 c7 9a bc 9b 44 95 3b fc 2f 9f bb
       -0.17351359 -0.018894054 0.0045552975 -0.004858015
000080 8f 8c 71 bd 58 e2 2b bb c4 6a 08 be 91 36 7b bd
       -0.058971938 -0.002622744 -0.13321978 -0.061331335
000090 6c 66 37 3d 89 37 51 bc 7f 51 00 00 81 44 fe bc
       0.04477541 -0.012769588 2.9235e-41 -0.031038525
0000a0 d0 fe 40 bd 92 98 d8 3c 4b 28 00 00 b3 83 00 00
       -0.047118008 0.026439939 1.4454e-41 4.7245e-41
0000b0 47 43 01 80 c0 9f 92 a6 74 d1 a5 3b 2c 72 81 3c
       -1.1597e-40 -1.0174085e-15 0.005060369 0.015801512
0000c0 00 0e 7f 38 80 c1 cb bd 7c 69 1a 9e b0 8b 24 3a
       6.0809776e-05 -0.099490166 -8.174506e-21 0.00062769186
0000d0 ac 33 83 23 01 98 3e 10 18 d0 56 bc 44 0c 4f 3c
       1.4224932e-17 3.7587993e-29 -0.013111137 0.012637202
0000e0 14 b6 61 bd de ef c7 af 24 31 81 3b 96 7a 39 be
       -0.055105284 -3.6368325e-10 0.0039426256 -0.18113169
0000f0 c5 2a 24 bd 08 40 cb bc d9 64 46 bd 5c f3 17 3d
       -0.04007985 -0.024810806 -0.04843602 0.03709732
000100 94 53 26 3c 40 03 16 bd 7e d3 8c 3b bf 21 6b bd
       0.0101517625 -0.036624193 0.004297673 -0.05740523
000110 94 7c ee aa cc dd ff b8 f3 84 ab bc 4e 07 20 3d
       -4.2363736e-13 -0.000122006604 -0.020937419 0.039069466
000120 8f 4f 67 b6 c2 c8 3c bc 94 be 39 9e d0 ef d8 3c
       -3.4467992e-06 -0.011522474 -9.833229e-21 0.026481539
000130 78 e7 42 3c 31 2f 56 bb eb c9 15 bd 90 b0 99 23
       0.011896007 -0.0032681937 -0.036569517 1.666307e-17
000140 d6 51 54 38 b1 fc 1a b3 58 0c df 36 24 ab ac bb
       5.0620954e-05 -3.608574e-08 6.647355e-06 -0.005269425
000150 6d 3a e2 3a 80 24 43 ba c2 c3 38 a9 40 e2 00 80
       0.0017259844 -0.00074440986 -4.1026e-14 -8.1163e-41
000160 78 75 82 38 a0 d5 23 3c 30 e3 f8 b3 9d d3 c4 bc
       6.220763e-05 0.009999663 -1.1589725e-07 -0.024026686
000170 a8 ca 9c 2b 10 55 8e bd bd e1 52 bb d9 7b 0f ba
       1.1140715e-12 -0.06949818 -0.0032178008 -0.0005473472
000180 03 68 87 bc a3 f2 02 bd 6a be cc 3c 11 11 63 bd
       -0.016529089 -0.031969678 0.02499314 -0.055436198
000190 a4 08 ea bc 84 1c b9 3c f8 3b d2 bc e0 26 08 bc
       -0.028568573 0.022596605 -0.025663361 -0.00831005
0001a0 d3 dc 99 bc 80 e8 c4 bc 26 26 93 3c 3a eb 9e 35
       -0.018782055 -0.024036646 0.017962527 1.1840377e-06
0001b0 26 e4 b6 36 24 2b 00 33 d6 20 c5 35 bf a6 bd 3c
       5.4505826e-06 2.984156e-08 1.46872e-06 0.0231508
0001c0 fb f8 a7 3c 03 af 3c 3c e1 90 24 bd 34 32 cc b4
       0.020504465 0.011516335 -0.04017723 -3.803449e-07
0001d0 54 c1 40 bc ea 16 e3 b9 19 ad 06 b2 de d0 93 bc
       -0.011764843 -0.00043313886 -7.839184e-09 -0.018043932
0001e0 f2 5f e1 bb 8b 23 0e bd fc 74 0f b7 5e 51 11 ba
       -0.0068778927 -0.034701865 -8.550702e-06 -0.00055434357
0001f0 84 d9 b7 bd 51 d9 b8 bc ad 32 7d bc 04 38 cf bc
       -0.08977035 -0.022564562 -0.015453977 -0.025295265
000200 8a e4 ec 3b ef 82 f4 bb 07 9a fc bc 80 ec bf 38
       0.0072293924 -0.0074618976 -0.030835165 9.151641e-05
000210 cd 96 66 bd 28 7b 7c b9 5e 7a bb 36 78 d0 e0 bb
       -0.05629616 -0.00024078472 5.5872797e-06 -0.006860789
000220 20 e9 12 3d 95 81 1b b8 74 12 ca bb 9e 67 75 9c
       0.035866857 -3.7075562e-05 -0.0061667506 -8.119762e-22
000230 1a a9 d1 3c 9d 78 88 3b 84 52 b0 bc eb c5 92 bc
       0.02559333 0.004164769 -0.021523722 -0.01791664
000240 61 78 8c a6 66 41 3c 38 76 51 58 b3 56 f9 49 bc
       -9.74708e-16 4.48836e-05 -5.0365507e-08 -0.012327513
000250 44 af b0 bb 01 60 ac bc f0 9d 14 3a e2 40 01 80
       -0.005391987 -0.021041872 0.00056692865 -1.15111e-40
000260 a2 5b a7 30 9d 16 2d 1c b2 fa 28 3c d4 48 66 3c
       1.2176893e-09 5.7270125e-22 0.010313677 0.0140554495
000270 80 63 1e bb cc e3 37 32 b2 95 90 bd a3 cd 90 3c
       -0.0024168193 1.0703797e-08 -0.07059802 0.01767618
000280 ee 6a 92 ba ce 3d 02 bd 79 9c 3c bd 36 03 cd 3c
       -0.0011170784 -0.031797223 -0.04604766 0.025025945
000290 2e 35 1d bd 8a ac 8f bc e2 76 8e 3c e0 3c fd bc
       -0.038380794 -0.017538328 0.017390672 -0.030912817
0002a0 00 0a e5 32 f6 70 af bc ce de 7c bb 91 a6 ef 3c
       2.6663656e-08 -0.021416169 -0.003858495 0.02925423
0002b0 d4 c1 61 ba b6 4f 95 38 e0 d7 05 33 b4 c6 30 b6
       -0.00086119515 7.119721e-05 3.1162813e-08 -2.6341704e-06
0002c0 4e 2b d6 3c ba 5f 85 3c 2e 3d 0e 3c c5 9b 18 bd
       0.026143696 0.016280998 0.008681579 -0.03725793
0002d0 76 9f b1 33 3c 12 0c bd 3b 64 d3 ba f8 4f a0 39
       8.2712106e-08 -0.034197077 -0.0016127893 0.0003057716
0002e0 c6 d1 b6 bc e8 28 00 bc 40 45 09 bd e8 dd 6a ba
       -0.022316825 -0.007822253 -0.033513308 -0.0008959458
0002f0 29 5a a3 b0 5a 23 c9 bd 2c e3 e1 bb 99 0d 02 3c
       -1.1885436e-09 -0.09821196 -0.006893536 0.007937812
000300 8d ea 02 bd 5d 5e 0d bc 21 d2 eb bb f8 82 1a bd
       -0.031961966 -0.008628455 -0.00719668 -0.037722558
000310 e3 41 c5 bc ba 24 1f bd 68 6e 4d 2c 30 aa 48 3c
       -0.024079269 -0.038853385 2.919354e-12 0.012247607
000320 bb a5 0c bd c4 93 0c 3b 58 cf 26 35 1a b1 7c bc
       -0.03433774 0.002145038 6.2141544e-07 -0.015423084
000330 9c 65 21 98 5a 86 ce 39 e7 9a a2 bb 69 86 65 bc
       -2.0860062e-24 0.00039391482 -0.0049623135 -0.014009097
000340 5f d0 15 bd 08 ef 00 20 56 e8 9a b8 22 c1 c7 3a
       -0.03657567 1.092111e-19 -7.386568e-05 0.0015240053
000350 5a a1 5e 38 82 e4 74 bc 84 a3 10 3c 90 95 01 80
       5.3079195e-05 -0.014947059 0.008828048 -1.45488e-40
000360 b6 51 9e 34 36 72 54 ae 56 67 90 35 6a 59 e8 3b
       2.9489246e-07 -4.830466e-11 1.0758911e-06 0.007090737
000370 06 81 32 2b ba fc 8b 3b d5 d8 fb 33 e6 56 60 bd
       6.341736e-13 0.0042720707 1.172754e-07 -0.054770373
000380 87 4a f6 bc f9 77 77 b9 b1 19 14 bd 11 24 3a bd
       -0.030064834 -0.00023600449 -0.036157314 -0.04544455
000390 fa db eb 39 c3 4a 71 bd de 3e 11 bd 9d 55 8e bc
       0.00044986588 -0.05890919 -0.035460345 -0.017374808
0003a0 69 fc 0f bd 66 77 a8 31 28 c7 26 bd 17 3f 36 bc
       -0.035152826 4.9030175e-09 -0.040717274 -0.01112344
0003b0 2e 72 48 bb 68 22 74 b7 84 c6 49 39 da ab 0f 37
       -0.0030585635 -1.4551544e-05 0.00019242807 8.5634765e-06
0003c0 84 45 87 ab e5 5d 0e bb 50 42 fb bb 58 39 8f 39
       -9.611621e-13 -0.0021723446 -0.007667817 0.0002731781
0003d0 d2 b7 d8 bc 27 7a c8 26 48 04 e1 bc 6c e3 a4 34
       -0.02645484 1.3910897e-15 -0.027467862 3.0712852e-07
0003e0 93 de 88 b1 80 42 dc bc ef 06 63 bc 39 01 12 bd
       -3.9834247e-09 -0.026887178 -0.013856634 -0.035645697
0003f0 d0 34 1b 3a 19 fd 41 b4 40 6d 9c bd 7b 3f b9 bb
       0.00059206504 -1.8066602e-07 -0.07638025 -0.0056533194

lstm.weight_hh f4 [512, 128]
000000 78 93 0a 3c 5b 95 2a 3b db 55 f6 3b ca a9 8d 3c
       0.008458011 0.0026028964 0.007517559 0.017292876
000010 70 11 c2 3c f9 ef 03 be c6 1e f4 bb 76 80 c2 3c
       0.023689955 -0.12884511 -0.0074499575 0.023742896
000020 e6 ce 19 bc 44 bc 24 3b c7 69 22 bc 9b 04 69 3c
       -0.009387707 0.002513663 -0.009912915 0.014222289
000030 14 cc 82 3c 79 67 c0 b9 02 a7 79 3c 79 95 85 3c
       0.015966453 -0.00036698187 0.015237572 0.016306626
000040 8c df 22 bc 3a 2f 02 3c b2 18 4a 3b ab ad a1 3d
       -0.009940993 0.00794583 0.0030837473 0.07894453
000050 f0 82 2e bc d2 f7 18 bb 6e af 9d 3c c8 0a af ba
       -0.010651335 -0.0023341072 0.01924869 -0.0013354653
000060 b8 fb 43 bc e1 13 33 bd 82 c5 17 3c 62 e8 2f 3b
       -0.01196187 -0.04372013 0.009263398 0.0026841392
000070 bc 58 99 bc 00 7e 6e 3a 0b 0a 4d bc 62 fe cb 3b
       -0.01871907 0.0009097755 -0.012514601 0.006225393
000080 49 fb 57 bc 86 ac 37 bc 0d fb 03 bd de 1c 1d bc
       -0.01318247 -0.011210566 -0.032221843 -0.009589402
000090 70 c3 a0 3c 1e 44 83 3b e4 92 15 3e 99 38 9a 3b
       0.019624442 0.004005923 0.14606816 0.004706454
0000a0 13 44 fa 3b 90 65 d1 3b 42 72 40 be 28 40 90 3d
       0.0076375096 0.006390281 -0.18793586 0.07043487
0000b0 84 4f 63 3c 42 06 9a 3a e0 ac 35 3c b9 4c c8 bb
       0.0138739385 0.0011751133 0.01108858 -0.0061126617
0000c0 d1 79 78 3c 3e 3f a9 bc d4 54 a9 ba b4 77 8b 3b
       0.015165762 -0.020660039 -0.0012918958 0.004256213
0000d0 ec 85 8c bb 10 76 10 ba e1 8c 05 bc b4 f8 08 3a
       -0.0042884257 -0.0005510757 -0.008151264 0.0005225048
0000e0 c5 dd 03 bc 29 68 33 3c 38 61 4c bb 0c 21 39 3d
       -0.008048479 0.010950127 -0.0031185877 0.04519753
0000f0 52 34 61 3b 16 35 8e 3b b2 55 ee bc 06 99 b1 ba
       0.003436346 0.0043398244 -0.029093597 -0.0013549633
000100 60 9a 15 39 00 58 1a bc c9 da 8f 3b 18 d4 1a bb
       0.00014267256 -0.009420395 0.004390095 -0.0023624953
000110 b0 15 d4 bb be a7 3d bb 62 73 6a 3c ae 66 91 3c
       -0.006472312 -0.0028939093 0.014309736 0.017749157
000120 c2 e8 0c bd 8e 3e 15 bb 9c ed 24 bb 70 b6 be bb
       -0.034401663 -0.0022772881 -0.002516604 -0.005820088
000130 c8 c7 11 ba ee 96 3c 3b 3d 82 44 3e f3 5c 87 bc
       -0.0005561081 0.0028776485 0.19190307 -0.016523814
000140 5d 44 24 3d ae 2b 79 bc 29 45 0a 3c b4 6d c9 3b
       0.04010426 -0.015208168 0.008439341 0.006147111
000150 8a f9 3a bb fa 6a 3c be 90 59 50 3c 62 d8 25 bc
       -0.0028530085 -0.18400183 0.012716666 -0.01012239
000160 c1 e7 07 bc 88 0f a7 bb be fa 47 3c 4c 31 b6 bc
       -0.0082950005 -0.005098287 0.012205778 -0.022240303
000170 6d 65 26 bd b4 01 d6 bb 32 3e c3 bb a6 9b bc 3b
       -0.04062407 -0.0065309647 -0.005958342 0.0057558594
000180 7d 23 81 bc bc d7 a8 3a 63 ea ec bb 3f ab 09 3a
       -0.015763992 0.0012881677 -0.0072300895 0.0005251653
000190 12 49 72 3c 1e 2c 70 3b fd b6 ca bc 2d 0f 1b 3c
       0.014787929 0.003664739 -0.024745459 0.009464067
0001a0 1e 39 26 3c 4f 88 dc bb 25 0a 1c 3c 32 1f 16 3e
       0.010145454 -0.0067301164 0.009523903 0.14660338
0001b0 92 e7 1c bd b9 65 b1 3b f2 01 00 3b 2c 99 32 3c
       -0.03830678 0.0054137376 0.001953241 0.010900777
0001c0 ae f1 8e 3d 14 ca 16 3c 2e e8 00 3c e8 c9 74 bb
       0.069796905 0.009203453 0.007867856 -0.003735179
0001d0 bc e3 89 bc 5e 25 8d bb 07 a1 ee 3b f9 5e 75 bb
       -0.016832225 -0.004307433 0.0072823795 -0.0037440641
0001e0 57 a2 bc 3c 10 44 c6 3a a8 cb 93 3b a0 93 79 3b
       0.023026628 0.0015126485 0.0045103617 0.0038082376
0001f0 e8 b6 8b 3c 52 62 18 bc 9c 9d 37 bc d0 5c 38 3a
       0.01705499 -0.009300785 -0.011207011 0.0007032873
000200 4f f1 14 3c 9e fa 39 3b e4 16 05 3c 71 0c bb 3b
       0.009090736 0.002837814 0.008123133 0.0057082702
000210 52 53 62 bc 57 a2 22 bd 2f dc 77 ba ce cd 8a 3b
       -0.01381381 -0.0397056 -0.0009455112 0.0042359596
000220 8e a1 85 bb e0 e7 de 3a e0 f4 fe ba a8 09 87 3c
       -0.0040780967 0.001700636 -0.001945164 0.016484097
000230 d4 18 a8 3b 64 ce 5a bc fc 91 3a 3b e2 13 7c 3b
       0.005129913 -0.013354871 0.002846836 0.0038464
000240 fc 15 c3 3c bc 88 b8 3b 6e 23 22 bb 10 eb 05 3d
       0.023814194 0.0056315344 -0.0024740356 0.032694876
000250 8d 44 28 bb 0b 54 20 bb ee ba 94 3a 4b 6b 8c bb
       -0.0025675625 -0.0024464156 0.0011347213 -0.0042852513
000260 7d 31 84 bb eb e1 99 bc f5 2a 98 3b 64 17 a1 ba
       -0.00403422 -0.018784484 0.0046437928 -0.0012290296
000270 0d 17 75 bc 6e 3f 78 bb 2d f8 06 3c 20 60 be 3b
       -0.014959109 -0.0037879604 0.008237881 0.005809799
000280 2f 97 06 bc 30 a6 80 3b 8a 08 18 3b ad b8 c8 b9
       -0.008214756 0.003926061 0.002319845 -0.00038284567
000290 b6 b8 99 3b aa f6 62 bb 13 24 e0 3c 08 60 aa 3b
       0.0046912087 -0.0034631887 0.027360952 0.005199436
0002a0 90 5d 5a 3a b4 21 47 bb 2c ed 6e bd a1 28 25 3d
       0.0008329982 -0.003038508 -0.058331653 0.04032195
0002b0 c9 72 88 bb a4 92 b4 3a 4d 28 04 bc 4c 4c 9f ba
       -0.004164074 0.0013776612 -0.008066249 -0.0012153476
0002c0 c0 a5 07 39 6b 7b 6d bb d0 a7 8e 3b 26 0d 4a ba
       0.0001293635 -0.0036236893 0.004353501 -0.0007707648
0002d0 3d cd 10 bb de 1d 56 3b 69 26 19 bc ee 32 01 3b
       -0.0022094988 0.003267161 -0.009347537 0.0019714194
0002e0 aa 00 9f 3b a0 df 8a 3b 6e a7 7a 3b bc b2 73 3c
       0.004852374 0.004238084 0.0038246769 0.014874157
0002f0 20 a6 b6 bb 3c c0 d2 3b 38 57 be bc dc 82 d3 ba
       -0.005574003 0.0064316075 -0.023234949 -0.0016137022
000300 fc 04 a3 bc 88 87 bc ba f8 8f f2 3b 5b 6c d3 bb
       -0.019899838 -0.0014383653 0.0074024163 -0.006452126
000310 6e 57 a1 3b 43 ee 58 bb 76 ea c0 bb 37 b3 06 3c
       0.0049237525 -0.0033101 -0.005887325 0.008221439
000320 f3 fb b6 bc a6 b7 0d 3c a6 de a4 bb 8c e7 63 bb
       -0.022336936 0.008649742 -0.0050314246 -0.0034775464
000330 72 9d 93 bb 4f 1c 31 3a da 2c 87 3d 24 cc 8b bb
       -0.004504853 0.00067562325 0.06600352 -0.004266279
000340 8f 07 1c 3c 80 5e 82 3a 18 65 7f 3b 48 d0 94 bb
       0.0095232865 0.0009946376 0.0038970169 -0.0045414306
000350 f4 3d 9c ba 6d 07 8e bd f8 ef de 3b 0e 12 72 bb
       -0.0011920319 -0.0693501 0.006803509 -0.003693703
000360 01 82 19 bb ce da bd 3b c1 63 96 bb 66 c8 38 bc
       -0.0023423436 0.005793906 -0.0045895283 -0.011278247
000370 7b f3 87 bc 19 f1 b3 b9 64 ed 99 bb 83 77 cd 3b
       -0.016595593 -0.00034321172 -0.0046974886 0.0062703504
000380 85 0e 98 bb 70 4f c0 3b 5a 26 d6 bb 80 80 3d bc
       -0.0046404027 0.0058688447 -0.0065353336 -0.011566281
000390 aa d1 8c 3b f6 fd 81 3b 99 f4 4a bc a3 df 6d 3a
       0.004297455 0.003967042 -0.012387418 0.0009074157
0003a0 da ef 4e 3b a7 00 08 bc 04 1e 95 3b 09 4f 47 3d
       0.0031576068 -0.008300937 0.0045506973 0.04865936
0003b0 86 e2 81 bc 8b 57 93 bb fe 05 c2 bb a2 5c 9f bb
       -0.015855085 -0.00449652 -0.0059211245 -0.0048633376
0003c0 e2 27 97 3c 88 25 ce 3b d0 32 05 b8 d6 31 9c ba
       0.018451635 0.006291095 -3.1756994e-05 -0.0011916708
0003d0 84 8b 2b bc 6b ad 14 bb d4 91 04 bb 28 46 b9 3b
       -0.010470275 -0.0022686373 -0.0020228522 0.005654115
0003e0 7b ba 60 3c d8 96 9a bb 0c 5a 86 ba 88 40 0a bc
       0.013716335 -0.004717689 -0.0010250225 -0.008438237
0003f0 83 ee 74 3c dc e1 5b 3b 0b 3a a0 3b 52 91 cb 3b
       0.014949444 0.003355137 0.0048897318 0.006212392

lstm.bias_ih f4 [512]
000000 a8 2c 42 be b8 a2 3a be b9 a3 40 be 5b 76 46 be
       -0.18962348 -0.18226135 -0.18812455 -0.19381087
000010 0c 1f 13 be f9 0a 70 3e 24 d4 73 be ed 23 70 be
       -0.14367312 0.23441686 -0.23811394 -0.23451205
000020 01 27 73 be 65 a1 6b be e8 22 38 be 78 08 13 be
       -0.23745348 -0.23010786 -0.17982066 -0.143587
000030 76 8b b2 bd 4d 79 49 be 9e 21 47 be 86 31 5d be
       -0.08718006 -0.19675179 -0.19446418 -0.21600923
000040 b2 07 ee 3c 0e 1b 4c be 57 0b 54 be 76 e9 4e 3d
       0.029056404 -0.19932196 -0.20707451 0.050515614
000050 ec f0 3b be eb d9 54 be f5 66 2f be ca 68 45 be
       -0.18353623 -0.20786254 -0.17129119 -0.19278255
000060 d9 7e 62 be e3 83 13 be d2 ba 50 be 49 6d 3f be
       -0.22118701 -0.1440578 -0.20383766 -0.18694033
000070 66 41 39 be 4e 09 7e be 54 50 16 be d9 29 62 be
       -0.18091354 -0.24808237 -0.1467908 -0.22086276
000080 76 dc 47 be a8 df 3c be 5f c6 ad bd b7 60 56 be
       -0.19517693 -0.18444693 -0.08485102 -0.20935331
000090 41 6c 63 be 48 e0 50 be bb 30 b3 3e 00 ef 42 be
       -0.22209264 -0.20398057 0.34998116 -0.19036484
0000a0 52 ba 63 be c1 53 59 be 93 17 f3 3e 54 38 a7 bd
       -0.22239044 -0.21223356 0.47478923 -0.081650406
0000b0 66 e2 38 be 6f a9 36 be 96 92 3d be 6e 00 4b be
       -0.18055114 -0.17838071 -0.1851295 -0.19824383
0000c0 24 10 8b bd 3e 76 3f be d4 37 3c be e4 c4 76 be
       -0.06790188 -0.1869745 -0.18380672 -0.24098545
0000d0 ad 75 eb bd bd 92 35 be ab ad 5d be 83 9f 38 be
       -0.11497054 -0.17731757 -0.2164828 -0.18029599
0000e0 97 e4 40 be 47 5c 80 bd 6c 90 3a be bc b2 1e be
       -0.188372 -0.062676005 -0.18219155 -0.15497869
0000f0 16 5d 3d be 92 63 7d bd 4e 42 b3 bd 26 8c 3c be
       -0.1849254 -0.061862536 -0.08752881 -0.18412837
000100 6c 5d 18 be d2 e4 3d be 35 5e 2e be b1 ec 4a be
       -0.14879388 -0.1854432 -0.17028125 -0.19816853
000110 bc 6b 3b be c8 f3 75 be 2a b4 85 be c1 f9 56 be
       -0.18302816 -0.24018776 -0.26114017 -0.20993711
000120 38 d0 76 be cc fb 81 be 66 76 41 be 70 18 4d be
       -0.24102867 -0.25387418 -0.18892822 -0.20028853
000130 a0 37 3d be a8 5d 26 be 81 dd d8 3e 13 00 7d be
       -0.1847825 -0.16246665 0.42356494 -0.2470706
000140 1e fa c4 bd 64 7a 4d be 2d 8c 62 be 21 e0 44 be
       -0.096180186 -0.2006622 -0.22123785 -0.19226123
000150 e5 f4 3d be 5a 26 a2 3e 18 1d 49 be a1 d4 27 be
       -0.18550451 0.31669885 -0.19640005 -0.16389705
000160 e9 18 30 be 91 56 69 be f8 51 54 be a4 d9 86 be
       -0.17197002 -0.22786929 -0.20734394 -0.26337922
000170 da f7 c5 bd a2 99 4d be 66 8f 47 be 7f 52 4c be
       -0.096664146 -0.20078138 -0.19488296 -0.19953345
000180 58 b8 48 be e7 6b 44 be 25 02 43 be de 43 15 be
       -0.19601572 -0.19181786 -0.19043787 -0.1457667
000190 77 60 44 be 58 6e 49 be 9e 7a 5d be 7c 2b 74 be
       -0.19177423 -0.19670999 -0.21628806 -0.23844713
0001a0 05 a9 5f be 8c 6a 76 be a9 1d 3f be 44 51 9f 3e
       -0.2184182 -0.24064082 -0.18663658 0.31116688
0001b0 a8 e4 d2 bd 87 37 3b be 42 29 4d be 9f 9b 44 be
       -0.10297519 -0.18282901 -0.2003527 -0.1919999
0001c0 de 0b 8e bc f8 e6 4d be 01 7b 56 be a6 d6 86 be
       -0.017339643 -0.20107639 -0.2094536 -0.2633564
0001d0 00 23 23 be f2 1b 52 be fc 24 5b be 00 a2 5d be
       -0.1593132 -0.20518473 -0.21400827 -0.2164383
0001e0 ca 4c 69 be 70 03 41 be 9a 7f 70 be 07 54 41 be
       -0.22783199 -0.18848968 -0.23486176 -0.1887971
0001f0 c9 6e e7 bd 9a 2b 3e be 3e 80 4e be 65 fd 45 be
       -0.113004275 -0.1857132 -0.20166108 -0.19334944
000200 d9 f0 49 be 65 3d d6 bd 28 96 e5 bd 0f b9 c3 bd
       -0.19720782 -0.10460929 -0.11210281 -0.095567815
000210 8c 90 e6 bd a1 bd 2f 3c d3 0d ec bd 3b b8 e9 bd
       -0.11258039 0.010726363 -0.11526074 -0.11412092
000220 41 45 fc bd ce d8 27 be f6 9c bd bd b8 48 37 be
       -0.12317897 -0.16391298 -0.092584535 -0.17898834
000230 d9 7a 5d be 4e b2 54 be fa 63 0d be a6 f4 f5 bd
       -0.21628894 -0.20771143 -0.1380767 -0.120095536
000240 78 d6 5e be 19 0e f2 bd 68 65 da bd b7 32 22 be
       -0.21761501 -0.11819095 -0.10663873 -0.15839659
000250 ab 06 68 be de 48 07 be 66 68 b1 bd 85 79 04 be
       -0.22658794 -0.1321139 -0.086624905 -0.12936981
000260 66 73 d5 bd bf 6e 40 be 78 15 c4 bd bd 8c d7 bd
       -0.10422401 -0.18792246 -0.09574407 -0.105248906
000270 0d 6b 0e be c6 62 13 be ab d0 40 be 46 4f ee bd
       -0.13908024 -0.14393148 -0.188296 -0.11636214
000280 66 74 d4 bd f4 04 dd bd 5b 80 17 be b2 bf 16 be
       -0.10373764 -0.1079196 -0.14795057 -0.14721563
000290 69 7c d1 bd ec 24 bb bd 68 b2 e5 3d f8 8d de bd
       -0.102288075 -0.09137902 0.11215669 -0.10866922
0002a0 30 13 ea bd a1 03 03 be 7f 32 1a 3e 42 98 2f be
       -0.11429441 -0.12794353 0.15058325 -0.17147925
0002b0 76 f4 e1 bd 7b 7c b0 bd 59 8f dc bd ac 43 9d bd
       -0.11032955 -0.08617493 -0.10769529 -0.07678923
0002c0 4d 42 77 be 30 8a c0 bd 79 57 ef bd c0 52 01 be
       -0.24146385 -0.09401357 -0.11686606 -0.12629223
0002d0 40 a0 6b be e6 55 91 bd 19 8d db bd 5e 38 ce bd
       -0.2301035 -0.07096462 -0.107202716 -0.10069345
0002e0 2d eb db bd 86 9e 4f be 1f 79 de bd 42 2c 84 be
       -0.107382156 -0.20275316 -0.10862946 -0.25815016
0002f0 47 19 f6 bd 6b 26 03 be d9 c9 0e be a6 c9 ce bd
       -0.1201654 -0.12807624 -0.13944186 -0.10097055
000300 38 0b 7f be 21 e7 cd bd 4e 47 89 bd 05 ff db bd
       -0.24906623 -0.1005385 -0.067030534 -0.107420005
000310 9f 74 cb bd c9 8d 0a be ac 0d 1c be ee ec 14 be
       -0.09934353 -0.13530649 -0.1523959 -0.14543507
000320 48 fe 2c be 8f fa 30 be a4 98 ec bd 60 fc e5 bd
       -0.16893876 -0.1728308 -0.115525514 -0.11229777
000330 e5 be fd bd bd 60 7c be 57 67 0e 3e ed 1d 00 be
       -0.12389926 -0.24646278 0.13906609 -0.12511416
000340 46 a7 88 be ca 85 e1 bd 08 1d e8 bd 60 e0 e2 bd
       -0.2669012 -0.11011846 -0.11333662 -0.110779524
000350 86 a9 e3 bd 8e a2 5f 3e 34 0b e8 bd 79 7e 47 be
       -0.111163184 0.21839353 -0.11330262 -0.19481839
000360 f8 f8 5b be 7c a6 33 be a1 4e dd bd 8a be 55 be
       -0.21481693 -0.17543977 -0.10806013 -0.20873466
000370 31 8d 3f be 58 e0 c6 bd d3 cd e3 bd c6 f3 c9 bd
       -0.18706204 -0.09710759 -0.11123242 -0.09860949
000380 21 24 e0 bd 1a a3 01 be a2 a5 f5 bd c7 6b 40 be
       -0.10944391 -0.12659875 -0.119944826 -0.18791114
000390 bd 90 d4 bd 6f 01 d6 bd af 88 50 be 3f c6 fb bd
       -0.10379169 -0.10449492 -0.2036464 -0.12293672
0003a0 fb db 0e be fc 93 3b be 98 9d d8 bd f6 2f a6 3d
       -0.13951103 -0.1831817 -0.105769336 0.081146166
0003b0 a9 df 19 be 3c 90 d0 bd ff 5b da bd b8 27 d6 bd
       -0.15026726 -0.101837605 -0.10662078 -0.104567945
0003c0 86 a3 1a be e6 f1 f4 bd ae 92 32 be b5 77 1d be
       -0.15101442 -0.11960201 -0.17438766 -0.15377696
0003d0 3e 08 2f be ce b6 69 be ef b9 ee bd 68 9f c5 bd
       -0.17092988 -0.2282364 -0.11656558 -0.09649545
0003e0 96 ab 00 be df c9 d3 bd 20 04 1c be 72 89 42 be
       -0.12565455 -0.10341238 -0.15235949 -0.18997744
0003f0 67 44 47 be 83 d1 d7 bd b6 cb f2 bd 27 7e e6 bd
       -0.19459687 -0.10538008 -0.11855261 -0.112545304

lstm.bias_hh f4 [512]
000000 a2 00 53 be a3 a6 39 be cd d6 40 be 7a 97 46 be
       -0.2060571 -0.18129973 -0.1883194 -0.19393721
000010 b2 6e 1a be b7 0c 40 3e 82 66 70 be ad df 73 be
       -0.1508129 0.1875485 -0.23476604 -0.23815794
000020 10 bf 6c be 01 b4 59 be 0c 9c 39 be 14 8a fc bd
       -0.2311976 -0.21260072 -0.18125933 -0.12331024
000030 2b 17 38 bd 6a c1 05 be f1 b0 32 be 0c 39 57 be
       -0.04494397 -0.13062063 -0.1745031 -0.21017855
000040 bd 8e 16 3d 65 c3 4a be 71 3e 56 be 47 5d 74 3d
       0.03675722 -0.198011 -0.20922257 0.05965927
000050 35 70 44 be 91 a2 4f be f8 7a 2f be bd 7e 43 be
       -0.19183429 -0.20276858 -0.17136753 -0.19091316
000060 5e c1 60 be fc 13 20 be 81 c5 50 be 4c 1b 3f be
       -0.21948764 -0.15632623 -0.20387842 -0.18662757
000070 f6 d1 41 be ac 80 87 be d8 b6 ea bd 9c 98 65 be
       -0.1892775 -0.26465356 -0.11460656 -0.22421497
000080 52 f8 44 be 58 12 3c be ca 71 ae bd 4f 14 6c be
       -0.19235352 -0.18366373 -0.08517797 -0.23054622
000090 b5 c6 60 be 87 32 4c be 51 48 bd 3e 0a 9f 43 be
       -0.219508 -0.1994115 0.36969236 -0.19103637
0000a0 fa 7e 65 be 80 e2 57 be 9f 9d ee 3e 6b 45 78 bd
       -0.22411719 -0.21082497 0.4660463 -0.060613077
0000b0 4b 2f 39 be 52 e3 36 be 86 a9 3c be b1 ec 60 be
       -0.18084447 -0.17860153 -0.18424043 -0.2196529
0000c0 8e 5f 02 be d1 81 3f be 92 2b 3e be 47 e1 7e be
       -0.12731764 -0.18701865 -0.18571308 -0.24890624
0000d0 e5 10 0c be 16 33 35 be a0 db 63 be ec 5e 38 be
       -0.1367832 -0.17695269 -0.22251749 -0.1800496
0000e0 ad e8 3f be d4 ff 37 bd 80 69 3a be 83 c9 1e be
       -0.18741103 -0.04492171 -0.18204308 -0.15506558
0000f0 69 3f 40 be bd 95 99 ba 63 d1 75 bc a8 7b 3c be
       -0.18774189 -0.0011717599 -0.015003535 -0.18406546
000100 3e b1 b4 bd b5 f2 3d be 3f ec 2d be 86 da 4a be
       -0.08822869 -0.18549617 -0.16984652 -0.19809923
000110 96 c6 39 be 03 2d 79 be b9 1f 8d be 3b d2 57 be
       -0.18142161 -0.24333577 -0.27563265 -0.2107629
000120 32 34 58 be 3e 73 92 be f6 45 41 be c0 7c 4d be
       -0.21113661 -0.28603548 -0.18874344 -0.2006712
000130 71 62 42 be 10 d7 1b be 72 e0 d7 3e 81 0c 79 be
       -0.18982865 -0.15218759 0.42163426 -0.24321176
000140 89 47 04 be 64 c1 52 be 58 63 66 be 28 42 44 be
       -0.12917913 -0.20581585 -0.22498834 -0.19165862
000150 23 31 3e be 3d 7d b4 3e c0 b5 4a be 87 44 3a be
       -0.18573432 0.352518 -0.19795895 -0.18190204
000160 e4 cc 43 be 02 f9 77 be 85 47 56 be 6a 17 76 be
       -0.19121128 -0.24216083 -0.2092572 -0.2403237
000170 25 08 fd bd fc fe 4b be 94 99 47 be 02 05 4c be
       -0.12355069 -0.19921488 -0.19492179 -0.19923785
000180 18 b3 48 be e4 a2 57 be 6f 04 42 be dd 85 3f be
       -0.19599569 -0.21058232 -0.18947004 -0.18703409
000190 09 90 44 be c9 29 49 be 57 27 4f be 40 79 6f be
       -0.1919557 -0.19644846 -0.2022985 -0.23386097
0001a0 97 10 52 be 0a b3 6a be 5d ef 3d be 53 0a c1 3e
       -0.20514141 -0.2291986 -0.18548341 0.3770319
0001b0 69 57 ec bd 3b a5 3c be 52 c9 4c be 92 ee 45 be
       -0.1154011 -0.18422405 -0.19998673 -0.19329289
0001c0 a5 79 0c be e7 b4 4e be 93 7e 55 be 52 35 7d be
       -0.13718279 -0.20186196 -0.20849065 -0.24727371
0001d0 c7 99 19 be 56 f4 e1 bd f3 7c 5a be 98 ba 6b be
       -0.15000068 -0.110329315 -0.21336727 -0.23020399
0001e0 14 cd 74 be 2d 4e 41 be 01 bd 80 be 91 89 71 be
       -0.23906356 -0.18877478 -0.251442 -0.23587634
0001f0 55 37 ef bd 0c 7a 3d be aa 12 4c be a1 15 46 be
       -0.116804756 -0.18503588 -0.19928995 -0.19344188
000200 b6 85 33 be db 38 d6 bd 0b 98 e5 bd c3 b8 c3 bd
       -0.17531475 -0.10460063 -0.112106405 -0.09556725
000210 11 84 d2 bd 5b f2 14 bc f8 00 ec bd ea f9 e9 bd
       -0.10279096 -0.009090985 -0.11523622 -0.114246204
000220 b0 9e fb bd 28 b2 3a be 82 77 bd bd 37 f1 3b be
       -0.122861266 -0.18232024 -0.0925131 -0.18353735
000230 19 01 2a be d7 d7 67 be b0 cc 0d be ab b1 f7 bd
       -0.16601981 -0.2264093 -0.13847613 -0.12094434
000240 31 1f 13 be a1 11 f2 bd 16 0f da bd cb ea 78 be
       -0.14367367 -0.11819769 -0.10647409 -0.24308316
000250 71 bf 65 be f8 5a 07 be 9a 65 b1 bd 99 9c 04 be
       -0.2243631 -0.13218296 -0.08661957 -0.12950362
000260 b8 50 d5 bd 6d fa 33 be 2a 11 c4 bd c8 8c d7 bd
       -0.104157865 -0.17575999 -0.09573586 -0.10524899
000270 b8 86 0d be 7c 20 11 be 1c 78 29 be 8c 36 ee bd
       -0.13820922 -0.14172548 -0.16549724 -0.11631498
000280 78 6a d4 bd 0b 04 dd bd e7 c6 25 be f4 11 19 be
       -0.1037187 -0.10791787 -0.16189156 -0.14948255
000290 7b 06 d1 bd 8d 47 ba bd f3 ee 9f 3d 9f 97 de bd
       -0.10206314 -0.090956785 0.07809248 -0.10868763
0002a0 85 1b ea bd f1 eb 02 be 40 fe 11 3e ac 1c 09 be
       -0.1143103 -0.12785317 0.14257145 -0.13389844
0002b0 b5 f6 e1 bd 5d 7c b0 bd bc b7 dc bd a2 96 9d bd
       -0.11033384 -0.086174704 -0.10777232 -0.076947466
0002c0 1b 19 40 be 98 8a c0 bd ff 49 ef bd 51 6e 01 be
       -0.18759577 -0.09401435 -0.116840355 -0.12639739
0002d0 84 44 39 be 76 53 91 bd 4c 75 db bd 23 38 ce bd
       -0.18092543 -0.07095997 -0.10715732 -0.10069301
0002e0 3a eb db bd 46 79 3d be 00 a7 de bd f0 d6 80 be
       -0.10738225 -0.18503293 -0.108716965 -0.25163984
0002f0 f7 ff f5 bd 80 89 01 be db 28 56 be ac c9 ce bd
       -0.12011712 -0.12650108 -0.20914023 -0.100970596
000300 f5 27 6e be 20 e7 cd bd 22 48 89 bd 80 ff db bd
       -0.2325743 -0.10053849 -0.06703211 -0.10742092
000310 e5 75 cb bd 1e 86 0a be 4a 42 14 be d8 de 0b be
       -0.09934596 -0.13527724 -0.14478412 -0.13659227
000320 28 72 28 be 54 85 2b be d1 97 ec bd 87 ff e5 bd
       -0.16449797 -0.1675008 -0.11552394 -0.112303786
000330 1c 35 fe bd c3 68 5c be 0c ff 17 3e 28 51 00 be
       -0.124124736 -0.21524338 0.14843386 -0.12530959
000340 38 5a 63 be 34 76 e1 bd 6c 18 e8 bd c0 d5 e2 bd
       -0.22202384 -0.110088736 -0.11332783 -0.11075926
000350 54 a9 e3 bd 75 bd 26 3e 79 18 e8 bd 92 bb 3e be
       -0.11116281 0.1628321 -0.11332793 -0.1862624
000360 47 ad 3d be 59 e3 32 be f6 9c dd bd c3 ed 5f be
       -0.18523131 -0.17469539 -0.108209535 -0.21868043
000370 b0 77 21 be 2b db c6 bd 8a cd e3 bd f9 f1 c9 bd
       -0.15768313 -0.09709772 -0.11123188 -0.09860606
000380 a6 23 e0 bd ad 6c 01 be 2e ae f5 bd f8 8e 44 be
       -0.109442994 -0.12639113 -0.11996113 -0.19195163
000390 c2 90 d4 bd 25 fd d5 bd c6 20 52 be b0 58 fc bd
       -0.10379173 -0.10448674 -0.20520315 -0.12321603
0003a0 44 c3 0e be eb 94 35 be d2 ad d8 bd a3 bf 09 3e
       -0.13941675 -0.17732589 -0.105800286 0.1345201
0003b0 58 8c 30 be d1 89 d0 bd 17 57 da bd 3c 31 d6 bd
       -0.17241037 -0.101825364 -0.10661142 -0.104586095
0003c0 09 33 37 be 59 ef f4 bd 84 e5 2f be fe f6 1b be
       -0.17890562 -0.119597144 -0.17177397 -0.15230939
0003d0 1e 1a 22 be b1 c6 55 be e1 c1 ee bd 91 02 c5 bd
       -0.15830275 -0.20876576 -0.11658073 -0.0961963
0003e0 37 17 06 be a4 c9 d3 bd 8a 2c 1c be e0 0a 3e be
       -0.13094793 -0.10341194 -0.15251365 -0.18558836
0003f0 99 70 38 be 77 ce d7 bd 76 ce f2 bd 01 7e e6 bd
       -0.18011703 -0.10537427 -0.118557855 -0.11254502

output_w.weight f4 [5, 128]
000000 ee 42 93 bc 73 65 1f bc 4f a7 71 bc c0 8c 9b bb
       -0.01797625 -0.009728777 -0.014749362 -0.0047470033
000010 9c 93 c0 3c 4e 82 22 bd bd 8c e9 bb 50 d7 e5 3b
       0.023507886 -0.03967505 -0.007127373 0.0070141926
000020 40 4d c8 39 ba 21 49 bd a0 52 1a 3c 10 64 e9 bb
       0.00038204528 -0.04910443 0.009419113 -0.007122524
000030 d7 37 b1 3c 88 2e aa bc e2 26 b0 bc e6 77 24 bc
       0.021633072 -0.020774141 -0.021502916 -0.010038352
000040 29 c5 5f be 06 bf 06 bc 7d e6 2f bc 08 36 e4 3d
       -0.21852554 -0.0082242545 -0.010736105 0.11143118
000050 d9 4b 5e 3d a1 ea d7 3b e2 cc 91 bb b6 ec 68 3b
       0.054271553 0.0065892492 -0.0044494728 0.0035541481
000060 29 db 84 3b 7a 5d 49 3c 3f e0 b4 bb 4e fa 25 3c
       0.0040544462 0.012290353 -0.0055198963 0.010130478
000070 4f d8 ad bc 7a 9c e4 3b f4 b5 c3 3c f4 1e ae bb
       -0.021221308 0.0069766613 0.023890473 -0.0053137485
000080 cc 14 19 3a 81 5b 6a bb 84 c1 92 bc d8 54 30 3c
       0.0005839586 -0.0035760107 -0.017914541 0.010762416
000090 26 31 10 bc 61 23 c7 3b 9a 5c 72 3d 03 c0 9c bc
       -0.00880078 0.0060772155 0.059170343 -0.019134527
0000a0 b4 1e dc ba be 32 0f 3c a8 1f 44 bb 39 7b 73 3c
       -0.0016793818 0.008740125 -0.0029926095 0.014860922
0000b0 f7 15 57 3b e4 25 a8 ba 49 f8 2c 3c 02 95 6c bc
       0.0032819489 -0.0012828675 0.010557243 -0.014439823
0000c0 96 dd 87 3c ed 02 80 3b f9 f6 fc bb 48 1e 17 3c
       0.016585153 0.003906599 -0.007719871 0.009223528
0000d0 d5 8b 9a 3d 00 d5 7c 39 4a c1 ec 3c 16 51 e9 bb
       0.07546202 0.00024111941 0.028900761 -0.007120262
0000e0 68 a5 da bb 6e 81 b0 bd 08 eb eb ba e0 9e c8 3d
       -0.00667255 -0.08618437 -0.0017999122 0.09795928
0000f0 a4 45 7d ba 2e c9 fd bd 0f 33 2e 3e f9 f4 c2 3b
       -0.00096615613 -0.123918876 0.17011665 0.005949613
000100 28 9a 18 bc 60 cf 36 3a dc 75 15 bc de 88 69 3b
       -0.009314097 0.00069736503 -0.009122338 0.0035634558
000110 dc 0f c5 bb b8 e1 c5 3a 6e d9 ec 3c 90 3b 79 bc
       -0.0060138535 0.0015097177 0.028912272 -0.015211955
000120 07 5e 04 bb f8 13 38 bc 60 3a 73 3c 8a f8 7b 3b
       -0.0020197646 -0.01123523 0.014845461 0.0038447701
000130 ac 7e 3b bb 29 1e 4d 3d c8 13 b0 bd 4a 93 08 bc
       -0.0028609438 0.05007759 -0.08597523 -0.008335898
000140 6d 7b 85 3e 10 e1 41 3b c0 c7 22 bb f8 b7 11 3c
       0.2607073 0.002958361 -0.0024838299 0.008893959
000150 96 99 fd 3b 6f a7 a5 3d b1 09 c1 bb 6d a8 7a bd
       0.007739256 0.08088576 -0.005891048 -0.06119578
000160 a2 ed aa bd f4 3a 0b bb 79 bc 14 3c 72 fa bc bc
       -0.08346106 -0.0021244856 0.0090781385 -0.02306864
000170 bf 43 93 bd 1d 02 d6 bb f8 52 fc 3b d2 61 14 bc
       -0.07190656 -0.0065310136 0.0077003203 -0.009056525
000180 c7 10 be 3b 92 ef 8d 3b fa 70 c6 3b 73 01 ed 3d
       0.00580034 0.0043315375 0.0060559483 0.11572542
000190 12 0d 05 bc 0a fc 28 bb 10 8f 10 3d ce bf 84 3c
       -0.008120792 -0.0025784993 0.035292685 0.01620474
0001a0 0c ca 3d bc a0 81 61 3a aa 52 b8 bb a7 4e dc 3c
       -0.011583816 0.00086023845 -0.0056250887 0.026892973
0001b0 6b aa 8e bd 7b b1 b0 3a 8c ba a1 3b 58 36 38 3b
       -0.069660984 0.0013480628 0.004935568 0.0028108563
0001c0 1e 42 12 3e 44 52 2e bc 87 62 9a bc a8 47 cc 3b
       0.14283034 -0.010639731 -0.01884581 0.006234128
0001d0 ea 86 f1 bb 98 9d 99 3c ca 27 d6 bb 6e ce af bc
       -0.0073708193 0.018751904 -0.006535505 -0.021460738
0001e0 7b 90 ea 3b 44 74 88 ba d4 8b 22 3c 2f 26 31 bc
       0.0071583367 -0.0010410626 0.009921033 -0.010812326
0001f0 14 f6 0c 3d 42 a7 1a bc 4a 03 fb bb 52 1b bb bb
       0.034414366 -0.009439291 -0.007660304 -0.005710044
000200 3f 11 93 3d b2 26 5f 3c f0 d2 13 ba 35 13 b9 bc
       0.07181024 0.0136200655 -0.0005639037 -0.022592166
000210 14 0e 95 bd 59 21 75 bd 24 fc b4 3c 19 a7 81 bb
       -0.07278076 -0.059846256 0.022092886 -0.003956687
000220 f4 e4 1d 3d f8 0b 09 3d dd f0 07 bc 7f 1b 90 3d
       0.038548425 0.03345868 -0.008297172 0.070364945
000230 97 ee 8c 3c fe 93 46 bd 52 6d 01 3d 50 79 f3 bc
       0.017203612 -0.04848098 0.031598397 -0.029720932
000240 b7 81 ae 3e aa 6e 80 bc ed c2 e7 3c c3 6c b4 3e
       0.3408334 -0.015677769 0.02829119 0.3523923
000250 e3 ec 6f bd bf 68 c9 bb 24 5f a7 3c f4 89 17 bc
       -0.058575522 -0.00614652 0.020431109 -0.009249199
000260 5e 95 a7 3c 8c 1f 30 bd 68 55 e6 3c 50 59 ec bb
       0.020456966 -0.042998835 0.028116897 -0.0072127953
000270 a4 ff dd bc 10 f8 41 bd 4d ad fd 3c 79 26 0b bd
       -0.027099438 -0.04735571 0.030966425 -0.033972237
000280 86 57 c2 3b a3 08 0b 3c 66 66 29 3d 79 49 36 bc
       0.0059308438 0.008485946 0.04135742 -0.011125916
000290 af 6a f4 ba a3 e2 42 3d 42 c4 f0 bc 53 f5 8d 3c
       -0.0018647517 0.04757942 -0.029390458 0.017328894
0002a0 14 8f bc 3b 8e ef 78 bb 5f c4 89 3d 71 07 a6 3d
       0.005754361 -0.0037984583 0.06726908 0.08106888
0002b0 cf 63 7f bc 0b 50 d6 3b d8 32 ee bc b4 7b 81 3d
       -0.015587761 0.0065403036 -0.029076979 0.063224226
0002c0 4e 2c 1c 3c fd 9d 88 bc 13 b3 44 bc 10 01 d0 bc
       0.009532047 -0.016676897 -0.012005585 -0.025391132
0002d0 7e 7e f6 bc 92 32 48 bd 77 9e 06 bd 77 29 38 bc
       -0.030089613 -0.048876353 -0.032865968 -0.011240355
0002e0 3a 64 0c 3c 6e ef 9e 3c a2 9d ff bc 2c f6 d9 3c
       0.008568818 0.019401278 -0.031203095 0.026606642
0002f0 70 db 32 3b 1a 32 da 3b 06 35 e1 bc 29 b6 9e ba
       0.002729144 0.0066588046 -0.027491104 -0.0012108731
000300 cf 21 10 be 4d d7 43 3c 3e 74 a5 bc 05 a7 45 bc
       -0.14075397 0.011953187 -0.02019703 -0.012063746
000310 ac 26 a7 3c 4f 18 dd 3c b3 5d d0 bc ee 99 e7 3c
       0.020404182 0.02698913 -0.025435304 0.028271642
000320 54 89 37 bd d1 5b 5b 3d b9 f4 e1 bb 83 f5 c5 3b
       -0.0448087 0.05355436 -0.0068956283 0.00604123
000330 88 ce 26 3b 55 aa 21 3c c3 bf fe bc 42 0c e6 3c
       0.0025452692 0.0098672705 -0.031097298 0.028082017
000340 25 79 c0 3d e7 95 37 3c 69 83 13 bd 5d ed 81 3c
       0.093981065 0.011205173 -0.036013994 0.015860254
000350 c1 b7 32 bb 13 89 09 bd 42 a7 5a ba b3 32 d4 3b
       -0.002727017 -0.03357799 -0.00083409634 0.0064757704
000360 a8 3c fa bb ce 16 e6 3c 10 2d 0e bc 36 e1 c6 bb
       -0.0076366253 0.028087046 -0.008677736 -0.0060693277
000370 0a 88 f8 ba 27 a0 91 3b fc 7f 4f 3c 4d 27 b0 3c
       -0.0018961441 0.0044441405 0.012664791 0.021503115
000380 01 8a 9a bb ed 5c 0e 3d c2 cc 98 3c 73 16 62 bd
       -0.0047161584 0.03475659 0.018652324 -0.05519719
000390 92 54 bd 3a 51 53 07 3c df 66 81 bd f7 12 05 bd
       0.001444476 0.00825961 -0.06318449 -0.03248879
0003a0 c2 92 37 3d c5 f5 ec bc c5 ea 08 bd ba d0 8b 3d
       0.044817694 -0.028925786 -0.03342702 0.06826921
0003b0 0e f6 76 3b 3c cd 23 3b b4 58 4b ba f9 8c 62 bc
       0.003768328 0.0024994155 -0.0007757053 -0.013827556
0003c0 9b 14 b0 3d 3a 00 a5 bb d1 4d e3 bb c6 e1 2a 3d
       0.0859768 -0.0050354274 -0.0069367667 0.04171922
0003d0 8f ed 86 bc ce 39 33 bb 6c 46 66 bc 6c 7d c7 3b
       -0.016470699 -0.0027347687 -0.014054876 0.0060879495
0003e0 ed 81 15 3d 96 5a 12 3c 13 cc 3a bd b9 8c 2c bd
       0.03650086 0.00893273 -0.045604777 -0.04212639
0003f0 3c f0 b6 3c 82 47 56 3c d6 00 70 3c 86 93 38 3b
       0.02233135 0.013078572 0.014648637 0.0028164103

output_w.bias f4 [5]
000000 a0 15 03 bd c7 41 5f 3d 65 32 17 bf 5b 1b 25 bf
       -0.032003045 0.05450609 -0.5906127 -0.64494866
000010 53 04 c2 bd
       -0.09473481

square_avg f4 [64]
000000 81 a0 08 3d d3 3d f3 3d 39 6f a4 3d d6 69 99 2f
       0.033356193 0.118770264 0.080290265 2.790574e-10
000010 51 b3 68 31 38 57 1a 3c a4 52 e9 3b 92 3e 5c 39
       3.3862373e-09 0.009420209 0.0071204472 0.00021004144
000020 2d 8c 9b 3b b7 fb df 35 79 0d 7c 3c f9 7b 96 3a
       0.004746935 1.6688053e-06 0.0153840715 0.0011481039
000030 1f 07 83 3b 4f f2 6c 3c 24 af 0c 36 6a 8f e3 36
       0.0039986516 0.014462068 2.096357e-06 6.781823e-06
000040 ef cd 5b 30 7b 01 70 2f db a8 05 3a 5f d8 93 3c
       7.9964385e-10 2.1828399e-10 0.0005098709 0.01804751
000050 68 3f 73 34 1e f1 0c 33 85 14 c2 2f 1b 89 c6 33
       2.2654206e-07 3.2815585e-08 3.5302974e-10 9.245033e-08
000060 b0 87 54 39 8e 78 e2 32 5c b2 00 3d ed 0d f7 37
       0.00020268443 2.6364685e-08 0.031420097 2.945118e-05
000070 a0 bd e6 3d 77 d6 b2 39 c7 5b a5 38 0f 01 a1 3c
       0.11266637 0.00034110594 7.884908e-05 0.019653825
000080 21 cd ad 3c 13 64 86 3d e1 62 2f 3d 0e f9 86 3c
       0.021215977 0.065620564 0.042818908 0.01647618
000090 97 07 96 3d 88 95 c2 3c bd a1 0d 2e 5a c2 be 3c
       0.073256664 0.023752943 3.220334e-11 0.023286033
0000a0 bc f6 62 3c 38 bd 36 3a 04 fd 8a 2e dd b5 98 30
       0.013852771 0.0006970945 6.320458e-11 1.1111144e-09
0000b0 0a 4e 17 30 bf 27 b5 35 17 94 4d 3d d6 9a cf 3c
       5.504438e-10 1.3497119e-06 0.050190058 0.025342386
0000c0 9c f5 07 3a c5 23 bb 3d 66 5c 9d 35 7e 7a 18 3d
       0.000518644 0.09137682 1.1724303e-06 0.037226193
0000d0 c0 e2 39 36 9e cb 2a 32 bc 10 5a 3d bf b2 56 3a
       2.7699134e-06 9.9415995e-09 0.053238615 0.00081900874
0000e0 08 ab 02 3d 0a ee bc 31 0a 02 9e 2e 09 45 13 3d
       0.03190139 5.498582e-09 7.1853704e-11 0.03595451
0000f0 e0 64 49 3d 57 43 f4 3c 57 b8 78 3c b4 41 e3 3c
       0.049168468 0.029817266 0.015180669 0.02774129

square_avg f4 [5]
000000 d5 47 cf 40 d9 b5 83 41 f6 73 9a 3d 96 b5 84 3e
       6.4775186 16.463793 0.07541649 0.2591979
000010 7d e1 d4 3c
       0.025986427
