S-LSTM/Goal+Socail_Array_PyTorch/social_lstm/save/0/social_model_epoch_24.pth (torch, 815071 bytes, 22 tensors)

embedding_b f4 [64]
0	0xbd2e8d3f	-0.04261517
1	0x3eb69cbf	0.35666463
2	0x3e89bd4f	0.26902243
3	0xb0435928	-7.1067285e-10
4	0xbcc5c1cd	-0.024140263
5	0x3c22e90e	0.00994326
6	0xbdcb2027	-0.09918242
7	0xbb004a8b	-0.001957568
8	0xbe30fcbf	-0.17283915
9	0xbb4003f2	-0.0029299227
10	0x3af17266	0.0018420934
11	0xbcc1a043	-0.023635989
12	0xbe3bfa92	-0.18357304
13	0xbe023b85	-0.12718017
14	0xbd03a231	-0.0321371
15	0xbd094d2e	-0.03352087
16	0xbca5a689	-0.020221012
17	0x3cdc5525	0.026896069
18	0xbdf87130	-0.12130964
19	0xbd387a33	-0.045038413
20	0xb742e87a	-1.1617429e-05
21	0xbd1d1c34	-0.038356975
22	0x3c17511f	0.009235649
23	0xb6941f15	-4.414362e-06
24	0xbd8e9d7d	-0.06963632
25	0xbbb84a9c	-0.0056241285
26	0x3d5b2189	0.05349878
27	0xbb86e7cd	-0.0041169883
28	0x3eb1b34d	0.34707108
29	0xbe1f3ad3	-0.15549783
30	0xbce90040	-0.028442502
31	0xbd62a8c0	-0.055336714
32	0xbe13a5f0	-0.14418769
33	0x3c4c5096	0.012470385
34	0x3dd855a9	0.105632134
35	0xbc65f5c6	-0.014035648
36	0x3e464fc8	0.19366372
37	0x3dafc9b2	0.08583392
38	0x3b41be9f	0.0029563082
39	0xbe1e1122	-0.15436223
40	0xbca5dd63	-0.020247167
41	0xbbc197b6	-0.005907978
42	0xb756f643	-1.2812731e-05
43	0xbd3b5312	-0.04573352
44	0xbbca5ad9	-0.0061753807
45	0xbc113cd5	-0.008864601
46	0xbca7351f	-0.020411072
47	0x3d906175	0.070498385
48	0xbdda266d	-0.106518604
49	0x3e1b4e0e	0.15166494
50	0xbbd98051	-0.006637611
51	0x3d9c4284	0.07629874
52	0xb7bb53f1	-2.2331225e-05
53	0xbbacee09	-0.0052773994
54	0x3d9e9ebe	0.077451214
55	0xbd87eeaf	-0.06637322
56	0xbd0781ef	-0.0330829
57	0xbba281f7	-0.0049593407
58	0xaf123ef0	-1.3300983e-10
59	0x3d917bb6	0.07103674
60	0x3e15dc22	0.14634755
61	0x3d7d015a	0.061768867
62	0xbde22f97	-0.11044233
63	0x3b9873e9	0.0046524894

output_b f4 [5]
0	0x3cf67ddb	0.03008931
1	0xbaed8bd6	-0.0018123339
2	0xbf6b30b8	-0.91871214
3	0xbf65a6d4	-0.89707685
4	0xbdadf99b	-0.08494874

embedding_w.weight f4 [64, 4]
0	0x3e5f6059	0.21814097
1	0xbf3f89c7	-0.74819607
2	0xbe283f26	-0.16430339
3	0x3edd30f9	0.43201426
4	0x3dabb517	0.083841495
5	0x3fb5ad5a	1.4193528
6	0xbd628009	-0.055297885
7	0x3ebcad30	0.36850882
8	0xbf90d8e8	-1.1316195
9	0xbf2c7113	-0.6736004
10	0xbe247494	-0.16060096
11	0xbdef6b20	-0.11690354
12	0x2213f210	2.0050362e-18
13	0x29ba6258	8.277119e-14
14	0x9dae06fc	-4.606464e-21
15	0x2e7099b0	5.4706184e-11
16	0xbd0aa53b	-0.033848982
17	0xbd444401	-0.047916416
18	0xbd118223	-0.0355245
19	0x3cc893c1	0.024484517
20	0x3f4e266d	0.80527383
21	0xbf0d2506	-0.5513462
22	0x3f002d1c	0.5006883
23	0x3ef4fada	0.47847635
24	0x3f11c849	0.56946236
25	0x3f51a98f	0.8189935
26	0x3e11b208	0.1422807
27	0x3d33c4a4	0.043888703
28	0xb63b8bda	-2.7946576e-06
29	0x376ef54a	1.4243016e-05
30	0xb9a9c67b	-0.0003238207
31	0x2dacbd80	1.9638291e-11
32	0x3d02916c	0.031876966
33	0x3ebaed2c	0.36509073
34	0x3ce148be	0.027500506
35	0x3eab0f60	0.33410168
36	0x398b3944	0.00026554812
37	0xaba6996c	-1.1837593e-12
38	0xba116ffa	-0.0005547997
39	0xb4c7a580	-3.7187056e-07
40	0xbf18f314	-0.5974591
41	0x3ed9bfd9	0.4252918
42	0x3edc1687	0.42985937
43	0xbecbeb62	-0.3982802
44	0xbf036b1e	-0.5133532
45	0x3cc4304e	0.023948815
46	0xbf000675	-0.5000985
47	0x3c9d3672	0.019191
48	0x3f21778e	0.6307305
49	0xbeb7f779	-0.35930994
50	0xbf24edc7	-0.6442532
51	0x3ecdadb7	0.40171596
52	0x3f85f6a2	1.0465891
53	0x3eb10d16	0.34580296
54	0x3e3c8362	0.18409494
55	0x3e330668	0.17482913
56	0x3de6ea6e	0.11275183
57	0x3cbe64c4	0.023241408
58	0x3eb2d5ba	0.34928685
59	0x3e0db1ff	0.13837431
60	0x3d449200	0.0479908
61	0x3d9f7ba1	0.07787252
62	0x3d2ee8cb	0.042702477
63	0xbe16fca1	-0.14744808
64	0x3ddcbb04	0.10777858
65	0x3e1232a0	0.14277124
66	0x3e61135c	0.21980041
67	0xbe30ea3b	-0.17276852
68	0xbb1397f2	-0.0022520986
69	0xbce051ca	-0.02738275
70	0xbc4a7013	-0.012355822
71	0xbcbe7028	-0.02324684
72	0x3ebe3af2	0.37154347
73	0xbefc3383	-0.4925805
74	0x3ed0a276	0.40748948
75	0xbef7ce30	-0.48399496
76	0x3f8caf5f	1.0991019
77	0x3eb60d91	0.35557225
78	0xbf8efda8	-1.117116
79	0xbeaa552a	-0.332681
80	0xa0fffaa4	-4.336454e-19
81	0x2cb12d54	5.035675e-12
82	0x9b91c406	-2.4114915e-22
83	0x27b63700	5.057478e-15
84	0x3dea7c3d	0.11449478
85	0x3d583cff	0.052792545
86	0x3eef97e6	0.46795577
87	0xbd862cb8	-0.06551498
88	0xbb9f38cc	-0.0048590656
89	0xbb59cd0f	-0.0033233797
90	0x3b849e06	0.004047158
91	0x3b7ba2f7	0.0038396695
92	0xac568024	-3.0482361e-12
93	0xaa31e5c0	-1.5800469e-13
94	0x281da9ca	8.752068e-15
95	0x361998c0	2.2887689e-06
96	0xbeb82324	-0.3596431
97	0x3e8f5ca4	0.28000367
98	0x3f3171ea	0.69314444
99	0x3e220486	0.15822038
100	0x32f42fc0	2.8427053e-08
101	0xbb1e5e20	-0.002416499
102	0xb9989244	-0.00029100676
103	0xbbab1981	-0.005221546
104	0xbf4cdcfa	-0.80024683
105	0xbf943542	-1.1578753
106	0x3e7d3728	0.24728072
107	0xbf85e546	-1.0460594
108	0x370be79b	8.3389705e-06
109	0xbb1da1ef	-0.0024052819
110	0x39c5d892	0.00037736126
111	0x3b8f1648	0.00436667
112	0xbfad81fa	-1.3555291
113	0xbf45003b	-0.76953477
114	0xbc4781cd	-0.012176943
115	0x3dfa2af3	0.12215223
116	0xbf213e4a	-0.6298567
117	0xbf147cc8	-0.580029
118	0x3f27f8df	0.6561412
119	0x3f22822b	0.6347987
120	0x3e934ac8	0.2876799
121	0x3e898f9d	0.2686738
122	0x3e941bca	0.2892745
123	0xbea0756c	-0.31339586
124	0xbf325dda	-0.69674456
125	0x3e54969d	0.2076058
126	0x3b9231bb	0.0044614947
127	0x3e67d1ab	0.22638576
128	0xbf37fc52	-0.71869385
129	0x3f32da37	0.6986422
130	0xbe14e2a2	-0.14539579
131	0xbea05d9c	-0.31321418
132	0x3e8974d7	0.26846954
133	0x3f93d4d6	1.1549327
134	0xbd96b51c	-0.073587626
135	0xbecc94a5	-0.39957157
136	0x3fbdbc5c	1.4823108
137	0xbe5260b8	-0.20544708
138	0x3e32bb2c	0.17454213
139	0x3ef031d1	0.46913007
140	0x3f62c52e	0.8858212
141	0x3f26406e	0.6494206
142	0x3e2b354d	0.16719551
143	0x3e40d621	0.18831684
144	0xbf33d1c5	-0.7024196
145	0x3fa91cec	1.3211951
146	0xbce34095	-0.027740756
147	0x3f23904d	0.6389206
148	0x3fa8f34c	1.3199248
149	0xbf803b7b	-1.0018152
150	0x3e853b04	0.26021588
151	0xbeb48c98	-0.35263515
152	0xbd777af7	-0.060420003
153	0xbd865fb3	-0.06561222
154	0xbd152ec9	-0.03642157
155	0xbd252c1e	-0.040325277
156	0xbe682e6f	-0.22673963
157	0x3e9afb70	0.30269957
158	0x3e840f92	0.2579313
159	0xbc8134fa	-0.015772332
160	0x3fc24121	1.5176126
161	0x3ef9a63f	0.48759648
162	0x3e3e9252	0.18610504
163	0x3e8ee4ab	0.27908835
164	0xbb83f8bf	-0.0040274556
165	0xbad31bbf	-0.0016106291
166	0xbb6e6a7b	-0.0036379385
167	0xbacea6a2	-0.0015766213
168	0x31d6d6ba	6.2526313e-09
169	0xb2037335	-7.651399e-09
170	0x31c772d8	5.8047185e-09
171	0xae1c57aa	-3.5548155e-11
172	0xbe3af7f5	-0.1825865
173	0x3e561fbb	0.20910542
174	0x3ebd1b27	0.36934778
175	0x3db6747c	0.089089364
176	0xbad3c431	-0.0016156492
177	0xbbc2340a	-0.0059266137
178	0x3bbf1ea0	0.005832508
179	0x3adf0d76	0.0017017561
180	0xbd2daf70	-0.04240364
181	0x3c7555bf	0.014974057
182	0xbbc735c5	-0.006079408
183	0xbcb60b21	-0.022222104
184	0x3dcd538e	0.100257024
185	0x3f843be8	1.0330782
186	0xbd08a078	-0.03335616
187	0xbd6066cd	-0.05478554
188	0xbea70c86	-0.32626742
189	0x3f274b4c	0.6534927
190	0x3dc346d6	0.09534995
191	0xbd3f7bb2	-0.046748824
192	0x3de4ece8	0.11177999
193	0x3eb959fd	0.36201468
194	0xbbe92476	-0.007114942
195	0x3e4920c1	0.19641401
196	0xbf329c95	-0.69770175
197	0xbfa1907d	-1.2622219
198	0xbe36fb18	-0.17869222
199	0x3ddd984e	0.108200654
200	0xbb90170e	-0.0043972796
201	0xbbcdc9a1	-0.0062801396
202	0x3be2df01	0.006923557
203	0x3bbe66c1	0.005810589
204	0xbfa5987a	-1.2937157
205	0x3f835959	1.0261642
206	0xbe6e9855	-0.23300298
207	0x3e44b472	0.1920946
208	0xa55c9c53	-1.9134923e-16
209	0xa02af10b	-1.4479315e-19
210	0xb0b27000	-1.2983037e-09
211	0xa19fff56	-1.0841846e-18
212	0x39a46177	0.00031353135
213	0xbb3a0788	-0.0028385837
214	0x39208932	0.00015309898
215	0x3bbbbb39	0.005729106
216	0x3ebe74e9	0.3719857
217	0xbf82bbcc	-1.0213561
218	0xbdc748e4	-0.097307
219	0xbcbaa852	-0.02278534
220	0x3f4fe24d	0.8120468
221	0xbefdf5aa	-0.4960149
222	0x3dd8cd56	0.1058604
223	0xbead4c94	-0.33847487
224	0x3f310df4	0.69161916
225	0xbf202a1d	-0.6256426
226	0xbe830a11	-0.25593618
227	0x3e8d8826	0.27642936
228	0xbb94102b	-0.004518529
229	0xbcc591d7	-0.024117393
230	0xbac65bec	-0.0015133596
231	0xbb8e2d9e	-0.004338934
232	0x0fae288b	1.7173341e-29
233	0xa6fb6be8	-1.7445872e-15
234	0x1b278869	1.3857993e-22
235	0x2ac66d40	3.5247673e-13
236	0xbf8a05fa	-1.0783074
237	0xbf305f46	-0.68895376
238	0xbba4cf3b	-0.0050295866
239	0x3d3dae7b	0.046308976
240	0xbf0840dd	-0.53223974
241	0xbf87ab05	-1.0599066
242	0xbe48ed1c	-0.196217
243	0xbbf31df8	-0.007419344
244	0x3f77ba0c	0.9676826
245	0x3f891ed8	1.0712538
246	0x3dcee3ee	0.10102068
247	0xbac8ba10	-0.001531424
248	0xbf07fcfa	-0.53120387
249	0x3eb10bfe	0.34579462
250	0x3d3170f5	0.043320615
251	0x3e29abff	0.16569518
252	0xbf944928	-1.1584826
253	0x3f2ed650	0.68295765
254	0xbe649c68	-0.22325289
255	0xbde8fece	-0.11376725

embedding_w.bias f4 [64]
0	0x3db93acd	0.090444185
1	0x3e2505a5	0.16115434
2	0x3e0d38b4	0.13791162
3	0xb0435928	-7.1067285e-10
4	0xbcc5c1cd	-0.024140263
5	0xbc8bbd31	-0.017057987
6	0xbd2f3046	-0.042770647
7	0xbb004a8b	-0.001957568
8	0x3df0e92c	0.11763224
9	0xbb4003f2	-0.0029299227
10	0xbd6f0bb3	-0.058360767
11	0x3cbf95f5	0.023386935
12	0x3e1871ca	0.14887157
13	0x3e31c4b5	0.17360194
14	0xbd03a231	-0.0321371
15	0xbd094d2e	-0.03352087
16	0xbca5a689	-0.020221012
17	0x3cdc5525	0.026896069
18	0x3e14222a	0.14466158
19	0x3b23d687	0.0024999694
20	0xb742e87a	-1.1617429e-05
21	0xbd1d1c34	-0.038356975
22	0x3c17511f	0.009235649
23	0xb6941f15	-4.414362e-06
24	0xbd8e9d7d	-0.06963632
25	0xbbb84a9c	-0.0056241285
26	0xbdb7c5f6	-0.08973305
27	0xbb86e7cd	-0.0041169883
28	0x3e1ca40e	0.15296957
29	0x3df666a8	0.12031299
30	0xbce90040	-0.028442502
31	0xbd57c6d5	-0.052679855
32	0x3e212e05	0.15740211
33	0x3ce7fcac	0.028318726
34	0x3ec884f0	0.39163923
35	0x3e917005	0.28405777
36	0x3b95a6ac	0.004566988
37	0xbd5cf37a	-0.053943135
38	0x3b41be9f	0.0029563082
39	0x3dcdd5a2	0.10050513
40	0x3d83a53f	0.064280026
41	0xbbc197b6	-0.005907978
42	0xb756f643	-1.2812731e-05
43	0xbd3b5312	-0.04573352
44	0xbbca5ad9	-0.0061753807
45	0xbc113cd5	-0.008864601
46	0xbd41d55b	-0.047322612
47	0xbdbe6d64	-0.09298208
48	0x3d8b4211	0.067997105
49	0x3e0df5d3	0.13863306
50	0xbbd98051	-0.006637611
51	0xbddbf85b	-0.107407294
52	0xb7bb53f1	-2.2331225e-05
53	0xbbacee09	-0.0052773994
54	0x3d81b28d	0.06332884
55	0xbd87eeaf	-0.06637322
56	0xbc0c2abe	-0.008555112
57	0xbba281f7	-0.0049593407
58	0xaf123ef0	-1.3300983e-10
59	0x3eb2497e	0.34821695
60	0xbdf28df9	-0.118434854
61	0xbe27c95f	-0.1638541
62	0x3e069b25	0.1314512
63	0xbe6b1fac	-0.229613

embedding_t_w.weight f4 [1, 8]
0	0x3f730af9	0.9493862
1	0xbeb79dba	-0.35862523
2	0x3e2e2e58	0.17009866
3	0xbf118029	-0.5683618
4	0xbb0daa35	-0.0021616344
5	0x3d466b6d	0.048442293
6	0x3f03f6eb	0.5154864
7	0xbf2e1570	-0.6800146

lstm.weight_ih f4 [512, 65]
0	0x3c89b914	0.016811885
1	0xbca8e281	-0.020615818
2	0x3c0c09c5	0.008547251
3	0x3a129148	0.00055911066
4	0x3a82a630	0.0009967741
5	0xbc3bd87b	-0.011465187
6	0xbbf645e6	-0.0075156568
7	0x9e6799ff	-1.2260884e-20
8	0x3c8ba995	0.017048636
9	0x346fd7de	2.2337142e-07
10	0x3c90b385	0.017663727
11	0x3ca2a1c9	0.019852536
12	0x3b882cb2	0.0041557187
13	0xbcc30adb	-0.023808887
14	0xbb3543d7	-0.0027658844
15	0xbb157a9e	-0.0022808681
16	0xbbc13065	-0.0058956617
17	0x3c15c820	0.009141952
18	0xba743da3	-0.0009317046
19	0xbcfcb66f	-0.03084871
20	0x26f143d2	1.6741117e-15
21	0xbbca019e	-0.0061647436
22	0x3a49a62c	0.0007692303
23	0xb4be217c	-3.541462e-07
24	0x3a55b9d3	0.0008152995
25	0x3a989786	0.0011641837
26	0x3bac7a56	0.005263607
27	0x3b3440b1	0.002750438
28	0xbad1f8ce	-0.0016019584
29	0x3c273203	0.010204795
30	0xbc058fc8	-0.008151956
31	0x3c754ea8	0.014972366
32	0x3cb4da57	0.022076769
33	0xbb8d7e60	-0.0043180436
34	0xbd6a8964	-0.057259932
35	0xbd1b959e	-0.037984483
36	0x3ab6e888	0.0013954798
37	0xbcdcd2a3	-0.026955908
38	0x3bf6f395	0.0075363615
39	0x3b422ade	0.0029627602
40	0xbd04a250	-0.032381356
41	0x38a86288	8.029217e-05
42	0x3a8900e7	0.001045254
43	0x3a726ff0	0.00092482474
44	0x24065d8a	2.913585e-17
45	0x39f995cb	0.00047604585
46	0x3c913861	0.017727079
47	0x3c2658d4	0.010153014
48	0x3c91f856	0.017818611
49	0x3c620f96	0.013797661
50	0x3a2e81d0	0.0006656917
51	0x3c9a865d	0.018862898
52	0xbb25d598	-0.0025304314
53	0x2fd021f1	3.7859096e-10
54	0x3a96d6b8	0.0011508083
55	0xbbbcb3d9	-0.005758744
56	0x3a9a1c4e	0.0011757703
57	0xb909443e	-0.0001309076
58	0x34b73706	3.412644e-07
59	0x3ae21044	0.0017247279
60	0x3c642a74	0.013926137
61	0xbd0d5742	-0.034507044
62	0x3c8f4999	0.017491149
63	0x3c6d2b04	0.014475588
64	0xbc1ed12b	-0.009693424
65	0xb9e69200	-0.00043977797
66	0xbcdb8144	-0.026795037
67	0xbccf5756	-0.0253102
68	0x2d8f5b6e	1.629782e-11
69	0xb9603c6b	-0.00021384812
70	0xb995bab0	-0.00028558588
71	0xbb9b11d8	-0.0047323518
72	0x3965cb20	0.00021914812
73	0xba2186f0	-0.000616177
74	0x3a5ed228	0.00084999437
75	0x3b8bcb8e	0.004266209
76	0xbb9b9803	-0.004748346
77	0xbbb1d83c	-0.0054273885
78	0xbc3fcc3e	-0.01170641
79	0xbae528eb	-0.0017483508
80	0x37ca1080	2.408796e-05
81	0x3baf2442	0.0053448984
82	0x3c1fc578	0.00975167
83	0x3984f7b8	0.00025361567
84	0xbbf1858c	-0.0073706564
85	0xb78b5f83	-1.6614567e-05
86	0x3b05f58e	0.0020440551
87	0x3a6bc206	0.00089934503
88	0x3b1069fc	0.0022035828
89	0xbb9d3e33	-0.0047986745
90	0xbaf58896	-0.0018732722
91	0xbbf50736	-0.0074776663
92	0x352d24e1	6.450119e-07
93	0xbd11e1fd	-0.03561591
94	0x3a734338	0.0009279731
95	0x3be92f0c	0.007116204
96	0x3b474df6	0.0030411459
97	0xbb8712b5	-0.004122103
98	0x3bb39a97	0.005481075
99	0xbcfb3472	-0.030664656
100	0xbc34ce9c	-0.011035588
101	0xbc3bbafc	-0.011458155
102	0xbc01c533	-0.007920551
103	0xbb4e3258	-0.0031463113
104	0x38958930	7.130427e-05
105	0xbc900c3b	-0.017583957
106	0x3934812c	0.00017214258
107	0xb747845f	-1.1892144e-05
108	0xbb33f3fc	-0.0027458658
109	0x3a084e32	0.000519964
110	0xb9ed5fcf	-0.00045275546
111	0x3ae7378a	0.0017640453
112	0xb9e05cc0	-0.00042793714
113	0xbb25e722	-0.0025314768
114	0xbcbe9978	-0.023266539
115	0xb9ae2558	-0.0003321569
116	0xbbd1b85a	-0.0064001502
117	0x379e7736	1.889058e-05
118	0x2fbde8e4	3.4544378e-10
119	0xbc4839a0	-0.01222077
120	0xba784aca	-0.00094715937
121	0xbaa35974	-0.0012462572
122	0x37802521	1.5276079e-05
123	0xba8b6a54	-0.0010636547
124	0xbce841aa	-0.028351624
125	0xbc475d2b	-0.012168209
126	0xbc007d61	-0.007842393
127	0xbaa4ee88	-0.0012583295
128	0xbb0d3c8b	-0.002155098
129	0xbb5a7c36	-0.0033338196
130	0x3c7b75c0	0.015347898
131	0xbcc98117	-0.024597688
132	0xbc31bab7	-0.010847739
133	0xbb26b604	-0.002543808
134	0x3b1ebe07	0.0024222152
135	0x3bfee285	0.007778468
136	0xbb48c84e	-0.003063697
137	0x37531aaa	1.2582788e-05
138	0x3c034a76	0.008013358
139	0xafc6e585	-3.6179074e-10
140	0x3c6db888	0.014509328
141	0x3c576c05	0.013148312
142	0xbaf0aa25	-0.0018361254
143	0x3a992550	0.0011684094
144	0x3c53c48e	0.01292528
145	0xbbb0c1ee	-0.005394212
146	0x3b46f22f	0.0030356755
147	0x3c9b23f1	0.018938037
148	0x3c42c636	0.0118880775
149	0xbcbd3702	-0.023097519
150	0x3a5dd86c	0.00084627303
151	0xba8ff448	-0.0010982836
152	0x3c458aa2	0.012056978
153	0xb9c82920	-0.00038177613
154	0xbb6da50e	-0.003626171
155	0x3ae9a37c	0.0017825211
156	0x3b040cd0	0.0020149238
157	0xb93f0c44	-0.00018219749
158	0xbc62c2bc	-0.013840374
159	0x3c968f6b	0.018378934
160	0x3b338d10	0.0027397312
161	0x3c43c034	0.01194768
162	0x3bbe89fa	0.005814788
163	0x3aea0a28	0.001785581
164	0xbcc0b5b4	-0.023524143
165	0xbc1c7068	-0.009548284
166	0x3b3304b8	0.0027316045
167	0xbb1f23ac	-0.0024282737
168	0x3c4d7b52	0.012541609
169	0xbb962ee6	-0.0045832274
170	0xbb81e7a6	-0.003964382
171	0x3a142c96	0.0005652396
172	0x3897c703	7.23731e-05
173	0xbb978dbe	-0.0046250513
174	0xbb8ef7e1	-0.0043630456
175	0x3a9f2e76	0.0012144584
176	0x3c0a4cf1	0.008441196
177	0x3c44627a	0.011986369
178	0x3c2a986c	0.010412317
179	0xbb5e3b44	-0.0033909837
180	0x3ac9dd3a	0.0015401014
181	0x3aeab6b0	0.0017907228
182	0x39763aa8	0.0002348224
183	0xb8c35024	-9.313252e-05
184	0x3ac03cf0	0.0014666598
185	0xbb03020b	-0.0019990231
186	0x3b9acaf4	0.004723901
187	0xb7fb34c0	-2.9946095e-05
188	0x2fff3e10	4.6428328e-10
189	0xbc2eecca	-0.010676572
190	0x3c1aa884	0.009439591
191	0xbbc571a8	-0.006025512
192	0x3c323c48	0.01087863
193	0x3c2ec84d	0.010667873
194	0x3b434d31	0.0029800648
195	0x3c858412	0.016298328
196	0xbd281d46	-0.041043542
197	0xbc5694d8	-0.013097011
198	0xb01319c8	-5.3514926e-10
199	0x3b0a7529	0.0021126962
200	0x3c0b00df	0.008484094
201	0x3c6e78ba	0.014555151
202	0xb85c321c	-5.2498755e-05
203	0x3bb79f48	0.0056037046
204	0xb008fd4f	-4.9836485e-10
205	0x3c33fb28	0.010985173
206	0x3c8fb842	0.017543916
207	0x3bcab96a	0.006186654
208	0x3a02403c	0.0004968678
209	0x3c3dd1bc	0.011585649
210	0x3b48eb76	0.0030657924
211	0x3c263b0d	0.010145915
212	0x3c913b06	0.01772834
213	0x3c5ca4bf	0.013467013
214	0xbbddc6ae	-0.006768069
215	0x3b6282a6	0.0034562736
216	0x3b9db504	0.0048128385
217	0x3bfe56de	0.00776182
218	0xb9b731f4	-0.00034941698
219	0x3b149a68	0.002267504
220	0xb176b89e	-3.5902654e-09
221	0x3b8dc752	0.0043267393
222	0x3935c6c4	0.00017335551
223	0xbcb16aad	-0.021657312
224	0x3bdff31c	0.006834401
225	0x3c35882c	0.011079829
226	0x3bb6f926	0.0055839
227	0x3bf96b2e	0.007611654
228	0x3c832b62	0.016011897
229	0xbcba8ae5	-0.022771308
230	0xbc3b8217	-0.01144459
231	0xbca14e7b	-0.019690743
232	0x3c0c868e	0.008577002
233	0x3c461da6	0.01209203
234	0x3ba5fa41	0.005065233
235	0xbb9a00d9	-0.004699808
236	0xba428c1c	-0.00074213906
237	0xb7497223	-1.2007108e-05
238	0x3b575ea2	0.0032862802
239	0x39ec3810	0.00045055198
240	0x3a0b8112	0.0005321662
241	0x3cb3f0fc	0.021965496
242	0x3c4e2084	0.0125809945
243	0x3c2afa01	0.010435582
244	0xbadf992d	-0.00170592
245	0xb99c4626	-0.00029806903
246	0xbb9fc7eb	-0.004876127
247	0xb944a225	-0.0001875242
248	0xae39317b	-4.2108077e-11
249	0x3c0388ad	0.0080281915
250	0x3c1d9589	0.0096181715
251	0x3c8ad144	0.016945489
252	0x398cf396	0.00026884367
253	0xba2edcb1	-0.0006670459
254	0xbc75f484	-0.01501191
255	0x3c1c3bc2	0.009535732

lstm.weight_hh f4 [512, 128]
0	0x3c0c8722	0.00857714
1	0xbaa9167c	-0.0012900378
2	0x3cb9cb0e	0.022679832
3	0xbc78d354	-0.015187103
4	0x3cf1bedc	0.029509954
5	0xbc733eba	-0.014846498
6	0x3b81db47	0.0039629075
7	0x3c804d31	0.015661808
8	0xbc7a2f9e	-0.015270142
9	0xbc3f5ba1	-0.011679561
10	0x3c79d057	0.015247426
11	0xbbf863b2	-0.007580244
12	0x3cf1b051	0.02950302
13	0x380d7500	3.3725984e-05
14	0xbba1555a	-0.004923505
15	0x3a256104	0.0006308707
16	0x3c27b2a1	0.01023546
17	0xbc317697	-0.010831497
18	0xbc7cf602	-0.015439512
19	0x3bdff316	0.006834398
20	0x3c7ab25e	0.015301315
21	0x3bb9375f	0.0056523527
22	0xbb807446	-0.003920111
23	0xbc14a5df	-0.00907275
24	0x3c004e31	0.007831142
25	0xbbb4ebcf	-0.0055212746
26	0x3c5907d0	0.013246492
27	0x3c148564	0.009065006
28	0x3ca5433b	0.02017366
29	0x3bbc5f9c	0.005748702
30	0xbb44f63a	-0.003005399
31	0x3b288f60	0.0025720224
32	0xbc2fc7b8	-0.010728769
33	0x3bea1b93	0.0071444004
34	0x3b2db75e	0.0026507
35	0xbc92d73a	-0.017924894
36	0x3c301d0d	0.010749114
37	0xbaaa3554	-0.0012985864
38	0x3d077ca6	0.03307786
39	0xbc162dcd	-0.009166193
40	0x3c8856c0	0.016642928
41	0x3ab79525	0.001400624
42	0xbcedaf08	-0.029014125
43	0xbab6fd18	-0.0013960926
44	0x3b90b525	0.0044161254
45	0x3b6fd304	0.003659428
46	0x3bf626d6	0.007511954
47	0x3c97b280	0.018517733
48	0xbc2badc6	-0.010478443
49	0xbb9b4d21	-0.004739419
50	0xbc0b79ea	-0.008512953
51	0x3c45f47a	0.012082214
52	0x3bf557b5	0.007487262
53	0x3b387b62	0.0028149714
54	0xb8024ce0	-3.106601e-05
55	0x3be975bf	0.007124632
56	0x3c8ab39c	0.016931348
57	0xbb85d16e	-0.004083804
58	0xbc1260de	-0.008934228
59	0x3a86de41	0.0010289625
60	0xbc0c5a32	-0.008566426
61	0x39b3db60	0.00034304988
62	0xbc3cadc0	-0.011516035
63	0xbc44da5e	-0.012014953
64	0xbad4f815	-0.0016248251
65	0x3bca7912	0.0061789835
66	0x3b283c7c	0.0025670817
67	0x3ba108c3	0.0049143746
68	0xbc7c16aa	-0.015386263
69	0xbacdd24b	-0.0015702931
70	0x3b50cb4f	0.0031859463
71	0xbbf2ab15	-0.0074056485
72	0xbabf3df6	-0.0014590609
73	0x3b8337d0	0.004004456
74	0x3bf20768	0.007386137
75	0x3b2ccf9c	0.0026368862
76	0x3c0e9a46	0.008703774
77	0x3c18c8fe	0.009325264
78	0x3d005d29	0.031338844
79	0x3c7f839f	0.015595346
80	0xbc11e48c	-0.0089045875
81	0x3c0f236e	0.008736474
82	0x3c018d92	0.007907288
83	0xb7e80e00	-2.7663074e-05
84	0xba34a848	-0.0006891531
85	0xbc7a508a	-0.015277991
86	0x3a48e870	0.00076640304
87	0xbafa137c	-0.0019079293
88	0xbc7ac7da	-0.015306437
89	0xbbf6e467	-0.007534552
90	0x3ade0554	0.0016938844
91	0x3ad47f24	0.0016212207
92	0x3ae6097a	0.0017550432
93	0x3b9fe657	0.0048797536
94	0x3c21e21b	0.009880568
95	0x3bccc058	0.006248515
96	0xbc6e31b6	-0.014538219
97	0x3c162d84	0.009166125
98	0x3b5c06aa	0.0033573308
99	0x3b1da522	0.0024054726
100	0xbc39b46f	-0.011334523
101	0xbba89802	-0.005145074
102	0x3bdd18ea	0.0067473548
103	0xbbfd7491	-0.007734843
104	0xbc80e956	-0.015736263
105	0x3b5d9816	0.0033812574
106	0x3c4c0d4f	0.012454345
107	0x3cced379	0.025247322
108	0xbb18ff1d	-0.0023345419
109	0x3b8eb898	0.0043555014
110	0x3c0ce0e4	0.00859854
111	0x3b9b416d	0.004738024
112	0x3afbbb94	0.0019205683
113	0x3cb7d1c8	0.022438899
114	0xbb845fe3	-0.004039751
115	0x3a372aa8	0.0006987252
116	0x3c15cc92	0.009143012
117	0x3c039e90	0.00803341
118	0xbc8ff698	-0.01757364
119	0x3ae10b90	0.0017169584
120	0x3b5d1a6c	0.0033737672
121	0x3c048828	0.008089103
122	0xbbbc0973	-0.005738431
123	0x3afae2ec	0.0019141114
124	0x3c8e572e	0.017375555
125	0x3c3f9527	0.0116932755
126	0x3caa5872	0.020794127
127	0x3bdb0de9	0.006685008
128	0x3bf02f62	0.007329867
129	0x3be33980	0.006934345
130	0x3c42b764	0.011884544
131	0xbc239426	-0.009984052
132	0x3b22c53a	0.0024836794
133	0xbc334455	-0.010941585
134	0x3a584f58	0.0008251569
135	0x3be9a4f5	0.00713026
136	0xbc4e958e	-0.012608899
137	0xbc389e32	-0.011268185
138	0x3c0c7437	0.00857263
139	0xbc6112ff	-0.013737439
140	0x3c8cfdb8	0.017210826
141	0xbb9f157b	-0.0048548556
142	0xbbbb3bf6	-0.005713935
143	0x3ba1eaff	0.004941344
144	0x3b1ad00a	0.0023622536
145	0xbc13fe11	-0.009032742
146	0xbbfa5b74	-0.0076402966
147	0x3beb2936	0.0071765436
148	0x3c21233e	0.009835063
149	0xbb98b839	-0.004660633
150	0xbb3d7b0b	-0.002891245
151	0xbc15591a	-0.009115482
152	0x3c0a6dec	0.008449059
153	0xbc20201d	-0.009773281
154	0x3c43194e	0.011907889
155	0xbb9620c6	-0.0045815436
156	0x3c0a2e4d	0.0084338905
157	0x3bcfbadf	0.0063394154
158	0x3c74dcdd	0.014945236
159	0x3c4b1842	0.01239592
160	0xbc3c96f2	-0.011510598
161	0x3c21f12e	0.009884162
162	0x3a146b15	0.00056617084
163	0xbc0b86ae	-0.008515997
164	0x3c2e4f80	0.010639071
165	0x3af6d269	0.0018831018
166	0x3c16100f	0.009159102
167	0xbc2adbd2	-0.010428386
168	0x3c3f7b3e	0.011687098
169	0xb99f8cca	-0.0003043174
170	0xbc5760a9	-0.013145604
171	0x3a600758	0.0008546016
172	0x3c1db197	0.00962486
173	0x3a75c038	0.0009374651
174	0x3b225093	0.0024767264
175	0x3c078706	0.008271938
176	0xbba71e94	-0.0051000807
177	0xbbedc22e	-0.007255814
178	0xbba18d96	-0.0049302084
179	0x3b82f287	0.0039961967
180	0xba07f79c	-0.0005186738
181	0x3b792dc1	0.0038021656
182	0xbbcbdf4a	-0.0062216865
183	0x3b90476f	0.004403047
184	0x3bd5bb06	0.006522539
185	0x3b141985	0.0022598219
186	0xbc0cadfa	-0.008586401
187	0x3bbc25a1	0.0057417904
188	0xbbe7f16a	-0.0070783393
189	0xbc16c39c	-0.00920191
190	0xbc307252	-0.010769444
191	0xbc212dd8	-0.00983759
192	0xb96fc120	-0.00022864761
193	0x3c170642	0.009217801
194	0x3bdf0858	0.0068064146
195	0x3c06248a	0.0081874225
196	0xbc2fad73	-0.010722506
197	0x3ba28ff4	0.004961008
198	0x3986dca0	0.0002572285
199	0xbc20b449	-0.009808608
200	0x3ba9813f	0.005172878
201	0x3c06d4ce	0.0082294475
202	0x3c10eae0	0.008845061
203	0x3b0e9007	0.0021753327
204	0x3c5c9fc8	0.013465829
205	0x3b959f75	0.004566128
206	0x3c6bb539	0.014386469
207	0x3bfaf504	0.0076586027
208	0x3c3f3753	0.011670905
209	0x3c2b5bfc	0.0104589425
210	0x3bf521bf	0.0074808295
211	0x3b617a5a	0.0034405203
212	0x3c032cbd	0.008006272
213	0xbbfcb3dc	-0.0077118706
214	0xbba341ef	-0.004982225
215	0xba92af10	-0.0011191089
216	0xbc32647a	-0.010888213
217	0xbbe9c5e6	-0.007134187
218	0xbb8689f8	-0.0041058026
219	0x3ba48d53	0.00502173
220	0xbb831da5	-0.0040013366
221	0x3c007eb5	0.007842709
222	0x3c2a50bc	0.010395225
223	0x3bf55cd4	0.0074878726
224	0xbc651502	-0.013982059
225	0x3c21c292	0.009873049
226	0x3ba288a6	0.0049601374
227	0x3bd64190	0.0065385774
228	0xbc15fef9	-0.0091550285
229	0xbbfab818	-0.00765134
230	0xbb86d174	-0.004114324
231	0xbc010e22	-0.007876905
232	0xbb9ac6fd	-0.0047234283
233	0xbb5ff405	-0.0034172547
234	0x3c2d4ab0	0.010576889
235	0x3c90f2fe	0.017693993
236	0xbc2cd392	-0.010548489
237	0x3af60520	0.0018769838
238	0x3c0bfc91	0.008544103
239	0xbba98c4f	-0.005174197
240	0xbbcefdd8	-0.0063168816
241	0x3c1bc174	0.009506572
242	0x3bf2e141	0.0074121063
243	0x3b6d0bd1	0.0036170373
244	0x3c0ebeb8	0.008712463
245	0x3a879361	0.0010343605
246	0xbc36115a	-0.011112535
247	0x3bc4a306	0.006000879
248	0x3a64beb0	0.00087259244
249	0x3bc4b1d6	0.006002645
250	0xbbf0f2f6	-0.007353182
251	0xbb251464	-0.0025189156
252	0x3aa61fc0	0.0012674257
253	0x3bf5fb51	0.007506766
254	0x3c275368	0.010212757
255	0x3b9b4ef7	0.004739638

lstm.bias_ih f4 [512]
0	0xbd97b40d	-0.07407389
1	0xbd97385d	-0.07383797
2	0xbd7b5982	-0.06136466
3	0xbd8d8d97	-0.06911772
4	0xbe4e249e	-0.20131156
5	0x3e7dc3f4	0.24781781
6	0xbd89d86d	-0.06730733
7	0xbda5de2f	-0.08099019
8	0xbd6fe0fc	-0.05856417
9	0xbd8302a6	-0.063969895
10	0xbd85c599	-0.065318294
11	0x3d8fe340	0.070257664
12	0x3e8af364	0.27138817
13	0xbdfaabb3	-0.1223978
14	0xbdaca1c1	-0.084292896
15	0xbd8137d3	-0.06309476
16	0xbe167f2b	-0.14696948
17	0xbd7ca191	-0.06167752
18	0xbd995a62	-0.07487942
19	0xbdc998ce	-0.09843598
20	0xbda60ace	-0.081075296
21	0xbdc4e763	-0.09614446
22	0xbd7631e0	-0.06010616
23	0xbda390e1	-0.07986618
24	0xbd89f951	-0.067370065
25	0xbdb4f5d0	-0.088359475
26	0xbda080d7	-0.07837074
27	0xbda92b93	-0.08260264
28	0xbc9de9ba	-0.019276489
29	0xbd939750	-0.07206595
30	0xbbf84c29	-0.0075774384
31	0xbd8d103a	-0.068878606
32	0xbd8ec4f0	-0.069711566
33	0xbd833fad	-0.064086296
34	0xbd5291a8	-0.05140844
35	0xbdb9cdef	-0.09072482
36	0xbd9bcc54	-0.07607332
37	0xbd67d56d	-0.056600023
38	0x3ea3a887	0.31964514
39	0xbd816991	-0.06318963
40	0xbd875fbf	-0.06610059
41	0xbd904681	-0.070446976
42	0x3ee266a0	0.44218922
43	0x3d24df9b	0.04025231
44	0xbd95b586	-0.073100135
45	0xbd920981	-0.07130719
46	0xbdc34456	-0.095345184
47	0xbd61873c	-0.05506061
48	0xbdb8b060	-0.09018016
49	0xbd972cec	-0.07381615
50	0xbd968f9b	-0.07351609
51	0xbd8d005a	-0.06884833
52	0xbd8c06fc	-0.0683727
53	0xbdb0842f	-0.08618962
54	0xbda0c560	-0.07850146
55	0xbd95f0d1	-0.07321323
56	0xbd3ee31b	-0.046603303
57	0xbdc96746	-0.09834151
58	0xbd9c4a7f	-0.076313965
59	0xbd8d9385	-0.06912903
60	0xbd900cfd	-0.07033727
61	0xbd1064d5	-0.03525241
62	0xbda05165	-0.07828025
63	0xbd9fd351	-0.07803977
64	0xbdcaf598	-0.099101245
65	0xbdb81935	-0.08989183
66	0xbd9f6b10	-0.077840924
67	0xbd8fe98a	-0.07026966
68	0xbd59b1c2	-0.05314804
69	0xbdd4cc56	-0.103905365
70	0xbda9aaea	-0.082845524
71	0xbd757994	-0.0599304
72	0xbd910384	-0.07080749
73	0xbd9eda31	-0.077564605
74	0xbd88b196	-0.06674497
75	0xbda47523	-0.080301546
76	0xbd41daf1	-0.04732794
77	0xbdba0635	-0.09083215
78	0x3f081407	0.5315556
79	0xbd8d4525	-0.06897954
80	0xbe45f7ad	-0.19332762
81	0xbd965771	-0.07340897
82	0xbd852c01	-0.06502534
83	0xbda442f1	-0.080205806
84	0xbdafeb20	-0.085897684
85	0x3ef8e3ad	0.48611203
86	0xbd8986af	-0.06715142
87	0xbdcd5dc5	-0.10027651
88	0xbda010dc	-0.07815716
89	0xbdad9e04	-0.08477405
90	0xbd918137	-0.07104724
91	0xbde7df92	-0.113219395
92	0xbe56022c	-0.20899266
93	0xbd9e445c	-0.07727882
94	0xbd8a5888	-0.06755167
95	0xbd951660	-0.07279658
96	0xbd690bba	-0.05689595
97	0xbd8efd9f	-0.06981968
98	0xbd816880	-0.0631876
99	0xbde96f1e	-0.11398147
100	0xbdabb1cc	-0.083835214
101	0xbd569646	-0.052389406
102	0xbdbba8bd	-0.09163044
103	0xbd9a1ba8	-0.07524806
104	0xbd6ac18f	-0.057313498
105	0xbdbcf55c	-0.09226486
106	0xbd94b78d	-0.07261572
107	0x3eec5e10	0.46165514
108	0xbd529134	-0.051408008
109	0xbd593957	-0.0530332
110	0xbd8cd4cf	-0.068765275
111	0xbd9453bd	-0.07242534
112	0xbe1580ce	-0.14599916
113	0xbd86e137	-0.06585925
114	0xbdd0d973	-0.10197725
115	0xbd8885b9	-0.066661306
116	0xbd93d5f5	-0.072185434
117	0xbda9fb5a	-0.08299895
118	0xbd9addc5	-0.075618304
119	0xbd5a722d	-0.053331543
120	0xbde8806f	-0.11352622
121	0xbd9af681	-0.07566548
122	0xbdb705a6	-0.08936624
123	0xbdb0d560	-0.08634448
124	0xbc430619	-0.011903309
125	0xbd996ee7	-0.07491856
126	0xbd8cfb3b	-0.06883856
127	0xbdafb48c	-0.085793585
128	0xbda0c3b8	-0.078498304
129	0xbd7b0674	-0.06128545
130	0xbd54dea4	-0.05197014
131	0xbd5bddbe	-0.053678267
132	0xbccce4e6	-0.025011491
133	0xbdc30ed3	-0.09524312
134	0xbd8ce7d9	-0.06880159
135	0xbd81e7ba	-0.063430265
136	0xbd9a6dda	-0.07540484
137	0xbd521e58	-0.05129847
138	0xbd6f1f16	-0.058379255
139	0xbdff8263	-0.12476041
140	0x3a77fc0f	0.0009459862
141	0xbd8c5bd3	-0.068534516
142	0xbdb358c7	-0.08757167
143	0xbd7972a3	-0.06090034
144	0xbf061a4f	-0.52383894
145	0xbd63aa62	-0.05558241
146	0xbd9e70cb	-0.07736357
147	0xbecfff33	-0.4062439
148	0xbd76516e	-0.06013625
149	0xbda8e93c	-0.08247611
150	0xbd817022	-0.06320216
151	0xbd9c5f27	-0.07635336
152	0xbd6945e2	-0.05695141
153	0xbe6644b1	-0.22487141
154	0xbd797a02	-0.06090737
155	0xbda53794	-0.08067241
156	0xbdcef570	-0.10105407
157	0xbd895474	-0.06705561
158	0x3b4fc57b	0.00317034
159	0xbd7a282a	-0.06107346
160	0xbd754612	-0.059881277
161	0xbd52033a	-0.05127261
162	0xbda20aab	-0.07912191
163	0xbd7e0196	-0.06201323
164	0xbd9cef2a	-0.076628044
165	0xbd3b8727	-0.04578319
166	0xbda5eb71	-0.081015475
167	0xbd957e42	-0.072994724
168	0xbd692094	-0.056915835
169	0xbd7c18e7	-0.061547186
170	0x3e90cd09	0.2828143
171	0xbdeb2621	-0.11481882
172	0xbd8241d7	-0.06360214
173	0xbd5c2b48	-0.053752214
174	0xbdb20173	-0.08691683
175	0xbd697e79	-0.05700538
176	0xbe02f025	-0.1278692
177	0xbd5926c9	-0.053015504
178	0xbd504a5d	-0.05085217
179	0xbd908370	-0.0705632
180	0xbdb52d64	-0.08846548
181	0xbd8a5ea4	-0.067563325
182	0xbd8b8fe2	-0.06814553
183	0xbd8ee183	-0.06976607
184	0xbd826415	-0.063667454
185	0xbd937ef3	-0.07201948
186	0xbd8c662a	-0.06855424
187	0xbe88e22f	-0.26735064
188	0xbd647e85	-0.05578472
189	0xbe00608e	-0.12536833
190	0xbe767774	-0.24069005
191	0xbd723c0f	-0.059139308
192	0xbe50a67b	-0.20376007
193	0xbd8a13a8	-0.067420304
194	0xbd9274b2	-0.07151164
195	0xbd7e763c	-0.062124476
196	0xbd4b5d8e	-0.049649768
197	0xbdd114b7	-0.10209029
198	0xbd9e69c7	-0.07735019
199	0xbd799ac2	-0.060938604
200	0xbdbbabd6	-0.091636345
201	0xbdacba3a	-0.084339574
202	0xbd6baf1f	-0.057540055
203	0xbd91cd72	-0.07119264
204	0xbd3fe94f	-0.04685336
205	0xbdb77f4c	-0.08959827
206	0x3e9be7b4	0.30450213
207	0xbd554554	-0.05206807
208	0xbea3d5b6	-0.31998986
209	0xbd806a47	-0.06270271
210	0xbd8072ac	-0.06271872
211	0xbd7a3001	-0.061080936
212	0xbdc687d5	-0.09693877
213	0x3e912d76	0.28354996
214	0xbd815bd7	-0.06316345
215	0xbdb81bfe	-0.08989714
216	0xbda0d61d	-0.07853339
217	0xbd822471	-0.06354607
218	0xbd789dfd	-0.060697544
219	0xbdb94abb	-0.09047457
220	0xbe8a1a96	-0.26973408
221	0xbd9e3e5a	-0.07726736
222	0xbd5fadb3	-0.05460901
223	0xbd6dd2dd	-0.058062423
224	0xbd318a11	-0.04334456
225	0xbd4d93b7	-0.0501897
226	0xbd5609f5	-0.05225559
227	0xbdd247a5	-0.10267571
228	0xbd906672	-0.0705079
229	0xbd57505a	-0.052566864
230	0xbd88e9a5	-0.06685189
231	0xbd67dbca	-0.05660609
232	0xbd37266c	-0.044714376
233	0xbdbe9f08	-0.093076766
234	0xbd79db34	-0.061000064
235	0x3e737521	0.2377515
236	0xbe47bcd5	-0.19505627
237	0xbd542273	-0.051790666
238	0xbd832d9f	-0.06405186
239	0xbda29872	-0.07939233
240	0xbe8c5732	-0.27410275
241	0xbd508387	-0.050906684
242	0xbdeb01b6	-0.11474936
243	0xbd900692	-0.07032503
244	0xbda99913	-0.0828115
245	0xbdcd2d07	-0.10018354
246	0xbd89f885	-0.067368545
247	0xbd14b375	-0.036303956
248	0xbdc57113	-0.09640708
249	0xbd75861c	-0.05994235
250	0xbd8d6033	-0.06903114
251	0xbdc33328	-0.09531242
252	0xbe6f3ca4	-0.23362976
253	0xbd948d74	-0.072535425
254	0xbd5d487c	-0.054024205
255	0xbd8ee04b	-0.06976374

lstm.bias_hh f4 [512]
0	0xbd97d23d	-0.07413147
1	0xbd97385d	-0.07383797
2	0xbd7b5982	-0.06136466
3	0xbd8d8d97	-0.06911772
4	0xbe532d5c	-0.20622772
5	0x3e67fab6	0.22654232
6	0xbd89d86d	-0.06730733
7	0xbda5de2f	-0.08099019
8	0xbd6fe0fc	-0.05856417
9	0xbd8302a6	-0.063969895
10	0xbd85c599	-0.065318294
11	0x3d97cc54	0.07412019
12	0x3e91b70f	0.28459975
13	0xbdfa8aab	-0.1223348
14	0xbdaca1c1	-0.084292896
15	0xbd8137d3	-0.06309476
16	0xbe0f6b6a	-0.14005819
17	0xbd7ca191	-0.06167752
18	0xbd995a62	-0.07487942
19	0xbdb9a6cb	-0.09065016
20	0xbda60ace	-0.081075296
21	0xbdc4e763	-0.09614446
22	0xbd7631e0	-0.06010616
23	0xbda390e1	-0.07986618
24	0xbd89f951	-0.067370065
25	0xbdba41f6	-0.09094612
26	0xbda080d7	-0.07837074
27	0xbda92b93	-0.08260264
28	0xbcbe5648	-0.023234501
29	0xbd939750	-0.07206595
30	0x3b180559	0.0023196547
31	0xbd8d103a	-0.068878606
32	0xbd8ec4f0	-0.069711566
33	0xbd833fad	-0.064086296
34	0xbd52a9e9	-0.05143157
35	0xbdb9cdef	-0.09072482
36	0xbd9bcc54	-0.07607332
37	0xbd67d56d	-0.056600023
38	0x3ea7a38f	0.32741973
39	0xbd816991	-0.06318963
40	0xbd875fbf	-0.06610059
41	0xbd904681	-0.070446976
42	0x3ee22de1	0.44175628
43	0x3d4f256f	0.05057281
44	0xbd95b586	-0.073100135
45	0xbd920981	-0.07130719
46	0xbdc34456	-0.095345184
47	0xbd61873c	-0.05506061
48	0xbdbf7a0b	-0.0934945
49	0xbd972cec	-0.07381615
50	0xbd968f9b	-0.07351609
51	0xbd8d005a	-0.06884833
52	0xbd8c0892	-0.06837572
53	0xbdb0842f	-0.08618962
54	0xbda0c560	-0.07850146
55	0xbd95f0d1	-0.07321323
56	0xbd3ee31b	-0.046603303
57	0xbdc9604e	-0.09832822
58	0xbd9c4a7f	-0.076313965
59	0xbd8dadf0	-0.069179416
60	0xbd900cfd	-0.07033727
61	0x3b3e3cd8	0.0029027965
62	0xbd3d8461	-0.046268824
63	0xbd9fd351	-0.07803977
64	0xbda54392	-0.08069529
65	0xbdb81935	-0.08989183
66	0xbd9f6b10	-0.077840924
67	0xbd8fe98a	-0.07026966
68	0xbd59b1c2	-0.05314804
69	0xbdd4cc60	-0.10390544
70	0xbda9aaea	-0.082845524
71	0xbd757994	-0.0599304
72	0xbd90f7ab	-0.07078489
73	0xbd9eda31	-0.077564605
74	0xbd88b196	-0.06674497
75	0xbda47523	-0.080301546
76	0xbd41daf1	-0.04732794
77	0xbdba0631	-0.09083212
78	0x3f080bdd	0.531431
79	0xbd8d4525	-0.06897954
80	0xbe5d43cc	-0.21607894
81	0xbd965771	-0.07340897
82	0xbd852c01	-0.06502534
83	0xbda442f1	-0.080205806
84	0xbdafeb20	-0.085897684
85	0x3efa1e82	0.488514
86	0xbd8986af	-0.06715142
87	0xbdce1358	-0.10062283
88	0xbda010dc	-0.07815716
89	0xbdad9e04	-0.08477405
90	0xbd918137	-0.07104724
91	0xbde7ddf2	-0.113216296
92	0xbe608c36	-0.21928486
93	0xbd9e445c	-0.07727882
94	0xbd8a5888	-0.06755167
95	0xbd951660	-0.07279658
96	0xbd690bba	-0.05689595
97	0xbd8efd9f	-0.06981968
98	0xbd816880	-0.0631876
99	0xbdeb1ed2	-0.11480488
100	0xbdabb1cc	-0.083835214
101	0xbd569646	-0.052389406
102	0xbdbba88a	-0.09163006
103	0xbd9a1ba8	-0.07524806
104	0xbd6ac18f	-0.057313498
105	0xbdbcf558	-0.09226483
106	0xbd94b78d	-0.07261572
107	0x3eefb826	0.46820182
108	0xbd702224	-0.05862631
109	0xbd593957	-0.0530332
110	0xbd8cd4cf	-0.068765275
111	0xbd9453bd	-0.07242534
112	0xbe649f65	-0.22326429
113	0xbd86e137	-0.06585925
114	0xbdd0d8dc	-0.10197613
115	0xbd8885b9	-0.066661306
116	0xbd93a646	-0.072094485
117	0xbda9d22d	-0.08292041
118	0xbd9addc5	-0.075618304
119	0xbd5a722d	-0.053331543
120	0xbde99821	-0.114059694
121	0xbd9af681	-0.07566548
122	0xbdb705a6	-0.08936624
123	0xbdb0d574	-0.08634463
124	0xbc530183	-0.012878778
125	0xbd996ee7	-0.07491856
126	0xbd8cfb3b	-0.06883856
127	0xbdafb48c	-0.085793585
128	0xbda0c37b	-0.07849785
129	0xbd7b0674	-0.06128545
130	0xbd54dea4	-0.05197014
131	0xbd5bddbe	-0.053678267
132	0xbc992ecc	-0.018699072
133	0xbdd7b7dd	-0.10533116
134	0xbd8ce7d9	-0.06880159
135	0xbd81e7ba	-0.063430265
136	0xbd9a6dda	-0.07540484
137	0xbd521e58	-0.05129847
138	0xbd6f1f16	-0.058379255
139	0xbdffe90b	-0.12495621
140	0x3bd5ca6b	0.0065243742
141	0xbd8c5bd6	-0.06853454
142	0xbdb358c7	-0.08757167
143	0xbd7972a3	-0.06090034
144	0xbef37542	-0.47550398
145	0xbd63aa62	-0.05558241
146	0xbd9e70cb	-0.07736357
147	0xbeef04ea	-0.46683437
148	0xbd76516e	-0.06013625
149	0xbda8e93c	-0.08247611
150	0xbd817022	-0.06320216
151	0xbd9c5f27	-0.07635336
152	0xbd6945e2	-0.05695141
153	0xbe65c8d0	-0.22439885
154	0xbd797a02	-0.06090737
155	0xbda53794	-0.08067241
156	0xbdce72f2	-0.10080518
157	0xbd895474	-0.06705561
158	0x3bb3cdc8	0.0054871775
159	0xbd7a282a	-0.06107346
160	0xbd754612	-0.059881277
161	0xbd52033a	-0.05127261
162	0xbda21efc	-0.07916066
163	0xbd7e0196	-0.06201323
164	0xbd9cef2a	-0.076628044
165	0xbd3b8727	-0.04578319
166	0xbdce5b30	-0.100759864
167	0xbd957e42	-0.072994724
168	0xbd692094	-0.056915835
169	0xbd7c18e7	-0.061547186
170	0x3e90a2f1	0.28249314
171	0xbdc4a013	-0.09600844
172	0xbd8241d7	-0.06360214
173	0xbd5c2b48	-0.053752214
174	0xbdb20173	-0.08691683
175	0xbd697e79	-0.05700538
176	0xbe02daab	-0.12778728
177	0xbd5926c9	-0.053015504
178	0xbd504a5d	-0.05085217
179	0xbd908370	-0.0705632
180	0xbdb52d64	-0.08846548
181	0xbd8a5ea4	-0.067563325
182	0xbd8b8fe2	-0.06814553
183	0xbd8ee183	-0.06976607
184	0xbd826415	-0.063667454
185	0xbd937ef1	-0.072019465
186	0xbd8c662a	-0.06855424
187	0xbe87d3cd	-0.2652878
188	0xbd647e85	-0.05578472
189	0xbdff0d37	-0.124536924
190	0xbe7f0554	-0.24904376
191	0xbd723c0f	-0.059139308
192	0xbe4fb694	-0.20284492
193	0xbd8a13a8	-0.067420304
194	0xbd9274b2	-0.07151164
195	0xbd7e763c	-0.062124476
196	0xbd4b5d8e	-0.049649768
197	0xbdd114b7	-0.10209029
198	0xbd9e69c7	-0.07735019
199	0xbd799ac2	-0.060938604
200	0xbdbbabd4	-0.09163633
201	0xbdacba3a	-0.084339574
202	0xbd6baf1f	-0.057540055
203	0xbd91cd72	-0.07119264
204	0xbd3fe94f	-0.04685336
205	0xbdb77f4c	-0.08959827
206	0x3e9c2097	0.30493614
207	0xbd554554	-0.05206807
208	0xbe9ad113	-0.30237636
209	0xbd806a47	-0.06270271
210	0xbd8072ac	-0.06271872
211	0xbd7a3001	-0.061080936
212	0xbdc687d5	-0.09693877
213	0x3e8ff765	0.28118435
214	0xbd815bd7	-0.06316345
215	0xbdb819a3	-0.08989265
216	0xbda0d61d	-0.07853339
217	0xbd822471	-0.06354607
218	0xbd789dfd	-0.060697544
219	0xbdb94abb	-0.09047457
220	0xbe870529	-0.26371124
221	0xbd9e3e5a	-0.07726736
222	0xbd5fadb3	-0.05460901
223	0xbd6dd2dd	-0.058062423
224	0xbd318a11	-0.04334456
225	0xbd4d93b7	-0.0501897
226	0xbd5609f5	-0.05225559
227	0xbdd24891	-0.10267747
228	0xbd906672	-0.0705079
229	0xbd57505a	-0.052566864
230	0xbd88e9a5	-0.06685189
231	0xbd67dbca	-0.05660609
232	0xbd37266c	-0.044714376
233	0xbdbe9f08	-0.093076766
234	0xbd79db34	-0.061000064
235	0x3e79f354	0.24409229
236	0xbe517c98	-0.20457685
237	0xbd542273	-0.051790666
238	0xbd832d9f	-0.06405186
239	0xbda29872	-0.07939233
240	0xbe9167a3	-0.2839938
241	0xbd508387	-0.050906684
242	0xbdeb01b4	-0.11474934
243	0xbd900692	-0.07032503
244	0xbda99857	-0.0828101
245	0xbdcd2cff	-0.10018348
246	0xbd89f885	-0.067368545
247	0xbd14b375	-0.036303956
248	0xbdc578eb	-0.09642204
249	0xbd75861c	-0.05994235
250	0xbd8d6033	-0.06903114
251	0xbdc33328	-0.09531242
252	0xbe6e86eb	-0.23293655
253	0xbd948d74	-0.072535425
254	0xbd5d487c	-0.054024205
255	0xbd8ee04b	-0.06976374

output_w.weight f4 [5, 128]
0	0xbcb0fc97	-0.02160482
1	0x3a5bc232	0.00083831244
2	0xbc8952f0	-0.01676318
3	0x3c620ee0	0.013797492
4	0xbcc0b2bc	-0.023522727
5	0xbcbd9e02	-0.023146633
6	0xbbbd1c2d	-0.005771181
7	0xbbb19668	-0.005419541
8	0x3b197d93	0.0023420795
9	0x3b9398bc	0.0045042913
10	0xbc62141e	-0.013798742
11	0xbd178dba	-0.037000395
12	0xbc92d2d9	-0.017922806
13	0x3be1be88	0.006889168
14	0x3a7ff7b4	0.00097643887
15	0x3bb8985b	0.0056333966
16	0xbeb96fdf	-0.36218163
17	0xbb2235d6	-0.0024751327
18	0x3be790a4	0.007066803
19	0x3e4cca3b	0.1999902
20	0x3b116a03	0.0022188432
21	0xbae539c6	-0.0017488531
22	0x3b7f4b2b	0.0038954716
23	0x3baba10d	0.0052377046
24	0xbb9c696b	-0.004773309
25	0x3d3c549c	0.045979127
26	0xbc5f85c1	-0.013642729
27	0xbb311a2e	-0.002702366
28	0xbd01d7b2	-0.031699844
29	0x3b9fbe2a	0.0048749642
30	0x3cf69835	0.030101875
31	0x3b9c9d4d	0.004779494
32	0xbb8c1078	-0.004274424
33	0x3b8c69c0	0.0042850673
34	0x3be753da	0.0070595564
35	0x3c5f0a47	0.01361329
36	0x3bb033b8	0.005377259
37	0x3bd7c443	0.0065846755
38	0x3cef76ac	0.029231392
39	0xbb816c8b	-0.003949707
40	0xbbf43e94	-0.007453749
41	0xbacb1859	-0.0015494927
42	0x3c4efb66	0.01263318
43	0xbd8d6235	-0.06903497
44	0x3badb23d	0.0053007887
45	0x3b9f6a16	0.0048649414
46	0xbbc11285	-0.0058921003
47	0xbc071951	-0.008245782
48	0xbbf4585e	-0.0074568233
49	0x3b8b9838	0.0042600892
50	0x3bb2617e	0.005443751
51	0xbc5b95ec	-0.013402443
52	0x3aef8455	0.0018273691
53	0x3bd8478d	0.0066003264
54	0xb9f003f1	-0.00045779304
55	0xbc5b7168	-0.013393737
56	0xbc269fdc	-0.010169949
57	0xbc8626c3	-0.016375905
58	0xbb025130	-0.0019884817
59	0x3da0357d	0.07822702
60	0xbbc7a818	-0.0060930364
61	0xbe0eefae	-0.13958618
62	0x3dc154d3	0.09440007
63	0x3b814784	0.003945293
64	0xbc976def	-0.018485038
65	0xbc3d350c	-0.011548292
66	0xbb915bba	-0.0044359835
67	0xbbe3b47d	-0.006949006
68	0x3b8145f6	0.0039451076
69	0xbc5511f7	-0.013004771
70	0x3b87abbc	0.0041403454
71	0x3bb29b2e	0.0054506278
72	0xbc34d080	-0.011036038
73	0xbb604ad0	-0.003422428
74	0xbba89818	-0.005145084
75	0x3b0819cf	0.0020767336
76	0xbb57fccf	-0.0032957082
77	0xbaeb76db	-0.0017964499
78	0xbe472e81	-0.19451334
79	0xbbfe97a0	-0.00776954
80	0x3e95457f	0.29154584
81	0x39f791c4	0.00047220115
82	0xba6104af	-0.0008583767
83	0x3b7451a1	0.00372801
84	0x3b17cb1e	0.0023161839
85	0x3e2dd44c	0.16975516
86	0xb9ce4a24	-0.0003934662
87	0xbd32273c	-0.043494448
88	0x3a8223be	0.0009928865
89	0xbba1ee61	-0.004941747
90	0xbaa7bfde	-0.001279827
91	0xbc54e271	-0.012993441
92	0xbdb87400	-0.090065
93	0xba39f306	-0.0007093403
94	0xbb8bf933	-0.00427165
95	0xbb896fea	-0.0041942494
96	0x3c0019de	0.007818667
97	0xbc551955	-0.013006528
98	0x3b141e73	0.0022601157
99	0x3c451765	0.0120295035
100	0x3b8f9de4	0.0043828357
101	0x3c02467b	0.007951374
102	0x3be8cf0c	0.00710476
103	0x3c159133	0.0091288565
104	0x3c261530	0.010136887
105	0x3c1f1f70	0.009712085
106	0xbb67a750	-0.0035347529
107	0x3cd8a00a	0.0264435
108	0xbdfe807e	-0.12426852
109	0x3b7faf41	0.0039014372
110	0xbbb61bf7	-0.005557533
111	0x3b10768f	0.0022043323
112	0x3dd5bf54	0.104368836
113	0xbbf56662	-0.0074890116
114	0xbc1f8700	-0.009736776
115	0x3bf862a2	0.0075801173
116	0xbc713b27	-0.014723576
117	0x3aac3a56	0.0013139944
118	0x3bdf73d3	0.0068192272
119	0xbc28d798	-0.010305308
120	0x39a62664	0.0003169059
121	0xbc169bb1	-0.009192393
122	0xbaf87788	-0.0018956522
123	0x3bdcd58e	0.006739325
124	0xbb767ae8	-0.003760988
125	0xbc44c046	-0.012008732
126	0xbb843fa0	-0.004035905
127	0x3b8d2c73	0.0043082773
128	0x3ccf7dc8	0.025328532
129	0x3b5efff0	0.0034027062
130	0xbb918fc0	-0.004442185
131	0xbc04c52f	-0.008103653
132	0xbdcd436b	-0.100226246
133	0xbda7a275	-0.08185283
134	0xba5c114e	-0.00083949126
135	0x3c0e83df	0.008698433
136	0x3adc8afd	0.001682609
137	0xbbbf4b63	-0.005837844
138	0x3b3ff83e	0.002929225
139	0x3d3d3a0f	0.046197947
140	0x3ce09762	0.027415935
141	0xbcd20720	-0.025638163
142	0x3bbf11fa	0.0058310004
143	0xbc235f0b	-0.0099713905
144	0x3f0ce959	0.5504356
145	0x3af08837	0.0018351142
146	0x3c41819a	0.011810685
147	0x3ed8cbb2	0.42342907
148	0xbc32bfcc	-0.010909986
149	0xbbd140b3	-0.0063858866
150	0xbc2f45fb	-0.010697837
151	0xbb807763	-0.003920482
152	0xbb3cbd8c	-0.0028799502
153	0xbd392df3	-0.045209836
154	0x3b5e2335	0.0033895497
155	0xbbd04296	-0.006355594
156	0xbd1bd9ec	-0.038049623
157	0xbbfcee0a	-0.007718806
158	0x3d5ed3e0	0.05440128
159	0x3b2ec843	0.0026669658
160	0xb7d747d0	-2.5663438e-05
161	0xbb297b34	-0.0025860788
162	0x3c25330e	0.010082973
163	0xbbd67b65	-0.0065454715
164	0x3b8577ef	0.004073135
165	0xb977fcb0	-0.00023649889
166	0xbcf3cdc7	-0.029761208
167	0xbb0e7309	-0.0021736047
168	0x3aded6f7	0.001700132
169	0xbb01c798	-0.0019802805
170	0x3dc41d72	0.09575929
171	0x3deac3d7	0.11463135
172	0x3adb778c	0.0016744002
173	0xba470c7e	-0.0007593109
174	0xb809c19e	-3.2843665e-05
175	0x3bb2c314	0.005455384
176	0x3c226d0f	0.009913697
177	0xbb8f9654	-0.004381934
178	0x3afa65b4	0.0019103796
179	0x39da0ad8	0.0004158828
180	0xbbe48c1f	-0.0069747115
181	0xbb37db82	-0.002805442
182	0xbc15c2f2	-0.009140717
183	0xbc122cf6	-0.008921852
184	0x3b9c0fa6	0.0047626076
185	0x3ba89045	0.0051441514
186	0xba0e7c56	-0.00054353976
187	0xbd16c3a3	-0.036807667
188	0x3c06578c	0.008199584
189	0xbd57a295	-0.052645285
190	0xbd518965	-0.05115642
191	0xbb631a9c	-0.0034653312
192	0xbe13f677	-0.14449488
193	0x3c0fd354	0.008778412
194	0x3b3a8a03	0.002846361
195	0x3c1ee7bf	0.009698807
196	0xbba88f60	-0.0051440448
197	0x3ca2c8e0	0.019871175
198	0xbb9650eb	-0.004587283
199	0xbbf53813	-0.007483491
200	0xbc169d58	-0.009192787
201	0x3c094ce1	0.008380146
202	0x3be1411a	0.006874216
203	0x3abe9392	0.0014539829
204	0x3c5584cd	0.01303215
205	0x3abaecb3	0.0014261216
206	0xbd0a8b7d	-0.033824433
207	0xbc1e9162	-0.009678217
208	0x3dd7864e	0.105236635
209	0xbbd266ed	-0.006420961
210	0xb9ce39de	-0.00039334496
211	0x3b31a895	0.002710854
212	0x3b90e067	0.004421282
213	0xbd860dab	-0.06545576
214	0xbb9db6bb	-0.004813043
215	0x3c75fa31	0.015013264
216	0x3a2d4f61	0.00066112546
217	0x3adf186c	0.0017020828
218	0xba0d3cea	-0.00053878
219	0x3be8c06a	0.0071030157
220	0xbc9acd03	-0.018896585
221	0x3ac16202	0.001475394
222	0x3b9184d8	0.004440885
223	0x3c024ca1	0.00795284
224	0x3c1bca3f	0.009508668
225	0x3b9906b6	0.0046699895
226	0x3bea5dbd	0.0071522878
227	0xbcdfd71d	-0.027324254
228	0xbb82455d	-0.003975554
229	0xbba3bd0f	-0.004996903
230	0xbc8d0583	-0.017214542
231	0x3b9d7e2c	0.0048063006
232	0x3bb5ec3b	0.0055518425
233	0xbc789f42	-0.015174689
234	0xbb76b7ab	-0.0037646096
235	0x3dd02fc9	0.10165364
236	0xbb243080	-0.0025053322
237	0x3b7f9140	0.0038996488
238	0x3be6ead9	0.007047039
239	0xbc1862de	-0.0093009155
240	0x3db3e94f	0.087847345
241	0x3986be2e	0.00025700167
242	0x3c312e40	0.0108142495
243	0x3b45b7e1	0.0030169415
244	0xbc0f2639	-0.00873714
245	0xbad2b558	-0.0016075773
246	0x3a522fcb	0.0008017986
247	0x3bdeb86c	0.006796887
248	0x3d4bdee2	0.049773104
249	0x3ba90bb4	0.005158866
250	0xb8a8281c	-8.018335e-05
251	0xbc523677	-0.012830368
252	0x3ce68f9e	0.028144654
253	0xba553912	-0.00081338093
254	0xbac86415	-0.0015288616
255	0xbb93659a	-0.004498196

output_w.bias f4 [5]
0	0xbd1be320	-0.0380584
1	0x3d720bf3	0.059093427
2	0xbf675dc0	-0.90377426
3	0xbf74da0f	-0.9564523
4	0xbdfbeb8c	-0.123007864

square_avg f4 [64]
0	0x3e39f320	0.18159151
1	0x3e90821c	0.28224266
2	0x3dc4d443	0.09610798
3	0x2c504754	2.9598173e-12
4	0x37be4cf6	2.2685603e-05
5	0x3d10f393	0.03538854
6	0x3cfe10a6	0.031013798
7	0x2fab7507	3.1187872e-10
8	0x3c1d4a05	0.009600167
9	0x2fc41ea0	3.5673953e-10
10	0x3d35b137	0.04435846
11	0x3cba3ec4	0.022735007
12	0x3e18a18f	0.1490538
13	0x3c539516	0.012913963
14	0x3b9dcb38	0.0048154853
15	0x3c56bd8a	0.013106713
16	0x3d5733ff	0.05253982
17	0x3b151422	0.0022747596
18	0x3c81ba28	0.015835837
19	0x3f8e851b	1.113437
20	0x2d444b24	1.1157995e-11
21	0x3d889748	0.066694796
22	0x3c5e6b4a	0.013575384
23	0x2d0dc855	8.059405e-12
24	0x3d17a096	0.03701838
25	0x3070197c	8.7347707e-10
26	0x3e8c219e	0.27369398
27	0x31b49333	5.255424e-09
28	0x3e1f1db1	0.1553867
29	0x3dc77c59	0.09740514
30	0x3e523109	0.20526518
31	0x3bcfef5d	0.006345673
32	0x3d225b38	0.039637774
33	0x3eae4e68	0.34044194
34	0x3e345b6f	0.17613004
35	0x3d2e3fb4	0.04254122
36	0x3e213573	0.15743046
37	0x3db10112	0.08642782
38	0x3b5e1e50	0.003389258
39	0x3c61da85	0.013785009
40	0x3d19d522	0.037556775
41	0x32125b2e	8.51905e-09
42	0x2d034b30	7.463183e-12
43	0x3c123ccf	0.008925631
44	0x322271f1	9.455548e-09
45	0x3be36995	0.0069400766
46	0x3cffb1f1	0.031212779
47	0x3c9c4b68	0.019078925
48	0x3a8507e2	0.0010149444
49	0x3eddbb13	0.4330679
50	0x36484091	2.9839905e-06
51	0x3d19cf1a	0.037551023
52	0x2d5adb00	1.2440493e-11
53	0x31d850b7	6.2956036e-09
54	0x3df77789	0.120833464
55	0x3b9afefc	0.0047301035
56	0x3c968954	0.01837603
57	0x3715fd79	8.940108e-06
58	0x2c350111	2.572224e-12
59	0x3d9d282a	0.07673676
60	0x3d02e784	0.03195907
61	0x3d0a8ed2	0.03382761
62	0x3c4990d7	0.012302599
63	0x3d5bb0f2	0.053635545

square_avg f4 [5]
0	0x40d21ef1	6.566277
1	0x41789880	15.537231
2	0x3d9c191a	0.07621975
3	0x3f0ce760	0.5504055
4	0x3c852064	0.016250797
