S-LSTM/Goal+Socail_Array_PyTorch/social_lstm/save/0/social_model_epoch_5.pth (torch, 819255 bytes, 22 tensors)

embedding_b f4 [64]
000000 1e 33 93 3c fc df 57 bd 58 b5 0f be 5a 62 33 3e
       0.01796871 -0.052703843 -0.14034021 0.17517987
000010 cc 3c 10 3d 3c e5 84 bc 62 f8 28 bd e4 10 3f bd
       0.03521423 -0.016222589 -0.0412525 -0.046646968
000020 67 36 0e 3d af e9 93 3e 3f 3f 50 be 3c 03 e8 3d
       0.03471985 0.28889224 -0.20336626 0.11328742
000030 3d 7f a0 3c 66 77 aa 3c 22 21 68 bc c7 b1 a9 3d
       0.019591922 0.020808887 -0.014168056 0.082858615
000040 87 f0 fd bb c3 f3 0c b9 13 ae 0a be 8e fb 8c 3d
       -0.0077496204 -0.00013442249 -0.13542967 0.06883918
000050 18 a6 52 bb 25 ab b2 bc 63 e6 14 bd eb 0a b6 3d
       -0.0032142457 -0.021810124 -0.036352526 0.08888801
000060 04 7a df bd f3 c6 55 3e 4d 81 a9 bd 31 5a 19 bd
       -0.109119445 0.20876674 -0.08276615 -0.03743953
000070 93 ab 0d bc 74 52 22 3c 2a 93 4c 3d 1f 0d 9f bc
       -0.0086468635 0.009907354 0.049945034 -0.019415436
000080 05 2a ed b8 df a7 b6 bc 66 a4 a4 bc 12 82 14 3d
       -0.000113088674 -0.022296844 -0.020097923 0.036256857
000090 a2 0f fa bd 18 83 e3 bb e9 ea 9f 3d 5d 75 53 3c
       -0.12210013 -0.006943118 0.078084774 0.0129064
0000a0 ff 09 cd 3d 9b 86 ec 3d c0 7e 16 bd fb a3 9b bb
       0.10011672 0.115491115 -0.036741972 -0.0047497726
0000b0 00 3b dc ba 7e eb 9d bc ea 08 84 bc 72 51 2d be
       -0.0016802251 -0.01927733 -0.016117532 -0.169256
0000c0 7c 13 d3 3b 41 d4 a8 bc 9f 7e b3 3d eb 7d 54 3e
       0.0064415317 -0.020609023 0.087643854 0.20751159
0000d0 46 59 21 be 3e 13 8d bb 62 9d d5 3b 64 70 bf bb
       -0.15756711 -0.0043052724 0.0065190056 -0.0058422554
0000e0 12 d1 88 bd 8f 17 b9 3d 34 b8 27 b9 ac fa de 3d
       -0.06680502 0.090376966 -0.00015994982 0.108876556
0000f0 91 71 12 bd 09 bf 0a bd 42 23 7f b8 2a 9b 4d bd
       -0.035752837 -0.03387359 -6.0829574e-05 -0.050196804

output_b f4 [5]
000000 46 40 14 3c c8 65 8a bb de bd 25 bf 3e 10 22 bf
       0.009048527 -0.004223559 -0.6474284 -0.63306034
000010 d6 a2 bd 3b
       0.005787234

embedding_w.weight f4 [64, 4]
000000 15 04 7a 3f 59 f3 ba be 90 b4 82 3b bf fb dd bd
       0.9766248 -0.36513785 0.00398881 -0.108390324
000010 32 47 df be 50 25 96 bd 61 6e 53 be 06 f0 02 3e
       -0.43609005 -0.073313355 -0.20647575 0.12786874
000020 d5 2f d7 be 76 23 65 3b 28 88 9c 3d e0 f3 13 be
       -0.4202868 0.0034963763 0.07643157 -0.144485
000030 87 44 7b bf 39 04 73 3f 9b 48 2b be 06 5e 8d 3e
       -0.9815144 0.9492832 -0.16726916 0.27610797
000040 42 a0 6e bb 98 a0 65 bd 48 2f 50 bc b8 d7 6f bc
       -0.003641144 -0.056061357 -0.012706585 -0.014638834
000050 74 a7 83 3c 66 20 24 3c ca 64 2f 3c bc 6e 8d 3c
       0.016071059 0.01001749 0.010705182 0.017264716
000060 c7 b4 e9 be 81 95 5a 3f 0d 89 54 3d 7a f9 3f bd
       -0.45645735 0.85384375 0.051888514 -0.04686878
000070 ea 1f 05 bf cf c4 4c 3e 39 47 b5 bd f3 44 3b 3d
       -0.5200182 0.19996952 -0.08851475 0.045720052
000080 fe 36 e0 3c 38 f8 67 3f 6c 90 57 bd 62 da 8d 3b
       0.027369972 0.90613127 -0.052627966 0.004329012
000090 8f 4d 23 bf 6a 50 97 bf 0f 1c 05 be 38 b2 35 3e
       -0.6379022 -1.1821415 -0.12998985 0.17743766
0000a0 a7 d7 bc 3e 0a b7 bf 3b 7d 75 1d be c7 e7 ad 3d
       0.3688328 0.0058506774 -0.1537685 0.08491474
0000b0 51 72 49 3d 6d b6 67 3f e4 20 eb 3d 00 6f 94 3e
       0.049181286 0.90512735 0.11480883 0.28990936
0000c0 86 9e 48 3d 36 c5 69 bc 7d b5 63 3d a1 f8 8d 3d
       0.048979305 -0.01426821 0.055593003 0.06932188
0000d0 8c 1b 80 bf 55 9f 2a be d5 c0 ce bd be d2 f5 bd
       -1.0008407 -0.16662343 -0.100953735 -0.120030865
0000e0 84 fb da 3d 23 e3 93 bf dc 70 02 3e 58 30 3f bd
       0.10692504 -1.1553692 0.12738365 -0.046676964
0000f0 fc a8 a1 3f a1 39 29 3f 38 e2 80 3d 68 96 7d bc
       1.2629695 0.6610356 0.06293148 -0.015477754
000100 61 18 c4 3c 71 e6 1c ba 83 19 be ba 35 04 65 3b
       0.023937406 -0.0005985266 -0.0014503453 0.0034945135
000110 a0 dd 24 93 85 15 68 b0 c4 4e 9d 24 2f 08 28 b4
       -2.080898e-27 -8.443169e-10 6.822133e-17 -1.5649196e-07
000120 fd 6b f8 be fe 66 7e be a5 35 be 3e 58 1d 57 3e
       -0.4851989 -0.24843976 0.37150303 0.21007288
000130 05 47 6c 3f 82 45 43 bf ab aa 36 3d ed 5a 2a bc
       0.9229587 -0.76277936 0.044596355 -0.010397655
000140 7d ce 49 3f a7 f7 20 bf 3b a3 0a be 69 c0 88 bd
       0.788307 -0.6287789 -0.1353883 -0.06677324
000150 88 ba 42 3d c3 d4 9a 3c ed fd 5f 3d 37 e7 b6 3c
       0.04754117 0.01890028 0.054685522 0.022327049
000160 74 2a b9 3d 8f a8 17 bf 7c 6a e6 3d 60 92 3d 3e
       0.090413004 -0.59241575 0.11250779 0.18512869
000170 22 cc 7c 3f e5 a7 1a be 54 64 c3 3e 76 91 a8 3e
       0.9874898 -0.15103109 0.38162482 0.32923478
000180 62 0f 8a 3f e7 91 2b 3f df 55 fe 3d b4 53 8c 3d
       1.0785944 0.67019504 0.12418722 0.068519026
000190 03 2d 53 3f 7b c6 67 3f bd 17 1c 3d ad c6 5c bc
       0.8249056 0.9053723 0.038108576 -0.013475102
0001a0 5e 1a 53 3e 02 88 c8 3e ee e7 d9 bd dd fd 65 be
       0.20615527 0.39166266 -0.1063994 -0.22460122
0001b0 ba f3 7e bf 23 04 4f 3f 13 b9 89 be 4e 05 b2 3d
       -0.9959065 0.8086569 -0.26899013 0.08692418
0001c0 37 fa 97 bb df ea 4c 3a 89 3f 11 bc 0f 7e 88 ba
       -0.004637982 0.0007816981 -0.008865246 -0.0010413545
0001d0 d7 ce 42 3f 62 e2 62 be b4 53 5b bd 9c 31 9e 3d
       0.7609686 -0.2215667 -0.053546622 0.07724306
0001e0 5f e8 dd 3e b1 2c 22 3f 43 e0 88 3d 9e 7a a2 3d
       0.43341348 0.63349444 0.066833995 0.079335436
0001f0 2c 53 91 3f 0e af 81 3d b4 96 5e be 2b a7 1b 3e
       1.1353507 0.06332217 -0.21737176 0.15200488
000200 f8 d3 f4 89 d8 28 39 8b 2e b9 63 95 3e 5b 11 35
       -5.8940198e-33 -3.566043e-32 -4.5988366e-26 5.4149484e-07
000210 a7 42 0e 3f 50 cb ed 3e 6a 5e 08 bd 46 2c d2 bd
       0.55570453 0.46444178 -0.033293165 -0.10262351
000220 e1 9c f9 bb 12 e1 83 3c 92 17 4e 3c 91 8d 91 3c
       -0.0076175784 0.016098533 0.012578862 0.0177677
000230 07 4e 7a 3f 66 8f 3c bf 7f 6f 3c 3e fa cc cd be
       0.9777531 -0.7365631 0.18401907 -0.40195447
000240 1c 3d 4b bf 97 d0 23 3e 48 e2 5e bb 33 b1 2b be
       -0.7939012 0.1599754 -0.0034009386 -0.16766815
000250 43 1d 8c 39 99 c5 cf af 2d 04 97 b8 9f 63 4b b1
       0.00026724683 -3.7793482e-10 -7.201019e-05 -2.9597016e-09
000260 84 63 10 3f f3 0d 71 bf bf e3 91 3e 32 21 3e 3d
       0.5640185 -0.9416191 0.2849407 0.046418376
000270 4b 15 a4 3c da 8e c4 bb 55 53 3c bd 15 3a 05 3d
       0.020029685 -0.0059984745 -0.04597791 0.032526094
000280 28 30 89 bf 23 cf 07 bf 89 25 b8 bd 4e 20 4e bc
       -1.0717821 -0.5305044 -0.08991534 -0.012580944
000290 3d b8 49 bd 56 32 89 3f 92 2d 97 3d 06 d9 af 3e
       -0.04924797 1.0718486 0.07381739 0.34345263
0002a0 bd b7 6d be 61 be 60 bf 06 ec d3 3c fc dd ee be
       -0.23214622 -0.87790495 0.02586938 -0.46653736
0002b0 5d 97 f0 b7 74 4b ef ad 6c 2a 12 b8 de 53 94 af
       -2.8680714e-05 -2.7204662e-11 -3.484862e-05 -2.6980634e-10
0002c0 b8 68 e5 29 c7 05 94 35 60 86 82 22 d3 92 b7 38
       1.0187809e-13 1.1028541e-06 3.5378846e-18 8.753468e-05
0002d0 4c 97 71 bc 1f 1a 04 3d fe c1 3d 3d 43 4f da bc
       -0.014745545 0.032251474 0.046327583 -0.026649123
0002e0 6a 5d 8a 3d 7b 14 73 3d a2 40 74 bc cd e5 bb 3d
       0.067560986 0.059345704 -0.014907988 0.091746904
0002f0 f3 7a 0a 3f 07 ba 3d 3e c1 58 5c bd ca 23 d8 3d
       0.54093856 0.18527995 -0.05379558 0.10553701
000300 21 56 1e 3f 18 29 51 bf c1 62 14 bd 33 29 76 3d
       0.6185017 -0.8170333 -0.03622699 0.060097884
000310 12 20 78 bb e0 3f f1 bc 24 05 df 39 0e 16 f5 3c
       -0.0037860912 -0.029449403 0.00042537705 0.029917743
000320 a4 9e bf bd 4f 75 98 3f 8e 1a f3 3d 47 10 95 bc
       -0.0935643 1.19108 0.11870299 -0.018196238
000330 ef 20 a2 3f e6 b8 22 3e f6 c6 2e 3c db ed d1 3d
       1.26663 0.15890846 0.010667553 0.102504455
000340 6d 56 e0 3e d3 a4 03 3f d7 2e 26 be c2 72 08 be
       0.43815938 0.51423377 -0.16228805 -0.13325027
000350 50 ab 10 3d c2 c5 41 3d dd 4e 34 bd 22 61 21 3b
       0.035319626 0.047307737 -0.044020522 0.0024624546
000360 be d5 09 bd 00 41 82 38 2b fa d8 bc 80 8a d9 b9
       -0.033651106 6.21099e-05 -0.026486477 -0.00041492656
000370 c8 81 2f 3f 49 40 fb be c9 5e b9 3d 48 59 fd 3d
       0.68557405 -0.49072483 0.09051282 0.12370545
000380 db 39 19 bf 53 ff f7 bc 6f 34 8c be 7c 24 4a 3e
       -0.59853905 -0.030273115 -0.27383754 0.1974048
000390 00 02 8f 3f 57 ac dc 3e 0c 51 02 3e b1 d9 1e be
       1.1172485 0.43100235 0.1272623 -0.1551273
0003a0 7e fb 29 37 a6 16 1f 32 fe a6 5a 37 58 46 1e 2f
       1.013174e-05 9.260168e-09 1.30326935e-05 1.4395007e-10
0003b0 2d b6 1e 3f 58 f1 6f 3f 31 bf dc 3c 71 f7 52 bd
       0.6199673 0.93727636 0.026946636 -0.05150551
0003c0 8d 16 58 bf 77 a2 54 3e 78 a0 05 3e 55 09 2b bc
       -0.8440941 0.207651 0.13049495 -0.010439237
0003d0 1b 28 85 be 2c 82 90 bf 5e 3c 00 3c e6 2f 97 be
       -0.2600716 -1.1289725 0.007826893 -0.2952873
0003e0 f8 97 e2 2b ea d8 13 b0 90 0e ba ab 8d 60 d9 34
       1.6100446e-12 -5.378654e-10 -1.3220137e-12 4.048965e-07
0003f0 68 c6 4a 3f cf 57 68 3f eb e0 30 3c f7 41 d9 3c
       0.79208994 0.90758985 0.010795812 0.026520712

embedding_w.bias f4 [64]
000000 3e dd 83 bc f8 df 57 bd 42 a5 dd 3d d1 b5 08 be
       -0.016096707 -0.052703828 0.10822536 -0.13350607
000010 cc 3c 10 3d 3c e5 84 bc 80 23 21 bb c0 49 44 bd
       0.03521423 -0.016222589 -0.002458781 -0.047921896
000020 00 8e 57 bd e9 de ac 3c df a3 f0 3d 02 a3 8d 3d
       -0.052625656 0.021102386 0.11750006 0.06915857
000030 3d 7f a0 3c 8c d8 9b 3c 26 f8 15 3e 3b f8 97 bd
       0.019591922 0.019024156 0.14645442 -0.07420393
000040 87 f0 fd bb c3 f3 0c b9 d9 df 1b bc cb b8 b0 3e
       -0.0077496204 -0.00013442249 -0.009513819 0.34515986
000050 f2 f9 d9 3d 25 ab b2 bc 09 62 00 3e ef 46 4e bc
       0.106433764 -0.021810124 0.12537397 -0.012590154
000060 23 09 9c bd c0 51 60 3d 1c 20 89 3d 43 a7 21 be
       -0.0761893 0.054765463 0.066955775 -0.15786462
000070 93 ab 0d bc 49 b4 5a 3e c6 72 b3 3e 02 06 21 3d
       -0.0086468635 0.21357836 0.35048503 0.03931237
000080 05 2a ed b8 95 5d 5f 3e 66 a4 a4 bc 57 4d 6f bd
       -0.000113088674 0.21813042 -0.020097923 -0.058423366
000090 62 5e aa 3c 18 83 e3 bb 74 f7 c0 3d 5d 75 53 3c
       0.020796958 -0.006943118 0.09422198 0.0129064
0000a0 ba 88 13 3e 5a d4 13 3e d1 e7 a3 3d fb a3 9b bb
       0.14407626 0.14436474 0.080032 -0.0047497726
0000b0 00 3b dc ba 7e eb 9d bc ea 08 84 bc 5c 11 07 3d
       -0.0016802251 -0.01927733 -0.016117532 0.03297554
0000c0 cd 07 81 3d 41 d4 a8 bc 4c 15 e1 3b 9b cd a9 3d
       0.06300316 -0.020609023 0.006868994 0.08291169
0000d0 49 fe 19 3e 3e 13 8d bb 62 9d d5 3b 44 1d 80 3d
       0.15038408 -0.0043052724 0.0065190056 0.06255582
0000e0 2a d1 88 bd f5 eb 46 3e 34 b8 27 b9 5f d3 c5 3d
       -0.0668052 0.19425948 -0.00015994982 0.096594565
0000f0 1d 3a 60 bd 62 1f 54 3e 42 23 7f b8 ec 4d c2 bd
       -0.05474292 0.20715097 -6.0829574e-05 -0.09487519

embedding_t_w.weight f4 [1, 8]
000000 2e 47 f4 bd 46 9f 84 bd 36 1f 0f be dd b4 8a 3c
       -0.11927639 -0.064756915 -0.1397675 0.016931945
000010 14 cd c9 bd 71 42 00 bd 2e 8c e1 bd 19 12 dd 3c
       -0.09853569 -0.031313363 -0.11013065 0.026986169

lstm.weight_ih f4 [512, 65]
000000 88 49 54 39 06 a0 0b bb 16 b2 3b bc d8 1b ce bc
       0.00020245288 -0.0021305098 -0.011456033 -0.025159761
000010 15 1a eb bb 09 fa 60 b7 ef c4 93 bc 6b 36 34 bc
       -0.00717474 -1.3409656e-05 -0.018038241 -0.010999302
000020 8e 83 82 bc 49 3c fd bc c8 90 ee ba 03 9a d0 bc
       -0.01593187 -0.030912535 -0.0018201107 -0.025464064
000030 9a 54 d3 3b 4c da eb bc 6c 21 4f bc 39 6c 0c bd
       0.0064492943 -0.028790615 -0.012642246 -0.034282897
000040 f8 3d a1 3a 0c e0 f8 b5 33 d4 88 3b 14 cd 2e bd
       0.0012301793 -1.8542646e-06 0.0041756867 -0.042676046
000050 92 a6 07 3a f8 2e 03 b8 0d 5e d0 3c 6f 56 8d bc
       0.0005174662 -3.1276577e-05 0.025435472 -0.017253129
000060 98 17 92 bc a8 7c 42 bd 3c ed 90 bc c8 ca 9e bc
       -0.017833516 -0.047482163 -0.017691247 -0.019383803
000070 89 40 6b 31 45 0b 9d bc de 54 8a bd 5d 83 21 bc
       3.4233685e-09 -0.019170413 -0.067544684 -0.00985798
000080 91 46 09 3b ff 03 17 bd 11 1d 71 b3 0b f0 1d bc
       0.0020946602 -0.036869045 -5.613862e-08 -0.00963975
000090 e1 b3 8b bc 40 e6 91 36 46 9b c9 3b bd 6d 2c bb
       -0.017053546 4.3481414e-06 0.0061525432 -0.0026310526
0000a0 cc 9a 0f bd 80 2c 0a bd 11 d3 d0 bc da 77 84 39
       -0.035059735 -0.033733845 -0.02549127 0.00025266298
0000b0 5e a3 eb b6 32 89 98 3b 4e 43 f9 3b 26 a3 75 bb
       -7.022564e-06 0.004655027 0.0076069003 -0.0037481277
0000c0 47 49 4c 3c 1f 07 01 b3 fc 20 c1 bc 35 0b 4a bd
       0.012468643 -3.004163e-08 -0.023575298 -0.049327094
0000d0 16 8f 9d bc 72 af a2 bb 30 ad a0 ba 52 24 9c 3c
       -0.019233268 -0.0049647624 -0.0012258645 0.019060288
0000e0 03 9d a3 bb d2 11 55 bd 54 d8 f6 35 f3 c5 1f bd
       -0.0049930825 -0.052018948 1.8391388e-06 -0.03900714
0000f0 a2 20 53 bc 6b d9 16 bd 8c 9a c3 35 82 61 ba bc
       -0.012886198 -0.03682844 1.4573611e-06 -0.022751573
000100 2f ed ab ba 5c 1a 42 bd f5 ae de bc 4d 82 15 bd
       -0.0013116951 -0.04738842 -0.027183035 -0.036501218
000110 a0 d2 75 be 39 59 7a bc 0c 12 9c b5 f8 e4 b5 bd
       -0.24006128 -0.015280061 -1.1628158e-06 -0.08881563
000120 e9 53 66 bc 99 b4 83 bd fe 28 46 bd 20 fa 4b 3a
       -0.014058092 -0.06430931 -0.048378937 0.0007781107
000130 f1 a5 7d be a6 95 1e bd 17 b6 13 be df 8c 8e bd
       -0.24770333 -0.038716935 -0.1442493 -0.06960463
000140 e1 04 34 bd 0f 95 89 32 58 1b ec bb 65 47 6b 3c
       -0.043949965 1.6016683e-08 -0.007205408 0.0143602835
000150 0c 03 7d bd 94 e5 10 bc ad a2 b9 ba b8 6c d0 bd
       -0.061770484 -0.008843798 -0.0014162861 -0.101769865
000160 76 cb cb 3b 6e 6a e8 bc a7 f2 13 be 04 84 ae bc
       0.006219323 -0.028371062 -0.14448033 -0.021303184
000170 24 c6 4e bd 48 06 b8 a1 d4 32 d9 bc ff 6a 29 be
       -0.05048193 -1.2469988e-18 -0.026513495 -0.16544722
000180 cf fd a6 ba 0a 8a bd a8 75 d8 ce bd 28 4e 07 b7
       -0.0012740436 -2.104308e-14 -0.1009988 -8.064824e-06
000190 44 a1 b6 bd f6 a4 5c bd 78 53 ef 86 9c f5 b5 bd
       -0.08917478 -0.053868257 -9.0024454e-35 -0.08884737
0001a0 66 61 d2 ba dd e5 48 be e0 8d b0 be 40 f7 15 be
       -0.0016050756 -0.19618936 -0.34483242 -0.146451
0001b0 f0 56 f1 1c a4 93 86 2b 98 bb af b8 e5 1e 74 bc
       1.5970515e-21 9.562251e-13 -8.379592e-05 -0.014899944
0001c0 58 6a 1d bb 8c 6a 07 bd 0e 4c 2f ab 08 b2 76 be
       -0.0024019685 -0.033060595 -6.2278036e-13 -0.24091351
0001d0 6d 10 8d 3b 42 1a 1e bc db 91 26 bc 51 9b 93 bc
       0.0043049366 -0.009649815 -0.010166611 -0.018018397
0001e0 4b 9a 54 bd 6b 84 30 bd 3b d7 69 bd 9f 20 6e 36
       -0.051904958 -0.043095034 -0.057090025 3.5483752e-06
0001f0 37 e6 2a be 49 c8 58 bd 19 f3 84 bd c8 23 59 b4
       -0.16689382 -0.05292538 -0.0649168 -2.0222717e-07
000200 ad 71 11 bd 8b e1 74 3d d8 e8 14 3d 4e 9b a4 bc
       -0.0355088 0.059785407 0.03635487 -0.020093586
000210 f6 af 50 bc 50 6b 2c 3d 76 b3 1a bd 35 7f cb 37
       -0.012737265 0.04209453 -0.037768804 2.4258721e-05
000220 0c ff aa 3d ea de c4 3c d6 fb 96 3d 22 7a 59 be
       0.083494276 0.024032075 0.07372253 -0.21237996
000230 2a 3d 1e 3b db a6 bc 3d 7a f3 30 bd 00 46 b2 bc
       0.0024145343 0.09211513 -0.043200947 -0.021761894
000240 b4 2b 18 be 05 d9 0d 3e ac 8c 72 3a e0 d9 23 3b
       -0.14860421 0.13852318 0.0009252529 0.002500169
000250 f6 7d 93 bd 68 18 9f bd 37 a5 45 bb c2 33 52 bb
       -0.072017595 -0.07768327 -0.003015829 -0.0032074307
000260 fe 59 07 be 20 4c 3c bd ca 15 84 3d c5 6f 73 3e
       -0.13217923 -0.045971036 0.064494684 0.23773105
000270 db 4b d5 3d f4 8f b2 3d bc b5 5f 87 9a fb 18 3d
       0.10414859 0.08718863 -1.6830062e-34 0.03734932
000280 1a 76 09 3e 02 2a f7 3d 3c 00 80 39 fa 71 34 3e
       0.13423958 0.12068559 0.00024414237 0.17621604
000290 cf 11 89 3a 8e ee 28 bd 23 97 5a bc 4e 96 c2 90
       0.0010457578 -0.04124313 -0.013341698 -7.675109e-29
0002a0 3f 0a fc bd fd d3 14 bd 76 06 10 be eb 0b ba 3d
       -0.12306642 -0.03633498 -0.14064965 0.090843044
0002b0 53 c6 00 be 5c 69 f9 90 4b 15 0e 2d fc b2 54 39
       -0.12575655 -9.8375515e-29 8.0764935e-12 0.00020284572
0002c0 0f 1c 5b bc 94 32 53 3c 7e 7c 79 bd ec 17 7e ac
       -0.013373389 0.012890477 -0.06090974 -3.610885e-12
0002d0 22 f1 06 3e 93 fe 0f 3e d5 05 47 3e 15 4f 19 3d
       0.13177922 0.14061956 0.19435818 0.037428934
0002e0 f0 7b 9d bc 11 a8 a8 bd 81 b1 bb bc c6 6e 26 3e
       -0.019224137 -0.08235181 -0.022911789 0.16253194
0002f0 1e f4 a7 33 61 3b 63 3e c5 43 52 bd 4f f0 26 be
       7.820948e-08 0.2219062 -0.05133416 -0.16302608
000300 86 1c 20 32 52 9f fc 3d 0c 56 5d bd fb 0f 9e bd
       9.319711e-09 0.123350754 -0.05403714 -0.07717892
000310 ef a0 64 3c dd 5d 42 bd 7b ad 2a 3e 99 d8 dc bb
       0.013954385 -0.047452796 0.1666774 -0.0067396876
000320 24 8b 3c 37 fa 99 1f 3e 92 c3 66 3d 92 12 e7 3d
       1.1238069e-05 0.15586081 0.056338854 0.11282839
000330 4e be f9 bd f1 b4 5f bc ad 5b 7e 3e ec 17 3d bc
       -0.12194501 -0.01365398 0.24839659 -0.011541348
000340 d2 ea 03 bd 2c 4f 8c be 2e a1 07 3e 0b 76 52 3b
       -0.032206364 -0.27404153 0.13245079 0.0032113816
000350 0c ec 2b 3a 58 c0 cb 3d f2 e8 99 be 27 f6 2b be
       0.0006558306 0.09948796 -0.30060536 -0.16793118
000360 15 35 14 3c 73 03 db bd 6a e6 8e 3d 10 00 ef 3d
       0.009045859 -0.10694017 0.06977542 0.11669934
000370 28 c4 c3 3d c4 8d b4 3b 1d 0a a0 3d 88 0f 9f 26
       0.09558898 0.005510064 0.07814429 1.1037051e-15
000380 63 11 e4 bd d8 4a c9 3d a4 1a 2a 3d 0b 2d 41 19
       -0.11136129 0.098287284 0.041529313 9.9869625e-24
000390 a9 b6 51 3c 32 51 25 3b d2 dd 10 be 64 1d 37 bd
       0.012799897 0.0025225398 -0.14147118 -0.044705763
0003a0 e2 f6 82 86 43 64 0e be b9 6b bd 3c 4f da 85 bd
       -4.9263327e-35 -0.13905434 0.023122655 -0.0653578
0003b0 45 5f 87 3e d4 90 63 be 5a ae cf 24 95 9c 0d 25
       0.26439872 -0.22223216 9.00673e-17 1.2282853e-16
0003c0 8b 5c 0c 3a 1e 0c d6 3c 33 d7 8c 3c 1e 7d 20 be
       0.0005354366 0.026128825 0.017192459 -0.15672728
0003d0 d0 12 57 a3 9c 2c 87 3e 66 19 e7 3c 88 f9 59 3c
       -1.1659157e-17 0.26401222 0.028210353 0.013304122
0003e0 4a 8f f8 bc 7a 00 9d 3c 4c cd ac bd 99 a1 f9 3c
       -0.030341763 0.019165266 -0.08437595 0.030472564
0003f0 85 8b bb 3c 85 3b 9d 36 30 ce ef 3d 2f 84 a3 3d
       0.022893677 4.6858936e-06 0.11709249 0.079841964

lstm.weight_hh f4 [512, 128]
000000 63 46 be bb ab da ec 3a 8a 41 09 3b c7 d3 8d bc
       -0.0058067306 0.0018070539 0.0020943605 -0.017312897
000010 32 fd f3 bb 2e 79 1f 3b ba a8 c3 3c 05 56 b0 3a
       -0.0074459547 0.0024333703 0.023884166 0.001345337
000020 b3 2b f0 bb ee c5 80 bb 13 18 c0 3b 22 e6 07 3b
       -0.007329428 -0.003929845 0.005862245 0.0020736535
000030 a7 76 77 3b c4 62 0c 3b 16 18 ba ba fb 6d 52 3a
       0.0037759931 0.0021421174 -0.0014197852 0.00080272526
000040 91 42 60 3b e0 96 c1 37 b7 f0 13 bb b7 63 d4 bb
       0.0034219364 2.307765e-05 -0.0022573897 -0.0064816135
000050 a0 7c 06 3c 44 e9 2e bc 8e 79 b3 3b 80 b3 2d bb
       0.008208424 -0.010675732 0.005477137 -0.0026504695
000060 91 03 a9 bb 93 e1 88 3a b1 1a c6 bb 9b 73 71 3b
       -0.005157896 0.0010443203 -0.0060456623 0.0036842588
000070 6a 4c 1a 3a ea 4c c7 3a 11 5d d2 ba c5 1e be 3a
       0.00058860204 0.0015205417 -0.0016049464 0.001450502
000080 47 8b 39 bb d2 95 df 39 6a f3 d8 39 a4 b9 88 bb
       -0.0028311776 0.000426455 0.00041380088 -0.0041725207
000090 e2 17 8b 3b 45 2b a2 39 c0 c6 27 3c 8c 53 bc 39
       0.0042447904 0.00030931286 0.010240257 0.00035920402
0000a0 13 6e 51 3d 50 b1 4d 3b a8 16 7a b9 5a 67 27 bb
       0.051130366 0.0031386204 -0.00023850298 -0.002554378
0000b0 75 34 6f bb d6 30 93 3a 5d fc 1b bb 3b a7 db 3b
       -0.0036499773 0.0011229764 -0.0023801543 0.006703285
0000c0 df 0a b6 3b 8b 76 a1 3a b1 8c bf b9 3f e7 47 bb
       0.005555495 0.0012318654 -0.00036535182 -0.0030502824
0000d0 d4 d6 8d ba 3c c8 d9 3b f8 49 ad 3a 45 5f 1b bb
       -0.001082147 0.0066461843 0.0013220897 -0.0023707908
0000e0 48 a4 9d ba d8 1f d2 ba 13 a6 ff b8 64 03 51 39
       -0.0012027109 -0.0016031219 -0.00012190281 0.00019933056
0000f0 11 39 9f ba cf 3f cb 3b 81 76 e7 ba f2 29 b5 b9
       -0.0012147744 0.006202675 -0.0017659218 -0.00034554262
000100 35 49 8f 3a d9 fd 54 3c 9e 26 c1 3b a4 c0 1f 3b
       0.0010931852 0.012999975 0.005894496 0.0024376297
000110 ea 41 44 bb 0c bd 96 3a 65 01 28 3b 64 0b c7 3a
       -0.0029946514 0.0011500432 0.0025635597 0.001518589
000120 69 fb e2 bc 19 55 b1 3b 01 43 1d bb 4c 4d 2b bb
       -0.027707772 0.0054117558 -0.0023996236 -0.0026138602
000130 94 50 61 39 5d 9d 2e bd 6c 68 9c bb ef a7 82 bb
       0.0002148769 -0.042630542 -0.0047731902 -0.0039873044
000140 b4 d8 2d 39 0a 38 58 3b 76 18 02 3b 67 fe b6 3b
       0.00016579294 0.0032992386 0.0019851006 0.0055845263
000150 56 89 8d b9 aa 67 a2 3c 8b a3 5b 3c e0 12 44 3b
       -0.0002699594 0.019824822 0.013405691 0.0029918477
000160 37 e8 db 3c 42 9b 8d ba 4b 3c 48 bb b8 7b 93 3b
       0.026844127 -0.0010803717 -0.0030553516 0.0045008324
000170 d2 e0 6a 3b b4 49 47 bb 52 17 2e 3c 6d 58 48 3b
       0.003583957 -0.003040892 0.010625677 0.0030570284
000180 9a 6a ce 3b 44 4e 9c bb 41 57 86 3c 65 7f eb 39
       0.006299329 -0.004770072 0.016399028 0.0004491761
000190 1c 50 9c bb 1f 69 87 bb 3c fa f4 b8 80 6a 9c 3d
       -0.004770292 -0.0041324045 -0.000116814364 0.07637501
0001a0 64 ef c4 3b 39 37 c6 ba 78 83 7e 3a 50 d2 63 bb
       0.006009983 -0.0015122659 0.00097089214 -0.0034762807
0001b0 44 3f 6b ba 37 e1 16 ba 2d 1b 00 3b 30 ed 95 bb
       -0.0008973966 -0.00057556055 0.0019547448 -0.004575394
0001c0 34 71 6f 3b 14 3b 92 3c 2e fb 3a ba 3f 94 2e 3b
       0.003653598 0.017850436 -0.00071327656 0.0026638655
0001d0 29 94 8a 3b 78 d2 8f 3b 88 75 b5 bb 91 14 0c bc
       0.004229088 0.0043891035 -0.0055376925 -0.008549825
0001e0 10 8e f4 3b 5c 77 15 3b b1 67 ce ba 6a d1 2c 3a
       0.007463224 0.002280674 -0.0015747455 0.00065924844
0001f0 56 03 91 bb c8 58 37 3b 76 18 ad ba 68 ab 8d b9
       -0.0044254465 0.0027976502 -0.0013206142 -0.00027021323
000200 a0 d1 73 bc 60 eb 90 3d ea 65 88 3d d2 73 64 3c
       -0.014881521 0.07076144 0.066600636 0.013943629
000210 e2 59 83 bc f9 68 04 3d 2b 25 66 3e c0 e5 c4 b9
       -0.01603407 0.032326672 0.22475116 -0.0003755521
000220 9f 35 ae bc 17 22 f8 3b 9e 05 1d 3b ab f7 04 bc
       -0.021265803 0.007572423 0.0023959647 -0.008115689
000230 4f 31 ae 3c 90 e4 32 3d 61 6e 1d bb 3c 54 97 3b
       0.021263747 0.043675005 -0.002402209 0.004618196
000240 fe cc b1 3a ce b4 9a 3b 02 76 ec bc 7e f3 64 bc
       0.0013565121 0.0047212606 -0.028864864 -0.013974069
000250 0c f1 cd 3c 47 0f 67 bd 38 57 b8 3c 35 53 b9 3c
       0.025139354 -0.056411054 0.022502527 0.022622684
000260 ef 87 71 bb 4e a0 fb 3b 93 26 1f 3c 2d f5 9d 3c
       -0.0036854704 0.007679022 0.009713787 0.019281948
000270 8a fd 51 3c 86 fb 4b 3b 38 04 81 b8 4e 3d f6 ba
       0.012816796 0.0031125261 -6.151985e-05 -0.0018786581
000280 a4 6b 66 bc a4 cc 21 3c 41 f7 07 3a 5b 57 3d bc
       -0.014063749 0.00987545 0.0005186685 -0.011556472
000290 7a 91 68 3c a0 84 7b 3a fa 3b 96 3c 80 36 36 39
       0.014194841 0.0009594653 0.018339146 0.00017377175
0002a0 94 26 7c 3e 76 5d 1e 3c 3f 60 93 bb 4e 1d f3 b8
       0.24624091 0.0096658375 -0.0044975574 -0.000115926014
0002b0 53 33 88 bb 71 a8 8b 3b 6b f3 87 3c ed d5 a0 3c
       -0.004156509 0.004262023 0.016595563 0.019633258
0002c0 be c1 92 3c 6e 5d 54 3c e5 bb 33 bc c7 6d b6 3b
       0.01791465 0.0129617285 -0.0109700905 0.0055672857
0002d0 88 47 db 3b 79 17 ac 3c f0 d2 72 bb aa 0a 49 bc
       0.006691877 0.021007286 -0.0037051998 -0.012270609
0002e0 ca 3f 0f 3a fd a5 0d bc a0 88 84 bc a7 e2 2e 3c
       0.00054645224 -0.008645532 -0.01617843 0.010674155
0002f0 2c 6e a1 bc d0 6a 68 bd b5 55 92 3b 7e 99 08 3c
       -0.019705854 -0.05674249 0.0044657835 0.008337377
000300 01 2e bf bc 6a 14 35 3e 00 03 74 3c a4 0d c3 3b
       -0.023337366 0.17683569 0.014893293 0.005952554
000310 c6 a5 da bb 0d 85 44 3c f8 c3 41 ba 8b 45 f9 bc
       -0.0066725938 0.011994612 -0.00073915673 -0.030428668
000320 e2 fd 91 be bc 12 0c 3c 45 9b 1e bb a1 dc d0 bc
       -0.2851401 0.0085493885 -0.0024201435 -0.025495829
000330 5b 70 7f bb 40 00 91 be 98 33 53 bc f7 6c 02 3c
       -0.0038976881 -0.28320503 -0.012890719 0.00796055
000340 b0 16 e6 3c f0 08 b1 3c 7e e7 1a 3c 78 7e 85 3b
       0.02808699 0.021610707 0.009454606 0.004073914
000350 44 8b c0 bb 4a 60 67 3d 1a ec 8d 3c 4d 48 e9 3a
       -0.0058759768 0.056488313 0.017324496 0.0017798037
000360 d6 a3 26 3e 01 4b 9b 3c d6 70 00 bc ce f1 4d 3b
       0.16273436 0.018956663 -0.007839402 0.0031424644
000370 67 f7 e8 3b 6d 36 36 bc 0f 1e 00 bd 94 72 a5 3c
       0.007109571 -0.011121375 -0.031278666 0.020196237
000380 6f 0e 84 3c 80 6e dd 3b ea 21 ba bc b9 a6 1a bc
       0.016120164 0.0067575574 -0.02272125 -0.009439164
000390 09 3a 15 bc 9e fa 5d bd 10 0d ef 3a ad d8 3b 3e
       -0.009108075 -0.054194085 0.0018238146 0.18344374
0003a0 3b a9 9e 3c 64 06 f8 3b 4a 8c 09 3c 91 5c fd 3b
       0.019367805 0.007569121 0.008395264 0.007731982
0003b0 df 0d 00 bc 32 06 04 3b ba e4 3c 3c dc 83 d8 bb
       -0.007815807 0.0020145294 0.011529142 -0.0066075157
0003c0 82 3e 08 3c d6 f3 11 3e fc dd c9 3c ba 06 e9 3a
       0.008315684 0.14253172 0.024641983 0.0017778494
0003d0 dc 3d 94 3c 7c a0 1f bd 79 ee 7e bc 2c 4a 01 bc
       0.018095903 -0.03897141 -0.015559786 -0.007891219
0003e0 57 cf 97 3c 64 8a 83 bc 5b 6c 62 3b 67 35 15 3d
       0.018531485 -0.0160572 0.0034549448 0.03642788
0003f0 20 25 b0 ba b6 e2 14 3c 7a db c5 3d d0 45 21 bc
       -0.0013438798 0.009087255 0.096610025 -0.009843305

lstm.bias_ih f4 [512]
000000 3a 7c 31 be ac 5e 18 be 31 a7 a5 3d 53 70 24 be
       -0.17332545 -0.14879864 0.0808853 -0.16058473
000010 76 7d 13 be fc ab 16 be de cb d9 3e ff b2 4d be
       -0.14403328 -0.14714044 0.4253835 -0.20087813
000020 28 b6 5d be 09 2d 07 be 59 8d 40 be c9 61 2d be
       -0.21651518 -0.13200773 -0.1880392 -0.16931833
000030 87 17 0c be 5f 39 ef bd 03 43 2c be 36 1f 34 be
       -0.1368085 -0.116808645 -0.16822438 -0.17590031
000040 5c 82 31 be e5 f4 36 be 3e 34 10 be cf a5 20 be
       -0.17334884 -0.17866857 -0.14082429 -0.15688251
000050 1d 8a 28 be 19 01 85 be 8e d1 3c be eb 83 18 be
       -0.16458936 -0.259774 -0.18439314 -0.14894073
000060 fb 07 2b be 1c 05 24 be 39 57 81 be ae c3 28 be
       -0.16702263 -0.16017574 -0.25261858 -0.16480896
000070 0b e2 1e be 64 c5 2f be 56 c6 37 be 50 81 44 be
       -0.15515916 -0.17165142 -0.17946753 -0.19189954
000080 a6 ff 14 be 45 48 7b be 0a 70 1a be 70 90 11 be
       -0.14550647 -0.24539287 -0.15081802 -0.14215255
000090 61 38 26 be 7d 0e 4d be 85 b2 c7 bd 81 e5 32 be
       -0.16232444 -0.20025058 -0.09750847 -0.17470361
0000a0 b7 84 ab 3e 6e 3a 0f be a6 22 36 be 17 27 50 be
       0.3349969 -0.13987133 -0.17786655 -0.20327412
0000b0 b1 b2 3c be 71 fc 2b be c7 30 32 be bc 4d 5d be
       -0.1842754 -0.16795518 -0.1740142 -0.21611685
0000c0 2d 73 28 be 00 87 a1 bd 74 44 27 be 90 66 33 be
       -0.16450186 -0.07887077 -0.16334707 -0.17519593
0000d0 e6 4f 35 be d0 d4 26 be c8 4a 4e be 01 82 1e be
       -0.1770626 -0.16292119 -0.20145714 -0.1547928
0000e0 a5 67 26 be b1 a2 39 be 12 a2 26 be b1 58 2f be
       -0.16250475 -0.18128468 -0.16272762 -0.17123677
0000f0 e7 2f 81 be 72 dc 15 be 75 af 29 be cc 34 6a be
       -0.2523186 -0.14634874 -0.16570838 -0.22871703
000100 77 fb 8d be d9 14 cc 3e 26 4d 5a be bb 90 6f be
       -0.27730915 0.39859655 -0.21318492 -0.23395054
000110 0a 0b 2c be c1 0a 31 be a6 1a 36 be fe 74 09 be
       -0.16801086 -0.17289259 -0.17783603 -0.13423535
000120 41 f8 e4 3c 6d 10 35 be 21 ad 2c be 08 96 05 be
       0.027950408 -0.17682047 -0.16862918 -0.13045514
000130 2a c4 2b be 0f 39 02 3f 04 29 29 be 39 c5 ad be
       -0.1677405 0.50868315 -0.16519552 -0.3393953
000140 fc 70 19 be 9f e0 15 be 1e 58 15 be df b1 39 be
       -0.14984506 -0.14636467 -0.14584395 -0.18134259
000150 89 2f 16 be a2 36 e3 bd e4 37 94 bd b4 05 51 be
       -0.1466657 -0.11094405 -0.07237223 -0.20412332
000160 bb 0b ed 3e b6 cc 5f be 89 b0 48 be 8d 54 6e be
       0.46298012 -0.21855435 -0.19598593 -0.23274441
000170 da cd 70 be 7e a2 34 be aa 6c 11 bd 17 77 32 be
       -0.23516026 -0.17640111 -0.03550402 -0.17428242
000180 a7 e8 43 be 60 d5 27 be 17 1c f5 bd 5e 07 20 be
       -0.19131719 -0.1638999 -0.11968248 -0.1562781
000190 09 07 1b be 8c 8f ca bd 6e b7 3b be 6d 84 a7 3e
       -0.15139402 -0.09890661 -0.18331692 0.3271822
0001a0 94 fe 26 be c5 a8 47 be 73 87 42 be ae 7c 22 be
       -0.16308051 -0.19497974 -0.18996982 -0.15867874
0001b0 08 e6 1c be 12 6d 3c be 7b c8 2e be d8 25 59 be
       -0.15322125 -0.18400982 -0.17068665 -0.21205842
0001c0 23 87 27 be c1 ee ec 3e 78 01 8b be ea f5 46 be
       -0.16360144 0.46275905 -0.27149558 -0.19429746
0001d0 8b 65 25 be f7 15 2a be a1 77 1f be bb 2e 6b be
       -0.16152017 -0.16609941 -0.15572979 -0.22967045
0001e0 6d 81 35 be ac 12 20 be 06 12 3a be 62 44 ff bd
       -0.17725153 -0.15632123 -0.18170938 -0.12464215
0001f0 58 0c 3b be d7 ed 24 be 14 22 14 be b3 8d 34 be
       -0.18266428 -0.16106354 -0.14466125 -0.17632179
000200 46 b3 c6 bd ec 73 87 be 4c 39 3f 3d ef 80 50 be
       -0.097021624 -0.2645563 0.046685502 -0.20361684
000210 3e 05 82 be 2f f7 b1 bd 17 97 91 3d 88 f1 d5 bd
       -0.25394624 -0.08689725 0.07108896 -0.10446459
000220 cf 8c fc bd 25 6f 3f be ac 0b bd bd 4c 5a e5 bd
       -0.123315446 -0.18694742 -0.09230742 -0.111988634
000230 e7 c9 a6 bd e3 04 92 be 89 41 b4 bd ca 1a c0 bd
       -0.081439786 -0.28519353 -0.08801562 -0.093801096
000240 80 64 c8 bd 71 7b dd bd 20 50 a6 bd 3b ec c7 bd
       -0.09784794 -0.1081456 -0.081207514 -0.09761854
000250 15 c6 ae bd 77 c6 56 be 3d e6 9b be d1 46 cb bd
       -0.08533875 -0.20974146 -0.30449095 -0.099256165
000260 2b 03 c8 bd 02 dd c8 bd 44 d8 59 be c2 15 90 bd
       -0.09766229 -0.09807779 -0.21273905 -0.070354
000270 0c c1 cd bd 40 46 ce bd d8 49 c7 bd b0 7b d0 bd
       -0.100465864 -0.10071993 -0.097308815 -0.101798415
000280 fd e0 bd bd b6 7f 40 be 06 2b a9 bd 99 dc b4 bd
       -0.09271429 -0.18798718 -0.08260159 -0.08831138
000290 f0 fd be bd ed 7b d9 bd 82 40 bb bd 27 62 c8 bd
       -0.093257785 -0.1061934 -0.09143163 -0.09784346
0002a0 fa 1b 2b 3e 3c 64 a9 bd e6 05 c2 bd 1a 6f d5 bd
       0.16709891 -0.08271071 -0.09473781 -0.104215816
0002b0 86 ed ca bd 89 6f b1 bd 59 14 cd bd 26 bb f2 bd
       -0.09908585 -0.08663852 -0.10013647 -0.11852102
0002c0 d6 c2 4c be 30 52 56 be 1b f7 e3 bd 10 4d dc bd
       -0.19996199 -0.2092979 -0.11131116 -0.10756886
0002d0 88 1d db bd 18 cb bd bd 86 48 f7 bd 8b ac 9c bd
       -0.10698992 -0.09267253 -0.120743796 -0.076500975
0002e0 b6 15 be bd 80 65 d1 bd ad df d0 bd 8d c2 ba bd
       -0.09281485 -0.10224438 -0.10198913 -0.09119139
0002f0 fb 8b 7c be ef 10 9a be 62 2f df bd 04 7f 60 be
       -0.24662773 -0.30091044 -0.108977094 -0.21923453
000300 e5 87 4e be 28 66 47 3c db 6f e7 bd e0 d3 18 be
       -0.20169027 0.012170352 -0.113006316 -0.14924574
000310 5d d0 0a be 58 ed d9 bd 09 04 d2 bd a4 31 ad bd
       -0.13556047 -0.10640973 -0.10254676 -0.08456734
000320 e1 5e 2c be 64 ed af bd 08 99 c6 bd 1e b7 ab bd
       -0.16833068 -0.085902005 -0.09697157 -0.08384536
000330 e8 b6 aa bd b5 1d 7a 3e c2 b6 da bd 81 9c 5c be
       -0.08335668 0.24425395 -0.106793895 -0.21544077
000340 c9 00 6b bd c8 d5 bc bd 11 b3 8e bd 6a f2 41 be
       -0.057373796 -0.09220463 -0.06967748 -0.1894013
000350 78 c1 95 bd 38 e6 0f be fb 38 30 be b7 bb 02 be
       -0.07312292 -0.14052665 -0.17209236 -0.1276692
000360 aa 62 75 3e 97 e4 12 be a5 c4 09 be 5c f2 05 be
       0.23963419 -0.14345013 -0.1345392 -0.13080734
000370 3d 5c 25 be 0e 81 e7 bd 8f b3 73 be f6 1c a1 bd
       -0.16148467 -0.11303912 -0.23798965 -0.07866852
000380 de ab d4 bd 66 94 c6 bd 91 16 5c be 84 76 c2 bd
       -0.103843436 -0.096962735 -0.21492983 -0.09495261
000390 79 81 29 be 2e 26 5d be 03 4c d5 bd a8 ab 9c bd
       -0.16553296 -0.21596596 -0.10414889 -0.07649928
0003a0 17 a6 ba bd 0c 79 e5 bd 70 6f da bd 7a c0 11 be
       -0.091137104 -0.112047285 -0.10665786 -0.1423358
0003b0 df 40 a8 bd 52 df cc bd 1b 0d c9 bd c8 8e 0d be
       -0.08215498 -0.100035325 -0.09816953 -0.13823998
0003c0 96 7e c0 bd b9 65 30 3e 37 5b 9d be e9 82 d3 bd
       -0.09399144 0.17226304 -0.30733654 -0.103277035
0003d0 3a a5 3c be 87 8b 3f be fa a0 cb bd 5b 10 06 be
       -0.18422404 -0.18705569 -0.09942813 -0.13092177
0003e0 6d fe c2 bd 3d 1a c0 bd a3 c3 ce bd 0e d6 8a be
       -0.09521184 -0.093800046 -0.100959085 -0.27116436
0003f0 1c 8c cd bd df a7 bb bd e3 54 7d be bd 75 e0 bd
       -0.10036489 -0.09162878 -0.24739413 -0.10959957

lstm.bias_hh f4 [512]
000000 cd 88 31 be bb 16 54 be 9d d7 5c bc b6 22 f5 bd
       -0.17337342 -0.20711796 -0.013479141 -0.11969511
000010 c2 1d 3f be da ae 16 be 54 32 e7 3e 9d 38 4d be
       -0.18663695 -0.14715138 0.45155585 -0.20041128
000020 38 0a 60 be 0b ba 33 be a6 8e 40 be 80 6f 2d be
       -0.21878898 -0.17551439 -0.18804416 -0.16937065
000030 a6 11 0c be 1d 42 8a bd 11 2f 2c be 46 20 34 be
       -0.13678607 -0.06750891 -0.1681483 -0.17590436
000040 15 61 31 be 43 73 36 be f0 8c 10 be 3c b7 20 be
       -0.1732219 -0.17817406 -0.14116263 -0.15694898
000050 7a 8b 28 be 40 62 7c be a6 a8 bd bd be 7d 18 be
       -0.16459456 -0.24646854 -0.09260683 -0.14891717
000060 ac 2d 2b be 0e fe 23 be 35 57 5b be 7d c2 28 be
       -0.16716641 -0.16014883 -0.21419986 -0.16480441
000070 51 a7 1e be 2a ae 2f be 15 ba 37 be 5e 62 44 be
       -0.15493514 -0.17156282 -0.17942078 -0.19178149
000080 6e 35 17 be 85 ad 83 be d8 6f 1a be 07 ab 11 be
       -0.14766476 -0.25718322 -0.15081728 -0.14225398
000090 23 31 26 be ca 19 4e be 31 06 ce bd 37 f6 32 be
       -0.16229682 -0.20127025 -0.10059775 -0.17476736
0000a0 6d e2 aa 3e 68 3f 0f be 5d 19 36 be 6a 7d 50 be
       0.33375874 -0.13989031 -0.17783113 -0.20360342
0000b0 f2 be 3c be b2 fd 2b be a6 91 32 be b6 c3 5d be
       -0.18432215 -0.16795996 -0.17438373 -0.21656689
0000c0 65 26 17 be ff f7 91 bd 22 d6 26 be cc 02 33 be
       -0.1476074 -0.071273796 -0.16292623 -0.17481536
0000d0 c9 23 35 be f3 fc 26 be 12 5d 4d be a4 12 1f be
       -0.17689432 -0.1630743 -0.20055035 -0.15534455
0000e0 a2 6e 26 be 83 fd 37 be 95 85 26 be 2e 42 2f be
       -0.1625314 -0.17967801 -0.16261895 -0.1711509
0000f0 f9 92 8d be ba ae 71 be c0 9c 29 be f0 81 87 be
       -0.27651194 -0.23601809 -0.16563702 -0.26466322
000100 d4 a9 98 be 09 6c c8 3e 2f d6 58 be f6 e4 69 be
       -0.2981707 0.39144924 -0.21175455 -0.22841248
000110 eb 58 2f be 31 cf 33 be 56 69 36 be 9e 78 09 be
       -0.17123763 -0.17559506 -0.1781362 -0.13424918
000120 33 4c 52 3d 45 12 35 be f5 6e 2c be 5f 6b 05 be
       0.0513422 -0.1768275 -0.16839202 -0.1302924
000130 4f c1 2b be 5b 4a f7 3e 99 59 27 be 56 ac a4 be
       -0.1677296 0.48298916 -0.16342773 -0.32162732
000140 25 6b 19 be c6 d1 15 be dc 4f 15 be 0d 95 25 be
       -0.14982279 -0.14630803 -0.14581245 -0.1617014
000150 52 2d 16 be ef 50 a2 bd 06 c4 1c bd 48 62 5e be
       -0.14665726 -0.07925593 -0.03827288 -0.21717179
000160 1b 86 ee 3e fe 51 4f be f8 34 54 be d6 ab 70 be
       0.4658669 -0.20246121 -0.20723331 -0.2350305
000170 15 62 5f be 4f 77 34 be 2c 8c 94 bd 6b 19 31 be
       -0.21814759 -0.17623638 -0.07253298 -0.17294852
000180 07 a4 43 be 6d e9 27 be 39 d2 08 be a6 fb 1f be
       -0.1910554 -0.16397639 -0.13361444 -0.1562334
000190 15 4c 17 be 43 2b 14 be af 63 3a be 0a 3c 82 3e
       -0.14775117 -0.14469628 -0.18202089 0.2543643
0001a0 08 bf 29 be 29 b9 48 be b4 c4 42 be 35 f3 db bd
       -0.16576779 -0.19601883 -0.19020349 -0.107397474
0001b0 5c e5 1c be 4e bc 3b be d5 3e 2f be 1d 68 5f be
       -0.15321869 -0.18333551 -0.17113812 -0.2181706
0001c0 e1 9c 27 be c9 88 e7 3e e9 22 a6 be dc 72 45 be
       -0.16368438 0.45221546 -0.3244851 -0.19282097
0001d0 17 a6 33 be f8 5d 60 be 46 7a 1f be c7 cf 69 be
       -0.17543827 -0.21910846 -0.15573987 -0.22833167
0001e0 7e 85 35 be 0d 13 20 be 06 1c 3a be 66 de 14 be
       -0.17726704 -0.15632267 -0.18174753 -0.14537963
0001f0 c2 51 39 be d9 77 25 be f0 23 df bd a3 44 34 be
       -0.18097594 -0.16159 -0.108955264 -0.17604308
000200 2c b2 c6 bd bb b6 94 be 96 3e 1a 3d 28 83 5a be
       -0.09701952 -0.29045662 0.037657343 -0.21339095
000210 1e 1c 8c be 29 f7 b1 bd 5f c4 0e 3e 31 ec d5 bd
       -0.27365202 -0.0868972 0.13942097 -0.104454406
000220 23 3f fc bd 01 d8 39 be ae 0b bd bd 21 5a e5 bd
       -0.1231673 -0.18148805 -0.09230743 -0.11198831
000230 e3 c9 a6 bd 37 53 93 be 7e 41 b4 bd ca 1a c0 bd
       -0.081439756 -0.28774425 -0.08801554 -0.093801096
000240 7a 64 c8 bd 8d 7b dd bd 4f 54 a6 bd 30 ec c7 bd
       -0.097847894 -0.10814581 -0.08121549 -0.09761846
000250 15 c6 ae bd f6 28 3d be e5 25 aa be ce 46 cb bd
       -0.08533875 -0.18472657 -0.33232036 -0.09925614
000260 27 03 c8 bd fb dc c8 bd f1 34 54 be c2 15 90 bd
       -0.09766226 -0.09807774 -0.2072332 -0.070354
000270 de c1 cd bd e3 45 ce bd ec 49 c7 bd 21 7c d0 bd
       -0.10046743 -0.100719236 -0.09730896 -0.10179926
000280 59 f7 bd bd 85 ab 40 be 06 2b a9 bd 88 dc b4 bd
       -0.092756934 -0.1881543 -0.08260159 -0.088311255
000290 e9 fd be bd eb ab d9 bd 4f 97 ac bd 26 62 c8 bd
       -0.09325773 -0.10628494 -0.08427297 -0.09784345
0002a0 28 d8 19 3e 3f 64 a9 bd e6 05 c2 bd d6 6d d5 bd
       0.15023863 -0.082710735 -0.09473781 -0.1042134
0002b0 d4 ed ca bd 8e 6f b1 bd 51 14 cd bd 3c 33 f3 bd
       -0.09908643 -0.086638555 -0.10013641 -0.118750066
0002c0 1b 73 4e be 7f 90 46 be c2 f8 e3 bd 70 4d dc bd
       -0.20161097 -0.19391058 -0.11131431 -0.107569575
0002d0 bf 1d db bd 27 cb bd bd 71 45 f7 bd e2 ac 9c bd
       -0.10699033 -0.09267264 -0.12073792 -0.07650162
0002e0 bd 15 be bd 55 66 d1 bd 97 e1 d0 bd 83 c2 ba bd
       -0.0928149 -0.102245964 -0.10199278 -0.091191314
0002f0 e6 51 67 be 2d 05 a4 be 60 2f df bd 1f 05 66 be
       -0.22589836 -0.320352 -0.10897708 -0.22462891
000300 83 ec 46 be 5c 2a b0 ba 9c 78 e7 bd 50 b9 18 be
       -0.1942616 -0.0013440358 -0.11302301 -0.14914441
000310 8d 06 0a be 4e 03 da bd fc 03 d2 bd b0 31 ad bd
       -0.13479061 -0.106451616 -0.10254666 -0.08456743
000320 cb 6a cd bd 64 ed af bd f7 98 c6 bd 6f b7 ab bd
       -0.10030135 -0.085902005 -0.096971445 -0.083845966
000330 e8 b6 aa bd a8 59 84 3e 2b 9b da bd ce 62 72 be
       -0.08335668 0.25849652 -0.10674127 -0.23670503
000340 64 00 6b bd c8 d5 bc bd 0e b3 8e bd 5a 38 43 be
       -0.05737342 -0.09220463 -0.06967746 -0.19064465
000350 78 c1 95 bd 10 6f 13 be d8 f2 2b be c5 10 03 be
       -0.07312292 -0.14397836 -0.16791856 -0.12799366
000360 9c 43 83 3e ca 56 16 be 90 14 0b be f5 d8 05 be
       0.2563752 -0.14681545 -0.13582063 -0.13071044
000370 97 d6 27 be 0c 81 e7 bd 04 ad 97 be d0 ef a0 bd
       -0.16390453 -0.113039106 -0.29624188 -0.078582406
000380 f8 ad d4 bd 68 94 c6 bd 15 6a 55 be b1 76 c2 bd
       -0.103847444 -0.09696275 -0.20841248 -0.09495295
000390 d9 b8 2f be 22 0d 84 be 1f 3f d5 bd 46 86 85 3d
       -0.17160358 -0.2579127 -0.1041243 0.06519751
0003a0 18 93 ba bd 28 7e e5 bd 77 74 da bd 14 c8 05 be
       -0.09110087 -0.11205703 -0.10666745 -0.13064605
0003b0 df 40 a8 bd 68 df cc bd 99 0c c9 bd 62 fc 0e be
       -0.08215498 -0.10003549 -0.09816856 -0.13963464
0003c0 be 7e c0 bd 0e 31 11 3e a8 d1 9e be f4 8e d3 bd
       -0.09399174 0.14178869 -0.3101933 -0.103300005
0003d0 3f 42 3c be 4a 41 2d be ee a0 cb bd 9f 2f 06 be
       -0.18384646 -0.16919437 -0.09942804 -0.13104104
0003e0 6d fe c2 bd 3d 1a c0 bd a3 c3 ce bd 98 a4 8c be
       -0.09521184 -0.093800046 -0.100959085 -0.27469325
0003f0 8e 94 cd bd da a4 bb bd cc 96 a5 be 5e 59 e0 bd
       -0.100381 -0.09162302 -0.3234161 -0.109545454

output_w.weight f4 [5, 128]
000000 dc 1f bd 3b 8d f7 0b bd 56 3c 41 bd e0 07 64 3d
       0.00577162 -0.03417163 -0.04717668 0.055671573
000010 35 28 c5 bd c9 0c 9e 3b 3c fb 6a 3d 18 f4 14 bb
       -0.096268095 0.0048233015 0.057368502 -0.00227285
000020 c1 1e 27 3c e0 fe 1c 3d 3c 02 88 bb f0 82 18 bc
       0.010200203 0.038329005 -0.004150657 -0.009308562
000030 83 96 a0 3b e7 d8 f2 3d 30 e7 ce b9 be 33 94 ba
       0.004900755 0.11857777 -0.0003946363 -0.0011306924
000040 d1 6a 58 bb 25 8e 42 3b 8a 55 28 bc 20 e4 37 3b
       -0.0033022652 0.0029686776 -0.0102743 0.0028059557
000050 78 fa ce b9 95 a7 69 bc 3e a2 04 3e ce fd 2a 3c
       -0.00039477996 -0.014261146 0.12952515 0.010436488
000060 01 21 31 3b 46 58 a3 3b c8 87 be ba 57 f6 d6 bb
       0.0027027729 0.0049848882 -0.0014536316 -0.0065601277
000070 59 55 82 3b a0 98 fd b8 aa 5e 58 bb 08 47 c8 bb
       0.0039774594 -0.00012092409 -0.0033015409 -0.006111983
000080 67 0e 42 bc d2 eb 90 3c 98 7f 3e bb d6 b5 06 3b
       -0.011844254 0.017690573 -0.002906775 0.002055516
000090 c5 de 35 bb 04 10 7a bc 4f 09 a1 3d a4 34 91 3b
       -0.002775119 -0.0152626075 0.078631036 0.004431324
0000a0 76 6c 0a 3e 00 3f 55 bb a4 fe 1f 3b 2b 48 12 3c
       0.13517937 -0.0032538772 0.0024413252 0.008928339
0000b0 0b e9 62 3b 20 a8 0c 39 a3 e4 98 3c 30 8c b4 bb
       0.0034623768 0.00013414072 0.01866371 -0.0055098757
0000c0 d8 f5 37 3a 12 59 9d bd bf 5f 8c bc db fa a3 3b
       0.00070175296 -0.076830044 -0.017135499 0.0050042695
0000d0 b9 24 17 3c 8c 5c 00 bb 06 30 3b bb 39 e9 72 3b
       0.009225064 -0.0019586412 -0.002856256 0.003706528
0000e0 ed b3 46 3b 28 81 a2 bb 9e fa 3d bc 2d df 87 bb
       0.0030319646 -0.0049592443 -0.011595396 -0.0041464777
0000f0 9f d4 30 bd d7 6b 9a 3d 3a 5e 64 3c 88 f2 5f 3d
       -0.04317152 0.075401 0.013938481 0.054674655
000100 89 e6 25 bd 18 06 e3 3c cd 66 16 bc 0b 17 a1 3a
       -0.04050306 0.027712867 -0.009179783 0.0012290193
000110 64 e8 f3 3b 7c d5 81 3b 8b 23 4a bc a3 e0 19 bc
       0.0074434746 0.003962217 -0.012337576 -0.0093919365
000120 72 a8 5b 3e 35 2a 9e bb 3e 25 52 3b cf 17 95 bb
       0.21450976 -0.004826809 0.0032065655 -0.0045499573
000130 14 f7 23 bb e8 06 7b 3a 1c 0e 16 bc a5 44 df bd
       -0.0025019096 0.0009575919 -0.009158637 -0.10901765
000140 d0 42 30 38 1b 39 7c 3b ee 48 bb bb dd 54 ab 3c
       4.2023894e-05 0.0038486186 -0.005715481 0.02091449
000150 2a fa 08 ba 9e 7c 4b 3c fd 62 81 3d 3b 94 9d 3c
       -0.00052252656 0.012419848 0.06317709 0.01923572
000160 66 e2 09 3d 6e 45 7a 3c a8 f8 41 bc b7 35 84 bb
       0.033663176 0.015275342 -0.011839069 -0.0040347236
000170 e1 5e 5b 3c 72 04 e8 ba ef 4f 68 3e 3e bf a3 ba
       0.01338932 -0.001770152 0.22686742 -0.0012492908
000180 d3 17 02 bc 3d 2d 50 3c 05 3f 1c 3c 43 b4 da bb
       -0.00794025 0.012706098 0.009536509 -0.006674321
000190 62 a3 0c bc cc 1a 41 bd 3f f6 46 3b 8c a6 0e be
       -0.008583875 -0.047144696 0.0030359176 -0.1393072
0001a0 9c 6b 88 3b bc 29 b8 3b 40 7c 28 3b 20 c1 60 bc
       0.0041632187 0.0056202095 0.0025708824 -0.01371792
0001b0 c8 ae 60 ba 18 54 92 ba 40 a6 be 37 4a e5 b9 bc
       -0.00085709663 -0.0011163978 2.2727181e-05 -0.022692341
0001c0 f9 81 8d bb 85 d7 f7 3b eb 97 cf 3d 38 35 87 3a
       -0.0043184725 0.0075635337 0.10136398 0.0010315543
0001d0 39 75 55 3c 62 dc ec bb f4 46 a7 3a 62 89 94 3a
       0.013028436 -0.00722842 0.0012762235 0.0011332447
0001e0 fc 1c ca bb 16 06 88 bb d7 a3 d6 3a 85 58 85 3c
       -0.006168006 -0.004151116 0.0016375732 0.016277561
0001f0 00 fb 1b bb c4 a2 1d bc fb 6c 00 bd 66 d2 c8 bb
       -0.002380073 -0.009621326 -0.031353932 -0.006128597
000200 77 de ee ba 5f a2 8d 3d 55 c0 77 3d 09 f7 be 3c
       -0.0018224259 0.069157355 0.060486156 0.023311155
000210 ae ae 16 3c 53 ad 91 bc cf bf e0 bc 35 d5 30 3b
       0.00919692 -0.017782843 -0.027435211 0.002698255
000220 06 a6 51 bc 6b ba a9 3c 3b ed 42 3c 29 04 8e 3c
       -0.012795931 0.020718774 0.01189738 0.017335968
000230 48 b4 78 bc b7 10 3b 3d 1b 2a d2 bb 60 71 2a 3c
       -0.015179701 0.045670237 -0.006413711 0.010403007
000240 d3 7e 6e bc 71 b1 f1 bb 97 5c 90 3b 9d 6c 89 3c
       -0.014556604 -0.007375889 0.004405569 0.016775424
000250 4d b9 81 bc f9 f6 f1 bc fe af dd 3c 04 5f 83 bc
       -0.015835429 -0.029536711 0.027061459 -0.016036518
000260 aa 90 41 3c b7 e5 06 bc 9a 31 4d 3d 06 92 6a b9
       0.011814276 -0.008233479 0.05009613 -0.00022370377
000270 33 32 24 bc 7d 11 39 3b c4 ec 95 39 c6 4f 4d b9
       -0.010021734 0.0028239184 0.000285959 -0.00019580041
000280 f5 27 92 3a 05 a8 a3 3c f4 81 1a bc c7 82 b2 3c
       0.0011150824 0.019977579 -0.009430397 0.021790875
000290 94 f9 1f 3b 14 62 2e 3c 49 a1 00 bd 1a c6 12 3c
       0.0024410235 0.010643501 -0.031403814 0.008958364
0002a0 0d 73 87 3e c0 91 b7 38 29 18 84 bc 01 7b 2e 3c
       0.26454964 8.753268e-05 -0.016124802 0.010649444
0002b0 86 a9 42 bb 0f 24 07 3c c3 0c 2e bc d8 5b ae 3b
       -0.0029703095 0.008248343 -0.01062316 0.005321007
0002c0 eb e9 89 3c 8b 5e 20 3c 1e c3 c2 3c 1e f0 7d bb
       0.016835174 0.009788166 0.02377468 -0.0038747857
0002d0 3f 70 2e bc 90 72 2e bc cc 3c dd bb 4b ca 8c 3b
       -0.010646879 -0.010647431 -0.0067516323 0.004296576
0002e0 6e 4b 12 3c 54 59 0b 3c 08 06 dd 3c c8 97 86 3c
       0.008929117 0.008505184 0.026980415 0.016429797
0002f0 b3 f0 7a ba 70 9e 60 be db 82 66 bc d2 89 8a bb
       -0.000957261 -0.21935439 -0.014069284 -0.0042278552
000300 2d 62 d1 bd a9 3b 18 3d 2a ee 0e ba 26 9d a4 3c
       -0.10223804 0.03716627 -0.00054523593 0.020094465
000310 33 a7 a5 3c 68 7b 35 bb e7 ae 31 3b df db cc 3b
       0.020221328 -0.0027691964 0.0027112307 0.0062517966
000320 7e f7 30 be 25 8c 39 3b 82 d7 5c 3c cc af 88 3c
       -0.17281911 0.0028312292 0.013479115 0.016685389
000330 88 7e 65 bb a0 fd 8e 3d 73 e6 f8 3c 0a a5 3c 3e
       -0.0035018045 0.06981969 0.030383324 0.18422332
000340 27 24 13 3c 75 6e 90 bc 21 a1 97 3a cf 2c fe bc
       0.008980787 -0.017630795 0.0011568406 -0.031027226
000350 49 e3 66 3b f1 33 5c 3c 61 16 f3 bb 55 4d 10 bd
       0.0035230687 0.013440118 -0.0074184393 -0.03523
000360 aa 3a b4 bd b0 c7 52 3c d6 19 13 3c 4a b6 6c bc
       -0.08800252 0.012864992 0.008978328 -0.014447758
000370 f6 27 c1 3c 2d 7b 72 3c cf b3 a9 bd c5 db c9 3c
       0.023578625 0.014799875 -0.08286249 0.024640927
000380 b0 c2 43 b7 09 ea be ba 48 00 f3 bd 13 80 19 3b
       -1.1668235e-05 -0.0014565598 -0.11865288 0.0023422285
000390 76 d8 82 3c 95 27 90 bd c7 cc 3c bc 5b 0c 0c be
       0.015972357 -0.070388 -0.011523432 -0.13676588
0003a0 76 46 5b bb ca 18 a9 bc d9 ea e7 bb 14 49 62 3d
       -0.0033458746 -0.020641703 -0.0070775566 0.055245474
0003b0 e2 6e 13 3b b8 05 24 3b b1 01 ba bc d4 c8 c0 3c
       0.0022496511 0.0025027823 -0.022705885 0.023533262
0003c0 68 2c 8e b7 67 f8 4d bd d6 13 31 3e 80 65 27 bc
       -1.6948397e-05 -0.050285723 0.17292723 -0.010217071
0003d0 24 95 bd 3b f5 bc 3f bd ab ab 77 3c 55 54 b2 3c
       0.005785601 -0.046811063 0.015116612 0.021768728
0003e0 20 3e 1f bc 2c 8d 25 3c b5 51 22 bc 6c bc eb 3c
       -0.009719402 0.010104459 -0.009907176 0.02877637
0003f0 bd 9e de 3c b5 6d 14 bb f7 fc 6f 3e d4 5c 8d 3c
       0.027175302 -0.0022648398 0.23436342 0.017256178

output_w.bias f4 [5]
000000 75 c0 91 bd ac 8b 87 3d fa ca 35 bf d8 0b 16 bf
       -0.071167864 0.06618437 -0.7101284 -0.5861182
000010 65 8d 98 bc
       -0.01862211

square_avg f4 [64]
000000 5d fd 51 3b 2c 2a 7e 3a 52 98 bb 3a 0b cd 02 3d
       0.0032041885 0.0009695615 0.0014312363 0.031933825
000010 e1 0f 3d 3b d7 c4 2d 30 b0 f4 23 3c 75 00 20 3b
       0.0028848576 6.321676e-10 0.0100070685 0.0024414335
000020 8d 19 b3 3b 4b 5f 54 3d e2 0f 07 38 be 68 a4 3c
       0.0054656924 0.05184869 3.22013e-05 0.020069476
000030 1b 37 e3 39 c3 17 cd 3c 5a 18 12 3d 6d 3c 63 3c
       0.0004333787 0.025035745 0.035667755 0.013869387
000040 1f 61 c7 34 45 b9 07 30 94 5c 42 3b c8 c0 f9 3c
       3.7137303e-07 4.9376e-10 0.0029657232 0.030487433
000050 7f 4c 6b 3c 47 cd ef 37 a6 fe cf 3b 7b 08 19 3c
       0.0143615 2.858661e-05 0.006347495 0.009340401
000060 f4 f2 b1 3b c9 33 c4 3c 74 ac 81 3a 4e 0c 91 3c
       0.0054305736 0.023950474 0.0009893314 0.017706063
000070 88 99 25 34 0e c0 da 3c 67 26 4f 3c fc 74 39 3c
       1.5422677e-07 0.026702907 0.012643433 0.011319395
000080 98 25 1d 30 e7 d8 05 3c 36 26 c2 35 ec 5a d1 3b
       5.716969e-10 0.008169389 1.4465247e-06 0.0063890126
000090 a3 9d a6 3b 55 4e 22 33 c3 1c ca 3c 75 a3 d3 3a
       0.0050847097 3.7789807e-08 0.024671918 0.0016146736
0000a0 6a 3a 07 3d 8e 1f e3 3c cc 23 a3 3c 73 31 97 33
       0.033014692 0.027725007 0.01991453 7.04048e-08
0000b0 e1 ca 32 31 38 07 71 37 72 3a 65 3a ab 6a c6 39
       2.6017732e-09 1.43664e-05 0.0008744366 0.00037844977
0000c0 38 cf 57 3c f1 79 cb 34 00 32 fc 3c f6 56 76 3d
       0.013171963 3.790042e-07 0.03078556 0.060141526
0000d0 87 52 40 3b 01 a1 be 3a 30 1c f7 33 5a be 59 3b
       0.0029346065 0.0014543833 1.1506961e-07 0.003322503
0000e0 d1 e2 6a 3b 80 64 ea 3c 5d 94 6a 2f 6a 48 85 3c
       0.003584076 0.028612375 2.1334885e-10 0.016269881
0000f0 2a a2 e3 3b 6d 2e 96 3c c9 31 48 2f 2a c0 c0 3b
       0.0069468217 0.018332684 1.8207581e-10 0.0058822827

square_avg f4 [5]
000000 62 1a 13 41 b9 55 bc 40 49 2d 0b 3e 4f fc 4c 3e
       9.193941 5.885464 0.13591494 0.20018123
000010 8a 82 c2 3c
       0.023743887
