S-LSTM/Goal+Socail_Array_PyTorch/social_lstm/save/0/social_model_epoch_21.pth (torch, 815071 bytes, 22 tensors)

embedding_b f4 [64]
00000000: add9 42bd 309a b43e 0c8e 8a3e ca5c ac3c
00000010: 4787 fdbb 410a cc3a b09e b7bd 2121 b0bb
00000020: 5eea 17be e74d 93bb 8da6 16bc 5264 23bc
00000030: 4aaf 45be b041 f3bd 6164 33bd d5a3 f6bc
00000040: 1872 05bd d228 b0bb ec3a 1cbe d25e 3ebd
00000050: 2216 c93c 4687 3abd f044 aebb 1f6d 0cbb
00000060: 1822 87bd cfc3 92bb c0b4 5c3d 9235 abbb
00000070: e36f b23e fc8b 24be 1198 18bd 7f05 77bd
00000080: 2930 0dbe fcfd c63c 7a7d d03d ab2a ddbc
00000090: bfe5 3e3e d8ee af3d 74e7 b93c 6bc3 29be
000000a0: c9da a0bc 019c 93bb 01c7 92bb cff0 49bd
000000b0: d336 d1b9 868c 7bbc 3d77 b23a a6f6 813d
000000c0: cc8d debd 4f8e 1f3e 1027 32bc 3c2e 893d
000000d0: 8b43 5dbb 7331 74bb ed05 903d da37 90bd
000000e0: d381 88bc 4a28 783c b75a 0cb9 c9fd 963d
000000f0: 43fe 153e d999 563d 5bbf 06be 20d8 69bb
-0.047570873 0.35273886 0.27061498 0.021040339 -0.0077370736 0.0015567021 -0.08965814 -0.005375043
-0.14835498 -0.0044953707 -0.009194982 -0.009972649 -0.19305149 -0.11877763 -0.0437969 -0.030107418
-0.03257951 -0.00537596 -0.15256852 -0.046477146 0.024546687 -0.045539163 -0.0053182766 -0.0021427346
-0.065983 -0.0044789086 0.053883314 -0.005224892 0.34850988 -0.16069025 -0.037254397 -0.060307976
-0.13787903 0.024291031 0.10180183 -0.026997885 0.18642329 0.08590478 0.022693373 -0.16578452
-0.019635575 -0.004504681 -0.0044792895 -0.04930192 -0.00039904434 -0.015353328 0.0013615858 0.063458726
-0.10866889 0.1558163 -0.010873571 0.06698272 -0.0033762183 -0.003726092 0.0703238 -0.07041903
-0.016663468 0.015146324 -0.00013385234 0.073726244 0.14647774 0.052392814 -0.13158934 -0.00356818

output_b f4 [5]
00000000: 6545 e53c ff8f 52bb 9446 6cbf 3e03 62bf
00000010: e0e2 97bd
0.027987191 -0.0032129285 -0.92295194 -0.882862 -0.0741632

embedding_w.weight f4 [64, 4]
00000000: 4d7e 733e 9e15 47bf 5698 11be c25d c43e
00000010: 082f 9f3d 8daf b43f 3865 65bd d4b0 bb3e
00000020: 25b1 92bf 151c 30bf 1d28 1ebe bc51 c7bd
00000030: 22c1 2abc 2f74 623c 65d4 98bc e00d 763d
00000040: 42bf 97bb 6b4e 90b7 5023 023c 6a76 00b8
00000050: c569 463f cd48 08bf d4c3 ff3e 2f37 f03e
00000060: efcb 0f3f 10e4 523f 7f17 093e 4dff 7f3c
00000070: 9c5a 6ebc 49cf cabb 87c2 353c 5aec 1f3b
00000080: 5d6c 933c 6d4c a73e 7ac5 1c3d 0427 ac3e
00000090: 7cd1 37b8 025f 38b4 1cf5 1fb6 b090 56bb
000000a0: f264 1abf 572d df3e ceb4 cd3e 428a d2be
000000b0: 31e2 05bf 923d 863c 5b79 eebe 84a7 263d
000000c0: 75d6 183f 7546 adbe 7532 25bf 1891 d23e
000000d0: 6e51 863f 3d96 ad3e fcb2 1c3e c395 313e
000000e0: 0f31 283e 77d4 3f3d 5be8 ac3e b77b eb3d
000000f0: c3ac 833d 8005 903d b7bd 913d a443 dabd
00000100: 5c2c b43d ea36 df3d 97db 7e3e 76b9 e3bd
00000110: 7dae 5aba b613 8fba 39fa 173b 20d5 57ba
00000120: b371 bb3e c9db 08bf 25cd ba3e d6ba e4be
00000130: 5244 893f 714f b33e 4294 8fbf e954 9dbe
00000140: 9dc1 1b3d 96ef 40ba 1e39 613d dac4 68bd
00000150: bd92 bf3d b1ff 863d 7656 e53e 263e 77bd
00000160: 474f 133a cc1e 41b9 a4a2 d5ba 76f3 f0b7
00000170: 6ac3 9b36 ecc2 47b8 2779 8dae 8e58 b737
00000180: dca2 abbe c74b 8b3e 7813 313f 9598 103e
00000190: 5e07 e1bb d765 c138 df90 8a3c 7050 973b
000001a0: d2fa 51bf dbd0 94bf 9691 4f3e 66ba 7ebf
000001b0: 6a4f e03b 285b 76bb b711 d33a 24f5 e7ba
000001c0: 9d94 acbf 6858 49bf 86f1 4dbc 2c51 ec3d
000001d0: cc03 20bf aa70 11bf 7ac6 233f 1cae 1d3f
000001e0: acc6 8b3e d4f5 753e d709 9f3e db72 80be
000001f0: d178 35bf b130 743e 84d6 5ebc 2c50 733e
00000200: f945 39bf 252e 293f fc1a fabd 6f0a aabe
00000210: 6d3f 7d3e 7f4a 943f 7875 90bd 4c19 dabe
00000220: d341 be3f 91a6 57be 2f58 3b3e 3513 f13e
00000230: 3f89 5d3f d591 293f dd4f 153e 5f0f 6e3e
00000240: a4fb 33bf d71d a73f 5f28 41bc 9f4c 1e3f
00000250: da97 a63f 1699 80bf 3c6a 713e aabd c9be
00000260: c3d4 a13c c031 f2bc c907 1c3d ba1f 3dbd
00000270: 99d5 4abe f815 943e 2405 853e fd32 36bd
00000280: 7648 be3f db7f f33e 9a25 1e3e 40ba 873e
00000290: 835b 1b3c 0a6e 0ebc bb67 79bc 6030 be3a
000002a0: 1f97 febb 45ee 1b3b ea8c 733c e135 203b
000002b0: cb7d 14be cb39 553e c858 ba3e 0bfb 8c3d
000002c0: 60cc 3c0c a036 1a35 28f5 7809 abf6 7f36
000002d0: 5a32 84bc 6bb2 0ebc 5794 7dbc b992 de3c
000002e0: fe2c e03d 1560 853f 1987 853c 5b9c 53bd
000002f0: 5237 aebe 6899 2c3f d8f6 df3d 3857 44bd
00000300: 1846 1d3e 31dc ca3e ae32 01bd 0e10 203e
00000310: ea68 2cbf 2bcf 9fbf cfde 27be db05 1e3e
00000320: 7fad 93ba 3c33 b73a 61f9 94ba e714 a8bc
00000330: c610 a3bf 7ab4 803f 4773 60be 8497 343e
00000340: cbbf b7ba e33c 02ba 805d b3bb 65fe 80b8
00000350: 5f10 1431 640f 4434 fb96 5c3a 692d 052f
00000360: c121 b33e c8cd 81bf 23f2 e2bd b634 46bc
00000370: 7500 483f 24b8 efbe 3bf9 aa3d b75c 9dbe
00000380: 9d63 283f abc9 1dbf a97d 76be 8bc4 773e
00000390: cc29 2d3c 9896 eebb 53b6 a2bb b034 4e3d
000003a0: 768b a434 181c a4ae da0f 6bac 6495 dcab
000003b0: 1f2c 8abf 0c6b 35bf c834 f8bb 6891 ff3c
000003c0: d10d 0fbf 6d79 88bf cd46 6abe 6229 0b3d
000003d0: 2c0e 793f 2612 873f 1262 a43d 51b4 3bbc
000003e0: b323 0dbf 769d 9a3e 1810 863d 8e59 113e
000003f0: f587 93bf 87e8 313f 9f53 7bbe 17ae d8bd
0.23778649 -0.7776736 -0.14218268 0.38352782 0.077726424 1.4116074 -0.056004733 0.36658347
-1.146031 -0.6879285 -0.1544499 -0.097323865 -0.010422023 0.013821646 -0.018655965 0.060071826
-0.004630954 -1.7202654e-05 0.0079429895 -3.062786e-05 0.7750514 -0.53236085 0.49954093 0.46917102
0.5617055 0.82379246 0.1338787 0.015624833 -0.01454797 -0.006189261 0.011093742 0.002440235
0.017996008 0.32675496 0.038274266 0.33623517 -4.3825698e-05 -1.7170899e-07 -2.3835519e-06 -0.003274005
-0.6031028 0.4358928 0.40177006 -0.41121107 -0.52298266 0.01638678 -0.46576962 0.0406871
0.59702235 -0.33842817 -0.64530116 0.41126323 1.04936 0.33903685 0.15302652 0.17342286
0.16424964 0.04683348 0.33771023 0.11498206 0.06429436 0.07032299 0.07116263 -0.10657433
0.087975234 0.10899146 0.24888454 -0.11119358 -0.0008342041 -0.0010915908 0.0023189916 -0.0008233357
0.36610183 -0.53460366 0.36484638 -0.44673795 1.0723975 0.35021546 -1.121712 -0.30728844
0.03802644 -0.000735992 0.05498611 -0.056828357 0.0935416 0.06591738 0.44792527 -0.060362004
0.0005619418 -0.00018417387 -0.0016299081 -2.87236e-05 4.642109e-06 -4.7626832e-05 -6.4334586e-11 2.1856536e-05
-0.3352269 0.2720625 0.6917033 0.14120705 -0.0068673333 9.221926e-05 0.016914783 0.004617743
-0.82023346 -1.1626238 0.2027038 -0.9950317 0.0068454044 -0.0037590954 0.0016103302 -0.0017696959
-1.3482853 -0.7865052 -0.012569791 0.1153892 -0.62505794 -0.56812537 0.63974726 0.61593795
0.27300012 0.24019557 0.31062195 -0.25087628 -0.70887476 0.238467 -0.013600949 0.23761052
-0.72372395 0.66086036 -0.12212178 -0.33211085 0.24731226 1.1585234 -0.070536554 -0.42597425
1.4863838 -0.21059634 0.18295358 0.47084966 0.86537546 0.6623815 0.14581247 0.23248051
-0.7030585 1.3055981 -0.01178941 0.61835665 1.3015091 -1.0046718 0.23575681 -0.39402515
0.019754773 -0.029564738 0.038093362 -0.046172835 -0.19808044 0.2892301 0.25980484 -0.04448222
1.4865863 0.47558483 0.15444031 0.26509285 0.009482267 -0.008693228 -0.015222485 0.0014510266
-0.00776948 0.0023793143 0.0148651395 0.0024446177 -0.14501111 0.20822828 0.3639586 0.0688382
1.4544495e-31 5.744896e-07 2.9967186e-33 3.814154e-06 -0.01613729 -0.00870953 -0.0154772615 0.027169572
0.109460816 1.0419947 0.016299771 -0.051662784 -0.3402658 0.6742158 0.109357536 -0.04793474
0.1535877 0.39621118 -0.031542473 0.15631124 -0.67347586 -1.2485098 -0.16393588 0.15431921
-0.0011266916 0.0013977061 -0.0011365825 -0.02051778 -1.2739494 1.0055077 -0.21918975 0.17635924
-0.0014018951 -0.0004968179 -0.0054737926 -6.1509e-05 2.154614e-09 1.8259522e-07 0.0008414832 1.2112412e-10
0.3498669 -1.0140924 -0.1108134 -0.012097528 0.781257 -0.46820176 0.08348318 -0.30734798
0.65777 -0.61635846 -0.24071373 0.24196069 0.010569047 -0.007281136 -0.0049655824 0.050343215
3.0648852e-07 -7.462847e-11 -3.3404308e-12 -1.5673404e-12 -1.0794715 -0.70866466 -0.0075746514 0.031197265
-0.5588046 -1.0662056 -0.22878571 0.033975013 0.9728725 1.0552413 0.08026518 -0.011456565
-0.551326 0.30198258 0.065460384 0.14194319 -1.1525866 0.69495434 -0.24543618 -0.1058008

embedding_w.bias f4 [64]
00000000: a0a1 af3d 07ad 203e 709e 0e3e ca5c ac3c
00000010: 4787 fdbb 792a d1bc bb49 07bd 2121 b0bb
00000020: 949d 133e e74d 93bb a08d 8ebd 2abd 183d
00000030: 474f 0f3e 4192 3b3e 6164 33bd d5a3 f6bc
00000040: 1872 05bd d228 b0bb e0a4 eb3d 42f7 913a
00000050: 2216 c93c 4687 3abd f044 aebb 1f6d 0cbb
00000060: 1822 87bd cfc3 92bb 81cf b7bd 9235 abbb
00000070: 9ada 1d3e 0c8c ec3d 1198 18bd e80b 6cbd
00000080: 13d8 283e 7484 243d 41c5 c63e b149 8b3e
00000090: eb2a 44bb a7b1 5dbd 74e7 b93c 4db0 b83d
000000a0: f960 853d 019c 93bb 01c7 92bb cff0 49bd
000000b0: d336 d1b9 868c 7bbc 7019 d2bc 7b24 cebd
000000c0: 620b 8e3d 8e31 123e 1027 32bc e404 f0bd
000000d0: 8b43 5dbb 7331 74bb 260e 663d da37 90bd
000000e0: 728b 023c 4a28 783c b75a 0cb9 c6f4 b33e
000000f0: 2a96 f4bd 1e51 32be a0f8 e43d 8ea2 74be
0.085757494 0.15691005 0.13927627 0.021040339 -0.0077370736 -0.025532948 -0.0330293 -0.005375043
0.1441558 -0.0044953707 -0.069606066 0.037289776 0.13995086 0.1831751 -0.0437969 -0.030107418
-0.03257951 -0.00537596 0.11506057 0.0011136311 0.024546687 -0.045539163 -0.0053182766 -0.0021427346
-0.065983 -0.0044789086 -0.08975125 -0.005224892 0.15415421 0.11550149 -0.037254397 -0.057628542
0.16488676 0.04016538 0.38822368 0.2720466 -0.0029932808 -0.0541245 0.022693373 0.09018002
0.06512637 -0.004504681 -0.0044792895 -0.04930192 -0.00039904434 -0.015353328 -0.025646895 -0.10065552
0.06935765 0.14276716 -0.010873571 -0.11719683 -0.0033762183 -0.003726092 0.056165837 -0.07041903
0.007967817 0.015146324 -0.00013385234 0.35147685 -0.11942704 -0.17413756 0.11180234 -0.23890135

embedding_t_w.weight f4 [1, 8]
00000000: 6027 7a3f d1f6 acbe 8ec6 333e 2cb3 08bf
00000010: 8a51 333d 08e7 1abc 589b 033f 13dc 2abf
0.9771633 -0.33782056 0.17556211 -0.53398395 0.043778934 -0.009454496 0.5140891 -0.66742057

lstm.weight_ih f4 [512, 65]
00000000: 5c1e 21bb 590e acbc 73b2 5bbb eb78 13bb
00000010: c83c 9dba 83be babc 0b01 bebb 1836 63a6
00000020: b7d6 d1bc 4275 39b6 1ced 5e3c 65b1 ca3b
00000030: 3741 16bc b9bb cdbc 7a9b 39ba fae3 0c3b
00000040: dcb2 183c 92eb e631 b56c 2abc 72c8 05bc
00000050: d649 d33b 3580 013c 8613 40b9 f742 0380
00000060: 926f e8bb 3ee6 15ab 9efc a8bc 052f a3af
00000070: 5621 a3bc 9d9a 58bc 00c2 3f3c e897 55bb
00000080: 611b bc3c b802 ad3c d4be 96bd df75 1abd
00000090: 9e80 fbbc 5a06 32bd d461 713b a297 3bba
000000a0: 266a 15bd f140 67b9 e485 16b2 e6b1 d2ba
000000b0: 067a 00b1 a026 99b5 3ed8 163c ef28 f83b
000000c0: a39a 17bc e885 febb a0e4 14b9 1e72 b6bb
000000d0: e505 1dae 72fe 4136 fa4f 85bc 3809 b938
000000e0: a0a3 9239 ae45 633b 0c3e a0ba 6ba4 6cbc
000000f0: 6ee2 22bc 469b 67bc b2dc 3ebc baf6 3b3c
00000100: 70bf 11bd 04a4 293c d7d7 34bd 950c 71bc
00000110: 60dc a039 89d4 2237 ec58 883b 9cd1 64b9
00000120: bab0 343a e009 2dbc 895a 99b6 5d4b 1b3c
00000130: 90f7 2b3c 67d3 dfbb a987 32bc 228a 623a
00000140: a089 6b38 2e5a d43a a657 df38 0a31 5f3b
00000150: a855 80bb 00a0 7638 be3a 303b 3ccb 153b
00000160: ea5a 1e39 2016 9a3a c89e baba 7eca dc3b
00000170: c52c 9cb7 5b23 f7bc 6ffd 523c 5cec 983b
00000180: 1d29 513b 8ab0 273c a4d3 c13b ea08 6fbd
00000190: 3168 e9bc 2516 bebc e9a6 aabc b27a f9ba
000001a0: 1a59 4d3a 6d25 8fbc 5a93 62ba 5cbc 39a5
000001b0: e081 d338 7c30 b6ba e3ac eeb8 1bdd 71bb
000001c0: 2f2e bdba 023a dfbb 393a a6bb a090 0280
000001d0: 2515 64bb deea 0037 24c7 8b36 2abb f9bb
000001e0: d527 323b a3cf 763b 5098 96b9 72ab 14b7
000001f0: efaa bbbc b86a 6f3c 15db 7dbb 4309 fa3a
00000200: 5bb0 873b afc2 3abc 66c7 7f3c ad24 1dbd
00000210: 284d 5dbc de99 29bb 2fbe 0b3a 3385 203a
00000220: 262d c9bb 9d0a baaf 42ae febb 299f c33a
00000230: 57c2 533c 5f8b 6c3b 065f a8bb d347 69bc
00000240: a628 0d3b 742b 4a3a fbf6 073c 2038 b9b9
00000250: 73c9 de3b 2336 913b 1a71 a33b a4b3 283c
00000260: 8f3a 91b6 32c1 ddb6 7391 8d3b d0e1 13a8
00000270: a902 e53a ca5b cb38 e78a d5bc 9cd0 733c
00000280: fc69 5f3c 66d2 a33b 1ea9 3a3c ac2b a83c
00000290: 810b 34bd fdd7 babc e898 96bc 6108 31bc
000002a0: 6579 123b bb35 92ba bead c9bc 902b 32ba
000002b0: e0ae 9c0c cd51 443a ea0e 8fb4 44c5 03ba
000002c0: a4a7 593c 7f7e 293c fe89 c6bb 2a6f 29bc
000002d0: 5e37 9eb6 5433 5cbb 4076 b538 78fc 1d39
000002e0: 65bc 31bb 75d6 0b3c fc50 eb3b be55 d9ba
000002f0: b06f 37b6 7033 a4bc affe 9a3b 245f abbb
00000300: 1c2e 343b ed23 7d3b 52e4 41bc bd1b a23c
00000310: 3a79 ebbc 5b05 61bc cecd ad3a 21e5 1ab7
00000320: 3d26 283b bb30 90bb bbb0 af3a f70f 89bb
00000330: 84a8 8db7 dcac ad3b bbea b63c d9c0 a7ba
00000340: 9f4e 8fbc 0a56 173a 2a50 a1ba 4c64 bcbb
00000350: 734f 66b9 3b55 cabb 7745 b53b 3264 8dbb
00000360: 5768 aebb c33a 1eb4 d2b0 3539 b553 c7bb
00000370: f6a6 afba c309 143c 9fb7 6cb7 2729 f8bc
00000380: ef67 8d3c 4bf4 1fbc 2572 393c 1771 a63c
00000390: 873d 533c d409 33bd c81c b0bc c0da 0ebc
000003a0: f030 85bc b2c8 a1bb ce4a a8bb 1c4e adbc
000003b0: 9ac8 9f39 c4d2 5bba 7649 7abb e98f a2ba
000003c0: 4e95 acb9 093f be3b 5173 a03b dd8e 7abb
000003d0: a0f8 1b39 1e07 cd34 6a7d 003c af80 ca36
000003e0: 6859 e0b5 4c20 da3b ec63 f0bb 3bc7 833b
000003f0: 40c8 12bb 7880 a13a 7f15 b6bc ba72 bd3c
-0.0024584746 -0.021002935 -0.0033523112 -0.0022502493 -0.0011996264 -0.022795921 -0.005798464 -7.8829757e-16
-0.02561508 -2.7635401e-06 0.013606336 0.006185698 -0.009170822 -0.025113927 -0.0007080358 0.002149819
0.009319987 6.7206622e-09 -0.010401894 -0.008165466 0.006448011 0.007904102 -0.0001831782 -2.99529e-40
-0.0070933783 -5.325496e-13 -0.02062827 -2.9682937e-10 -0.019913357 -0.013220456 0.011703968 -0.0032591764
0.022962274 0.02111946 -0.07360616 -0.037710067 -0.030700978 -0.04346309 0.0036831992 -0.0007156079
-0.036478184 -0.00022054069 -8.761592e-09 -0.0016074746 -1.8695814e-09 -1.141063e-06 0.00920683 0.007573239
-0.009253177 -0.0077674277 -0.0001419955 -0.005567803 -3.5702902e-11 2.8907348e-06 -0.016273487 8.8232046e-05
0.000279692 0.0034678984 -0.0012225523 -0.014443497 -0.00994168 -0.014136141 -0.011649298 0.011472398
-0.03558296 0.010354046 -0.044151153 -0.014712472 0.0003068177 9.705437e-06 0.004160991 -0.0002182186
0.00068927894 -0.010561436 -4.570295e-06 0.009478417 0.010496035 -0.006830621 -0.010896602 0.0008641799
5.615654e-05 0.0016201192 0.000106497944 0.003405633 -0.003916461 5.8799982e-05 0.0026890482 0.0022856733
0.00015101922 0.0011755861 -0.0014237994 0.006738006 -1.8617497e-05 -0.030168226 0.012877806 0.004666848
0.0031915375 0.010234961 0.005915122 -0.05835811 -0.028492065 -0.023203919 -0.020831542 -0.0019033758
0.00078334066 -0.0174739 -0.0008643173 -1.6110011e-16 0.00010085455 -0.0013899948 -0.00011380927 -0.003690547
-0.001443332 -0.006812335 -0.0050728587 -2.35553e-40 -0.0034802642 7.684079e-06 4.165706e-06 -0.0076211886
0.0027184386 0.0037660382 -0.0002872371 -8.861405e-06 -0.022908656 0.014612846 -0.003873532 0.0019076247
0.0041408963 -0.011398955 0.015611505 -0.038365055 -0.013507165 -0.0025879066 0.0005330769 0.0006123364
-0.0061394153 -3.3840744e-10 -0.007772238 0.0014924753 0.012924752 0.0036093814 -0.005138281 -0.014238316
0.002153912 0.00077121635 0.008298631 -0.00035327766 0.006798917 0.0044315024 0.004987848 0.010296736
-4.328154e-06 -6.608804e-06 0.0043203174 -8.2091045e-15 0.0017472106 9.696891e-05 -0.02606721 0.014881279
0.0136361085 0.0049994467 0.01139286 0.020528637 -0.043956283 -0.02280807 -0.018383458 -0.01080522
0.0022350189 -0.0011154929 -0.02461898 -0.00067966525 2.4140855e-31 0.0007488996 -2.6646677e-07 -0.0005026648
0.013284598 0.0103451 -0.0060589304 -0.010341445 -4.7152125e-06 -0.003359993 8.652778e-05 0.00015066739
-0.0027120349 0.008535017 0.007181285 -0.0016581339 -2.7334136e-06 -0.020044059 0.0047300677 -0.0052298475
0.0027493304 0.003862615 -0.011834221 0.019788617 -0.028744329 -0.013734187 0.0013260187 -9.2324635e-06
0.0025657557 -0.0044003404 0.001340411 -0.0041828114 -1.6886981e-05 0.0053001475 0.022328725 -0.0012798562
-0.017493544 0.00057730137 -0.0012307216 -0.005749261 -0.00021964106 -0.006174711 0.0055319625 -0.0043149227
-0.005322497 -1.4736274e-07 0.00017327376 -0.0060829767 -0.0013401199 0.0090355305 -1.4109449e-05 -0.03029306
0.017261473 -0.009762834 0.011318718 0.020317597 0.012893087 -0.043710545 -0.021498099 -0.008719146
-0.016258687 -0.004937255 -0.0051358705 -0.02115541 0.00030476303 -0.00083855935 -0.0038190759 -0.0012402508
-0.00032917637 0.005805854 0.0048965593 -0.0038232126 0.00014874572 3.8189404e-07 0.007842401 6.03505e-06
-1.6715321e-06 0.006656682 -0.0073361304 0.004021553 -0.002239719 0.0012321612 -0.022227047 0.023125995

lstm.weight_hh f4 [512, 128]
00000000: 287c acbb cc64 deba 0a9b 55bb a031 c039
00000010: 5c62 8ebc ed9f 43bc 1dac 01bc 1432 c1ba
00000020: d6aa f4ba 88ca fc39 9563 8a3c ad48 bcbc
00000030: 50af 3a3d de97 82bc 3a64 97bb e8f1 733b
00000040: a4ff 8239 4a45 ecbb c073 ce3b 1cfc 793c
00000050: 949c 2bbb 5c65 b8bb 3d8f 043c da6b 113b
00000060: a35e 363b c092 333c d8e9 bdba 7f11 a6bb
00000070: 4542 5b3b f588 80bb f13b 003d 0834 c53b
00000080: 9ce7 1abb 363e a43a f6fa c93a e02d abba
00000090: 400a 1639 b63c 0abc 5671 e0ba ec00 eb3a
000000a0: d9af b43b 10a6 22b9 4c37 ecbc 4e47 15bc
000000b0: 566c 8d3b 40ed 3839 20b3 00bc 00a9 f437
000000c0: 7a30 65bc 2fdf 06bc 05f6 d9ba d24a 4dbb
000000d0: 1314 5a3b 7905 873a 820d 36bc 0926 99ba
000000e0: 4716 84bb db6b 83bb e0e9 4bbb 6ac5 96bc
000000f0: 7345 c43b 7972 bdbc 367d df3b 4d7c 49bb
00000100: 54df 8fbb 005d d9b8 2fff 903b 8446 d63a
00000110: c0c3 10ba 7e9f fb3b bd92 86ba 0bc9 4bbc
00000120: f3ec 783b c2ea b63a d470 7d3b bc94 153a
00000130: 2776 883b 06df 7d3b f7ee 103d 4856 c039
00000140: ae21 19bb 4c8d e33b 56b0 903c e683 b33b
00000150: 7cd2 903b b47f bbbc 5734 efbb 1c8e 75ba
00000160: e809 e03b 3318 9fbb 5280 98bb 70f9 2339
00000170: 2e0d c6bb 4787 913b 9321 363c 9806 d939
00000180: 1e5a 9cbb 9cee 993b 3635 8c3a 9ebd 46ba
00000190: eadf 6fbb 4101 ecbb a069 6eba e0c8 01bb
000001a0: 9531 a83b 907f c8b9 b577 c0bb 4642 c13c
000001b0: 4964 53bb be54 0d3c 01fd 613b 7006 bebb
000001c0: e6d4 d5bb 751d b3bb f0f5 9a3b 43c7 303b
000001d0: c84e cb3b 7539 9e3b e6f2 d7bb 0fc7 f3bb
000001e0: 4804 e139 9058 e0bb 0cb9 9fba dcb1 cbba
000001f0: ca94 d53a 0029 a6ba 96f5 913b 304c 9f3b
00000200: 14aa 1b3a 9c18 abbb ed2c 8abb e4c0 153b
00000210: 264e ad3b df1a 6fbb 80bc a9ba 0025 eabb
00000220: 4cc6 55bb a40a a33a a5c6 343c 19bc 60bc
00000230: 5c4b c2ba 7211 74bb c296 6abb 592a 6f3b
00000240: 7051 6d3b b0a9 91bb 4410 e3ba 492c 1ebc
00000250: b6c9 8d39 50fc 09b9 7333 e03b 72df 4dba
00000260: fe5c 91bb c11b 4e3c 609f 0a39 7725 19bc
00000270: fca4 8e3b f08f 0b38 c12c 2d3b d4b3 26b9
00000280: c45b 643b 54fe 19ba ca3b 4a3c 832d 033b
00000290: 4938 f1bb 9db7 6bbb 71cb 3dbc e84f c73b
000002a0: 05ba 043c da6f 9d3a 4682 8bbc df22 d0bc
000002b0: 9c61 18ba 1198 20bb 64da 84b9 e3e0 793b
000002c0: 2804 84bc 4835 0bbb 9ed0 4dbb 5fef a1bb
000002d0: f4b2 d03a d54e b73a 8c06 c3bb c53b f63a
000002e0: 2013 f838 e6e7 4abb 30b6 123a 2269 d5bc
000002f0: 46df 873a 0519 793b 5863 b83a bb3f 133b
00000300: 6068 973b 2fcd 94bb a33f 033b 8172 9abb
00000310: 280c 1f3a f052 673b c0b9 a7b9 da50 6bbb
00000320: 00c7 1f3b 1da4 163b fe04 173b a3bd 6cba
00000330: b0ff 92b9 e00d 803b a5f4 cd3c aa92 193b
00000340: 291a b8bc fe2e e43a 1351 da3b bcf9 aeba
00000350: 2505 c1ba 9cc4 8abc 4043 06bb 09c7 50bb
00000360: 6055 c13b d5f9 1cbb 5207 cfbb 1676 1e3b
00000370: 8071 c43b 5316 4e3a 6026 ccba 1c73 5aba
00000380: 0452 a5bb 2b82 0f3b 6e7f 4fbb 7c03 7aba
00000390: 986c 163a 1cb7 bcba ce46 a4bb 4899 e9bb
000003a0: 04bd 17bb 8815 3bba 1707 99bb 7b4d 683c
000003b0: 8e57 1f3c 19d1 3f3b 76a5 003b 02b9 c839
000003c0: b6c5 89bc 9ad2 9abb f081 a339 505e 49ba
000003d0: e9b5 b13b cd04 b63b 7aaa 84bb 1671 9d3a
000003e0: e9a5 7e3b cc17 d8ba 2158 003b 0c14 4dba
000003f0: 3c24 a2bb ae06 bc3a 1419 123a 3bf7 613b
-0.005263824 -0.0016967296 -0.0032593631 0.00036658067 -0.017380886 -0.011939985 -0.00791457 -0.0014739656
-0.0018666636 0.00048216083 0.016893188 -0.022983873 0.045577347 -0.015941557 -0.0046201022 0.0037223045
0.00024986 -0.0072104083 0.0063004196 0.015257861 -0.0026185857 -0.0056273174 0.008090791 0.0022189529
0.0027827404 0.010960281 -0.0014489247 -0.0050680037 0.0033456248 -0.0039225766 0.031307165 0.0060181655
-0.0023636585 0.0012530747 0.0015409875 -0.0013059936 0.00014308933 -0.008437326 -0.001712362 0.0017929352
0.0055141267 -0.00015511387 -0.028834961 -0.009111239 0.004315893 0.0001763599 -0.007855207 2.9165763e-05
-0.0139886085 -0.008231922 -0.0016629106 -0.0031325114 0.0033276125 0.0010301314 -0.011111619 -0.0011684309
-0.004030976 -0.00401066 -0.0031114742 -0.018404681 0.0059897243 -0.023125874 0.006820346 -0.0030744255
-0.0043906365 -0.00010364689 0.0044249515 0.001634792 -0.0005522333 0.007678925 -0.001026712 -0.012438069
0.003798303 0.0013955461 0.0038671987 0.0005706062 0.0041644755 0.0038737669 0.035384145 0.00036685378
-0.0023366022 0.006944334 0.017662209 0.00547837 0.004419623 -0.022888042 -0.0072999406 -0.0009367184
0.0068371184 -0.0048551797 -0.004653969 0.00015637814 -0.0060440516 0.004441175 0.011116403 0.00041394378
-0.004771485 0.004697634 0.001069701 -0.0007581356 -0.003660197 -0.007202298 -0.0009094719 -0.0019803569
0.0051328638 -0.00038242014 -0.005873645 0.023591172 -0.003225582 0.008626161 0.0034483077 -0.0057991073
-0.0065256236 -0.005466158 0.004729025 0.0026974238 0.00620446 0.0048286268 -0.006590235 -0.007439501
0.00042918534 -0.006846495 -0.0012185886 -0.0015540677 0.0016294953 -0.0012677014 0.004454325 0.004861377
0.00059381244 -0.0052214395 -0.0042167814 0.0022850567 0.005288857 -0.0036484522 -0.0012949854 -0.007145524
-0.0032619415 0.0012439084 0.011033689 -0.013716721 -0.0014823484 -0.0037241844 -0.0035795425 0.0036493747
0.003621187 -0.004445277 -0.0017323573 -0.009654113 0.00027043902 -0.00013159332 0.0068420707 -0.00078534253
-0.0044361344 0.012579859 0.00013220077 -0.009347311 0.0043531638 3.3274235e-05 0.002642438 -0.00015897985
0.0034844736 -0.00058743847 0.012343356 0.002001614 -0.007361446 -0.0035967596 -0.011584149 0.0060825236
0.008100991 0.0012011484 -0.017029893 -0.025407253 -0.0005812885 -0.00245047 -0.00025339716 0.0038128428
-0.016115263 -0.0021241475 -0.0031404863 -0.0049418653 0.0015922473 0.0013985286 -0.005951708 0.0018786123
0.00011829124 -0.0030960976 0.0005596606 -0.026051108 0.0010366223 0.0038009298 0.0014067693 0.0022468406
0.0046205968 -0.0045410614 0.0020026944 -0.004713357 0.000606718 0.0035297237 -0.00031991117 -0.0035906346
0.0024380088 0.0022986003 0.0023043747 -0.00090309436 -0.00028037792 0.003907904 0.02514107 0.0023433366
-0.022473412 0.0017409024 0.006662497 -0.0013349573 -0.0014726265 -0.016939454 -0.0020486861 -0.0031856915
0.00590007 -0.0023952622 -0.0063180113 0.0024179271 0.0059949756 0.0007861603 -0.0015575401 -0.00083331927
-0.0050451774 0.0021897655 -0.0031661647 -0.00095372624 0.00057382276 -0.0014397833 -0.0050133234 -0.0071288683
-0.0023153434 -0.00071366923 -0.0046700346 0.014178629 0.0097254645 0.002926892 0.0019629872 0.00038284814
-0.016817909 -0.0047248127 0.00031186594 -0.0007681595 0.0054232967 0.0055547715 -0.0040486427 0.0012011852
0.0038856214 -0.0016486584 0.001958378 -0.00078231166 -0.004948167 0.0014345252 0.0005573195 0.0034479636

lstm.bias_ih f4 [512]
00000000: 0e28 bfbd ca6f bfbd e6c2 96bd f6ab a5bd
00000010: d3ce 4abe a9b5 763e c51c 91bd f206 94bd
00000020: f5fb b1bd 3823 a5bd 8c9c b4bd e11b 64bb
00000030: 5f6d 623e 4d71 03be 3ea2 debd fb7d bcbd
00000040: 65e9 0abe 3d00 b2bd bf9a 9ebd 95d2 b7bd
00000050: 2292 dabd b7c9 b3bd 667a 91bd a5cf aebd
00000060: a91f a4bd 2b27 afbd 4ab2 b4bd a4d3 8ebd
00000070: 7450 dfbc d3d6 d1bd a45e 2dbc dce1 9bbd
00000080: c47d a0bd 2d34 b9bd a48a 32bd e1e0 acbd
00000090: af47 a6bd 0ea1 a2bd bf72 a53e e240 78bd
000000a0: afbe aabd 0557 adbd 23ab e63e 7fab d23c
000000b0: a60c b2bd 6867 bbbd 1be1 b4bd c19f c3bd
000000c0: 4782 32bd 52bb a5bd 4b87 b2bd 9137 adbd
000000d0: 8592 b3bd 068d d8bd 3692 87bd 4a29 abbd
000000e0: 4155 a6bd f83b fabd 9586 93bd 85b6 c7bd
000000f0: dc84 cabd 6d49 55bd 3853 c2bd 53e1 9fbd
00000100: 73b5 efbd c93e c4bd bf1f 8dbd 280a 91bd
00000110: 7b28 9abd 366b c3bd 985a cfbd 39b0 9cbd
00000120: 12a0 9bbd 7b00 c6bd 96f1 95bd a399 b5bd
00000130: 26fc aebd ffec a9bd 7393 0a3f 4feb 96bd
00000140: 3ba6 5fbe a486 94bd 770a abbd 3d0e bcbd
00000150: 667c a9bd f82e f73e dc46 aabd 70c3 10be
00000160: 62a9 88bd 3859 8ebd bb46 99bd 1224 d4bd
00000170: 0702 6dbe b04b b3bd 91ab 9bbd 5d2c bfbd
00000180: 1d01 a3bd 0b3c 98bd 4b63 a2bd 13a2 05be
00000190: 7b02 c2bd 13ee 98bd 85ed d9bd e5e7 9bbd
000001a0: c149 afbd 4dfd b9bd 3296 9bbd d44e de3e
000001b0: 7445 9dbd 8977 a6bd c64f 9dbd b52f b9bd
000001c0: f8f0 29be 10c5 babd 2733 d4bd f155 abbd
000001d0: 58a0 0dbd 146f b6bd a8b1 c7bd 9f76 a1bd
000001e0: b986 06be 59a2 a9bd e488 babd 87e8 aabd
000001f0: 4bb2 60bd 3239 b4bd 6f2a bdbd 8b65 a8bd
00000200: c951 afbd 5e6a 7fbd 2982 70bd 60ba 71bd
00000210: 235c 20bd 8cd8 bdbd 7755 78bd dea2 85bd
00000220: db2b 84bd c183 86bd 9b5d 90bd 8cfd 0ebe
00000230: a1bb b13c 94ea 8ebd d37f adbd e7c1 a5bd
00000240: 05c4 06bf 1b13 91bd 0806 9abd cba7 cebe
00000250: 076b a0bd 889f 81bd 718c 81bd 7911 8fbd
00000260: 973f 58bd dcf6 64be 0385 9ebd 63f3 3fbd
00000270: 6a67 03be 18a1 92bd 58b3 02bd 703d 67bd
00000280: 313d 6ebd 674f 9cbd b623 09be 6d1b 8ebd
00000290: c3e2 6fbd 7654 43bd dbc8 8bbd 4282 7ebd
000002a0: e9c6 84bd cba7 8dbd 243a 883e e408 f6bd
000002b0: ff19 7cbd eff1 8bbd acb9 81bd 9681 8bbd
000002c0: d2ba 28be 20b0 82bd d12d 9ebd 3f0d 8abd
000002d0: 910c 8dbd 30dd b1bd 48db 2bbd 08f1 84bd
000002e0: a0b6 99bd 0b09 9cbd a2e6 83bd 2f47 94be
000002f0: 03e4 86bd e04e 2cbe fbdd 8bbe 281f 76bd
00000300: f6ab 60be 0a8b 9cbd 6b2b 8dbd 5f88 8ebd
00000310: 78ef 8fbd 808a dbbd d662 adbd 1080 5dbd
00000320: e99f c3bd 19ab 9ebd 20cf 79bd 9cf0 a0bd
00000330: 9a89 99bd df19 a0bd 45d0 983e e385 7bbd
00000340: a578 acbe 32e6 97bd 8cfb 90bd 8721 91bd
00000350: 475d 9abd 2c52 8f3e e06f 8abd f3e6 dfbd
00000360: a7d9 8bbd 372c 92bd a5d2 85bd 7a05 c9bd
00000370: 30ae 8ebe 7d10 9dbd b1f2 54bd 0b16 9ebd
00000380: 4200 9dbd aec5 97bd 3b15 97bd c8f6 f9bd
00000390: df71 91bd 1746 6cbd 8944 8fbd 34c6 8dbd
000003a0: 5dbc 8bbd 66a1 9fbd 7264 7dbd b758 5f3e
000003b0: 42aa 46be 4729 84bd 2fd7 85bd 83d2 88bd
000003c0: 92c8 91be 1056 88bd 281b c4bd 8061 54bd
000003d0: 6b0f 04be d8b0 bbbd 4249 8cbd 0a0c 69bd
000003e0: def9 debd 3d14 83bd d83c 8ebd 3a54 c4bd
000003f0: 94e1 6cbe 540f b5bd 1afa a0bd 958d 90bd
-0.09333812 -0.09347494 -0.07361393 -0.080894396 -0.1980546 0.24092735 -0.070855655 -0.07227887
-0.08690635 -0.08063358 -0.088189214 -0.0034806656 0.22112034 -0.1283619 -0.10870789 -0.09203716
-0.13565595 -0.08691452 -0.07744359 -0.08975712 -0.10672404 -0.087787084 -0.07103424 -0.08535699
-0.08013851 -0.085523926 -0.088230684 -0.06973961 -0.027260043 -0.102460526 -0.010581646 -0.07611439
-0.07836488 -0.09043155 -0.04358925 -0.0844133 -0.08119141 -0.07940875 0.32314107 -0.060608752
-0.08337151 -0.08463863 0.45052442 0.025716541 -0.08693819 -0.091505826 -0.08831998 -0.09551955
-0.043581273 -0.08092369 -0.08717211 -0.08457864 -0.08768181 -0.10573773 -0.066196844 -0.08357485
-0.0812173 -0.122184694 -0.07203404 -0.0975161 -0.09888622 -0.052071977 -0.09488529 -0.07806649
-0.117045306 -0.09582288 -0.06890821 -0.07082015 -0.07527252 -0.09541933 -0.10124701 -0.07650799
-0.0759889 -0.096680604 -0.073214695 -0.088671945 -0.08544187 -0.082971565 0.5413124 -0.073691
-0.21840756 -0.07252243 -0.083516054 -0.09182403 -0.0827568 0.48278022 -0.083142966 -0.14137053
-0.06672932 -0.06950611 -0.07484194 -0.10358442 -0.23145305 -0.087546706 -0.07601083 -0.093346335
-0.07959197 -0.07433327 -0.07929095 -0.13050108 -0.09473129 -0.07467284 -0.106410064 -0.0761259
-0.08558989 -0.090815164 -0.07597007 0.43419516 -0.07679263 -0.08128268 -0.07681231 -0.090423025
-0.16595829 -0.09119618 -0.10361319 -0.083660014 -0.034576744 -0.08907905 -0.09750682 -0.07883953
-0.1313733 -0.082829185 -0.09108141 -0.08345132 -0.054857533 -0.08799972 -0.09236609 -0.08222493
-0.08560521 -0.0623573 -0.05871788 -0.05901563 -0.03915037 -0.09269819 -0.06062838 -0.06525205
-0.06453677 -0.06568099 -0.07049104 -0.13963908 0.021695914 -0.06978336 -0.08471646 -0.080936246
-0.5264285 -0.07083722 -0.075206816 -0.4036239 -0.07832914 -0.06329256 -0.06325615 -0.069857545
-0.05279502 -0.22359794 -0.07740214 -0.04686297 -0.12832418 -0.071596324 -0.031909317 -0.056455076
-0.058163825 -0.07632332 -0.13392529 -0.06938825 -0.058565866 -0.04768797 -0.068254195 -0.062135942
-0.064832516 -0.069167696 0.26606858 -0.120134145 -0.06154823 -0.068332545 -0.06334242 -0.06811826
-0.16477516 -0.063812494 -0.077235825 -0.06740808 -0.068871625 -0.08684766 -0.04195717 -0.064912856
-0.07505536 -0.07618912 -0.06440474 -0.2896056 -0.065864585 -0.16826963 -0.27317795 -0.060088307
-0.21940598 -0.07643707 -0.06893047 -0.069596045 -0.07028097 -0.10719776 -0.08466117 -0.054077208
-0.09551985 -0.07747478 -0.060988545 -0.078583926 -0.074969485 -0.078174345 0.29846397 -0.06140698
-0.33685794 -0.07416953 -0.07079229 -0.07086473 -0.075373225 0.2799238 -0.0675962 -0.10932722
-0.06828623 -0.071373396 -0.06534318 -0.09815498 -0.2786727 -0.076691605 -0.05198926 -0.07719048
-0.07666065 -0.07410751 -0.07377096 -0.12205273 -0.07101797 -0.05768403 -0.06995494 -0.0692257
-0.06823037 -0.07794456 -0.06186337 0.21811186 -0.19400886 -0.064531855 -0.06535184 -0.06680777
-0.28473336 -0.0665704 -0.09575492 -0.051850796 -0.12896506 -0.0916459 -0.0684991 -0.056896247
-0.10887502 -0.064003445 -0.06945199 -0.095863774 -0.23132926 -0.08840814 -0.07860203 -0.07058255

lstm.bias_hh f4 [512]
00000000: a760 bfbd ca6f bfbd e6c2 96bd f6ab a5bd
00000010: 16e6 4fbe 97dd 5f3e c51c 91bd f206 94bd
00000020: f5fb b1bd 3423 a5bd 8c9c b4bd 58c5 1c3a
00000030: e89e 703e aa2d 03be 3da2 debd fb7d bcbd
00000040: 87c8 03be 3d00 b2bd bf9a 9ebd 22b4 a7bd
00000050: 2892 dabd b7c9 b3bd 667a 91bd a5cf aebd
00000060: a91f a4bd 220c b5bd 4ab2 b4bd a4d3 8ebd
00000070: d385 00bd dfd6 d1bd 2011 94b8 dce1 9bbd
00000080: c47d a0bd 2b34 b9bd e4aa 32bd e1e0 acbd
00000090: af47 a6bd 0ea1 a2bd 1ba0 a93e e240 78bd
000000a0: afbe aabd 0557 adbd d766 e63e b92a 153d
000000b0: a60c b2bd 6867 bbbd 1be1 b4bd c19f c3bd
000000c0: a3bf 45bd 52bb a5bd 4b87 b2bd 9137 adbd
000000d0: 4796 b3bd 068d d8bd 3692 87bd 4a29 abbd
000000e0: 3f55 a6bd c91a fabd 9586 93bd 11d2 c7bd
000000f0: e184 cabd 5dad 4bbc 6fa1 7bbd 53e1 9fbd
00000100: a44e c7bd c93e c4bd bf1f 8dbd 280a 91bd
00000110: 7b28 9abd 496b c3bd 985a cfbd 39b0 9cbd
00000120: 6489 9bbd 7d00 c6bd 96f1 95bd a399 b5bd
00000130: 26fc aebd eaec a9bd ee89 0a3f 4deb 96bd
00000140: 178c 77be a486 94bd 770a abbd 3d0e bcbd
00000150: 667c a9bd 40a2 f83e dc46 aabd 7462 11be
00000160: 62a9 88bd 3859 8ebd bb46 99bd 9f1f d4bd
00000170: 169e 78be b04b b3bd 91ab 9bbd 5d2c bfbd
00000180: 1d01 a3bd 0b3c 98bd 4b63 a2bd 45ea 06be
00000190: 7b02 c2bd 13ee 98bd 8cec d9bd e5e7 9bbd
000001a0: c149 afbd 44fd b9bd 3296 9bbd 2d2a e23e
000001b0: 4f90 acbd 8977 a6bd c64f 9dbd b52f b9bd
000001c0: 8ed9 7cbe 10c5 babd db31 d4bd f155 abbd
000001d0: 6efa 0cbd 180c b6bd a7b1 c7bd 9f76 a1bd
000001e0: 2f3d 07be 59a2 a9bd ee88 babd cee8 aabd
000001f0: 8422 65bd 3239 b4bd 702a bdbd 8b65 a8bd
00000200: 2551 afbd 5e6a 7fbd 2982 70bd 60ba 71bd
00000210: d930 06bd 4156 d3bd 7755 78bd dea2 85bd
00000220: db2b 84bd c183 86bd 9b5d 90bd dc32 0fbe
00000230: c67f e03c b5ea 8ebd d37f adbd e7c1 a5bd
00000240: c3da f3be 1b13 91bd 0806 9abd 9c64 eebe
00000250: 076b a0bd 889f 81bd 718c 81bd 7911 8fbd
00000260: 973f 58bd a260 64be 0385 9ebd 63f3 3fbd
00000270: ea22 03be 18a1 92bd 0d27 f1bc 703d 67bd
00000280: 313d 6ebd 674f 9cbd 9032 09be 6d1b 8ebd
00000290: c3e2 6fbd 7654 43bd b798 b5bd 4282 7ebd
000002a0: e9c6 84bd cba7 8dbd a705 883e 4725 cebd
000002b0: ff19 7cbd eff1 8bbd acb9 81bd 9681 8bbd
000002c0: af91 28be 20b0 82bd d12d 9ebd 3f0d 8abd
000002d0: 900c 8dbd 30dd b1bd 48db 2bbd 08f1 84bd
000002e0: a0b6 99bd e908 9cbd a2e6 83bd 3628 93be
000002f0: 03e4 86bd f86b 2bbe 887b 90be 281f 76bd
00000300: 7d9e 5fbe 0a8b 9cbd 6b2b 8dbd 5f88 8ebd
00000310: 78ef 8fbd 808a dbbd d662 adbd 1080 5dbd
00000320: e49f c3bd 19ab 9ebd 20cf 79bd 9cf0 a0bd
00000330: 9a89 99bd df19 a0bd a112 993e e385 7bbd
00000340: 55e5 a2be 32e6 97bd 8cfb 90bd 8721 91bd
00000350: 475d 9abd 16e9 8d3e e06f 8abd 02e1 dfbd
00000360: a7d9 8bbd 372c 92bd a5d2 85bd 7a05 c9bd
00000370: 25f6 8abe 7d10 9dbd b1f2 54bd 0b16 9ebd
00000380: 4200 9dbd aec5 97bd 3b15 97bd a0f8 f9bd
00000390: df71 91bd 1746 6cbd 8944 8fbd 34c6 8dbd
000003a0: 5dbc 8bbd 66a1 9fbd 7264 7dbd 9bd9 663e
000003b0: 9ed6 50be 4729 84bd 2fd7 85bd 83d2 88bd
000003c0: 884f 97be 1056 88bd 241b c4bd 8061 54bd
000003d0: 9f0e 04be c0b0 bbbd 4249 8cbd 0a0c 69bd
000003e0: d205 dfbd 3d14 83bd d83c 8ebd 3a54 c4bd
000003f0: cefc 6bbe 540f b5bd 1afa a0bd 958d 90bd
-0.09344607 -0.09347494 -0.07361393 -0.080894396 -0.20302615 0.21861874 -0.070855655 -0.07227887
-0.08690635 -0.08063355 -0.088189214 0.0005980334 0.23498118 -0.12810388 -0.10870788 -0.09203716
-0.12869464 -0.08691452 -0.07744359 -0.081886545 -0.10672408 -0.087787084 -0.07103424 -0.08535699
-0.08013851 -0.08840205 -0.088230684 -0.06973961 -0.031377625 -0.102460615 -7.06038e-05 -0.07611439
-0.07836488 -0.090431534 -0.043620005 -0.0844133 -0.08119141 -0.07940875 0.33129963 -0.060608752
-0.08337151 -0.08463863 0.45000336 0.036417697 -0.08693819 -0.091505826 -0.08831998 -0.09551955
-0.048278462 -0.08092369 -0.08717211 -0.08457864 -0.087688975 -0.10573773 -0.066196844 -0.08357485
-0.08121728 -0.1221214 -0.07203404 -0.09756864 -0.09888626 -0.01243147 -0.061433252 -0.07806649
-0.097317964 -0.09582288 -0.06890821 -0.07082015 -0.07527252 -0.095419474 -0.10124701 -0.07650799
-0.075945646 -0.09668062 -0.073214695 -0.088671945 -0.08544187 -0.08297141 0.54116714 -0.07369099
-0.24174534 -0.07252243 -0.083516054 -0.09182403 -0.0827568 0.48561287 -0.083142966 -0.14197713
-0.06672932 -0.06950611 -0.07484194 -0.10357594 -0.24279055 -0.087546706 -0.07601083 -0.093346335
-0.07959197 -0.07433327 -0.07929095 -0.13175304 -0.09473129 -0.07467284 -0.10640821 -0.0761259
-0.08558989 -0.0908151 -0.07597007 0.44172803 -0.08425962 -0.08128268 -0.07681231 -0.090423025
-0.24692366 -0.09119618 -0.10361072 -0.083660014 -0.034418516 -0.088890254 -0.09750681 -0.07883953
-0.13206933 -0.082829185 -0.091081485 -0.08345185 -0.05594112 -0.08799972 -0.0923661 -0.08222493
-0.08560399 -0.0623573 -0.05871788 -0.05901563 -0.03276143 -0.10319186 -0.06062838 -0.06525205
-0.06453677 -0.06568099 -0.07049104 -0.13984245 0.027404677 -0.069783606 -0.08471646 -0.080936246
-0.4762784 -0.07083722 -0.075206816 -0.46561134 -0.07832914 -0.06329256 -0.06325615 -0.069857545
-0.05279502 -0.22302487 -0.07740214 -0.04686297 -0.12806287 -0.071596324 -0.029437566 -0.056455076
-0.058163825 -0.07632332 -0.13398194 -0.06938825 -0.058565866 -0.04768797 -0.08867019 -0.062135942
-0.064832516 -0.069167696 0.26566812 -0.10065704 -0.06154823 -0.068332545 -0.06334242 -0.06811826
-0.16461824 -0.063812494 -0.077235825 -0.06740808 -0.06887162 -0.08684766 -0.04195717 -0.064912856
-0.07505536 -0.07618887 -0.06440474 -0.28741616 -0.065864585 -0.16740406 -0.28219247 -0.060088307
-0.21837802 -0.07643707 -0.06893047 -0.069596045 -0.07028097 -0.10719776 -0.08466117 -0.054077208
-0.09551981 -0.07747478 -0.060988545 -0.078583926 -0.074969485 -0.078174345 0.29897025 -0.06140698
-0.3181559 -0.07416953 -0.07079229 -0.07086473 -0.075373225 0.27716893 -0.0675962 -0.10931589
-0.06828623 -0.071373396 -0.06534318 -0.09815498 -0.27140918 -0.076691605 -0.05198926 -0.07719048
-0.07666065 -0.07410751 -0.07377096 -0.122056246 -0.07101797 -0.05768403 -0.06995494 -0.0692257
-0.06823037 -0.07794456 -0.06186337 0.22543947 -0.2039437 -0.064531855 -0.06535184 -0.06680777
-0.29552865 -0.0665704 -0.09575489 -0.051850796 -0.12896203 -0.09164572 -0.0684991 -0.056896247
-0.10889782 -0.064003445 -0.06945199 -0.095863774 -0.23045656 -0.08840814 -0.07860203 -0.07058255

output_w.weight f4 [5, 128]
00000000: 324d 02bc bbf0 683b b401 aa38 58af 80ba
00000010: e83b d6bc 486f dabc 9a79 b23b da46 eab9
00000020: e605 803b aeac 49bb 8e4a 49bb 6544 24bd
00000030: aa98 85bc af05 023b 2666 8ebb 00bd 513b
00000040: 83f8 b3be e806 6cbb ea7f dfba fc20 4e3e
00000050: 30c6 363c e52a 003b 625f 3d39 6671 963b
00000060: bfa3 403b 07e8 403d be63 64bb 4757 13bb
00000070: ed03 dfbc f3f8 0e3c 094a 0a3d a1f7 1d3b
00000080: 3eee 7ebb c861 07ba e992 143c a4f8 93bb
00000090: a083 d23b 8d6d 683b a8e4 f83c 871e 77ba
000000a0: 70ac 4f3a fbdb 593b f77b 093c 9e1c 8fbd
000000b0: 8c68 dd3b 3cba c73b 3dc5 1b3c 29a4 da3b
000000c0: 92ae 8fbc 8f82 003c 997b 21bb 7426 023b
000000d0: e559 b03b fff4 a83b 9143 cc3a d87d 9ebb
000000e0: 039b d83b a59e 7fbc 220e 84bb f9c1 8a3d
000000f0: ac8c 15bc 4351 0fbe 901e c83d 5b96 973b
00000100: b177 cbbc 0adf dabb f8c6 b638 61d6 7abb
00000110: 5e82 01b9 509c 14bc 5527 8b3b 20bf e63b
00000120: 98bd 7dbb 3228 23bb b170 213b 8711 22bb
00000130: e84b 81b8 ae08 41ba 053f 3fbe f21c 3b3a
00000140: 60c6 933e bed7 2f3b 1462 f3ba b08b 8bba
00000150: b11e dbbb 0b09 293e 25c3 8e3b b541 2abd
00000160: 3dfe a23b 0ac6 3fbb 58d3 7f38 5136 2fbc
00000170: 95db a2bd b028 2ebb d305 05ba 33d1 883b
00000180: 6014 803b 3915 3e3b 587c afb8 c2bb e23c
00000190: f77b 883a 6fda 223b 0b3c 473b f40f 95ba
000001a0: 45d0 c6bb 48b8 2d3c 44a8 743a 8ab8 e73c
000001b0: 460e e8bd fcb4 f3b8 8006 7dba 7279 033c
000001c0: 768f e73d 0f68 783a 04bd 55bc 8ce1 8e3a
000001d0: a431 37bc 7c8e 183b 0a41 9039 516e aebb
000001e0: 91f1 61bb 6553 4dbb fc4d cdba 9dcc 043b
000001f0: 2026 0339 e1c4 7a3a 4c7a ae3b b48b 963a
00000200: 3e1f ca3c 592b 13bc d303 06bc c597 dd3a
00000210: 30cc d4bd 1f93 a4bd 7c7a 9c3b 98eb 6f3a
00000220: 3364 f23b 63a4 e23b d43b c9ba f4ed 4b3d
00000230: bdcb f03c 89a8 abbc 90d1 0b3a 23c8 82bb
00000240: 5267 083f 9ee3 973b 7683 123c 71e4 d03e
00000250: 1adc 12bc c3cb f4ba 11bb bcbb ba22 1fbc
00000260: ad1e 62bc 9434 47bd 95c2 2b3a 56b7 943b
00000270: 0dd8 08bd 1029 973a 6ccb 3d3d 6a19 c0ba
00000280: 04f6 853c 08ab 6ebb 2af2 6a3b 40e9 633b
00000290: a524 ecbb ab71 343b c7c9 10bd 5741 543b
000002a0: 7489 16bc fdf4 58bc a181 c03d 1624 de3d
000002b0: 50cb 28bb 7127 68bb 58eb 64bb e05f 2e3c
000002c0: 55cd 7c3c ab78 bf3b 184b 513c 4221 79bb
000002d0: 869e 50bc e2b7 13bc c6a2 6b3b b004 84b8
000002e0: 68fc 3d3b 78a5 413c afb1 0e3c 90a5 0ebd
000002f0: dd6b 903b 87b2 26bd e0a5 3bbd 8665 2f3c
00000300: 8b00 febd a8be 27bb afa9 0abc 00fc fa35
00000310: c094 3b38 1d7f 833a ee74 53bb 9ad7 45bb
00000320: 99cc d1bc 3919 94ba e955 eabb 6fc4 86bb
00000330: 4153 61ba a29c 0a3b 8a42 0dbd b1ef 2cbb
00000340: 48ce d33d 4bf3 9cbc e846 543b 4a03 b9bb
00000350: 4392 74bb b2c6 80bd bde7 daba 2f54 853c
00000360: eaf5 39bc 07b5 233c 78d9 2b3c 4a24 02bc
00000370: 1884 99bc 3d23 32bc d105 80bb 107f 8cba
00000380: c81a 513b 5a21 c4ba a9e3 adba bf74 1fbd
00000390: c006 ff3b eed9 083c 144c 98bc 9b6e e23b
000003a0: 20af c73b 2c90 0f3a 6f94 26bc ae96 cb3d
000003b0: c440 91bb e630 cdbb 08cd b13b 9acc dabb
000003c0: f3dd b43d d0ca c9bb 5872 853a 89c1 003a
000003d0: 2501 33bc 4340 8dbb 6117 4a3c 790f 1f3c
000003e0: 203b 243d 4a57 4b3c db8d 223c 587c 2ebc
000003f0: b5ab a93c 6531 a73a 2634 39bc 3859 01bc
-0.007952975 0.0035543877 8.106549e-05 -0.0009817882 -0.026151612 -0.026664391 0.005446625 -0.00044684747
0.003906953 -0.003077309 -0.0030714604 -0.04010429 -0.016308147 0.0019839813 -0.004345673 0.0032003522
-0.35150537 -0.0036014859 -0.0017051671 0.2012977 0.01115565 0.0019556817 0.00018059977 0.004591155
0.0029394475 0.04709628 -0.003484949 -0.0022482441 -0.027223552 0.008726346 0.03376201 0.0024103897
-0.0038899328 -0.0005164412 0.009068229 -0.0045157243 0.0064243823 0.0035465688 0.03038247 -0.0009426851
0.00079221185 0.003324269 0.008391372 -0.0698788 0.0067568477 0.006095199 0.0095074745 0.0066724014
-0.017539296 0.007843628 -0.002464032 0.0019859346 0.00538181 0.005156159 0.0015584101 -0.004836779
0.0066102757 -0.015601789 -0.004030005 0.067752786 -0.009127777 -0.13995843 0.09771454 0.004626078
-0.024837347 -0.0066794204 8.715497e-05 -0.0038274752 -0.00012350964 -0.009070471 0.004246632 0.007041827
-0.0038717743 -0.0024895784 0.002463382 -0.0024729685 -6.165338e-05 -0.0007363659 -0.18676384 0.0007137797
0.28862286 0.0026831473 -0.0018568658 -0.0010646489 -0.0066870083 0.16507356 0.004356759 -0.04156657
0.004974155 -0.0029262328 6.0993567e-05 -0.010694102 -0.07952038 -0.0026574545 -0.0005074415 0.004175329
0.003908679 0.002900435 -8.367811e-05 0.02767742 0.0010412921 0.0024849435 0.0030400779 -0.0011372552
-0.006067308 0.010603018 0.0009332935 0.028286237 -0.113308474 -0.00011620854 -0.00096521527 0.00802456
0.1130666 0.0009475955 -0.013045553 0.0010900958 -0.011181269 0.0023278287 0.00027514278 -0.0053232093
-0.003447626 -0.0031330225 -0.00156635 0.002026356 0.00012507336 0.00095660804 0.0053246375 0.0011485727
0.0246731 -0.008982503 -0.008179623 0.0016906193 -0.10390508 -0.080358736 0.0047753435 0.00091522327
0.0073971986 0.006916569 -0.0015352913 0.049787477 0.029394025 -0.020954387 0.00053336564 -0.0039911433
0.53282654 0.0046352884 0.008942476 0.40799287 -0.008963609 -0.0018676448 -0.0057596047 -0.009712869
-0.013801259 -0.048634127 0.00065521273 0.004538457 -0.033409167 0.0011532623 0.046336576 -0.0014656011
0.016352661 -0.003641786 0.0035849907 0.003477648 -0.007206517 0.0027533572 -0.03534868 0.0032387578
-0.009188045 -0.0132420035 0.09399725 0.108467266 -0.002575595 -0.00354239 -0.0034930315 0.010642976
0.015429814 0.005843242 0.012774251 -0.0038014208 -0.012733107 -0.009016009 0.0035955175 -6.2951236e-05
0.0028989557 0.011819236 0.008709355 -0.03482586 0.0044073896 -0.0406976 -0.045812488 0.010705357
-0.12402447 -0.0025595818 -0.008463307 1.8699793e-06 4.472281e-05 0.001003239 -0.003226574 -0.0030188323
-0.025610255 -0.0011299021 -0.0071513546 -0.004112772 -0.00085954746 0.002115049 -0.034487285 -0.0026387984
0.103420794 -0.01915898 0.0032390896 -0.005646144 -0.0037318624 -0.06287898 -0.0016701143 0.016275493
-0.011350134 0.009991891 0.01048886 -0.007943222 -0.018739745 -0.010872659 -0.0039069434 -0.001071902
0.0031906832 -0.0014963553 -0.00132667 -0.038929697 0.007782787 0.00835274 -0.018590964 0.006910158
0.0060938746 0.00054765004 -0.010167225 0.09940849 -0.0044327695 -0.0062619327 0.005426053 -0.0066772224
0.08831396 -0.0061582103 0.0010181172 0.00049116515 -0.010925566 -0.004310639 0.0123346755 0.009708279
0.04009545 0.012410948 0.009921516 -0.010649763 0.02071176 0.001275581 -0.011303937 -0.007894807

output_w.bias f4 [5]
00000000: ec8a 24bd 695d 6c3d 8671 68bf b93d 71bf
00000010: 1c28 e6bd
-0.04017155 0.05770627 -0.90798223 -0.94234806 -0.11238119

square_avg f4 [64]
00000000: ce03 683d a3ff b03d daf8 123d 111e ad3a
00000010: 0b74 8a33 f216 423c c3e8 1a3c 320a 2e37
00000020: 1a3d 5d3c 8bfc a730 4e9b de3c b480 9b3c
00000030: 32bb 093e 6316 063c 152a f33a 35ab 803b
00000040: 2c23 163c 9492 9c32 e1ba 503c 4b56 a03e
00000050: 3160 2e3b 5086 113d e1b1 7332 ff8e 6730
00000060: bebc 493d 6214 6b37 846c 923d 6402 2033
00000070: da8f 443d 0888 f73d cdf3 f13c 82d2 803b
00000080: de82 1b3c b635 f63d b65d c43d 1261 953c
00000090: dd2e 743d ac62 3b3d 551e dd3a 9253 433c
000000a0: 184b 9b3c 8f04 5036 41bf 9038 5018 4e3c
000000b0: dae3 692f 042b 6b36 cb6f 973c 1716 213c
000000c0: 61a7 ba3a e970 143e e086 e232 fb95 a73c
000000d0: 64e7 1334 9a85 7432 ecd7 0e3d 547c ef3a
000000e0: 834e 043c 780d 2439 1c42 082f d587 b33c
000000f0: 8606 663c c96c c63b 6d92 ad3b 5649 693c
0.056644253 0.08642509 0.035881855 0.0013207813 6.447234e-08 0.011846291 0.009454909 1.0373582e-05
0.013503337 1.2222626e-09 0.027173664 0.018982269 0.13450316 0.008184048 0.001855197 0.0039266595
0.009163659 1.8227446e-08 0.012739868 0.31315836 0.0026607628 0.03552848 1.4184907e-08 8.424052e-10
0.049252264 1.4011837e-05 0.07149604 3.7255077e-08 0.04798875 0.12086493 0.029535199 0.0039313445
0.00949165 0.12021963 0.095881864 0.018234763 0.059615005 0.045748398 0.0016870002 0.01192178
0.018956706 3.0997069e-06 6.902079e-05 0.012579039 2.1272176e-10 3.5042767e-06 0.018485924 0.009831927
0.0014240557 0.14496197 2.6371197e-08 0.020457258 1.3774621e-07 1.4233047e-08 0.034873888 0.0018271306
0.008075359 0.00015645276 1.2392615e-10 0.021915356 0.014039641 0.0060554487 0.0052969963 0.014238676

square_avg f4 [5]
00000000: e16b 4c40 0816 7a40 4a0a 3f3e 83ea 0b3e
00000010: 65f6 9b3c
3.1940844 3.9075947 0.18656269 0.13663678 0.019038389
