S-LSTM/Goal+Socail_Array_PyTorch/social_lstm/save/0/social_model_epoch_12.pth (torch, 815071 bytes, 22 tensors)

embedding_b f4 [64]
-0.0491172 0.33388934 0.26638213 -1.9675822e-06 -0.013606417 -0.053612232 -0.09985489 -0.0072130673
-0.15024655 -0.0047112857 0.0005180198 -0.035691313 -0.18611562 -0.0923903 -0.0151757235 -0.01380375
-0.009754202 -0.011721582 -0.17008409 -0.06420795 -6.7800033e-07 -0.03206337 -0.035061147 -0.0051606484
-0.048307702 -1.9932886e-09 0.012527911 0.015478106 0.3553931 -0.1586009 -0.019750692 -0.016461268
-0.07044452 -0.019595202 0.075544454 -0.039248582 0.19116622 0.075367495 0.035068218 -0.17107442
-0.0316676 -0.00015486707 0.04227675 -0.021249428 0.011177164 -0.008836166 0.005558327 0.05195696
-0.16552316 0.14638801 -0.0063111326 0.06802375 -1.087654e-06 -0.013505497 0.04318827 -0.06143542
-0.0132748 -7.0784233e-07 -0.018209098 0.09928441 0.13257268 0.12726012 -0.11098641 -0.026541647
00000000: 1e2f 49bd 8bf3 aa3e 3d63 883e ce0a 04b6
00000010: 73ed 5ebc 8098 5bbd b880 ccbd 985b ecbb
00000020: 3bda 19be 2161 9abb b8cb 073a 0e31 12bd
00000030: 1895 3ebe 2037 bdbd 99a3 78bc 2029 62bc
00000040: 17d0 1fbc e10b 40bc 862a 2ebe 757f 83bd
00000050: d4ff 35b5 e154 03bd 479c 0fbd a81a a9bb
00000060: 4cde 45bd 4efa 08b1 de41 4d3c e297 7d3c
00000070: 16f6 b53e 4668 22be 34cc a1bc c8d9 86bc
00000080: 3745 90bd 1e86 a0bc 0db7 9a3d 1fc3 20bd
00000090: 14c1 433e 465a 9a3d b1a3 0f3d 222e 2fbe
000000a0: e3b5 01bd d063 22b9 632a 2d3d 4813 aebc
000000b0: 6c20 373c 91c5 10bc a022 b63b d2d0 543d
000000c0: e77e 29be bde6 153e 9ecd cebb 0950 8b3d
000000d0: 82fb 91b5 2946 5dbc 2fe6 303d b5a3 7bbd
000000e0: 8c7e 59bc 8e02 3eb5 3f2b 95bc a055 cb3d
000000f0: 22c1 073e 7a50 023e d84c e3bd de6d d9bc

output_b f4 [5]
0.035145048 -0.0047768825 -0.85964614 -0.8239676 -0.0842603
00000000: 41f4 0f3d 6587 9cbb c511 5cbf 8aef 52bf
00000010: aa90 acbd

embedding_w.weight f4 [64, 4]
0.30045524 -0.68351525 -0.053579796 0.28302127 0.1412457 1.3795365 -0.10347439 0.3792288
-1.157286 -0.7472606 -0.14267588 -0.08614445 -1.8564678e-17 6.106282e-10 -3.3591432e-19 9.6713646e-17
0.021514172 0.028449416 -0.01496042 0.022013282 0.56949216 -0.53470147 0.34355244 0.43299064
0.56456715 0.7466607 0.16764791 -0.008718638 -0.00014758819 -0.008820474 -0.0006392296 -0.010759038
0.1851455 0.23325194 0.022761088 0.3182253 -1.3386285e-05 0.0011394089 0.0013959982 -1.200911e-24
-0.5787829 0.66288954 0.31049109 -0.3504372 -0.35204092 0.0547758 -0.3068238 0.09443221
0.49847037 -0.29505602 -0.5186143 0.42383146 0.97916114 0.16454558 0.12129926 0.21692781
0.13149926 0.041787427 0.13493896 0.10683873 0.011712035 0.008605268 -0.010329562 0.030237658
0.00051547406 0.011203838 0.0044062953 -0.022520233 0.03104012 -0.0029905916 0.03410442 -0.00028674843
0.35667145 -0.53608793 0.27408594 -0.4046539 0.93412906 0.34091657 -1.0005869 -0.3188037
2.9279186e-28 -6.150664e-14 3.4009254e-13 1.3810393e-10 0.05597624 0.036920443 0.20042063 -0.03443295
0.0018471838 0.027189687 0.011862033 0.038691264 1.1034359e-07 -2.4032815e-17 1.6258336e-06 0.0015898817
-0.24824367 0.19431463 0.48819137 0.09886984 2.7966396e-10 1.8255588e-12 3.453968e-09 7.113177e-10
-0.8378353 -1.1952958 0.07375414 -0.841667 -0.06517044 -0.088788524 -0.0072999136 0.080657564
-1.3007101 -0.7850508 -0.02737315 0.04911323 -0.4527604 -0.47556886 0.4989758 0.5902486
0.15808724 0.1137406 0.22156157 -0.10713358 -0.8502384 0.24271098 0.00020138617 0.21639183
-0.7675045 0.6138302 -0.19436517 -0.19151382 0.34266296 1.1432583 -0.08637104 -0.30791014
1.3990561 -0.22882473 0.1467956 0.41046256 0.77195734 0.6388604 0.012471966 0.28513122
-0.6833621 1.2813239 0.015773308 0.51508266 1.2969763 -0.99623215 0.2196583 -0.47394603
-0.055919625 0.033102807 -0.01743126 0.03577696 -0.1224492 0.33720294 0.24040769 -0.075988196
1.3494558 0.38714102 0.032613177 0.2763524 2.1052958e-05 -2.296889e-08 2.5735822e-08 -0.0001470642
-0.009195816 -0.0070284423 -0.015332168 0.0039022346 -0.044028692 0.1417002 0.13848536 0.09361996
-0.017122969 -0.031979937 -0.024875583 0.034870077 -0.005271365 -0.0005799084 0.0013471137 0.0032870858
0.19457488 1.0176631 0.041552298 0.008698276 -0.39069372 0.81753415 0.12861714 0.04435795
0.41538116 0.39164945 0.13019845 0.1382384 -0.5854223 -1.1417902 -0.1187514 0.19216762
1.1663407e-05 -0.0016298016 4.7342214e-06 3.3375662e-07 -1.2577167 0.8995464 -0.25563604 0.13153757
-6.15025e-11 -3.25744e-13 5.9432345e-21 4.2312033e-13 -0.00019591504 0.01929528 0.04843389 0.0063067884
0.29068965 -1.0290678 -0.08909246 -0.036667686 0.6727164 -0.47201538 0.12168574 -0.3094673
0.58464473 -0.5300561 -0.18246317 0.1873238 4.0992532e-08 -5.4514448e-15 -4.266685e-12 -2.111218e-18
-0.02154883 -0.0045709987 -0.011744795 -0.0024891654 -1.078259 -0.79057366 -0.054540146 -0.035835773
-0.53224427 -1.0764141 -0.11978522 0.060329106 1.0410566 0.9296986 0.05079346 0.07748353
-0.6474295 0.23313004 0.043724 0.11771391 -1.1791245 0.74589854 -0.25277612 -0.024160534
00000000: 45d5 993e dbfa 2ebf 7d76 5bbd 2ae8 903e
00000010: b6a2 103e a794 b03f 62ea d3bd 472a c23e
00000020: f321 94bf 784c 3fbf a019 12be 806c b0bd
00000030: 9b3a aba3 24d9 2730 f049 c6a0 a901 df24
00000040: 7d3e b03c c00e e93c 8d1c 75bc 3355 b43c
00000050: 3dca 113f 32e2 08bf 1be6 af3e f3b0 dd3e
00000060: 7987 103f 2825 3f3f e5ab 2b3e 9ed8 0ebc
00000070: e7c1 1ab9 c083 10bc f991 27ba ad46 30bc
00000080: c896 3d3e 99d9 6e3e 7675 ba3c 6dee a23e
00000090: a895 60b7 3858 953a edf9 b63a fcd4 b997
000000a0: 1e2b 14bf 21b3 293f b0f8 9e3e 816c b3be
000000b0: b53e b4be 975c 603d 0218 9dbe ad65 c13d
000000c0: 8237 ff3e 9511 97be e8c3 04bf 7000 d93e
000000d0: 4eaa 7a3f a37e 283e bf6b f83d 5322 5e3e
000000e0: bea7 063e 4b29 2b3d 702d 0a3e 44ce da3d
000000f0: d6e3 3f3c 1cfd 0c3c 533d 29bc f7b4 f73c
00000100: e120 073a 4d90 373c af62 903b 5a7c b8bc
00000110: da47 fe3c cdfd 43bb 14b1 0b3d b956 96b9
00000120: a49d b63e 0f3d 09bf fe54 8c3e cc2e cfbe
00000130: 1523 6f3f 9e8c ae3e 3b13 80bf 3d3a a3be
00000140: 3294 b911 2a80 8aa9 8074 bf2a cdd8 172f
00000150: 5847 653d e439 173d 113b 4d3e 9109 0dbd
00000160: 341d f23a e8bc de3c f958 423c bb7a 1e3d
00000170: 08f6 ec33 e1a9 dda3 3837 da35 9463 d03a
00000180: 9733 7ebe 6afa 463e 38f4 f93e 457c ca3d
00000190: 34bf 992f 5876 002c d95a 6d31 8986 4330
000001a0: 607c 56bf 74ff 98bf 690c 973d 7d77 57bf
000001b0: 1478 85bd c2d6 b5bd 1d34 efbb cb2f a53d
000001c0: ab7d a6bf 17f9 48bf a83d e0bc f42a 493d
000001d0: 36d0 e7be c37d f3be c279 ff3e 881a 173f
000001e0: 9fe1 213e d5f0 e83d 09e1 623e da68 dbbd
000001f0: 39a9 59bf 3a89 783e 302b 5339 d295 5d3e
00000200: 2d7b 44bf fa23 1d3f aa07 47be 331c 44be
00000210: 8571 af3e 4a56 923f 4de3 b0bd 66a6 9dbe
00000220: 4514 b33f 0851 6abe 9651 163e 2628 d23e
00000230: ff9e 453f 5b8c 233f 3857 4c3c b8fc 913e
00000240: d2f0 2ebf 6c02 a43f 0637 813c 75dc 033f
00000250: 5203 a63f 1209 7fbf 1bee 603e 0ea9 f2be
00000260: fa0b 65bd cf96 073d 00cc 8ebc dd8a 123d
00000270: a5c6 fabd dda5 ac3e 6f2d 763e b39f 9bbd
00000280: f8ba ac3f 5937 c63e 6595 053d 107e 8d3e
00000290: e29a b037 204d c5b2 ac11 dd32 3f35 1ab9
000002a0: 0caa 16bc d94e e6bb c633 7bbc a2bc 7f3b
000002b0: 6e57 34bd db19 113e 1bcf 0d3e d2bb bf3d
000002c0: 7845 8cbc 65fd 02bd e1c7 cbbc edd3 0e3d
000002d0: 6abb acbb fe04 18ba a391 b03a 266c 573b
000002e0: a33e 473e c942 823f be32 2a3d 3783 0e3c
000002f0: 0209 c8be eb49 513f 36b4 033e afb0 353d
00000300: d7ac d43e 4786 c83e be52 053e 5e8e 0d3e
00000310: 3cde 15bf 2e26 92bf ef33 f3bd 97c7 443e
00000320: f4ad 4337 119f d5ba a7da 9e36 292f b334
00000330: dcfc a0bf ac48 663f bae2 82be c9b1 063e
00000340: d43e 87ae a860 b7aa 7087 e01d 1132 ee2a
00000350: 8b6e 4db9 2311 9e3c 9d62 463d 2da9 ce3b
00000360: 46d5 943e 7eb8 83bf 1c76 b6bd db30 16bd
00000370: 2437 2c3f 00ac f1be 6036 f93d 7f72 9ebe
00000380: 47ab 153f c2b1 07bf a0d7 3abe cfd1 3f3e
00000390: c40f 3033 b468 c4a7 e21e 96ac c8c7 1ba2
000003a0: 2c87 b0bc 51c8 95bb 3e6d 40bc 4421 23bb
000003b0: 6404 8abf 0963 4abf 7d65 5fbd 88c8 12bd
000003c0: 2941 08bf f0c7 89bf f451 f5bd a71b 773d
000003d0: 5841 853f ba00 6e3f ce0c 503d afaf 9e3d
000003e0: f1bd 25bf a4b9 6e3e f017 333d fe13 f13d
000003f0: 8ded 96bf 35f3 3e3f df6b 81be 50ec c5bc

embedding_w.bias f4 [64]
0.08623986 0.13650388 0.13392496 -1.9675822e-06 -0.013606417 -0.08126758 -0.041974388 -0.0072130673
0.15703577 -0.0047112857 -0.06097225 0.012946926 0.150245 0.21522026 -0.0151757235 -0.01380375
-0.009754202 -0.011721582 0.1069968 -0.016332526 -6.7800033e-07 -0.03206337 -0.035061147 -0.0051606484
-0.048307702 -1.9932886e-09 -0.13346145 0.015478106 0.15977907 0.1197544 -0.019750692 -0.013703132
0.23720936 -0.0035591556 0.36430943 0.2648414 0.00020356965 -0.06597245 0.035068218 0.09210224
0.054293897 -0.00015486707 0.04227675 -0.021249428 0.011177164 -0.008836166 -0.02193436 -0.115418814
0.040078584 0.13324578 -0.0063111326 -0.118449956 -1.087654e-06 -0.013505497 0.028849075 -0.06143542
0.011910332 -7.0784233e-07 -0.018209098 0.37997976 -0.13848628 -0.10321086 0.13906527 -0.2683395
00000000: 869e b03d acc7 0b3e a023 093e ce0a 04b6
00000010: 73ed 5ebc 9e6f a6bd 56ed 2bbd 985b ecbb
00000020: fccd 203e 2161 9abb 0abe 79bd 581f 543c
00000030: d3d9 193e b362 5c3e 99a3 78bc 2029 62bc
00000040: 17d0 1fbc e10b 40bc 2321 db3d cacb 85bc
00000050: d4ff 35b5 e154 03bd 479c 0fbd a81a a9bb
00000060: 4cde 45bd 4efa 08b1 1eaa 08be e297 7d3c
00000070: 209d 233e cb41 f53d 34cc a1bc 1a83 60bc
00000080: 03e7 723e b940 69bb c486 ba3e 4b99 873e
00000090: 5075 5539 901c 87bd b1a3 0f3d 19a0 bc3d
000000a0: 4763 5e3d d063 22b9 632a 2d3d 4813 aebc
000000b0: 6c20 373c 91c5 10bc b0af b3bc b360 ecbd
000000c0: 7129 243d 9571 083e 9ecd cebb e495 f2bd
000000d0: 82fb 91b5 2946 5dbc e554 ec3c b5a3 7bbd
000000e0: 8e23 433c 8e02 3eb5 3f2b 95bc b58c c23e
000000f0: 59cf 0dbe 3760 d3bd 2067 0e3e cc63 89be

embedding_t_w.weight f4 [1, 8]
0.99212265 -0.31317317 0.10962697 -0.47902855 0.05030486 -0.06414333 0.35309985 -0.46857578
00000000: c0fb 7d3f 3c58 a0be 1b84 e03d 3b43 f5be
00000010: 780c 4e3d 945d 83bd 81c9 b43e 2ae9 efbe

lstm.weight_ih f4 [512, 65]
-0.035372928 0.027592221 -0.054276217 -2.7662278e-08 -0.0026878614 -0.04141497 -0.011415294 8.875937e-07
-0.055084843 -2.3442099e-05 0.07007425 -0.028951261 -0.06657543 -0.008584959 -0.014041823 -2.9000466e-06
0.00038554202 0.0006656266 0.029399447 0.019103847 -1.0161071e-07 0.015683785 -6.114851e-12 -9.701016e-07
0.0046999585 1.51302e-40 -0.031750448 -0.03774041 -0.07317124 -0.05576691 0.04055902 -0.0025873743
0.05849637 0.026230097 -0.03452113 0.0005037859 0.050017968 -0.0062345075 -0.02792823 0.012247794
-0.024526186 -2.7588441e-05 -0.017147014 -0.031713236 -0.013321146 3.2020456e-08 0.009271749 0.039372113
-0.024370112 -0.067765534 -8.786752e-08 0.0109094735 -2.1943265e-08 -1.1219596e-07 -0.025143985 0.032587636
-0.012100389 3.627647e-05 -0.0062300223 -0.065360576 -0.0622472 0.01059811 0.015132889 -0.019509543
-0.034545954 -0.01953346 -0.068027295 -0.048708696 0.0006436842 0.002925634 -0.011548849 -0.01928812
0.0014026201 -0.022338092 -3.48798e-05 -0.012340837 -0.020281382 -0.026784554 -0.030462744 -0.006346182
-5.4845166e-14 -1.1940581e-26 -1.2262222e-24 0.009063474 -0.012931135 4.724663e-06 0.00036193972 -3.5204032e-22
3.148788e-05 -0.0060826624 -2.5338391e-05 -0.0097398795 -0.011300058 -0.06884996 -0.028335074 0.0030369435
-0.0240935 -0.024150463 -0.014436219 -0.063856974 -0.044607215 -0.047023214 -0.0035183602 -0.013179071
-0.008755144 -0.033185456 -3.9305312e-05 -0.01090769 0.0015203734 -0.008073979 -1.5321486e-05 -0.022744328
-0.029584577 -0.012106842 -0.041952968 -6.8583206e-05 -0.033727866 -5.763525e-05 -0.00013062783 -0.018728135
0.012916562 -0.011353143 -2.9432078e-05 7.574978e-07 -0.06489063 -0.020597016 -0.033019606 -0.024444692
-0.0155243175 -0.014546409 0.0047730682 -0.047812033 -0.037468094 2.870728e-05 0.0012619597 0.0036850194
-0.0100366715 1.852371e-06 -0.0020991513 7.278677e-06 -0.0070164036 -0.007388608 9.919796e-05 -0.020499168
-0.0033839585 -3.8041258e-06 -2.1917143e-18 -1.5275294e-19 0.011682935 -0.011943919 2.0782003e-05 0.0001879514
-1.1075971e-26 2.1546211e-06 -0.0032996195 1.7877417e-06 -0.011027594 0.0021146815 -0.0525671 0.0024490182
0.002222536 -0.010748572 -0.01696304 -0.010884046 -0.045443058 -0.025651226 -0.021556495 -0.0022906584
0.005766407 -0.0023244177 -0.022885205 -1.9249157e-05 0.003127214 0.001594248 -0.00037135743 -0.00031068525
-0.0069519617 -0.00513485 -0.00572786 -0.025401758 1.035339e-06 -0.020150885 -6.821314e-08 -0.00019618479
-0.0062097833 0.010058575 0.0076132477 8.194525e-05 -1.2459226e-05 -0.050384663 -0.010644 -0.02229404
-0.009965354 -0.014703585 0.0041465624 -0.004277366 -0.063449144 -0.05154735 -1.5309456e-06 -0.00035401408
-0.0063099256 -0.0117945885 -9.555972e-05 -0.02299904 4.601346e-05 -0.0070018414 -0.018486328 -0.015164517
-0.02420096 -0.0042927675 -3.8185355e-28 -2.3220485e-28 -0.00020880497 -0.0019404336 -0.012568212 -0.00018176602
-0.00029561768 -1.2960332e-08 -0.00010117359 -0.0037145829 -1.7088993e-05 0.0009027759 -0.004294478 -0.0706937
-0.020602986 -0.0013068253 -0.03130688 -0.03343752 -0.01270633 -0.050649103 -0.034098785 -0.049851615
-0.016150428 -0.012932825 -0.006702195 -0.025365064 1.7824153e-05 -0.0035825083 -0.004668839 -0.0071526035
3.3417678e-06 -0.018541353 -0.020401675 -0.010364235 -0.03507848 -2.9142153e-05 -0.042197358 -1.968448e-06
0.0011352578 -0.010740044 -0.003889109 0.00061902 -2.9099469e-05 2.39388e-40 -0.06485153 -0.011601494
00000000: 34e3 10bd 1509 e23c bd50 5ebd fe9d edb2
00000010: d526 30bb bea2 29bd 3707 3bbc fa42 6e35
00000020: a5a0 61bd 86a5 c4b7 1783 8f3d 322b edbc
00000030: b358 88bd eea7 0cbc ad0f 66bc 6c9e 42b6
00000040: 9322 ca39 727d 2e3a 1cd7 f03c ac7f 9c3c
00000050: 1435 dab3 487b 803c ae25 d7ac 7034 82b5
00000060: 1c02 9a3b c5a5 0100 c20c 02bd b095 1abd
00000070: ceda 95bd d86b 64bd 3721 263d f090 29bb
00000080: e499 6f3d 80e0 d63c 0766 0dbd 8010 043a
00000090: a4df 4c3d d74a ccbb bec9 e4bc f9aa 483c
000000a0: 24eb c8bc ba6d e7b7 e577 8cbc bde5 01bd
000000b0: f040 5abc dd86 0933 89e8 173c a744 213d
000000c0: d4a3 c7bc a8c8 8abd aeb1 bcb3 a6bd 323c
000000d0: c07d bcb2 62f0 f0b3 c2fa cdbc 9d7a 053d
000000e0: b640 46bc 9027 1838 3725 ccbb c4db 85bd
000000f0: ecf6 7ebd b2a3 2d3c f0ef 773c 7ad2 9fbc
00000100: 0f80 0dbd a204 a0bc e551 8bbd c582 47bd
00000110: eabc 283a febb 3f3b 6237 3dbc 1f02 9ebc
00000120: 1fd8 b73a 60fe b6bc e64b 12b8 3931 4abc
00000130: 2425 a6bc 486b dbbc 018d f9bc a2f3 cfbb
00000140: 2c00 77a9 f081 6c94 aabf bd97 f77e 143c
00000150: 1cdd 53bc 8c88 9e36 bac2 bd39 9acb d49b
00000160: db11 0438 1251 c7bb c88d d4b7 0494 1fbc
00000170: e123 39bc 3501 8dbd f51e e8bc 7507 473b
00000180: bb5f c5bc 31d7 c5bc e485 6cbc 72c7 82bd
00000190: 0eb6 36bd 6a9b 40bd 4a94 66bb 08ed 57bc
000001a0: bc71 0fbc 79ed 07bd c2db 24b8 2bb6 32bc
000001b0: 4447 c73a b948 04bc a486 80b7 5052 babc
000001c0: 5b5b f2bc c75b 46bc e0d6 2bbd 54d4 8fb8
000001d0: 3b26 0abd 61bd 71b8 24f9 08b9 bf6b 99bc
000001e0: fd9f 533c 8802 3abc e8e4 f6b7 da56 4b35
000001f0: 61e5 84bd 13bb a8bc 913f 07bd 3c40 c8bc
00000200: b559 7ebc 1054 6ebc 6667 9c3b 8dd6 43bd
00000210: 2578 19bd 6ad0 f037 5768 a53a 5e80 713b
00000220: da70 24bc fc9e f835 ea91 09bb 5c3b f436
00000230: dce9 e5bb 231c f2bb 8008 d038 dfed a7bc
00000240: 67c5 5dbb 624a 7fb6 50b8 21a2 be56 34a0
00000250: c869 3f3c 6db0 43bc 0355 ae37 d214 4539
00000260: d861 5b94 1c98 1036 6e3e 58bb 56f2 ef35
00000270: 15ad 34bc 7896 0a3b 9950 57bd b57f 203b
00000280: f7a7 113b c71a 30bc 13f6 8abc ff52 32bc
00000290: 8022 3abd 8522 d2bc 3f97 b0bc df1e 16bb
000002a0: 21f4 bc3b 4255 18bb c179 bbbc 4079 a1b7
000002b0: f2f1 4c3b 16f6 d03a c0b2 c2b9 78e3 a2b9
000002c0: 48cd e3bb 3e42 a8bb c6b0 bbbb 5917 d0bc
000002d0: faf5 8a35 7813 a5bc 927c 92b3 f4b6 4db9
000002e0: 707b cbbb b9cc 243c 8d78 f93b 05da ab38
000002f0: f807 51b7 2660 4ebd 2c64 2ebc fea1 b6bc
00000300: b945 23bc 4ee7 70bc e3df 873b 2629 8cbb
00000310: a0f1 81bd 5023 53bd e47a cdb5 f79a b9b9
00000320: 7ec3 cebb 173e 41bc 3c67 c8b8 7c68 bcbc
00000330: 94fe 4038 b46f e5bb a470 97bc 9874 78bc
00000340: 1741 c6bc 58aa 8cbb 4807 f291 642d 9391
00000350: a8f2 5ab9 2656 feba e7ea 4dbc 7298 3eb9
00000360: 22fd 9ab9 25a8 5eb2 282d d4b8 5c70 73bb
00000370: 555a 8fb7 44a8 6c3a b1b8 8cbb dcc7 90bd
00000380: 98c7 a8bc c849 abba a53b 00bd c8f5 08bd
00000390: 362e 50bc 6f75 4fbd 2bab 0bbd 3531 4cbd
000003a0: e74d 84bc 33e4 53bc 169e dbbb 65ca cfbc
000003b0: 1485 9537 84c8 6abb 0ffd 98bb 6360 eabb
000003c0: 2243 6036 09e4 97bc 6a21 a7bc c1ce 29bc
000003d0: 74ae 0fbd 4c76 f4b7 23d7 2cbd ae19 04b6
000003e0: eecc 943a 02f7 2fbc 6ce0 7ebb bb45 223a
000003f0: a21a f4b7 519b 0200 e1d0 84bd 3114 3ebc

lstm.weight_hh f4 [512, 128]
-0.032200392 0.00064162863 -0.0030646333 0.006804938 -0.07120785 0.0013941231 -0.010472834 0.0110538015
0.0010512653 0.0060490305 0.002259436 -0.03423628 0.0076539 -0.008249989 0.0041783187 0.0053210845
0.023197656 0.014900104 -0.0071665905 0.02622662 -0.01761607 -0.0015311316 -0.011175033 0.0012729825
-0.0040015955 0.0014717011 0.0047262567 0.00034010923 -0.007601841 0.010174169 0.03521276 0.004043702
0.00910561 -0.007863849 0.014792702 -0.0058331513 0.012535282 0.0049932553 -0.0204363 -0.0006604823
-0.00072573824 0.0009963126 0.0051677558 0.031213958 -0.007151206 -0.008370392 0.003203266 -0.003165523
-0.0046837768 0.007405491 0.0026826612 -0.0036978186 0.004161848 0.0007242835 0.0010409984 0.0020936949
0.01282564 -0.012615695 0.008412246 -0.032685157 0.012698403 -0.035050638 3.2353215e-05 -0.008691857
-0.010287582 -0.0010619019 0.008712502 0.0043820767 -0.007619877 0.0012525865 0.007389353 0.005392299
0.0077064475 -0.007597285 0.0053601293 -0.00864589 0.020832505 -0.009812715 0.024093498 -0.016096871
0.008768908 -0.014341997 0.0031929775 -0.011229869 -0.0012544892 -0.011688221 -0.002355915 -0.0054608043
0.0037992036 -0.0064937836 0.008700492 -0.00017063739 -0.033781577 -0.014109042 -0.0077989264 0.005423788
0.0037295239 -0.0018917504 0.008323757 0.016186241 0.013817092 -0.002218036 -0.005540802 -0.0012313831
0.008711669 -0.005059228 0.012373049 0.009177107 -0.0038584128 0.0049535343 0.0024493793 -0.006248631
0.007280997 -0.003975883 0.016173385 -0.002083948 0.0018415623 0.012497844 0.00090954686 -0.0046902844
-0.0056339633 0.009099228 0.010457176 -0.0056733303 -0.012859119 0.00048464537 -0.013069276 -0.006253748
0.0062652947 0.0041341116 -0.001998568 0.00444794 -0.015086374 -0.017633086 0.00231033 0.005897644
0.0038535167 0.0071656536 0.0023109573 -0.00028590276 -0.017379086 0.004320438 0.004590957 -0.0019913577
-0.020948105 0.008315992 -0.008139301 0.014616362 -0.005716396 0.0071085133 -0.013256823 0.006977001
0.0016958907 0.014416568 -0.006904125 -0.0022092909 0.00401317 -0.0011387011 0.019947607 -0.0030257604
0.005399132 -0.011030948 0.014545937 -0.006393288 0.0076667466 0.0040781666 0.012665798 0.0051622936
-0.0026325146 0.006609667 -0.034201115 -0.02424737 -0.0015670692 -0.009446872 -0.0015689002 0.0025105686
-0.014614373 0.0030970178 -0.0006712489 0.01077822 0.002829665 -0.0047928467 -0.007845815 0.0026967265
0.002904639 -0.00620972 0.010335174 -0.017270898 0.0049260464 -0.009148246 0.007780819 0.000319015
-0.004379262 0.004110817 0.006361043 0.007073274 -0.009405429 0.009456065 0.0057047997 0.001421832
0.010927351 -0.0015026663 0.006980115 -0.00885139 0.013621099 -0.0012984981 0.038290817 0.0027370756
0.004168087 -0.0036079553 -0.0021010074 0.0033165289 -0.0028229803 -0.023156062 -0.010675918 -0.012438169
0.005348233 -0.0059781633 0.0066374177 0.009113043 -0.013542051 -0.0055735265 -0.00035218045 0.0020437674
0.005878628 -0.008496584 0.010277949 0.011789821 0.008690679 -0.007623276 -0.00071020226 -0.006436577
0.004207195 -0.0059899483 0.0061439173 0.026718091 -0.01238768 0.008241192 0.0071410085 -0.0024419683
0.009108575 -0.011046109 0.003291145 0.003850076 0.015178737 0.007149582 -0.00034997123 0.0011639207
-0.007982464 0.007302194 -0.0014505236 -0.0053293454 -0.01681618 -0.010026231 -0.010861488 -0.003651087
00000000: 8fe4 03bd f832 283a 04d8 48bb f5fb de3b
00000010: 6cd5 91bd 02bb b63a 4096 2bbc 011b 353c
00000020: 9cca 893a f236 c63b 0c13 143b 573b 0cbd
00000030: 91cd fa3b f62a 07bc 47ea 883b 7e5c ae3b
00000040: 0309 be3c 911f 743c b8d5 eabb 35d9 d63c
00000050: 944f 90bc 40b0 c8ba 7c17 37bc 34da a63a
00000060: d11f 83bb 18e6 c03a b7de 9a3b b050 b239
00000070: dd18 f9bb 8fb1 263c 413b 103d 0881 843b
00000080: b22f 153c 60d7 00bc 175d 723c 0524 bfbb
00000090: c960 4d3c 769e a33b 076a a7bc 3824 2dba
000000a0: 783f 3eba b496 823a 4756 a93b 6ab4 ff3c
000000b0: aa54 eabb f823 09bc e3ed 513b aa74 4fbb
000000c0: 5e7a 99bb c3a9 f23b 96cf 2f3b 1a57 72bb
000000d0: 1d60 883b d8dd 3d3a 1c72 883a 5f36 093b
000000e0: a222 523c 0fb2 4ebc 84d3 093c dfe0 05bd
000000f0: f60c 503c 4291 0fbd 00b3 0738 4a68 0ebc
00000100: 3f8d 28bc 842f 8bba e2be 0e3c 8697 8f3b
00000110: 29b0 f9bb d42d a43a 6322 f23b e2b1 b03b
00000120: 5e86 fc3b a5f2 f8bb 06a4 af3b 7ea7 0dbc
00000130: eea8 aa3c 83c5 20bc ba5f c53c 96dd 83bc
00000140: 77ab 0f3c b2fa 6abc 4641 513b 7cfd 37bc
00000150: ac6d a4ba f47f 3fbc b265 1abb 8cf0 b2bb
00000160: 0ffc 783b cec9 d4bb 828c 0e3c 20ed 32b9
00000170: 8d5e 0abd 9c29 67bc 238e ffbb 08ba b13b
00000180: 076b 743b 9cf4 f7ba 5e60 083c 0299 843c
00000190: 1661 623c 785c 11bb 9e8f b5bb 5c66 a1ba
000001a0: 63bb 0e3c e1c7 a5bb 54b8 4a3c 945b 163c
000001b0: 6ddd 7cbb 4251 a23b c485 203b 51c1 ccbb
000001c0: 6e95 ee3b 2048 82bb 0c7e 843c d992 08bb
000001d0: 9460 f13a c2c3 4c3c a86e 6e3a f5b0 99bb
000001e0: 1c9d b8bb ee14 153c 9354 2b3c 58e7 b9bb
000001f0: 0eaf 52bc 0018 fe39 8420 56bc 3eec ccbb
00000200: 1a4d cd3b 7177 873b 68fa 02bb 06c0 913b
00000210: d72c 77bc 4373 90bc e868 173b 0641 c13b
00000220: 488b 7c3b dccd ea3b 6e73 173b 38e5 95b9
00000230: 965e 8ebc 7692 8d3b bd6f 963b 7081 02bb
00000240: 5c9b abbc cc3f 083c b45a 05bc 7779 6f3c
00000250: 9b50 bbbb 88ee e83b 2533 59bc 549f e43b
00000260: a648 de3a 7833 6c3c 003c e2bb c0c9 10bb
00000270: e980 833b 7840 95ba 2a69 a33c d64b 46bb
00000280: 34eb b03b 26bb 34bc 1552 6e3c c97e d1bb
00000290: 5539 fb3b 24a2 853b 3584 4f3c 7528 a93b
000002a0: 4486 2cbb e895 d83b 7816 0cbd 6ca2 c6bc
000002b0: 1e66 cdba 0ec7 1abc 8ea3 cdba 5a88 243b
000002c0: 2071 6fbc 56f7 4a3b c0f6 2fba 2297 303c
000002d0: e771 393b 500d 9dbb bc8b 00bc 90bb 303b
000002e0: c25b 3e3b e87a cbbb dd54 293c b37b 8dbc
000002f0: ac6a a13b 86e2 15bc 3ef6 fe3b 7841 a739
00000300: ea7f 8fbb 08b4 863b 4c70 d03b ecc6 e73b
00000310: 3a19 1abc 9ced 1a3c 54ef ba3b c45c ba3a
00000320: a208 333c 1df5 c4ba 73b9 e43b 6c05 11bc
00000330: 082b 5f3c 5e32 aaba d5d6 1c3d 8260 333b
00000340: 7394 883b 7273 6cbb 0eb1 09bb 1f5a 593b
00000350: c001 39bb c8b1 bdbc 0cea 2ebc 76c9 4bbc
00000360: 3b40 af3b 78e4 c3bb b27e d93b df4e 153c
00000370: 7bdf 5dbc 21a2 b6bb dca4 b8b9 baf0 053b
00000380: 82a1 c03b 4235 0bbc d864 283c 182a 413c
00000390: 5a63 0e3c adcc f9bb de2c 3aba ece9 d2bb
000003a0: 82dc 893b 5447 c4bb ea52 c93b e6df da3c
000003b0: b2f5 4abc 1106 073c 1fff e93b 6e09 20bb
000003c0: 223c 153c bdfa 34bc 40b0 573b 8f51 7c3b
000003d0: 3db0 783c 0a47 ea3b 587c b7b9 b38e 983a
000003e0: e1c8 02bc 3e47 ef3b 7f1f beba caa1 aebb
000003f0: 16c2 89bc 1045 24bc 62f4 31bc 1347 6fbb

lstm.bias_ih f4 [512]
-0.12419276 -0.13749959 -0.11971835 -0.1363493 -0.17179728 0.23073582 -0.12845694 -0.11442703
-0.1332238 -0.14691572 -0.11493163 -0.1502607 -0.0045223907 -0.1489644 -0.12519024 -0.13165522
-0.070005804 -0.13189445 -0.12645839 -0.014171058 -0.15840727 -0.11067755 -0.12888378 -0.12424136
-0.13049199 -0.15392227 -0.13410608 -0.13338439 -0.09727673 -0.14257456 -0.07800697 -0.13458352
-0.116561994 -0.100283414 -0.13374977 -0.13503541 -0.11746241 -0.13394563 0.30125633 -0.13675599
-0.1287127 -0.16072644 0.5094119 0.019621547 -0.14491215 -0.10510938 -0.1503021 -0.123980075
-0.09225742 -0.12142661 -0.13062438 -0.10682843 -0.14134622 -0.1211662 -0.1114957 -0.12962769
-0.14081152 -0.19239576 -0.1478557 -0.13830648 -0.16403034 -0.09068205 -0.14451851 -0.1068877
-0.20471294 -0.1148032 -0.13726538 -0.11653292 -0.12620993 -0.13286288 -0.11572419 -0.11962936
-0.14910087 -0.14186086 -0.117232084 -0.13854596 -0.13384354 -0.124482125 0.5718334 -0.13062485
-0.22220069 -0.117025696 -0.14058474 -0.116205014 -0.13936904 0.48509857 -0.10438039 -0.20022355
-0.12899528 -0.12626258 -0.1224929 -0.13238698 -0.2319602 -0.13854188 -0.112512365 -0.14497624
-0.12914126 -0.121491514 -0.118465394 -0.1958726 -0.13224018 -0.12194753 -0.19280885 -0.13238467
-0.12725513 -0.12748921 -0.13454139 0.42147425 -0.12891515 -0.10783104 -0.11638117 -0.124279834
-0.15135373 -0.10373389 -0.17830077 -0.13892502 -0.12322733 -0.14824797 -0.14458063 -0.123028435
-0.19146346 -0.12855287 -0.1485364 -0.13165091 -0.15551919 -0.1164441 -0.11843592 -0.12988296
-0.067808256 -0.08511551 -0.07684303 -0.09002601 0.021451881 -0.08946492 -0.078293055 -0.0882217
-0.08581428 -0.08565515 -0.07109249 -0.16298844 -0.14021505 -0.100252934 -0.078149475 -0.06570964
-0.48794207 -0.080401644 -0.08856391 -0.33833715 -0.089622214 -0.07257351 -0.085942164 -0.0902942
-0.08313571 -0.23287858 -0.09179034 -0.07992377 -0.18243428 -0.09808357 -0.17258583 -0.08864235
-0.0777614 -0.0787324 -0.21427737 -0.08759503 -0.089580804 -0.09170503 -0.046207882 -0.0849184
-0.07796934 -0.102932125 0.2691971 -0.075182565 -0.104780845 -0.07608522 -0.105764665 -0.08878514
-0.19211441 -0.080005325 -0.07940439 -0.07425998 -0.0864413 -0.095065765 -0.06394501 -0.08305515
-0.0976867 -0.16894986 -0.090433426 -0.33003348 -0.11776786 -0.15823263 -0.29282743 -0.07194523
-0.30501977 -0.075076334 -0.09422602 -0.098852314 -0.093688056 -0.12070391 -0.07102233 -0.08196444
-0.12910202 -0.08994145 -0.08871556 -0.08835357 -0.0993178 -0.06655758 0.31860912 -0.08950614
-0.3462158 -0.08489163 -0.08975763 -0.077586375 -0.087955646 0.29875287 -0.09134345 -0.15427311
-0.085841045 -0.08565999 -0.08801158 -0.13063666 -0.21258341 -0.08600186 -0.069999 -0.08768288
-0.10489783 -0.10103381 -0.100224435 -0.1564507 -0.08371033 -0.09154393 -0.12214765 -0.093330346
-0.07208764 -0.10649971 -0.079005994 0.21027213 -0.21502772 -0.09218288 -0.0998353 -0.09681008
-0.2966798 -0.09399923 -0.12487951 -0.093568854 -0.13226332 -0.16660732 -0.10147396 -0.06859359
-0.13399498 -0.081836455 -0.09505273 -0.0927595 -0.21826667 -0.08546162 -0.07656953 -0.077662766
00000000: c658 febd b1cc 0cbe e52e f5bd 279f 0bbe
00000010: a0eb 2fbe 0346 6c3e 378a 03be b858 eabd
00000020: d26b 08be 1371 16be 4661 ebbd f1dd 19be
00000030: 9030 94bb 208a 18be df31 00be a0d0 06be
00000040: 345f 8fbd 570f 07be 4f7e 01be ba2d 68bc
00000050: 8435 22be e9aa e2bd 1cfa 03be 4172 febd
00000060: b19f 05be cd9d 1dbe 1b53 09be eb95 08be
00000070: 0639 c7bd 11ff 11be 1ec2 9fbd 43d0 09be
00000080: 0eb8 eebd 6461 cdbd b3f5 08be b946 0abe
00000090: 2290 f0bd 0b29 09be 453e 9a3e c309 0cbe
000000a0: 43cd 03be 7995 24be d168 023f 5ebd a03c
000000b0: da63 14be 9643 d7bd cbe8 19be 44e9 fdbd
000000c0: 75f1 bcbd 84ae f8bd 66c2 05be ddc8 dabd
000000d0: 10bd 10be fc25 f8bd dc57 e4bd 1fbd 04be
000000e0: e530 10be 6503 45be 7c67 17be 37a0 0dbe
000000f0: 92f7 27be 83b7 b9bd a9fc 13be f0e7 dabd
00000100: 45a0 51be f11d ebbd 4c8f 0cbe d0a8 eebd
00000110: 2d3d 01be 350d 08be ce00 edbd 3d00 f5bd
00000120: e6ad 18be f943 11be 6017 f0bd fede 0dbe
00000130: 480e 09be 7cf0 febd ac63 123f 85c2 05be
00000140: 9488 63be 2bab efbd 72f5 0fbe e5fc edbd
00000150: c2b6 0ebe d75e f83e 63c5 d5bd 6707 4dbe
00000160: 5717 04be fa4a 01be 8fdd fabd 7490 07be
00000170: fa86 6dbe ecdd 0dbe e26c e6bd a774 14be
00000180: 9b3d 04be 8bd0 f8bd fc9d f2bd d492 48be
00000190: f869 07be a0bf f9bd af6f 45be d98f 07be
000001a0: 2b4f 02be 888c 02be 38c5 09be 79cb d73e
000001b0: 5502 04be 85d6 dcbd 4059 eebd 6d86 febd
000001c0: 79fc 1abe 6f72 d4bd 7a94 36be 5c42 0ebe
000001d0: 9c5e fcbd 51ce 17be f20c 14be 55f6 fbbd
000001e0: ff0e 44be 5da3 03be ed19 18be 7fcf 06be
000001f0: 6c40 1fbe 3f7a eebd 888e f2bd 0a00 05be
00000200: 0edf 8abd 0a51 aebd e15f 9dbd 8f5f b8bd
00000210: dbbb af3c 6239 b7bd 1c58 a0bd 94ad b4bd
00000220: 66bf afbd f86b afbd f098 91bd 71e6 26be
00000230: 8994 0fbe 6951 cdbd d50c a0bd c792 86bd
00000240: 8bd3 f9be 9ea9 a4bd ff60 b5bd 873a adbe
00000250: da8b b7bd 6ca1 94bd 7202 b0bd 2aec b8bd
00000260: 0e43 aabd b977 6ebe 93fc bbbd 13af a3bd
00000270: 0dd0 3abe 0ae0 c8bd 57ba 30be 1f8a b5bd
00000280: 5e41 9fbd 743e a1bd 876b 5bbe 0665 b3bd
00000290: 2476 b7bd d9cf bbbd 7a44 3dbd b3e9 adbd
000002a0: 64ae 9fbd 14ce d2bd 34d4 893e 51f9 99bd
000002b0: 5797 d6bd 91d2 9bbd 259b d8bd fcd4 b5bd
000002c0: a4b9 44be d5d9 a3bd c59e a2bd 9e15 98bd
000002d0: 2308 b1bd d7b1 c2bd 9af5 82bd d218 aabd
000002e0: f70f c8bd 3101 2dbe 2935 b9bd 26fa a8be
000002f0: 4730 f1bd bc07 22be 7aed 95be 0558 93bd
00000300: 8d2b 9cbe 9fc1 99bd 92f9 c0bd 1573 cabd
00000310: 86df bfbd 9d33 f7bd 2874 91bd f9dc a7bd
00000320: 5233 04be 3933 b8bd 81b0 b5bd b7f2 b4bd
00000330: 2167 cbbd 574f 88bd bc20 a33e ff4e b7bd
00000340: 3343 b1be aadb adbd d9d2 b7bd 9be5 9ebd
00000350: 1722 b4bd 23f6 983e 4612 bbbd c5f9 1dbe
00000360: 6ecd afbd 816e afbd 6a3f b4bd 9ec5 05be
00000370: 77af 59be be21 b0bd a35b 8fbd 1593 b3bd
00000380: acd4 d6bd d0ea cebd 7842 cdbd 9d34 20be
00000390: 5270 abbd 627b bbbd 8c28 fabd fb23 bfbd
000003a0: afa2 93bd 851c dabd e5cd a1bd 9451 573e
000003b0: 3a30 5cbe 61ca bcbd 7376 ccbd 5d44 c6bd
000003c0: 6ae6 97be ab82 c0bd d4c0 ffbd 07a1 bfbd
000003d0: 0970 07be 1c9b 2abe 94d1 cfbd cc7a 8cbd
000003e0: fb35 09be df99 a7bd 01ab c2bd b1f8 bdbd
000003f0: 4c81 5fbe 8006 afbd 7cd0 9cbd a80d 9fbd

lstm.bias_hh f4 [512]
-0.12512837 -0.13749942 -0.119718425 -0.13634934 -0.17707902 0.20249546 -0.12845561 -0.11442777
-0.13321961 -0.14690596 -0.1149317 -0.14468683 0.0125922505 -0.14315684 -0.12518352 -0.13165373
-0.062813476 -0.13189434 -0.12645856 -0.0058870567 -0.15845107 -0.11067737 -0.12888381 -0.12424103
-0.13049115 -0.15886459 -0.13410608 -0.13338435 -0.102241255 -0.14261091 -0.063734435 -0.13458483
-0.11656195 -0.10028336 -0.13386895 -0.13505957 -0.117462106 -0.13394469 0.31151557 -0.13675627
-0.12871276 -0.16072348 0.50811017 0.032617044 -0.14491215 -0.10510938 -0.15030053 -0.123989984
-0.10891339 -0.12142661 -0.13062486 -0.106828734 -0.14188147 -0.12116613 -0.111496754 -0.12962766
-0.14081135 -0.18964498 -0.1478557 -0.13836981 -0.16404168 -0.044189654 -0.09765355 -0.1068877
-0.1729309 -0.11480322 -0.13726538 -0.11653289 -0.12620975 -0.13286804 -0.11573013 -0.119629644
-0.14836904 -0.14186563 -0.11723198 -0.13854598 -0.1338476 -0.12440482 0.5714835 -0.130614
-0.24853718 -0.11702648 -0.1405868 -0.116204865 -0.13936907 0.4921254 -0.10438086 -0.20628506
-0.12901005 -0.12626675 -0.12249381 -0.13199483 -0.2480291 -0.13854186 -0.112512365 -0.14497623
-0.12914126 -0.12149432 -0.11846493 -0.20272297 -0.13224018 -0.12194745 -0.19247164 -0.13237806
-0.12724218 -0.12748 -0.1345412 0.43743932 -0.13764718 -0.10783115 -0.11638117 -0.12427988
-0.2487519 -0.10373403 -0.17826629 -0.1389096 -0.12186696 -0.14260028 -0.14458023 -0.12302918
-0.19309694 -0.1285529 -0.14858139 -0.13173589 -0.1572918 -0.11644407 -0.11843411 -0.12988296
-0.06775303 -0.08511551 -0.07684303 -0.09002601 0.028303986 -0.102400586 -0.078293055 -0.0882217
-0.08581428 -0.08565517 -0.07109249 -0.16327184 -0.13341506 -0.100346155 -0.078149475 -0.06570964
-0.42877114 -0.080401644 -0.08856391 -0.40722016 -0.089622155 -0.07257351 -0.085942164 -0.0902942
-0.08313571 -0.23127885 -0.09179034 -0.07992377 -0.18209425 -0.09808353 -0.1688382 -0.08864235
-0.0777614 -0.0787324 -0.2153037 -0.08759503 -0.089580804 -0.09170503 -0.07034368 -0.0849184
-0.07796934 -0.102932125 0.268143 -0.05228303 -0.104780845 -0.07608522 -0.105764665 -0.08878514
-0.18960992 -0.080005325 -0.07940439 -0.07425998 -0.08641969 -0.095065765 -0.06394501 -0.08305515
-0.0976867 -0.16871011 -0.090433426 -0.32701236 -0.11776786 -0.15717135 -0.3136318 -0.07194523
-0.30223617 -0.075076334 -0.09422602 -0.098852314 -0.093688056 -0.12070391 -0.07102233 -0.08196444
-0.12909898 -0.08994145 -0.08871556 -0.08835357 -0.0993178 -0.06655543 0.31986138 -0.08950614
-0.32102013 -0.08489163 -0.08975763 -0.077586375 -0.087955646 0.2916898 -0.09134345 -0.15323281
-0.08584098 -0.08565999 -0.08801158 -0.13063906 -0.19967593 -0.08600186 -0.069999 -0.08768288
-0.10489783 -0.10103381 -0.100224435 -0.15652755 -0.08371033 -0.09154393 -0.12214835 -0.093330346
-0.07208764 -0.106499694 -0.079005994 0.22584273 -0.22713472 -0.09218288 -0.0998353 -0.09681008
-0.31362846 -0.09399923 -0.124875754 -0.093568854 -0.13205157 -0.16656539 -0.10147396 -0.06859359
-0.13411441 -0.081836455 -0.09505273 -0.09275947 -0.21571453 -0.08546162 -0.07656953 -0.077662766
00000000: a721 00be a6cc 0cbe ef2e f5bd 299f 0bbe
00000010: 3454 35be f85a 4f3e de89 03be 1b59 eabd
00000020: b96a 08be 846e 16be 5061 ebbd c928 14be
00000030: ba4f 4e3c b597 12be 1c30 00be 3cd0 06be
00000040: 5aa4 80bd 4f0f 07be 5a7e 01be 36e8 c0bb
00000050: ff40 22be d1aa e2bd 1efa 03be 1572 febd
00000060: 799f 05be 66ad 22be 1b53 09be e895 08be
00000070: dd63 d1bd 9808 12be 3387 82bd 9bd0 09be
00000080: 08b8 eebd 5d61 cdbd f114 09be 0e4d 0abe
00000090: f98f f0bd cc28 09be f87e 9f3e d609 0cbe
000000a0: 47cd 03be b294 24be 8213 023f 7399 053d
000000b0: da63 14be 9643 d7bd 62e8 19be 76ee fdbd
000000c0: fc0d dfbd 84ae f8bd 86c2 05be 06c9 dabd
000000d0: 6049 11be f325 f8bd 6958 e4bd 1dbd 04be
000000e0: da30 10be 4b32 42be 7c67 17be d1b0 0dbe
000000f0: 8bfa 27be 3600 35bd 96fe c7bd f0e7 dabd
00000100: cc14 31be f31d ebbd 4c8f 0cbe cca8 eebd
00000110: 213d 01be 8f0e 08be eb03 edbd 6300 f5bd
00000120: 0eee 17be 3945 11be 5217 f0bd ffde 0dbe
00000130: 580f 09be f4c7 febd be4c 123f adbf 05be
00000140: 8880 7ebe 94ab efbd fcf5 0fbe d1fc edbd
00000150: c4b6 0ebe dcf7 fb3e a2c5 d5bd 643c 53be
00000160: 361b 04be 124c 01be 09de fabd a729 07be
00000170: 57fb 7dbe ebdd 0dbe e26c e6bd a674 14be
00000180: 9b3d 04be 04d2 f8bd be9d f2bd 9c96 4fbe
00000190: f869 07be 96bf f9bd 4917 45be 1d8e 07be
000001a0: c64b 02be 1e8a 02be 2bc5 09be 0cf8 df3e
000001b0: 62f3 0cbe 94d6 dcbd 4059 eebd 7386 febd
000001c0: d1b8 7ebe 8272 d4bd 708b 36be 513e 0ebe
000001d0: 6295 f9bd cf05 12be d70c 14be b9f6 fbbd
000001e0: 34bb 45be 5fa3 03be b825 18be c6e5 06be
000001f0: 1a11 21be 3b7a eebd 958d f2bd 0a00 05be
00000200: 1ac2 8abd 0a51 aebd e15f 9dbd 8f5f b8bd
00000210: c3dd e73c 66b7 d1bd 1c58 a0bd 94ad b4bd
00000220: 66bf afbd fa6b afbd f098 91bd bc30 27be
00000230: f59d 08be 4982 cdbd d50c a0bd c792 86bd
00000240: e487 dbbe 9ea9 a4bd ff60 b5bd 297f d0be
00000250: d28b b7bd 6ca1 94bd 7202 b0bd 2aec b8bd
00000260: 0e43 aabd 5dd4 6cbe 93fc bbbd 13af a3bd
00000270: ea76 3abe 05e0 c8bd ece3 2cbe 1f8a b5bd
00000280: 5e41 9fbd 743e a1bd 9378 5cbe 0665 b3bd
00000290: 2476 b7bd d9cf bbbd 5910 90bd b3e9 adbd
000002a0: 64ae 9fbd 14ce d2bd 0a4a 893e bb26 56bd
000002b0: 5797 d6bd 91d2 9bbd 259b d8bd fcd4 b5bd
000002c0: 1a29 42be d5d9 a3bd c59e a2bd 9e15 98bd
000002d0: cefc b0bd d7b1 c2bd 9af5 82bd d218 aabd
000002e0: f70f c8bd 58c2 2cbe 2935 b9bd 2a6e a7be
000002f0: 4730 f1bd 87f1 20be 5994 a0be 0558 93bd
00000300: b3be 9abe 9fc1 99bd 92f9 c0bd 1573 cabd
00000310: 86df bfbd 9d33 f7bd 2874 91bd f9dc a7bd
00000320: 8632 04be 3933 b8bd 81b0 b5bd b7f2 b4bd
00000330: 2167 cbbd 374e 88bd dfc4 a33e ff4e b7bd
00000340: c05c a4be aadb adbd d9d2 b7bd 9be5 9ebd
00000350: 1722 b4bd 5e58 953e 4612 bbbd 10e9 1cbe
00000360: 65cd afbd 816e afbd 6a3f b4bd 3fc6 05be
00000370: d977 4cbe be21 b0bd a35b 8fbd 1593 b3bd
00000380: acd4 d6bd d0ea cebd 7842 cdbd c248 20be
00000390: 5270 abbd 627b bbbd ea28 fabd fb23 bfbd
000003a0: afa2 93bd 831c dabd e5cd a1bd 5143 673e
000003b0: 0196 68be 61ca bcbd 7376 ccbd 5d44 c6bd
000003c0: e993 a0be ab82 c0bd dcbe ffbd 07a1 bfbd
000003d0: 8738 07be 1e90 2abe 94d1 cfbd cc7a 8cbd
000003e0: 4a55 09be df99 a7bd 01ab c2bd adf8 bdbd
000003f0: 45e4 5cbe 8006 afbd 7cd0 9cbd a80d 9fbd

output_w.weight f4 [5, 128]
-0.007947012 -0.0017647345 -1.409027e-05 -0.0008259285 -0.004845242 -0.027694892 0.0010743481 0.006013755
0.0049594166 -0.003736218 -0.0010116487 -0.019960096 -0.025321031 -0.005791788 -0.00078295195 0.002817343
-0.35874283 -1.2737903e-05 -0.0081427405 0.17977946 0.013182634 0.00936827 -0.0109964935 0.00707757
0.0010094673 0.043424502 -0.012107002 -0.0021989918 -0.020345625 -0.0017037047 0.03404632 -0.0036118128
-0.004997242 -0.0007136848 0.02127991 -0.0008684149 0.004357768 0.0036042603 0.052116554 -0.0017981571
-0.004502886 0.006654297 0.006732083 -0.032611273 0.0012015454 0.0052390764 -0.00351514 -0.0051101684
-0.023880458 0.0031924034 -0.0047094487 0.011750863 0.015778866 -0.0053306893 0.0019708108 -0.0068332395
0.0017618994 -0.05181642 0.0031951992 0.079018936 -0.0080471495 -0.15039566 0.14855711 0.0028102323
-0.014882473 -0.005126866 0.00139495 0.0029475018 -0.007156417 -0.00562948 0.010143739 0.0033401784
-0.01099619 -0.0043764017 0.00020185532 -0.002637698 0.0034722858 0.00867384 -0.15710348 -0.0057389643
0.29480353 -0.004007425 -0.0040988317 0.0050750077 0.001121344 0.13966158 0.00084663206 -0.07346325
-0.005793066 -0.010689283 0.010578852 -0.011037771 -0.066488564 -0.006576406 -0.0022084012 0.00276371
0.007415301 -0.005761221 0.005593516 0.043534458 0.005199157 0.0040587373 0.012861812 -0.0016261
0.00022873608 0.0028576278 -0.007315797 0.025129553 -0.11397653 0.0017514892 0.0062324135 -0.000656054
0.15943763 -0.0033596451 -0.02307479 0.001316406 -0.0023784516 0.01742404 -0.0017999863 -0.004496947
-0.003356475 -0.0045434 -0.0016803765 0.003783123 -0.000119831006 -0.0107150655 -0.0034503806 0.0051701595
0.023206286 0.0053805807 -0.0030041758 0.00027259017 -0.118333444 -0.0771873 0.0023353081 0.0051175863
0.007933097 0.01629363 -0.004061656 0.03306864 0.02253151 -0.043455318 0.018451054 -0.01619364
0.4916337 -0.002746007 0.0019314755 0.39781532 -0.042153243 0.0005383539 -0.00046951382 -0.0035689953
0.0007386529 -0.0407306 0.011382854 -0.007629878 -0.021859625 -0.008557593 0.0548606 -0.00588103
0.005843028 -0.0026635444 0.008983176 -0.008006632 0.005551809 0.0087050935 -0.04374475 0.005211884
0.0018790133 0.0064177588 0.097293265 0.09745946 -0.00081751775 0.0038784589 0.0029713735 0.019117182
0.008223532 -0.0045568924 -0.00603542 -0.0041032345 -0.028637622 -0.0073862043 -0.016279325 0.008046942
-0.004004931 0.026585916 -0.0037609758 -0.039002035 0.00980629 -0.011045521 -0.044359062 -0.004788084
-0.11371508 -0.0022113326 0.0015662409 -0.002446617 0.0066244416 0.012073889 7.514516e-05 0.010444948
-0.015972678 0.013030893 0.0016552559 0.0002520833 -0.0014860991 -0.009421134 -0.037445053 0.0053986497
0.14174668 0.000798031 -0.006072759 0.005606977 0.0009635452 -0.060110845 0.0065211924 0.026672903
0.003377061 0.004688298 -0.00035331747 -0.007975767 -0.0060303593 -0.0019487101 -0.006572414 0.009990615
-0.005527853 0.005667935 0.00057730614 -0.03716075 -0.0010755734 0.0022009998 -0.051622137 -0.004961587
0.018526679 -0.009286464 -0.009861706 0.09442997 0.020366684 0.0012341902 -0.0011078937 -0.001416476
0.09942273 0.008737189 0.016564643 0.0013165427 -0.0144733405 -0.015336379 0.00697756 0.0038563837
0.038271446 0.004500014 -0.006736112 -0.007137555 0.021643823 0.0007566223 -0.0020805937 -0.00040287388
00000000: 2f34 02bc aa4e e7ba 4065 6cb7 2083 58ba
00000010: d6c4 9ebb 66e0 e2bc 24d1 8c3a 090f c53b
00000020: 9a82 a23b 56db 74bb 4c99 84ba 5b83 a3bc
00000030: 0d6e cfbc 0ac9 bdbb 043f 4dba 2ca3 383b
00000040: 24ad b7be e0b4 55b7 2169 05bc 1b18 383e
00000050: f9fb 573c 5f7d 193c a32a 34bc f6ea e73b
00000060: 1a50 843a e4dd 313d 725c 46bc f61c 10bb
00000070: deab a6bc d84e dfba 2774 0b3d 2ab4 6cbb
00000080: e7bf a3bb 9416 3bba 3553 ae3c 56a6 63ba
00000090: 9ccb 8e3b 7435 6c3b 2b78 553d 24b0 ebba
000000a0: f28c 93bb 4a0c da3b ce98 dc3b 6693 05bd
000000b0: 2c7d 9d3a 8fac ab3b 435e 66bb 3373 a7bb
000000c0: f3a0 c3bc a437 513b b851 9abb b186 403c
000000d0: ae42 813c 10ad aebb b828 013b 5ee9 dfbb
000000e0: 89ef e63a 743d 54bd 8c66 513b aed4 a13d
000000f0: 31d8 03bc 5201 1abe 5b1f 183e e02b 383b
00000100: 9ed5 73bc 45ff a7bb c1d6 b63a e02a 413b
00000110: 6080 eabb 8077 b8bb ed31 263c e5e6 5a3b
00000120: 5d29 34bc eb67 8fbb 20a9 5339 3bdd 2cbb
00000130: 4a8f 633b b91c 0e3c bcdf 20be ec0d bcbb
00000140: 7df0 963e b850 83bb 7e4f 86bb 404c a63b
00000150: 10fa 923a 7203 0f3e 84f0 5d3a e773 96bd
00000160: c3d3 bdbb 1a22 2fbc ec52 2d3c c4d7 34bc
00000170: 282b 88bd e47e d7bb d3ba 10bb 5c1f 353b
00000180: 0efc f23b a0c8 bcbb d049 b73b 3051 323d
00000190: b15d aa3b 28ff 843b 59ba 523c dd22 d5ba
000001a0: e0d8 6f39 0a47 3b3b 5ab9 efbb 7edc cd3c
000001b0: 876c e9bd 3a92 e53a 4639 cc3b 0afb 2bba
000001c0: 9e43 233e 7e2d 5cbb 5807 bdbc 418b ac3a
000001d0: ccdf 1bbb dcbc 8e3c 85ed ebba 205b 93bb
000001e0: 4ef8 5bbb cde0 94bb 1440 dcba 46ee 773b
000001f0: c84d fbb8 3e8e 2fbc c81f 62bb 716a a93b
00000200: 1c1b be3c 954f b03b b5e1 44bb 6fea 8e39
00000210: ce58 f2bd 6014 9ebd f80b 193b 6db1 a73b
00000220: d2f9 013c 387a 853c a417 85bb fb72 073d
00000230: 0094 b83c 34fe 31bd aa26 973c 86a8 84bc
00000240: 6ab7 fb3e 5af6 33bb 9029 fd3a 73ae cb3e
00000250: e1a8 2cbd 5220 0d3a 1429 f6b9 cee5 69bb
00000260: 28a2 413a 21d5 26bd 267f 3a3c 0e04 fabb
00000270: f512 b3bc 2635 0cbc 82b5 603d a8b5 c0bb
00000280: df76 bf3b dc8e 2ebb 2c2e 133c 402e 03bc
00000290: f3eb b53b cf9f 0e3c b22d 33bd 74c8 aa3b
000002a0: 3949 f63a 104c d23b b141 c73d d398 c73d
000002b0: b04e 56ba be2d 7e3b 60bb 423b a39b 9c3c
000002c0: febb 063c fc51 95bb c6c4 c5bb 6d74 86bb
000002d0: 7299 eabc f907 f2bb 385c 85bc 52d7 033c
000002e0: cc3b 83bb b5ca d93c b47a 76bb 99c0 1fbd
000002f0: 90aa 203c 46f8 34bc d9b1 35bd 5ce5 9cbb
00000300: 74e3 e8bd 01ec 10bb 534a cd3a 6c57 20bb
00000310: d811 d93b 90d1 453c 4097 9d38 4a21 2b3c
00000320: 22d9 82bc 877f 553c 2cf5 d83a 0c2a 8439
00000330: 36c9 c2ba 1a5b 1abc fc5f 19bd 28e7 b03b
00000340: 0b26 113e f432 513a fffd c6bb bbba b73b
00000350: 6c96 7c3a ca36 76bd baaf d53b 2281 da3c
00000360: af51 5d3b 4ba0 993b 783d b9b9 cbac 02bc
00000370: 529a c5bb dc6b ffba 685d d7bb adaf 233c
00000380: fe22 b5bb 16ba b93b 5c56 173a df35 18bd
00000390: 41fa 8cba a63e 103b bc71 53bd cf94 a2bb
000003a0: 43c5 973c 4126 18bc fe92 21bc 8064 c13d
000003b0: 08d8 a63c 8dc4 a13a be36 91ba 0ca9 b9ba
000003c0: 259e cb3d 6d26 0f3c 93b2 873c d88f ac3a
000003d0: 9721 6dbc 7045 7bbc 04a4 e43b 62bb 7c3b
000003e0: 85c2 1c3d da74 933b 9aba dcbb 27e2 e9bb
000003f0: 634e b13c 1058 463a 925a 08bb d138 d3b9

output_w.bias f4 [5]
-0.033071134 0.056204073 -0.84455 -0.8839235 -0.123132035
00000000: 9975 07bd 3e36 663d 6e34 58bf cf48 62bf
00000010: a62c fcbd

square_avg f4 [64]
0.01872871 0.115084015 0.07140756 8.402478e-11 0.00050218904 0.0021910144 0.0073850323 8.639186e-09
0.003089108 4.9344107e-09 0.014316979 0.016944949 0.05415005 0.008673815 0.002002346 4.233169e-05
0.00015063936 2.1201944e-05 0.0043255785 0.2706368 7.484408e-11 0.0030482737 3.279652e-07 5.554462e-09
0.016707413 3.272055e-11 0.03574635 0.000987115 0.093911305 0.053784758 0.011088574 0.01800992
0.0263235 0.04313572 0.05070454 0.011617671 0.08652614 0.028373873 0.000544343 0.0025815016
0.016856339 4.519067e-11 0.0034517786 0.003965796 0.0017934386 3.052998e-08 0.0143341515 0.011010078
0.000703619 0.11499458 4.85841e-09 0.030067274 7.809822e-11 6.892126e-06 0.033958647 0.0015856376
0.0055813016 5.6926828e-11 4.037285e-08 0.02890764 0.020831568 0.012074747 0.014497424 0.008571108
00000000: f46c 993c 2bb1 eb3d 203e 923d bfc5 b82e
00000010: 56a5 033a 1f97 0f3b 24fe f13b 8b6b 1432
00000020: a272 4a3b 898b a931 c391 6a3c 22d0 8a3c
00000030: 71cc 5d3d 9e1c 0e3c cb39 033b 4e8d 3138
00000040: f2f4 1d39 d4da b137 95bd 8d3b e890 8a3e
00000050: 7995 a42e 8cc5 473b 3213 b034 90d9 be31
00000060: fcdd 883c 10e8 0f2e c46a 123d 1562 813a
00000070: 9254 c03d 684d 5c3d daac 353c 8a89 933c
00000080: 61a4 d73c 15af 303d 90af 4f3d 0b58 3e3c
00000090: 9e34 b13d 5370 e83c 3eb2 0e3a 692e 293b
000000a0: 4e16 8a3c 2cc0 462e 3c37 623b 82f3 813b
000000b0: d011 eb3a 1120 0333 cad9 6a3c 9d63 343c
000000c0: 1273 383a 4782 eb3d 07ef a631 a54f f63c
000000d0: 64bd ab2e e942 e736 3918 0b3d 2bd5 cf3a
000000e0: 5ae3 b63b e95d 7a2e 6b66 2d33 b7cf ec3c
000000f0: f7a6 aa3c 29d5 453c 9a86 6d3c d56d 0c3c

square_avg f4 [5]
6.7114882 6.778902 0.27708805 0.26284704 0.018527268
00000000: 83c4 d640 c4ec d840 7cde 8d3e e393 863e
00000010: 7fc6 973c
